backend/trained_models/ADBL_GRU_model_state_dict.pth (torch, 126723 bytes, 5 tensors)

rnn.weight_ih_l0 f4 [300, 1]
0.09118232 0.111841395 0.016377786 0.045443006 -0.030138195 -0.027571633 0.12384356 0.121268444
0.06310729 0.0018706421 -0.11429378 0.079712555 -0.017400382 -0.026746038 -0.047698665 0.061090786
-0.032687314 -0.07541491 -0.08492863 0.086413436 -0.015227372 -0.078846216 0.10660998 0.062261287
-0.039312772 0.014670329 -0.048042938 -0.026051307 0.07394517 -0.057897206 -0.012034081 -0.0061983033
-0.09927295 -0.014023603 0.08414386 0.083196156 -0.0051359716 0.0464131 -0.076802105 -0.06968012
-0.06498155 -0.006832886 0.088256225 0.031482384 0.033944216 0.061267354 0.04289128 0.10457959
-0.011075791 -0.076874755 0.075737335 0.11509888 -0.119929306 0.10125179 -0.00394033 0.008292703
0.022020472 0.08874237 -0.042788614 -0.08548676 0.10644957 0.06398823 -0.019355068 -0.04465205
-0.018203788 0.049658 0.10880849 -0.003282026 0.05005761 0.112176895 -0.068921 -0.115882
-0.097653754 -0.03534325 0.022893734 0.00012533525 -0.044965904 -0.09581556 -0.06981868 0.035988066
0.03882033 0.02649072 0.09534728 -0.053644374 -0.04263899 -0.046120334 0.014515286 0.005754231
0.11713657 0.066401064 0.064116724 0.11255238 -0.10931337 -0.05813565 0.04998394 -0.041302174
0.115485184 0.06981571 -0.022154992 0.0013268632 -0.1420712 -0.112524964 0.04637228 -0.13135633
0.034487918 0.0130329225 -0.11766292 0.010688523 -0.0392856 0.07515692 -0.13169941 -0.026006445
0.0312509 -0.060522538 0.019005593 -0.08743244 -0.04919943 0.05519 -0.11905518 -0.08729157
0.017133152 0.007630055 0.03767394 0.16710277 -0.117234625 0.007924537 -0.119456686 -0.055649467
0.022777729 -0.08764653 -0.003195056 0.00598662 -0.10282542 -0.09166693 -0.08443337 0.05631013
-0.014275005 -0.03264277 -0.016778912 -0.14169279 0.042668674 -0.12252356 -0.05341764 0.0051760236
-0.060814697 -0.14390163 -0.03813107 0.034555405 0.034497887 -0.0098148165 0.025727736 -0.12220851
-0.024995081 0.03575883 -0.07238465 0.023725798 -0.08949999 0.036286887 -0.09116836 -0.16003117
0.03239329 0.02704217 0.011090304 -0.03279745 0.010941019 -0.08914243 -0.07545584 -0.075878724
0.0046901335 -0.020762691 -0.051669568 0.0211539 -0.089127876 0.083968654 -0.084141575 0.06982285
-0.05541925 -0.11960532 0.041646834 -0.13906656 -0.03993795 -0.14805806 -0.013538938 -0.14176394
0.00925228 0.06944504 -0.12573141 -0.033590846 -0.082171194 -0.034896668 -0.011438868 -0.048566848
0.024180831 -0.13409807 -0.084897704 -0.040535584 -0.11413623 -0.05464227 -0.076136746 -0.054444738
-0.12935252 0.013780494 -0.06570427 -0.060998883 0.0011012827 -0.06597753 -0.035012517 -0.015048425
0.034671742 -0.030716812 0.13098417 0.077428 0.04844709 -0.13103949 -0.064286135 0.06912591
0.028955583 -0.056176525 0.009730258 -0.05034963 -0.0016822709 0.10905876 0.046212565 0.05876974
0.047831655 -0.09810765 -0.069256835 -0.083663024 0.08834871 0.041418232 0.06274543 -0.056840498
0.068730846 0.09249827 -0.07568401 -0.043518733 0.069641754 0.07804305 -0.111013226 0.108581685
-0.0714585 0.077380925 -0.049516108 -0.08271704 -0.03510697 -0.094326384 0.03627173 -0.031621728
0.055889796 -0.009337309 0.06417219 0.0380193 0.09573553 0.07115321 -0.08800923 -0.043916468
00000000: ccbd ba3d 1a0d e53d b52a 863c 7222 3a3d
00000010: 60e4 f6bc e8dd e1bc b1a1 fd3d 975b f83d
00000020: 653e 813d 5530 f53a db12 eabd 5640 a33d
00000030: 3f8b 8ebc 821a dbbc ad5f 43bd 553a 7a3d
00000040: 22e3 05bd 2273 9abd 10ef adbd 87f9 b03d
00000050: 3a7c 79bc 207a a1bd 5556 da3d b105 7f3d
00000060: 6e06 21bd d25b 703c acc8 44bd 8d69 d5bc
00000070: 9170 973d 9f25 6dbd 982a 45bc 231b cbbb
00000080: 9e4f cbbd 41c3 65bc 9e53 ac3d bf62 aa3d
00000090: a74b a8bb aa1b 3e3d 6c4a 9dbd 73b4 8ebd
000000a0: 0c15 85bd 67e6 dfbb aebf b43d acf3 003d
000000b0: 1709 0b3d 7af3 7a3d c4ae 2f3d d32d d63d
000000c0: 3c77 35bc 8370 9dbd 2d1c 9b3d f6b8 eb3d
000000d0: 7f9d f5bd 195d cf3d e21d 81bb 1ede 073c
000000e0: 4764 b43c 8fbe b53d 1d43 2fbd af13 afbd
000000f0: 3b02 da3d 430c 833d 858e 9ebc 11e5 36bd
00000100: 1c20 95bc 3066 4b3d fcd6 de3d 4217 57bb
00000110: 3509 4d3d 00bd e53d 7426 8dbd 8b53 edbd
00000120: b1fe c7bd 15c4 10bd a48b bb3c 6d6c 0339
00000130: 2b2e 38bd f33a c4bd 19fd 8ebd 3968 133d
00000140: 1102 1f3d 1103 d93c 6f45 c33d 34ba 5bbd
00000150: 39a6 2ebd ade8 3cbd 86d1 6d3c fd8d bc3b
00000160: 4ce5 ef3d 48fd 873d a14f 833d dd81 e63d
00000170: b0df dfbd a61f 6ebd f6bb 4c3d 782c 29bd
00000180: 7f83 ec3d 8afb 8e3d 637e b5bc 24ea ad3a
00000190: 1d7b 11be 7d73 e6bd dcf0 3d3d 4682 06be
000001a0: 3443 0d3d 0a88 553c 42f9 f0bd ea1e 2f3c
000001b0: f0e9 20bd dfeb 993d 36dc 06be 780b d5bc
000001c0: f200 003d 7be6 77bd 9eb1 9b3c c70f b3bd
000001d0: 5785 49bd e90e 623d 34d3 f3bd ecc5 b2bd
000001e0: d35a 8c3c 8a05 fa3b fd4f 1a3d fd1c 2b3e
000001f0: b518 f0bd ebd5 013c b5a5 f4bd b2f0 63bd
00000200: 5c98 ba3c 0680 b3bd 2564 51bb 692b c43b
00000210: 2296 d2bd dfbb bbbd 67eb acbd 73a5 663d
00000220: b6e1 69bc 6db4 05bd ee73 89bc ea17 11be
00000230: 59c5 2e3d a2ed fabd 75cc 5abd a29b a93b
00000240: d518 79bd f35a 13be 532f 1cbd f889 0d3d
00000250: a84d 0d3d 53ce 20bc f9c2 d23c 7548 fabd
00000260: 7cc2 ccbc da77 123d 673e 94bd 9b5c c23c
00000270: c54b b7bd 8fa1 143d 7ab6 babd 36df 23be
00000280: d4ae 043d 8a87 dd3c 1bb4 353c 9e56 06bd
00000290: f641 333c 4e90 b6bd 9788 9abd 4e66 9bbd
000002a0: b1af 993b 8516 aabc 78a3 53bd f24a ad3c
000002b0: ad88 b6bd c2f7 ab3d 6b52 acbd 48ff 8e3d
000002c0: 4cff 62bd a2f3 f4bd df95 2a3d 7767 0ebe
000002d0: fa95 23bd 889c 17be 6cd2 5dbc 912a 11be
000002e0: e096 173c 3339 8e3d bcbf 00be 8e96 09bd
000002f0: 5f49 a8bd cfef 0ebd 176a 3bbc 08ee 46bd
00000300: e116 c63c 0151 09be d9de adbd a408 26bd
00000310: 41c0 e9bd 93d0 5fbd 95ed 9bbd 7201 5fbd
00000320: fd74 04be 95c7 613c f68f 86bd f7d9 79bd
00000330: ea58 903a 3a1f 87bd 4969 0fbd ab8d 76bc
00000340: f503 0e3d d3a1 fbbc b720 063e 9292 9e3d
00000350: 7570 463d 372f 06be 73a8 83bd e391 8d3d
00000360: 4234 ed3c 5b19 66bd a96b 1f3c 6a3b 4ebd
00000370: a57f dcba 335a df3d 6349 3d3d 8ab8 703d
00000380: 20eb 433d aaec c8bd 87d6 8dbd 8557 abbd
00000390: 2bf0 b43d 2aa6 293d ad80 803d 95d1 68bd
000003a0: c2c2 8c3d bc6f bd3d 3800 9bbd b340 32bd
000003b0: 56a0 8e3d 09d5 9f3d e75a e3bd 1360 de3d
000003c0: d658 92bd e479 9e3d 67d1 4abd 8d67 a9bd
000003d0: 54cc 0fbd 312e c1bd aa91 143d c985 01bd
000003e0: b3ec 643d 83fb 18bc b66c 833d 20ba 1b3d
000003f0: fd10 c43d c6b8 913d 2f3e b4bd c1e1 33bd

rnn.weight_hh_l0 f4 [300, 100]
0.014462587 0.0014750586 0.03624157 -0.034399267 -0.08827874 -0.027669933 0.065244414 0.07583557
0.07937283 -0.07136014 0.09248749 0.093687125 -0.08533618 0.08120812 0.07834151 0.0034213918
0.014721202 -0.008527684 0.11558835 0.13132793 0.11458045 0.06862167 0.057527523 -0.05477193
-0.090682104 0.05656371 0.12006689 -0.06445471 0.103887446 0.048796434 -0.09162661 0.048830956
0.014132024 0.047967155 -0.036680266 0.041828472 -0.06070752 0.06749769 -0.011975667 -0.051369116
-0.017142614 -0.072695866 -0.048360694 0.036286797 0.08945847 -0.08588266 -0.082980156 0.015701145
-0.05306692 -0.08206722 0.10284882 -0.08670518 -0.07967261 0.10136145 0.08303965 0.029730083
-0.09798094 0.07553271 0.06492416 0.002143131 0.09663396 -0.002474454 -0.07577593 -0.06352233
0.022126863 -0.019880833 -0.087894306 -0.036064804 -0.026390802 0.046779122 0.010721831 -0.03766079
-0.0655519 -0.015648693 0.02589321 0.10377717 -0.028426876 0.012451943 0.03837318 0.025561128
0.016915932 0.062738776 0.09719512 -0.0063108476 0.042183146 -0.054695457 0.08903154 -0.051074542
-0.103883535 0.014792833 0.06042174 -0.055566136 0.0949539 -0.026361208 0.016783053 -0.05054183
-0.0071383757 -0.089161046 -0.0039067017 0.0038405706 -0.040204998 -0.07054525 -0.0046116877 0.03437317
-0.02479388 0.07216878 0.0077269734 -0.075454846 0.03514554 0.024492698 -0.04185011 -0.05332385
-0.04952339 0.011853097 -0.05398245 0.09190411 0.086730696 0.061504766 0.09338381 -0.062349964
0.022675019 -0.052749116 0.101992086 -0.042847563 -0.017093504 -0.03207185 0.10088635 -0.076756835
0.016229825 -0.10227935 0.0875149 0.06778043 0.027516643 0.027883686 -0.11630825 0.09030553
0.094403885 0.025896741 0.06636217 -0.06226021 -0.001984756 0.108063586 -0.031093637 -0.060873397
0.06967927 -0.06866478 0.03315677 -0.071714304 0.060771905 -0.009508631 0.0062820353 -0.017721338
0.031747017 -0.022064773 -0.041960526 -0.005276171 0.024216646 -0.11108603 -0.033911206 -0.04363645
-0.049337555 -0.053463545 -0.06862152 0.08811628 -0.0015431447 -0.063209586 -0.07681559 -0.09810712
0.063769974 -0.06526643 0.023748958 -0.0053846915 0.057574257 -0.07142073 -0.02866568 0.048865546
-0.115122385 -0.0009985972 0.103196666 -0.076459035 -0.07469179 -0.0345645 -0.085974514 0.038795505
-0.007985353 0.07484264 -0.06011481 -0.10063293 0.068362184 -0.05703613 -0.049607124 -0.0419336
-0.048722725 -0.07540541 -0.05853711 -0.063830525 0.06432683 -0.04780427 -0.024876 0.034555133
-0.12221588 0.08890588 -0.08768321 0.07449106 0.034452796 -0.037712246 0.036348734 -0.016611546
-0.044389833 0.06858327 0.07768631 0.086138025 0.0920548 0.058488663 0.079540804 0.05511194
-0.016404085 0.021422362 0.030833002 0.027266912 -0.06922169 0.072929606 0.03779501 0.063681535
0.03145672 0.062267985 -0.004661756 -0.017784705 -0.022467745 0.050217215 0.027147805 0.021349268
-0.026337538 -0.023685498 -0.04301764 0.13039584 0.026712025 -0.053052444 -0.026959093 0.05902588
-0.003576023 0.12388966 -0.045188986 -0.08693581 -0.10551298 -0.12413243 -0.0718504 -0.047699984
0.03859254 0.070211716 0.07019575 0.01412023 0.047587696 -0.008806526 0.038787514 0.050257426
00000000: 7df4 6c3c c156 c13a 0a72 143d 3fe6 0cbd
00000010: 7ccb b4bd 0eac e2bc dd9e 853d ae4f 9b3d
00000020: 398e a23d 4425 92bd 156a bd3d 09df bf3d
00000030: bcc4 aebd 7150 a63d 8371 a03d 6e39 603b
00000040: 3231 713c b3b7 0bbc 96b9 ec3d d47a 063e
00000050: 28a9 ea3d 8589 8c3d fba1 6b3d 8858 60bd
00000060: 8ab7 b9bd 59af 673d a1e5 f53d d500 84bd
00000070: f1c2 d43d c5de 473d bba6 bbbd f802 483d
00000080: 018a 673c 3579 443d 0c3e 16bd 5554 2b3d
00000090: 73a8 78bd 3b3c 8a3d 9735 44bc 6c68 52bd
000000a0: ab6e 8cbc 92e1 94bd dd15 46bd 77a1 143d
000000b0: 0136 b73d 3fe3 afbd 80f1 a9bd b09f 803c
000000c0: b35c 59bd dc12 a8bd 67a2 d23d 7c92 b1bd
000000d0: 652b a3bd 9896 cf3d b110 aa3d 818c f33c
000000e0: 3baa c8bd e5b0 9a3d f5f6 843d c673 0c3b
000000f0: 07e8 c53d 732a 22bb 6930 9bbd ff17 82bd
00000100: 6543 b53c 21dd a2bc ee01 b4bd b0b8 13bd
00000110: 8631 d8bc 779b 3f3d 9eaa 2f3c 3342 1abd
00000120: 1340 86bd b031 80bc ff1d d43c 2089 d43d
00000130: 7bdf e8bc 3c03 4c3c 322d 1d3d 9265 d13c
00000140: 4893 8a3c 307d 803d 3c0e c73d 3acb cebb
00000150: 3cc8 2c3d 5808 60bd 2b56 b63d 8a33 51bd
00000160: e4c0 d4bd a35d 723c c97c 773d 5199 63bd
00000170: 3177 c23d 76f3 d7bc 9d7c 893c f304 4fbd
00000180: 09e9 e9bb 119a b6bd ca03 80bb 15b2 7b3b
00000190: ffad 24bd 077a 90bd a41d 97bb e2ca 0c3d
000001a0: 891c cbbc 3acd 933d 8d32 fd3b 1288 9abd
000001b0: c5f4 0f3d e9a4 c83c 056b 2bbd 1c6a 5abd
000001c0: 0ad9 4abd 7e33 423c b41c 5dbd 3938 bc3d
000001d0: dd9f b13d 6cec 7b3d 0340 bf3d ad62 7fbd
000001e0: f6c0 b93c 750f 58bd 3ae1 d03d ed80 2fbd
000001f0: ad07 8cbc c65d 03bd 819d ce3d b032 9dbd
00000200: 69f4 843c d677 d1bd 033b b33d 77d0 8a3d
00000210: 956a e13c 546c e43c 0533 eebd 1bf2 b83d
00000220: d356 c13d 6725 d43c e4e8 873d 9004 7fbd
00000230: ae12 02bb 7150 dd3d 15b8 febc 6256 79bd
00000240: 01b4 8e3d 1fa0 8cbd 65cf 073d f3de 92bd
00000250: f6eb 783d 17ca 1bbc 88d9 cd3b 572c 91bc
00000260: 2909 023d 2fc1 b4bc cdde 2bbd bbe3 acbb
00000270: fd61 c63c 1381 e3bd 7ae6 0abd 22bc 32bd
00000280: 2d16 4abd 97fc 5abd 7189 8cbd 4f76 b43d
00000290: 5843 caba 0774 81bd 7e51 9dbd 63ec c8bd
000002a0: d599 823d 68aa 85bd 2d8d c23c 1172 b0bb
000002b0: fcd2 6b3d 0845 92bd 4ad4 eabc 3d27 483d
000002c0: 49c5 ebbd 5de3 82ba c658 d33d 8e96 9cbd
000002d0: 02f8 98bd 8193 0dbd 6813 b0bd 09e8 1e3d
000002e0: ffd4 02bc 1947 993d f23a 76bd a318 cebd
000002f0: 7901 8c3d b89e 69bd d730 4bbd 91c2 2bbd
00000300: 7b91 47bd 276e 9abd 9cc4 6fbd 94b9 82bd
00000310: c9bd 833d 69ce 43bd c1c8 cbbc af89 0d3d
00000320: 524c fabd 4914 b63d 4193 b3bd c58e 983d
00000330: 601e 0d3d 2878 1abd 69e2 143d f014 88bc
00000340: 1dd2 35bd 6375 8c3d 001a 9f3d 2269 b03d
00000350: 3a87 bc3d cf91 6f3d 4ae6 a23d 0fbd 613d
00000360: dc61 86bc f37d af3c 7e95 fc3c dc5e df3c
00000370: 1ac4 8dbd 1e5c 953d f1ce 1a3d 776b 823d
00000380: c3d8 003d b70c 7f3d a5c1 98bb 3bb1 91bc
00000390: 470e b8bc 91b0 4d3d 1365 de3c a9e4 ae3c
000003a0: d2c1 d7bc 1708 c2bc 4433 30bd 7d86 053e
000003b0: 2dd3 da3c 854d 59bd 51d9 dcbc 1fc5 713d
000003c0: b65b 6abb ddb9 fd3d 1618 39bd 670b b2bd
000003d0: 3017 d8bd 2539 febd 4d26 93bd 0f61 43bd
000003e0: 3613 1e3d 29cb 8f3d cac2 8f3d 8a58 673c
000003f0: 51eb 423d 3f49 10bc a8df 1e3d bbda 4d3d

rnn.bias_ih_l0 f4 [300]
0.0064184177 0.081458844 0.027268438 -0.028437812 0.08047434 0.013655555 -0.041734558 -0.035204887
0.093910836 0.052764874 -0.023047432 -0.07596672 0.048407543 0.0813 0.067113474 0.10621939
0.06448551 0.07852533 -0.08594274 -0.09656705 0.07455135 -0.02306083 -0.014532231 -0.043519642
0.09630688 -0.03473531 -0.105165415 0.11828539 0.0003735656 0.0057958732 -0.074735545 -0.010705963
0.03900372 0.07147324 0.04938671 -0.0042491714 0.013058045 0.0040478623 -0.018680958 -0.03136217
0.09230144 -0.0073614116 0.051991925 0.063025124 0.056414105 -0.064293265 -0.013236234 -0.005059613
-0.074487366 0.022733271 -0.0025117134 0.0010555801 0.05516073 0.08630219 0.050138045 -0.072185576
0.04492895 0.067620054 0.055613242 0.0057596816 0.10801053 0.07573442 0.047602173 -0.020949287
0.11422004 0.024345014 -0.07257907 -0.007821311 -0.05427505 -0.078790024 -0.053684324 0.065504655
-0.09244776 0.02605721 0.08002349 0.032333467 -0.012087462 -0.05966797 0.03408313 0.035233844
0.06494686 -0.09167418 0.03663949 0.010331456 -0.06586985 0.027397363 -0.00442789 -0.05778523
0.053933498 -0.009707777 -0.04140509 -0.008694273 -0.010092814 0.014577137 0.027337475 0.07840241
-0.013186999 -0.060389563 0.05669135 0.034977403 -0.12799789 -0.046801623 -0.010787732 -0.05235202
-0.023263942 0.043603532 0.013737381 0.016823558 -0.08597432 0.029893516 -0.029906213 -0.02790244
-0.10980933 -0.010864369 -0.050607797 0.05685017 -0.028770076 0.042979028 -0.13187906 0.011998569
-0.06022324 -0.15095977 -0.13706826 0.098151386 -0.14245555 -0.064697035 -0.13249886 -0.043435656
-0.044613525 -0.13776587 -0.06939912 -0.047126867 0.068229474 -0.021314798 -0.1431024 -0.0108786905
-0.003065132 -0.1556573 -0.15437385 -0.17572473 -0.006726847 -0.006115538 0.07462468 -0.06558023
-0.12582453 -0.09141459 -0.014316289 -0.09234418 -0.11795412 -0.016386492 -0.0075565465 0.005017767
-0.08802688 0.10585088 -0.1662488 -0.096687205 0.0010148204 -0.022313163 -0.005161155 -0.025704456
-0.06719617 0.030355893 -0.17851505 -0.12940626 0.06172013 -0.10260498 -0.15800081 -0.0813719
0.038221233 -0.1434038 -0.04263714 0.004627972 -0.08031157 0.0008289365 -0.0032410189 0.028730998
-0.036127612 -0.0073686047 -0.07403766 -0.114988446 -0.046745855 0.0033558847 -0.15214995 -0.07010425
-0.01040542 0.07207985 -0.103392035 -0.1189091 -0.039973434 -0.13990422 -0.12669785 -0.05820213
-0.090418324 -0.06715852 -0.035868444 -0.08666048 -0.11227729 -0.044392943 -0.059768412 -0.13545966
-0.076121576 0.057888106 -0.07636152 -0.04521041 -0.080542386 -0.009626043 0.00572102 -0.062152
0.024592845 -0.039734855 0.009214645 -0.009116681 -0.023163568 -0.08631681 -0.0128317 0.021911237
0.02322807 0.038551785 0.0071004354 0.08339004 -0.06318694 -0.008488202 0.02037773 0.02051253
0.06444146 0.07670985 0.031970326 0.08002496 0.05758358 -0.08775038 0.09171829 0.09675348
-0.06925526 0.010305404 -0.05105889 0.047545373 0.08286959 -0.019826394 -0.07407823 0.060128454
-0.07121035 -0.09701082 0.100388065 0.0003065821 -0.02631518 -0.025676347 -0.069960035 0.078662194
-0.03974154 0.010649438 0.079995304 0.061877314 0.07194556 -0.0027176193 0.027746258 -0.08320809
00000000: 9751 d23b e5d3 a63d 0f62 df3c 6af6 e8bc
00000010: bbcf a43d 8dbb 5f3c dbf1 2abd 0033 10bd
00000020: 5354 c03d fb1f 583d f8cd bcbc 7194 9bbd
00000030: fd46 463d 9d80 a63d ca72 893d 8d89 d93d
00000040: fb10 843d e3d1 a03d bf02 b0bd f2c4 c5bd
00000050: 61ae 983d 11ea bcbc 9818 6ebc a741 32bd
00000060: 8b3c c53d 9d46 0ebd f760 d7bd 9c3f f23d
00000070: 20db c339 4feb bd3b f30e 99bd 1068 2fbc
00000080: 5dc2 1f3d 9060 923d b849 4a3d a23c 8bbb
00000090: 69f1 553c eea3 843b cf08 99bc 9e75 00bd
000000a0: 8a08 bd3d ff37 f1bb 7cf5 543d 5113 813d
000000b0: 7a12 673d 30ac 83bd cadc 58bc 1ccb a5bb
000000c0: d58c 98bd 203b ba3c 8f9b 24bb 645b 8a3a
000000d0: 38f0 613d 34bf b03d 8d5d 4d3d 08d6 93bd
000000e0: 6b07 383d 627c 8a3d b6ca 633d b6bb bc3b
000000f0: a034 dd3d a61a 9b3d 7ffa 423d d79d abbc
00000100: 32ec e93d 326f c73c 56a4 94bd f524 00bc
00000110: 844f 5ebd aa5c a1bd 18e4 5bbd 4e27 863d
00000120: 4055 bdbd ee75 d53c 5be3 a33d 1970 043d
00000130: 7d0a 46bc 6766 74bd c19a 0b3d 5d51 103d
00000140: dc02 853d acbf bbbd 4a13 163d 4445 293c
00000150: c6e6 86bd 6f70 e03c d517 91bb 35b0 6cbd
00000160: 5fe9 5c3d 5e0d 1fbc 6298 29bd 6d72 0ebc
00000170: 555c 25bc f2d4 6e3c d7f2 df3c 7191 a03d
00000180: 480e 58bc 0c5b 77bd 3035 683d 7744 0f3d
00000190: e111 03be 0fb3 3fbd 07bf 30bc 126f 56bd
000001a0: 0694 bebc 9e99 323d c112 613c 8fd1 893c
000001b0: 4e13 b0bd 3fe3 f43c e0fd f4bc a893 e4bc
000001c0: b7e3 e0bd 7700 32bc 1f4a 4fbd b9db 683d
000001d0: 39af ebbc c70a 303d 4e0b 07be a595 443c
000001e0: a5ac 76bd 3395 1abe 9f5b 0cbe 9803 c93d
000001f0: dedf 11be e17f 84bd c8ad 07be 96e9 31bd
00000200: acbc 36bd 7f12 0dbe 2021 8ebd 1a08 41bd
00000210: e5bb 8b3d 5f9c aebc 6f89 12be 893c 32bc
00000220: 62e0 48bb a164 1fbe 2e14 1ebe 2ff1 33be
00000230: e26c dcbb da64 c8bb d3d4 983d ed4e 86bd
00000240: 25d8 00be 9337 bbbd de8e 6abc f21e bdbd
00000250: ee91 f1bd f73c 86bc e89c f7bb 156c a43b
00000260: 7047 b4bd 59c8 d83d 203d 2abe f103 c6bd
00000270: b903 853a 18ca b6bc e81e a9bb 2792 d2bc
00000280: 259e 89bd ecac f83c a6cc 36be 1383 04be
00000290: 3fce 7c3d 8f22 d2bd f7ca 21be 50a6 a6bd
000002a0: de8d 1c3d 72d8 12be 48a4 2ebd 3ea6 973b
000002b0: 647a a4bd fd4c 593a 4667 54bb 455d eb3c
000002c0: 8cfa 13bd 5674 f1bb 0fa1 97bd 107f ebbd
000002d0: 9578 3fbd 67ee 5b3b 32cd 1bbe d192 8fbd
000002e0: 7f7b 2abc 9a9e 933d 34bf d3bd 9d86 f3bd
000002f0: 2fbb 23bd 0d43 0fbe 15bd 01be 5b65 6ebd
00000300: 3e2d b9bd 688a 89bd caea 12bd 0d7b b1bd
00000310: a3f1 e5bd 60d5 35bd b9cf 74bd f0b5 0abe
00000320: a1e5 9bbd 141c 6d3d 6e63 9cbd 8d2e 39bd
00000330: 68f3 a4bd 8db6 1dbc 6577 bb3b 1893 7ebd
00000340: ef76 c93c 04c1 22bd 06f9 163c 225e 15bc
00000350: 86c1 bdbc dec6 b0bd 0d3c 52bc 327f b33c
00000360: cb48 be3c 7ae8 1d3d c5aa e83b 66c8 aa3d
00000370: 2868 81bd 1912 0bbc 32ef a63c e509 a83c
00000380: e2f9 833d 0e1a 9d3d 51f3 023d 20e4 a33d
00000390: c3dc 6b3d 79b6 b3bd ccd6 bb3d b026 c63d
000003a0: b4d5 8dbd ffd7 283c 2023 51bd f0be 423d
000003b0: 88b7 a93d f66a a2bc 54b6 97bd 4149 763d
000003c0: bbd6 91bd 9cad c6bd 4298 cd3d c1bc a039
000003d0: ef92 d7bc 3457 d2bc 3547 8fbd a519 a13d
000003e0: 06c8 22bd fb7a 2e3c 94d4 a33d 1173 7d3d
000003f0: 3258 933d 161a 32bb 1f4c e33c 0169 aabd

rnn.bias_hh_l0 f4 [300]
0.017497338 -0.021172097 -0.048297584 -0.028065437 0.101645306 -0.04590622 0.026941618 -0.043109518
-0.072766595 0.045582354 -0.0836256 0.05664919 -0.06624082 -0.05664497 0.018361328 0.011639034
-0.03796225 0.08489089 0.0744961 -0.0013946964 -0.029329792 -0.05353924 -0.021216454 0.073326625
0.045536824 -0.05430258 -0.03876528 0.010948657 -0.015209588 0.10453591 0.004213492 -0.0033400788
-0.06823271 -0.024355497 0.020186875 0.0065055136 -0.060050335 0.027632488 0.042733166 0.121891394
-0.07547533 0.07438885 -0.042152163 0.00025314768 -0.009380422 0.065944076 0.0033730175 0.098800376
0.084475674 0.03571916 -0.024781566 -0.058893517 0.07976101 0.049343243 0.035755955 0.09635048
0.08546599 0.06544602 -0.085068054 0.012581877 0.08977352 -0.056047726 -0.061931923 -0.095243126
0.033859484 0.105432585 -0.03803703 -0.059962817 -0.042635042 0.023594962 0.044973977 0.03260217
0.02625599 -0.00038203585 0.0522119 0.016296035 -0.00051792635 -0.04485752 -0.028594842 0.054210346
0.010431734 0.037432287 -0.039879046 0.06966301 -0.04653816 -0.0044797156 -0.018512381 0.09156772
0.05631983 -0.0037510274 -0.095412545 0.092624225 0.03831139 0.036706407 -0.043452207 0.10592199
0.052278325 0.04045024 -0.07377142 0.047651418 -0.09336024 -0.07678495 0.030564873 -0.020440718
-0.02388596 0.07216171 -0.0350145 -0.021791704 -0.007695939 -0.041147098 -0.16837731 -0.10058205
-0.030698296 -0.109683625 -0.15239985 0.062694706 -0.12078309 -0.021947835 -0.07962245 -0.055367135
-0.02830574 -0.07155864 -0.13273256 0.004904209 -0.16987951 -0.11260044 -0.10997485 -0.059138834
-0.062548555 -0.07424774 -0.16925085 -0.10988653 -0.062600136 -0.066453315 0.012995264 0.03936995
0.02651764 -0.10780564 -0.13010886 -0.027994756 0.014247499 -0.03119977 0.046885226 -0.07558136
0.03247977 -0.091143414 -0.072150975 -0.005966816 -0.09742024 0.0031683736 -0.0201122 -0.109584205
-0.03051326 -0.04180604 -0.1691932 -0.070359394 -0.1393007 -0.018872062 -0.0809932 -0.1034709
-0.07970639 -0.002026021 -0.06966775 -0.09342171 0.038284 -0.13989474 0.014246002 0.015782496
-0.04667028 -0.1228848 -0.12727831 -0.15965264 -0.16163476 0.009995093 -0.13624008 -0.052076645
-0.0577214 -0.10282851 -0.13891776 -0.14588936 -0.04422147 -0.17004235 -0.14744444 -0.09605035
-0.037725795 -0.03080224 0.0126920985 0.005634592 -0.14066465 -0.029719178 0.040645465 -0.11050192
-0.13159615 -0.15339074 -0.14077517 -0.033387862 -0.14158785 -0.08234308 -0.076155424 -0.05397672
0.012666232 0.022951102 0.0014645307 0.109259166 -0.072866924 0.054348208 0.034550857 0.009274525
-0.02585936 -0.06556671 -0.08391774 -0.06806013 0.0175166 0.04570049 0.07805428 0.029506296
0.097929135 0.0002184176 -0.053049628 0.08731481 0.061071213 0.071397595 0.029671106 -0.11049454
-0.07203301 0.09558558 0.052124523 0.043580722 0.09006985 -0.0010037433 -0.015853511 0.09386278
0.05763796 0.032572173 -0.090027675 0.08328229 -0.058567032 -0.072779484 0.04786884 0.012783625
0.04485732 0.03852753 -0.017248867 0.001970241 -0.0759385 -0.04422488 -0.04834037 0.063855186
-0.056975856 -0.07232387 0.07295993 -0.0051614926 -0.09010741 0.0659348 0.0314435 -0.07777976
00000000: 9456 8f3c 1b71 adbc b0d3 45bd 7de9 e5bc
00000010: 6a2b d03d 2908 3cbd abb4 dc3c 9b93 30bd
00000020: a706 95bd 90b4 3a3d e643 abbd fb08 683d
00000030: 44a9 87bd 8e04 68bd 7f6a 963c a6b1 3e3c
00000040: 4e7e 1bbd 46db ad3d 6991 983d 3fce b6ba
00000050: 0845 f0bc f64b 5bbd 21ce adbc 452c 963d
00000060: d284 3a3d 626c 5ebd 58c8 1ebd ff61 333c
00000070: a331 79bc ec16 d63d 5511 8a3b 39e5 5abb
00000080: 97bd 8bbd 2e85 c7bc f25e a53c 342c d53b
00000090: 57f7 75bd 875d e23c f908 2f3d 32a2 f93d
000000a0: cf92 9abd 2e59 983d bfa7 2cbd e8b8 8439
000000b0: 57b0 19bc b00d 873d d80d 5d3b da57 ca3d
000000c0: 9501 ad3d 414e 123d b602 cbbc 543a 71bd
000000d0: be59 a33d 241c 4a3d d674 123d 6753 c53d
000000e0: cb08 af3d 9008 863d 2938 aebd 3824 4e3c
000000f0: 2edb b73d 4d92 65bd 54ac 7dbd d40e c3bd
00000100: 3eb0 0a3d 0aed d73d b7cc 1bbd 929b 75bd
00000110: 15a2 2ebd 394a c13c a236 383d da89 053d
00000120: cd16 d73c fc4b c8b9 25dc 553d 437f 853c
00000130: 73c5 07ba 85bc 37bd bb3f eabc ab0b 5e3d
00000140: dde9 2a3c 9952 193d 3658 23bd 7bab 8e3d
00000150: cc9e 3ebd 94ca 92bb 47a7 97bc db87 bb3d
00000160: 9faf 663d ccd3 75bb a767 c3bd c5b1 bd3d
00000170: 67ec 1c3d 7559 163d f1fa 31bd a1ed d83d
00000180: cc21 563d 27af 253d 7815 97bd 222e 433d
00000190: a733 bfbd 6e41 9dbd 2f63 fa3c 4b73 a7bc
000001a0: 7dac c3bc 85c9 933d 5d6b 0fbd 8484 b2bc
000001b0: 372e fcbb dc89 28bd 1a6b 2cbe f6fd cdbd
000001c0: fe7a fbbc cfa1 e0bd b50e 1cbe 1566 803d
000001d0: 205d f7bd f2cb b3bc 1811 a3bd a6c8 62bd
000001e0: 70e1 e7bc 568d 92bd 0beb 07be 7db3 a03b
000001f0: e5f4 2dbe 0f9b e6bd 7f3a e1bd 903b 72bd
00000200: 7519 80bd 330f 98bd 1850 2dbe 300c e1bd
00000210: 8034 80bd ad18 88bd 16ea 543c 6242 213d
00000220: 863b d93c 34c9 dcbd 423b 05be 4255 e5bc
00000230: 586e 693c a996 ffbc b90a 403d 66ca 9abd
00000240: 8209 053d 66a9 babd e4c3 93bd 4885 c3bb
00000250: 4384 c7bd 7da4 4f3b 57c2 a4bc af6d e0bd
00000260: f2f6 f9bc cf3c 2bbd fb40 2dbe 9618 90bd
00000270: d8a4 0ebe 9599 9abc c3df a5bd 8de8 d3bd
00000280: 1b3d a3bd fec6 04bb f7ad 8ebd e253 bfbd
00000290: afcf 1c3d 9140 0fbe 1068 693c 4b4a 813c
000002a0: 5629 3fbd 07ab fbbd 3f55 02be fb7b 23be
000002b0: 9583 25be 75c2 233c 8582 0bbe 524e 55bd
000002c0: 466d 6cbd c197 d2bd 7540 0ebe 0564 15be
000002d0: 9221 35bd 951f 2ebe adfb 16be 0cb6 c4bd
000002e0: 5d86 1abd fb54 fcbc 85f2 4f3c 62a2 b83b
000002f0: 650a 10be a275 f3bc dc7b 263d d54e e2bd
00000300: 24c1 06be 7612 1dbe 5e27 10be b6c1 08bd
00000310: 68fc 10be 7da3 a8bd 60f7 9bbd b116 5dbd
00000320: 0786 4f3c f303 bc3c 7ff5 bf3a 45c3 df3d
00000330: 413b 95bd 3a9c 5e3d 3385 0d3d 2df4 173c
00000340: 02d7 d3bc d747 86bd 10dd abbd 1c63 8bbd
00000350: f97e 8f3c 7030 3b3d ecda 9f3d 30b7 f13c
00000360: 128f c83d 0707 6539 914a 59bd 1bd2 b23d
00000370: cf25 7a3d e738 923d d210 f33c f64a e2bd
00000380: 0b86 93bd 5fc2 c33d 8680 553d b381 323d
00000390: 8b76 b83d 0990 83ba 39df 81bc 213b c03d
000003a0: c815 6c3d 666a 053d 6e60 b8bd e88f aa3d
000003b0: fce3 6fbd 690d 95bd 1e12 443d 6972 513c
000003c0: 4fbc 373d 0bcf 1d3d 7f4d 8dbc 291f 013b
000003d0: a585 9bbd 2625 35bd 8d00 46bd 82c6 823d
000003e0: 845f 69bd 8a1e 94bd 046c 953d bd21 a9bb
000003f0: 3c8a b8bd d308 873d e6ca 003d ff4a 9fbd

linear.weight f4 [1, 100]
-0.094596386 0.12112596 0.041615125 -0.033583518 0.078062214 0.032685976 0.070619226 0.044527523
0.11897839 0.0733308 0.07976491 -0.06444336 0.094178565 -0.04363857 -0.032679465 -0.011508399
0.048987545 0.051479645 -0.06931042 -0.0411251 -0.051018942 0.06491561 0.098934345 -0.031554114
0.075501844 -0.09993852 -0.1001192 -0.10656123 0.08159375 0.07658741 0.09461196 -0.11996912
-0.027154028 0.0447884 -0.0370249 -0.0061185746 -0.031187402 0.09734507 -0.045584723 0.10253586
-0.08220759 0.08937676 0.048918076 -0.06201275 -0.07386818 -0.046619304 -0.061119225 0.08205784
-0.03564498 0.024204597 0.09943956 0.07906634 0.10204996 -0.015603622 -0.09335513 -0.10461419
-0.04276872 -0.06887684 0.057056498 0.11602077 0.1274684 -0.0026985214 -0.086858094 0.06856075
-0.07595049 -0.06973206 -0.068899296 0.06361212 -0.05271191 -0.03677826 -0.06206616 0.13553564
-0.026662493 0.045600846 -0.113204345 -0.0731975 -0.08709971 0.054529127 0.04755917 0.1271882
-0.010069307 -0.11093448 -0.07551267 -0.04373871 -0.05139895 -0.016292764 -0.0596361 -0.11227438
-0.08245649 0.12517887 -0.00278754 -0.053322382 0.0028465507 -0.0779211 -0.031314865 -0.0896514
0.06461226 0.13361026 0.018892137 0.08567012
00000000: c0bb c1bd e310 f83d 9f74 2a3d df8e 09bd
00000010: 15df 9f3d bbe1 053d d0a0 903d 7e62 363d
00000020: f1aa f33d 752e 963d c95b a33d e1fa 83bd
00000030: b1e0 c03d 5bbe 32bd e7da 05bd b98d 3cbc
00000040: 2aa7 483d 52dc 523d 9ff2 8dbd cb72 28bd
00000050: 3df9 50bd 7af2 843d 179e ca3d e33e 01bd
00000060: b6a0 9a3d 91ac ccbd 4c0b cdbd c63c dabd
00000070: a01a a73d dcd9 9c3d eac3 c13d 5fb2 f5bd
00000080: 2072 debc 0b74 373d 6ca7 17bd 537e c8bb
00000090: b97c ffbc da5c c73d 0cb7 3abd 52fe d13d
000000a0: 745c a8bd 2a0b b73d 525e 483d 1501 7ebd
000000b0: 3348 97bd e2f3 3ebd 2758 7abd f10d a83d
000000c0: 7800 12bd b848 c63c f8a6 cb3d 89ed a13d
000000d0: 92ff d03d 56a6 7fbc f930 bfbd f73f d6bd
000000e0: 412e 2fbd 4d0f 8dbd 13b4 693d 4c9c ed3d
000000f0: 1487 023e add9 30bb a8e2 b1bd 9469 8c3d
00000100: ee8b 9bbd afcf 8ebd 131b 8dbd 1247 823d
00000110: 72e8 57bd cda4 16bd 1639 7ebd dbc9 0a3e
00000120: 4d6b dabc f4c7 3a3d aed7 e7bd 92e8 95bd
00000130: 5561 b2bd ef59 5f3d 67cd 423d a03d 023e
00000140: bcf9 24bc 9e31 e3bd 63a6 9abd 5d27 33bd
00000150: b587 52bd 6778 85bc fc44 74bd 1cf0 e5bd
00000160: f3de a8bd e42e 003e 29af 36bb 9268 5abd
00000170: 328d 3a3b 1995 9fbd 0444 00bd 279b b7bd
00000180: 6f53 843d 21d1 083e afc3 9a3c d173 af3d
