backend/trained_models/ADBL_LSTM_model_state_dict.pth (torch, 167948 bytes, 5 tensors)

rnn.weight_ih_l0 f4 [400, 1]
000000 d7 64 8f 3b 46 5c 5e bd e1 47 e8 bc 09 9a 8c bc
       0.0043760347 -0.054287218 -0.028354587 -0.017163293
000010 03 d3 06 bd 04 f2 a6 3d b0 6c 9d 3c be 68 b5 3d
       -0.03291608 0.081516296 0.019216865 0.088578686
000020 ec 25 af bc 20 fe ab 3d 16 e5 82 bc a0 c6 f5 3b
       -0.021380387 0.0839808 -0.015978377 0.0075004846
000030 1b 2e c5 bd 45 27 ff 3c 89 93 9e 3d b7 ca 65 bc
       -0.096279345 0.031146655 0.07742984 -0.014025382
000040 76 5a 96 3d 4d 37 04 3e 93 41 6f bd d3 87 e7 3d
       0.07341473 0.1291172 -0.058412146 0.11305203
000050 5c 1d 0b bd 97 0b 48 bd c3 25 37 3d cd ca b5 3c
       -0.033963546 -0.048839178 0.044713747 0.02219143
000060 8b dc 20 bd f3 59 3c bd 75 14 c4 bd fb ca 46 3d
       -0.039272826 -0.04598422 -0.09574214 0.04853342
000070 5d 70 ef 3d 1d a5 6b bd c3 db dc 3c 2e cb 59 bd
       0.116913535 -0.05753051 0.02696026 -0.053172283
000080 8b 70 b7 3d 6f 5f 64 bd a4 b5 5f bd 81 30 1b 3d
       0.08957013 -0.055755075 -0.054616585 0.037888054
000090 68 e0 dc 3c c2 d5 98 3d 78 46 e8 3a c8 2c 1c bd
       0.026962474 0.07462646 0.0017721197 -0.038128644
0000a0 71 c8 a3 3d 32 87 c9 bc aa c5 b3 3d c7 7e bf bd
       0.079972155 -0.024600599 0.08777936 -0.09350353
0000b0 b8 be 69 bd b0 94 10 bd 11 24 82 bd 7f 0c 5a 3c
       -0.05706665 -0.03529805 -0.06354535 0.013308643
0000c0 7e 27 db 3c 2c ce b2 3d 80 05 90 3d 63 af b9 3c
       0.02675223 0.087307304 0.07032299 0.022666639
0000d0 00 6c 8f 3d e1 0b aa bd 11 e6 03 3e 56 58 91 bd
       0.07003021 -0.08303047 0.12880732 -0.07096927
0000e0 ef 80 a2 3b d1 a3 0d 3c d0 b3 72 3d 83 2e 09 bc
       0.0049592177 0.008645014 0.059253514 -0.008372906
0000f0 fd 27 c1 bd 1e bd 5f 3d a0 0e e4 3d f3 00 43 bd
       -0.09431455 0.054623716 0.11135602 -0.047608327
000100 08 aa 8a 3d cb fe d2 3d ba e7 ce 3c b8 da ed 3d
       0.06770712 0.10302504 0.02525698 0.11613983
000110 ab d7 66 3d d3 c2 6d bc 39 ee bc bd 63 ea f0 3d
       0.05635802 -0.014511782 -0.09225125 0.11763456
000120 2f 8b 29 bd a8 8d 99 bd 15 94 08 3d c7 02 8d bc
       -0.0413925 -0.07497722 0.033344347 -0.017213238
000130 5e 9b a6 bd 8d 1f 82 bd 12 80 8e 3d 4d 6c 0a 3e
       -0.08135103 -0.06353674 0.06958021 0.13517876
000140 6f 75 47 bd 71 95 f2 bc ea 19 d3 bc d1 1e 51 3d
       -0.048695978 -0.029612275 -0.025769193 0.05105478
000150 23 fc 80 3d b8 0c e4 3d ba d6 24 3d 18 44 d5 3d
       0.06298091 0.111352384 0.04024384 0.104133785
000160 2b 52 87 3d 60 df 87 3d 83 8f a4 3d 64 3e 51 3d
       0.06607469 0.06634402 0.08035185 0.05108489
000170 c8 d1 bc bc b0 4a c2 bd fa 87 51 3c 3a ca 2f 3d
       -0.02304925 -0.09486902 0.012788767 0.042917468
000180 07 20 af 3d d7 69 c5 bd 23 f0 9c 3d f9 88 1e bd
       0.085510306 -0.09639328 0.0766299 -0.038704846
000190 ae d3 85 bd e9 a6 9a bd d1 64 b7 bd 15 2b ce 3c
       -0.06534515 -0.07551367 -0.08954776 0.025167027
0001a0 16 27 bb 3b 31 b5 bc bc 77 8e b6 3d 90 f7 a9 bd
       0.0057114465 -0.023035618 0.08913892 -0.08299172
0001b0 8f e2 92 bc 96 50 42 3d 20 ab b9 3d 0d b5 a5 bd
       -0.017930297 0.047440134 0.09065843 -0.08091173
0001c0 64 0f 1b 3d c9 31 df 3c df 3e 09 3e c2 33 cd 3d
       0.037856475 0.02724542 0.1340289 0.10019638
0001d0 ed 21 ae 3d 5e 38 88 3c d9 a1 58 3d 41 32 95 bd
       0.085025646 0.01662844 0.052888725 -0.07284976
0001e0 71 b4 83 bc ca 67 f7 3d d6 c6 ba 3d 1a d1 4e 3d
       -0.016077252 0.12080343 0.09119956 0.050492384
0001f0 59 2e 5b 3d 74 c8 a2 3d 07 fc 82 bc c6 63 e6 3d
       0.053510997 0.0794839 -0.015989317 0.11249499
000200 b0 8f 81 bc f2 d6 cc bd 7e c2 d9 bd e9 49 a0 3d
       -0.015815586 -0.10001935 -0.106327996 0.07826597
000210 fa ed b9 3d f6 0f 39 bd b9 65 04 3e d9 c3 2a bd
       0.090785936 -0.045181237 0.12929429 -0.04169068
000220 b2 be 32 bd 01 4e 7a bd ca 64 d0 3d b6 fa 05 bd
       -0.043638892 -0.061109547 0.10175474 -0.0327098
000230 6e 86 d0 bd 60 4e 69 bc 21 26 8e bb c9 ab 56 bc
       -0.101818904 -0.014239877 -0.0043380414 -0.01310248
000240 05 15 27 bc 1c fe 5a bc 9c 01 a1 3d c1 c1 cc bd
       -0.010197883 -0.013366248 0.07861635 -0.09997893
000250 e6 b4 a9 bd d1 c3 49 bd 30 62 88 3d c5 b8 a3 bc
       -0.08286457 -0.04925901 0.06659353 -0.019985566
000260 e6 d3 cf bd 38 e8 04 be 34 da fb ba 99 a3 4c 3d
       -0.10147838 -0.1297921 -0.001921481 0.049960706
000270 4a 24 71 bd dd 88 04 3e aa 76 13 bd 89 80 e7 bd
       -0.0588725 0.12942834 -0.03600184 -0.11303813
000280 9b 6b 9d bd 15 a9 06 3e 04 0b b2 3d da 2b 85 3c
       -0.0768654 0.13150437 0.08693507 0.016256262
000290 c3 61 32 bd b9 7e ec 3d fd 56 37 3d 10 8f 26 3d
       -0.043550264 0.11547608 0.044760693 0.04066378
0002a0 5f 07 9d 3d 72 b5 2e bc ee b6 a5 bd 3e 5f 48 3d
       0.076674215 -0.010663377 -0.08091532 0.048918955
0002b0 7d a9 de 3c 11 f7 08 3d 0c 38 02 be fc b3 0e bd
       0.027180428 0.033438746 -0.12716693 -0.034839615
0002c0 57 2c 02 be ed a1 73 bc e2 1e 94 3d 64 fd 0a 3e
       -0.12712227 -0.014870149 0.07232453 0.13573223
0002d0 57 73 10 bd d9 47 44 bd 89 bf 28 3c 6b 0d d6 3d
       -0.035266247 -0.04792008 0.010299572 0.10451778
0002e0 ac 89 59 bd ae d7 50 bd d7 6e 0c 3c 53 15 e4 3c
       -0.05310981 -0.05098694 0.008571348 0.0278422
0002f0 04 f1 56 3d a8 c8 3d 3d a9 bc 87 3a d9 c2 10 bd
       0.052475944 0.04633394 0.0010355908 -0.03534207
000300 b3 ec 14 be 54 50 e6 3c b4 68 a2 bd 4a 06 a4 bc
       -0.14543419 0.028114475 -0.07930127 -0.02002253
000310 f4 91 c6 bc 4e 9a 86 3c af 2b 28 3d 1a b1 0d 3d
       -0.024239518 0.016431 0.041057285 0.034592725
000320 68 c0 00 be ab 40 74 3d 23 de 94 bd 90 3a 90 3d
       -0.12573397 0.059631985 -0.07268932 0.0704242
000330 4e af b2 bb 55 29 8b 3d 96 62 ab bc 22 ba ce 3d
       -0.005453027 0.06794993 -0.020921033 0.10094096
000340 cb f8 cb 3d ee 37 3d 3d 41 af f7 3d 09 91 cf bd
       0.09959563 0.046195917 0.12093974 -0.10135085
000350 17 09 83 bd 13 17 b0 3d 44 3f 68 3a 01 4b 81 3d
       -0.06398218 0.08598151 0.0008859525 0.06313134
000360 6b 4d d3 3d 4c 47 77 3c 51 a3 a8 bc 6c e6 ce bd
       0.10317501 0.015092682 -0.020585688 -0.10102543
000370 33 60 5d bd 76 ab 34 bc 7d d2 ea 3d c2 cd 93 bd
       -0.05404682 -0.011027208 0.11465929 -0.072169796
000380 90 75 9d 3d 02 d5 fd 3d f8 7a 0c ba f5 3a d7 bd
       0.07688439 0.12394144 -0.00053589 -0.10509292
000390 bc ba 9c 3d 95 99 10 bd 52 89 93 bb 53 ba b1 bd
       0.07652804 -0.035302717 -0.004502454 -0.08678117
0003a0 03 1f e4 3c 84 41 5e 3c 0a d8 53 bd d9 97 07 bc
       0.027846819 0.013565425 -0.051719703 -0.008275949
0003b0 e6 6c a8 bd 4a aa b8 3c 2c c5 8f bd 4c d5 30 3d
       -0.08223896 0.022542138 -0.070200294 0.043172166
0003c0 fa a4 6a bb 8c b3 14 bd 55 d2 45 3d 61 6f 3d 3d
       -0.00358039 -0.03630404 0.04829629 0.046248797
0003d0 90 2e 07 3c 38 bf bc bd 58 38 73 bd 67 84 c9 3d
       0.008250847 -0.092161596 -0.059379905 0.09839707
0003e0 a1 6f ee 3d 22 76 6d bc df fc 05 3e 49 67 0a 3e
       0.11642385 -0.014493497 0.13084744 0.13515963
0003f0 e5 e0 ac bd e1 d8 bd bd b7 46 e0 3d a5 a5 db 3d
       -0.08441333 -0.09269882 0.10950988 0.107249536

rnn.weight_hh_l0 f4 [400, 100]
000000 5d 0a 86 bc d9 ff 24 bc f5 fc 07 3d 17 48 69 bd
       -0.016362363 -0.010070764 0.033200223 -0.056953516
000010 5b c3 80 3d 2f 20 c4 bc 08 2e 98 bd 94 04 58 bd
       0.06287261 -0.023941128 -0.07430655 -0.05273874
000020 39 88 bf bc 20 a7 15 bd c1 66 33 bc ab 1d cb bd
       -0.023380386 -0.036536336 -0.010949791 -0.09917768
000030 55 87 84 3d d1 76 0b bd c8 72 31 bb e5 bc 32 bc
       0.06471125 -0.03404886 -0.0027076472 -0.010909294
000040 d5 c6 15 bd 84 ff af 3d 3c 63 0e 3b 4a c1 2f 3d
       -0.036566574 0.085936576 0.0021726629 0.042908944
000050 d4 0a 2c bd 81 fc c2 bd 0c 1a 21 3d 5f 61 de bd
       -0.042002514 -0.095208175 0.03933148 -0.10858416
000060 f6 9a 91 3c b4 17 4a bd 7d cb a3 3d b8 c5 06 bc
       0.017774086 -0.04933901 0.07997797 -0.008225851
000070 aa cb aa 3d 01 de 0e 3e b5 fb 06 3e 5d ea 44 bd
       0.08339627 0.13951875 0.13181956 -0.04807507
000080 5e 3e b2 bd 75 24 89 3b 68 01 e7 bc 32 e0 a9 3d
       -0.08703302 0.004185254 -0.028198913 0.08294715
000090 1a 7f 8c 3c e4 b3 1f bc 10 c2 cc 3c 45 c1 5c 3d
       0.01715045 -0.009747479 0.02499488 0.053895254
0000a0 c7 82 b8 3d 34 a1 6d 3d bf 36 89 3d f3 d9 4c bc
       0.09009319 0.058015063 0.06699895 -0.012503135
0000b0 24 27 67 bd f3 3c 0d bc 7f eb 7b 3d 45 79 05 3b
       -0.05643381 -0.008620488 0.061503883 0.0020366472
0000c0 50 31 98 3d fa d2 4d bd b3 3f 1b 3d 27 97 f2 3b
       0.074312806 -0.05025003 0.037902545 0.0074032727
0000d0 5d d9 f7 bc d1 1c 3e bc d8 12 f1 3d 00 07 0a bd
       -0.030255014 -0.01160355 0.11771172 -0.033698082
0000e0 43 a8 5d 3c e6 e7 2d bd e5 ed f6 bc fc 82 53 b9
       0.013528886 -0.042457484 -0.030142734 -0.00020171324
0000f0 10 48 be 3d e6 2c a3 3d 8b 2e d4 3d 97 4d 9b 3b
       0.092910886 0.07967548 0.1036044 0.004739474
000100 0c 0b d1 bd 4f 11 a3 3d fe 53 99 3d 64 7e 6d 3c
       -0.10207185 0.07962286 0.07486723 0.014495466
000110 31 a2 d4 3d 8c 9a 8f bd a8 67 9d bd 12 3a 8e 3c
       0.10382498 -0.07011899 -0.076857865 0.017361674
000120 1f f7 91 bd fb 85 e4 bd 00 d0 01 3d c2 3c 66 bd
       -0.07127213 -0.11158367 0.031692505 -0.056210287
000130 e0 ff f5 bd a1 79 a1 bd 4e 71 09 bd 25 55 1d ba
       -0.12011695 -0.07884527 -0.03355532 -0.0006001762
000140 98 40 2b bd bb 66 86 3c 51 67 a0 3d 9a 84 aa 3d
       -0.04180965 0.016406408 0.07832206 0.08326073
000150 f5 e1 c8 3d 67 ff c1 3d 6e 14 e3 3d aa 88 2e 3d
       0.09808723 0.09472542 0.11087881 0.0426108
000160 67 3d f8 bb ac 77 ac bd 45 b6 a2 3d 33 ae 29 3c
       -0.007575679 -0.08421263 0.079449214 0.010356474
000170 5a b1 0d 3e f0 b5 9a bc 01 b4 1a bd d6 a9 67 bd
       0.13837186 -0.018885583 -0.03776932 -0.056558453
000180 41 4a 01 3d 01 64 54 3d dc a4 25 3d 2d 75 e9 bd
       0.031564955 0.051853184 0.040440425 -0.11399303
000190 d0 38 c0 3d c9 a9 ee bc c7 d3 4c bd 32 88 69 3d
       0.09385836 -0.029133694 -0.050006654 0.05701465
0001a0 3b 58 89 3d 7e 94 50 3d 90 7c ea bd 4c 3b 9f bd
       0.06706282 0.050922863 -0.1144954 -0.07774982
0001b0 62 ea b3 3d 85 48 bc bd 82 7b f0 bc 9b cf 81 3d
       0.08784939 -0.091935195 -0.029355768 0.06338426
0001c0 6c d4 61 bc 85 d9 a7 bd 56 2e 97 3d d2 f4 a9 bd
       -0.0137835555 -0.081957854 0.07381885 -0.08298649
0001d0 d0 c4 71 3c 51 e3 55 3c 27 35 8d bd 95 d2 20 3d
       0.014756396 0.013054685 -0.06894904 0.039263327
0001e0 6d e3 3a bd 0e ff b1 ba 4f 69 9b 3d 96 5d 95 bc
       -0.045627046 -0.001358004 0.075884454 -0.018233102
0001f0 b7 81 8b 3d 29 5a 9c bd 9a 08 77 bd da 52 ac bd
       0.068118505 -0.07634384 -0.060310937 -0.0841424
000200 fa 54 74 3d 96 13 d6 3c 4e 5c 75 bd 3c bc ab bd
       0.059651352 0.026132386 -0.05990248 -0.08385512
000210 67 86 b8 bd 60 1c 90 3d 41 c8 64 3c 71 95 49 3d
       -0.0901001 0.07036662 0.01396376 0.049214784
000220 95 9e cb 3d 67 ed 84 bc bd 20 d6 bc c6 e6 15 bc
       0.099423565 -0.016226484 -0.026138658 -0.009149259
000230 ce d9 b0 bd 04 0a b5 3d f0 d8 88 3d 22 1f a5 bd
       -0.08635293 0.08839801 0.066820025 -0.08062579
000240 d9 5e 15 bd dd ae 11 3d 31 fc a2 bd 23 bc 5d bd
       -0.036467407 0.035567153 -0.07958258 -0.0541345
000250 3a 3f 85 3d 80 77 24 3d f4 43 a4 3b cd 07 30 3d
       0.065062 0.040153027 0.0050129835 0.04297619
000260 92 95 21 3d ce 83 cd bb e2 ae 62 bd ef 0f 64 3c
       0.039449282 -0.006271816 -0.055342562 0.0139198145
000270 37 38 47 3d 2d 09 91 bd a7 29 8e ba 28 1f 00 bc
       0.048637595 -0.07081828 -0.0010846154 -0.007819928
000280 91 c2 86 bc f4 45 ce 3c b7 f7 0f bd 44 0d 36 bd
       -0.016450198 0.02517984 -0.03514835 -0.044446245
000290 a1 a4 4e 3d f8 b5 46 bd a5 49 01 3d 47 87 98 bd
       0.05044997 -0.048513383 0.031564374 -0.07447677
0002a0 4d 16 2f bd d3 2d e6 bd 9b 4d 18 3d d7 53 d3 3d
       -0.042745877 -0.11239209 0.037183385 0.103187256
0002b0 77 40 b0 bd 3b ac 83 3d 4e f4 b8 bc d0 a6 29 3d
       -0.08606046 0.06429335 -0.022577431 0.04141885
0002c0 97 4e 13 b9 30 99 ab 3d dc c7 20 3d d7 e2 80 3c
       -0.0001404829 0.083788276 0.0392531 0.015733166
0002d0 5c a9 8e 3d cd a7 a8 bd 23 82 a7 bd e9 4a 94 bd
       0.069658965 -0.082351305 -0.081791185 -0.072408505
0002e0 00 a2 d3 3d 2d 6b 4c bd 98 a5 13 bd 3d 76 99 3d
       0.103336334 -0.0499069 -0.036046594 0.07493255
0002f0 2e 69 13 bd 32 d2 80 bc eb 0b 9e bd 13 15 a5 3d
       -0.03598898 -0.015725229 -0.07717117 0.0806066
000300 6a 25 a8 bc 28 a4 3b 3d 45 42 9b 3c 18 82 90 3c
       -0.020525653 0.04581085 0.018952498 0.017640159
000310 55 ca ad 3d eb bb 8f 3d 21 0f ab bc af 8f a6 3d
       0.084858574 0.070182644 -0.020881237 0.08132874
000320 b9 48 87 bd da 74 af 3d 1c 02 02 3d 63 96 c4 3c
       -0.066056676 0.085672095 0.031740293 0.023997491
000330 95 f6 9a bd 1e a6 57 bd ec 6e 78 3d 9d b8 1e 3d
       -0.07566563 -0.052648656 0.06065266 0.03875028
000340 69 8b 43 3d 32 cc ec bc d1 b2 31 bd 50 00 cc bd
       0.047740374 -0.028905962 -0.043383423 -0.09960997
000350 ca 83 bf bb 99 2c b4 bd 69 81 b6 3d 9a b2 8c 3d
       -0.005844568 -0.08797569 0.08911402 0.06870003
000360 23 d2 fa 3d ff d6 b8 bd 47 13 f8 3c d7 a5 25 bd
       0.12247112 -0.09025382 0.03028263 -0.04044136
000370 7b a7 3d bd 25 e5 1f bd a0 38 7a 3b f3 91 d8 3c
       -0.0463023 -0.03903689 0.0038180724 0.026436782
000380 fa 37 6f 3d 4c d2 4c bd 0b a9 fd 3c 64 1e 3b bc
       0.058402993 -0.050005242 0.030964395 -0.01142082
000390 ba 2e c8 bd 58 4a d6 3c 2e 66 f5 3a 03 89 40 bd
       -0.097745374 0.026158497 0.0018722469 -0.047005665
0003a0 99 af bf bd 5f 4a 0d bd 25 80 6f 3d 4a dd 86 bd
       -0.093596645 -0.034494754 0.058471818 -0.06585176
0003b0 b8 66 17 bd ad a0 60 3d 46 4c 23 3d ec 87 93 3d
       -0.036963195 0.054840732 0.039867662 0.072036594
0003c0 03 7d 38 bd e4 b0 c9 3d d4 26 6f 3d a1 b5 81 bd
       -0.045041095 0.09848192 0.05838664 -0.06333471
0003d0 ee 25 56 bc fb a9 95 3d fc 98 50 bd 2f 84 70 bd
       -0.013070567 0.07307812 -0.050927147 -0.05871981
0003e0 53 d3 c5 bd d6 8b 97 bd 08 fa f9 3c 3a c1 81 bc
       -0.096594475 -0.073997185 0.030514732 -0.015839208
0003f0 25 7f 6c 3d 5c 66 5e 3d 4d 72 1c bd 23 d9 14 bc
       0.057738442 0.054296836 -0.038194943 -0.009084973

rnn.bias_ih_l0 f4 [400]
000000 5c cf 39 bc c1 c7 56 3d 98 80 9d 3d db b4 a4 bc
       -0.011340942 0.052436594 0.07690543 -0.02010577
000010 93 04 d9 bc 01 b5 28 3c 22 a9 bf bb f6 66 ea 3d
       -0.026491439 0.010297061 -0.0058490196 0.114454195
000020 f7 47 58 bd d9 1b fb bc 82 e9 21 3d 15 6e c9 3b
       -0.052803006 -0.030652927 0.03952933 0.006147156
000030 1c 0c c7 bd 16 b2 6a 3d 2d 01 14 bd 0b 71 f0 3d
       -0.097191066 0.057298742 -0.036133934 0.11740311
000040 0d 4c 16 3d c8 08 94 3d 51 0e c5 3c ae ad d0 3d
       0.03669362 0.072282374 0.024054678 0.10189377
000050 20 22 c6 3d 9b d4 19 3d 86 23 82 3d d7 3f 9a bc
       0.096744776 0.037556272 0.06354432 -0.01882927
000060 5f 10 0c 3d b0 e3 68 bd 68 7b c6 3d 48 95 ce 3d
       0.0341953 -0.056857765 0.096915066 0.10087067
000070 5e 9c 92 3c 1f bb 87 bd 9b 8c 95 bd 20 73 da 3d
       0.017896827 -0.066274874 -0.07302209 0.106664896
000080 fc 71 8f bc 64 5b 59 3d 16 72 11 bd 7b 74 b4 3d
       -0.017510407 0.053065673 -0.03550919 0.088112794
000090 66 01 d0 3d b8 f7 10 bd 27 fb 10 3d ac 4f 1a 3d
       0.10156517 -0.035392493 0.035395768 0.037673637
0000a0 ed be fa 3c 34 8b 58 3d 71 85 8e 3d 89 c7 b0 3d
       0.030608619 0.05286713 0.06959046 0.08631808
0000b0 37 26 91 3d 7b 7e 70 bd f9 c6 9c 3c 66 e2 69 3d
       0.07087367 -0.05871437 0.019137846 0.057100676
0000c0 31 7d be bd 23 79 a5 3c b6 03 b5 3d 56 80 e3 bb
       -0.09301222 0.020199364 0.088385984 -0.006942789
0000d0 04 c6 a0 3b 9d b4 a1 ba 76 44 a9 3d cc 89 05 3d
       0.004906418 -0.0012337152 0.08265011 0.032602116
0000e0 ef 44 cd bc dc 3f 9b bd 89 67 03 bd 9b 39 16 bc
       -0.025057284 -0.075805396 -0.03208116 -0.009169008
0000f0 3b 83 9c bd 0a 50 cf 3a d7 49 e6 3d f2 70 8c bd
       -0.07642218 0.00158167 0.112445526 -0.0685748
000100 75 70 cb bd bc 47 80 bd d6 cc b5 3d 05 6e b8 3c
       -0.09933559 -0.06263682 0.0887696 0.022513399
000110 47 e1 3c 3d 58 83 64 bd ff 27 08 b9 a2 88 d5 3d
       0.04611328 -0.05578932 -0.0001298487 0.10426451
000120 08 81 bd 3d a3 93 41 bd 66 7b 36 3d 35 87 4a bd
       0.092531264 -0.047259938 0.044551276 -0.04944535
000130 d0 fd a2 3d b4 e5 dd bd d1 87 32 bd 61 36 b0 bd
       0.07958567 -0.10834828 -0.043586556 -0.08604122
000140 82 de eb bc ce 3d da 3c 3d 09 d3 3d 07 3a b4 3d
       -0.028792623 0.026640799 0.103044964 0.0880013
000150 95 18 ce 3d 52 2d 58 bd a3 e5 7f bb b2 a5 9c bb
       0.100632824 -0.052777596 -0.0039046786 -0.0047804946
000160 15 d0 fc 3d 68 1d 47 bd fa 98 52 bd c5 fa e3 bc
       0.12344376 -0.04861203 -0.05141542 -0.027829537
000170 67 b1 7d bc 32 f0 f5 bd 27 61 e8 bd 02 cd 2a 3d
       -0.015484191 -0.12008704 -0.11346655 0.041699417
000180 2a de 41 bd 22 7b a9 bd 4f fc 7f bd d7 ff 1e 3a
       -0.047331013 -0.08275439 -0.06249648 0.0006065345
000190 13 7d f6 3d 50 1c 39 bd 63 03 9b bd 48 8f 84 3b
       0.12035575 -0.045193017 -0.07569005 0.004045401
0001a0 09 b9 44 bd c3 34 ca 3c 7a 45 c0 3d 1a 76 12 3d
       -0.048028026 0.024683362 0.093882516 0.03575716
0001b0 5e 76 c1 3d 9f b8 d6 3d 7c 30 89 3d 09 05 8e bc
       0.09446405 0.104844324 0.06698701 -0.017336385
0001c0 ca d7 a4 bd 52 72 a2 3d 88 57 91 bd 45 b9 1b bd
       -0.08048971 0.07931961 -0.070967734 -0.038018484
0001d0 d9 1f 90 bc 76 7f 56 3d 30 f5 8f 3d cd fd cd 3d
       -0.017593311 0.05236765 0.07029188 0.10058174
0001e0 64 cb 3f 3d 92 c9 d3 bc b1 56 57 3d 1f bd a7 3c
       0.046824828 -0.025852952 0.05257291 0.020475922
0001f0 86 1e 96 3d 7b 45 88 3c 72 a7 8a 3d 1f d8 29 bc
       0.07330041 0.016634693 0.06770219 -0.010366469
000200 74 06 c1 3d 83 12 0d bd 6b 89 83 3d ca c4 cb 3c
       0.09425059 -0.034441482 0.06422695 0.02487411
000210 12 c7 b1 bd 2b 12 92 3d fd f3 af 3d 35 00 5a 3b
       -0.08680548 0.071323715 0.08591459 0.0033264284
000220 32 cd 0d ba 66 80 63 bd 07 32 80 3c 64 f1 81 bd
       -0.00054092996 -0.055542372 0.015648855 -0.0634487
000230 92 0f 31 bd 8f 42 99 3d b4 ab 84 bd c2 a7 26 bd
       -0.04322774 0.07483398 -0.06478062 -0.04068733
000240 ae ec f4 3c 5f fa 3f bd 3d 44 25 bd 34 81 8d 3d
       0.029898014 -0.04686963 -0.04034828 0.06909409
000250 e5 a8 9e bc 26 1d 9d 3d 6c 03 ba 3d 28 96 21 bd
       -0.019367645 0.07671575 0.09082684 -0.03944984
000260 b9 bf a9 3d e3 5d c2 39 01 57 22 bd e0 8f e4 ba
       0.08288521 0.00037072515 -0.039633755 -0.0017437898
000270 09 19 c7 bd 18 d7 ab bc a6 f6 0b 3c 57 8a c4 3d
       -0.09721572 -0.020976588 0.008542692 0.09596699
000280 28 bc a6 bd e8 0e ae 3c ce 08 85 bc 84 e3 06 bd
       -0.08141357 0.021247342 -0.01623955 -0.03293182
000290 be ae b0 3c 80 f0 37 bd 5d 9b 26 bd d3 7a cd bb
       0.021567699 -0.044907093 -0.04067551 -0.0062707453
0002a0 b1 99 c6 3d c2 5e 93 bd d0 d9 92 3d e3 eb d4 bc
       0.09697283 -0.07195808 0.07170451 -0.025991386
0002b0 7e 23 59 bd 2d 6a 85 3d ff b7 af 3d 35 02 e2 ba
       -0.053012364 0.06514392 0.08580016 -0.0017243089
0002c0 0d 34 b8 bc a8 40 dc ba 88 3e b1 3d 2f 45 ad bd
       -0.022485757 -0.0016803937 0.08654505 -0.08460461
0002d0 33 1b c0 3d bd 1d 63 3d f6 21 ee 3d b5 bc ee 3d
       0.09380188 0.055448283 0.11627571 0.11657087
0002e0 b1 77 7e 3d 86 82 6b 3d 84 9f ec bc 6b e9 d7 3d
       0.062125865 0.057497524 -0.028884657 0.10542568
0002f0 a4 cc 00 bd 01 83 62 bc 57 72 c3 3d e9 17 84 bd
       -0.03144516 -0.013825179 0.09543293 -0.06449873
000300 03 d6 b2 3d b8 66 81 3d 8c 8c df bd dc 1f 1e 3c
       0.08732226 0.0631842 -0.10915479 0.009651151
000310 c2 a0 90 3d 61 37 63 3d 90 74 64 3c fa c4 31 3c
       0.07061912 0.055472735 0.013943806 0.0108501855
000320 44 e7 a4 3b 8e c0 52 3d 9a d8 ef 3c 46 25 35 bd
       0.005032452 0.051453166 0.029278088 -0.044225
000330 8b 45 de bd fb 21 f8 bc 72 21 9f bd 8e 67 cb bc
       -0.10853108 -0.03028964 -0.07770051 -0.024829652
000340 21 70 16 3d 0e 43 9f bc 38 f9 88 bd 35 db 1a bd
       0.03672803 -0.019441154 -0.0668816 -0.03780671
000350 d0 c3 a3 3c 1e f3 d9 3d 5c fc 72 bd 47 27 e3 3c
       0.019990832 0.10642074 -0.0593227 0.02772869
000360 b7 c6 b1 bc 67 07 13 3d c2 7f d7 3d 6a cf 8d 3d
       -0.0217012 0.03589573 0.10522415 0.06924327
000370 b5 cc 2d 3d d4 c4 5d bd 96 75 aa bd 7c 15 2c bd
       0.042431552 -0.054142788 -0.08323209 -0.042012677
000380 91 c8 4c 3d af ac 5f bd 18 80 0c bd 58 8d 30 bd
       0.049995963 -0.054608043 -0.034301847 -0.043103546
000390 13 14 6e 3d 53 e7 72 3c a1 e3 a8 3d 5b 0d 2c bb
       0.058124613 0.01482566 0.08246542 -0.0026253078
0003a0 2d 0c 2e bd 17 3b d9 3d 7d e9 cb bb cf f9 9b 3d
       -0.04249208 0.106069736 -0.0062229023 0.076160066
0003b0 a2 77 25 bc ea 72 b6 3b 76 c5 d5 bd d5 38 b3 3d
       -0.0100993235 0.005567898 -0.10438053 0.08751074
0003c0 40 4b f6 38 a5 75 d1 3d 2c cf 7c 3d 65 b0 48 3d
       0.000117442105 0.10227517 0.061721012 0.048996348
0003d0 42 83 9f 3d cb f1 52 bc 96 6f 83 bd d5 04 31 bd
       0.07788707 -0.012875031 -0.06417768 -0.0432175
0003e0 32 30 75 3d 02 5e 5f 3d 28 c3 2f bd 1d a8 67 bc
       0.059860416 0.054533012 -0.042910725 -0.014139202
0003f0 33 5d 22 3b 06 c1 cf 3d b5 59 38 bd 43 17 ef 3a
       0.002477479 0.10144238 -0.045007426 0.0018241185

rnn.bias_hh_l0 f4 [400]
000000 43 68 1d 3d a6 8f e7 3d 3b 1a 97 3c 9e 41 63 bd
       0.03842951 0.11306696 0.018445125 -0.0554825
000010 d0 42 a1 3d 49 27 da bd 82 7b 99 bd cc fb 9a 3d
       0.078740716 -0.10652024 -0.0749426 0.07567558
000020 69 98 ee 3b 2a cb 6b 3d f2 fe 6e 3d e7 e4 ac bb
       0.0072813523 0.0575668 0.058348604 -0.0052763107
000030 c7 f8 a3 3c 5b ad 01 bd da 26 a4 bd 99 a9 d1 3d
       0.020016087 -0.031659465 -0.08015223 0.10237426
000040 2b 87 66 bc 0f ff ea 39 74 62 63 bd b1 12 01 3e
       -0.0140703125 0.00044821991 -0.055513814 0.12604786
000050 5d cb 96 bd aa dd 9b bd a9 46 04 3e 62 b8 bb bd
       -0.07363007 -0.076106384 0.1291758 -0.091660276
000060 4d f3 cd 3d 49 94 85 3d 87 91 52 bd e3 d2 a2 bc
       0.100561716 0.06522424 -0.051408317 -0.01987595
000070 e1 cd cd bd 7c 5d b9 3d bd 3b 17 bd 74 39 a7 3d
       -0.10049034 0.09051034 -0.036922205 0.08165255
000080 89 e6 16 bd e6 48 e6 3c b0 5e 49 3d 34 d1 a0 bc
       -0.03684095 0.028110933 0.049162567 -0.019631006
000090 ae cc aa bd ff 0d b4 bd a1 f3 6b bd 89 12 27 3d
       -0.08339821 -0.08791732 -0.05760539 0.04078916
0000a0 a8 04 c6 3d f0 e9 78 3c 0d a3 71 3d 11 35 bf 3c
       0.09668857 0.015192494 0.058993388 0.023340734
0000b0 fe e1 3f 3d 78 20 27 bc 33 a3 e6 bc f2 17 cd 3d
       0.046846382 -0.010200612 -0.028153991 0.10014333
0000c0 a5 c5 97 3d 96 71 af 3c fc 03 49 3d a5 3f 75 3d
       0.074107446 0.021416467 0.049076065 0.05987515
0000d0 29 d1 01 3e 3d f8 91 3b 15 77 89 3d 92 9c 0f 3b
       0.12677445 0.004454641 0.06712166 0.0021913392
0000e0 d9 e9 da bd f1 8d c2 3d 5f 5f dc 3d 1d a7 4c bd
       -0.10689134 0.094997294 0.10760378 -0.04996406
0000f0 11 14 4d bd 10 2f 63 bd 15 03 36 3d 39 57 2e 3d
       -0.050067965 -0.055464804 0.044436533 0.04256365
000100 71 f1 bf bc 50 d1 f8 bc 70 5e 98 bd 32 6b a1 bd
       -0.023430558 -0.030373245 -0.074398875 -0.07881774
000110 c2 17 f0 bc 25 d9 a9 3d ae 75 67 3d 8d 3e 8d 3d
       -0.029308204 0.0829337 0.056508712 0.06896696
000120 4e de e8 3c 50 c6 0d bd 12 73 ff 3d e4 ba c3 3d
       0.028426316 -0.034612954 0.1247312 0.09557131
000130 01 de 95 bc 81 e2 b0 bd f3 37 93 3d 14 a8 bc bd
       -0.018294336 -0.08636952 0.07188406 -0.09211746
000140 59 53 94 3c 95 35 5e bd 29 04 ce bc ef 10 88 bc
       0.01810615 -0.05425032 -0.025148468 -0.016609637
000150 80 81 83 bb 39 14 4b 3d cd 57 42 bb 5b 39 48 3d
       -0.0040132403 0.049579833 -0.0029654384 0.048882823
000160 58 83 20 bd a5 ae e2 bc ac 69 0c ba 7d 62 3d 3d
       -0.03918776 -0.027671168 -0.00053563225 0.046236504
000170 cb b8 df 3b ad 9c 1e 3d 38 e3 d2 bd 0c 7d 85 bd
       0.006827449 0.038723636 -0.10297245 -0.065179914
000180 ce 8b af 3d 01 5f de bc be 34 5c 3c 2e 91 a1 3d
       0.085715875 -0.02714491 0.013440309 0.07889019
000190 b2 15 98 bc 24 a2 74 bd 61 d3 88 bd 82 fa 5f bd
       -0.018565033 -0.05972494 -0.06680942 -0.054682262
0001a0 cf 80 af bd 94 06 a5 bd 6b 6f 3e 3d cb db 94 bd
       -0.0856949 -0.08057895 0.046492975 -0.07268485
0001b0 67 5a a7 bc ba 72 bd 3d da b5 8a 3d 1a ed 77 3a
       -0.02042885 0.09250398 0.06772967 0.0009457633
0001c0 3b a7 97 3d 68 03 48 3b 35 49 40 3d 17 b3 b1 3d
       0.074049436 0.0030519608 0.046944816 0.08676737
0001d0 a6 95 d4 bc 9b cb c7 3c c3 03 8c 3d f5 8f ba 3c
       -0.025950264 0.024389079 0.06836655 0.022773722
0001e0 a5 e8 4a 3c 9e 97 92 bd ca fb 7f 3d 7f 15 3f 3d
       0.012384568 -0.07157825 0.062495984 0.04665136
0001f0 a9 18 b3 3d 55 96 c7 3d 89 89 8a bd ed d6 d7 3d
       0.08744938 0.097454704 -0.06764514 0.10539041
000200 79 b8 8d bd f1 3e 96 3d a0 76 20 3a bb 80 dd 3d
       -0.06919951 0.07336224 0.0006121192 0.10815569
000210 bc 2a 88 3d e3 e6 b6 bd c4 dc 50 3b 3c 71 52 3d
       0.06648776 -0.08930757 0.0031869868 0.05137752
000220 ba 85 d6 3a fa 73 cc 3d 47 cd 53 bd 8c 42 06 bd
       0.0016366758 0.09983058 -0.05170944 -0.032778308
000230 c0 b4 e0 bc 23 ea d2 3c 91 54 ea 3d 7d d9 01 3d
       -0.027429938 0.02574641 0.11441911 0.031701554
000240 4a cf db bd c9 33 3d bd 10 7c b4 bd e6 6a de bc
       -0.107328966 -0.046191964 -0.088127255 -0.027150583
000250 67 77 03 bb 62 d6 f1 bc 32 ce 9d 3d 11 9c 68 3a
       -0.0020060183 -0.029521171 0.07705344 0.00088733534
000260 79 62 5a bd 90 65 9c 3c ec 24 29 bd 44 cf 4b 3d
       -0.053316567 0.019091398 -0.041294977 0.04975821
000270 54 50 d0 bd da 00 8f bd 21 9b 85 bd 0a 5b b6 3d
       -0.101715714 -0.06982584 -0.06523729 0.08904083
000280 6e d8 c2 3d d0 d5 b6 bd d7 16 37 bd 98 79 ce 3d
       0.09513937 -0.089275 -0.044699516 0.10081786
000290 53 dc 12 bd 45 af a0 3d 49 93 7f bd ab 0c 1f bd
       -0.03585465 0.0784593 -0.06239632 -0.03883044
0002a0 79 48 4d bd 13 1a ab bd 3f 47 b1 bd 7d b3 34 3d
       -0.050117943 -0.08354583 -0.08656167 0.044116486
0002b0 4b 8d bb bd 3d 19 ae 3d 63 e1 54 bd d6 94 e1 39
       -0.09157809 0.085009076 -0.051972758 0.00043026236
0002c0 f1 34 10 3d de fa 9c 3d 2c 3d 3e bd e1 ae db bd
       0.03520674 0.076650366 -0.046445057 -0.10726715
0002d0 23 b9 9b 3d ba fe 98 bb cf a4 2e 3c 4f 7b ba 3d
       0.076036714 -0.0046690376 0.010659411 0.091055505
0002e0 31 88 54 3d e1 9c fc bb cb ac a7 bc 97 ec 37 3d
       0.051887695 -0.007709131 -0.020468136 0.044903364
0002f0 5c 02 bb bc e2 60 8f bd 22 ca 7e bc 0e e8 f6 3d
       -0.022828273 -0.07000901 -0.015551122 0.1205598
000300 c5 d2 b7 3d b0 c5 81 bd 46 c3 9b 3d 70 18 24 3d
       0.08975748 -0.06336534 0.07605605 0.040062368
000310 16 71 05 bd d8 af a3 bc 0d aa e3 bc 1d 67 eb bc
       -0.03257855 -0.01998131 -0.027791047 -0.028735692
000320 0d c3 cb 3a df 8f 6f bd 41 20 2e 3d b6 7e 51 bd
       0.00155458 -0.058486816 0.04251123 -0.05114623
000330 09 1c c6 bd ec fc 3a bd 86 dc 5d 3d db e5 16 3b
       -0.09673316 -0.04565136 0.054165386 0.0023025188
000340 af 2b ef 3c 71 02 74 bd 8b 07 de 3c c7 10 d2 3c
       0.029195635 -0.05957264 0.027103206 0.025642766
000350 bc a4 c7 3d 17 8e a7 bd 2a b1 dd bd 06 e9 c4 3d
       0.097482175 -0.08181398 -0.10824807 0.09614758
000360 7c ad 14 bd 3b 42 bd 3d ef f4 32 bd fa ed 4f bd
       -0.03629826 0.09241148 -0.043690618 -0.05076406
000370 05 21 6d bd 22 76 78 bd 42 f0 f0 3b b4 c7 3e 3d
       -0.057892818 -0.060659535 0.0073528597 0.04657717
000380 63 11 e2 3d 75 15 21 bd eb c2 41 bc 3c 5a e7 bd
       0.110384725 -0.039327104 -0.011826257 -0.11296508
000390 00 25 c2 3d ca 3c b4 3d 0c 8c f9 bb c9 d2 10 3d
       0.094797134 0.08800657 -0.007615572 0.03535727
0003a0 07 b5 69 3c 78 7d d0 bb 28 18 b2 bd ed 30 ac 3d
       0.014264352 -0.0063626133 -0.08696014 0.08407769
0003b0 9c 30 b8 3c 51 1b 41 3d f4 74 7c 3b b1 18 cf 3c
       0.022484116 0.04714519 0.0038521858 0.025280328
0003c0 2d 72 07 bd 01 6f 03 bb 6a f2 45 3c 52 d3 d6 bd
       -0.03306787 -0.0020055177 0.012081722 -0.10489525
0003d0 99 35 a7 3d 6b 89 db 3c b6 50 7d bd 4f 6f a8 bd
       0.0816452 0.026798924 -0.06184455 -0.082243554
0003e0 89 02 77 bc 24 22 1f 3d e5 1f 47 bd fb 6b db 3b
       -0.015076288 0.03885092 -0.0486144 0.006696222
0003f0 d0 0f 7a 3c e9 13 cb 3d e0 78 9e 3d 1c 28 52 bd
       0.015262559 0.09915907 0.07737899 -0.051307783

linear.weight f4 [1, 100]
000000 46 60 8b bd 89 ed bc 3d d3 7b 6c 3d 19 8b 4d 3c
       -0.06805472 0.09224994 0.057735275 0.0125453705
000010 3b 2b aa bd 12 e9 9a bd 83 8d 84 bd 38 7e 5d 3d
       -0.08309027 -0.07563986 -0.06472304 0.05407545
000020 b7 9a 02 3e 6d 6d 43 3d 63 eb 2b 3d c2 1c 36 bd
       0.12754332 0.04771178 0.04197253 -0.04446102
000030 3b 30 7d 3d 06 12 98 3d cc 5e 09 be 00 d6 fd 3d
       0.061813574 0.07425313 -0.13415068 0.12394333
000040 ee 22 13 3e 44 5a 86 3d b8 e2 f5 3b 3c 28 d6 bd
       0.14368793 0.065601856 0.0075038336 -0.10456893
000050 b0 ef aa bd aa 15 0f be b9 8b e2 3d ae 2c a5 3d
       -0.08346498 -0.13973108 0.11061806 0.080651626
000060 21 4e a1 3c 9c ac 0c 3e b5 59 b2 bd 3d 82 ac bd
       0.019690575 0.1373772 -0.087085165 -0.084232785
000070 05 50 00 3c e0 79 bb bd f8 90 ac bd 80 4f bf bd
       0.007831578 -0.09154105 -0.08426088 -0.09341335
000080 a7 27 a6 bd ad 8a 15 3d ca 3c 11 be 1b 44 39 3d
       -0.08113032 0.036509205 -0.14183345 0.045230966
000090 5b af 95 bd e7 fd 0a 3d 94 ac bd bd 6f b1 9f bd
       -0.07308837 0.033933546 -0.09261432 -0.07797515
0000a0 45 d6 3a bd 20 81 94 3d 8c 42 28 3d a1 16 99 bc
       -0.0456145 0.07251191 0.04107909 -0.018687548
0000b0 d0 49 22 bd 70 46 97 bd 17 c2 6c 3d 48 2a ef 3c
       -0.039621174 -0.07386482 0.057802286 0.029194966
0000c0 e3 09 96 bc 88 88 a7 3d ba 19 2a 3d 5f e8 00 3e
       -0.018315261 0.08180338 0.04152844 0.12588643
0000d0 86 4e 16 be 13 7c 82 bd 03 c1 10 3e 5f 40 b6 3d
       -0.14678392 -0.063713215 0.14136128 0.088989966
0000e0 fc 87 35 bd dd c7 dc bd 89 6e b3 bd b1 12 5e bd
       -0.044319138 -0.107803084 -0.08761317 -0.054217044
0000f0 67 e9 dd bd 03 34 a9 bd d3 b3 d6 3d 5d 2c 9f bd
       -0.108355336 -0.082618736 0.104835175 -0.077721335
000100 5c 8b 74 bc 11 30 9b 3d b4 ee db 3d 40 20 ff bd
       -0.014925804 0.07577527 0.107388884 -0.12457323
000110 6e d5 82 3d d9 25 a9 bd b6 46 d6 3d 19 9c 84 3d
       0.06388365 -0.08259172 0.10462706 0.06475086
000120 a9 3a a9 bc 11 3d 02 3e 0a b1 da 3d 8e 97 05 3e
       -0.020657854 0.12718607 0.10678299 0.13046095
000130 35 67 75 3d a5 b9 12 bd 49 90 9c bd a4 cf 96 3d
       0.05991288 -0.035821576 -0.07644708 0.07363823
000140 c3 bd 3a bc 77 e0 89 3d 21 62 e1 3d 3f 8b 03 be
       -0.011397782 0.067322664 0.11005045 -0.12846087
000150 f5 6f a2 3d e2 be 64 3d 26 00 b1 3d 5f 3a 65 bd
       0.0793151 0.055846103 0.086426064 -0.05596387
000160 bf b6 97 3d 62 db 9a 3d 2d 36 cc 3d 8a b5 c8 bd
       0.07407903 0.07561375 0.09971271 -0.09800251
000170 33 06 01 be ff e0 93 3c 88 d4 8f 3d 6b 06 8d bd
       -0.12600021 0.018051622 0.07022959 -0.0688599
000180 89 3b 08 3e 36 a5 85 3a 68 9a 1b 3d 86 f3 be bd
       0.13303961 0.0010196331 0.03798905 -0.09323792
