backend/trained_models/ADBL_GRU_model_state_dict.pth (torch, 607235 bytes, 9 tensors)

rnn.weight_ih_l0 f4 [384, 5]
-0.017182635 -0.062270112 0.07943474 0.06697472 0.074208364 -0.05245221 0.075436726 0.09237394
0.013884343 -0.063761085 -0.03634012 -0.025464408 -0.061495673 0.13229741 0.07748851 0.016540114
0.036058135 -0.02379739 -0.03918784 0.084249154 0.0183995 0.05522195 0.03525608 -0.13508162
-0.05240202 0.09886543 -0.018894548 0.082571216 0.004111667 -0.029624289 -0.016074028 -0.088436
0.021001464 0.022229759 -0.037470266 -0.021329613 -0.052433267 -0.036783505 -0.008854253 0.006457494
-0.031777177 0.018218236 0.0064341896 -0.02164366 -0.03190747 0.0913471 -0.0035253402 0.04009195
-0.01006221 -0.09525856 -0.09012993 -0.079834245 0.028236674 0.10227859 0.061841194 -0.030813731
0.038201015 -0.05066895 0.122531265 -0.021950066 -0.0596754 -0.017424783 0.072185114 -0.0636127
0.018573513 0.05967449 -0.046036202 -0.073451534 -0.06571339 0.027020134 -0.0055254702 0.028991152
0.0023800768 0.051692553 -0.026602373 -0.04935296 0.0071303067 0.030235179 -0.027691243 0.035442397
-0.059024006 -0.035000134 -0.01384301 -0.09998062 0.027456973 0.020181136 -0.008499163 -0.024806928
-0.02208594 -0.051991593 0.051325046 0.06218391 -0.06871918 0.038256638 0.016057793 0.06682203
0.004354126 -0.009490713 -0.03150124 -0.067961596 -0.06894739 0.032085758 -0.06627959 0.05788271
0.040686477 -0.056214564 -0.052232366 -0.07828933 -0.0727438 -0.031906802 0.04850517 -0.06455629
0.005017828 0.051137682 -0.06333711 0.060308695 0.066762276 0.033349425 -0.033100784 -0.028226795
0.057677682 0.0899033 0.06392991 -0.007904593 -0.06397319 -0.031342246 0.023275664 -0.02764917
-0.056075133 -0.050477363 -0.06333564 0.075655654 -0.021467283 0.10644823 -0.021187233 0.02621043
0.04965703 -0.01567056 0.061972123 -0.076350294 0.0016749103 -0.07247529 -0.05137088 0.02524132
0.008958398 0.05904826 -0.024540707 0.04883724 0.07370026 0.04103601 0.054055363 0.0762442
0.09852624 0.0065625524 0.08140929 0.05205649 0.07416467 0.087372534 -0.006441742 0.021880906
-0.10132261 0.07835346 0.06017012 -0.07866066 0.07628466 -0.025421726 0.062805116 0.107280664
0.029076392 0.071623705 0.09189077 0.0026917863 0.06258892 0.01076352 -0.049169686 -0.0051800907
-0.01273361 -0.04185673 -0.031391475 0.01874444 -0.05980281 -0.05837939 -0.018619798 0.067995064
-0.06620381 0.10592641 -0.0579954 -0.048431233 0.032359116 -0.05381453 0.092626385 0.083683245
0.06590011 0.04856227 -0.055113915 -0.052588373 -0.008280244 0.052321553 0.019063376 0.027172811
-0.012192455 -0.031007357 0.01947427 -0.102404036 -0.028091146 -0.03497961 0.07204246 0.00457316
0.076087676 0.051220156 0.057050146 -0.04994182 0.020120325 0.037359018 -0.055225976 0.058157332
0.03535224 -0.07753049 0.091163374 -0.08458228 0.101011164 0.053193603 -0.021946397 -0.013715166
-0.064774126 0.02083976 -0.018395 -0.02507474 -0.028110249 0.02241836 -0.036484964 0.005308896
-0.044117074 -0.036320493 -0.1017702 0.101711676 0.026621588 -0.077884614 0.036727842 0.02379187
-0.0064054476 0.031062393 0.08237855 -0.019311352 -0.07848547 0.06822003 0.06008761 -0.017561201
0.06518563 -0.028303405 -0.01879565 0.029377831 0.077772476 -0.032522384 0.022058412 0.01794209
00000000: 99c2 8cbc f20e 7fbd aeae a23d 0b2a 893d
00000010: 8efa 973d 21d8 56bd 927e 9a3d 8c2e bd3d
00000020: 287b 633c 2c95 82bd 61d9 14bd bc9a d0bc
00000030: e3e2 7bbd f978 073e 4cb2 9e3d 227f 873c
00000040: b2b1 133d bef2 c2bc 6e83 20bd d28a ac3d
00000050: 8cba 963c 6930 623d ae68 103d d652 0abe
00000060: 80a3 56bd f579 ca3d bdc8 9abc 191b a93d
00000070: 2abb 863b a3ae f2bc aead 83bc ef1d b5bd
00000080: 430b ac3c 2f1b b63c 6c7a 19bd 71bb aebc
00000090: 44c4 56bd 4daa 16bd 6e11 11bc 6399 d33b
000000a0: c928 02bd 693e 953c e5d5 d23b 0b4e b1bc
000000b0: 68b1 02bd 3014 bb3d 6509 67bb 7537 243d
000000c0: f8db 24bc eb16 c3bd 0a96 b8bd 2380 a3bd
000000d0: 9950 e73c 7077 d13d 314d 7d3d 146d fcbc
000000e0: ab78 1c3d 3f8a 4fbd acf1 fa3d a0d0 b3bc
000000f0: 316e 74bd 6bbe 8ebc cad5 933d 6047 82bd
00000100: 7b27 983c 3d6d 743d 7590 3cbd c26d 96bd
00000110: be94 86bd 5459 dd3c 010f b5bb da7e ed3c
00000120: 10fb 1b3b 92bb 533d 38ed d9bc 5426 4abd
00000130: 59a5 e93b c4af f73c bfd8 e2bc 0c2c 113d
00000140: 28c3 71bd 4d5c 0fbd cbcd 62bc a4c2 ccbd
00000150: 72ed e03c e952 a53c 1340 0bbc e637 cbbc
00000160: 93ed b4bc 23f5 54bd 363a 523d 8eb4 7e3d
00000170: a4bc 8cbd feb2 1c3d a28b 833c fdd9 883d
00000180: 0ead 8e3b ef7e 1bbc 7207 01bd 732f 8bbd
00000190: 4a34 8dbd 5b6c 033d 98bd 87bd 6c16 6d3d
000001a0: dda6 263d 3e41 66bd 9bf1 55bd 2856 a0bd
000001b0: b4fa 94bd b5b0 02bd 5bad 463d 1736 84bd
000001c0: 986c a43b bf75 513d e3b6 81bd 4006 773d
000001d0: a9ba 883d 6899 083d b094 07bd e13b e7bc
000001e0: 6f3f 6c3d 391f b83d afed 823d 4482 01bc
000001f0: 6004 83bd ba60 00bd 9bac be3c 8380 e2bc
00000200: 0aaf 65bd 5ac1 4ebd 1eb6 81bd 5af1 9a3d
00000210: 28dc afbc 8801 da3d d990 adbc 41b7 d63c
00000220: 2b65 4b3d 8c5f 80bc 7bd6 7d3d 8b5d 9cbd
00000230: aa88 db3a ed6d 94bd 466a 52bd e2c6 ce3c
00000240: 3fc6 123c 97dc 713d 9809 c9bc 8f09 483d
00000250: 29f0 963d 6015 283d 2869 5d3d eb25 9c3d
00000260: 20c8 c93d ae0a d73b eab9 a63d 3039 553d
00000270: a6e3 973d 5ff0 b23d 4015 d3bb 963f b33c
00000280: 3b82 cfbd c777 a03d f274 763d d718 a1bd
00000290: 223b 9c3d 3941 d0bc f89f 803d f7b5 db3d
000002a0: 9d31 ee3c 73af 923d 3a31 bc3d ae68 303b
000002b0: 9f2e 803d 7a59 303c 2766 49bd c0bd a9bb
000002c0: a2a0 50bc f671 2bbd 5994 00bd f18d 993c
000002d0: cbf3 74bd 3a1f 6fbd 8c88 98bc ff40 8b3d
000002e0: dd95 87bd f2ef d83d 968c 6dbd d45f 46bd
000002f0: fe8a 043d a06c 5cbd e7b2 bd3d 1f62 ab3d
00000300: a3f6 863d 3be9 463d 21bf 61bd e866 57bd
00000310: dca9 07bc 204f 563d cc2a 9c3c 8499 de3c
00000320: ddc2 47bc 2403 febc 8188 9f3c 35b9 d1bd
00000330: 671f e6bc c846 0fbd ff8a 933d 72da 953b
00000340: dbd3 9b3d 3acc 513d 6aad 693d cb8f 4cbd
00000350: 61d3 a43c c505 193d a234 62bd 6236 6e3d
00000360: 83cd 103d 4ec8 9ebd ddb3 ba3d 7939 adbd
00000370: f1de ce3d 89e1 593d eec8 b3bc 93b5 60bc
00000380: 4ca8 84bd 25b8 aa3c 1cb1 96bc 8b69 cdbc
00000390: 7747 e6bc b5a6 b73c 4271 15bd 3ff6 ad3b
000003a0: 1bb4 34bd ccc4 14bd e56c d0bd 364e d03d
000003b0: 8415 da3c f881 9fbd ef6f 163d 2be7 c23c
000003c0: cae4 d1bb 8f76 fe3c 16b6 a83d d732 9ebc
000003d0: fdbc a0bd f1b6 8b3d 6d1e 763d 82dc 8fbc
000003e0: 0b80 853d 8bdc e7bc 56f9 99bc c7a9 f03c
000003f0: 2d47 9f3d 3136 05bd d8b3 b43c 4afb 923c

rnn.weight_hh_l0 f4 [384, 128]
-0.006217628 0.022021845 -0.113661334 -0.058795806 -0.07800882 -0.024591766 0.0021163272 -0.050697137
0.036767878 -0.025021061 -0.07972486 0.099856004 -0.090342574 -0.081498355 0.074685454 0.034818728
-0.01007094 0.04436081 -0.018460458 -0.0023412753 -0.11207567 0.03012655 0.059904955 0.0029288423
-0.0306738 -0.052932482 0.012220645 0.038790703 0.079538785 3.6576694e-05 0.030104764 -0.04452046
-0.047970556 -0.0043256143 0.03722016 0.08061355 -0.058986533 0.05041655 0.054663207 -0.006717214
-0.012087779 -0.015587536 -0.097865716 -0.015316496 0.048703372 -0.024336027 0.0034309393 0.021453781
0.055291608 0.0064659184 -0.059904944 0.07771911 0.08908919 0.028574616 -0.09342734 -0.04675257
0.04247769 -0.008446403 -0.03581441 0.00044225025 0.085354656 -0.043906145 -0.039764114 -0.028448004
-0.03916803 -0.028226122 0.07897787 -0.04220674 -0.0014764379 0.05929374 0.07732991 0.028163616
0.015836738 -0.065933555 -0.040062163 -0.04601763 0.040906727 0.06692195 0.036820088 -0.0827751
0.051629063 -0.008623528 0.034637965 0.09877102 0.009140238 0.036148857 0.09273594 -0.0037633525
-0.018971981 0.028912498 0.0015075054 0.010145049 0.049194127 0.065844 0.0134318005 -0.010616559
0.039942022 0.013084041 -0.0663244 -0.05373682 0.009814305 -0.019179905 0.071786605 -0.0003977327
-0.038725138 0.03242036 -0.0040049665 -0.04093742 0.045865387 0.04819223 0.025593165 -0.065336116
0.082625665 0.01575917 -0.09182738 0.042712323 -0.091868006 0.050398085 -0.027498048 0.052081298
-0.048679326 -0.0098943515 -0.013820068 0.0479766 -0.03560215 -0.028917562 0.040387083 0.06198509
-0.047691386 0.033349838 0.04324217 0.054937683 -0.09464722 0.048498746 -0.06380034 0.0679593
-0.030802267 -0.004398215 -0.0014532172 -0.018980606 0.060063083 0.07051334 -0.038170088 -0.005454841
-0.10908479 0.033219825 -0.051786754 0.06561601 -0.023094812 -0.026713563 0.08131862 -0.0751825
-0.06385469 0.040840033 0.044054672 -0.07738708 -0.032448478 -0.030638784 -0.05071793 0.017870748
0.003356529 -0.066355824 0.01784695 0.039742038 -0.034926485 -0.037194237 -0.034195844 -0.007312313
0.010234224 0.057283457 -0.045777902 -0.054031618 -0.075301334 -0.10034185 0.06981231 -0.060478427
-0.013034371 0.027983304 -0.069925986 -0.010091706 -0.06809109 0.07718842 0.030711373 -0.05579697
0.04144622 -0.06988734 0.09200823 -0.00017549554 0.08988094 -0.115572564 0.10945897 -0.028123416
0.0045888694 -0.1002641 0.057407606 -0.05969023 0.058170047 0.05013266 0.089660816 0.030255126
0.02475218 0.03697811 0.042572625 -0.03012622 -0.0593125 0.082796715 -0.03410161 -0.0016894906
0.0417325 0.046081357 0.018048597 -0.038491514 -0.0027229446 -0.06905416 -0.030774655 -0.031098235
-0.078573175 0.03934901 0.04914245 -0.0638909 0.06466918 0.08310113 -0.003888452 0.009387793
-0.086227834 -0.0095654735 -0.0394852 -0.083890766 -0.030822337 -0.05948453 0.06350554 -0.07506649
-0.0714396 0.002268468 -0.06300212 -0.06502239 -0.04041633 -0.0020549607 -0.020513155 -0.05489826
0.087994106 0.018186213 -0.10634754 -0.020905403 -0.048389547 -0.012916074 -0.052141257 0.011448019
0.046236426 0.05079464 0.045563664 -0.06545752 -0.017412405 0.066163704 -0.034534935 -0.016152345
00000000: 3ebd cbbb 2867 b43c 46c7 e8bd dfd3 70bd
00000010: 17c3 9fbd ac74 c9bc 14b2 0a3b cda7 4fbd
00000020: ea99 163d f8f8 ccbc ca46 a3bd 4e81 cc3d
00000030: 8705 b9bd 9ce8 a6bd b0f4 983d 159e 0e3d
00000040: 9500 25bc aeb3 353d 633a 97bc 1570 19bb
00000050: ee87 e5bd f4cb f63c e65e 753d d2f1 3f3b
00000060: 9f47 fbbc bbcf 58bd 1a39 483c 00e3 1e3d
00000070: 3be5 a23d ed69 1938 449e f63c 165b 36bd
00000080: c67c 44bd e2bd 8dbb 2b74 183d b818 a53d
00000090: dd9b 71bd 9681 4e3d 87e6 5f3d 131c dcbb
000000a0: d20b 46bc dd62 7fbc d26d c8bd 0af2 7abc
000000b0: 307d 473d 595c c7bc 9cd9 603b d7bf af3c
000000c0: 7479 623d 0ee0 d33b e35e 75bd 322b 9f3d
000000d0: 6574 b63d 5015 ea3c d556 bfbd 9f7f 3fbd
000000e0: 16fd 2d3d c862 0abc 21b2 12bd d3dd e739
000000f0: 6cce ae3d eed6 33bd b2df 22bd ca0b e9bc
00000100: a86e 20bd 783a e7bc 26bf a13d f9e0 2cbd
00000110: 0985 c1ba fedd 723d 255f 9e3d 62b7 e63c
00000120: 0cbc 813c 2c08 87bd 3918 24bd fb7c 3cbd
00000130: d08d 273d 600e 893d a9d0 163d fe85 a9bd
00000140: ff78 533d b349 0dbc 8ae0 0d3d 7648 ca3d
00000150: f0c0 153c d310 143d 57ec bd3d 94a2 76bb
00000160: 216b 9bbc e7d9 ec3c 7d97 c53a 6b37 263c
00000170: c87f 493d 38d9 863d 0e11 5c3c 13f1 2dbc
00000180: 3f9a 233d 725e 563c 16d5 87bd 241b 5cbd
00000190: 2ecc 203c 2d1f 9dbc db04 933d c886 d0b9
000001a0: 409e 1ebd 36cb 043d 183c 83bb ffad 27bd
000001b0: 58dd 3b3d 3765 453d c2a8 d13c f1ce 85bd
000001c0: a537 a93d 6019 813c fe0f bcbd 1ef3 2e3d
000001d0: 4b25 bcbd 396e 4e3d 9643 e1bc 3353 553d
000001e0: f963 47bd eb1b 22bc 916d 62bc 1c83 443d
000001f0: 8fd3 11bd 86e4 ecbc ed6c 253d 14e4 7d3d
00000200: 0b58 43bd d799 083d b41e 313d 5606 613d
00000210: 67d6 c1bd 9fa6 463d c1a9 82bd 3f2e 8b3d
00000220: 0955 fcbc e71e 90bb e179 beba 377d 9bbc
00000230: b504 763d 4c69 903d 3d58 1cbd 86be b2bb
00000240: d967 dfbd 8311 083d 591e 54bd b061 863d
00000250: 5531 bdbc 67d6 dabc 608a a63d 48f9 99bd
00000260: 3fc6 82bd e147 273d ac72 343d 1e7d 9ebd
00000270: b2e8 04bd 30fe fabc 9bbd 4fbd ad65 923c
00000280: 36f9 5b3b 90e5 87bd c433 923c 8cc8 223d
00000290: 130f 0fbd fc58 18bd f110 0cbd 219c efbb
000002a0: 72ad 273c 0fa2 6a3d 9c81 3bbd 4250 5dbd
000002b0: 9637 9abd 0780 cdbd c2f9 8e3d 3ab8 77bd
000002c0: 1d8e 55bc 3e3d e53c 5b35 8fbd af57 25bc
000002d0: 5773 8bbd f614 9e3d 6b96 fb3c 5d8b 64bd
000002e0: 83c3 293d 1821 8fbd d06e bc3d 3a05 38b9
000002f0: 8013 b83d 4fb1 ecbd 062c e03d 1463 e6bc
00000300: 3a5e 963b 4457 cdbd 3d24 6b3d be7d 74bd
00000310: b743 6e3d e757 4d3d 17a0 b73d 99d9 f73c
00000320: 15c5 ca3c 5c76 173d a260 2e3d 43cb f6bc
00000330: aaf1 72bd 5391 a93d 21ae 0bbd e671 ddba
00000340: b3ef 2a3d cebf 3c3d a7da 933c 47a9 1dbd
00000350: 6e73 32bb 446c 8dbd 211b fcbc bac1 febc
00000360: f9ea a0bd 6d2c 213d 9849 493d 3bd9 82bd
00000370: 4671 843d ed30 aa3d 66d5 7ebb 42cf 193c
00000380: 3898 b0bd 81b8 1cbc 3cbb 21bd ecce abbd
00000390: 207f fcbc 0da6 73bd 310f 823d 76bc 99bd
000003a0: ed4e 92bd 94aa 143b 4107 81bd 752a 85bd
000003b0: 988b 25bd 85ac 06bb 340b a8bc ffdc 60bd
000003c0: 4136 b43d 41fb 943c bdcc d9bd cf41 abbc
000003d0: 1e34 46bd f19d 53bc 1292 55bd 7990 3b3c
000003e0: 6862 3d3d 0a0e 503d f7a0 3a3d 980e 86bd
000003f0: 76a4 8ebc d680 873d 8174 0dbd ec51 84bc

rnn.bias_ih_l0 f4 [384]
-0.05718411 0.0719068 -0.03290543 0.005011545 0.09733464 0.04083165 -0.0013105999 0.06474424
-0.024011333 -0.09076111 -0.08323979 0.040953264 -0.0021343206 -0.048285943 -0.07967579 -0.09307977
-0.01719811 -0.034850813 -0.05410956 0.006394305 -0.050897446 -0.09295659 -0.06863697 -0.08921548
0.047572788 -0.025030427 0.020263929 0.03129715 -0.048184212 -0.05623345 -0.061180048 -0.019420305
0.051123865 -0.019503674 -0.07837216 -0.019627368 0.02769633 -0.069484405 -0.086294375 -0.004833619
-0.014778528 0.034372717 -0.072051995 -0.07513324 -0.05351387 -0.07076551 -0.0030318494 -0.03094911
-0.053389534 -0.036136415 -0.03861585 0.05590038 0.027942555 -0.06850846 -0.05661621 -0.018119182
-0.015601253 -0.044024833 0.06322967 -0.01454766 -0.0043975916 -0.058461208 -0.06447621 0.08108882
-0.058844373 0.022269363 0.058448374 0.04762458 -0.02341712 -0.076549195 0.06597715 0.0443592
-0.004717453 0.04090515 0.07121589 -0.060987674 0.08132932 0.042942848 -0.087290086 0.011003947
0.06384153 -0.07386389 -0.021609765 -0.06896279 -0.009955795 0.026015822 0.043778926 -0.09446798
0.042030863 0.031121697 -0.086027086 -0.06987612 0.06259658 -0.06992764 -0.0024471371 0.043173864
0.07022102 -0.009705549 -0.037000727 0.07941411 0.0075139203 -0.054994293 0.08426245 0.06620754
-0.07040335 0.0374215 -0.030294837 -0.032067098 0.0873611 -0.08396143 -0.05003845 -0.015177623
-0.011712915 -0.054636586 0.06386868 -0.07174716 0.008603144 -0.06446918 0.046282645 -0.022816978
-0.052517887 -0.059080146 0.0726696 -0.010185119 0.06496151 -0.0663578 -0.043184504 -0.07413261
-0.094598755 -0.09470017 -0.11100375 -0.07455158 -0.14448942 -0.11608001 -0.05030074 0.029519578
0.013127552 -0.09552644 -0.1544457 -0.10114621 -0.009208377 -0.044449363 -0.055300456 -0.006819502
-0.0075792405 0.03524635 0.06278023 0.053459518 0.034550887 0.010342661 0.041057304 -0.1638064
0.08596246 0.025210245 -0.07580545 -0.08649872 -0.04245342 -0.017655099 -0.0629032 0.08462
-0.08299589 -0.14841047 -0.1183874 -0.10049379 -0.031237667 0.07363383 0.097702734 0.11425447
-0.09691363 -0.054629624 -0.016957214 0.009776238 0.020603077 -0.0049289432 0.03387238 0.039533053
-0.089802414 -0.07306309 0.08034048 -0.00033403136 0.15546232 -0.012016827 0.056679066 -0.08180023
0.073041 -0.058856536 -0.027269853 0.121537894 -0.10222197 0.020075245 -0.072388135 -0.056815457
-0.08619303 0.0391029 -0.083265185 -0.10369965 -0.044227872 -0.041167542 0.02213478 -0.15039155
0.028036488 0.09336773 -0.04533451 -0.09708782 -0.1128086 -0.054896384 -0.051447682 0.032786902
-0.10474163 -0.039654963 0.060046084 -0.056258217 -0.00655107 -0.04734192 -0.070697084 -0.07350212
-0.09531496 -0.012729187 0.11186797 0.013059361 -0.10294946 -0.05871857 -0.04156024 -0.10296658
0.044169433 -0.08441365 -0.04799358 0.022309007 -0.14912082 -0.050689112 -0.0017982231 0.06104022
0.058076788 -0.023459919 0.08402397 -0.01569492 -0.027394898 -0.0851876 0.015985321 -0.1378438
-0.071601614 -0.027250556 -0.08352134 -0.0023102025 -0.05453217 0.04008484 0.059319545 -0.07243005
-0.042341974 0.029927354 0.017428055 -0.10692069 0.02818662 -0.14173074 -0.040874623 -0.046770453
00000000: e339 6abd df43 933d d8c7 06bd e337 a43b
00000010: 6257 c73d 173f 273d 6fc8 abba a198 843d
00000020: 6ab3 c4bc f6e0 b9bd 9f79 aabd 9cbe 273d
00000030: f5df 0bbb 7bc7 45bd 102d a3bd 9ba0 bebd
00000040: 0de3 8cbc babf 0ebd fca1 5dbd 5187 d13b
00000050: d779 50bd 0660 bebd 8a91 8cbd 9bb6 b6bd
00000060: afdb 423d 9c0c cdbc 8a00 a63c 7131 003d
00000070: cf5c 45bd 0c55 66bd ee97 7abd 5517 9fbc
00000080: 4267 513d 2bc6 9fbc 9581 a0bd 93c9 a0bc
00000090: 6ae3 e23c d74d 8ebd 1bbb b0bd 5663 9ebb
000000a0: a421 72bc 68ca 0c3d ff8f 93bd 75df 99bd
000000b0: 5c31 5bbd 82ed 90bd feb1 46bb fd88 fdbc
000000c0: fcae 5abd c703 14bd a72b 1ebd ccf7 643d
000000d0: c9e7 e43c 2a4e 8cbd 66e6 67bd ae6e 94bc
000000e0: 669c 7fbc 6253 34bd 8f7e 813d 4f59 6ebc
000000f0: ac19 90bb 0575 6fbd 1a0c 84bd e511 a63d
00000100: cc06 71bd 3d6e b63c 9067 6f3d fe11 433d
00000110: 43d5 bfbc d3c5 9cbd 071f 873d feb1 353d
00000120: dd94 9abb 298c 273d a3d9 913d 36ce 79bd
00000130: fd8f a63d d7e4 2f3d 25c5 b2bd e649 343c
00000140: 59bf 823d f345 97bd f606 b1bc 5d3c 8dbd
00000150: a11d 23bc 221f d53c 8851 333d 6e78 c1bd
00000160: 8e28 2c3d eef2 fe3c f82e b0bd 361b 8fbd
00000170: a332 803d 3936 8fbd 2660 20bb 14d7 303d
00000180: 0ad0 8f3d 0604 1fbc 138e 17bd dda3 a23d
00000190: 5537 f63b b241 61bd cb91 ac3d d297 873d
000001a0: a22f 90bd 4947 193d e12c f8bc ca58 03bd
000001b0: 60ea b23d f8f3 abbd 1ef5 4cbd 91ab 78bc
000001c0: 87e7 3fbc 9dca 5fbd 95cd 823d 2df0 92bd
000001d0: 34f4 0c3c 6b08 84bd df92 3d3d acea babc
000001e0: ff1c 57bd 06fe 71bd cdd3 943d 7cdf 26bc
000001f0: 8a0a 853d 99e6 87bd 3ce2 30bd d6d2 97bd
00000200: febc c1bd 2af2 c1bd ef55 e3bd 80ae 98bd
00000210: 09f5 13be 5bbb edbd 2608 4ebd 0bd3 f13c
00000220: f214 573c 5ea3 c3bd 0327 1ebe bf25 cfbd
00000230: bcde 16bc 8910 36bd bb82 62bd 2176 dfbb
00000240: 475b f8bb 7a5e 103d ec92 803d 5ef8 5a3d
00000250: 3b85 0d3d 4474 293c b42b 283d ddbc 27be
00000260: 160d b03d b785 ce3c e33f 9bbd 3e26 b1bd
00000270: a3e3 2dbd 6da1 90bc 65d3 80bd 404d ad3d
00000280: c0f9 a9bd eaf8 17be 1875 f2bd b0cf cdbd
00000290: 23e6 ffbc 55cd 963d 5f18 c83d 3ffe e93d
000002a0: a77a c6bd 50c3 5fbd dbe9 8abc 842c 203c
000002b0: c9c7 a83c f982 a1bb c4bd 0a3d 69ed 213d
000002c0: 54ea b7bd 1aa2 95bd 8d89 a43d ee20 afb9
000002d0: 8431 1f3e 3ae2 44bc 4f28 683d e186 a7bd
000002e0: 8596 953d 8d13 71bd 0765 dfbc dce8 f83d
000002f0: c159 d1bd d774 a43c 3b40 94bd 53b7 68bd
00000300: f985 b0bd 5d2a 203d f086 aabd 7b60 d4bd
00000310: 4928 35bd 4c9f 28bd 0054 b53c 3e00 1abe
00000320: c7ac e53c 9537 bf3d aeb0 39bd fbd5 c6bd
00000330: 3208 e7bd 08db 60bd ceba 52bd 8f4b 063d
00000340: c882 d6bd 3e6d 22bd e2f2 753d 046f 66bd
00000350: 5caa d6bb 9ae9 41bd a2c9 90bd 4888 96bd
00000360: 7d34 c3bd 148e 50bc 091b e53d eef6 553c
00000370: 2bd7 d2bd e282 70bd 123b 2abd 24e0 d2bd
00000380: 02eb 343d 10e1 acbd eb94 44bd 61c1 b63c
00000390: 21b3 18be 639f 4fbd 5bb2 ebba 4f05 7a3d
000003a0: ede1 6d3d 042f c0bc c214 ac3d a292 80bc
000003b0: 446b e0bc d676 aebd a6f3 823c ed26 0dbe
000003c0: dea3 92bd 8f3c dfbc 3c0d abbd c466 17bb
000003d0: 205d 5fbd 0030 243d 0df9 723d 3556 94bd
000003e0: c76e 2dbd 362a f53c 48c5 8e3c 3cf9 dabd
000003f0: a0e7 e63c dd21 11be 266c 27bd 6092 3fbd

rnn.bias_hh_l0 f4 [384]
-0.08237605 -0.05477718 0.06919102 0.052328765 0.028054465 -0.009969053 -0.037716027 -0.06906751
-0.034551617 0.06478719 -0.061762065 0.046035785 -0.066638015 -0.04743738 0.0021143586 0.016328325
-0.050038107 0.0336188 -0.06792659 -0.016370531 -0.07092868 0.055437427 -0.023929417 0.014233465
0.043906372 -0.063511975 0.046976127 -0.021412058 0.057851788 0.060665663 -0.016986217 0.0049633877
0.070538655 0.07700272 -0.04234568 0.034355436 -0.009280872 0.02981668 0.058833126 0.044801958
0.07006099 0.0147936465 -0.0037098427 0.040916882 -0.034159563 -0.049808025 -0.04795182 0.02221494
0.020916004 -0.016337482 0.066803746 -0.0126493685 0.04459188 -0.079311326 -0.0007031186 0.06537031
0.07848066 -0.012645366 0.06899875 -0.045859545 0.06611076 -0.009877343 -0.025074778 0.025150683
-0.054686483 -0.09019768 -0.1024193 -0.02590549 -0.07948394 -0.087503605 0.06576049 0.02600912
0.015350684 0.07135015 -0.052591175 -0.08013267 -0.05562024 -0.059505694 -0.030911425 -0.03840655
-0.021748215 -0.04429198 0.01635935 -0.01852236 -0.09820632 0.0323081 -0.034745265 0.06206495
-0.09001911 -0.011918478 -0.068056926 -0.036605924 0.023120167 -0.012736355 -0.0005982911 -0.008274472
0.048610438 0.019034512 0.021211643 0.028883038 0.027918141 -0.013052963 -0.02363623 0.063951395
0.011770713 0.058920447 -0.006522166 0.058149848 -0.010974676 -0.08920325 -0.05351939 0.060150415
-0.02205258 0.0512154 -0.07077462 0.08420913 -0.079221636 -0.046959322 -0.060086094 0.07455261
-0.060160067 0.031559493 -0.06254913 0.05267895 -0.00850402 -0.0052237725 -0.024207376 0.041671332
-0.054957002 -0.09908742 -0.04318975 0.023672136 -0.14039929 -0.029424584 -0.11712208 -0.060124386
-0.037546348 -0.0020799474 -0.06037069 -0.014802009 -0.07437812 -0.07762083 0.0188248 0.05661204
-0.083590105 -0.00052030827 0.13952158 0.06854174 -0.015781682 0.0073064654 0.028075779 -0.12616679
-0.019596983 -0.010093762 -0.09790701 0.010802038 0.0025662356 0.0040305513 -0.06765284 0.09189839
-0.09450754 -0.13250229 -0.1325879 -0.011075647 0.053962775 0.08799104 0.05345256 0.010467389
-0.06842466 -0.035822082 0.101974875 -0.020005614 0.04245701 0.0074137514 -0.09870441 -0.084189765
0.008505001 0.069103055 0.09008975 -0.051415898 0.047471777 -0.15271275 0.06354311 -0.15808225
0.07470473 -0.09617213 -0.035695404 0.026463082 -0.14476164 -0.06605754 -0.098283686 0.013275222
-0.059283286 0.026772883 -0.13163513 -0.10613813 0.10788559 0.11166099 -0.07561792 -0.105957426
-0.13348612 0.04844338 -0.07727073 -0.0921917 -0.037035983 -0.117399186 -0.06930773 -0.036573023
-0.014194197 -0.10553443 0.05146761 0.106129624 -0.047993965 -0.044785023 0.000113759954 -0.0487322
0.049605448 -0.099798284 0.094086416 -0.1388759 -0.022523724 -0.08054786 0.046037525 -0.03972415
-0.08434807 -0.021007484 -0.056245912 -0.027863858 -0.15014951 -0.04784162 0.04351025 0.11582635
0.03756018 -0.12001511 -0.023497256 -0.1104001 -0.06148273 0.0069206357 0.016231963 -0.02794383
0.023121983 -0.04695421 -0.10165175 -0.115057185 -0.117775105 -0.042485923 -0.05542417 -0.106522605
-0.06553509 -0.0062670377 0.050483115 -0.0011909737 -0.03713645 -0.108373314 -0.09700636 -0.033560358
00000000: c6b4 a8bd 095e 60bd 06b4 8d3d b056 563d
00000010: 7ad2 e53c 3d55 23bc 1f7c 1abd 4473 8dbd
00000020: ff85 0dbd 25af 843d 38fa 7cbd 0590 3c3d
00000030: 8379 88bd b34d 42bd 0d91 0a3b fbc2 853c
00000040: c2f4 4cbd deb3 093d 191d 8bbd 7e1b 86bc
00000050: 0e43 91bd 5b12 633d a007 c4bc 7b33 693c
00000060: 2bd7 333d 9112 82bd 0a6a 403d 5768 afbc
00000070: fff5 6c3d 8f7c 783d ae26 8bbc eaa3 a23b
00000080: 9276 903d 9ab3 9d3d aa72 2dbd 49b8 0c3d
00000090: cc0e 18bc 1c42 f43c 01fb 703d 4282 373d
000000a0: 237c 8f3d 0d61 723c d520 73bb 7698 273d
000000b0: e6ea 0bbd 8003 4cbd 2169 44bd 1bfc b53c
000000c0: 0a58 ab3c 2fd6 85bc 67d0 883d 4c3f 4fbc
000000d0: faa5 363d fa6d a2bd 7e51 38ba dee0 853d
000000e0: 78ba a03d 822e 4fbc 374f 8d3d 38d7 3bbd
000000f0: 1465 873d 94d4 21bc 9f69 cdbc ce08 ce3c
00000100: effe 5fbd 90b9 b8bd 36c1 d1bd c037 d4bc
00000110: 7ac8 a2bd 1735 b3bd 70ad 863d 1411 d53c
00000120: 6f81 7b3c 0720 923d d869 57bd 991c a4bd
00000130: 0cd2 63bd 3ebc 73bd f539 fdbc 3050 1dbd
00000140: 5029 b2bc 826b 35bd 0b04 863c 34bc 97bc
00000150: 6520 c9bd 8055 043d 0d51 0ebd d137 7e3d
00000160: f05b b8bd b845 43bc 6e61 8bbd 18f0 15bd
00000170: 8166 bd3c 25ac 50bc a3d6 1cba a791 07bc
00000180: bd1b 473d 44ee 9b3c 0ac4 ad3c 1f9c ec3c
00000190: 96b4 e43c 18dc 55bc c4a0 c1bc f3f8 823d
000001a0: f3d9 403c 9156 713d e5b7 d5bb 892e 6e3d
000001b0: 21cf 33bc 32b0 b6bd 2637 5bbd 4860 763d
000001c0: 9da7 b4bc 3dc7 513d 49f2 90bd d675 ac3d
000001d0: f43e a2bd 6b58 40bd d61c 76bd 0aaf 983d
000001e0: 676a 76bd 8744 013d c219 80bd e2c5 573d
000001f0: 7254 0bbc 2e2c abbb 8c4e c6bc 8faf 2a3d
00000200: 981a 61bd 58ee cabd bce7 30bd 11ec c13c
00000210: d5c4 0fbe d30b f1bc b3dd efbd fd44 76bd
00000220: 33ca 19bd ba4f 08bb 4247 77bd 2084 72bc
00000230: 8e53 98bd abf7 9ebd 7836 9a3c 07e2 673d
00000240: 4a31 abbd 4c65 08ba bfde 0e3e 9d5f 8c3d
00000250: 9648 81bc 136b ef3b 2dff e53c de31 01be
00000260: da89 a0bc 4e60 25bc 7883 c8bd 08fb 303c
00000270: 4a2e 283b b712 843b 928d 8abd 3935 bc3d
00000280: 2b8d c1bd aeae 07be 1fc5 07be a176 35bc
00000290: 1208 5d3d a534 b43d 12f1 5a3d 697f 2b3c
000002a0: 3a22 8cbd 2dba 12bd 34d8 d03d d0e2 a3bc
000002b0: 67e7 2d3d 0eef f23b 8a25 cabd af6b acbd
000002c0: 8f58 0b3c e785 8d3d fa80 b83d 7a99 52bd
000002d0: c471 423d bb60 1cbe e422 823d 50e0 21be
000002e0: cbfe 983d e5f5 c4bd 5835 12bd 1bc9 d83c
000002f0: 653c 14be 2d49 87bd f548 c9bd 5180 593c
00000300: 08d3 72bd ce52 db3c 5ccb 06be f35e d9bd
00000310: 1ff3 dc3d 84ae e43d 91dd 9abd 3500 d9bd
00000320: 96b0 08be 916c 463d 1e40 9ebd 01cf bcbd
00000330: 0bb3 17bd fc6e f0bd 36f1 8dbd 98cd 15bd
00000340: c78e 68bc 6f22 d8bd b3cf 523d 7d5a d93d
00000350: 5295 44bd 8070 37bd 6992 ee38 6a9b 47bd
00000360: 152f 4b3d 0b63 ccbd 61b0 c03d 7c35 0ebe
00000370: ac83 b8bc 47f6 a4bd d891 3c3d cab5 22bd
00000380: aebe acbd e317 acbc 1d62 66bd bf42 e4bc
00000390: cbc0 19be 93f5 43bd ce37 323d 5e36 ed3d
000003a0: b4d8 193d 7bca f5bd 517d c0bc 7319 e2bd
000003b0: 51d5 7bbd 80c6 e23b e5f8 843c 75ea e4bc
000003c0: 506a bd3c 0f53 40bd cb2e d0bd 1aa3 ebbd
000003d0: 1334 f1bd b805 2ebd 7404 63bd 8628 dabd
000003e0: 4337 86bd b95b cdbb 62c7 4e3d 721a 9cba
000003f0: 641c 18bd d4f2 ddbd 45ab c6bd 9676 09bd

rnn.weight_ih_l1 f4 [384, 128]
-0.052911825 -0.015154464 0.059241083 -0.0063425894 -0.06800712 -0.07905293 -0.012530906 -0.0020651668
0.08194449 -0.047418904 0.08637081 -0.06726491 -0.06395856 -0.040218864 0.03555488 0.044046253
0.07754336 0.04496532 0.032358456 -0.00085600495 -0.111656785 -0.01448267 -0.063322015 0.072217755
0.056221735 0.053678684 -0.05504129 -0.014669694 0.0960108 -0.07003813 0.043996904 0.0074092248
-0.0012408706 0.04125722 0.059237037 0.033087663 -0.048309196 0.068899766 0.00879123 0.03914
0.037578322 0.0248322 -0.03365063 -0.07444696 -0.03958878 0.041620065 0.025930889 -0.04171089
-0.052208055 -0.007042653 0.026953649 -0.040854692 0.07984692 -0.056157596 -0.056482464 -0.09696893
-0.06714543 0.0015807332 -0.06838747 -0.04486805 -0.035296872 -0.013875795 -0.056557246 -0.01813568
0.015222733 0.050020367 0.10293144 -0.051868193 -0.018279072 -0.09502821 -0.0018987663 -0.0324036
-0.03751224 0.08476543 0.08338434 -0.058453485 -0.037569042 -0.028806657 0.053634845 0.01174262
-0.05194437 -0.02652427 0.02245184 0.11760879 -0.092974305 0.0027669328 0.08306365 -0.039774783
0.021240504 0.03257048 -0.07348853 -0.032236148 -0.048553593 0.0873392 -0.09266112 -0.07911271
0.00034679752 0.09322486 -0.007577714 -0.07625222 0.07007382 -0.020195398 0.082967065 0.01855449
-0.06314656 0.09386487 0.046688247 0.08280338 0.07136736 0.044713106 0.033937026 -0.045407638
-0.052133434 0.07618111 -0.0045556035 0.062144022 0.06342714 -0.021700928 0.029055795 -0.044375703
-0.018426146 0.00013354434 0.071545266 -0.034262627 0.08064987 -0.00217821 0.05032611 -0.037364185
0.048206914 0.04064778 0.030662933 0.09285122 -0.034088563 0.043737244 8.961045e-05 0.015377086
-0.0080854995 0.0036438077 0.09634927 -0.024668483 -0.012629638 0.039998647 -0.02537955 0.013437315
-0.057103615 0.034124292 -0.0109939985 -0.10002681 0.045559924 0.0076646754 -0.010268741 0.012998779
0.045523204 -0.07692637 0.018915072 -0.085500255 -0.0871793 -0.08450788 -0.012122068 -0.05791764
-0.071112745 -0.10860937 -0.04265747 -0.034452647 0.027599415 0.051270507 0.067057304 0.033330437
0.057563476 -0.055546764 -0.048095223 -0.067201436 0.020124208 -0.033995386 -0.05876441 0.09536286
-0.020112399 -0.023282176 -0.051546466 0.053584352 -0.043092243 0.046997845 0.041976236 -0.01913881
0.086839624 -0.032557 -0.05158119 0.023579549 -0.055380993 0.021532595 0.032813925 -0.06751251
-0.023847584 -0.058563117 0.019763941 -0.077689044 0.07596539 0.10526017 0.018257756 0.057689264
0.027441105 -0.051967505 0.036382053 0.009824801 0.025408959 -0.034308054 -0.08302995 0.0028134545
0.0025248555 0.0948071 0.025781786 0.07097823 -0.029478082 0.0076123844 0.09860248 0.032353427
-0.07364314 0.014138245 0.03494956 -0.039812192 -0.017036896 -0.055528738 0.061559968 0.05792563
-0.00031531247 -0.07146551 0.081635416 -0.0769145 -0.02764313 0.064219855 0.0981954 0.054749355
0.025876323 -0.013423943 0.014780995 0.019427104 0.015646795 0.045350406 0.04408885 0.048795074
0.02834965 0.04763496 0.01895587 -0.024803696 0.011400339 -0.07692385 -0.07832842 -0.08010796
0.054508973 -0.04718155 -0.06631025 -0.04728571 -0.004829672 0.030565247 -0.073631264 0.083140686
00000000: 12ba 58bd 6e4a 78bc c7a6 723d 7fd5 cfbb
00000010: 5147 8bbd 81e6 a1bd 6e4e 4dbc c057 07bb
00000020: 83d2 a73d 533a 42bd 2ee3 b03d 2fc2 89bd
00000030: b5fc 82bd 89bc 24bd fea1 113d d869 343d
00000040: 0ecf 9e3d 8e2d 383d 4d8a 043d 8565 60ba
00000050: 50ac e4bd b948 6dbc f9ae 81bd e7e6 933d
00000060: c348 663d 2ede 5b3d fa72 61bd 2859 70bc
00000070: 4fa1 c43d 2770 8fbd 1936 343d 15c9 f23b
00000080: b5a4 a2ba 55fd 283d 89a2 723d ee86 073d
00000090: dddf 45bd 521b 8d3d 1709 103c 4451 203d
000000a0: baeb 193d e66c cb3c 3ed5 09bd a677 98bd
000000b0: d827 22bd cd79 2a3d 046d d43c 0ad9 2abd
000000c0: 1dd8 55bd 0ec6 e6bb e6cd dc3c 4057 27bd
000000d0: c886 a33d 8205 66bd 285a 67bd a597 c6bd
000000e0: 8b83 89bd 9b30 cf3a bb0e 8cbd 8fc7 37bd
000000f0: 7493 10bd 4d57 63bc 92a8 67bd 4791 94bc
00000100: c568 793c 28e2 4c3d b8cd d23d be73 54bd
00000110: febd 95bc 269e c2bd 06e0 f8ba a3b9 04bd
00000120: 6fa6 19bd 7f99 ad3d 69c5 aa3d ec6c 6fbd
00000130: ffe1 19bd f0fb ebbc 36b0 5b3d 1e64 403c
00000140: 9fc3 54bd 6d49 d9bc ecec b73c e1dc f03d
00000150: 5069 bebd 6e55 353b 461d aa3d e2ea 22bd
00000160: 9100 ae3c a068 053d 2881 96bd 0d0a 04bd
00000170: 22e0 46bd e5de b23d 1dc5 bdbd d805 a2bd
00000180: 60d2 b539 adec be3d 794e f8bb 202a 9cbd
00000190: dd82 8f3d d270 a5bc a3ea a93d 96ff 973c
000001a0: fc52 81bd 3a3c c03d 2d3c 3f3d d294 a93d
000001b0: 0d29 923d 1725 373d 8d01 0b3d 5cfd 39bd
000001c0: de89 55bd d804 9c3d 2c47 95bb bb8a 7e3d
000001d0: 17e6 813d 25c6 b1bc 6b06 ee3c 4cc3 35bd
000001e0: 6ef2 96bc 0908 0c39 5386 923d f856 0cbd
000001f0: c22b a53d 4dc0 0ebb c022 4e3d 300b 19bd
00000200: 9d74 453d 497e 263d d530 fb3c c828 be3d
00000210: 73a0 0bbd d325 333d 3eed bb38 2cf0 7b3c
00000220: 0b79 04bc f3cc 6e3b c452 c53d 8f15 cabc
00000230: 8bec 4ebc 9fd5 233d c6e8 cfbc 2f28 5c3c
00000240: 7be5 69bd eac5 0b3d 2c20 34bc dbda ccbd
00000250: 0b9d 3a3d f527 fb3b 393e 28bc d5f8 543c
00000260: 8a76 3a3d 938b 9dbd c8f3 9a3c c21a afbd
00000270: 108b b2bd 7812 adbd a39b 46bc 0c3b 6dbd
00000280: 8fa3 91bd 976e debd 99b9 2ebd 381e 0dbd
00000290: 2b18 e23c 0601 523d 5755 893d 7f85 083d
000002a0: aec7 6b3d 0185 63bd 7fff 44bd e8a0 89bd
000002b0: 86db a43c bf3e 0bbd f3b2 70bd 9a4d c33d
000002c0: c2c2 a4bc 43ba bebc 6322 53bd 447b 5b3d
000002d0: 7e81 30bd d080 403d 46ef 2b3d fec8 9cbc
000002e0: f9d8 b13d 7d5a 05bd cc46 53bd e629 c13c
000002f0: 2ed7 62bd 2065 b03c e567 063d 0044 8abd
00000300: 025c c3bc e1df 6fbd fde7 a13c 6f1b 9fbd
00000310: be93 9b3d a592 d73d 4a91 953c 944b 6c3d
00000320: 2bcc e03c e1db 54bd 5905 153d 34f8 203c
00000330: 7326 d03c 9a86 0cbd 9b0b aabd ef61 383b
00000340: 0c78 253b 3a2a c23d 5334 d33c 095d 913d
00000350: 057c f1bc 4f71 f93b 19f0 c93d 0785 043d
00000360: 37d2 96bd 19a4 673c 4527 0f3d 1c12 23bd
00000370: f690 8bbc 1a72 63bd 4e26 7c3d 6d43 6d3d
00000380: 8650 a5b9 825c 92bd 7830 a73d 5985 9dbd
00000390: d873 e2bc b385 833d ab1a c93d dc40 603d
000003a0: 95fa d33c 19f0 5bbc fd2b 723c 9725 9f3c
000003b0: b52d 803c 59c1 393d 8396 343d 58dd 473d
000003c0: 863d e83c e01c 433d 5749 9b3c 1f31 cbbc
000003d0: 7dc8 3a3c 408a 9dbd a76a a0bd a40f a4bd
000003e0: cd44 5f3d 7141 41bd abcd 87bd a9ae 41bd
000003f0: 3a42 9ebb f863 fa3c fdcb 96bd aa45 aa3d

rnn.weight_hh_l1 f4 [384, 128]
-0.051612083 0.037447535 -0.03663623 0.040460303 -0.05856586 0.09335413 -0.0016556034 -0.010100217
-0.025724055 0.024198255 -0.0045133983 0.06840521 0.07783976 0.023648258 0.063080475 0.074460104
0.0029242465 -0.044372905 -0.027302317 -0.037128467 -0.091909826 0.06675264 0.08700568 0.04251349
-0.050150156 -0.041563936 0.027347283 0.04038851 -0.09068226 -0.04991248 -0.04930933 -0.022070108
-0.023970483 -0.10157759 0.06610812 0.027354235 0.068368815 0.06367764 0.012334555 0.07688586
-0.051252 0.038934734 0.08535824 -0.06614477 0.022353558 -0.05893616 -0.07234346 -0.024970068
-0.021521404 0.053413093 0.046151683 -0.020783164 0.06277395 0.05315173 0.010860788 -0.06889459
0.08198225 0.018043078 -0.09389346 -0.08716373 0.033565983 0.07085424 0.07747697 0.028259747
-0.035956074 -0.060166206 0.07682187 0.04340531 -0.06361911 0.065681376 0.011194842 -0.040356755
0.03795966 -0.07783171 -0.056585435 0.030370394 0.012026718 -0.00859724 0.05472848 -0.0069931634
0.09520592 -0.058455393 -0.030857744 -0.026836596 0.008178761 -0.06473412 0.08079017 -0.04253714
0.06463964 -0.010073216 -0.079404026 0.007323071 -0.0032231063 0.071800314 -0.06953362 -0.019178087
-0.006037652 -0.02671117 -0.103871755 0.03792843 0.040439304 0.0062628775 0.001613344 0.010632937
0.061474107 0.1188047 -0.030572586 0.056786582 -0.022747021 0.03400506 0.09838212 -0.090477265
0.059211332 -0.0672648 0.03860716 -0.03529172 0.026559949 0.069058 -0.061477814 -0.068257384
0.04974863 -0.010243278 0.04892538 -0.06911334 0.02106304 0.04640377 0.0042910627 0.05445603
-0.02132761 0.049468316 0.0042620506 0.0076943906 0.0059991963 -0.028693827 0.014490469 -0.03425181
0.07286384 0.010362347 -0.017171478 -0.028634384 -0.07116558 -0.00056173664 0.009485266 -0.057948783
0.024436275 0.014318237 -0.035579 0.06684846 -0.02839048 -0.056827765 -0.009378011 0.043030713
0.0017888896 -0.08460615 -0.030987859 -0.06082987 -0.004012891 0.056634363 0.028891264 0.023824811
-0.036483377 0.04234052 0.07121964 0.02685365 0.06325997 0.02827301 -0.08885593 0.0440649
-0.026391061 0.061238017 0.0832846 -0.0730601 -0.031743262 -0.0029008817 0.026017223 -0.033529546
0.07112274 0.08069807 0.07529223 -0.03553166 0.12381073 0.09378224 0.044526625 -0.019295279
0.0284126 -0.0029198942 -0.005907169 -0.011792901 -0.009260632 0.055785365 -0.01126849 -0.043144688
-0.003561334 -0.08060257 -0.085223295 -0.0024337438 0.057475425 -0.08534851 -0.08104308 -0.065142035
0.0028293803 -0.0740848 -0.09597308 -0.1108403 0.011668568 -0.023556745 0.025005028 -0.05656446
-0.046248224 -0.014405858 -0.086818635 -0.07050778 -0.019561928 0.03382392 -0.061829884 0.03370368
-0.03713356 -0.019915206 -0.058204725 -0.0879728 0.01236557 -0.034553602 0.021868791 -0.094123125
0.023820985 0.06548506 0.076440215 -0.074921824 -0.048650432 0.050751295 0.06111868 -0.07038638
0.005844815 -0.07057717 -0.085139655 -0.08543686 0.035115324 -0.012134263 0.02965679 0.037062783
0.054046474 0.031099115 -0.08978228 -0.02232936 0.062443316 0.06329909 -0.012462162 0.0826826
0.0098914495 0.031159902 -0.0231464 0.10027282 -0.019799653 0.010380961 -0.07038654 -0.089716025
00000000: 3167 53bd 9662 193d df0f 16bd b4b9 253d
00000010: c1e2 6fbd 7330 bf3d d500 d9ba 617b 25bc
00000020: 41bb d2bc 6b3b c63c 21e5 93bb 0818 8c3d
00000030: 746a 9f3d feb9 c13c 5630 813d 8a7e 983d
00000040: b7a4 3f3b 5dc0 35bd 1ca9 dfbc 0514 18bd
00000050: 383b bcbd 9cb5 883d 0930 b23d a022 2e3d
00000060: 406a 4dbd f23e 2abd 6907 e03c 6c6e 253d
00000070: 9fb7 b9bd 0771 4cbd 94f8 49bd 5fcc b4bc
00000080: bf5d c4bc e907 d0bd b263 873d fd15 e03c
00000090: f304 8c3d 6c69 823d e016 4a3c 5576 9d3d
000000a0: 9eed 51bd 077a 1f3d 4dd0 ae3d e976 87bd
000000b0: cf1e b73c 0b67 71bd cf28 94bd 078e ccbc
000000c0: a84d b0bc b0c7 5a3d 8c09 3d3d 7441 aabc
000000d0: a18f 803d a1b5 593d 72f1 313c 9b18 8dbd
000000e0: 4fe6 a73d 14cf 933c 374b c0bd e682 b2bd
000000f0: 7c7c 093d 071c 913d 3fac 9e3d fc80 e73c
00000100: ad46 13bd d770 76bd c954 9d3d c4c9 313d
00000110: bc4a 82bd f583 863d 926a 373c 204d 25bd
00000120: 977b 1b3d 3b66 9fbd 21c6 67bd 55cb f83c
00000130: b60b 453c 70db 0cbc f82a 603d e826 e5bb
00000140: 52fb c23d ec6e 6fbd 61c9 fcbc 6cd8 dbbc
00000150: 3600 063c 5393 84bd 5175 a53d 6d3b 2ebd
00000160: ca61 843d 210a 25bc 949e a2bd 5ff6 ef3b
00000170: c03a 53bb 0b0c 933d a467 8ebd 5d1b 9dbc
00000180: 7fd7 c5bb 62d1 dabc b7ba d4bd d75a 1b3d
00000190: afa3 253d d338 cd3b d776 d33a c535 2e3c
000001a0: 46cc 7b3d e14f f33d 5c73 fabc 0c99 683d
000001b0: f657 babc e448 0b3d 917c c93d 254c b9bd
000001c0: 9587 723d 21c2 89bd 8b22 1e3d 0d8e 10bd
000001d0: 4094 d93c 486e 8d3d 29d0 7bbd 87ca 8bbd
000001e0: 38c5 4b3d 6cd3 27bc fb65 483d 4b8b 8dbd
000001f0: 658c ac3c e111 3e3d 0b9c 8c3b 490d 5f3d
00000200: 3db7 aebc 4a9f 4a3d aca8 8b3b 3a21 fc3b
00000210: e894 c43b 510f ebbc 6f69 6d3c a04b 0cbd
00000220: a339 953d d5c6 293c 33ab 8cbc a892 eabc
00000230: 42bf 91bd 8241 13ba 1768 1b3c b45b 6dbd
00000240: 952e c83c 0a97 6a3c 49bb 11bd d8e7 883d
00000250: 2793 e8bc 3bc4 68bd 3ba6 19bc f940 303d
00000260: 2d79 ea3a fd45 adbd 40da fdbc be28 79bd
00000270: 927e 83bb 6ff9 673d 5fad ec3c 402c c33c
00000280: 986f 15bd 416d 2d3d 9adb 913d 30fc db3c
00000290: 718e 813d cd9c e73c 19fa b5bd 667d 343d
000002a0: 1132 d8bc b7d4 7a3d 1e91 aa3d 89a0 95bd
000002b0: 3905 02bd b81c 3ebb 1222 d53c 4756 09bd
000002c0: cda8 913d 0845 a53d d032 9a3d a589 11bd
000002d0: 7b90 fd3d e710 c03d 8d61 363d 2211 9ebc
000002e0: 8ac1 e83c b25b 3fbb ed90 c1bb 0337 41bc
000002f0: e8b9 17bc 327f 643d 799f 38bc 7cb8 30bd
00000300: 4565 69bb f612 a5bd 8d89 aebd 727f 1fbb
00000310: 5a6b 6b3d 33cb aebd eaf9 a5bd 3069 85bd
00000320: 206d 393b c6b9 97bd 898d c4bd 3d00 e3bd
00000330: 852d 3f3c 13fa c0bc 58d7 cc3c 23b0 67bd
00000340: c76e 3dbd 8c06 6cbc f8cd b1bd 6266 90bd
00000350: 5640 a0bc f38a 0a3d 5541 7dbd df0c 0a3d
00000360: 5c19 18bd 3725 a3bc 1468 6ebd 152b b4bd
00000370: f698 4a3c 1488 0dbd 2e26 b33c a0c3 c0bd
00000380: 3a24 c33c 081d 863d b08c 9c3d 9d70 99bd
00000390: ad45 47bd 97e0 4f3d 9557 7a3d bc26 90bd
000003a0: dd85 bf3b c38a 90bd b35d aebd 85f9 aebd
000003b0: 16d5 0f3d cace 46bc ccf2 f23c 25cf 173d
000003c0: d65f 5d3d 92c3 fe3c c6df b7bd 10ec b6bc
000003d0: 90c4 7f3d f4a2 813d 192e 4cbc 7f55 a93d
000003e0: bf0f 223c 0d43 ff3c 859d bdbc d65b cd3d
000003f0: e232 a2bc e814 2a3c d126 90bd 09bd b7bd

rnn.bias_ih_l1 f4 [384]
-0.056929383 -0.055231813 0.019167934 0.03223015 -0.069696456 -0.07774675 0.02074016 -0.046128135
0.08819347 -0.031232448 0.043584637 -0.055321958 -0.06301721 0.057376724 0.03768656 -0.022279516
0.047845505 -0.04242149 0.023841975 -0.046372604 0.033171594 0.034483753 -0.004318799 -0.018690992
-0.063820064 -0.08544951 0.084327474 0.009321812 0.03887724 0.053137023 0.06442249 -0.021383496
-0.046100147 0.045582898 -0.014121031 -0.02951274 -0.05664636 -0.052921362 -0.0038794398 -0.014902079
-0.014292784 -0.04800367 -0.09475813 -0.07815287 0.03473853 -0.08866494 -0.0914301 -0.001391334
0.004429555 -0.014025942 -0.030271966 -0.0706143 -0.015380447 -0.07639749 -0.07054987 -0.041840784
-0.047865182 -0.012155895 0.008200133 0.04336576 -0.014654784 0.02812328 0.016742615 -0.025049891
-0.084204055 -0.036738396 -0.083959796 0.06270531 -0.02019788 0.0035209393 0.08339194 0.0470478
-0.075120844 -0.021031382 -0.070411965 -0.08137029 -0.044606216 -0.0032218767 0.0028478191 -0.04035727
-0.0660778 0.04008048 0.06181072 -0.08430898 -0.09787946 -0.008936359 -0.047251686 -0.06657311
0.0122310575 -0.042426936 -0.053318728 0.027795734 -0.028276822 -0.0437741 -0.05682748 -0.021613017
0.07052759 -0.082842685 0.03628989 0.058434203 0.0043153837 -0.035371143 0.028080514 -0.084714346
0.057310432 0.057193838 -0.068878226 0.06598847 -0.057542875 -0.04106381 0.01696591 -0.0014124995
-0.08522572 -0.027023401 0.08270784 0.018192874 0.04083206 0.08275817 0.097206466 -0.02193975
0.07460493 -0.030034123 0.063365646 -0.010212521 0.09325 -0.011670383 -0.031709313 0.027541934
-0.0110046 0.009269741 0.038034305 -0.0004452836 -0.04998037 -0.13970034 0.050479308 -0.075532116
-0.008882244 -0.05911378 0.04032624 0.03166656 0.00789411 -0.10886712 -0.058008607 -0.10503682
-0.0969249 -0.025961984 -0.021477148 0.0019772116 -0.04612742 -0.10766575 -0.08795663 -0.08514183
0.017002782 0.005990615 -0.045824453 -0.06450542 0.02710944 0.027530072 -0.09613876 0.059550725
0.011994902 -0.11029853 0.006579525 -0.08592809 -0.097148344 -0.10569574 0.018413594 0.052305564
-0.09629293 0.02402911 -0.11525395 -0.06282593 -0.046020664 -0.01430458 -0.0017147799 -0.003228661
-0.05608562 0.036491908 -0.05919778 -0.037451066 0.052801665 -0.13205332 -0.020364217 -0.039775014
0.0021429148 -0.047145862 0.05689001 0.041914787 -0.12097668 -0.022750162 -0.005674289 -0.052850194
-0.10196551 -0.009866425 -0.10591249 -0.051331285 0.069459215 0.021416696 0.04637763 -0.10762957
-0.10447214 -0.0643505 0.006520977 -0.027727624 0.02113684 -0.10289986 -0.1337652 0.03170975
-0.04993808 -0.07164907 0.04263986 0.012800165 -0.04409213 -0.028702155 0.042982146 -0.053302877
-0.08104282 0.008455565 -0.11426389 0.051113784 -0.057929195 -0.057645276 -0.04299267 -0.04026166
-0.08007514 0.1392148 -0.04595935 -0.11688712 0.048797697 0.056262035 -0.107265055 0.018896347
-0.12989596 -0.03751461 -0.081196174 -0.042098433 0.11133831 0.00705527 0.009567018 0.041352756
0.0664642 -0.046613168 -0.009791961 -0.09397254 0.011136571 -0.04489825 -0.14040571 -0.07489882
-0.04510776 -0.00018984926 0.018608296 -0.020616958 -0.02704402 -0.056722324 -0.02643246 -0.068974204
00000000: c92e 69bd c13a 62bd 1206 9d3c c303 043d
00000010: 04bd 8ebd b039 9fbd 45e7 a93c dbf0 3cbd
00000020: c79e b43d 31db ffbc ce85 323d 4799 62bd
00000030: 2b0f 81bd db03 6b3d 395d 1a3d 8883 b6bc
00000040: a6f9 433d 28c2 2dbd 3f50 c33c 33f1 3dbd
00000050: f0de 073d d63e 0d3d b684 8dbb da1d 99bc
00000060: 18b4 82bd 2700 afbd e2b3 ac3d 83ba 183c
00000070: be3d 1f3d 35a6 593d f0ef 833d 712c afbc
00000080: 82d3 3cbd 22b5 3a3d e65b 67bc b4c4 f1bc
00000090: 0306 68bd 12c4 58bd 333e 7ebb d927 74bc
000000a0: 482c 6abc 7f9f 44bd 8d10 c2bd 9d0e a0bd
000000b0: fd49 0e3d f795 b5bd b43f bbbd 6c5d b6ba
000000c0: cd25 913b 11cd 65bc eafc f7bc 3b9e 90bd
000000d0: 45fe 7bbc 4a76 9cbd 737c 90bd 3e61 2bbd
000000e0: 480e 44bd 8529 47bc da59 063c 4ca0 313d
000000f0: 9f1a 70bc cb62 e63c cf27 893c 6e35 cdbc
00000100: 2d73 acbd 007b 16bd 1df3 abbd a46b 803d
00000110: 0676 a5bc 8fbf 663b 65c9 aa3d 32b5 403d
00000120: f5d8 99bd 014a acbc 2634 90bd 77a5 a6bd
00000130: 02b5 36bd 1f26 53bb 7aa2 3a3b aa4d 25bd
00000140: cc53 87bd 6e2b 243d 3d2d 7d3d 30aa acbd
00000150: 0775 c8bd ce69 12bc fc8a 41bd 7c57 88bd
00000160: c664 483c dec7 2dbd bd64 5abd e1b3 e33c
00000170: cba4 e7bc 784c 33bd efc3 68bd c80d b1bc
00000180: c570 903d 6da9 a9bd b5a4 143d b458 6f3d
00000190: 1068 8d3b 55e1 10bd 1b09 e63c b77e adbd
000001a0: 58be 6a3d 1644 6a3d 0710 8dbd f724 873d
000001b0: 14b2 6bbd 8732 28bd 18fc 8a3c 9e23 b9ba
000001c0: d38a aebd 2e60 ddbc ba62 a93d 3909 953c
000001d0: 853f 273d 1e7d a93d 2f14 c73d feba b3bc
000001e0: 78ca 983d 1f0a f6bc d9c5 813d 6b52 27bc
000001f0: dbf9 be3d 2235 3fbc a0e1 01bd 9f9f e13c
00000200: a34c 34bc 1de0 173c dcc9 1b3d f474 e9b9
00000210: 37b8 4cbd 9b0d 0fbe 64c3 4e3d 95b0 9abd
00000220: d586 11bc 4a21 72bd 212d 253d cbb4 013d
00000230: 4c56 013c baf5 debd 6f9a 6dbd 8b1d d7bd
00000240: 9080 c6bd 3aae d4bc d8f0 afbc 1b94 013b
00000250: 1bf0 3cbd dc7f dcbd 9b22 b4bd d75e aebd
00000260: 6b49 8b3c ec4c c43b 6cb2 3bbd 6b1b 84bd
00000270: 9e14 de3c bf86 e13c 66e4 c4bd 76eb 733d
00000280: 4486 443c 32e4 e1bd 0e99 d73b 11fb afbd
00000290: b6f5 c6bd 0277 d8bd 1bd8 963c 5c3e 563d
000002a0: 3a35 c5bd b2d8 c43c 430a ecbd e2aa 80bd
000002b0: 2a80 3cbd c25d 6abc 77c2 e0ba f197 53bb
000002c0: 09ba 65bd 8a78 153d 5f79 72bd 4a66 19bd
000002d0: 8f46 583d fc38 07be dcd2 a6bc 20eb 22bd
000002e0: 2570 0c3b 051c 41bd 8005 693d d7ae 2b3d
000002f0: 9fc2 f7bd 8c5e babc 63ef b9bb 7279 58bd
00000300: 4bd3 d0bd c9a6 21bc a6e8 d8bd c140 52bd
00000310: a240 8e3d 1172 af3c 78f6 3d3d e46c dcbd
00000320: 7df5 d5bd 32ca 83bd ebad d53b 0b25 e3bc
00000330: 2b27 ad3c 29bd d2bd bff9 08be 15e2 013d
00000340: df8b 4cbd bfbc 92bd 22a7 2e3d c9b7 513c
00000350: f399 34bd c820 ebbc 0c0e 303d 1e54 5abd
00000360: c7f9 a5bd 3689 0a3c 3003 eabd b05c 513d
00000370: 2a47 6dbd 741d 6cbd 1519 30bd 69e9 24bd
00000380: 6ffe a3bd 538e 0e3e df3f 3cbd 8462 efbd
00000390: 18e0 473d 0573 663d c8ad dbbd 83cc 9a3c
000003a0: 7203 05be eba8 19bd 2e4a a6bd 686f 2cbd
000003b0: 5705 e43d e52f e73b fbbe 1c3c 8261 293d
000003c0: 621e 883d 73ed 3ebd 766e 20bc ad74 c0bd
000003d0: 2a76 363c 3ae7 37bd 84c6 0fbe 8d64 99bd
000003e0: eac2 38bd 4612 47b9 6d70 983c e5e4 a8bc
000003f0: 6c8b ddbc ab55 68bd e388 d8bc 5942 8dbd
