backend/trained_models/ADBL_GRU_model_state_dict.pth (torch, 126723 bytes, 5 tensors)

rnn.weight_ih_l0 f4 [300, 1]
000000 01 7d 04 bd 0e 96 b1 bb cd fb 54 bd 3d 73 01 3d
       -0.032345776 -0.0054194992 -0.05199795 0.03160404
000010 c8 27 6a 3d 7c f9 b3 3b e5 94 11 bd 26 25 50 3d
       0.057166845 0.0054923873 -0.035542388 0.050816678
000020 8d f8 11 bd f7 ac c4 ba da 1d 92 3d 89 18 89 3c
       -0.035637427 -0.0015005161 0.071346 0.016735332
000030 a9 e7 b7 3d 82 4f 56 bd 65 1d 11 bd f5 35 93 3c
       0.089797325 -0.05232192 -0.035428423 0.017970065
000040 29 44 cb 3b e3 4e 99 3d 3e 91 8a 3d b4 e5 7a 3d
       0.0062031937 0.074857496 0.06765984 0.06125422
000050 4b 6e 49 3d 43 08 ce bd 43 1e 4d bd d1 a4 37 bd
       0.04917745 -0.100601695 -0.050077688 -0.044834916
000060 ed fd 4e 3d f6 40 c5 bc 92 d7 be 3d b4 98 f2 bc
       0.05053513 -0.024078827 0.093184605 -0.02961383
000070 4e 21 d4 b9 08 7c 0e 3d 20 d7 2b 3b b9 ae ab bd
       -0.00040460605 0.034786254 0.0026220754 -0.08382935
000080 a1 fa e7 3d ff 84 49 3d 30 43 5a 3d 13 23 93 3d
       0.113271005 0.0491991 0.05328673 0.07184424
000090 3b f6 a5 3d cc 6b ad 3d f9 53 36 bd df 5a b3 3d
       0.08103605 0.08467826 -0.044513676 0.08757567
0000a0 f9 f2 66 bb 22 1b ef bd 1b 6f 44 3d 28 ba d1 3d
       -0.0035240038 -0.11675097 0.04795752 0.102405846
0000b0 d1 81 0a 3d 7a 24 82 3d 68 4f 35 3d 34 20 a5 3d
       0.03381521 0.063546136 0.04426518 0.08062783
0000c0 0f 4a 9d 3d 33 a7 67 3d f7 9a 4b bd 75 81 f8 3d
       0.07680141 0.056555938 -0.049708333 0.12134067
0000d0 64 97 ed bc 35 54 d3 3d 20 f8 05 bc 07 bd 5f 3d
       -0.029002853 0.103187956 -0.008176833 0.05462363
0000e0 42 56 87 bd e1 da fc bc 12 4a 30 bc 6c bb 58 bc
       -0.06608249 -0.030866088 -0.010759847 -0.013228279
0000f0 e5 c7 d1 3b c1 11 b3 bd 0b 79 44 3d 23 d3 33 bd
       0.006402003 -0.08743621 0.047966998 -0.043902528
000100 ff 02 b0 3d da 96 a6 bd 7b c1 bd 3d 00 71 17 3d
       0.085943215 -0.081342414 0.09265419 0.036973
000110 7e aa dd 3b 69 b3 d7 bc 58 22 bc 3d e3 28 cd bd
       0.006764709 -0.026330667 0.09186238 -0.10017564
000120 35 c1 39 bd 25 52 32 bd 11 89 1a 3d 6a ee a1 bc
       -0.045350272 -0.04353537 0.037728373 -0.019767005
000130 77 52 be 3c e1 f8 92 bd 16 ba d2 3c b8 72 8a bd
       0.023232682 -0.07176376 0.025723498 -0.06760162
000140 79 ff 84 bd aa 13 38 3d 5a 29 15 bd 0b 44 a0 3a
       -0.0649404 0.044940628 -0.03641639 0.001222731
000150 19 d0 b3 3d 4f bb 8b 3d ec 15 85 bd df 38 29 bd
       0.08779926 0.06822836 -0.06498322 -0.041314002
000160 e5 f2 71 3c aa 81 0a bc 81 10 b8 3d 45 90 69 bd
       0.014767383 -0.008453766 0.08987523 -0.05702235
000170 44 46 75 3d 72 52 1d bd f9 2a ab bb 1c 05 db 3c
       0.059881464 -0.038408704 -0.0052236286 0.026735835
000180 91 11 31 bb c9 1a 5a 3d 9e c9 11 3d 9b 76 d3 3b
       -0.0027018527 0.0532482 0.035592668 0.006453348
000190 e0 f4 0a bd b6 d6 e5 bd 2c 6c 16 be 21 be 29 3d
       -0.033924937 -0.112225935 -0.14689702 0.041441087
0001a0 71 b2 0d 3d 0b 03 46 3d 17 4b e2 3c ec 73 87 3d
       0.034594003 0.048342746 0.027623696 0.06613907
0001b0 b9 a7 92 bd bb aa f5 bd f0 6f 69 3c ec 4e 8b bd
       -0.07160897 -0.11995455 0.014247879 -0.068021625
0001c0 f4 a5 d0 bd 07 10 98 3d 3f ee 46 bd ed 4b b4 bd
       -0.10187903 0.07424932 -0.048567053 -0.08803544
0001d0 e1 3d 01 be 50 0b 83 bd b3 6b 18 be e5 1c c4 bd
       -0.12621261 -0.06398642 -0.14884834 -0.09575824
0001e0 f5 23 0b 3c 67 88 f6 bd 03 af f7 bd 2e b3 71 bd
       0.00849246 -0.120377354 -0.12093928 -0.05900877
0001f0 38 da 03 3c 90 5f 0c be 62 8f f7 bd 88 26 bc 3d
       0.008047633 -0.13708329 -0.12087895 0.09187037
000200 83 70 eb bd de 64 24 be 24 68 24 bd ff eb 68 3c
       -0.11496069 -0.16054103 -0.04013838 0.014216422
000210 4f a8 ff bc 53 e2 c5 bd fe 13 05 bd 0a 93 b4 bd
       -0.031208185 -0.096623085 -0.03248977 -0.08817108
000220 16 27 d9 3d fe 89 8e bb 34 33 c0 3c 47 83 1c 3d
       0.10603158 -0.004349946 0.023461916 0.038211133
000230 41 ea 6a bd 53 72 3a 3d 41 ba 02 3d 02 c8 0b bd
       -0.05735231 0.045519184 0.031915907 -0.03412629
000240 bf e7 d3 3b 26 8f 0f bd 1a f1 15 3d 1a 07 ee bc
       0.0064668353 -0.035048626 0.036606885 -0.02905612
000250 42 ec 1c be 6b 46 fc bd 46 79 1b 3d 4a 39 ab bc
       -0.153245 -0.12318119 0.037957452 -0.020901341
000260 1a ee 18 be d7 bf a3 3d 84 63 1f bc b6 de 10 3d
       -0.14934579 0.07995575 -0.009728316 0.035368644
000270 34 00 9f bc a5 8d b9 bd 07 2b ce 3d e1 a9 64 bd
       -0.019409277 -0.0906022 0.100668006 -0.05582607
000280 0c 2a 05 be 2a 03 4f bd e4 d0 bc bd 38 51 b3 bd
       -0.13004321 -0.050540127 -0.0921953 -0.087557256
000290 1e 98 21 3c c6 6d 96 bd a7 42 1b be 58 af a7 bd
       0.009862928 -0.07345156 -0.15162145 -0.08187741
0002a0 d4 19 8d 3c 71 e7 70 bd 40 ec 9f bd b9 03 94 bd
       0.01722423 -0.05881447 -0.07808733 -0.072272725
0002b0 77 54 f1 bc 22 dc b1 bc 40 00 64 bd 4e 17 bf bd
       -0.029459221 -0.021711413 -0.0556643 -0.09330617
0002c0 81 f9 25 be e4 0e 07 bd 82 6b 08 be 41 c4 37 3b
       -0.1620846 -0.032973185 -0.13322261 0.002804056
0002d0 6b 09 49 bd 89 40 2f bd 74 25 86 bc c2 ad 4e 3d
       -0.049081247 -0.042786155 -0.01637528 0.050458677
0002e0 01 75 f7 bd 05 56 2b 3c 6f 0e 1d bd 24 bc 20 3d
       -0.120828636 0.01045752 -0.038343843 0.039241925
0002f0 97 83 a3 bd f0 c0 24 be ab e0 6b bc 83 99 a9 bc
       -0.07984083 -0.16089225 -0.014396827 -0.020703083
000300 dd 50 4e bd 10 be 09 be 3f dc b4 bc fd 0b 14 be
       -0.050370086 -0.1345141 -0.022077678 -0.14457698
000310 db ec 45 3b 89 07 5a 3c 52 af 52 bd b3 c1 90 3d
       0.0030200991 0.013307461 -0.05143673 0.07068195
000320 80 d4 b9 3d be 8f c2 bd 3a 1e cf 3d 13 a4 d0 bd
       0.09073734 -0.09500073 0.10113187 -0.10187545
000330 26 1f 15 3d 29 c8 f0 bc 34 f8 2c bd a8 87 80 3c
       0.03640666 -0.029392319 -0.042228892 0.015689686
000340 51 a5 c9 bc e6 f0 69 bd d8 0b 60 3c 9d 35 a9 bc
       -0.024614962 -0.057114504 0.013674699 -0.020655448
000350 5e ad 2d bb c7 79 4c 3d a3 8b 74 3d 74 63 ff 3d
       -0.002650104 0.049920823 0.05970348 0.12470141
000360 66 eb 17 bd 12 b1 f5 bd 35 cd f6 bd 89 50 cf bc
       -0.037089728 -0.11996664 -0.12050859 -0.025306957
000370 0d 5f 21 3c 02 6c 58 3d 4f 42 3b 3d 70 8a df 3c
       0.009849322 0.05283738 0.045717534 0.027287692
000380 57 44 9d 3d 42 4f 2b bd bd e4 a1 bd 3c 0a 80 3d
       0.076790504 -0.041823633 -0.079049565 0.06251952
000390 0a 0d 9b 3d 47 52 ec bd 13 93 50 bd 15 d4 91 3d
       0.075708464 -0.11539131 -0.05092151 0.071205296
0003a0 77 57 15 bd 25 a1 de bd 9c d2 ed 3d 26 13 29 bc
       -0.036460366 -0.1087058 0.11612436 -0.010319507
0003b0 ab b5 33 bd 7c e6 7e 3d b8 9a 2b bd 2c 0e 5f bb
       -0.043874424 0.062231526 -0.0418956 -0.0034035547
0003c0 4d a0 e8 3d de 42 34 bd 51 ae a7 3d e8 b8 0d 3d
       0.113587 -0.044009082 0.08187545 0.03460017
0003d0 84 85 9e 3c 87 6c 1b bd cf 5d 9d bd d1 6e 31 bd
       0.019350775 -0.037945297 -0.07683908 -0.043318573
0003e0 cf fc 91 bd 49 03 08 3d a1 c0 d3 3d 42 85 e9 3d
       -0.071282975 0.033206258 0.103394754 0.1140237
0003f0 48 9b 90 bd 16 c1 8b bd 18 c7 61 3d 69 a6 0b 3d
       -0.070608675 -0.068239376 0.05512151 0.034094248

rnn.weight_hh_l0 f4 [300, 100]
000000 a7 cc 89 bd 03 8d 62 bd 8b ed 96 3c c5 9f c5 bc
       -0.067284875 -0.05531026 0.018423816 -0.024124036
000010 b5 94 b4 bc 76 27 09 3d f2 bd a8 bb 9e 5f 83 3c
       -0.022043565 0.0334849 -0.0051495964 0.016036805
000020 d0 45 b7 3d 99 bc 85 3d 2a 00 10 bd 60 a6 e9 3b
       0.089488626 0.06530113 -0.035156406 0.007130429
000030 8b f7 0e ba 9f b5 b3 bd 04 40 87 bc f2 7b ad bd
       -0.0005453757 -0.08774876 -0.016510017 -0.08470906
000040 e1 7b 99 3d db 16 12 ba 3b 89 d2 3d 0d 7d 31 bd
       0.07494331 -0.0005572864 0.10280081 -0.04333215
000050 93 f6 92 3c 35 ec a8 bd a7 92 10 bd 59 4e d1 bd
       0.017939841 -0.08248178 -0.03529611 -0.10220022
000060 f6 1f 89 3d 83 54 90 3d d9 6d 4a 3d 0a 7f 80 3d
       0.06695549 0.07047369 0.049421165 0.06274231
000070 8d 5d 8d bd 09 aa 6c bd b6 ed 1c 39 c4 54 6a bd
       -0.06902609 -0.057779346 0.00014965874 -0.057209745
000080 2a a6 a8 3d f3 e6 55 bd 20 63 6f bd 1f a9 dd bc
       0.08234818 -0.052222203 -0.058444142 -0.027058182
000090 5e 10 35 3c 60 11 72 3d 6d 3c 92 bd 60 be 93 3d
       0.0110512655 0.0590986 -0.071404316 0.072140455
0000a0 5f bd 13 bd a7 2f f8 bc 98 f8 7e bc 14 8a 5e bc
       -0.03606927 -0.03029616 -0.015562199 -0.013582725
0000b0 94 71 80 bd 70 91 3c 3d 6a bd 76 bd 69 3a 0f bb
       -0.06271663 0.046037138 -0.060239233 -0.0021854884
0000c0 28 28 e8 ba 92 f7 63 bd 0b 41 ac bd 3d bb e1 bd
       -0.0017712163 -0.055656023 -0.084108435 -0.11022041
0000d0 e3 fc 51 3d da e2 90 bd bd 5a 90 bd c1 a2 a6 3d
       0.051266562 -0.070745185 -0.07048557 0.081365116
0000e0 2c c7 07 3d 37 8b a6 bc f7 60 e4 3c ef 34 8f bd
       0.03314893 -0.020330055 0.027878268 -0.06992518
0000f0 00 34 d1 bb 3c 3a 7a 3d 42 00 88 bc 25 23 e1 3d
       -0.0063843727 0.061090693 -0.016601685 0.109930314
000100 04 68 c1 3d f4 44 26 bc a1 71 7d 3d b6 2d 58 bd
       0.094436675 -0.010148276 0.061875943 -0.05277797
000110 b5 51 c0 bd cc 27 e1 3c 37 dc b3 bd 22 52 c8 3d
       -0.093905844 0.027484797 -0.08782237 0.097812906
000120 d0 cf 08 bd 43 a3 a7 bd 3a 3e 9c bd 45 d4 98 bc
       -0.03340131 -0.081854366 -0.07629056 -0.018655906
000130 43 cf fb 3c b3 91 e2 bc fc 41 6f bc d4 40 fc 3c
       0.030738479 -0.027657365 -0.014603134 0.030792631
000140 19 41 37 bc e9 a9 a3 3d 68 fe 53 3d a7 40 a7 bd
       -0.011184954 0.07991392 0.051756293 -0.08166628
000150 69 18 c7 bd d5 84 a8 3c 65 de b3 bc a5 42 9b bc
       -0.09721453 0.020571152 -0.021956632 -0.018952677
000160 cc 6e be 3d 0d 45 ca bd 38 35 60 bd f5 a9 e9 bd
       0.092984766 -0.09876452 -0.054738253 -0.1140937
000170 ee 72 85 3c b1 ce f0 3c 57 3d 81 bc f5 18 a8 bd
       0.016290154 0.029395433 -0.01577632 -0.08207885
000180 b2 ec 0d 3d bf c3 65 bc 51 70 24 bd 74 0a 1b 3d
       0.03464956 -0.01402372 -0.040146176 0.037851766
000190 a0 df c4 3d 6f fd 11 bc f1 52 80 3d 90 9b ca bc
       0.096129656 -0.008910521 0.0626582 -0.024732381
0001a0 2e 2e a3 3c 46 9f 8f 3d 6c 96 ad bd d7 4e 4f 3d
       0.019919481 0.07012801 -0.08475956 0.050612297
0001b0 83 52 a9 bd 72 61 99 3d 61 67 43 3d 81 6f 10 bd
       -0.08267691 0.07489289 0.04770601 -0.03526259
0001c0 47 31 2d 3d 20 55 da 3d 6a 00 a8 bc cb 72 9c 3d
       0.042283323 0.106607676 -0.02050801 0.076390825
0001d0 93 3a 67 3d 81 80 4a bd ad 47 26 bc 54 7d 69 bd
       0.056452345 -0.049438957 -0.010148925 -0.057004288
0001e0 d9 61 c2 3d 0b 1f c4 3d b9 01 d9 3d 37 56 13 bd
       0.09491319 0.095762335 0.10596032 -0.035970893
0001f0 63 39 44 bb 8a dd 6a 3d c7 fb d7 3c 25 9e bc 3d
       -0.0029941432 0.057340182 0.026365174 0.09209851
000200 e8 53 93 3d 19 dc dd bb 0f 1a d4 bc ef 0d 1c 3d
       0.07193738 -0.0067706225 -0.025891332 0.038099226
000210 6d 2c 42 bd 63 88 79 bc 64 24 50 3c 78 f1 11 bd
       -0.04740565 -0.015230271 0.012703989 -0.035630673
000220 f4 65 8f 3d 5e e0 54 bd 27 a2 95 bd b2 3a 32 bd
       0.07001868 -0.051971786 -0.07306319 -0.043513007
000230 fb dc 8e 3d df 06 ce bd 08 7b 07 3d 48 63 5c bc
       0.069757424 -0.10059904 0.033076316 -0.013451405
000240 5e fd 79 3d 38 a3 93 3c 8b 4a 31 bd 23 ef 96 bd
       0.061032645 0.018022165 -0.04328398 -0.073698305
000250 1c ff d6 bd b3 7a 00 3c fc 09 19 bd 35 c9 5a bd
       -0.10497877 0.007841754 -0.037363037 -0.053414542
000260 cd 6c 8c 3c e6 96 8f 3c 8c d1 76 3d 32 76 8b 3d
       0.017141724 0.017528009 0.060258433 0.06809653
000270 b1 e9 2c 3d ea 7a 75 bd e7 98 5f bd 6e 05 09 be
       0.042215053 -0.059931673 -0.05458918 -0.13380978
000280 97 26 9e bd ca 5a f6 3d a0 2a ae bd 2e d7 ee 3c
       -0.07722204 0.120290354 -0.08504224 0.02915534
000290 fd eb 08 bd b6 6b b6 bb 02 46 c4 bd 30 24 74 bd
       -0.03342818 -0.0055670394 -0.095836654 -0.059604824
0002a0 a0 ed aa 3d 03 95 b9 3c 72 40 90 3d fa 31 a0 3d
       0.083461046 0.022654062 0.07043542 0.07822032
0002b0 54 09 a7 3d 27 8a d6 3c b6 5b 24 bd 99 1c 72 bd
       0.08156076 0.026188923 -0.040126525 -0.059109304
0002c0 92 43 0a bd 56 95 93 3d c4 f7 ce 3d f0 46 1b 3d
       -0.033755846 0.07206218 0.10105851 0.03790945
0002d0 58 c4 7e bc dd 00 80 3d 0b 9e 36 3d 6b 0d e7 3d
       -0.015549742 0.06250165 0.044584315 0.11281856
0002e0 74 5f 78 bb bd d8 6e 3b 19 b9 b2 bb a5 d1 c5 bc
       -0.0037898691 0.0036445104 -0.0054541943 -0.024147818
0002f0 61 c7 52 3d a5 48 da 3c 5a fe a2 bd 23 e1 64 3d
       0.051459674 0.026645968 -0.0795867 0.05587877
000300 f0 3e 17 3b 60 d0 36 3d df d1 4d 3d 71 ba 69 3c
       0.0023078285 0.044632316 0.050248977 0.0142656425
000310 ca a0 62 3d 87 a8 55 bd 4f 73 96 3d 20 75 4e bd
       0.05532912 -0.052162673 0.07346212 -0.050404668
000320 4d 65 b5 3d b3 a8 8f bc 76 3e c4 3d 1a ef 8b 3d
       0.08857212 -0.017536497 0.09582226 0.068327144
000330 8f ae b2 3c 69 79 83 bc db 1b 6b 3b 48 df bd 3c
       0.021811752 -0.016049104 0.0035874757 0.023177758
000340 17 ca 56 bc 99 6e 41 bd 25 8c 4e bd fb 9e 84 3d
       -0.013109705 -0.047224615 -0.05042662 0.064756356
000350 14 b9 b6 bd a0 70 e1 bd 1f 6f 06 b9 c9 07 22 3d
       -0.089220196 -0.1100781 -0.00012820632 0.039558206
000360 9a e2 a4 bc ba 48 d2 3c d5 a9 de 3d 1e 21 62 bd
       -0.020127583 0.025669444 0.10872237 -0.055207364
000370 67 01 a2 bd 8a 6c 45 bd 70 29 3d 3d ef 67 ab bd
       -0.07910424 -0.048199214 0.046182096 -0.08369433
000380 ff a1 96 bd fb 39 d8 bd ca 51 21 bd b5 17 78 bd
       -0.07355117 -0.10557934 -0.03938464 -0.060569484
000390 2d 64 a6 bd 34 a9 12 bc c2 1d e2 bd d3 fe 2f bd
       -0.08124576 -0.008951474 -0.11040832 -0.04296763
0003a0 78 49 c9 bd 92 5f 5e 3d 4a 23 1e bd 11 da 4a bc
       -0.09828466 0.05429036 -0.038607873 -0.012381093
0003b0 d0 2d ac 3d ad 4e 85 3d a3 c0 c5 3b 4f eb d5 3d
       0.084071755 0.06509147 0.006034927 0.10445272
0003c0 10 b2 2c 3c 52 7c b6 bd 10 b2 d0 bd 4d 7c bd 3c
       0.0105405 -0.08910431 -0.10190213 0.02313056
0003d0 c2 94 94 3d 33 f5 d7 bb fe 95 97 bd 8b 12 44 3d
       0.07254936 -0.0065905093 -0.074016556 0.047869246
0003e0 a3 a0 b3 bb 9c 3f cc 3b e1 11 9b 3d 9d 4d 41 3d
       -0.005481796 0.0062331688 0.075717695 0.04719316
0003f0 1c b3 0f bb 47 ee 1c 3e 3f 75 9d 3c ab 31 f9 3b
       -0.0021926826 0.1532527 0.019220946 0.007604798

rnn.bias_ih_l0 f4 [300]
000000 df 7e 48 3d 7e 60 46 bc f7 28 97 3d 76 fe 70 3c
       0.04894912 -0.0121079665 0.0738086 0.014709106
000010 23 be 35 3d 2c 6e 47 bc c8 92 97 3d c3 52 ee 3d
       0.04437078 -0.012172263 0.07401043 0.11636879
000020 77 2e 6d bd 43 a1 8a bc 0a 4d 1c 3d 73 89 bd 3d
       -0.05790564 -0.016922599 0.038159408 0.09254732
000030 0b 6c de bc b1 d5 89 bc 8d 3a 75 bc 56 79 81 ba
       -0.027151128 -0.016825529 -0.014967573 -0.000987808
000040 81 d0 76 3d 98 6d 2e bd 11 43 ac bc 42 38 c6 3d
       0.06025744 -0.042584985 -0.021028074 0.09678699
000050 f3 7c ee 3c 07 9e 7d bd b9 3d 5d bb d6 f6 af 3d
       0.029112315 -0.061918285 -0.0033758713 0.08592002
000060 c4 1f 7b bc d9 d6 62 3d 22 c0 b4 3a 71 10 14 3c
       -0.015327398 0.055380676 0.001379017 0.009037123
000070 b4 6e 84 3d 5e 0d ae 3b a5 17 35 bd 4b e7 0c bc
       0.064664274 0.005311652 -0.044212002 -0.008600066
000080 f5 cb c3 bd 56 a1 7c bd d4 36 b9 3d 4d 46 bd 3d
       -0.09560386 -0.0616773 0.09043661 0.092419244
000090 da 7c f5 bc 2e ec ed 3d b9 07 80 3b 36 67 c1 bc
       -0.02996676 0.11617313 0.0039071706 -0.023608785
0000a0 e3 34 9a 3d 59 93 c0 3d b7 92 f0 3d 9a 1e a4 3d
       0.075296186 0.09403104 0.11746734 0.08013649
0000b0 d4 bf 58 bd 73 aa 80 bd 4b dc 86 3d 1b 1c de 3c
       -0.052917317 -0.062825106 0.06584986 0.027113011
0000c0 54 35 6c bd 19 a7 e2 bc d7 06 04 3c ec 15 28 b9
       -0.057668045 -0.027667569 0.008058271 -0.00016029895
0000d0 1f fa fc 3d 10 b3 15 3c ef 40 ab 3d 59 04 af 3d
       0.12352394 0.00913693 0.083619945 0.08545751
0000e0 93 0e 36 bb bf 9e 12 3d 23 2d be 3d 58 69 df bc
       -0.0027779683 0.035795923 0.09285953 -0.027271912
0000f0 1c 64 b1 bd 26 e1 8b bd 92 62 9c bd 21 b5 df bc
       -0.086616725 -0.06830053 -0.07635988 -0.027308049
000100 e7 a8 d7 bc c0 a0 12 bd 6a fc fc bc 44 5d c0 3d
       -0.026325656 -0.035797834 -0.03088208 0.09392789
000110 53 f2 25 3d ce 1d 57 bb 85 78 15 bd 68 12 99 3d
       0.0405143 -0.0032824161 -0.03649189 0.07474214
000120 76 49 ce 3d 76 d4 d8 3c 55 d6 ac 3d 23 7e ba 3d
       0.10072605 0.026468497 0.08439318 0.0910609
000130 45 de f3 3d 09 e1 90 bc 57 df a6 bd 08 4f 01 3d
       0.11907629 -0.01768543 -0.081480674 0.03156951
000140 3e 14 82 bd 0b 07 9c 3c 57 b8 a6 bd 84 b2 78 bd
       -0.06351517 0.019046327 -0.08140629 -0.06071712
000150 4b 7a e5 3c 16 87 e6 b9 a8 ec 85 bd 8a 0a 06 bd
       0.028012415 -0.00043969665 -0.06539279 -0.032724895
000160 f5 84 5c 3d 9c 08 bd bc 7e 71 db 3d c1 7b 82 bd
       0.053837735 -0.023075394 0.10715006 -0.063712604
000170 60 ab 67 bd 1e ae a3 3d d6 37 00 bc 2d 3a a2 bc
       -0.05655992 0.079921946 -0.007825812 -0.019803131
000180 93 36 55 bd c9 8a 08 bc b8 4d b8 3d f8 29 20 bc
       -0.052054 -0.00833387 0.08999199 -0.009775631
000190 c8 46 b9 bc 93 d6 e7 bd 1d 1f cd bd f9 4b 8f bd
       -0.022616759 -0.11320224 -0.100157 -0.069969125
0001a0 71 ec 1e be f8 95 81 bd c5 fd 75 bd 88 8f 0d 3d
       -0.15519883 -0.063274324 -0.060056467 0.03456071
0001b0 b1 69 1c be ab 3e 1c be 2b b0 35 3d 66 e3 b1 bd
       -0.15274693 -0.15258281 0.04435746 -0.08685951
0001c0 5b 02 fb bd 30 6c 41 bd f9 17 4b bb d4 3f ff bd
       -0.12256309 -0.047222316 -0.003098963 -0.12463346
0001d0 eb 88 38 be ef 0a 13 be 2c d8 f4 bc 7e 1f 22 bb
       -0.1802098 -0.1435964 -0.029888235 -0.002473801
0001e0 36 45 8c bd db da 05 3d b4 d6 72 bd 9e 58 87 3b
       -0.068491384 0.03267942 -0.059286788 0.004130437
0001f0 af e3 8d bd ca 88 cf bd 26 e3 2b be 99 e8 52 bd
       -0.06928193 -0.10133512 -0.16785869 -0.051491354
000200 5e 52 cb bd 50 8e 1a be 58 9a 18 be bc 43 3d be
       -0.0992782 -0.1509335 -0.14902627 -0.1848287
000210 84 56 9f bd 2d 17 8e bd 01 a5 55 bc 30 5b 0b be
       -0.077801734 -0.06938014 -0.013039828 -0.13609004
000220 90 8d 74 3c 44 40 fe bd 21 fa 0b bd 05 a9 21 3d
       0.014926329 -0.124146014 -0.03417409 0.03946783
000230 eb 1f c0 bd 0f 3d a3 bc d2 65 cf bd 08 ae c7 3c
       -0.09381088 -0.019926576 -0.101268426 0.024374977
000240 06 35 0e be 81 de 46 bd 13 2f 97 bd e4 45 1e bd
       -0.13887414 -0.04855204 -0.073820256 -0.03864087
000250 88 d9 b1 bd db 85 a6 bd 88 dc c5 bd 60 58 41 be
       -0.08684069 -0.08131 -0.096612036 -0.18881369
000260 55 0d 84 bd 27 fa a5 bd ac 99 ef 35 6b 5f fa 3d
       -0.064478554 -0.081043534 1.7851612e-06 0.12225231
000270 aa ea eb bd f1 61 72 3d a7 52 bc 3d c6 68 40 bd
       -0.11519368 0.059175435 0.09195452 -0.04697492
000280 e7 d0 06 be fc 0a 36 be 18 64 3e bd a1 60 28 be
       -0.13165627 -0.17777628 -0.046482176 -0.16443111
000290 dc e7 74 bc 81 15 74 3c cc 21 1a be 88 d5 02 be
       -0.014947858 0.014897705 -0.15051955 -0.12776768
0002a0 64 94 a4 bc 10 64 4b bd 28 32 c7 bd a6 e8 84 bd
       -0.02009029 -0.049655974 -0.097263634 -0.06489687
0002b0 4c 81 cf 3b e7 0e 22 bc 6b 15 bd 3b c9 17 31 be
       0.006332552 -0.009891248 0.0057703755 -0.1729423
0002c0 c0 b0 2d bd bf 6b a3 bc 8c fa ad bd f3 1d 2e be
       -0.04240489 -0.019948838 -0.08495054 -0.17003612
0002d0 85 fc 49 3c 84 fc f5 bd 4e 70 11 be 40 06 72 bd
       0.012328272 -0.12011054 -0.14202997 -0.05908799
0002e0 f6 8b 19 bc d5 93 57 bd 38 ca 8d bc bc e7 07 3c
       -0.009371748 -0.052631218 -0.01730834 0.008294996
0002f0 94 e5 8e bd 05 eb 00 be 2d 75 97 bd 9f 91 c9 bd
       -0.06977382 -0.12589653 -0.073953964 -0.09842228
000300 f7 91 47 bc 01 a0 87 bd eb 6a 3b bd d6 9b 1d be
       -0.012180797 -0.06622315 -0.04575626 -0.15391478
000310 d7 75 33 bc 8e 0c d9 bd b0 77 64 38 81 32 79 3d
       -0.010953388 -0.10598098 5.4470904e-05 0.06083918
000320 ef 41 1a bc 01 c8 a2 bd f7 7c b0 3d 5f c3 92 bb
       -0.009415134 -0.07948304 0.08617585 -0.0044788565
000330 d0 83 90 bc 3f 26 6f bd 49 12 51 3b 61 9f 55 3d
       -0.017640978 -0.058386084 0.0031901768 0.05215395
000340 4b 56 af 3b c6 7a 8b 3d 4d 58 5c 3b 7d f1 a8 3d
       0.005350863 0.068105265 0.0033621967 0.08249185
000350 bf 49 64 3c 5d 82 ae bd f6 19 99 bd 99 1e f3 bc
       0.013933598 -0.085209586 -0.07475655 -0.029677676
000360 19 cc 6d bd 1f c4 c2 bc 44 78 82 3d 5f 5e 6b bd
       -0.05805597 -0.023775158 0.06370595 -0.057463046
000370 ef ec 95 bc fa 79 30 3d 04 fe ce 3c ca f9 f6 3c
       -0.018301455 0.043085076 0.025267608 0.030148406
000380 36 9a 96 bd b6 22 7a bd 5e 7f 98 bd 08 e0 4d 3d
       -0.07353632 -0.06106826 -0.07446168 0.05026248
000390 49 f3 9f 3d ee fb a5 bc 02 18 a2 bd 6e 21 6c bd
       0.07810075 -0.020261731 -0.079147354 -0.05764907
0003a0 e6 88 75 3d 16 bf cd 3d 38 a6 79 bd 1d 50 6d 3c
       0.05994501 0.100462124 -0.060949534 0.0144844325
0003b0 5d 8d 7b bd b2 36 90 3d e9 40 3a bc 30 94 a1 bc
       -0.06141411 0.07041682 -0.011368015 -0.019723982
0003c0 aa bc 93 bd 3b 2c 9c 3d bd ba d7 bb 05 49 62 bc
       -0.07213719 0.07625624 -0.0065835402 -0.0138113545
0003d0 28 24 7e 3d e4 68 7a bd d9 3b a4 bd 95 70 8f 3d
       0.0620462 -0.061135188 -0.080192275 0.07003895
0003e0 a7 48 d7 3b 34 5f 99 3c 7e 1b ce bd 0e 1d a9 bd
       0.00656994 0.018722154 -0.100638375 -0.08257495
0003f0 9f 31 91 3d 44 f6 29 bc 63 b3 df 3c 74 90 1b bd
       0.070895426 -0.010373656 0.027307218 -0.037979558

rnn.bias_hh_l0 f4 [300]
000000 b0 4e 92 3c 6b fd a7 bd 2c 02 c9 bb 44 40 43 3d
       0.017859787 -0.082026325 -0.006134292 0.04766871
000010 64 70 d0 bd 68 1e 7e bd 40 d5 88 bc 87 90 e1 3c
       -0.10177687 -0.062040716 -0.016703248 0.027534736
000020 16 fb b5 3d 83 85 83 bd 04 4f 81 bd 69 23 a0 3d
       0.088857815 -0.0642195 -0.06313899 0.07819254
000030 9e 86 3a bd cf 9f ae 3d d7 76 ff bc e7 2e 50 bc
       -0.045538537 0.08526575 -0.031184597 -0.012706495
000040 de 75 ac 3d 89 10 10 3d 97 77 16 3d e3 ad 4f bd
       0.08420919 0.03517202 0.036735144 -0.05070294
000050 d1 27 bb 3d bd 2f 5d bd cd cf f7 3c 34 b3 d5 bd
       0.09138454 -0.054000605 0.030250454 -0.10434571
000060 53 5f 1a bc 42 5a 5f 3b 59 66 a2 bd 23 f0 6e 3c
       -0.009422141 0.0034080897 -0.079296775 0.01458362
000070 b1 f1 40 bd 7d 15 96 3d 77 a1 9e 3d e7 58 85 3d
       -0.047105495 0.07328317 0.07745641 0.065110974
000080 bd 03 db bd b1 a0 7c 3d 6f fe 79 bd a6 01 82 3c
       -0.106940724 0.061676685 -0.061033662 0.015869927
000090 96 c8 1a 3d e3 70 82 bc e8 a5 c0 3d bb 4e 4c bd
       0.03778895 -0.01592297 0.09406644 -0.04987977
0000a0 92 d9 0d bb 2e 52 ee 3d c1 1d d3 3d 93 6e 3c bd
       -0.0021644575 0.11636768 0.103084095 -0.04600389
0000b0 5a a6 a8 bc be ba 99 bd 4f d6 bb 3d c0 ea 0d bd
       -0.020587135 -0.07506321 0.091717355 -0.034647703
0000c0 31 4e 6e bd 1e 81 c1 3d dc 27 d5 3d 1b 54 db bd
       -0.058180038 0.09448455 0.10407993 -0.10709401
0000d0 5b 2c 0e 3d 16 56 71 3b 0e 72 dd 3d 8c c9 bd 3d
       0.03471027 0.0036824993 0.1081277 0.09266958
0000e0 91 a1 e7 3c 1c e3 2b bd db e5 bf 3d b5 d5 84 3d
       0.028275283 -0.041964635 0.09370013 0.06486074
0000f0 81 a3 bf bd 69 9d 09 bd 82 b0 a0 bd 57 9c a7 bc
       -0.09357358 -0.033597384 -0.07846166 -0.02046029
000100 37 15 17 bd d0 db d5 3d 8e 36 d9 3b 49 0c 32 bd
       -0.036885466 0.104423165 0.006628818 -0.043468747
000110 c3 a8 1f bc 41 56 ed bb 0b ae 8c 3d 13 46 3e bd
       -0.009744826 -0.0072429483 0.068691336 -0.046453547
000120 7c 70 bb bd 6b cd 2a bd 49 d4 88 bd c5 65 14 bd
       -0.09152314 -0.041699808 -0.06681115 -0.036229867
000130 2b e7 17 3d 4f 9d 1d 3d 06 51 76 bd 9a 2e 1e bb
       0.037085693 0.0384801 -0.060135864 -0.0024136663
000140 61 54 a0 bd 60 5e 70 bd 88 9a e1 3d d6 f6 64 3d
       -0.07828594 -0.058683753 0.110158026 0.055899464
000150 b0 77 a4 3d 77 44 7e 3d 89 2a 8b bc 76 98 e0 bd
       0.08030641 0.062077012 -0.016988056 -0.109665796
000160 79 65 97 3c 29 c7 b8 bd 32 83 95 bd cc 4a ad 3d
       0.018481003 -0.09022362 -0.07300414 0.08461532
000170 5e 45 88 bd f5 b1 32 bc a5 fc 0e 3a a2 1b 3a bb
       -0.06653856 -0.010906686 0.0005454517 -0.0028397818
000180 38 8f 5c bb 54 ea 61 bd 6a 51 76 3c 4e 96 de bc
       -0.00336547 -0.055155113 0.015034059 -0.02717128
000190 cc 37 5a bd a4 36 0e bc af f9 bf bc 56 3c 1c be
       -0.05327587 -0.0086800195 -0.023434488 -0.15257391
0001a0 6f c6 16 bd f7 0f ff bd d1 79 fd bd e9 d0 47 bc
       -0.036810335 -0.12454217 -0.1237675 -0.012195804
0001b0 0a 91 19 be 33 29 3a ba f9 82 7e 3d 97 53 1b be
       -0.14996734 -0.0007101476 0.062136624 -0.15168606
0001c0 07 6e 8c bd 93 43 2d bd a7 bd 2f bd 88 a0 da 3b
       -0.068569236 -0.042300772 -0.042905476 0.006671969
0001d0 38 ad 85 bc 5b 40 1f bc 35 d0 5f bd 46 25 3b 3c
       -0.016317949 -0.009719933 -0.05464192 0.011422461
0001e0 47 be dc bd 3d 9e 8c bd ba f6 24 bd df a8 d0 bd
       -0.1077848 -0.06866119 -0.04027436 -0.101884596
0001f0 df 10 25 be 5e 3d 23 be 45 52 2b be ba 64 1c bd
       -0.16119717 -0.15941378 -0.16730602 -0.038181998
000200 a1 8a 39 be c1 ce d6 bd 96 b0 13 be c4 cf d6 bc
       -0.18119289 -0.10488654 -0.14422831 -0.026222117
000210 53 93 29 bd e0 0b 34 be e1 81 f8 bd 02 eb 3b 3a
       -0.041400265 -0.17582655 -0.121341474 0.0007168503
000220 e2 35 da 3c cd f2 77 3b 2b 54 de bd 87 38 92 bd
       0.026637021 0.003783393 -0.108558975 -0.07139688
000230 04 de af bc bd 58 a9 bc 43 f3 02 be 04 92 ff 3b
       -0.02146817 -0.020672197 -0.1278811 0.007799389
000240 24 94 82 bd 39 42 f0 bc 45 96 57 bd cd 4d 40 be
       -0.06375912 -0.029328452 -0.052633543 -0.18779679
000250 a8 be a5 bd 6c 29 f2 39 b0 66 dc bc d5 a9 0b be
       -0.080930054 0.000461887 -0.026904434 -0.13639005
000260 9c a7 d4 bc 6e 96 1e 3c 71 26 ef bc 1a 74 97 3c
       -0.025958829 0.00967942 -0.029193135 0.018487979
000270 c2 50 16 be c6 f6 f8 bd 77 53 45 3d 52 ae aa bd
       -0.14679244 -0.12156443 0.0481753 -0.0833403
000280 fa 90 0f bd 78 97 37 be 48 ad 0f bd 2b bb d4 bc
       -0.03505037 -0.17928874 -0.035077363 -0.025968155
000290 95 1d c7 bc d7 e5 8e bc c7 f2 33 bd a7 3b ba bd
       -0.024306098 -0.01744358 -0.043932702 -0.09093409
0002a0 a4 41 bd bd 2d 4c dd bd eb c9 03 be 84 65 13 be
       -0.092410356 -0.10805545 -0.12869994 -0.14394194
0002b0 43 4c 23 be 00 f7 de 3c 15 e4 9a 3d a0 63 f8 bc
       -0.1594706 0.027217388 0.075630344 -0.030320942
0002c0 42 ad 0f bc e9 83 d9 bd f5 60 bf bc 92 72 d6 bd
       -0.008769335 -0.10620863 -0.023361662 -0.10471071
0002d0 07 4d 55 bd d7 f2 94 bd 6a 96 40 be e2 c6 b7 bd
       -0.052075412 -0.072728805 -0.18807378 -0.08973481
0002e0 a8 64 35 be bd 60 01 bc bc 0c cc bb 80 e2 e0 bd
       -0.17714179 -0.007896599 -0.006227104 -0.109807014
0002f0 d7 fe da bd 3d d3 ae bd 50 83 0f be 47 b7 65 bc
       -0.10693138 -0.08536384 -0.14014935 -0.0140207475
000300 bf 81 4a 3d 92 e9 ca bd d3 b6 74 bd 48 0f cb bd
       0.04944014 -0.09907831 -0.059744667 -0.09915024
000310 36 a9 2c bd d5 66 02 be e6 d6 81 bb df c2 57 bc
       -0.04215356 -0.1273454 -0.0039623855 -0.0131690195
000320 18 3b 1a 3d ee 69 76 bd 69 fc ae bd 17 da a1 bc
       0.037654012 -0.060159616 -0.08544237 -0.019757314
000330 11 56 de 3a 86 6a 40 3b 08 ea 8f 3d 3b b5 88 3d
       0.0016962906 0.0029360368 0.0702706 0.06675192
000340 ef 8c be bc ff 75 24 3d 13 79 23 3c 80 8d a8 3c
       -0.023260562 0.040151592 0.009977597 0.020575285
000350 cd 36 65 3d ed cd 3b 3d 85 18 70 3d 91 2a ad 3d
       0.055960465 0.045850683 0.058617134 0.084553845
000360 c3 1a 76 bd 02 e7 5f bd a3 c7 53 bd d5 29 9c bd
       -0.060084116 -0.054663666 -0.05170406 -0.07625166
000370 70 a3 b8 3c e7 41 a4 3c e0 6d a0 3c c4 bb 7b bc
       0.02253887 0.020050956 0.019583642 -0.015364591
000380 15 9c ce 3d 73 2e 99 bc 49 a8 5c bc 88 42 c2 3a
       0.10088364 -0.018698907 -0.013467857 0.0014820853
000390 a6 35 46 3d a7 67 b4 3d 4b 0c a1 3d 43 bb a1 bd
       0.048391007 0.088088326 0.07863673 -0.078970455
0003a0 4d 3a ab bd fa 14 8c bc 5c dd 95 3d 34 ac 3a bd
       -0.08360729 -0.017099846 0.073176116 -0.045574382
0003b0 ae c5 95 3d ef fa 9d 3b 9a 49 32 3d 07 e1 84 3d
       0.07313095 0.0048211734 0.043527223 0.06488233
0003c0 6e 95 b4 bd ed 99 87 bd d0 a2 8b 3d ca fb e5 bd
       -0.08817564 -0.06621156 0.068181634 -0.112296656
0003d0 e1 75 bf bc 7b e9 79 3d b0 fd 3d bd da 60 7e 3d
       -0.023371639 0.06101368 -0.046384513 0.062104084
0003e0 5f b9 58 3d 53 9f 99 bd b2 40 f7 bb 85 a9 b3 3d
       0.05291116 -0.07501092 -0.007545554 0.08772568
0003f0 4f 59 82 bd 8d 77 22 3d 2c 2e 51 3d 29 92 0a bd
       -0.063646905 0.039664794 0.051069424 -0.033830795

linear.weight f4 [1, 100]
000000 fc b7 ab bc 79 85 ee bd 91 22 7a 3d 0c 70 27 bd
       -0.020961754 -0.11646552 0.06106812 -0.04087834
000010 98 18 37 3d d5 d9 a3 bd 66 9a fc bd 3a 9b be bd
       0.04470119 -0.080005325 -0.12334137 -0.09306951
000020 29 1e ab bd f1 14 b9 bd 5b 63 e3 3a 26 1d ca bd
       -0.08355362 -0.090371974 0.0017348336 -0.09868841
000030 88 29 44 bd e0 26 64 bd bb d3 01 3e 49 01 bc 3d
       -0.04789117 -0.055701137 0.12678425 0.091799326
000040 c7 4b 9f bd bb 99 04 be b5 a7 96 bd 75 4e ec bd
       -0.07778125 -0.12949269 -0.07356206 -0.11538402
000050 c1 f3 9f bd 43 58 05 bc 39 1e 1c 3d 8d ec 90 bc
       -0.07810164 -0.008138719 0.03811476 -0.017690921
000060 77 e2 09 3e d0 94 c7 bc 03 ac f1 bd 5a 23 9c bd
       0.13465296 -0.024362952 -0.11800387 -0.0762393
000070 63 09 c9 3d 10 fa 6b bd 18 24 e5 bd 24 3d e0 3d
       0.098162435 -0.057611525 -0.11188525 0.10949162
000080 14 08 f7 bd 40 7a 68 bd 15 52 53 3d 8e 89 e4 3d
       -0.12062088 -0.05675721 0.05159195 0.11159049
000090 c7 56 aa 3c ae bf 38 3d c4 4c 21 bd 0b 82 5d 3d
       0.020793332 0.045104675 -0.03937985 0.054079097
0000a0 6b 1b b7 3d b1 79 83 3d 09 96 e0 3d a4 95 1a bd
       0.089407764 0.06419695 0.10966117 -0.037740365
0000b0 c2 a8 af 3d 6f 3a c9 bc fa 72 ed bd 50 11 b4 bd
       0.0857711 -0.024563996 -0.11594196 -0.087923646
0000c0 d0 5f a3 bd a1 20 d5 3d 06 7f ae 3d d4 d8 e1 3d
       -0.07977259 0.10406614 0.085203215 0.11027685
0000d0 97 a2 e4 bd 99 2c 5b 3d b1 02 90 3d 25 e5 76 bc
       -0.11163824 0.05350933 0.07031763 -0.015069281
0000e0 3d 63 df bc 0a 71 ab 3c b9 1b be bc 0a f5 91 3d
       -0.027269 0.020927925 -0.023206579 0.071268156
0000f0 87 0c 24 bd d6 2e f8 3d dd 04 e9 bd f3 7e da bd
       -0.04005101 0.12118308 -0.11377881 -0.10668745
000100 b4 62 dc bc a0 ea 04 3d e4 8f 63 bd fc c4 f8 bd
       -0.026902534 0.03245032 -0.055557147 -0.12146947
000110 ab db b9 3c 35 98 b9 bd 0c 90 7f 3d e1 c7 da bc
       0.022687754 -0.09062234 0.062393233 -0.026706638
000120 8e 5e f6 bd 5a cc ac bc 6f 88 65 3d 85 9e ba 3d
       -0.120297536 -0.021093536 0.056038316 0.091122665
000130 91 b2 a5 bd 13 ff b6 3d 90 b4 58 3d aa ee 19 3d
       -0.080906995 0.0893537 0.052906573 0.037581123
000140 e3 63 3b 3d fa b8 b1 3d 40 bf 72 bd 91 e8 57 bc
       0.045749556 0.086778596 -0.05926442 -0.013178007
000150 27 7f eb 3d f1 bd 61 bd 89 5c 53 bc c7 92 7d 3b
       0.11498862 -0.055112783 -0.01290048 0.0038692222
000160 86 b4 a5 bd 47 e2 b4 3d c3 8c 95 3d 6f 8e 49 3d
       -0.08091073 0.088322215 0.07302239 0.0492081
000170 38 6e b5 bc 62 42 3b 3d 92 bc 8c 3d d9 69 7d 3d
       -0.022147283 0.045717604 0.068719044 0.061868522
000180 d4 f3 dd 3d 04 f6 d9 3b 10 7c f4 bc 7b 26 82 bb
       0.10837522 0.006651642 -0.029844314 -0.0039718724
