backend/trained_models/CZBIL_LSTM_model_state_dict.pth (torch, 167957 bytes, 5 tensors)

rnn.weight_ih_l0 f4 [400, 1]
00000000: 000c d3bd 3b5e bf3d b97b 513d 91e0 873d
00000010: dd4c 29bd ebf5 aa3c 978a ee3d bd93 2abd
00000020: 45c8 1f3c e08a f13d 85b6 6b3d d23a c43d
00000030: d53d 6d3d f6e2 453d 99a0 d43d 509e 0fbd
00000040: f71a 74bd 08f7 823d 1a8a 41bc 83a5 1fbd
00000050: 9764 943d 76de 7bbd 9e7e ccbc 7963 ec3c
00000060: d850 afbc 7e8c c53d 63fb 27bb 1717 eabd
00000070: 65d7 d83d e411 4f3d b2ac 933d c6c1 d13d
00000080: 8efa 283d 3b9f 843d cde0 0ebd 625c 3b3d
00000090: 8b93 d23d 3451 ddbb c8f9 503d 9698 823c
000000a0: d1e4 ce3d 4eb1 c23d 7458 283c 3b23 d4bc
000000b0: 7c0f 84bd 60ea afbc 2624 183d cdf5 fc3b
000000c0: 6aed 49bd 6ee9 8d3d 845c 873d 39d1 4bbd
000000d0: 3eda 45bd 5175 b3bd 80d9 e93c 440b 4a3c
000000e0: b82a cd3b 3a57 7ebd e40f 9bbc a355 503d
000000f0: 87b8 c63d 068e 8f3c ded2 ebbc 9bd1 8d3d
00000100: a421 993a de03 94bc 1841 08be c8fa 493d
00000110: 1e56 ea3d f1de bb3d f2e1 0f3d bfc2 873d
00000120: f2ee 6bbc dbe7 053c 216d 88bd 4bc1 adbc
00000130: a2dc 3dbd 609b ddbc fde0 8d3d 2907 44bd
00000140: a251 e3bd ccfa 72bd 34d6 fc3d 0fc0 33bd
00000150: c673 85bc f4f3 f63d c4a6 0c3d a007 f03c
00000160: ac21 87bd bc82 2d3d f3e0 48bd b9a3 66bc
00000170: 5580 7c3d 0ed2 d8bd c890 49bc 4315 5abd
00000180: bb60 153d 0932 b3ba c922 13bc 692f 33bd
00000190: 67c2 adbd 91a8 fb3d 32e9 94bb 8c43 903d
000001a0: dcda d33d 8089 d7bb ecfb 1b3d 5bdf 21bd
000001b0: 6d38 803c 838b cb3b da72 5b3d c1bf 3ebd
000001c0: b8f8 293d 598f 8abd 573a 96bd d1e6 b1bc
000001d0: 514b 8ebd 25cc 10bd be9f 1cbd 039c 283d
000001e0: f2d9 ba3d c13a 7abd 8d4f f53d 4e25 0b3d
000001f0: a629 db3d ec64 5abd 6bac 82bd e391 99bc
00000200: 7ca1 25bc a28d ca3d 889d e13d 2853 963c
00000210: c519 463d 837d 483c 9c0a 16bd 66d9 6c3d
00000220: b28e 6ebd 5d40 f3bd e851 003d 36f2 863b
00000230: bdae d5bc 8dd6 dabc 11a0 913c 7a47 8c3b
00000240: 049d c03c 432a eb3c 7b3e b2bc 5231 d4bc
00000250: e58a e93d 4898 943d aa82 763c 9b64 8b3c
00000260: e7a7 c63d 1a34 a83d f020 6ebc 6558 93bd
00000270: 90f1 acbd 81a3 86bc 160a 5cbd b9a9 c8bc
00000280: 2f2d 463c 6a90 903c cccf a23d 1dae 5fbc
00000290: 2fd9 683d 1334 0cbd 9a79 cdbc eabf 68bc
000002a0: fde5 26bd f91d f83d dc06 a93d 072b ba3d
000002b0: 3530 54bb dcb1 973d dbac 2bbd cb20 d9bc
000002c0: aacb aa3c 5998 1c3d 5b56 fc3d b26c cb3d
000002d0: ff65 dbbd 4d8d 31bd 27c3 29bc 79ad 8e3d
000002e0: b896 683c eac0 0c3d 89b2 36bd 042c a23d
000002f0: 8639 06be 7e2f 01bd 053c e63d 067b 2bbc
00000300: 0327 a43d 26bb 7d3d 317d 45bd 1f4e cd3c
00000310: e54d d93d 6caa d93d d305 e93d a1be 3ebd
00000320: 4151 f8bc 7607 febd 2566 1c3d 6dd8 cfbb
00000330: 99ba a5bd 3328 713d a35f 81bd 4a9c f2bd
00000340: a917 f13d 3dba 8abd c17f cdbd c464 373d
00000350: 2dc3 b9bc dc1b 8ebd 5807 bdbd 660f d2bd
00000360: 337b a63d 0496 8bbd 3d3d 813c ab81 503d
00000370: 5449 b83d e899 b4bd 71e7 d33d d205 45bd
00000380: df8e c53c 7d56 053e 8165 4abc 9243 92bd
00000390: 84fb 07be 520f beba f228 28bd cbf8 c8bd
000003a0: 71d3 aa3d 70bf fabd 07c6 253d 8238 b8bd
000003b0: acd8 f53c 9071 423d 9c46 b63d c676 c5bc
000003c0: 23b8 573d adb4 a2bb f0c5 fc3d 209b d5bd
000003d0: 54a8 c13d cdd2 fc3d d92c a93c 669c 74bd
000003e0: 3ea2 d8bd 06b4 2abd 22db bbbb 795f 0bbe
000003f0: 7d7c ce3d 1cf9 0dbd a163 893d 9b4c bf3d
-0.10305023 0.09344145 0.05114338 0.066346295 -0.04133307 0.020869216 0.11647528 -0.0416448
0.009752338 0.117940664 0.05754711 0.095815316 0.057920296 0.04831215 0.10382194 -0.035063088
-0.05959603 0.06394774 -0.011812711 -0.038976204 0.072457485 -0.061491452 -0.02496272 0.028856026
-0.021400854 0.096459374 -0.0025632016 -0.11430185 0.10587958 0.05055417 0.072106734 0.102420375
0.041254573 0.06475683 -0.034882355 0.0457424 0.10282048 -0.006754065 0.05101946 0.0159419
0.10102237 0.095064744 0.010274995 -0.025895705 -0.06448266 -0.021474063 0.03714385 0.0077197314
-0.04929868 0.06929289 0.06609443 -0.049760077 -0.048303835 -0.08762611 0.028546095 0.0123317875
0.006261196 -0.062094904 -0.018928476 0.05086292 0.097031645 0.017523777 -0.028787073 0.06924745
0.0011682999 -0.01806825 -0.13306081 0.04931143 0.11442207 0.09173382 0.035127588 0.06628942
-0.014400231 0.008172954 -0.0666144 -0.021210333 -0.04635299 -0.027051628 0.06927679 -0.04785839
-0.110995546 -0.05932121 0.123455435 -0.043884333 -0.016290557 0.12058249 0.034338728 0.02930051
-0.06598219 0.042361006 -0.049042653 -0.01407712 0.061645824 -0.1058694 -0.012302585 -0.053242933
0.036469202 -0.0013671528 -0.008980461 -0.043746386 -0.08484345 0.12288011 -0.0045444006 0.070441335
0.103444785 -0.0065776706 0.03808205 -0.03951965 0.015651906 0.0062116995 0.053576328 -0.04656959
0.041496962 -0.06765623 -0.07335346 -0.021716507 -0.06947959 -0.035350937 -0.03823828 0.04116441
0.09123601 -0.06109119 0.11978064 0.033971123 0.10701303 -0.053318903 -0.06380542 -0.018746322
-0.010109302 0.098902956 0.11016375 0.018350199 0.04836442 0.012236956 -0.03663121 0.057824515
-0.058241554 -0.11877511 0.031328112 0.0041182293 -0.026084298 -0.026713634 0.01777652 0.0042809816
0.02351237 0.028706675 -0.021758309 -0.025902424 0.11403445 0.07255608 0.015045801 0.017015746
0.096999936 0.082130626 -0.01453422 -0.07194594 -0.08444512 -0.016435387 -0.053720556 -0.024494993
0.012095734 0.017646987 0.0794979 -0.013652352 0.056847747 -0.03422935 -0.025082398 -0.014205912
-0.040746678 0.12115092 0.082532614 0.09090238 -0.0032377366 0.07406971 -0.041912895 -0.026504895
0.020849068 0.038231228 0.123211585 0.09932841 -0.107128136 -0.043347646 -0.010361469 0.06966681
0.01419609 0.034363665 -0.04460386 0.079185516 -0.13107881 -0.031539433 0.112419166 -0.010466343
0.080152534 0.061946057 -0.048215095 0.025061665 0.1061056 0.106282085 0.11378064 -0.046568517
-0.030312182 -0.12403767 0.03818335 -0.0063429386 -0.08092231 0.058876228 -0.063170694 -0.11846216
0.11772091 -0.067738034 -0.10034133 0.044773832 -0.022676075 -0.069389075 -0.09229916 -0.10256843
0.08128967 -0.068157226 0.015776271 0.05090491 0.08998361 -0.08818418 0.10346878 -0.048101254
0.024115978 0.13021274 -0.012353302 -0.07141794 -0.1327954 -0.0014500415 -0.041054673 -0.098130785
0.083411105 -0.12243545 0.040472057 -0.08995153 0.030010544 0.047471583 0.089001864 -0.024104487
0.05266584 -0.004965386 0.12342441 -0.10429978 0.09455934 0.123448946 0.020651268 -0.059719466
-0.1057782 -0.04167559 -0.00573291 -0.13610639 0.10082338 -0.034661397 0.06708456 0.09340783

rnn.weight_hh_l0 f4 [400, 100]
00000000: a6d0 b2bd a3c1 b13d e31f 97bd 1e1b 873d
00000010: de82 23bd 4561 e0bc f92f b83d d6d2 47bd
00000020: fc5d 2abc 271d 36bd a335 293d 5000 983d
00000030: 0728 c13c 9b70 883d 5fb4 9fbd 98a1 cd3d
00000040: 17b4 edbc fa9a e2bd 533b ab3d 4d76 3dbd
00000050: 15c6 ae3c 2070 cdbc 636a e0bd dfca 32bb
00000060: 75b8 42bd c11e 453c 6aaf b63d 32fe a6bd
00000070: 444e b6bc 68f5 203d ea04 73bd a35d 9fbd
00000080: 4220 a3bd 34b6 883d ef76 8cbd 8796 5d3c
00000090: 28a1 71bd 5746 df3d 54fd e0bd 1cc3 9dbc
000000a0: 7a63 46bc d391 1dbd bc16 3abd 711c 30bd
000000b0: e516 d13c ed6f 7abd 5e61 4bbd 7080 6ebd
000000c0: 9811 943b 1c53 43bd 0341 92bd 1250 abbd
000000d0: 4a40 a3bd ee35 383d 453e 9dbd c942 72bd
000000e0: b2b4 c0b9 3d8b 7b3d c5d5 633d b03e d83d
000000f0: e3c2 823d 9544 b43d b82f febc bd0a dcbd
00000100: 434b e03c 98ec a8bd bd4a 863d ba3a 023d
00000110: 0f19 b3bd 4847 43bc 37a5 4bbd 075b e5bc
00000120: 0a53 80bd 1239 813d 395f b83d f6bf 72bb
00000130: c1f0 873c 6cfd 4c3c 9596 1c3d 7985 a2bd
00000140: ae26 08bd cf02 e8bd 3f4e 8dbd b771 80bd
00000150: e81c c83d 5d2f 853d b22f 873d 73de 17b9
00000160: c766 00be 89e6 fe3c 3a6e 56bb 91f6 813c
00000170: b093 413d 940a 2e3c 39e7 863d 4176 ccbd
00000180: 08a1 c43d 2aeb 6cbd 175c 6ebd 9a8c 833d
00000190: 6076 59bd 89da 333d d578 8bbd f1a2 543d
000001a0: e6c5 88bd d848 5c3d 58c0 ae3c 304a 0cbd
000001b0: 9f7f c63d 1e1f d73c a3b4 393d e522 3fbd
000001c0: 40d7 403d b8bc 253c ed46 9cbd bc12 89bd
000001d0: 0875 a23c 305f b63d e50b ab3d cd69 3a3b
000001e0: ae61 b43d a20b 5fbc 94c4 cf3d b5be 89bd
000001f0: ea33 083b b55a a2bd 4698 62bd a5ee 493c
00000200: 97d3 f5bd a0a5 8d3d d047 5e3c bc51 1d3d
00000210: 7ccc b53d b4de 5ebb 0a2a 31bd 02da 04bd
00000220: 7b2b 49bd 2510 dbbd 84c6 9f3d 30c2 f53c
00000230: 27d2 093d 0179 833d 8f51 d83d 870b debb
00000240: df18 a4bc d8d4 3bbd ca59 c4bd 3db6 023c
00000250: f1f6 113c d1ae 64bc 562f 0c3d c49b 883d
00000260: 19c8 a83d 6772 743d c2c9 d93b c473 d53c
00000270: 21d8 be3d b1ff 06bd 8938 503d 497d c1bb
00000280: d5e8 a4bd a340 82bd 9bc0 adbd bce5 89bd
00000290: e46d 363b cc4b 953d 5a26 273d 963c 8539
000002a0: 60a6 5a3d 1fe2 543d 0059 d53c a0ba 2fbc
000002b0: b77f 893d d71f d63d 1255 febc 72bf acbb
000002c0: a94d bb3d fd7b 133d 7a53 9abd ccac a93d
000002d0: f292 f33d b50e 103d 1723 a0bd f713 c0bd
000002e0: 460d bc3d dc23 1abd 88cf e23c 119b 423d
000002f0: ba30 c3bb f4a1 98bd 63e4 1139 88b8 b5bd
00000300: 4da3 ca3d cd38 053c fd82 5f3b 5961 8b3d
00000310: e062 e0bd 0af9 afbd 94b7 8cbd e1d5 aabd
00000320: 04fe 9d3d 5e9f e1bb 7cfd 84bc 8c51 1b3d
00000330: 27ab 3e3d 476d d33c fda1 343c 2d65 f23c
00000340: 6608 e2ba 3f26 433d c798 9bbc a766 5cba
00000350: 998d 51bd e94c c1bc 7197 563d 1445 9c3d
00000360: 047f 48bd d165 3abd c017 7c3d 2c00 8a3d
00000370: efaf 52bd 0130 31bd 9f04 67bd 5400 f03d
00000380: f3eb 9bbd 6fae 893d 1564 373d ddc3 a13d
00000390: 80ca 6b3d 24f3 32bd 6d57 473d f102 60bd
000003a0: 95f4 5ebd 17fd fa3d 512f 1cbd 644a 79bc
000003b0: 28f8 133d aca7 adbc 50a1 943d 4a1a b23d
000003c0: 00a1 cdbb 5775 5cbd e3a2 6a3d 3d45 cd3d
000003d0: dabb f8ba 1bd5 343d a74a ff3d 8b69 69bc
000003e0: c473 32bd 5b77 c1bc 1636 c23c 2678 23bd
000003f0: 5287 2bbd b62c 51bb 27d3 edbc 66c9 babc
-0.08731203 0.086795114 -0.07379129 0.06596969 -0.039919727 -0.027390132 0.08993525 -0.048785053
-0.010398384 -0.044461396 0.041310918 0.074219346 0.023578657 0.06662103 -0.07798075 0.10040587
-0.029016538 -0.11064716 0.083609246 -0.0462554 0.021334687 -0.02507788 -0.10957792 -0.0027281565
-0.047539193 0.012031258 0.08920176 -0.08153953 -0.022254117 0.039296538 -0.05933086 -0.07781532
-0.07965137 0.066753775 -0.06858622 0.013524658 -0.05899158 0.10902088 -0.109858185 -0.019258074
-0.012108678 -0.038469147 -0.045431837 -0.042995874 0.025523612 -0.061141897 -0.049653403 -0.058227956
0.004518699 -0.04768668 -0.07141306 -0.083648816 -0.079712465 0.044973306 -0.076778926 -0.059145723
-0.00036755722 0.061412085 0.05562379 0.10558832 0.06384828 0.088021435 -0.031028613 -0.10744236
0.027379638 -0.08248252 0.06557224 0.031794287 -0.08745014 -0.01191885 -0.049718108 -0.027997507
-0.062658384 0.063097134 0.09002537 -0.0037040687 0.016594293 0.012511592 0.038229544 -0.07935614
-0.033240013 -0.11328661 -0.0689969 -0.062716894 0.097711384 0.065031745 0.06600894 -0.00014483351
-0.12539206 0.031115787 -0.0032719509 0.015864642 0.047259986 0.010622639 0.06587071 -0.09983493
0.09601027 -0.057841457 -0.058193292 0.06423302 -0.053091407 0.043909583 -0.06810156 0.051913206
-0.06678371 0.053780407 0.021331951 -0.03425044 0.096923105 0.026259955 0.045338284 -0.046664137
0.04708028 0.010115795 -0.076307155 -0.066930264 0.019831195 0.08904874 0.08351878 0.002844441
0.088076934 -0.013613613 0.10144916 -0.067258276 0.0020782896 -0.07927457 -0.055321 0.012324964
-0.12003248 0.06916356 0.013566926 0.038408026 0.08876893 -0.0034007253 -0.043252982 -0.03243447
-0.04911373 -0.10696439 0.07801536 0.029999822 0.033647683 0.06419564 0.10562431 -0.0067762765
-0.02003139 -0.04585728 -0.095874384 0.007978019 0.008908973 -0.013957695 0.03422483 0.06670335
0.082412906 0.059679415 0.006646366 0.026056178 0.09318567 -0.03295869 0.050835166 -0.0059048277
-0.08052222 -0.06359985 -0.08484002 -0.067332715 0.0027836496 0.07289848 0.04080806 0.00025412877
0.053381324 0.05197346 0.026043415 -0.010725647 0.06713813 0.10455292 -0.031046424 -0.0052718455
0.09145672 0.036006916 -0.07535453 0.082849115 0.11893262 0.035170276 -0.07819193 -0.09378808
0.09182219 -0.037631854 0.02768685 0.047511164 -0.0059567364 -0.07452765 0.00013913358 -0.08873087
0.098944284 0.008131218 0.0034105175 0.06805677 -0.10956359 -0.08592422 -0.06870952 -0.083415754
0.07714465 -0.006885453 -0.016234152 0.037919566 0.046549942 0.025808943 0.011024949 0.02958926
-0.0017244935 0.047643896 -0.018993748 -0.00084076304 -0.05116043 -0.023596244 0.05239052 0.07630363
-0.048949257 -0.045507256 0.061546087 0.06738314 -0.051437315 -0.04325867 -0.05640089 0.117188126
-0.07613363 0.06722724 0.04477318 0.07898686 0.057566166 -0.04368891 0.04866736 -0.054690305
-0.05443247 0.12255304 -0.038131062 -0.01521549 0.036125332 -0.021198116 0.072573304 0.086964205
-0.006275296 -0.05382284 0.057284247 0.10022972 -0.0018976883 0.044148546 0.12465411 -0.014246355
-0.043567434 -0.023616483 0.02370743 -0.039909504 -0.0418771 -0.003191752 -0.02903135 -0.022801112

rnn.bias_ih_l0 f4 [400]
00000000: 53ce 793b 63c9 8a3d 2b37 953c 6181 c13c
00000010: aff6 41bc f038 003e 9fa8 383d ec0a 043e
00000020: 44ac 053d 40f9 c63d 6b77 8abd c315 87bd
00000030: 44ff 513d 03db adbd 9b43 d13c aa61 95bc
00000040: 39f2 cfbb 1d58 003e 149b a2bd fc01 18bc
00000050: 2969 ef3d 7c73 b3bd 0861 c7bc bd6d ea3d
00000060: d7f1 6a3b 79c5 d2bc 2b09 e03c c479 abbd
00000070: 8f5d 2e3d 1f96 213d 9122 6fbd 2e55 563d
00000080: d10e a3bd fbf6 a43d 2a58 7cbd a658 89bd
00000090: b59e 93bd 0809 af3d f1c1 8bbd 105d a1bd
000000a0: f263 af3d 46da dabc 8851 973d 6151 66bc
000000b0: 7d6a 81bc 41dd 843d c0a1 423d c114 fe3c
000000c0: 7ed1 64bd 9118 4b3d db62 103d b4c4 49bd
000000d0: 6a65 333d fe51 163d d2e0 93bc 0761 77bd
000000e0: 764f c4bd 16e5 aebd f10a 3fbd e763 cc3d
000000f0: 1fa0 cabc 0918 413d 29ac 853d d23b a9bd
00000100: fff2 433d ff2a 333d f951 143d 5fe6 a7bd
00000110: f3e4 afbd f22a 723d 1d41 a53d 63bd e63c
00000120: 2ddf 223c 2736 5ebd 63c5 e93c ac1c a03d
00000130: 60df b33d c30e 8f3c 2e8f af3d f849 083c
00000140: 2b01 91bd f638 a33d 0962 31bc 5047 be3c
00000150: 56b7 853d 1743 92bd c96b 39bc 459c 32bc
00000160: f818 543d 98c3 bbbd 5ab0 833d 75a4 883d
00000170: 0a74 d43c d9a4 67bd b71c a3bd 214e 89bc
00000180: 2dd4 623d 1215 9cbc f49b cc3d 0a1a 0c3d
00000190: 0a2d 153d eff8 43bc 9075 75bc e66f 86bd
000001a0: a5ab dfbb 84b8 21bc e5ce 833b 193d 75bd
000001b0: d3ad 393d f5b8 68bd ac62 303b f921 43bd
000001c0: 86a3 7fbd b7ee 6d3c 2fdf 81bd add6 03bd
000001d0: caaf 98bd 3f30 3fbc 570e c7bd f61a 5dbd
000001e0: 5e3c c53d 87b8 173c 3457 e83d 82a0 f4bc
000001f0: d4b7 0c3d da90 0cbd 1beb a9bd 3896 173d
00000200: ade1 5a3d a5e8 53bc c56f a73c ff69 3c3d
00000210: c047 a83d 2a04 7b3c dac5 0d3d 3772 b3bc
00000220: a029 42bd b7dd 6fbd 7338 4cbc cb92 51bd
00000230: a74e c93c e3b2 95bc 14a3 403d 6ce8 0f3c
00000240: 0ae1 703d cfa5 263b 11d5 3d3d 2a93 f23b
00000250: 3eb2 c13d c8f1 3ebc 7d99 ed3c 8446 4ebd
00000260: e034 cf3d d9f3 443c 3404 413d 65c4 803d
00000270: cc4d 853d 7d9f aebd b6f8 293d 460c 633d
00000280: c510 723d 6209 953d 744f b03d b757 c3bd
00000290: 7a4b 553d 409c 96bc 8b3b b1bd 57dc 5abd
000002a0: d102 9abd d927 983d 14c0 6e3d e46b 8fbd
000002b0: 469f 9e3d 14e8 b43b e559 fe3c ffd9 7c3d
000002c0: f93e 84bd 2860 c9bd 526f 113c 8730 263d
000002d0: 2ef6 a5bd bdab 9dbd 4781 3a3c 193f 43bc
000002e0: 7ddf 4a3d 5435 81bc 5550 af3d eebd 04bc
000002f0: ef40 973c eb0c 663d 793c 983d c0b2 0ebd
00000300: e751 abbc bfa9 3fbb 61cb 8abd 34b2 d23d
00000310: 0856 0abd c0e6 2fbd 83a3 c2bd cfee dd3b
00000320: 38dc 753d 0993 b4bd ed11 cfbc 4ccd 3c3c
00000330: 5ca2 97bb 4744 383d 208e 16bd f778 00bd
00000340: 4ef1 24bd fd32 a7bd f7b0 b1bd 4215 a3bd
00000350: a947 1d3d d7c2 08bd 0fd5 8e3c 9393 61bc
00000360: bb99 d03a a6eb c03d 320b 2f3d b0fb b23d
00000370: 97f6 67bd 2498 db3d 50ac 9abb 7a53 d0bd
00000380: b3f4 c23d c235 15bd 35dc 283d dea2 873d
00000390: 7441 aebc d7f5 a5bc 68a6 483c 572f 58bd
000003a0: 718c 333d cae9 2cbd 596f 383d 4482 983d
000003b0: 0c42 af3d e027 8bbd 7bd9 0c3d bdc0 d3bb
000003c0: 2f41 bebc 2f45 c73d 5282 56bd 1817 953d
000003d0: 0d1c 983d 4f1b cc3d e0dc a4bd 7285 c33d
000003e0: cac7 70bb 3e48 8dbd c2f9 bf3d 2aef 80bb
000003f0: bbbe 2a3c 8455 8ebd 491a 4ebd bc51 a0bd
0.0038117364 0.06776693 0.018214783 0.023621263 -0.011838599 0.1252172 0.045082685 0.12894791
0.03263499 0.097155094 -0.067610584 -0.065959476 0.05126883 -0.08489039 0.025544932 -0.018235046
-0.006346014 0.12533613 -0.07939735 -0.009277817 0.116899796 -0.08762261 -0.02433826 0.11446712
0.0035849714 -0.025728928 0.027348122 -0.08372834 0.042569693 0.039449807 -0.058382574 0.052327327
-0.079618104 0.0805492 -0.061607517 -0.067063615 -0.07208005 0.085466444 -0.06824101 -0.078790784
0.08563985 -0.026715409 0.07388598 -0.014057488 -0.015797848 0.06487513 0.047517538 0.031015756
-0.05586385 0.049583975 0.035250526 -0.049259856 0.043797888 0.036699288 -0.018051539 -0.060395267
-0.095854685 -0.085397884 -0.046641294 0.09979992 -0.024734555 0.047142062 0.065269776 -0.08263363
0.04783916 0.043742176 0.036210988 -0.08198237 -0.085885905 0.059122987 0.0806906 0.028166478
0.009940905 -0.054250862 0.028536504 0.07817969 0.0878284 0.017463094 0.08572231 0.008318417
-0.07080301 0.07969849 -0.010826596 0.023227364 0.06529109 -0.071417026 -0.011317202 -0.010901515
0.051781625 -0.09168166 0.06430121 0.06671993 0.025934238 -0.056553695 -0.07964461 -0.016760888
0.055378128 -0.019053016 0.09990683 0.03420452 0.036419906 -0.011961206 -0.014981642 -0.06564312
-0.0068258815 -0.009870652 0.0040224665 -0.05987272 0.045331787 -0.056817014 0.0026914282 -0.04763982
-0.062411807 0.014522246 -0.06341397 -0.032187153 -0.07455404 -0.011669218 -0.09719532 -0.05398079
0.09630655 0.009260303 0.11344758 -0.029861692 0.034355 -0.03431783 -0.08296796 0.037008494
0.053437877 -0.012933885 0.020439038 0.045999523 0.0821681 0.015320817 0.034612514 -0.021905048
-0.047402978 -0.058561053 -0.01246463 -0.051165383 0.024573637 -0.018273776 0.047030523 0.008783441
0.058808364 0.002542842 0.046345774 0.007402797 0.09457825 -0.011654325 0.029003853 -0.050360218
0.10117507 0.012021028 0.04712315 0.06287459 0.06508979 -0.08526514 0.041496955 0.055431627
0.059098024 0.0727718 0.086089045 -0.09538215 0.052073933 -0.018385053 -0.08653935 -0.05343279
-0.075200684 0.07429475 0.05828865 -0.070030004 0.07745223 0.00552083 0.031048724 0.061731335
-0.064573236 -0.098327935 0.0088766385 0.040573623 -0.08103596 -0.07698772 0.011383361 -0.011916899
0.04952954 -0.0157725 0.08560244 -0.008101923 0.01846358 0.056164663 0.07433409 -0.034838438
-0.020913078 -0.0029245464 -0.06777073 0.10287896 -0.033773452 -0.04294467 -0.09503844 0.006772853
0.06002447 -0.08817107 -0.025277102 0.011523556 -0.004627509 0.04498699 -0.036756635 -0.03136536
-0.04026919 -0.08164022 -0.086763315 -0.07963039 0.03839842 -0.03338894 0.017435579 -0.013768095
0.0015914956 0.09419946 0.042735286 0.08739412 -0.05663165 0.10722378 -0.0047202483 -0.10172172
0.09519329 -0.03642822 0.04122563 0.06622861 -0.021271445 -0.020258827 0.012246706 -0.05277952
0.043835107 -0.042215146 0.045028064 0.07446721 0.08557519 -0.06794715 0.034387093 -0.006462185
-0.023224441 0.097299926 -0.052370377 0.072797954 0.07427225 0.09966146 -0.08049941 0.09546937
-0.0036740177 -0.06898545 0.093738094 -0.0039347606 0.01042145 -0.069499046 -0.050318036 -0.078280896

rnn.bias_hh_l0 f4 [400]
00000000: c11b 553d 7ca4 333d b5ef ed3c ae25 543d
00000010: 1716 b43d 8ce1 323d 490a 223d 510a f53c
00000020: 47b0 313d 9dc8 b83d 66cf 52bd 76be b7bd
00000030: c912 e3bd 325d deba 4d01 253c 1cbc 0a3d
00000040: c8d2 2f3d 2580 613d 6a4e a03c 1689 c33c
00000050: 598d ce3d 4c9c a0bd ea0d ce3d b339 79bd
00000060: 35c9 933c 3510 c93d 09cd c73d ceca b43d
00000070: 2eee 983d 2512 1abc d255 a53d 42f8 79ba
00000080: 6c21 dd3b 2e49 483d d222 4dbc dcb4 753c
00000090: 7f89 95bd 21e2 3b3d a598 61bd 01bb 72bd
000000a0: fd26 e3bc 4ca4 ecbc 4086 8c3c b8c2 0ebc
000000b0: 01a5 c13d ef86 4cbd 52ee 9ebd 7e63 423c
000000c0: daf1 f63d bbcf 6abb b90b e93c fa63 2dbd
000000d0: 5052 9b3d 010f bd3c ed1c 973d d221 84bd
000000e0: b7bd 633d 0649 9fbd c724 32bb d5fb b33d
000000f0: 5335 82bb 5b0d c93d 28e1 593d 834b 3d3d
00000100: 7a07 f93d ea61 923d e20b 18bd 18b3 cb3d
00000110: 91cc 863b bafa c23d 3403 03bd f6db ce3c
00000120: 737c d43d 2088 e5bb ef60 86bd 2584 fb3d
00000130: 474d 88bc 2ecd 6d3d 58ee 543d 3fc0 adbc
00000140: 4d69 cebd 5efc a8bc 10a1 1bbd 80bb 03bb
00000150: ff9c 023e bf1c 2a3d 61e7 b03c e842 2ebd
00000160: bc3f bf3d 907f bdbd 4ec3 d03d 3621 ed3d
00000170: eab3 8dbd 4dbe b4bc d964 853d 002a c43d
00000180: fd10 b439 8027 37bd a6b2 813c a2f2 ed3d
00000190: e34d d8bd 8f3c 4bbd 6330 c6bd 18b2 2d3d
000001a0: cbd7 90bd c1e7 20bd 02ce bc3d f147 c13d
000001b0: 3853 1abd ce46 053d 80e2 9f3d 7884 7f3c
000001c0: 5ea6 aebd 523a 953c 4cee e03c aaad 303d
000001d0: e033 bdbc 8af2 013e baf3 33bb d636 c3bc
000001e0: 7172 5d3d 6193 1d3d 41c2 8ebd fca4 e0bc
000001f0: 4787 633d 018f 803c ccfb b5bd b20a 423c
00000200: d100 7bbd 2b5c babc abba 1abd 375d 75ba
00000210: 7ea6 8c3d e67a 2e3d 9ca4 033b d0e4 d83d
00000220: 887b 8a3c ab7a 2b3d 947a 713d b2ae 843d
00000230: c684 c33c c6af 8d3d 87db a03d 7e27 85bd
00000240: 981a e0bc 3cf8 f53d 9605 e83c b00c e8bc
00000250: ef21 92bd b9f8 afbc e8db 05bd 2ad1 36bd
00000260: 0b04 643d d54c aebd eeae c43d 1f5c 8bbd
00000270: 187a febc 958b 913d c8a3 de3c 93e9 4bbd
00000280: d720 87bd 6215 32bd ed0b bc3d 0fef b43c
00000290: e79b 9dbc cd7f ee3c 157c f33c ec6e 50bb
000002a0: 8f38 8dbd 27e4 e53d 3204 073c 5484 3abd
000002b0: 7fc1 ae3d 6f13 5cbd a05b af3d d43f 1d3d
000002c0: 1efa 8fbc d30e 8abd 3659 66bd 3b53 ea3c
000002d0: ea18 b1bd 8faa 1abd 3f86 4fbd 8fed 67bc
000002e0: 0494 ba3d 6db3 313d 1458 5bbc 5bc2 81bd
000002f0: 9bd1 5ebd 6af8 a73d 08b4 8a3d f1e3 80bd
00000300: 07f8 75bd e8b2 f03d cafe 253c bbae e73d
00000310: 3363 b33d 8154 913d 223e bdbd 3f83 303b
00000320: d4e7 083c e600 8cbb 2fac 97bd 00e7 ed3c
00000330: 6128 16bd 40e3 62bd 39ea 5abd 8719 383b
00000340: e894 923c 34bc 0c3b 487e bdbd a921 033d
00000350: 26e4 6cbc c8c2 63bd ca21 0dbc 9d16 7fbd
00000360: 7fcc 25bd 949e 9e3d 0ab7 4f3d fd2a cb3c
00000370: 695a 873d 9122 b2bd 412e b53d d515 a33d
00000380: cbd2 d7bb b1d6 24bd 1b4c 67bd 4f64 9abc
00000390: 9a2a 8cba a945 d5bd 9b10 363a a0a3 bc3d
000003a0: 2174 d63c e0ef 93bd 2fce 853b d4b0 bebd
000003b0: 36a7 0e3c fe8f 4abd 6843 41bc 2a9a a13d
000003c0: 2666 863d e855 1b3c 3df6 ed3a fc41 6d3d
000003d0: f68b 283d 3b3f 89bd b7bb 2cbd 411f 653d
000003e0: ea6d 77bc 4e86 25bd ef40 a83d 746c 98bd
000003f0: a999 99bc 2051 63bd abbb 3d3d 457d 72bd
0.05202842 0.043858036 0.029044965 0.051793747 0.08793276 0.04367213 0.03956059 0.029912146
0.043381 0.09022639 -0.05146732 -0.089718744 -0.11087567 -0.001696503 0.010071111 0.0338708
0.042925626 0.05505385 0.01956864 0.023869079 0.10085554 -0.07842311 0.10061248 -0.060846042
0.018040279 0.09817544 0.09755904 0.088277444 0.07467304 -0.00940374 0.080730096 -0.00095355895
0.006748369 0.048897915 -0.012520509 0.0149967335 -0.07301616 0.04586995 -0.055077214 -0.059260372
-0.027728552 -0.028886937 0.01715386 -0.008713417 0.094553 -0.04993337 -0.077603 0.011864541
0.12057848 -0.0035829383 0.028447973 -0.042331673 0.07584059 0.023078443 0.07378564 -0.06451763
0.055600848 -0.077776 -0.0027182566 0.087882675 -0.003973642 0.098170005 0.05319324 0.04621459
0.12159629 0.07147582 -0.037120707 0.09946269 0.0041137417 0.095204785 -0.031985477 0.02525137
0.10375299 -0.0070047528 -0.06561457 0.12281064 -0.016638411 0.058057003 0.051985115 -0.021209834
-0.10078678 -0.02062815 -0.037995398 -0.0020100772 0.12755202 0.04153132 0.021594705 -0.042544276
0.09338328 -0.09252846 0.101935014 0.115786 -0.069190815 -0.022063399 0.06513376 0.09578323
0.00034344933 -0.044715405 0.015832257 0.11618544 -0.10561731 -0.0496183 -0.09677198 0.04240617
-0.07072409 -0.039283518 0.0921898 0.0943755 -0.03767702 0.032538228 0.07806873 0.015595548
-0.08527826 0.018216286 0.027457379 0.04313437 -0.023096025 0.12690178 -0.0027458505 -0.023829859
0.054064218 0.03847063 -0.06970645 -0.02742242 0.055548932 0.01569319 -0.08885917 0.01184337
-0.061280075 -0.022749027 -0.037775677 -0.00093598984 0.06867693 0.042597674 0.0020087129 0.105905175
0.016904607 0.041865032 0.05895479 0.06478633 0.023867022 0.06918292 0.078543715 -0.06501673
-0.02735643 0.120102376 0.028322976 -0.028326362 -0.071353786 -0.021480905 -0.032680422 -0.04463307
0.05566792 -0.08510748 0.09603678 -0.0680468 -0.031064078 0.07106701 0.027177706 -0.0497833
-0.065980606 -0.043477423 0.09181962 0.022086648 -0.01923938 0.029113675 0.029722253 -0.0031804396
-0.06895553 0.11225157 0.008240746 -0.045536354 0.08533 -0.05372947 0.08562398 0.03839095
-0.01757532 -0.06741109 -0.056237422 0.02860414 -0.0864733 -0.037760314 -0.050665136 -0.0141557595
0.09110263 0.043384004 -0.013387699 -0.063358985 -0.054399114 0.08201678 0.067726195 -0.062934764
-0.06005099 0.11752874 0.010131547 0.11312624 0.08759155 0.07096196 -0.092403665 0.0026933698
0.008356053 -0.004272568 -0.07405888 0.029040813 -0.036659602 -0.055392504 -0.05344603 0.0028091387
0.01789327 0.0021474482 -0.09252602 0.032014523 -0.014458692 -0.05560568 -0.008614013 -0.062277425
-0.040478226 0.0774509 0.05071167 0.024800772 0.06609041 -0.08697999 0.08846713 0.079631485
-0.006586408 -0.04024381 -0.056469064 -0.018846659 -0.0010693849 -0.10413677 0.00069452234 0.092108965
0.026178421 -0.07223487 0.004083417 -0.09311071 0.008706858 -0.049453728 -0.011795856 0.078907326
0.06562452 0.009480931 0.001815505 0.057924256 0.041149102 -0.067015134 -0.042171206 0.05593801
-0.015101889 -0.040411286 0.0821551 -0.07442561 -0.018750029 -0.05549729 0.046321552 -0.059201498

linear.weight f4 [1, 100]
00000000: 13a3 843d e06a f7bd 93a4 c7bb bbb4 c43d
00000010: 8580 0cbe 4fee a73d 012e c7bd c210 0bbe
00000020: 4d8a f03d 4663 1cbd be36 abbd a30c 7fbd
00000030: 9eb9 823d ff7c b73d 803a 57bd 6607 8ebd
00000040: 3868 5e3c 12cc adbd 27a4 903d 2efc 7a3c
00000050: dfcc d73d f1a4 5d3c a028 313d e60d 03be
00000060: a327 673d e426 963d 4283 a93d 7dd8 ee3c
00000070: f33f 29bd 8d2d 8abd b1fb 09be 8c62 09be
00000080: baac 943d 2fbd b2bd 4045 903d 4691 25bd
00000090: 5a0b ca3d 89d4 e43d 7339 5abd 1c5c aebd
000000a0: 422a 8d3d 9526 d3bc 4d88 1a3d 6a70 83bd
000000b0: ead6 693d 5e00 fc3d 3245 79bd c48e 4b3d
000000c0: ebc6 edbc 605f a3bc 5d6f 383d f82d 87bd
000000d0: a726 f43d 3092 8f3d c42d b83d 9dcc dfbb
000000e0: 9ede 64bc 0dcd 86bd 5037 9a3d c70a b9bd
000000f0: fa7f 97bd 85b1 06be 8755 f0bd 80ce cabd
00000100: e257 ab3d a7b4 a0bc 8cd4 23bc 86bd b9bd
00000110: 38cc a2bd c1a0 083e 2141 ba3d 121c b63d
00000120: 2811 e03d 3462 893d e9e8 623d 1fa5 fd3d
00000130: 4454 473d 251e 62bd 8acd 083d f8ac 673d
00000140: 5765 c6bd 38cc 18bd c104 f73d 0c3f 0bbd
00000150: ff7f 473d 3e05 5bbd 9b90 f4ba c9f8 2cbc
00000160: b4c1 ebbc 63bb 873d 7161 843d 41ab cd3d
00000170: 6238 01bd 2fc7 053e 7a88 473d f5c1 02bd
00000180: b5bb 52bd bdbf 0dbd 8a33 db3d fcb5 183b
0.064764164 -0.12080932 -0.006092617 0.09604784 -0.13720901 0.08199751 -0.097255714 -0.13580611
0.11745129 -0.038180612 -0.083600506 -0.06226791 0.0638306 0.08959388 -0.052546024 -0.06935005
0.013574652 -0.08486189 0.070625596 0.015318913 0.10537123 0.013528095 0.043251634 -0.1279827
0.056434285 0.073316365 0.082769886 0.029155964 -0.041320752 -0.06746969 -0.13474919 -0.13416499
0.072595075 -0.0872749 0.070444584 -0.040421747 0.098654464 0.1117335 -0.053277444 -0.08513662
0.06892826 -0.025775233 0.037727643 -0.06417926 0.057089724 0.123047575 -0.060857005 0.0496967
-0.029025516 -0.01994294 0.04502808 -0.06600565 0.11921435 0.07010305 0.08993104 -0.0068298117
-0.013969092 -0.06582079 0.07530081 -0.09035259 -0.073974565 -0.13153656 -0.11735063 -0.09902668
0.08366372 -0.019617392 -0.009999406 -0.09069352 -0.07949108 0.13342573 0.090944536 0.08892073
0.10940772 0.06708184 0.0553979 0.1238501 0.048664346 -0.05520453 0.033399142 0.05656144
-0.09687298 -0.037304133 0.120614536 -0.033995673 0.04870605 -0.053471796 -0.0018658818 -0.010557362
-0.028778888 0.06627538 0.06463898 0.1004243 -0.03154791 0.13064264 0.04871414 -0.031923253
-0.051448543 -0.034606684 0.1070319 0.002330183
