backend/trained_models/CZBIL_GRU_model_state_dict.pth (torch, 607244 bytes, 9 tensors)

rnn.weight_ih_l0 f4 [384, 5]
0	0xbd8519b9	-0.06499047
1	0x3c893e06	0.016753208
2	0xbdaeac4c	-0.08528957
3	0x3c873703	0.016505724
4	0x3cebea3f	0.02879822
5	0xbd4c3d06	-0.049862884
6	0x3d6ff9e4	0.058587924
7	0xbd282275	-0.041048486
8	0x3d3533b4	0.04423876
9	0x3ccb741e	0.024835642
10	0xbca7569b	-0.020427039
11	0x3d219899	0.03945217
12	0xbd90a602	-0.070629135
13	0xbcd5acaf	-0.026083319
14	0x3d7eaee7	0.06217852
15	0x3cc435eb	0.023951491
16	0x3d196085	0.037445564
17	0x3d827fe7	0.06372052
18	0xb99a21b2	-0.00029398274
19	0xbd48b664	-0.049002066
20	0xbcad9026	-0.0211869
21	0xbc1f579d	-0.0097254785
22	0x3c526a16	0.012842676
23	0x3d980112	0.07422079
24	0xbd8876af	-0.06663262
25	0x3b2db966	0.002650821
26	0x3d874938	0.06605762
27	0xbd1cc362	-0.03827227
28	0xbdf53c7c	-0.11974427
29	0x3d2d8f32	0.04237289
30	0x3d093bc8	0.033504277
31	0x3d2278aa	0.039665855
32	0xbb993145	-0.004675063
33	0x3d85d7b5	0.065352835
34	0xbd2327f8	-0.03983304
35	0x3d7439b0	0.059625328
36	0x3d7bd4be	0.061482184
37	0x3c6acb22	0.014330657
38	0x3d801cff	0.062555306
39	0xbd40af9d	-0.047042478
40	0xbc24cab0	-0.01005809
41	0x3d884f3b	0.06655737
42	0x3d7e50bd	0.062088717
43	0x3d506a4c	0.050882623
44	0xbb5ed081	-0.003399879
45	0x3d51760a	0.05113796
46	0xbd2203db	-0.039554458
47	0xbd1546a0	-0.036444306
48	0xbb99cb59	-0.0046934304
49	0xbd942a77	-0.07234662
50	0x3c86b157	0.016441984
51	0xbd1bd0e6	-0.038041018
52	0xbd1b165b	-0.037863117
53	0x3d96b001	0.07357789
54	0xbd5716dd	-0.05251204
55	0xbd29a4bc	-0.04141687
56	0xbb6f23f0	-0.0036489926
57	0xbb93a5c3	-0.0045058443
58	0xbbb65301	-0.005564094
59	0x3d022764	0.031775847
60	0x3c335325	0.010945116
61	0xbdaf8585	-0.08570389
62	0xbd02edf9	-0.03196523
63	0xbdaacea7	-0.08340197
64	0xbcb3b546	-0.021937024
65	0xbd74a7d9	-0.059730384
66	0xbc3b4360	-0.011429638
67	0x3dad42b4	0.08459988
68	0x3d20778c	0.03917651
69	0xbbc7d049	-0.0060978276
70	0xbd7888a9	-0.060677204
71	0x3cc4aee4	0.024009176
72	0x3d30addf	0.043134566
73	0x3d831b13	0.06401648
74	0x3db07631	0.08616293
75	0x3c379f15	0.011207362
76	0x3d938ad0	0.07204211
77	0xbc800a1f	-0.015629826
78	0x3d720fc7	0.059097078
79	0x3d1bef55	0.03807004
80	0xbd9972b3	-0.0749258
81	0x3d9fca2b	0.07802232
82	0xbd68d1b9	-0.056840632
83	0xbcef235a	-0.029191662
84	0xbd7c54b7	-0.061604228
85	0xbd52e91c	-0.05149184
86	0x3d717e85	0.05895855
87	0xbd741d75	-0.059598405
88	0xbcb6d21e	-0.022316989
89	0x3c98285e	0.018573936
90	0x3da34696	0.079724476
91	0x3d4ef562	0.050526984
92	0xbd049b44	-0.032374635
93	0xbd2256bc	-0.039633498
94	0xbc8d091b	-0.017216256
95	0xbd2b2398	-0.04178199
96	0xbd95588f	-0.07292282
97	0xbb9ab3df	-0.0047211493
98	0x3ac9c36c	0.0015393323
99	0xbcd3777a	-0.025813807
100	0x3d19a137	0.037507262
101	0xbd49bf5c	-0.04925476
102	0xbaf91cbf	-0.0019005759
103	0x3c64a89b	0.013956214
104	0x3d0d47e6	0.034492396
105	0xbcafa09f	-0.021438895
106	0xbd9b7047	-0.075897746
107	0x3af3ad95	0.001859116
108	0xbdcf722f	-0.10129201
109	0xbbc9b24d	-0.0061552883
110	0x3d9125a4	0.070872575
111	0x3c7486ae	0.014924688
112	0x3d6467d8	0.055763096
113	0xbd23eba6	-0.040019654
114	0xbd25d6ca	-0.040488042
115	0xbc88e8f4	-0.016712643
116	0x3db957e5	0.09049968
117	0xbcd07e09	-0.025450723
118	0x3db77fdb	0.08959933
119	0x3de1d625	0.11027173
120	0xbdbd7696	-0.09251134
121	0xbcdf0acd	-0.02722683
122	0xbdd7f66f	-0.1054505
123	0xbdc90291	-0.09814943
124	0x3d8e882c	0.069595665
125	0x3af72a05	0.0018857127
126	0xbd234696	-0.039862238
127	0x3b5bc429	0.0033533669
128	0x3caa44ce	0.020784762
129	0x3da70b9d	0.08156512
130	0x3c83692b	0.016041359
131	0x3cb4a7cf	0.022052674
132	0x3d53d70a	0.05171875
133	0x3d95ed73	0.073206805
134	0x3bf09be1	0.007342801
135	0xbd498098	-0.049194902
136	0xbc6ebf75	-0.014572014
137	0xbd1bd560	-0.038045287
138	0x3dde73b0	0.108619094
139	0xbce8df0c	-0.02842667
140	0xbd96482a	-0.07337983
141	0xbaf64b13	-0.0018790684
142	0xbd0b8193	-0.03405912
143	0x3d005088	0.0313268
144	0x3d1110da	0.03541646
145	0x3d4dc097	0.050232496
146	0xbdae8416	-0.08521287
147	0xbd32123c	-0.04347442
148	0xbcbecb76	-0.023290377
149	0xbceea1b4	-0.02912984
150	0x3d991792	0.07475199
151	0xbda15d69	-0.07879145
152	0x3db690f3	0.089143656
153	0xbc1ffda3	-0.009765062
154	0x3db552a4	0.08853653
155	0xbd4c861e	-0.04993259
156	0xbd2f38f4	-0.042778924
157	0x3da7bb7b	0.08190056
158	0x3ded8b03	0.1159878
159	0xbc7f9836	-0.015600255
160	0x3c1d3b1f	0.009596615
161	0x3bd5d8e3	0.006526099
162	0xbd236b90	-0.0398975
163	0x3d6abe4e	0.057310395
164	0xbd14ca25	-0.036325593
165	0x3d505ef9	0.050871823
166	0xbcba5ece	-0.022750285
167	0x3c2aaf48	0.010417767
168	0xbd07d6ad	-0.033163715
169	0x3dd25fd7	0.10272186
170	0xbc14f473	-0.009091484
171	0xbc5800d7	-0.013183794
172	0xbda1b851	-0.07896484
173	0x3d2b16b7	0.04176971
174	0x3db15043	0.08657887
175	0x3d88b7a8	0.06675655
176	0x3c0edeff	0.008720159
177	0xbd836bb6	-0.064170286
178	0x3e034883	0.1282063
179	0x3db03baa	0.0860513
180	0x3d9a9cd2	0.07549442
181	0x3da6d7af	0.08146607
182	0x3d263871	0.04058117
183	0xbc533de3	-0.012893173
184	0x3d33cf88	0.04389909
185	0x3d197542	0.03746534
186	0xbd93a485	-0.07209114
187	0x3d5f3cdd	0.054501403
188	0xbd9117df	-0.07084631
189	0x3ca934ce	0.020655062
190	0x3c870760	0.016483009
191	0xbd8cd5c7	-0.06876712
192	0xbb7a4e53	-0.0038193658
193	0xbddc82dd	-0.10767148
194	0xbdc6e7ff	-0.097122185
195	0xbd1f6e85	-0.03892376
196	0xbd5c577c	-0.05379437
197	0xbdb2daa5	-0.087331094
198	0xbc2100a9	-0.009826818
199	0x3d86b7e0	0.0657804
200	0xbcd391e9	-0.025826411
201	0xbda4b230	-0.08041799
202	0xbd60ba3c	-0.054865107
203	0xbc0acb62	-0.008471342
204	0xbc4e4380	-0.012589335
205	0x3d8b5a15	0.06804291
206	0xbd31c09f	-0.04339659
207	0x3baa82fc	0.005203603
208	0xbd804d3e	-0.06264733
209	0xbd978515	-0.0739843
210	0x3d870150	0.06592047
211	0x3c111a87	0.008856422
212	0xbd84d424	-0.06485775
213	0xbd2bb150	-0.041917145
214	0xbd3ca07c	-0.046051487
215	0x3cc97cfc	0.02459573
216	0x3dba7f20	0.091062784
217	0x3cca0aa1	0.024663271
218	0xbde0f210	-0.1098367
219	0xbd75c23e	-0.059999697
220	0xbb88f337	-0.004179384
221	0x3dc953b0	0.09830415
222	0x3dd15e6d	0.102230884
223	0x3d115f42	0.035491236
224	0xbd74351f	-0.059620973
225	0x3d5128b1	0.051064197
226	0xbd5242c2	-0.051333196
227	0x3ab0fdcc	0.0013503372
228	0xbd67c346	-0.05658271
229	0xbc2c7a9a	-0.010527277
230	0x3d90f5eb	0.07078155
231	0x3d3000bc	0.04296945
232	0x3a9a4fe1	0.0011773073
233	0x3c1fb764	0.009748314
234	0x3da4a506	0.08039288
235	0xbd89dddd	-0.0673177
236	0xbd3e8fb9	-0.046523783
237	0xbc9f4b9f	-0.019445239
238	0xbb2e7d26	-0.0026624887
239	0xbd4f6045	-0.05062892
240	0xbd990403	-0.07471468
241	0x3c88b10d	0.016685987
242	0xbda02e89	-0.07821376
243	0x3d97c94a	0.0741144
244	0xbca68470	-0.020326823
245	0x3d111b4f	0.035426434
246	0xbd0b5161	-0.034013156
247	0xbc013d35	-0.007888128
248	0x3c8385e6	0.016055059
249	0x3d9bebdd	0.07613347
250	0x3c3c6a43	0.011499944
251	0xbd549123	-0.051896226
252	0xbd0bfa38	-0.034174174
253	0xbc08ef17	-0.008357785
254	0x3d80134c	0.062536806
255	0xbd4992c8	-0.049212247

rnn.weight_hh_l0 f4 [384, 128]
0	0x3d30dae4	0.0431775
1	0xbd3a20e4	-0.045441523
2	0x3dda3557	0.10654705
3	0x3affda1c	0.0019519958
4	0x3d90e221	0.07074381
5	0xbda85558	-0.08219403
6	0x3e016a12	0.12638119
7	0x3dd5dcc3	0.104424976
8	0xbde63afe	-0.112417206
9	0x3dc40b37	0.095724516
10	0x3d9c2274	0.07623759
11	0xbcc98629	-0.024600105
12	0x3d19252b	0.03738896
13	0xbd0d87b1	-0.034553234
14	0x3da8954a	0.082316
15	0xbd1a3214	-0.037645414
16	0x3cc62866	0.024189185
17	0xbd3d8534	-0.04626961
18	0x3d93bbe5	0.072135724
19	0x3cf764d9	0.030199455
20	0x3dc76582	0.09736158
21	0xbd119c7c	-0.035549626
22	0x3beb4479	0.0071797934
23	0x3ca8994e	0.020580914
24	0x3b0df262	0.0021659364
25	0xbda3a9c7	-0.07991367
26	0x3d002769	0.031287584
27	0x3d242de8	0.040082842
28	0x3d93cd16	0.072168514
29	0xbc829f2d	-0.015945042
30	0xbd582b25	-0.05277552
31	0x3daf4dd1	0.08559764
32	0xbccba0a0	-0.024856865
33	0xbd2bf1f2	-0.041978784
34	0x3dc8bdbf	0.09801816
35	0x3d159430	0.036518276
36	0x3b5c2964	0.0033594007
37	0x3d9fe769	0.0780781
38	0xbd69f726	-0.057120465
39	0xbd739e76	-0.059477292
40	0x3d0e514b	0.034745496
41	0xbce67686	-0.028132688
42	0xbd7edb10	-0.062220633
43	0xbdc51f7d	-0.096251465
44	0xbd962040	-0.0733037
45	0x3b8f2e44	0.004369529
46	0xbd1e9aef	-0.038721975
47	0x3d3a7e63	0.045530688
48	0x3c701060	0.014652342
49	0x3d9be0aa	0.07611211
50	0x3b8f302f	0.0043697576
51	0x3dbcd851	0.092209466
52	0xbd49ad81	-0.04923773
53	0xbd3026f3	-0.043005895
54	0xbd1403d8	-0.03613648
55	0x3dba153f	0.090860836
56	0x3d615ff8	0.055023164
57	0x3dad8f74	0.08474627
58	0x3d60c7cd	0.054878045
59	0x3d7d2a22	0.06180776
60	0xbd810ea5	-0.06301621
61	0x3c010708	0.007875212
62	0x3d01db55	0.031703312
63	0x3d0adc38	0.033901423
64	0xbd47916b	-0.048722666
65	0x3da02c02	0.07820894
66	0xbd308813	-0.04309852
67	0xb883c1d6	-6.2826715e-05
68	0xbd9a2772	-0.07527055
69	0xbbd78e75	-0.0065782615
70	0xbc4cade1	-0.012492628
71	0x3d3fd486	0.046833538
72	0xbcab5264	-0.02091331
73	0xbd64431a	-0.055728056
74	0x3da616e6	0.08109836
75	0x3d15758a	0.036489047
76	0x3c07b266	0.00828228
77	0xbd096c1e	-0.033550374
78	0xbc18192e	-0.009283347
79	0xbd604b9d	-0.05475961
80	0x3cea96e0	0.028636396
81	0xbd91f814	-0.07127395
82	0xbaf6101b	-0.001877311
83	0x3bb83bea	0.0056223767
84	0x3b7d89d1	0.0038686881
85	0x3d80d861	0.06291271
86	0x3ce531f5	0.027977923
87	0x3d9cc180	0.07654095
88	0x3d68908b	0.056778472
89	0x3dbabe5a	0.09118338
90	0x3d28a00f	0.04116827
91	0xbd82b1ee	-0.06381594
92	0xbd125218	-0.035722822
93	0xbd22a6f3	-0.039709996
94	0x3d84a30b	0.064764105
95	0xbd8d9e29	-0.06914932
96	0x3d061803	0.032737743
97	0xbacfcefb	-0.0015854532
98	0xbc958414	-0.018251456
99	0xbdaaeccc	-0.08345947
100	0x3dac9a8f	0.08427917
101	0x3c8d2e0a	0.017233867
102	0xbc930aa3	-0.017949408
103	0x3de14399	0.10999221
104	0x3d945bea	0.07244094
105	0x3c813808	0.015773788
106	0x3d076a9a	0.033060648
107	0xbdafa0b1	-0.08575571
108	0xbce0c3c1	-0.027437093
109	0xba3f34a7	-0.00072939176
110	0x3d79b7af	0.06096619
111	0x3c1151b6	0.008869579
112	0xbdb37096	-0.087617084
113	0x3cd1be67	0.025603486
114	0xbbf6f790	-0.007536836
115	0xbba7a05f	-0.0051155533
116	0x3c8dd9e0	0.017315805
117	0x3d9ab4ba	0.07554002
118	0xbc79db3a	-0.015250022
119	0x3cab7d42	0.020933751
120	0x3da0cd45	0.07851652
121	0xbd4a35eb	-0.049367826
122	0xbd3917db	-0.045188766
123	0xbdc6e4a5	-0.09711579
124	0x3d75644c	0.059910104
125	0xbcc1becb	-0.023650547
126	0xbcac8a34	-0.021061994
127	0xbcfe25dd	-0.031023914
128	0xbd7ac9b3	-0.06122751
129	0xbd1bb908	-0.038018256
130	0xbd3a6276	-0.045504056
131	0x3cd770a2	0.026298825
132	0x3d0868d2	0.03330309
133	0xbdb5a933	-0.08870163
134	0x3d6a23f9	0.057163212
135	0xbda33bca	-0.07970388
136	0x3da64cd0	0.081201196
137	0xbd99c0b8	-0.07507461
138	0x3d95d8b8	0.073167264
139	0xbcc7389f	-0.024318991
140	0xbd08ea0d	-0.033426333
141	0x3cc31efe	0.02381849
142	0x3d7fc501	0.062443737
143	0xbdb64595	-0.088999905
144	0x3d847755	0.06468073
145	0x3d7b14ea	0.061299242
146	0x3c9cff2e	0.019164648
147	0xbd0da1dc	-0.03457819
148	0x3d40879f	0.04700434
149	0x3dced186	0.10098557
150	0x3b3cbae4	0.002879792
151	0xbd4c73ae	-0.04991501
152	0xbd8e0e11	-0.06936277
153	0x3da3e070	0.080017924
154	0x3d86863a	0.065685704
155	0x3d35d9b1	0.04439706
156	0xbd1d6664	-0.038427725
157	0xbd867624	-0.06565502
158	0x3d53e3ba	0.05173085
159	0xbd9296aa	-0.07157643
160	0x3dad0473	0.08448114
161	0xbca79cb4	-0.020460464
162	0x3bfe4ecd	0.0077608586
163	0x3a81b93b	0.0009897122
164	0x3cb21f30	0.021743387
165	0xbc9c267a	-0.019061316
166	0xbc2da6a9	-0.010598817
167	0x3d53e2a2	0.051729806
168	0x3d4237a1	0.047416333
169	0x3d935c95	0.07195393
170	0x3daedd64	0.08538321
171	0xbc2f6844	-0.010706011
172	0x3d267093	0.040634703
173	0x3bd165ac	0.006390294
174	0x3d39a6b0	0.04532498
175	0x3d40c364	0.04706134
176	0x3cb54914	0.022129573
177	0xbd1d9522	-0.038472302
178	0x3cee323c	0.029076688
179	0x3d51f79a	0.051261522
180	0x3c53ad86	0.012919789
181	0xbd3503a9	-0.044192944
182	0x3da3196d	0.07963834
183	0x3d04b4eb	0.0323991
184	0xbcd9e731	-0.026599498
185	0x3d9f8e15	0.07790772
186	0xbcc89a1d	-0.02448755
187	0xbd996cc8	-0.074914515
188	0x3db6c3ff	0.08924102
189	0xbd8231b0	-0.063571334
190	0xbdad5227	-0.08462935
191	0x3d534aa9	0.051584873
192	0x3d8546d6	0.065076515
193	0xbd039fc1	-0.032134775
194	0xbda60f55	-0.08108393
195	0xbc8c5ac4	-0.017133124
196	0x3d2001b7	0.039064135
197	0xbd90852e	-0.07056652
198	0xbd885512	-0.06656851
199	0x3db6aed3	0.08920064
200	0x3c95b70e	0.018275764
201	0xbd85c234	-0.06531182
202	0x3d961069	0.07327349
203	0x3d966924	0.07344273
204	0xbd18ee8a	-0.037336864
205	0xbd63ea45	-0.05564334
206	0xbd0e948e	-0.03480964
207	0xbd95b451	-0.07309783
208	0xbda43f67	-0.080199055
209	0xbd5d2676	-0.053991757
210	0x3ad43631	0.0016190467
211	0x3d4d3272	0.050096937
212	0xbdaa77fd	-0.08323667
213	0x3da0b75b	0.07847472
214	0x3d34a6ab	0.04410426
215	0x39b4a008	0.00034451508
216	0x3da37c6e	0.079827175
217	0x3cfeb69e	0.031092938
218	0xbd0298b0	-0.031883895
219	0xbd478bd7	-0.048717346
220	0x3d4002a4	0.04687752
221	0x3d9dd44c	0.07706508
222	0x3d0c5374	0.034259275
223	0x3b92ccaa	0.0044799643
224	0x3d515feb	0.051116865
225	0xbd6c8fb9	-0.057754252
226	0xbc4cd4da	-0.01250192
227	0x3d47faf4	0.048823312
228	0xbdbb3188	-0.09140307
229	0x3d30b496	0.04314097
230	0xbd6fadee	-0.05851548
231	0x3d444c9d	0.047924627
232	0x3d58af95	0.052901823
233	0x3c5c0f93	0.013431448
234	0xbb8a1899	-0.004214358
235	0xbcc0b2f5	-0.023522833
236	0x3d80ce83	0.06289389
237	0x3c246e3e	0.010036049
238	0x3d879ecf	0.06622087
239	0xbc07f3f8	-0.008297913
240	0xbd1bb77a	-0.038016774
241	0x3d80b88b	0.06285199
242	0x3c63c27b	0.013901348
243	0x3cb53f27	0.02212484
244	0x3d8b4f67	0.06802254
245	0xbd56e432	-0.052463718
246	0xbc745e93	-0.014915126
247	0xbda99e06	-0.08282094
248	0xbd8dbd75	-0.06920902
249	0xbc60009f	-0.013672023
250	0x3d30d1bd	0.043168772
251	0xbba1445e	-0.00492148
252	0x3d9befeb	0.0761412
253	0xbd18ca77	-0.03730246
254	0x3a7e8848	0.00097096385
255	0x3d0c6b4c	0.034282014

rnn.bias_ih_l0 f4 [384]
0	0x3daaae23	0.08333995
1	0xbd516af6	-0.051127397
2	0x3d852c2d	0.065025665
3	0xbd8aa6ef	-0.06770121
4	0x3d582542	0.052769907
5	0x3da314f2	0.079629794
6	0xbc8dd1df	-0.017311988
7	0xbd9277d6	-0.07151763
8	0xbc9b3292	-0.018945012
9	0x3b8cec29	0.0043006134
10	0x3b17925a	0.0023128004
11	0xbc8a832a	-0.016908247
12	0xbc99e6f5	-0.018786887
13	0xbd7430f4	-0.059616998
14	0xbd354e18	-0.04426393
15	0x3d612a46	0.054971956
16	0xbce57611	-0.0280104
17	0xbd118454	-0.03552659
18	0x3d9db961	0.07701374
19	0xbc0e7f9d	-0.008697418
20	0x3d7fa5ab	0.062413853
21	0xbd15b723	-0.036551606
22	0xbd9b8b02	-0.07594873
23	0xbd85c6dd	-0.06532071
24	0x3da71ff4	0.081603914
25	0x3bf7e379	0.0075649587
26	0xbda5ac01	-0.08089448
27	0x3d936a88	0.071980536
28	0xbc04c378	-0.008103244
29	0xbd8ee31a	-0.0697691
30	0x3cd540d4	0.026031889
31	0x3d1395e3	0.036031615
32	0xbd878275	-0.066166796
33	0xbd5b13a4	-0.053485528
34	0x3d0340fc	0.032044396
35	0xbd43a16c	-0.047761366
36	0x3d9a196b	0.07524379
37	0x3d9c608d	0.07635603
38	0xbd7b44e1	-0.061344985
39	0x3d9634f5	0.073343195
40	0x3cfeae63	0.031089013
41	0xbd5b2d87	-0.053510215
42	0x3c480825	0.012208973
43	0xbd214733	-0.03937454
44	0x3db6b903	0.08922007
45	0xbca8df36	-0.020614248
46	0x3d53558d	0.05159526
47	0xbdafd4fc	-0.085855454
48	0xbd74de49	-0.0597823
49	0x3d963e03	0.073360465
50	0xbd4d33e9	-0.050098334
51	0xbd67c3bb	-0.056583147
52	0xbcad4329	-0.021150189
53	0xbb6127a2	-0.0034355898
54	0xbbbfbf21	-0.0058516418
55	0x3d29cbcc	0.04145412
56	0x3da0bdc5	0.07848696
57	0xbd87e206	-0.066349074
58	0x3bbca3fa	0.005756852
59	0xbd908e03	-0.070583366
60	0xbcb9d275	-0.022683362
61	0x3cd03acf	0.025418667
62	0xbd6ed4ff	-0.058308598
63	0x3cf00e12	0.029303584
64	0xbd815fe2	-0.06317116
65	0xbd99ccf4	-0.07509795
66	0xbd1fa5c8	-0.03897646
67	0xbc921f44	-0.017837174
68	0x3ab2a9d3	0.0013630934
69	0x3ca259db	0.019818237
70	0x3d889b8e	0.06670295
71	0xbd12549a	-0.035725214
72	0x3cef8131	0.029236408
73	0x3ce50145	0.027954707
74	0xbd532a56	-0.051554047
75	0xbdac2e93	-0.08407321
76	0xbdc0871e	-0.094007716
77	0xbd3c8b34	-0.046031192
78	0x3d0b1e94	0.03396471
79	0xbd8a60b9	-0.0675673
80	0x3db5350f	0.08848011
81	0xbdaaa4f3	-0.08332243
82	0x3d09a353	0.033603024
83	0x3d6a0d12	0.05714137
84	0xbdb318b4	-0.08744946
85	0x3d8149a4	0.06312874
86	0xbd049790	-0.032371104
87	0x3c8d1d29	0.017225819
88	0x3db323e5	0.08747081
89	0xbd8b1b80	-0.067923546
90	0xbd038c34	-0.03211613
91	0x3da3e370	0.08002365
92	0xbce9ab01	-0.028523924
93	0x3d8c959f	0.068644755
94	0xbd836ce9	-0.06417257
95	0x3d9429f7	0.07234567
96	0xbd9dae88	-0.07699305
97	0x3d280ab9	0.04102585
98	0x3d6d5d1e	0.05795013
99	0x3c54cb16	0.012987873
100	0xbb9b24f8	-0.0047346316
101	0xbd5a3f4e	-0.05328303
102	0xbccdacb0	-0.025106758
103	0x3d7162c0	0.058932066
104	0xbd669987	-0.05629876
105	0xbd974a78	-0.07387251
106	0xbd8af83c	-0.06785628
107	0xbcf9b00a	-0.03047945
108	0x3d888f6d	0.06667981
109	0xbb906933	-0.004407072
110	0xbd8c94f8	-0.06864351
111	0xbd9e8137	-0.077394895
112	0xbc5b06c8	-0.013368316
113	0xbba6a5a9	-0.005085666
114	0xbd05a7d8	-0.03263077
115	0xbc58f9d2	-0.013243156
116	0x3d1ac639	0.037786696
117	0x3bdafcbb	0.00668296
118	0x3cf49dc7	0.02986039
119	0xbdbd2334	-0.0923523
120	0xbd8fa7ab	-0.07014402
121	0xbd329c05	-0.043605823
122	0x3d08f860	0.033439994
123	0x3ce882ff	0.028382776
124	0xbd1cdb94	-0.038295344
125	0x3c90d96f	0.017681805
126	0x3bb8d95b	0.005641145
127	0xbbfd57b7	-0.0077314037
128	0x3bac3de4	0.0052564014
129	0x3d99c59d	0.07508395
130	0xbda6e6f6	-0.08149521
131	0x3ca47b49	0.020078318
132	0xbd5d4120	-0.054017186
133	0x3b77c55f	0.0037806851
134	0xbde7945c	-0.11307594
135	0x3b78d4d4	0.0037968652
136	0x3c8c46a7	0.017123533
137	0x3db109ac	0.08644423
138	0xbd4d63b2	-0.050143905
139	0xbe006475	-0.12538321
140	0xbd3cbb2c	-0.04607694
141	0xbe228929	-0.15872635
142	0x3d1f4bb7	0.038890567
143	0xbe1400dc	-0.14453453
144	0xbd7e19ad	-0.062036205
145	0x3dc37331	0.095434554
146	0x3db23429	0.08701355
147	0xbc91397f	-0.017727612
148	0xbbf2ffb6	-0.007415737
149	0x3c9e3263	0.019311136
150	0x3d7e0e58	0.062025398
151	0x3cad2b26	0.021138739
152	0xbdc70799	-0.09718246
153	0xbd49adf4	-0.04923816
154	0xbd0667cc	-0.032813832
155	0xbe08672f	-0.13320611
156	0x3c65e3f4	0.014031399
157	0x3ceb4e08	0.028723732
158	0x3d8977d8	0.067123115
159	0xbd7fe1d8	-0.06247124
160	0xbdec5643	-0.115398906
161	0xbd01819c	-0.031617746
162	0xbd1f15b7	-0.03883907
163	0xbdcb7f64	-0.09936407
164	0x3d0913a8	0.03346601
165	0xbe0c0c62	-0.13676599
166	0x3e3a134d	0.18171425
167	0xbe12b0b5	-0.14325221
168	0x3c3dda5a	0.011587704
169	0x3c921838	0.017833814
170	0xbd980bba	-0.07424112
171	0x3cc69c9f	0.024244605
172	0xbcfeabae	-0.031087723
173	0xb9f369f6	-0.0004642752
174	0xbda74f88	-0.08169466
175	0x3dcf81d6	0.10132186
176	0xbd1c83c6	-0.038211606
177	0xbdf6ef30	-0.1205734
178	0xbd8a960e	-0.06766902
179	0xbdc48fe8	-0.095977604
180	0x3c248d3f	0.010043441
181	0x3bdae266	0.006679821
182	0xbdafff4b	-0.08593615
183	0x3d476150	0.04867679
184	0xbcb17463	-0.021661943
185	0xbdbb959a	-0.091593936
186	0xbd1ecd62	-0.038770087
187	0xbdcbf626	-0.099590585
188	0x3cac3b79	0.021024453
189	0xbdddad77	-0.108241014
190	0x3ca50578	0.02014421
191	0xbd96249d	-0.07331202
192	0x3c970ae8	0.018437818
193	0xbd984be3	-0.07436349
194	0xbd38735d	-0.045031894
195	0xbd824cdf	-0.06362318
196	0x37b4b501	2.1541959e-05
197	0x3d051e17	0.0324994
198	0xbd133e3f	-0.035948034
199	0x3c83a84c	0.016071461
200	0xbd99bb38	-0.07506412
201	0xbdb3a5b9	-0.087718435
202	0xbbb30df7	-0.005464311
203	0xbd9180d9	-0.07104654
204	0x3cfaa13e	0.030594464
205	0xbd7d5c1e	-0.061855428
206	0xbd076552	-0.03305561
207	0x3c680897	0.014162204
208	0xbd10bfdf	-0.035339233
209	0x3d58ad5f	0.052899715
210	0xbbde159d	-0.006777479
211	0xbd522398	-0.051303476
212	0xbd2320f9	-0.039826367
213	0x3ce4a041	0.027908446
214	0xbd43a2af	-0.04776257
215	0x3cc3c4c0	0.023897529
216	0xbc626fde	-0.0138206165
217	0xbdd49ab9	-0.103810735
218	0xbdaa18cc	-0.08305511
219	0x3e0e6da2	0.13909009
220	0xbd1edc09	-0.03878406
221	0x3d718340	0.05896306
222	0xbdf81c61	-0.12114788
223	0xbbbea020	-0.005817428
224	0xbd432d53	-0.047650646
225	0xbde6eaea	-0.11275275
226	0xbdd33176	-0.10312168
227	0x3b483430	0.0030548684
228	0xbc3b74a7	-0.011441386
229	0xbe0bfe8c	-0.1367132
230	0xbe06fe6a	-0.13182989
231	0x3c4191eb	0.011814575
232	0xbd4d601d	-0.05014049
233	0xbdbf2000	-0.093322754
234	0xbd8002e1	-0.06250549
235	0x3dd2023e	0.10254334
236	0xbe03d6ac	-0.1287486
237	0xbdf32d97	-0.1187393
238	0x3c96f0c1	0.018425347
239	0x3da9923c	0.08279845
240	0xbe0a2be3	-0.13493304
241	0xbe09781c	-0.13424724
242	0xbc6572c1	-0.01400441
243	0x3d88a626	0.06672315
244	0x3cb0c6f6	0.021579247
245	0xbd99b4b1	-0.07505167
246	0xbd8419c5	-0.06450228
247	0xbe0d38db	-0.1379122
248	0xbe07b7b6	-0.13253674
249	0xbda154bd	-0.07877491
250	0xbe24e11b	-0.16101496
251	0x3c84dd48	0.016218796
252	0x3c0f3868	0.008741476
253	0x3c9b0d34	0.018927194
254	0xbe170054	-0.14746219
255	0x3d656837	0.05600759

rnn.bias_hh_l0 f4 [384]
0	0xbd51ef04	-0.051253334
1	0xbd0ea75b	-0.03482757
2	0x3c242089	0.010017523
3	0x39a5b272	0.00031604205
4	0x3bbf359c	0.005835248
5	0x3bb95441	0.005655796
6	0xbd875dc8	-0.06609684
7	0xbd494906	-0.049141906
8	0xbd8b61fc	-0.068057984
9	0x3d7e9fb6	0.06216403
10	0xbdc4c7a7	-0.09608393
11	0xbc932112	-0.017960105
12	0x3d1a490e	0.037667327
13	0xbd393a43	-0.04522158
14	0xbda5198b	-0.080615126
15	0xbd852a38	-0.06502193
16	0x3d7515d9	0.05983529
17	0x3ce344ae	0.02774271
18	0x3c21ebd1	0.009882883
19	0xbce62078	-0.028091654
20	0x3cef78f1	0.029232474
21	0x3c1a4ccc	0.009417724
22	0x3d8ef369	0.069800206
23	0xbda5ca63	-0.08095243
24	0x3d693c65	0.056942362
25	0xbd94099b	-0.072283946
26	0xbccd4d95	-0.025061408
27	0x3cb32fe0	0.021873415
28	0xbca7af8b	-0.020469448
29	0xbd915ee2	-0.070981756
30	0x3da298d3	0.07939305
31	0x3d7e6a75	0.062113244
32	0x3c054104	0.008133177
33	0x3d499c72	0.049221464
34	0xbd55e951	-0.05222446
35	0xbd1db429	-0.038501892
36	0x3d954c97	0.07289999
37	0xbd81920a	-0.06326683
38	0xbda6955e	-0.08133958
39	0xbb4c27a5	-0.003115156
40	0x3ce22fa1	0.027610602
41	0xbda60d84	-0.08108047
42	0x3c0aaf83	0.008464697
43	0x3ba94d4d	0.0051666857
44	0x3dacc7d9	0.084365554
45	0xbd9bd184	-0.07608321
46	0x3c49febd	0.012328801
47	0xbdafaca7	-0.08577853
48	0x3d36d974	0.044640973
49	0xbd2fd850	-0.0429309
50	0xbd523d11	-0.05132777
51	0xbd0f2308	-0.034945518
52	0xbd2dae53	-0.042402577
53	0xbcf7b397	-0.030237002
54	0x3d5a0c66	0.05323448
55	0xbb0c65c0	-0.0021422952
56	0xbda19014	-0.07888809
57	0x3d657519	0.056019876
58	0x3d503bdb	0.050838333
59	0xbd851af6	-0.06499283
60	0x3d0514c6	0.032490514
61	0xbc98dcc8	-0.018659964
62	0xbd2d6ad5	-0.04233821
63	0x3d4982e0	0.049197078
64	0x3d37cc24	0.044872418
65	0x3dbe443d	0.09290359
66	0x3d3ff9df	0.046869155
67	0x3d80b439	0.06284375
68	0xbd21f428	-0.039539486
69	0x3d6e91e8	0.058244616
70	0x3d816950	0.06318915
71	0xbd4b1e38	-0.049589366
72	0xbd2890fe	-0.0411539
73	0xbca642dd	-0.020295555
74	0x3d061be0	0.032741427
75	0x3bea2e93	0.0071466654
76	0x3d214ee7	0.039381888
77	0x3c8b6c4b	0.017019412
78	0x3d9bd962	0.07609822
79	0x3d70bf0b	0.058775943
80	0xbc9b8464	-0.018984027
81	0xbc94af26	-0.018149924
82	0x3b66d828	0.0035224054
83	0x3d95945e	0.073036894
84	0xbcab275e	-0.020892795
85	0xbd1be220	-0.038057446
86	0x3d5a6ed3	0.053328346
87	0x3cd5b447	0.02608694
88	0xb9cfef29	-0.00039660305
89	0xbbe79c03	-0.0070681586
90	0xbd21023d	-0.039308775
91	0x3cffaca3	0.03121025
92	0xbdb370ab	-0.08761724
93	0xbd91296e	-0.0708798
94	0xbd1f1be7	-0.03884497
95	0x3cc9c41b	0.024629643
96	0xbcf1dbd2	-0.029523764
97	0x3d45d3fc	0.048297867
98	0xbd85c8ce	-0.06532441
99	0x3d4ab4f0	0.04948896
100	0x3d9c1bde	0.07622503
101	0xbbc8e79d	-0.006131126
102	0x3cc2dc07	0.023786558
103	0xbdaa7298	-0.08322638
104	0x3d3d235b	0.046176296
105	0x3d1dda28	0.03853813
106	0xbd915fa0	-0.07098317
107	0x3d9ed7e2	0.0775602
108	0xbd796e20	-0.06089604
109	0xbd88f4e9	-0.06687338
110	0x3d4e3e1c	0.0503522
111	0x3d00478a	0.031318225
112	0xba9f6527	-0.0012160883
113	0x3d5811cb	0.052751344
114	0xbd90e523	-0.07074954
115	0x3c22e992	0.009943383
116	0xbda8e97e	-0.0824766
117	0xbd89cdd3	-0.06728711
118	0x3db9920d	0.0906106
119	0xbcc79152	-0.024361286
120	0xbce57953	-0.028011953
121	0xbc989251	-0.018624457
122	0x3d1cbf31	0.03826827
123	0xbc4072c9	-0.011746117
124	0xbc23b1e5	-0.009991144
125	0x3d8e52db	0.06949397
126	0x3d850c16	0.06496446
127	0xbd4d2901	-0.050087932
128	0xbe1cb8e4	-0.15304905
129	0x3dcb029e	0.099126086
130	0xbdbb5341	-0.09146739
131	0xbde28107	-0.11059766
132	0xbde6de81	-0.11272908
133	0xbdb4691c	-0.088091105
134	0xbd864180	-0.06555462
135	0x3d502e45	0.050825376
136	0xbdab07de	-0.0835111
137	0x3d32f041	0.043686155
138	0xbd80cc3a	-0.06288953
139	0xbe19f2e7	-0.15034066
140	0x3cde199f	0.027111826
141	0xbda5f627	-0.081035905
142	0x3d5030e9	0.050827894
143	0xbd815ba8	-0.0631631
144	0xbde726b4	-0.11286679
145	0x3e09462e	0.13405678
146	0x3daf652d	0.085642196
147	0xbdd1ff44	-0.10253766
148	0xbd1cccb6	-0.038281165
149	0xbda43cb3	-0.0801939
150	0x3d19031b	0.037356477
151	0x3becf709	0.0072315973
152	0xbe05ecd2	-0.13078621
153	0xbe0bc91b	-0.13650934
154	0xbd768cd0	-0.060192883
155	0xbe17374f	-0.14767192
156	0xbde3f9cf	-0.111316316
157	0x3cb57ba7	0.022153689
158	0xbc822226	-0.015885424
159	0xbd7b1353	-0.061297726
160	0xbdff0dfb	-0.124538384
161	0x3d00e4e4	0.031468287
162	0xbd2cedef	-0.0422191
163	0xbd9ae5fd	-0.07563398
164	0x3dde8fd4	0.10867277
165	0xbc707773	-0.014676916
166	0x3e138136	0.14404759
167	0xbd9cdaa8	-0.07658893
168	0xbca7522e	-0.020424929
169	0x3e128df4	0.14311963
170	0xbc9f3bce	-0.019437697
171	0xbd1ca864	-0.038246527
172	0x3bd68cdd	0.006547554
173	0xbd6bbc47	-0.057552602
174	0xbcd29834	-0.025707342
175	0x3cc67a4a	0.024228234
176	0xbc1076ba	-0.008817369
177	0xbd8a7424	-0.06760433
178	0xbe18859c	-0.14894718
179	0xbc69ff44	-0.0142820515
180	0x3c7ce389	0.015435108
181	0x3d074d8f	0.03303295
182	0x3d8eabed	0.06966386
183	0xbcb596a0	-0.02216655
184	0xbd3dafb5	-0.046310145
185	0xbe0fc65b	-0.1404051
186	0xbd0ac5b8	-0.033879966
187	0xbd574e1c	-0.052564725
188	0xbe141b5f	-0.14463566
189	0xbbe69048	-0.0070362426
190	0x3bcaedad	0.006192884
191	0xbdd3ce1c	-0.103420466
192	0xbdb205ed	-0.086925365
193	0x3d85e338	0.06537479
194	0xbd8a7783	-0.06761076
195	0xbe06d2bc	-0.13166326
196	0xbd6c0e7f	-0.057631012
197	0xbbb39789	-0.005480711
198	0x3cb5d382	0.022195581
199	0xbd899e9a	-0.06719704
200	0xbd26354a	-0.040578164
201	0xbda49c26	-0.080375955
202	0xbe16e2d0	-0.1473496
203	0xbdbfe1ed	-0.09369264
204	0xbd364b7e	-0.04450559
205	0x3bcc363b	0.0062320507
206	0x3d42f171	0.047593538
207	0xbde3c49d	-0.111214854
208	0xbd9d569d	-0.07682536
209	0xbcbd77dd	-0.023128444
210	0xbd9a090e	-0.07521258
211	0xbc905651	-0.017619284
212	0x3da6f8bb	0.0815291
213	0xbdba7025	-0.09103421
214	0xbdc73d10	-0.097284436
215	0x3abf115e	0.0014577319
216	0xbdfcd5f3	-0.12345495
217	0xbc5cdb16	-0.0134799685
218	0xbd843312	-0.064550534
219	0x39508139	0.00019884565
220	0xbc80e08e	-0.015732076
221	0x3c2d2054	0.01056679
222	0xbe1a4472	-0.15065172
223	0xbd91eba0	-0.0712502
224	0xbc379f5d	-0.011207429
225	0xbdf7dd21	-0.12102724
226	0xbd7ff82a	-0.062492527
227	0xbd7d071a	-0.06177435
228	0x3da04f8d	0.07827673
229	0x3c27b917	0.010237
230	0xbe23f90a	-0.1601297
231	0x3d8a3f75	0.06750385
232	0xbd3ab47e	-0.045582287
233	0xbd082f18	-0.033248037
234	0xbcbc4728	-0.022983149
235	0x3c793e86	0.015212661
236	0x3d1dd450	0.038532555
237	0x3d081cea	0.0332307
238	0x3c066220	0.008202106
239	0x3e08082d	0.13284369
240	0xbb3c994f	-0.0028777902
241	0xbdef7596	-0.116923496
242	0x3c86829a	0.016419698
243	0x3da7497a	0.081683114
244	0x3e107a90	0.14109254
245	0x3ca1bba6	0.019742798
246	0xbde08dd9	-0.10964555
247	0xbdb02072	-0.085999385
248	0xbde8dadf	-0.11369871
249	0xbe0e3807	-0.1388856
250	0xbd388146	-0.04504516
251	0xbdca6f07	-0.09884458
252	0x3db1094f	0.086443536
253	0x3dca308a	0.09872539
254	0xbaf5bf9c	-0.0018749121
255	0xbd85b9fb	-0.065296136

rnn.weight_ih_l1 f4 [384, 128]
0	0x3c042fff	0.008068084
1	0xbb13d8e9	-0.0022559708
2	0x3c0d0e9f	0.008609443
3	0xbc7cbf0d	-0.015426409
4	0x3ac6deaf	0.0015172566
5	0xbcbf725c	-0.02336996
6	0xbd84c96f	-0.06483733
7	0xbb90deaa	-0.004421075
8	0xbda06647	-0.07832008
9	0x3d490bba	0.04908345
10	0x3d5ee0cf	0.054413613
11	0xbd3c405e	-0.045959823
12	0xbd85c0d6	-0.06530921
13	0x3c5d29a5	0.013498698
14	0x3db980c7	0.090577655
15	0x3cdbd1df	0.026833473
16	0xbd50e7ed	-0.05100243
17	0xbc39bde6	-0.011336779
18	0x3bb975e9	0.005659808
19	0x3d3c5951	0.045983616
20	0x3d9ec7e0	0.07752967
21	0x3bf4eb08	0.007474307
22	0x3c57d567	0.013173438
23	0x3badec94	0.0053077433
24	0xbcf01162	-0.029305164
25	0x3cbf3358	0.023339912
26	0x3d4a68a4	0.0494162
27	0x3d9c0977	0.07618993
28	0x3c28b354	0.010296661
29	0xbc18754f	-0.009305312
30	0xbd3c2afa	-0.045939423
31	0x3cf8ada4	0.030356236
32	0xbaa8eccf	-0.0012887957
33	0xbd2775da	-0.040883876
34	0x3c111e30	0.008857295
35	0xbd612853	-0.054970097
36	0xbd8fcadf	-0.070211165
37	0x3c006eb2	0.007838892
38	0x3da488f4	0.08033934
39	0xbdc6c129	-0.09704811
40	0xbc848d18	-0.01618056
41	0xbd721758	-0.059104294
42	0x3d1ffae6	0.039057635
43	0x3cbab500	0.022791386
44	0xbba8b3f5	-0.0051484057
45	0xbdf51195	-0.11966244
46	0xbd4d780b	-0.05016331
47	0xbda491f3	-0.0803565
48	0xbc7bfb84	-0.01537979
49	0x3d079b4b	0.033107083
50	0xbd603f55	-0.054747898
51	0xbda0727b	-0.078343354
52	0x3d78b1cc	0.060716435
53	0x3d8ac06f	0.06774985
54	0xbc1930e6	-0.009350037
55	0xbc028d95	-0.007968326
56	0xba2c7cf1	-0.0006579897
57	0x3d40bd9e	0.047055833
58	0xbdb894a1	-0.09012724
59	0x3d6e8aee	0.058237962
60	0x3d917032	0.07101478
61	0x3c9d3af7	0.019193156
62	0xbd8422bc	-0.064519376
63	0xbd6d82d7	-0.057986107
64	0xbdb9785b	-0.09056159
65	0x3dacfef2	0.084470645
66	0x3c5ce652	0.013482647
67	0x3cbc3686	0.022975218
68	0xbca8c6c4	-0.020602591
69	0x3ccc32f5	0.024926642
70	0x3d16fac7	0.036860254
71	0x3dafc9ef	0.08583438
72	0x3d6bf528	0.057606846
73	0xbb0f38d5	-0.0021853943
74	0xbd2a8de9	-0.041639242
75	0xbd56f9f6	-0.052484475
76	0xbbb9eab0	-0.005673729
77	0xbc219ac9	-0.009863564
78	0x3d1fdcbc	0.039028868
79	0xbba10311	-0.0049136956
80	0x3bb8bbf9	0.0056376425
81	0xbceef978	-0.02917169
82	0x3d6ddf29	0.05807415
83	0xbba46dda	-0.005017978
84	0x3cc39bbb	0.023877969
85	0xbd03c201	-0.03216744
86	0xbd495a23	-0.049158227
87	0x3d6aa72e	0.05728834
88	0x3d889dba	0.06670709
89	0x3c8180d8	0.015808508
90	0x3db9e5dc	0.09077045
91	0xbdcab03d	-0.09896896
92	0xbc5b50f8	-0.013386004
93	0xbd349683	-0.04408885
94	0x3ca65414	0.020303763
95	0x3c03ea37	0.008051447
96	0x3d186caf	0.037213024
97	0x3d66615e	0.0562452
98	0x3c20b907	0.009809739
99	0x3c68cb40	0.014208615
100	0xbd307d57	-0.043088283
101	0x3d4071b2	0.04698343
102	0x3cf9ee91	0.030509265
103	0xbd918da9	-0.07107098
104	0x3dccada7	0.09994059
105	0x3d91e07c	0.07122895
106	0xbd57e973	-0.05271287
107	0xbd3345e9	-0.043767843
108	0x3cc3e0f8	0.023910984
109	0x3d39c9ec	0.045358583
110	0xbd0bf522	-0.034169324
111	0xbc6fe69a	-0.014642382
112	0xbda1a0d5	-0.078920044
113	0xbd5b56e3	-0.05354966
114	0x3c8ac6e8	0.016940549
115	0xbcc31709	-0.023814695
116	0x3c9880ac	0.018616043
117	0x3c77abd9	0.015116655
118	0xbc473070	-0.0121575445
119	0x3cacb3e4	0.021081872
120	0xbd46230d	-0.04837327
121	0x3b55dd9d	0.0032633313
122	0xbc8302e4	-0.01599259
123	0xbd0fd211	-0.035112444
124	0xbda3917c	-0.07986733
125	0x3b0cbc89	0.002147468
126	0x3d3bbb49	0.045832906
127	0xbcb6df3d	-0.022323245
128	0x3d3bebd6	0.045879208
129	0xbabb7c48	-0.0014304006
130	0x3d476841	0.04868341
131	0x3b28b960	0.0025745258
132	0xbdb17ae8	-0.08666021
133	0xbd4d3acf	-0.050104912
134	0xba4634d3	-0.0007560972
135	0xbdb626ef	-0.08894145
136	0xbbce76b7	-0.006300773
137	0x3cb6f9e2	0.02233595
138	0xbd0de3cf	-0.034641083
139	0x3ada7d57	0.0016669434
140	0x3b977570	0.004622154
141	0x3cfee94c	0.031117104
142	0x3d5380d9	0.05163655
143	0xbc8ee1c5	-0.01744164
144	0xbd8d3077	-0.068940096
145	0xbc173d3b	-0.009230907
146	0x3db873bb	0.09006449
147	0xbb653e90	-0.0034979917
148	0x3cd59be2	0.026075307
149	0xbd1ebea1	-0.038756017
150	0x3d3c0a86	0.045908473
151	0xbc781f58	-0.015144192
152	0xbd8a56a3	-0.06754806
153	0x3d926660	0.07148433
154	0xbda00811	-0.078140385
155	0xbd941277	-0.072300844
156	0xbc91e2e4	-0.017808385
157	0x3d9cb885	0.07652382
158	0xbd3e9adc	-0.046534404
159	0x3d3f2473	0.04666562
160	0x3d697179	0.05699298
161	0x3d8ebdc1	0.069697864
162	0x3c0c5bbf	0.008566796
163	0xbd4ef69a	-0.050528146
164	0x3d5688f3	0.0523767
165	0xbc74df39	-0.014945799
166	0xbdace13c	-0.084413975
167	0x3da3a8d1	0.079911835
168	0x3cec2421	0.028825821
169	0xbda372d6	-0.079808876
170	0x3bf35c05	0.007426741
171	0x3cac85b7	0.021059854
172	0x3ab0840f	0.0013467091
173	0x3db904d9	0.09034128
174	0x3d29ceb0	0.04145688
175	0xbd8a37e6	-0.06748943
176	0x3dbd5e32	0.09246482
177	0xbcebecf3	-0.02879951
178	0xbd80a9f0	-0.06282413
179	0xbd98e0bc	-0.0746474
180	0x3cf3b462	0.0297491
181	0x3b69ae82	0.0035656993
182	0x3d8ea41d	0.06964896
183	0xbd1ee3a7	-0.038791325
184	0x3c851d7b	0.016249409
185	0x3d6d1f76	0.05789133
186	0x3d043603	0.032278072
187	0xbcd44310	-0.025910884
188	0xbb5c613b	-0.003362729
189	0xbd9f0f9b	-0.077666484
190	0xbdc65894	-0.09684864
191	0x3bb5e702	0.00555122
192	0xbc2dd0c1	-0.010608853
193	0x3c82d3c5	0.01597012
194	0x3d31a48a	0.043369807
195	0xbd879bef	-0.06621539
196	0xbdb764a2	-0.08954741
197	0x3c25c9a0	0.010118872
198	0x3db08a83	0.08620169
199	0xbda99a75	-0.082814135
200	0xbd193b66	-0.037410162
201	0xbd7a00de	-0.061035983
202	0x3d533509	0.05156425
203	0x3bf82685	0.0075729513
204	0x3d62755b	0.0552877
205	0x3d387281	0.045031074
206	0x3cc2155b	0.023691824
207	0x3d92efae	0.071746215
208	0xbd5d3b06	-0.054011367
209	0x3d9650ec	0.073396534
210	0x3d2dd86a	0.042442717
211	0x3d7245c7	0.059148576
212	0xbd8274ad	-0.063699104
213	0x3d911cd4	0.07085577
214	0x3d2729c3	0.04081131
215	0xbd9f2090	-0.07769883
216	0xbcd7b0cf	-0.026329426
217	0xbc8f5d12	-0.017500434
218	0xbd3aa982	-0.04557181
219	0xbc4bcdac	-0.012439173
220	0xbda650f7	-0.081209116
221	0xbd898cdc	-0.0671632
222	0xbd80c2aa	-0.06287129
223	0xbd0e4e36	-0.034742557
224	0x3da07070	0.07833946
225	0xbd9e0e21	-0.077175386
226	0xbd4318c5	-0.047631044
227	0xbd342547	-0.043980863
228	0x3c8f3366	0.017480563
229	0xbd9d3e2f	-0.07677876
230	0xbd884e30	-0.06655538
231	0x3d8832a2	0.066502824
232	0x3da4e1ae	0.080508575
233	0x3cbdfbfa	0.02319144
234	0xbc3cab22	-0.011515411
235	0xbd909ed3	-0.07061543
236	0x3d87cb8b	0.066306196
237	0x3bb0ca75	0.0053952285
238	0x3a2a6505	0.00065000384
239	0x3d247b43	0.040156614
240	0x3da144e6	0.078744695
241	0xbcd8a1f5	-0.026444415
242	0x3cb8da99	0.022565173
243	0x3d7f5505	0.06233694
244	0x3b787953	0.0037914112
245	0x3daec2a3	0.08533218
246	0xbd93a52e	-0.0720924
247	0x3c98e14d	0.01866212
248	0xbd2e105c	-0.04249607
249	0x3d0976f0	0.033560693
250	0x3da0632b	0.07831415
251	0xbc19b965	-0.00938258
252	0x3d8092c4	0.06277993
253	0x3c3250ae	0.010883493
254	0xbd311b39	-0.043238852
255	0xbcb15b20	-0.021649897

rnn.weight_hh_l1 f4 [384, 128]
0	0x3d532c7a	0.051556088
1	0xbcedc980	-0.029026747
2	0x3d6af426	0.057361744
3	0xbd6eb2cb	-0.05827598
4	0x3d9305e9	0.07178862
5	0xbd6aadca	-0.057294644
6	0x3da19ee2	0.078916326
7	0xbccfca78	-0.0253651
8	0x3d5bb661	0.053640727
9	0xbda9181d	-0.08256552
10	0x3d91de7a	0.07122512
11	0x3d8603ca	0.065436915
12	0xbd037adf	-0.0320996
13	0xbdb0e9c2	-0.08638336
14	0xbdc0e3c7	-0.09418445
15	0xbda20642	-0.0791135
16	0xbd148bdf	-0.036266204
17	0xbd948780	-0.07252407
18	0x3d12778f	0.03575855
19	0x3ddc9900	0.1077137
20	0xbd30f210	-0.0431996
21	0x3d993aa4	0.07481888
22	0x3c1bc4ec	0.009507399
23	0x3d5a2e7a	0.05326698
24	0x3d0ae811	0.033912722
25	0x3d0b4615	0.034002382
26	0xbc72a6ee	-0.014810307
27	0x3d507006	0.050888084
28	0x3d383305	0.04497053
29	0x3d377b38	0.044795245
30	0x3d06246a	0.03274957
31	0x3d9990e3	0.07498338
32	0xbc9f362c	-0.01943501
33	0x3d236272	0.039888807
34	0x3d93c7df	0.07215857
35	0x3d623495	0.055225927
36	0xbd2d5ac5	-0.042322893
37	0x3dcbc2a8	0.09949237
38	0xbcc6d5cb	-0.024271866
39	0xbd780242	-0.06054903
40	0x3d233cf0	0.039853036
41	0xbdc2231c	-0.09479353
42	0xbd373957	-0.044732418
43	0xbd5305ca	-0.051519193
44	0x3d574a56	0.052561127
45	0x3d30dc2a	0.043178715
46	0x3d0b921b	0.034074884
47	0xbc94e632	-0.018176172
48	0xbd98ffc6	-0.0747066
49	0x3da36940	0.07979059
50	0x3ada5db5	0.0016660007
51	0xbd38e3b6	-0.045139037
52	0x3d9af865	0.07566909
53	0xbd5cf1dd	-0.053941596
54	0x3d93af93	0.072112225
55	0x3b960952	0.004578748
56	0x3cea1134	0.028572656
57	0x39d17c3f	0.00039956157
58	0x3c18b043	0.009319368
59	0x3d8f934e	0.07010518
60	0x3dabf821	0.08396936
61	0x3d47d32a	0.048785366
62	0xbb74f36c	-0.0037376536
63	0x3d6e943c	0.058246836
64	0xbd71a520	-0.058995366
65	0x3c579728	0.013158597
66	0x3d90078d	0.0703269
67	0xbcb6c4ca	-0.022310633
68	0x3d31e369	0.043429766
69	0x3d8214b2	0.063516036
70	0x3d3d6027	0.046234276
71	0xbdbd19bd	-0.09233425
72	0x3c8453f0	0.016153306
73	0x3d9b7b84	0.07591918
74	0xbdaed0ee	-0.08535944
75	0xbd9f5a21	-0.077808626
76	0x3d2cc085	0.04217579
77	0xbc9a2b07	-0.018819345
78	0xbded5c95	-0.11589924
79	0xbd94e02d	-0.07269321
80	0x3d822075	0.06353847
81	0xbba273a4	-0.004957633
82	0xbd2f5362	-0.04280413
83	0xbc87ed64	-0.016592689
84	0x3daeacff	0.0852909
85	0x3d3d2852	0.04618103
86	0xbd16215e	-0.036652915
87	0xbdde5dc1	-0.10857726
88	0xbd549d7c	-0.051908
89	0x3b9f0765	0.0048531764
90	0xbd969709	-0.073530264
91	0xbdb77dd4	-0.08959547
92	0xbcc96f25	-0.02458913
93	0xbd80f4d9	-0.06296701
94	0x3a52310c	0.0008018173
95	0xbd974481	-0.07386113
96	0xbd7b362b	-0.061330955
97	0xbd42e524	-0.047581807
98	0xbcb36452	-0.021898422
99	0x3d8d00b6	0.06884901
100	0xbd7433e3	-0.059619796
101	0xbb048445	-0.002022044
102	0x3ce9d3f2	0.028543446
103	0x3da0f4c1	0.07859183
104	0x3d9de84c	0.07710323
105	0x3d25ac10	0.040447295
106	0xbdb7ea81	-0.08980275
107	0xbd600fcc	-0.054702565
108	0xbdb55a5f	-0.088551275
109	0xbb0e950e	-0.0021756324
110	0xbd0556fe	-0.032553665
111	0xbd0430e7	-0.0322732
112	0xbcc3ad11	-0.023886235
113	0x3c8a938f	0.016916065
114	0xbd1606f9	-0.036627743
115	0x3bc37f5f	0.0059661116
116	0xbd02b712	-0.03191287
117	0x3dbac8d5	0.09120337
118	0x3c63d81f	0.013906508
119	0xbdb92c92	-0.09041704
120	0x3d8a7d74	0.067622095
121	0xbd497360	-0.049182296
122	0x3dc2f4f0	0.09519374
123	0xbc03688c	-0.008020531
124	0x3bf9e2c0	0.0076259077
125	0xbd09c3d6	-0.03363403
126	0x3d0825b0	0.033239067
127	0xbd0bf37e	-0.03416776
128	0xbce07b68	-0.027402595
129	0x3daea9e6	0.08528499
130	0xbd61ebdc	-0.055156574
131	0x3d030986	0.031991504
132	0xbd49566d	-0.049154688
133	0x3d3376d0	0.04381448
134	0x3d126e29	0.03574959
135	0xbdaa7848	-0.08323723
136	0x3b29004b	0.0025787528
137	0xbd0422cf	-0.03225976
138	0x3ab20751	0.0013582503
139	0x3d44921e	0.04799091
140	0x3d1ab57e	0.03777074
141	0xbd7ee6d0	-0.06223184
142	0x3d106e1d	0.035261262
143	0xbdaad115	-0.083406605
144	0x3d739c56	0.059475265
145	0xbd8a6377	-0.06757253
146	0x3d9101d0	0.07080424
147	0x3c80653b	0.01567327
148	0xbadbcc9d	-0.0016769354
149	0x3d92514f	0.07144415
150	0x3b5c5e3b	0.0033625502
151	0x3b810159	0.003936928
152	0x3d90faf1	0.07079113
153	0x3d9f4c14	0.077781826
154	0xbca00dd9	-0.019537853
155	0x3d1f279a	0.038856126
156	0x3cbf1a01	0.02332783
157	0xbcd43dbf	-0.02590835
158	0x3d821717	0.0635206
159	0xbd9b43f5	-0.07581321
160	0xbd56273e	-0.052283518
161	0x3c096252	0.008385258
162	0x3ce770a0	0.028251946
163	0xbbde5b0f	-0.0067857574
164	0xbdac27f6	-0.084060594
165	0xbd61c09f	-0.05511534
166	0xbc8795a2	-0.016550843
167	0xbc48256a	-0.012215951
168	0x3d4d4dde	0.050123088
169	0xbd7fd5be	-0.0624597
170	0xbd892b96	-0.066977665
171	0x3cc9fc12	0.02465633
172	0x3d1842d2	0.0371731
173	0xbd4e2004	-0.0503235
174	0x3d916bde	0.07100652
175	0xbd88efed	-0.06686387
176	0x3c13413f	0.008987724
177	0xbc8f29be	-0.017475959
178	0xbce733b2	-0.028222892
179	0x3b28f258	0.0025779214
180	0xbd4be0d2	-0.049774952
181	0x3d809543	0.062784694
182	0xbd073b4d	-0.033015538
183	0xbd04507b	-0.032303315
184	0x3c557f1a	0.013030792
185	0x3d94c4fa	0.07264133
186	0x3cf991b7	0.03046499
187	0x3c1b0972	0.009462701
188	0xbdaa31e9	-0.08310301
189	0xbd0c41fa	-0.034242608
190	0xbd6c6a25	-0.057718415
191	0xbdb955a7	-0.0904954
192	0x3c8e5582	0.017374758
193	0x3cb0f773	0.021602368
194	0x3db82f41	0.08993388
195	0xbd7ddba1	-0.061977033
196	0x3cfa421a	0.030549098
197	0x3db3bf69	0.08776743
198	0x3d86bfef	0.06579577
199	0xbd96c8ef	-0.07362544
200	0xbd9be02a	-0.07611115
201	0xbca9893d	-0.020695323
202	0x3d061f42	0.032744654
203	0xbcb04040	-0.021515012
204	0x3d80cee8	0.06289464
205	0x3cfd0e2e	0.03089055
206	0x3d84ab26	0.064779565
207	0x3db06820	0.0861361
208	0x3b915659	0.0044353423
209	0x3cb102da	0.021607805
210	0x3d1db692	0.03850419
211	0x3da3ac1e	0.07991813
212	0x3d8a421c	0.067508906
213	0x3da6b241	0.08139468
214	0xbca5c9cd	-0.020237828
215	0x3d36e548	0.044652253
216	0x3d939056	0.07205264
217	0xbd179ce6	-0.037014864
218	0xbd2ddc20	-0.042446256
219	0x3d79e663	0.06101073
220	0x3db13df6	0.08654396
221	0xbcd69ff2	-0.026199315
222	0x3bd19ea8	0.006397087
223	0xbd83f113	-0.06442466
224	0x3d6e5499	0.058186147
225	0xbd9cb6f5	-0.07652084
226	0xbd8c5444	-0.0685201
227	0x3c12b9a9	0.008955398
228	0xbd25411b	-0.040345293
229	0x3d6415fd	0.055685032
230	0xbd33335c	-0.043750152
231	0xbd8cf816	-0.06883256
232	0x3cef9ebd	0.029250497
233	0x3d8fd935	0.07023851
234	0xbd951d6b	-0.07281002
235	0xbd3dae22	-0.046308644
236	0x3dcd9641	0.10038424
237	0x3c199b9a	0.009375477
238	0xbd9eaa2a	-0.077473
239	0xbc90107c	-0.017585985
240	0x3da5505d	0.08071969
241	0xbcbbeae9	-0.022939162
242	0x3d40c262	0.047060378
243	0xbc4d5ed2	-0.012534814
244	0xbdafc68d	-0.085827924
245	0x3ce19a05	0.027539263
246	0x3d11fb4b	0.035640042
247	0xbd37fe32	-0.044920154
248	0x3d2f9464	0.042866126
249	0x3d8b6849	0.06807
250	0xba825717	-0.0009944168
251	0xbd26c37b	-0.04071377
252	0x3b107865	0.0022044417
253	0x3c41fc7d	0.011839983
254	0xbd94eb63	-0.07271459
255	0xbd77f1ca	-0.060533322

rnn.bias_ih_l1 f4 [384]
0	0xbdbb5501	-0.091470726
1	0xbdb9561a	-0.09049626
2	0x3c081829	0.0083065415
3	0x3d8d84c4	0.06910089
4	0xbd8051e4	-0.062656194
5	0x3dabd37d	0.083899476
6	0x3d8bc4eb	0.068246685
7	0xbd83f818	-0.064438045
8	0xbc4f6d96	-0.012660405
9	0x3d8802ab	0.06641134
10	0x3c5e7c36	0.013579419
11	0x3c4ab659	0.012372577
12	0xbd799269	-0.060930643
13	0xbcf85258	-0.030312702
14	0xbd205f35	-0.039153297
15	0x3cc04c4a	0.023473877
16	0x3dac5dc4	0.08416322
17	0x3cd0ba05	0.025479326
18	0xbd37c43e	-0.044864886
19	0xbd8819a4	-0.066455156
20	0xbca9d98a	-0.020733614
21	0x3d83156c	0.0640057
22	0xbda12efe	-0.07870291
23	0x3d31dc49	0.04342297
24	0xbd2d4f02	-0.042311676
25	0xbda1c49c	-0.078988284
26	0x3d16968a	0.03676466
27	0x3c38d52a	0.011281291
28	0xbbdb6b47	-0.006696138
29	0xbdbe9b7b	-0.09306999
30	0xbc515e2c	-0.0127788
31	0xbb9e0389	-0.004822199
32	0x3c761d79	0.015021675
33	0x3ac4840d	0.0014992967
34	0xbcd6e00e	-0.026229884
35	0x3d982189	0.07428271
36	0x3d084259	0.0332664
37	0xbc98a738	-0.018634424
38	0xbc51fb4f	-0.012816264
39	0xbd4815b5	-0.048848826
40	0x3bcbbb7f	0.0062174196
41	0xbccbb72c	-0.024867617
42	0xbc2d7f9e	-0.010589508
43	0x3c6c5723	0.014425072
44	0xbda9d742	-0.0829301
45	0xbd76f407	-0.060291316
46	0xbd333bb7	-0.04375812
47	0xbd9e79bf	-0.07738065
48	0xbd9f840c	-0.07788858
49	0xbd3991da	-0.04530511
50	0x3d395888	0.045250446
51	0x3d9bdc9e	0.07610439
52	0xbd538351	-0.051638905
53	0x3c68225d	0.014168349
54	0xbcfcd176	-0.030861598
55	0xbda4bd79	-0.080439515
56	0xbd1e207e	-0.038605206
57	0xbd82516b	-0.063631855
58	0xbc52860c	-0.012849342
59	0xbc32e0b6	-0.010917833
60	0xbd0f0b53	-0.03492291
61	0xbd0a742b	-0.033802193
62	0x3ba1c752	0.004937091
63	0x3c61e4c3	0.013787451
64	0xbd8e2295	-0.0694019
65	0x3c55e75a	0.013055647
66	0xbda894a2	-0.082314745
67	0x3d8e60d2	0.06952061
68	0x3c775471	0.015095816
69	0x3d6f2a87	0.058390167
70	0x3d95731c	0.07297346
71	0xbd92ac23	-0.07161739
72	0x3d201dc8	0.0390909
73	0x3cc9b04d	0.0246202
74	0x3da18343	0.07886364
75	0xbd3a7b31	-0.04552764
76	0xbd8f507a	-0.069977716
77	0x3d549663	0.051901232
78	0x3d90df8c	0.07073888
79	0xbc6cfc59	-0.014464461
80	0xbda86763	-0.082228445
81	0x3cc3fad6	0.023923319
82	0x3d66daa6	0.056360863
83	0x3ca0f163	0.019646352
84	0x3cc67b51	0.024228724
85	0xbd1873ce	-0.037219815
86	0xbd9a3985	-0.07530502
87	0xbd79923a	-0.06093047
88	0x3d51d2a0	0.05122626
89	0xbdbc1fbc	-0.0918574
90	0xbce1133d	-0.027474994
91	0xbd3476e3	-0.04405869
92	0x3d7a7bca	0.06115321
93	0x3c5aca04	0.013353828
94	0x3d4cd331	0.050006095
95	0xba354de9	-0.00069162116
96	0x3d630d70	0.055432737
97	0x3c89f7c5	0.016841779
98	0xbdcf630d	-0.10126314
99	0x3d2ef3a2	0.042712815
100	0x3dacf8d9	0.084459014
101	0xbdaba4a8	-0.08381015
102	0x3ce2d103	0.027687555
103	0xbc7c0cc2	-0.015383901
104	0x3d037bbe	0.03210043
105	0xbd8c0418	-0.06836718
106	0xbda4cb0c	-0.080465406
107	0xbd988d85	-0.07448868
108	0xbd1d0e5d	-0.038343776
109	0xbd058b96	-0.032603823
110	0x3d0da379	0.034579728
111	0xbd2be7fe	-0.041969292
112	0xbb06173f	-0.0020460633
113	0x3d47426e	0.048647337
114	0x3c0b657b	0.008508082
115	0x3cc2a232	0.023758981
116	0x3c76e075	0.015068163
117	0x3c14fb92	0.009093182
118	0x3d2806a7	0.04102197
119	0x3daf37a1	0.08555532
120	0xbd5f1208	-0.054460555
121	0xbd8914dd	-0.066934325
122	0x3d0ce9b9	0.034402583
123	0xbd922a68	-0.071369946
124	0x3db4b8f8	0.088243425
125	0x3d8b8758	0.06812924
126	0xbd67ad72	-0.056561895
127	0xbbeb1f7c	-0.007175384
128	0xbd6c0ac1	-0.057627443
129	0xbd9c0fbe	-0.0762019
130	0x3d5973e9	0.053089056
131	0x3ca4cac9	0.020116227
132	0xbd671a67	-0.056421664
133	0x3cfe14eb	0.031015834
134	0x3a511903	0.00079764443
135	0x3d7c206b	0.061554354
136	0x3d5e4605	0.054265995
137	0xbd655aec	-0.055994913
138	0x3d26b009	0.040695224
139	0xbe0e06b8	-0.1386975
140	0x3dc6084b	0.096695505
141	0x3d79d50d	0.060994197
142	0x3c575c53	0.01314457
143	0x3c8e60bc	0.01738011
144	0xbd950992	-0.07277216
145	0x3aec2b2b	0.0018018236
146	0xbdba29dd	-0.09090016
147	0xbd50c07f	-0.05096483
148	0xbd93c1cb	-0.072146975
149	0x3dbf13e8	0.09329969
150	0x3ceeb266	0.029137801
151	0xbd40f9c6	-0.047113203
152	0xbd1cfce0	-0.038327098
153	0xbaa059a6	-0.0012233749
154	0xbd7a28fd	-0.061074246
155	0x3d17b114	0.03703411
156	0x3d93df01	0.07220269
157	0xbd8ec134	-0.06970444
158	0x3ccda22b	0.025101742
159	0xbd8071d8	-0.06271714
160	0x3d8ea4c1	0.06965018
161	0xbd5be87f	-0.053688522
162	0xbdac0d26	-0.08400945
163	0x3d2e2cd7	0.04252323
164	0xbcf9c368	-0.030488685
165	0xbd4461de	-0.047944896
166	0x3ba97c9e	0.005172326
167	0xbde00e57	-0.10940235
168	0xbd368292	-0.044558115
169	0xbd523554	-0.05132039
170	0xbc6b2451	-0.01435192
171	0x3c82b90e	0.015957382
172	0xbd17bc88	-0.03704503
173	0x3dbc12b3	0.09183254
174	0xbd10c59c	-0.035344705
175	0xbd49a864	-0.049232855
176	0xbd8e6eee	-0.06954752
177	0x3d287ee2	0.04113663
178	0xbd8dad3e	-0.06917809
179	0x3d86bd38	0.06579059
180	0xbdd77b9e	-0.10521625
181	0xbc3ad114	-0.011402387
182	0xbd59729d	-0.05308782
183	0xbde20b5d	-0.110373236
184	0xbc18b017	-0.009319327
185	0xbd3cbaef	-0.04607671
186	0x3d8a86a0	0.06763959
187	0x3d125dc3	0.03573395
188	0x3d08ba6e	0.03338092
189	0xbde8bb1a	-0.11363812
190	0xbba305a0	-0.004975036
191	0xbd78c88c	-0.06073813
192	0xbcd5ef10	-0.02611497
193	0x3d304e45	0.043043394
194	0xbdd1f894	-0.10252491
195	0xbd36a9cb	-0.04459552
196	0xbc593df4	-0.0132594
197	0x3c49ef7a	0.012325162
198	0xbddffc5d	-0.10936806
199	0x3d1fb371	0.038989488
200	0xbc739000	-0.014865875
201	0xbe1375e7	-0.14400445
202	0xbda86b86	-0.082236335
203	0xbdc4b757	-0.09605282
204	0xbd50cede	-0.050978534
205	0xbdca8d1d	-0.098901965
206	0xbd3fda88	-0.046839267
207	0x3ca89f12	0.020583663
208	0xbd2b5ad0	-0.041834652
209	0xbc5872c9	-0.013210961
210	0x3d537c27	0.051632073
211	0xbd2188df	-0.03943717
212	0x3d3deb64	0.046367064
213	0x3bf2432b	0.007393261
214	0x3d1f0d7f	0.03883123
215	0xbc575243	-0.013142171
216	0x3d8aa4b9	0.067696996
217	0xbdabed5c	-0.08394882
218	0xbda2b79d	-0.07945178
219	0xbc030833	-0.00799756
220	0xbcd1e0b3	-0.02561984
221	0xbd928bac	-0.071555465
222	0xbb5e0c36	-0.003388179
223	0x3e03487d	0.12820621
224	0xbc53d6f5	-0.012929668
225	0xbd80af44	-0.06283429
226	0x3dd585f5	0.10425941
227	0xbd493373	-0.04912133
228	0xbd48b6f3	-0.0490026
229	0xbda9b3fd	-0.08286283
230	0xbdba0d96	-0.090846226
231	0xbd1e9f36	-0.038726054
232	0xbc57126c	-0.013126951
233	0xbd222660	-0.03958738
234	0xbd47956d	-0.048726488
235	0xbdabe42d	-0.083931305
236	0xbdd8f16b	-0.10592922
237	0xbc4fba4b	-0.012678693
238	0x3d7e1827	0.062034752
239	0x3b048ece	0.002022672
240	0x3ccb64da	0.024828363
241	0xbd471955	-0.048608143
242	0xbc58e49e	-0.0132381
243	0xbda0a69b	-0.078442775
244	0xbcbdf763	-0.023189252
245	0xbd2caa4f	-0.042154606
246	0x3cdd6862	0.027027313
247	0xbda801aa	-0.082034424
248	0x3d5b166e	0.053488187
249	0xbde900cf	-0.11377107
250	0x3d1199c0	0.035547018
251	0xbd28566a	-0.041098036
252	0x3d35cc20	0.044384122
253	0xbda487de	-0.08033727
254	0xbd7c132c	-0.06154172
255	0x3da45ed3	0.08025899
