backend/trained_models/EBL_LSTM_model_state_dict.pth (torch, 808451 bytes, 9 tensors)

rnn.weight_ih_l0 f4 [512, 5]
0.0395483 -0.017581197 0.008314748 -0.0019490444 -0.058772076 -0.036896035 -0.034561716 0.07668434
0.0025256006 -0.06100417 0.03482176 0.053189505 -0.073125236 0.012525414 0.08468848 0.0011790163
0.06154967 0.014524454 -0.038160846 0.0769187 -0.009786318 -0.035441257 -0.076249644 0.0064627994
0.03460032 -0.017381072 -0.012704019 0.0942406 -0.05526556 -0.023017237 0.05934801 -0.0004166544
0.044823404 0.01131516 0.01704149 0.013654482 0.072636835 0.019947678 0.08933446 -0.057458494
0.0075141564 0.04804931 0.101998284 0.045079563 -0.0063711484 0.05301186 0.050835844 -0.05055676
-0.007512482 0.100870244 -0.03065011 0.036020577 0.024125392 0.06983982 0.054816164 0.072816186
0.024654591 -0.06675483 -0.023342367 0.03147357 0.036001176 -0.037060298 0.08041395 0.071726836
0.0804898 0.046617594 -0.017341288 -0.057457693 0.068464406 -0.024250863 0.03733668 -0.018133987
0.019959874 -0.058403708 0.05292004 0.070295095 0.01811562 -0.013662148 0.07155233 0.07404241
0.084844634 -0.06233861 -0.017737603 0.005669019 -0.0018384315 0.00824017 0.02349679 -0.052698817
-0.025637018 -0.051303517 0.08206148 -0.08238542 0.033213407 -0.0071356245 -0.018772611 -0.0689093
0.07923603 -0.07305079 0.029995812 -0.003995565 0.024953358 -0.0057120435 -0.08034163 0.048425574
0.048690833 -0.049803875 0.0002597748 -0.056143302 0.086959206 0.08681004 0.014681088 -0.063281596
0.031196173 -0.077169165 0.058714136 0.074528165 0.040713638 0.03947894 0.033112973 -0.0017027137
-0.06994006 0.061169956 -0.027842032 0.03236955 -0.07295769 0.067441784 0.028832443 0.07156347
0.039516594 0.072113924 0.054438937 -0.052837376 0.03622686 0.09154279 0.082852505 -0.068569615
0.01526213 -0.044324897 -0.0026093286 -0.0099259205 0.05887812 -0.022266094 -0.070637375 0.118947074
0.015187826 -0.06415605 -0.034981664 -0.030229095 0.082655035 0.039986875 -0.033676784 0.016427904
0.08460311 0.08901558 0.07256046 0.0945669 0.0537832 -0.00226186 0.05022644 0.028320026
-0.050496347 -0.05435884 0.06123942 -0.04402382 -0.057847437 0.042985093 0.046729032 0.027363766
-0.052504152 0.024936607 0.09597687 -0.07669177 -0.04517235 -0.037826665 0.07099961 0.049369115
0.07300196 0.04923086 0.053896513 -0.031362765 -0.06359413 0.037824087 -0.059515033 0.061111085
-0.038352534 -0.06791804 -0.037038505 0.02968066 0.006600868 -0.06006237 -0.0027113438 -0.0338566
0.08487385 -0.014979423 0.01610386 -0.02282578 -0.031412475 0.04911875 -0.013783777 -0.07759546
0.07821461 0.0057331766 -0.045868758 -0.057446294 0.09554914 0.027432818 -0.02036505 0.020284873
0.026480619 -0.0706334 -0.06425761 -0.008219252 0.08234162 0.014476086 -0.022278577 -0.075958095
-0.06443329 -0.04301312 0.10324713 0.05978818 -0.04093748 -0.0025334894 -0.0350234 -0.08391327
0.046342243 0.03081714 -0.032345865 0.09015877 0.006394354 -0.052247737 0.06525433 -0.029983662
-0.074195616 0.049691837 -0.035927866 -0.027344352 0.035986286 0.07998133 -0.03936323 -0.04258376
0.06530291 -0.047749754 0.078068666 -0.024843268 0.0019115402 0.018901851 0.011979664 -0.07320849
-0.00416679 -0.07830874 0.033152882 -0.080658 0.019636588 -0.0487994 -0.07301923 0.09369821
00000000: 66fd 213d 7106 90bc 953a 083c 1477 ffba
00000010: fdba 70bd 4c20 17bd 9690 0dbd ae0c 9d3d
00000020: 8c84 253b 82df 79bd 43a1 0e3d 3ddd 593d
00000030: afc2 95bd 6537 4d3c 2771 ad3d 3989 9a3a
00000040: 821b 7c3d faf7 6d3c 8c4e 1cbd 8d87 9d3d
00000050: cb56 20bc da2a 11bd c628 9cbd e4c5 d33b
00000060: 11b9 0d3d c062 8ebc 8524 50bc 3701 c13d
00000070: 245e 62bd a58e bcbc e616 733d 6872 dab9
00000080: bf98 373d 3963 393c 989a 8b3c 0cb7 5f3c
00000090: 9fc2 943d 5069 a33c fcf4 b63d 9959 6bbd
000000a0: 5039 f63b 5acf 443d 7ae4 d03d 59a5 383d
000000b0: 11c5 d0bb f722 593d 3f39 503d 9b14 4fbd
000000c0: 442b f6bb 0f95 ce3d f115 fbbc 508a 133d
000000d0: 9da2 c53c 2e08 8f3d ea86 603d a720 953d
000000e0: 6df8 c93c c2b6 88bd 7e38 bfbc 6eea 003d
000000f0: f875 133d 8acc 17bd 12b0 a43d 85e5 923d
00000100: d6d7 a43d 17f2 3e3d 510f 8ebc c258 6bbd
00000110: 1137 8c3d bfa9 c6bc 59ee 183d ba8d 94bc
00000120: e482 a33c ba38 6fbd afc2 583d e0f6 8f3d
00000130: 3567 943c 34d7 5fbc 078a 923d 8ca3 973d
00000140: 06c3 ad3d c556 7fbd 734e 91bc 2ec3 b93b
00000150: 86f7 f0ba c701 073c 577c c03c b7da 57bd
00000160: b904 d2bc a323 52bd d90f a83d b0b9 a8bd
00000170: c80a 083d f5d1 e9bb 05c9 99bc 5220 8dbd
00000180: 8046 a23d a79b 95bd c7b9 f53c 3bed 82bb
00000190: fc6a cc3c 182c bbbb 278a a4bd e559 463d
000001a0: 0a70 473d 26ff 4bbd 6232 8839 85f6 65bd
000001b0: ab17 b23d 76c9 b13d f288 703c c899 81bd
000001c0: 1e8f ff3c de0a 9ebd 3c7e 703d 39a2 983d
000001d0: 58c3 263d abb4 213d 78a1 073d 972d dfba
000001e0: bc3c 8fbd 598d 7a3d f914 e4bc ef95 043d
000001f0: d76a 95bd eb1e 8a3d 0432 ec3c de8f 923d
00000200: 27dc 213d 77b0 933d 5dfb 5e3d 016c 58bd
00000210: 9e62 143d c97a bb3d 93ae a93d 3a6e 8cbd
00000220: 030e 7a3c 068e 35bd 4501 2bbb 54a0 22bc
00000230: 2f2a 713d 6267 b6bc 54aa 90bd 869a f33d
00000240: 5cd6 783c 3f64 83bd ef48 0fbd 02a3 f7bc
00000250: 0b47 a93d 47c9 233d abf0 09bd d093 863c
00000260: 6544 ad3d cd4d b63d 949a 943d 4aac c13d
00000270: c64b 5c3d b73b 14bb 3dba 4d3d 66ff e73c
00000280: 42d5 4ebd 60a7 5ebd 30d6 7a3d 5252 34bd
00000290: 6ff1 6cbd 2311 303d f166 3f3d fa29 e03c
000002a0: 980e 57bd db47 cc3c 858f c43d 9310 9dbd
000002b0: a406 39bd 22f0 1abd 3e68 913d 4537 4a3d
000002c0: 0d82 953d 4ca6 493d 97c2 5c3d 3e76 00bd
000002d0: a43d 82bd 6eed 1a3d 09c6 73bd 9e4f 7a3d
000002e0: 8c17 1dbd 9d18 8bbd b0b5 17bd db24 f33c
000002f0: 184c d83b f603 76bd cdb0 31bb 38ad 0abd
00000300: 57d2 ad3d 416c 75bc 3eec 833c 21fd babc
00000310: 5eaa 00bd be30 493d 5ad5 61bc 5eea 9ebd
00000320: fb2e a03d 5fdd bb3b e1e0 3bbd ce4c 6bbd
00000330: 44af c33d caba e03c 9bd4 a6bc 762c a63c
00000340: e2ed d83c 3ea8 90bd 7e99 83bd 0baa 06bc
00000350: b9a2 a83d 1b2d 6d3c 9081 b6bc eb8f 9bbd
00000360: 9af5 83bd 862e 30bd 3b73 d33d 73e4 743d
00000370: 0fae 27bd e608 26bb b274 0fbd b8da abbd
00000380: 5dd1 3d3d 3a74 fc3c 197d 04bd 29a5 b83d
00000390: bb87 d13b b901 56bd 10a4 853d 4ca0 f5bc
000003a0: dff3 97bd ab89 4b3d 1929 13bd 4301 e0bc
000003b0: 5b66 133d 40cd a33d 573b 21bd 4f6c 2ebd
000003c0: 88bd 853d 3f95 43bd 77e2 9f3d 1c84 cbbc
000003d0: a58c fa3a 0ed8 9a3c 5a46 443c 55ee 95bd
000003e0: 9189 88bb 5560 a0bd 51cb 073d 0630 a5bd
000003f0: e9dc a03c e1e1 47bd 1b8b 95bd d9e4 bf3d

rnn.weight_hh_l0 f4 [512, 128]
-0.07565687 -0.027221173 -0.05049759 0.010214594 0.072476745 0.029134601 0.061048638 0.02193223
0.060384925 0.03604352 -0.005530145 -0.034576133 -0.07674176 0.051751267 0.011375977 0.07990553
-0.01347375 -0.022175416 -0.014249007 -0.035979886 0.06317189 0.011236549 -0.06009056 0.0071910913
-0.0020594508 -0.03474331 -0.065127395 0.049560864 0.060254265 -0.031221278 0.011361144 -0.068877496
-0.08939515 -0.011925118 -0.07220751 -0.0408439 0.071762025 -0.03155542 -0.055306416 0.017293436
0.043376546 -0.07401435 0.05461464 0.06792702 0.053046152 0.00084105803 0.027295275 -0.024577074
-0.015338065 -0.042344734 0.042279974 -0.077329874 0.059608743 0.012250592 0.037762575 -0.005638358
-0.017302854 -0.0065319357 0.07161821 -0.017708562 0.005640576 0.025274504 0.07473663 0.080361366
0.010546952 -0.057268113 -0.023083083 0.06294541 0.062464897 0.012463004 0.08121276 -0.01705356
-0.043930672 0.029865663 0.0780644 -0.06967623 0.00016795314 0.06703071 0.044393633 0.057822943
0.030942628 -0.07493617 -0.04551945 -0.03507504 -0.017309586 0.06580911 0.03163663 -0.019142454
-0.06262987 0.09272843 -0.039585073 -0.016406212 0.03604525 0.029645912 0.06541554 0.038928643
-0.07010286 -0.021750413 0.076727994 0.049596168 -0.019065775 0.0028569063 -0.08044153 -0.026080778
-0.024644414 0.08118117 -0.0029707467 -0.0153530715 0.07326887 0.04296476 0.03766429 -0.03365123
0.0013111766 0.030640306 -0.070103094 0.031935733 0.052688975 -0.062661305 0.0007865172 -0.026671942
-0.090150684 0.026390895 -0.07216675 -0.055572506 0.028257014 -0.038618866 -0.08455207 -0.008391729
-0.059310596 0.095323265 0.0022258828 -0.059016425 -0.06284924 -0.026531953 -0.0026785978 0.08882283
0.028711615 -0.045345273 0.018680688 0.020096157 0.04353309 -0.07958456 0.03407885 0.012808639
-0.01608116 0.070788056 -0.020616652 0.054074522 -0.049844928 0.02548866 0.0034870228 -0.07059084
-0.04661213 0.017578414 -0.030906346 -0.0496413 0.03036352 -0.009161814 0.0020867065 0.027207078
0.091060735 0.033138495 -0.0013425549 0.0068483017 0.070509456 -0.0684104 0.02332854 -0.06805642
-0.04039546 0.022321563 -0.032823432 0.08806931 -0.031713177 -0.047211863 0.07204086 0.08169125
0.050388325 -0.06671382 -0.017054666 -0.05134222 -0.015782146 -0.0849476 -0.08632268 -0.07960067
-0.08358405 0.04597418 -0.06271605 -0.034374233 -0.018205395 0.0819658 0.044876903 0.026609883
-0.0001697409 0.07070872 -0.021826282 -0.06988582 -0.078498796 0.079428315 0.008992861 -0.045850746
-0.050732844 0.026662135 -0.06765809 -0.03177717 0.038619258 0.071225606 0.0276903 -0.039097045
-0.07638544 0.08553815 0.050105773 0.0054757395 0.030025778 0.026402496 0.021851702 -0.018169591
-0.03932172 0.051759515 0.053530205 0.08330734 0.04804722 0.01609223 0.09043103 0.06892909
-0.044639777 0.07987294 -0.07233563 -0.005563036 0.041524667 0.049863998 0.00064935745 -0.08186148
0.01037461 0.029237254 0.042814188 0.08008313 -0.045033842 0.037742414 0.038497068 -0.06887464
-0.06760994 0.03822356 -0.05864796 0.03521236 0.025173804 0.044683915 -0.0750004 -0.06270319
0.092319906 -0.05128172 0.023712013 -0.015046233 0.025919128 0.06129756 -0.07818536 0.07905296
00000000: fdf1 9abd f0fe debc 90d6 4ebd 1d5b 273c
00000010: b06e 943d b0ab ee3c 230e 7a3d 38ab b33c
00000020: 2f56 773d 5fa2 133d 3836 b5bb b49f 0dbd
00000030: c92a 9dbd 23f9 533d 4e62 3a3c 83a5 a33d
00000040: 01c1 5cbc 38a9 b5bc ab74 69bc a55f 13bd
00000050: 4460 813d 8119 383c 8521 76bd 3fa3 eb3b
00000060: daf7 06bb 004f 0ebd 8361 85bd 5500 4b3d
00000070: 2dcd 763d c4c3 ffbc 1724 3a3c a50f 8dbd
00000080: ce14 b7bd 9261 43bc 88e1 93bd ef4b 27bd
00000090: f8f7 923d 4240 01bd fb88 62bd f7aa 8d3c
000000a0: 9bab 313d d694 97bd 9ab3 5f3d 521d 8b3d
000000b0: ec46 593d 737a 5c3a 579a df3c dc55 c9bc
000000c0: 824c 7bbc ac71 2dbd c42d 2d3d 205f 9ebd
000000d0: 4c28 743d b5b6 483c eeac 1a3d fac1 b8bb
000000e0: b7be 8dbc d909 d6bb 91ac 923d 8c11 91bc
000000f0: 95d4 b83b 7a0c cf3c 850f 993d 8094 a43d
00000100: 1fcd 2c3c f891 6abd bc18 bdbc 86e9 803d
00000110: 31db 7f3d a131 4c3c e052 a63d e8b3 8bbc
00000120: a6f0 33bd d6a8 f43c 3ae0 9f3d 69b2 8ebd
00000130: 941c 3039 6647 893d 19d6 353d c0d7 6c3d
00000140: 657b fd3c 2278 99bd 9a72 3abd d8aa 0fbd
00000150: d5cc 8dbc edc6 863d 6995 013d a3d0 9cbc
00000160: 1744 80bd 67e8 bd3d f523 22bd 5266 86bc
00000170: 2fa4 133d fcdb f23c 95f8 853d a473 1f3d
00000180: 1792 8fbd ec2d b2bc 9123 9d3d 5a25 4b3d
00000190: d42f 9cbc ef3a 3b3b 87be a4bd 5ba7 d5bc
000001a0: 15e3 c9bc 5042 a63d dcb0 42bb 738b 7bbc
000001b0: fd0d 963d d1fb 2f3d df45 1a3d dfd5 09bd
000001c0: c9db ab3a 6101 fb3c 3692 8fbd 0bcf 023d
000001d0: 65d0 573d 9254 80bd 472e 4e3a 1e7f dabc
000001e0: eca0 b8bd b831 d83c 29cc 93bd ff9f 63bd
000001f0: 417b e73c d12e 1ebd a329 adbd 767d 09bc
00000200: abef 72bd d838 c33d 1ee0 113b 35bb 71bd
00000210: 1ab7 80bd 8a59 d9bc 6a8b 2fbb bee8 b53d
00000220: 9f34 eb3c f7bb 39bd 3e08 993c b2a0 a43c
00000230: c14f 323d 3bfd a2bd 4496 0b3d 53db 513c
00000240: a3bc 83bc 54f9 903d 41e4 a8bc 3f7d 5d3d
00000250: 322a 4cbd 98cd d03c 8986 643b ee91 90bd
00000260: 5cec 3ebd 9b00 903c 4e2f fdbc ad54 4bbd
00000270: ebbc f83c 6f1b 16bc 20c1 083b 61e1 de3c
00000280: 0d7e ba3d 3bbc 073d abf8 afba b867 e03b
00000290: 4367 903d c01a 8cbd 7f1b bf3c 2a61 8bbd
000002a0: b675 25bd b6db b63c dd71 06bd af5d b43d
000002b0: ade5 01bd 3a61 41bd 298a 933d be4d a73d
000002c0: fd63 4e3d 41a1 88bd 3ab6 8bbc 384c 52bd
000002d0: 8f49 81bc 02f9 adbd f2c9 b0bd ad05 a3bd
000002e0: 1d2e abbd 6c4f 3c3d 4671 80bd ffcb 0cbd
000002f0: 7b23 95bc afdd a73d d8d0 373d f8fc d93c
00000300: 7afc 31b9 bccf 903d 08cd b2bc 4c20 8fbd
00000310: fac3 a0bd 50ab a23d cb56 133c fecd 3bbd
00000320: 3ecd 4fbd 8d6a da3c 5390 8abd c728 02bd
00000330: 3a2f 1e3d bbde 913d c5d6 e23c 3924 20bd
00000340: f86f 9cbd a02e af3d b63b 4d3d d56d b33b
00000350: 9ff8 f53c 0c4a d83c 5702 b33c 65d8 94bc
00000360: d00f 21bd c901 543d 7d42 5b3d 0a9d aa3d
00000370: 29cd 443d dad3 833c e733 b93d b22a 8d3d
00000380: 33d8 36bd 6d94 a33d b424 94bd 214a b6bb
00000390: c515 2a3d 313e 4c3d a439 2a3a fea6 a7bd
000003a0: 45fa 293c f782 ef3c ee5d 2f3d a002 a43d
000003b0: 6875 38bd ca97 1a3d 1aaf 1d3d 260e 8dbd
000003c0: 1577 8abd 4f90 1c3d d838 70bd d63a 103d
000003d0: 4b39 ce3c 7b06 373d cf99 99bd 886a 80bd
000003e0: 3812 bd3d c80c 52bd b23f c23c 7a84 76bc
000003f0: 5a54 d43c 2613 7b3d a51f a0bd 85e6 a13d

rnn.bias_ih_l0 f4 [512]
-0.0770461 -0.05942376 0.039483443 -0.0071889022 -0.04936165 0.028933171 0.08683746 -0.05815376
0.026453642 -0.021630771 0.041794468 0.006476018 0.07232352 -0.039078735 -0.0244199 0.029146858
0.030267276 0.082660265 -0.004159035 0.08525002 0.0044080894 0.09548953 0.07614315 -0.06291241
-0.08326266 0.062582985 -0.028492218 -0.07518363 0.042559266 -0.013429494 0.050356977 0.062403057
0.064143986 0.087578975 -0.050397906 -0.06614894 0.09682082 0.06853137 -0.0552462 -0.04626144
-0.026161276 0.010462927 0.07065495 -0.059670612 0.035128254 0.07931574 -0.033040877 -0.012825393
0.088047996 -0.075575136 -0.06514227 -0.019938286 -0.020900626 0.0030890694 0.09180461 -0.04381672
-0.050216123 -0.02186152 -0.0619118 -0.069605805 -0.047410104 0.0022095314 -0.024223037 -0.019515472
-0.07374415 0.0065770964 -0.058244906 -0.07914093 0.06431054 0.073582396 0.072053805 0.038169805
-0.0030432062 -0.053965326 0.027118359 -0.06946083 0.09338229 -0.016837168 0.007031824 0.060384516
0.03863661 0.08979813 -0.012004461 0.08292252 0.01840192 -0.05376866 -0.010552994 -0.055452157
0.0621976 -0.053585704 0.064397186 0.039277792 0.060801733 0.06840965 0.010332595 -3.0314213e-05
-0.013723209 -0.08628667 -0.023801032 0.08193073 -0.033512484 -0.059023146 -0.046543986 0.0037223822
0.051822472 0.005937075 0.014421349 -0.07227307 -0.032749992 -0.04509205 -0.054165103 0.08920105
0.046682976 0.038647316 0.037578557 0.08052074 -0.07667391 -0.04293457 0.077088386 -0.042979226
-0.09157798 -0.09437214 -0.0532054 -0.0040358263 0.062542066 -0.033423975 0.08754164 -0.0031574941
-0.026452914 -0.030120509 0.08441092 0.0760275 0.0553123 -0.04812574 0.021155624 0.05933763
0.0045724837 0.032172546 0.014150223 0.084869586 0.0007619596 0.026458992 -0.03147785 0.07681049
-0.031074664 -0.060405098 0.012760421 0.095968835 -0.03180115 0.053076237 -0.0068584913 -0.029568763
-0.009862985 0.004059722 0.054311603 -0.01617986 0.07003477 0.08939974 0.00804652 0.041671336
-0.070141 -0.025454205 -0.070548885 0.047493186 -0.06622243 0.036580764 -0.05733105 -0.040968142
-0.060206912 0.026708955 -0.05647325 -0.054138727 -0.028917208 -0.060596336 -0.07468249 0.08239247
-0.05500555 -0.052905705 -0.003125408 0.0018629851 0.052946772 0.0200492 0.06873079 0.052455332
-0.058396745 -0.09238958 0.077374876 0.0038709077 0.059589367 -0.017251164 0.061314005 0.035625614
-0.024071885 -0.0053693578 0.06798964 -0.052729405 0.071001194 -0.04735109 0.07351707 0.08226299
0.054071434 0.0014505103 -0.07266618 0.037927017 -0.033100132 0.047842056 -0.068989456 -0.024089668
0.024475254 0.059004366 -0.06802978 -0.023569973 0.083192945 0.048117224 -0.018839931 -0.028211327
0.04846025 0.058099378 0.05847265 0.05829643 0.010866749 -0.042573858 0.0072754226 0.054030668
-0.00043302943 0.013890804 0.07725982 -0.017084435 -0.04733621 -0.0551917 0.09023121 -0.019607922
0.066247255 -0.0042285006 0.08609808 -0.018211208 -0.046959557 0.010680417 0.031708684 0.020008225
0.0038388006 0.033322655 -0.05692685 0.02667659 0.019298015 -0.014600498 0.002533563 0.011850198
-0.02131007 -0.02890522 0.03277456 -0.082153976 -0.049205773 0.010256664 0.07705877 -0.06491344
00000000: 58ca 9dbd 5466 73bd 64b9 213d e290 ebbb
00000010: 712f 4abd 4205 ed3c d7d7 b13d a332 6ebd
00000020: 4fb5 d83c 0433 b1bc ad30 2b3d c734 d43b
00000030: 5b1e 943d 0611 20bd 3e0c c8bc 64c5 ee3c
00000040: 14f3 f73c c949 a93d 8448 88bb 9097 ae3d
00000050: bc71 903b 0490 c33d f1f0 9b3d 39d8 80bd
00000060: 9d85 aabd 822b 803d 8368 e9bc e0f9 99bd
00000070: a052 2e3d 6107 5cbc 1e43 4e3d 599a 7f3d
00000080: ec5d 833d 9b5c b33d 096e 4ebd 1879 87bd
00000090: fe49 c63d 2d5a 8c3d d749 62bd a37c 3dbd
000000a0: 2c50 d6bc b26c 2b3c 8bb3 903d 2c69 74bd
000000b0: a5e2 0f3d 4a70 a23d df55 07bd 9921 52bc
000000c0: 8252 b43d 23c7 9abd 4f69 85bd 9e55 a3bc
000000d0: ca37 abbc fc71 4a3b 0e04 bc3d 2979 33bd
000000e0: 6caf 4dbd ee16 b3bc 3a97 7dbd 7d8d 8ebd
000000f0: 1931 42bd c9cd 103b 646f c6bc e9de 9fbc
00000100: 2c07 97bd af84 d73b 3692 6ebd a414 a2bd
00000110: 3fb5 833d 5eb2 963d f290 933d f157 1c3d
00000120: 8770 47bb bf0a 5dbd 5227 de3c 7b41 8ebd
00000130: 373f bf3d 1aee 89bc 376b e63b c155 773d
00000140: 6c41 1e3d 15e8 b73d 5cae 44bc 48d3 a93d
00000150: a0bf 963c 873c 5cbd 77e6 2cbc cd21 63bd
00000160: e9c2 7e3d af7c 5bbd ace2 833d c0e1 203d
00000170: 3d0b 793d 5c1a 8c3d 0b4a 293c 474b feb7
00000180: 4fd7 60bc 11b7 b0bd 62fa c2bc 4ccb a73d
00000190: 6344 09bd 41c2 71bd e8a4 3ebd 36f3 733b
000001a0: cd43 543d cb8b c23b 8647 6c3c e703 94bd
000001b0: db24 06bd 71b2 38bd 3adc 5dbd 0aaf b63d
000001c0: a636 3f3d a64c 1e3d f9eb 193d 0fe8 a43d
000001d0: 3607 9dbd 29dc 2fbd 84e0 9d3d fc0a 30bd
000001e0: 3c8d bbbd 2e46 c1bd e8ed 59bd f73e 84bb
000001f0: 0e16 803d 94e7 08bd 0849 b33d f6ed 4ebb
00000200: c8b3 d8bc 49bf f6bc a2df ac3d 4eb4 9b3d
00000210: 268f 623d 7f1f 45bd 8f4e ad3c 040c 733d
00000220: c6d4 953b 5cc7 033d 56d6 673c 1bd0 ad3d
00000230: 3ebe 473a 87c0 d83c ebee 00bd d14e 9d3d
00000240: 4b90 febc 566b 77bd 1611 513c 4f8b c43d
00000250: ec41 02bd 7866 593d 32bd e0bb 313a f2bc
00000260: 5c98 21bc 6b07 853b d875 5e3d a08b 84bc
00000270: 646e 8f3d 3617 b73d 8dd5 033c 90af 2a3d
00000280: 16a6 8fbd 5685 d0bc ef7b 90bd 3788 423d
00000290: a09f 87bd b6d5 153d f7d3 6abd 36ce 27bd
000002a0: 869b 76bd bdcc da3c 7f50 67bd 92c0 5dbd
000002b0: c8e3 ecbc dd33 78bd 22f3 98bd 62bd a83d
000002c0: 804d 61bd a7b3 58bd a5d3 4cbb 682f f43a
000002d0: b7de 583d 383e a43c bac2 8c3d 67db 563d
000002e0: 6d31 6fbd c036 bdbd b876 9e3d 0eaf 7d3b
000002f0: fb13 743d 5052 8dbc 6524 7b3d 2aec 113d
00000300: 6732 c5bc 70f1 afbb 273e 8b3d cafa 57bd
00000310: 1369 913d 37f3 41bd 1e90 963d 8079 a83d
00000320: 027a 5d3d 0d1f be3a 02d2 94bd 5c59 1b3d
00000330: 0194 07bd 08f6 433d 584a 8dbd b257 c5bc
00000340: 5480 c83c 90ae 713d 3353 8bbd d115 c1bc
00000350: 1061 aa3d 9116 453d 3356 9abc 711b e7bc
00000360: 417e 463d 9df9 6d3d 0481 6f3d 3dc8 6e3d
00000370: 730a 323c ed61 2ebd ab66 ee3b 434f 5d3d
00000380: 3a08 e3b9 4196 633c 663a 9e3d a8f4 8bbc
00000390: 9de3 41bd b110 62bd 24cb b83d cba0 a0bc
000003a0: a4ac 873d 3c8f 8abb 3154 b03d ac2f 95bc
000003b0: aa58 40bd eafc 2e3c f7e0 013d 4ae8 a33c
000003c0: 6394 7b3b 567d 083d 212c 69bd dd88 da3c
000003d0: df16 9e3c ed36 6fbc 220a 263b 5527 423c
000003e0: 7592 aebc a4ca ecbc 9e3e 063d 5840 a8bd
000003f0: fe8b 49bd 910b 283c fdd0 9d3d 56f1 84bd

rnn.bias_hh_l0 f4 [512]
-0.047369447 -0.04079962 0.008396118 -0.08403611 -0.030205982 0.0374172 0.000884969 -0.012403324
-0.05298142 -0.067973964 0.02771861 -0.037662122 -0.04394232 0.088884965 0.06293746 0.08443547
-0.007053189 -0.008506305 0.072703354 0.017978474 -0.07974695 0.06899956 -0.020934306 0.06612467
-0.0270391 -0.06453648 -0.03596766 -0.0011251267 0.0027948748 0.0009878288 -0.047969446 -0.0027754442
-0.063646905 -0.045902655 -0.012494949 0.059258904 -0.023035938 0.017107446 0.08923908 0.032302845
-0.06829395 0.069192566 -0.00029424886 0.062189374 0.06930222 -0.052548997 -0.02816631 -0.005279987
-0.06890811 -0.026849255 -0.09358047 -0.06642455 0.008223714 -0.08079786 0.058206886 -0.074494034
0.07258945 -0.016616598 0.081760705 -0.06241039 0.020048093 0.025302187 0.052088927 0.040961888
0.03981302 0.015195632 9.11068e-05 -0.066008195 0.052715406 -0.055101857 -0.041041788 -0.059519395
0.08858754 0.008836233 -0.001239243 -0.047580987 0.06871822 -0.042043667 -0.049234774 0.08537119
0.0002792547 0.0042234007 -0.0785184 -0.0805859 0.016542772 -0.021699602 -0.009081257 0.06349483
0.06649425 0.0412973 0.089884855 0.006186155 -0.028655156 -0.003593323 0.036580607 -0.008033231
0.04054685 -0.07445264 0.032459334 -0.08852858 -0.049445815 -0.05189103 -0.049777903 -0.026223188
0.06500768 0.041374087 0.07036184 0.033160757 -0.073271774 -0.0003640515 0.04389466 -0.01941411
-0.050219774 0.009333766 -0.040911447 0.08059304 0.03624474 0.07016454 -0.0145552615 0.017660346
-0.06538552 0.02844388 -0.005745625 0.031427424 0.0012054446 -0.056651533 0.049238626 -0.050690934
0.05133901 0.06280779 -0.0012428589 -0.032550268 0.040452614 0.061075557 0.0021444957 -0.045760274
0.005863621 -0.007901799 -0.076589786 0.084141225 0.06751441 -0.056125533 -0.050963428 -0.030160991
-0.0026087435 0.06790898 0.047460873 0.03429351 -0.054611478 0.009434101 -0.08013445 0.06558797
-0.09027533 0.035250068 -0.037156466 -0.035237096 0.068199135 -0.07189531 -0.05824315 -0.058848053
-0.053499974 0.034644738 -0.023313815 0.08487913 -0.03983743 0.04964092 0.049812205 0.07201484
-0.053027865 0.021135276 0.061664637 -0.092411384 -0.013979043 -0.004212038 0.03703402 0.04461814
-0.08246133 -0.08169618 -0.10627978 0.019036824 0.042798918 0.078919835 -0.011997479 0.042805552
0.0034344695 0.07326994 -0.07446602 0.0332656 0.072968274 -0.07384405 0.033118684 0.05359193
0.032690458 -0.041696712 0.018624742 -0.076674856 -0.0075060315 -0.03976081 -0.07049185 -0.0032789689
0.0017807274 0.07509843 -0.07328401 -0.045010045 -0.043803886 -0.06207987 0.032682646 -0.061037775
0.058520142 -0.02597931 -0.05073832 0.036501754 0.072555065 -0.063261725 0.0593708 0.044359393
0.0132575035 0.046939135 0.09480899 0.02845586 0.034913108 -0.002684243 0.019008147 -0.06642637
-0.020694882 0.046466127 0.027152909 0.08027861 -0.05348854 -0.042491537 -0.042370223 -0.039124716
-0.074905664 0.035926048 0.010848969 0.070397876 -0.07658244 -0.026496058 -0.042253375 -0.00021678598
0.0022175063 -0.035232097 0.0070754825 -0.04959056 0.0549907 -0.033692013 -0.0018314273 0.040758967
0.042560466 -0.08898546 0.04075919 -0.006317785 0.0028109835 -0.07174458 -0.029030422 -0.008796311
00000000: 7706 42bd 811d 27bd df8f 093c 201b acbd
00000010: 8972 f7bc c742 193d 44fd 673a 5037 4bbc
00000020: 0c03 59bd ef35 8bbd 2312 e33c 9943 1abd
00000030: ddfc 33bd 5209 b63d 5be5 803d 81ec ac3d
00000040: 701e e7bb 075e 0bbc 7fe5 943d 9847 933c
00000050: 5e52 a3bd a44f 8d3d 6c7e abbc 5f6c 873d
00000060: 1a81 ddbc b42b 84bd d352 13bd fd78 93ba
00000070: 382a 373b 097a 813a 9c7b 44bd 3ae4 35bb
00000080: 4f59 82bd 6c04 3cbd 9db7 4cbc 77b9 723d
00000090: ddb5 bcbc ea24 8c3c fbc2 b63d fd4f 043d
000000a0: b3dd 8bbd d5b4 8d3d 6a45 9ab9 49ba 7e3d
000000b0: 53ee 8d3d 9e3d 57bd 09bd e6bc be03 adbb
000000c0: b21f 8dbd f8f2 dbbc 1ea7 bfbd 9809 88bd
000000d0: c2bc 063c 5979 a5bd 586a 6e3d 5490 98bd
000000e0: c7a9 943d 881f 88bc 2872 a73d 09a2 7fbd
000000f0: e63b a43c 8846 cf3c 335b 553d a7c7 273d
00000100: fa12 233d 1af7 783c 9710 bf38 4e2f 87bd
00000110: 1cec 573d 7cb2 61bd 6f1b 28bd 9cca 73bd
00000120: 626d b53d d9c5 103c 186e a2ba 48e4 42bd
00000130: 23bc 8c3d fb35 2cbd 67aa 49bd 17d7 ae3d
00000140: ee68 9239 7464 8a3b 41ce a0bd 380a a5bd
00000150: b584 873c 5dc3 b1bc 8dc9 14bc 9409 823d
00000160: 232e 883d 5c27 293d 8d15 b83d 3bb5 ca3b
00000170: 38be eabc f57d 6bbb 8cd5 153d d09d 03bc
00000180: 7414 263d a07a 98bd 14f4 043d 794e b5bd
00000190: b287 4abd b08b 54bd eae3 4bbd 03d2 d6bc
000001a0: bf22 853d e077 293d de19 903d 93d3 073d
000001b0: 830f 96bd 2ade beb9 e3ca 333d 570a 9fbc
000001c0: 40b3 4dbd a7ec 183c c392 27bd f70d a53d
000001d0: 5d75 143d 6db2 8f3d 3179 6ebc 6eac 903c
000001e0: d8e8 85bd 2403 e93c cc45 bcbb 0bba 003d
000001f0: 0200 9e3a 700b 68bd 71ae 493d 4ca1 4fbd
00000200: db48 523d 5fa1 803d 6de7 a2ba 6e53 05bd
00000210: a4b1 253d 5d2a 7a3d ab8a 0c3b 206f 3bbd
00000220: 9e23 c03b 8c76 01bc 1bdb 9cbd 3c52 ac3d
00000230: ff44 8a3d e3e3 65bd 07bf 50bd 2f14 f7bc
00000240: 74f7 2abb dd13 8b3d 5566 423d 5a77 0c3d
00000250: 49b0 5fbd 7d91 1a3c 881d a4bd fc52 863d
00000260: 46e2 b8bd 6062 103d 6131 18bd c654 10bd
00000270: fdab 8b3d d93d 93bd 5f90 6ebd a80a 71bd
00000280: ca22 5bbd a4e7 0d3d 9dfc bebc 1cd5 ad3d
00000290: 932c 23bd 4754 4b3d e207 4c3d 847c 933d
000002a0: bf33 59bd e323 ad3c 0f94 7c3d 2e42 bdbd
000002b0: 5b08 65bc 2305 8abb fcb0 173d 83c1 363d
000002c0: 7ce1 a8bd 5450 a7bd 37a9 d9bd 1df3 9b3c
000002d0: eb4d 2f3d b9a0 a13d 1391 44bc e054 2f3d
000002e0: d614 613b 8d0e 963d a481 98bd 8341 083d
000002f0: 6470 953d 8d3b 97bd 75a7 073d 3683 5b3d
00000300: 6ee6 053d 2cca 2abd ea92 983c b507 9dbd
00000310: 28f5 f5bb 3bdc 22bd 085e 90bd f8e3 56bb
00000320: 4c67 e93a 35cd 993d ed15 96bd 745c 38bd
00000330: b46b 33bd 7647 7ebd 3dde 053d bf02 7abd
00000340: d1b2 6f3d 90d2 d4bc fcd2 4fbd dd82 153d
00000350: c097 943d 5d8f 81bd cc2e 733d 32b2 353d
00000360: 0036 593c 4043 403d 372b c23d 441c e93c
00000370: 0c01 0f3d 20ea 2fbb f9b6 9b3c 8c0a 88bd
00000380: 5088 a9bc 4453 3e3d c76f de3c 1d69 a43d
00000390: cd16 5bbd 9b0b 2ebd 668c 2dbd 3d41 20bd
000003a0: 2468 99bd 3127 133d e0bf 313c c32c 903d
000003b0: 41d7 9cbd 430e d9bc e011 2dbd 0b51 63b9
000003c0: 9553 113b 884f 10bd 73d9 e73b 791f 4bbd
000003d0: ee3d 613d a300 0abd 810c f0ba e0f2 263d
000003e0: e253 2e3d 023e b6bd 1cf3 263d 6c05 cfbb
000003f0: 7a38 383b d3ee 92bd 35d1 edbc 671e 10bc

rnn.weight_ih_l1 f4 [512, 128]
-0.058755726 0.020082636 0.0005155943 0.005719075 -0.018210016 -0.054549668 0.08245266 -0.021257317
0.06610572 0.021312786 0.0011560378 0.05051043 -0.015706377 -0.06553928 -0.06766386 0.04115406
0.028662786 -0.06368661 -0.05543217 -0.02386185 -0.018300314 -0.012137819 -0.023641987 -0.056319185
-0.059275176 -0.08145881 0.0135892015 -0.03490229 0.022303954 0.0475015 -0.056560546 0.068712294
-0.065503486 0.054499365 0.04562228 -0.013625228 0.035611838 0.066714525 0.0136836665 0.011978116
0.014559669 0.05831614 0.009917532 0.030142331 -0.015451993 0.06368802 -0.0821002 0.03847034
0.009661985 0.07539873 -0.0038629237 0.025355715 -0.032470036 -0.03354539 -0.06153622 0.07076248
-0.07619695 0.005876968 -0.036929186 0.04008244 -0.06017269 -0.06499944 0.031508535 0.07875066
-0.06416004 0.045001283 -0.047486484 -0.038055178 0.048933182 0.03497739 0.00049901346 -0.026323168
-0.007016772 -0.08917701 0.028036604 0.073319465 -0.017944243 -0.08119555 -0.06475919 -0.044588048
0.0979892 0.06983997 -0.014777895 0.023642508 0.038204577 -0.019855032 0.06939165 0.037009384
-0.029917823 -0.02466871 0.031204311 -0.0041162595 -0.0567021 -0.08780373 0.046724763 0.03536056
0.029114405 -0.061041143 0.0092194015 0.083610244 -0.054246955 0.07018118 -0.087878 -0.033354387
-0.06962816 0.009006821 0.0038957505 -0.008606297 -0.03926165 -0.06263462 0.03922187 -0.021510348
0.0135082835 0.07741459 0.047827955 -0.080284566 0.031952027 0.01372619 -0.017634703 0.037023347
0.06886291 -0.03068219 0.06218263 -0.06864586 -0.0075909705 -0.059055813 0.085281335 0.017510468
0.020283787 0.0054474873 0.0006935951 -0.057030194 -0.01783189 0.046865344 0.06466949 -0.07824948
-0.033474658 -0.001395854 -0.0685172 0.009229002 -0.059188083 0.07997509 0.022711419 0.0030139936
0.04878572 -0.013553826 -0.026518708 0.08666284 0.011967365 -0.07308272 0.0402566 0.052399732
-0.049667202 -0.022990864 0.08875155 -0.02478022 -0.055626478 0.04182818 0.0333914 0.016988752
-0.015579664 -0.0114355795 -0.016030166 0.055554487 -0.0825966 -0.07205286 -0.024462994 0.09307891
0.09531677 0.066395625 0.01596103 -0.00025690583 -0.07211413 -0.019867029 -0.031234011 0.07843289
-0.011588243 0.017279657 -0.038242914 0.061167337 -0.037993632 -0.07226329 0.06510472 -0.09110488
0.003288358 0.052371163 0.07808643 0.07510701 -0.024808336 0.037883367 -0.034479324 0.05840941
0.044196248 0.016209884 0.058786996 -0.066737495 -0.03476668 -0.034539975 0.019163804 0.034357622
-0.0040930184 0.032214552 0.03341897 -0.060427804 0.008932683 0.04402888 0.008407138 -0.09786942
0.07189153 0.018903125 0.0514506 0.0066547985 -0.08110075 -0.07474023 -0.036385518 0.013867812
0.041750047 0.08965759 -0.0031376756 -0.064251386 0.063056804 0.07412343 0.068942614 -0.06049891
0.07100163 0.032688443 -0.08280682 -0.050228044 0.07327392 -0.06734061 0.018991152 -0.046594065
0.04925099 -0.017668292 0.016370831 0.090590395 0.05103778 -0.016401395 0.03672052 0.025866495
0.039048094 0.07608371 0.065534584 -0.011382398 0.055664077 -0.018914416 -0.052220926 0.08251048
-0.0063061044 0.0061483625 0.054978333 0.034263324 -0.030378254 0.058792308 -0.08038321 -0.03429865
00000000: d8a9 70bd 5784 a43c f328 073a 1467 bb3b
00000010: 2c2d 95bc 796f 5fbd f1dc a83d d323 aebc
00000020: 7062 873d 2798 ae3c 3186 973a 06e4 4e3d
00000030: a9aa 80bc 7539 86bd 5a93 8abd 2991 283d
00000040: 38ce ea3c 206e 82bd d80c 63bd ed79 c3bc
00000050: 8aea 95bc b4dd 46bc d7ac c1bc f2ae 66bd
00000060: 87ca 72bd e0d3 a6bd 3ea5 5e3c b4f5 0ebd
00000070: c8b6 b63c ef90 423d 08ac 67bd 08b9 8c3d
00000080: b126 86bd ba3a 5f3d 6ede 3a3d 593c 5fbc
00000090: b8dd 113d a0a1 883d 7531 603c dc3f 443c
000000a0: ae8b 6e3c e8dc 6e3d 257d 223c 0ded f63c
000000b0: 5b2a 7dbc dd6e 823d 2624 a8bd 1393 1d3d
000000c0: 4d4d 1e3c a66a 9a3d 1b29 7dbb cab6 cf3c
000000d0: 4dff 04bd e466 09bd 670d 7cbd ebeb 903d
000000e0: 260d 9cbd 9593 c03b 0f43 17bd 7c2d 243d
000000f0: a377 76bd 6d1e 85bd 180f 013d 0748 a13d
00000100: 5766 83bd 4453 383d 3081 42bd bfdf 1bbd
00000110: 296e 483d 7444 0f3d 3ad0 023a afa3 d7bc
00000120: f3ec e5bb 70a2 b6bd 05ad e53c 8428 963d
00000130: ceff 92bc da49 a6bd 77a0 84bd f5a1 36bd
00000140: 90ae c83d 4208 8f3d fc1e 72bc efad c13c
00000150: 677c 1c3d 05a7 a2bc 361d 8e3d 2797 173d
00000160: 3916 f5bc 0916 cabc 2fa0 ff3c b0e1 86bb
00000170: 7640 68bd 71d2 b3bd 7762 3f3d 3cd6 103d
00000180: 5581 ee3c 4706 7abd f90c 173c d93b ab3d
00000190: 0e32 5ebd 27bb 8f3d 62f9 b3bd 9c9e 08bd
000001a0: 3599 8ebd 5891 133c d94f 7f3b 6d01 0dbc
000001b0: d3d0 20bd 9446 80bd 1da7 203d 7836 b0bc
000001c0: d951 5d3c 8a8b 9e3d 3fe7 433d 3c6c a4bd
000001d0: 21e0 023d d0e3 603c a776 90bc cba5 173d
000001e0: ff07 8d3d 3759 fbbc 37b3 7e3d 3396 8cbd
000001f0: adbd f8bb 82e4 71bd fba7 ae3d 1d72 8f3c
00000200: 2f2a a63c d680 b23b 61d2 353a 7e98 69bd
00000210: 2f14 92bc e0f5 3f3d 7071 843d 4341 a0bd
00000220: b91c 09bd 17f5 b6ba bf52 8cbd 3d35 173c
00000230: 346f 72bd fbc9 a33d 4c0d ba3c 6c86 453b
00000240: 89d3 473d de10 5ebc c33d d9bc 497c b13d
00000250: c412 443c 65ac 95bd 1be4 243d 1aa1 563d
00000260: d66f 4bbd 5657 bcbc 5fc3 b53d e3ff cabc
00000270: 97d8 63bd 0754 2b3d 6cc5 083d ff2b 8b3c
00000280: d941 7fbc 4c5c 3bbc b251 83bc 1a8d 633d
00000290: 6828 a9bd 7390 93bd 9e66 c8bc 28a0 be3d
000002a0: 7035 c33d 6efa 873d b5c0 823c 51b1 86b9
000002b0: 93b0 93bd 2ec0 a2bc 78de ffbc 6ca1 a03d
000002c0: 9ddc 3dbc 118e 8d3c 9aa4 1cbd 9a8a 7a3d
000002d0: 369f 1bbd c7fe 93bd a055 853d 3295 babd
000002e0: 7e81 573b 2583 563d c7eb 9f3d b4d1 993d
000002f0: da3a cbbc 972b 1b3d 313a 0dbd b53e 6f3d
00000300: 2007 353d 97ca 843c a2ca 703d abad 88bd
00000310: 8267 0ebd ca79 0dbd 69fd 9c3c 94ba 0c3d
00000320: ba1e 86bb 68f3 033d 54e2 083d 2583 77bd
00000330: 635a 123c a057 343d 18be 093c c36f c8bd
00000340: de3b 933d bada 9a3c ddbd 523d 7f10 da3b
00000350: 2618 a6bd 6811 99bd fb08 15bd d235 633c
00000360: 1902 2b3d 669e b73d 76a1 4dbb 3b96 83bd
00000370: ed23 813d 06ce 973d c931 8d3d b4cd 77bd
00000380: 4d69 913d 51e4 053d 9f96 a9bd ecbb 4dbd
00000390: a310 963d e0e9 89bd 5593 9b3c 6bd9 3ebd
000003a0: 68bb 493d 18bd 90bc 1f1c 863c 7587 b93d
000003b0: fe0c 513d 385c 86bc 4268 163d f9e5 d33c
000003c0: e5f0 1f3d c7d1 9b3d ff36 863d 3d7d 3abc
000003d0: 0400 643d 68f2 9abc 9ce5 55bd 41fb a83d
000003e0: 70a3 cebb 3478 c93b f630 613d b357 0c3d
000003f0: d1db f8bc 34d0 703d f49f a4bd be7c 0cbd

rnn.weight_hh_l1 f4 [512, 128]
0.05755754 -0.0019888016 0.08043792 0.06909433 -0.05588883 0.006337324 -0.0041734637 0.04762551
0.0075459257 -0.06245021 -0.051996335 0.041029643 0.039857343 -0.06048237 0.04879372 -0.075574435
0.045922633 0.036444537 0.015074723 0.04538915 -0.046619903 -0.022020746 0.0465379 -0.028505327
0.00827693 -0.0067699295 -0.010151578 -0.050737984 -0.038009312 0.021826623 -0.029769272 -0.079128996
0.09071335 -0.028074127 0.0067022494 -0.01818402 0.085292734 0.08365972 -0.08406091 -0.08139981
0.037404824 0.050954178 0.076397896 -0.059527736 -0.028413292 -0.02762445 0.08929207 0.03825755
0.07730959 0.074956395 -0.06391882 -0.05682325 0.025334893 -0.03983653 0.076582015 -0.03204513
0.031166503 -0.0112042315 -0.043915782 0.07686135 0.06716416 -0.032232467 0.02519066 0.056896582
0.08959277 0.051099446 -0.079855606 0.08256076 0.0023110157 -0.03244446 0.049059507 -0.050605264
-0.060253818 -0.04287865 -0.071505554 0.036441676 -0.025862353 0.009998243 0.053408403 0.05503835
0.035011787 -0.04999709 0.08618959 0.066178344 0.012380874 -0.03149746 0.08023797 -0.043203954
-0.024003705 0.041651852 0.01577881 -0.06609204 0.07490594 0.0037519538 0.016209442 -0.06498706
-0.025326328 -0.022053804 -0.056305006 -0.072381355 -0.05852222 0.07342985 -0.08084519 -0.034056127
0.050748955 -0.049425896 0.065016165 0.022942895 0.0030537138 0.03466911 -0.025254944 0.057595193
0.021409715 -0.052325062 -0.038452405 0.08066529 -0.06959933 0.050912842 -0.020909952 -0.043730106
-0.05795205 0.03897662 0.049714778 -0.00936985 0.055512358 -0.07832661 0.06440671 -0.0153384125
0.06911892 -0.07303427 0.06694093 0.023959681 -0.061485074 -0.07739432 0.025208902 -0.03804868
0.0037079991 0.003405473 0.03292377 -0.012728846 -0.040279437 -0.0171114 -0.015061279 -0.05054396
-0.0497566 0.070257835 -0.033025373 -0.06800346 -0.042998824 0.01017595 0.020563161 -0.031910136
-0.06834934 -0.06379813 0.012240044 0.06987115 0.005798433 0.0569863 0.045153383 -0.015820276
0.052924972 -0.014913894 -0.0054148934 -0.038362667 -0.025955262 0.03566603 -0.031477064 0.08234535
0.07701976 -0.05029511 -0.07458096 0.06457447 0.010301457 0.0064886594 -0.06856294 0.07001361
0.040359046 0.07641759 -0.041197218 -0.023548204 0.0076559703 -0.0521751 -0.078162014 0.06170625
0.026643513 -0.06546916 0.053049497 0.07230062 0.062076338 -0.048720106 0.055133995 0.06729713
-0.020454263 -0.072130375 -0.05810303 0.013206532 -0.0027454216 -0.044992335 -0.051025454 0.036581326
0.011570548 0.044197932 -0.05733672 -0.02361699 -0.04077782 -0.07944929 -0.025799312 -0.04146022
0.024308179 -0.042476248 0.05437915 -0.064600915 -0.053568736 -0.03499535 -0.075301796 0.06764768
0.05322126 0.0486433 -0.05981424 -0.020489268 0.029377097 0.02509317 0.010892044 0.043522142
-0.058438648 0.050670974 0.048972253 -0.01993041 -0.08973386 -0.07230024 0.06748054 -0.052988917
0.07873322 -0.007086153 -0.08124619 0.07821637 0.030084813 -0.0864325 0.05179582 0.055870835
0.059969053 -0.024810081 -0.0006993462 -0.045172974 0.033376288 -0.031334996 -0.08781702 -0.017894868
-0.059300892 0.032178693 0.083413824 -0.04441127 -0.022247132 0.094320655 0.035876956 0.04567732
00000000: 74c1 6b3d 8e56 02bb a3bc a43d 5481 8d3d
00000010: b0eb 64bd 54a9 cf3b 8dc1 88bb f712 433d
00000020: d043 f73b cbcb 7fbd 1cfa 54bd b30e 283d
00000030: 7441 233d 5dbc 77bd ecdb 473d c5c6 9abd
00000040: 5f19 3c3d de46 153d f9fb 763c f9e9 393d
00000050: 83f4 3ebd da64 b4bc 869e 3e3d 0184 e9bc
00000060: f69b 073c 49d6 ddbb ce52 26bc a2d2 4fbd
00000070: a7af 1bbd bfcd b23c b0de f3bc 620e a2bd
00000080: ecc7 b93d b6fb e5bc 8b9e db3b a7f6 94bc
00000090: f5ad ae3d ca55 ab3d 2028 acbd f2b4 a6bd
000000a0: cd35 193d 54b5 503d 8076 9c3d 5bd3 73bd
000000b0: fec2 e8bc ac4c e2bc c3de b63d f3b3 1c3d
000000c0: 7e54 9e3d bd82 993d dfe7 82bd 7fbf 68bd
000000d0: 1f8b cf3c a12b 23bd 08d7 9c3d c141 03bd
000000e0: e550 ff3c f491 37bc 09e1 33bd 7c69 9d3d
000000f0: 5d8d 893d 3106 04bd a55c ce3c 640c 693d
00000100: 6a7c b73d a74d 513d 568b a3bd 9e15 a93d
00000110: 6974 173b 7be4 04bd 9ff2 483d 7747 4fbd
00000120: b5cc 76bd 86a1 2fbd 8171 92bd de43 153d
00000130: 49dd d3bc accf 233c c5c2 5a3d e56f 613d
00000140: 8568 0f3d c0c9 4cbd 2b84 b03d 8388 873d
00000150: 26d9 4a3c 7b03 01bd ce53 a43d a1f6 30bd
00000160: 6ba3 c4bc 229b 2a3d 9042 813c 435b 87bd
00000170: 4968 993d 57e3 753b aac9 843c f017 85bd
00000180: 2979 cfbc 2eaa b4bc 14a0 66bd ad3c 94bd
00000190: ffb4 6fbd 6462 963d 2a92 a5bd 707e 0bbd
000001a0: 23de 4f3d cf72 4abd 3227 853d bdf2 bb3c
000001b0: d120 483b 3201 0e3d 75e3 cebc f0e8 6b3d
000001c0: 6d63 af3c ce52 56bd 4580 1dbd d833 a53d
000001d0: 188a 8ebd fc89 503d 594b abbc 571e 33bd
000001e0: 215f 6dbd f3a5 1f3d b9a1 4b3d 0084 19bc
000001f0: ed60 633d b469 a0bd aae7 833d f74d 7bbc
00000200: 388e 8d3d fe92 95bd 5418 893d 1847 c43c
00000210: c6d7 7bbd ea80 9ebd e682 ce3c efd8 1bbd
00000220: e701 733b 5b2e 5f3b 13db 063d a68c 50bc
00000230: 0dfc 24bd 352d 8cbc 95c3 76bc 2f07 4fbd
00000240: 94cd 4bbd 57e3 8f3d 9d45 07bd 6645 8bbd
00000250: 891f 30bd 07b9 263c 1374 a83c 34b4 02bd
00000260: bdfa 8bbd 98a8 82bd 778a 483c 9b18 8f3d
00000270: c800 be3b 776a 693d c1f2 383d 8699 81bc
00000280: dbc7 583d 6859 74bc 6b6f b1bb 2c22 1dbd
00000290: 21a0 d4bc 8b16 123d 18ee 00bd aea4 a83d
000002a0: 89bc 9d3d 3f02 4ebd e7bd 98bd 9f3f 843d
000002b0: 71c7 283c d29e d43b ba6a 8cbd 4c63 8f3d
000002c0: 874f 253d d380 9c3d 6abe 28bd 2ae8 c0bc
000002d0: efde fa3b 8fb5 55bd 6813 a0bd b1bf 7c3d
000002e0: 7f43 da3c b214 86bd 6e4a 593d 5912 943d
000002f0: c243 7e3d bc8e 47bd 2fd4 613d 14d3 893d
00000300: b38f a7bc 17b9 93bd 71fd 6dbd 3660 583c
00000310: 88ec 33bb e249 38bd 1100 51bd 4dd6 153d
00000320: 6592 3d3c e408 353d e9d9 6abd 6b78 c1bc
00000330: a506 27bd 4fb6 a2bd 1459 d3bc 31d2 29bd
00000340: f221 c73c 93fb 2dbd acbc 5e3d 7c4d 84bd
00000350: e46a 5bbd 4957 0fbd d437 9abd de8a 8a3d
00000360: 89fe 593d 323e 473d c7ff 74bd 1cd9 a7bc
00000370: 3da8 f03c 3190 cd3c 8b74 323c 4644 323d
00000380: 5d5d 6fbd 5e8c 4f3d 2197 483d 1945 a3bc
00000390: 63c6 b7bd 2612 94bd 3d33 8a3d e80a 59bd
000003a0: e23e a13d f632 e8bb 6764 a6bd e72f a03d
000003b0: 6d74 f63c 8603 b1bd db27 543d d1d8 643d
000003c0: 1ca2 753d 833e cbbc 5454 37ba 4c07 39bd
000003d0: 93b5 083d 2059 00bd 69d9 b3bd 4298 92bc
000003e0: 7ee5 72bd cecd 033d ded4 aa3d 98e8 35bd
000003f0: 9e3f b6bc 302b c13d b7f3 123d 2418 3b3d

rnn.bias_ih_l1 f4 [512]
-0.067227334 -0.029850774 -0.07154476 -0.05055305 -0.030367918 -0.021870306 0.040938452 0.062331844
0.011320153 0.05623966 -0.00035445264 -0.011876295 -0.022279613 0.028779376 0.004323434 0.0794382
-0.012966778 0.057245012 0.08891496 0.06973299 -0.07514291 -0.044089414 0.001147594 -0.031044394
-0.054914538 0.018569587 -0.014269038 0.058747284 -0.022433987 -0.008517633 -0.041620307 0.10096327
0.088174835 -0.06646902 -0.01225733 0.072662905 0.0044113053 -0.025971508 -0.066541344 0.01062447
0.04266173 0.097620994 0.033076447 -0.010532608 -0.0059305923 -0.05642794 -0.043666027 0.004169142
0.024416864 0.024627538 -0.06840879 -0.08457355 0.024648238 0.0100708 -0.036975507 0.01308445
0.0044242237 0.051076528 0.027762003 -0.0052497317 0.076487996 -0.04262333 0.09440078 0.008033568
0.008612857 -0.04843126 0.054857656 0.0072444524 0.025099128 0.010775952 -0.017527279 0.061885566
-0.043921523 0.030936528 -0.06959893 -0.07287622 -0.015222099 0.009124206 0.025678199 -0.04491644
0.017380904 0.0649121 -0.09956117 0.07631014 -0.036467504 -0.008542655 0.074909315 0.080914736
-0.0819706 0.088196106 -0.015351747 -0.0451128 -0.03252821 -0.029055173 0.005428993 0.037233964
-0.08584833 -0.055249836 0.008232944 0.090881854 -0.055028353 0.0054643047 -0.021330854 -0.074995734
-0.012628752 -0.055302687 0.09599574 0.08420043 0.088798136 -0.048112545 -0.019594532 0.091726065
-0.06423611 -0.028103286 -0.063748375 0.03780561 -0.01950173 0.10122671 -0.044904694 0.040673513
0.016879437 -0.037172478 0.029262697 0.091835625 0.008787502 0.06144392 0.051307917 -0.054381512
-0.051060367 0.06685094 0.017205004 0.004382355 0.02760119 0.041665815 0.08005577 0.0710853
0.10010705 0.07917821 -0.08246078 -0.05328431 -0.017875472 -0.06414937 0.050031856 0.073690504
0.0046374113 -0.033983253 -0.023869371 0.037588377 -0.08035329 0.015862899 0.004081797 0.016978657
0.084906146 -0.04060366 -0.06252956 -0.07707303 0.07007862 -0.0024632504 0.082490556 0.10001793
-0.070666224 0.03759435 0.008792376 0.03367345 -0.0460226 -0.0055902163 -0.07370981 0.035447557
-0.018518548 -0.052298427 -0.066804275 -0.0721415 -0.037057888 -0.0508426 -0.030114504 0.04476851
-0.01958159 0.034495465 -0.07659399 -0.031024236 0.057212513 -0.07663644 0.04177184 0.06628713
0.02246069 0.08815127 -0.012419194 -0.033947308 0.055340294 -0.03170652 0.095746055 -0.0142193595
0.03912562 0.021868147 0.0954253 -0.0068494445 -0.062444225 0.05871532 -0.06780581 -0.038023796
-0.046133056 -0.035806946 0.08484876 0.023002753 0.051513117 0.07844161 0.06903659 0.039674904
-0.06023989 0.04697606 -0.03684891 0.051161677 -0.023137538 0.0310594 -0.07205306 0.024560366
-0.034963977 0.06083428 0.06912558 -0.0146382125 -0.088388205 -0.071368665 0.083125904 -0.021757692
-0.03617071 -0.032411188 0.027549483 -0.063873224 0.06727486 -0.059296343 -0.05756543 -0.029169176
-0.004406381 -0.052227598 0.0025021404 0.06457781 0.041833762 -0.081092924 0.0100346375 0.06463149
-0.025264366 0.009323016 -0.039845046 -0.019748753 0.01503638 0.058756825 -0.00795291 0.036191054
-0.07490074 -0.05357573 -0.009959334 0.025253886 -0.03994081 0.024375468 0.065572426 0.018892191
00000000: 7cae 89bd 9c89 f4bc 0f86 92bd b710 4fbd
00000010: 24c6 f8bc 5b29 b3bc 14af 273d ad4f 7f3d
00000020: 2a78 393c 8f5b 663d d4d5 b9b9 cb94 42bc
00000030: bc83 b6bc bac2 eb3c 98ab 8d3b 7fb0 a23d
00000040: 9c72 54bc bf79 6a3d 0c19 b63d 2bd0 8e3d
00000050: 87e4 99bd 1a97 34bd dd6a 963a d050 febc
00000060: 11ee 60bd 3f1f 983c afc8 69bc fea0 703d
00000070: 7bc7 b7bc 8b8d 0bbc 0e7a 2abd d5c5 ce3d
00000080: 0295 b43d e920 88bd f8d2 48bc 4ad0 943d
00000090: b68c 903b 33c2 d4bc d446 88bd 4212 2e3c
000000a0: 11be 2e3d 84ed c73d 2b7b 073d f690 2cbc
000000b0: 6a55 c2bb fc20 67bd 26db 32bd 4c9d 883b
000000c0: e005 c83c b1bf c93c e819 8cbd e634 adbd
000000d0: 1aeb c93c ffff 243c a173 17bd 2960 563c
000000e0: 14f9 903b 9f35 513d 246d e33c f105 acbb
000000f0: bda5 9c3d cd95 2ebd 3255 c13d 3a9f 033c
00000100: f11c 0d3c db5f 46bd 6cb2 603d df62 ed3b
00000110: b09c cd3c 9e8d 303c 5e95 8fbc b87b 7d3d
00000120: 0ee7 33bd 9a6e fd3c e289 8ebd 2140 95bd
00000130: 1c66 79bc b27d 153c 165b d23c 4dfa 37bd
00000140: 6662 8e3c a3f0 843d bae6 cbbd 7e48 9c3d
00000150: f35e 15bd 7ef6 0bbc 0e6a 993d a0b6 a53d
00000160: 34e0 a7bd 29a0 b43d e585 7bbc 33c8 38bd
00000170: 4d3c 05bd 1d05 eebc b2e5 b13b a482 183d
00000180: 40d1 afbd a74d 62bd 78e3 063c 4420 ba3d
00000190: 6965 61bd e90d b33b 0bbe aebc 5d97 99bd
000001a0: d3e8 4ebc 1285 62bd 6a99 c43d 4671 ac3d
000001b0: ccdb b53d a911 45bd b684 a0bc e0da bb3d
000001c0: 398e 83bd dd38 e6bc 828e 82bd 0eda 1a3d
000001d0: 18c2 9fbc f34f cf3d fced 37bd 4599 263d
000001e0: bf46 8a3c 2b42 18bd 53b8 ef3c 5114 bc3d
000001f0: 74f9 0f3c 9fac 7b3d 4028 523d 26bf 5ebd
00000200: ad24 51bd 25e9 883d 82f1 8c3c dc99 8f3b
00000210: e41b e23c c6a9 2a3d 48f4 a33d 2b95 913d
00000220: ed04 cd3d 2f28 a23d 33e1 a8bd a640 5abd
00000230: 956f 92bc bf60 83bd 34ee 4c3d 0ceb 963d
00000240: 6df5 973b 0632 0bbd b389 c3bc 45f6 193d
00000250: 4490 a4bd e9f2 813c 98c0 853b d316 8b3c
00000260: 46e3 ad3d 0650 26bd 7f0f 80bd 77d8 9dbd
00000270: 6185 8f3d 7c6e 21bb cff0 a83d 33d6 cc3d
00000280: 74b9 90bd 88fc 193d e60d 103c 2ced 093d
00000290: 3282 3cbd 222e b7bb 2bf5 96bd 7531 113d
000002a0: 36b4 97bc e036 56bd aed0 88bd ecbe 93bd
000002b0: 03ca 17bd 5540 50bd b1b2 f6bc 2f5f 373d
000002c0: 9269 a0bc 1e4b 0d3d 4fdd 9cbd 8a26 febc
000002d0: ab57 6a3d 91f3 9cbd f318 2b3d 8cc1 873d
000002e0: 7bff b73c a788 b43d e079 4bbc 550c 0bbd
000002f0: 81ac 623d b2de 01bd 8216 c43d 51f8 68bc
00000300: 3042 203d d424 b33c 576e c33d 4e71 e0bb
00000310: 84c5 7fbd 7a7f 703d c6dd 8abd d7be 1bbd
00000320: 04f6 3cbd 4eaa 12bd 30c5 ad3d 4570 bc3c
00000330: 6bff 523d ffa5 a03d 0e63 8d3d 2782 223d
00000340: 1abe 76bd f869 403d e2ee 16bd e88e 513d
00000350: ef8a bdbc 4870 fe3c 8e90 93bd d232 c93c
00000360: 6336 0fbd 5e2d 793d b691 8d3d 1dd5 6fbc
00000370: e004 b5bd bc29 92bd ea3d aa3d 303d b2bc
00000380: bd27 14bd 98c1 04bd 74af e13c f7cf 82bd
00000390: 67c7 893d b9e0 72bd bac9 6bbd 32f4 eebc
000003a0: 6763 90bb 9bec 55bd f3fa 233b 5f41 843d
000003b0: e159 2b3d 0c14 a6bd 5268 243c 845d 843d
000003c0: 37f7 cebc 90bf 183c 8f34 23bd 23c8 a1bc
000003d0: 265b 763c ffaa 703d ec4c 02bc 123d 143d
000003e0: 8f65 99bd 3a72 5bbd 792c 23bc 3de1 ce3c
000003f0: fa98 23bd 10af c73c d64a 863d ccc3 9a3c
