backend/trained_models/EBL_LSTM_model_state_dict.pth (torch, 167939 bytes, 5 tensors)

rnn.weight_ih_l0 f4 [400, 1]
00000000: dafa 36bb c8e6 b4bc af3b 83bd 1bf3 143d
00000010: 59b3 103d e7df 953d ed31 d63d 948a 5fbd
00000020: 166c 9e3c cb8f 4cbd 794d 4f3c 6494 d03d
00000030: e7bb c5bc 1d6b 1fbd d1bd 033d 59f7 a83d
00000040: c8a3 813c 9be2 ce3c a6df 9abc 7ed1 bd3d
00000050: efd1 a93c 081f 15bd be4b 82bd 7c33 88bd
00000060: f46b 2abd 71fa 48bb 243d 52bd 1e61 2f3c
00000070: bb33 d43d 8e6c 283d 3845 c8bb 0567 a03a
00000080: e2b1 61bd 9a21 563d 29ed 423c d7f0 323d
00000090: 2b83 593d ad23 ca3d c9e5 3f3d 3c91 943d
000000a0: 4383 8b3d 0505 0c3d ef69 893c ddb5 a33c
000000b0: 6ebf eb3c 140f 0dbd b97c e53d 7638 b7bd
000000c0: 843b 84bd bd48 96bd 1192 ebbc 832b 2b3c
000000d0: 0588 fc3d dc4b bbbc 8e7d 8bbd 874d ad3c
000000e0: bcd2 14bd 3469 213c 8fb9 59bd d68d 9abc
000000f0: bcd6 4a3d 44d7 923d 9e0c 67bd bbd7 053d
00000100: 2860 f93c 74fa f8bd 557b f73d a8a1 c8bd
00000110: 08b5 4ebd e016 64bd 871c 1fbd f07e c53d
00000120: 6d17 013e 2068 bf3d f43b 9cbd 6ac9 843d
00000130: 694c eabc 298f c6bd 09c4 85bd 483a 453d
00000140: 80c4 8e3d ebc7 6b3c ea9c 24bd 1bcd dd3d
00000150: 5143 fcbd af4c 0abe 15da 14bd 64c6 43bd
00000160: ccfb 5bbd 72bb 383b f3ed 9f3d 1cc7 243c
00000170: 163b be3c f247 ad3c ef4c 38bd 1d36 d63d
00000180: f8c1 88bb b6d6 e13d ddca c23d 4626 4f3d
00000190: 3a1e c2bc 3bb7 f7bc 45dd 803d 0df1 04be
000001a0: 8b4d ca3d 7b50 9f3d abde 7fbd 96ce d63d
000001b0: 4a5d c9bc 4bc2 92bc e2c6 a73d 3c8f a13a
000001c0: 7467 bdbc 03e4 833d f006 b6bc c566 583d
000001d0: 9195 713d 751c ce3d abf2 d63c a312 7dbd
000001e0: adf2 d83d bf49 71bc 1c53 15bd c12e e33c
000001f0: 80a5 44bd 0c17 57bc e2ae 95bd c024 813c
00000200: 7af8 813d 7758 7fbb 7e96 043c 74b6 e639
00000210: 4208 133d 280a a53c abd2 9bbc d2b9 c23d
00000220: f81c c1bb dd0e 75bd 82c0 8abd 2f8d 293c
00000230: 490c 91bb 77c2 b63d 8882 1d3d b834 f9bc
00000240: 152a a43d 8e40 ce3d db05 883d 9ba8 4e3d
00000250: 7e8c 68bc 339a babd d2a7 c33c 5919 173d
00000260: 4caa 8fbc f56d 793c f28b 95bd aa68 973d
00000270: 8e30 b73a 849a b5bc 0d67 a03d 53d1 89bd
00000280: 0dbc 003e 93a0 cb3d 812b f53d e3f5 0a3b
00000290: 3aaf 8abc 4dd9 563d 4564 fb3b ee5f 1ebc
000002a0: 181a 783d d1aa b03d 0170 923d beb5 e5bc
000002b0: 49db 9abc 32cd 0e3c 0462 8c3d 9f04 063e
000002c0: fcfe 88bc aab5 dfbd 6135 ea3d aa99 a9bd
000002d0: 7f6e b1bd 133b 363d 410c 8c3c e5b5 59bc
000002e0: caa2 663b 7c42 06be 6247 edbd ccf2 55bd
000002f0: 3f47 afbd 0f1e e0bc a766 dc3d 761c a7bd
00000300: ea1f b73c 76ce 9b3d 4ab9 a8bc f666 5abd
00000310: f066 c03d 5024 d93c 4718 db3d 44f3 faba
00000320: da33 543d 56d2 91bd 0d1b 8f3d 3bf0 523d
00000330: dcd9 00be 625f 3b3d 7096 9ebd 6e0d ff3d
00000340: db8c ecbc 3c69 fb3d bbad 883d f2e6 5c3d
00000350: ef9d c3bd 3f52 883d 504e b53d c95b e03d
00000360: 4ad0 ff3d db01 ae3c 1ba3 e23d 0e5a edbd
00000370: f071 eebd 9b54 883d d23a 423d 92e7 bcbd
00000380: 320c 33bd 9aed d1bd b687 65bd bce7 f4bc
00000390: ca87 5c3d e727 abbc 70f9 6abd ee64 dd3c
000003a0: ecde a7bd 025f edbd f76d 1e3d 0a05 863c
000003b0: 82cf 913d 1645 b2bd 8135 b2bd 469b 833d
000003c0: b795 d1bd acd0 96bd a728 8c3d 7d93 90bd
000003d0: 5be5 d0bd 5be5 ab3d 7b6e 983d c1a7 61bd
000003e0: 0be2 a03d cec0 a9bd 42ba aa3d 21d2 e83c
000003f0: 8def c8bd 2c90 413d 57fb 05be 0ead f73d
-0.0027920515 -0.022082701 -0.06407868 0.036364656 0.03532729 0.073180966 0.10458741 -0.054575518
0.019338649 -0.04994182 0.012652748 0.10184553 -0.02413745 -0.03892051 0.032163445 0.08250303
0.015825167 0.025254538 -0.018905472 0.09268473 0.020729987 -0.036406547 -0.06362103 -0.06650445
-0.04160686 -0.0030666853 -0.05132784 0.010704307 0.10361429 0.04111915 -0.006111767 0.0012237733
-0.055101283 0.05227814 0.011897364 0.043686714 0.053103607 0.09870086 0.04685 0.07254264
0.068121456 0.034184474 0.016774146 0.01998418 0.028777804 -0.034438208 0.112054296 -0.08946316
-0.06456664 -0.073380925 -0.028756173 0.010447386 0.12330631 -0.022863321 -0.06811057 0.021155132
-0.036333784 0.009851743 -0.053155478 -0.01886646 0.049521193 0.07169965 -0.056408517 0.03267644
0.030441359 -0.12157145 0.120840706 -0.097964585 -0.050465614 -0.055685878 -0.038845565 0.09643352
0.12606592 0.09346032 -0.07628623 0.06483729 -0.028600888 -0.096952744 -0.06531531 0.048151284
0.06971073 0.014390926 -0.040188707 0.108301364 -0.12317527 -0.13505815 -0.03634079 -0.047796622
-0.05370693 0.0028187898 0.07809057 0.010057237 0.023221534 0.02115247 -0.044995245 0.1045954
-0.0041735135 0.11027281 0.09511349 0.05057361 -0.023696054 -0.030238738 0.06292204 -0.12982579
0.098780714 0.07779022 -0.062468212 0.10488622 -0.024580617 -0.017914912 0.08192231 0.0012326012
-0.02312062 0.06439974 -0.022220105 0.052832384 0.05898053 0.100640215 0.02623876 -0.06178535
0.10593162 -0.014727055 -0.036456212 0.027732255 -0.048009396 -0.013128053 -0.07308747 0.015764594
0.06346221 -0.0038962641 0.008092521 0.00044004957 0.035896547 0.020146444 -0.019021353 0.09508099
-0.005893346 -0.059828628 -0.06774999 0.010348602 -0.0044265133 0.0892381 0.038454562 -0.030420646
0.08015839 0.100709066 0.06641742 0.050453763 -0.014193652 -0.091114424 0.023883734 0.036889408
-0.017537259 0.01522397 -0.07302083 0.0739301 0.0013976262 -0.022168405 0.078321554 -0.067293786
0.12571736 0.099427365 0.11971188 0.0021203689 -0.016929258 0.052453328 0.007671865 -0.009666426
0.06057176 0.08626331 0.07150269 -0.028040763 -0.018903391 0.008715915 0.068546325 0.130877
-0.016723149 -0.109233215 0.114359625 -0.08281262 -0.086636536 0.04448993 0.017095687 -0.013287996
0.0035192245 -0.131113 -0.11585881 -0.052233502 -0.08558511 -0.027358083 0.10761767 -0.08159725
0.022354085 0.07607739 -0.020596165 -0.053320847 0.09394634 0.026506573 0.1069799 -0.0019145985
0.051807262 -0.071201965 0.069875814 0.051498633 -0.12583107 0.04574526 -0.077435374 0.124537334
-0.028875759 0.12275931 0.066737615 0.053931184 -0.09551608 0.06656312 0.088528275 0.10955007
0.124909 0.02124112 0.11066266 -0.11589442 -0.116428256 0.06656762 0.047419377 -0.09223856
-0.043712802 -0.10250397 -0.056037627 -0.029895656 0.053840436 -0.02089305 -0.05736679 0.027025666
-0.08196816 -0.11590387 0.03867909 0.016359825 0.07119657 -0.08704583 -0.08701611 0.064261004
-0.10233634 -0.0736402 0.06843691 -0.07059381 -0.10199996 0.083933555 0.074429475 -0.055091623
0.07855614 -0.08288728 0.08336307 0.02842051 -0.09811316 0.047256634 -0.1308416 0.120935544

rnn.weight_hh_l0 f4 [400, 100]
00000000: 8a14 afba cd65 dcbd 8fb5 0abd c321 41bd
00000010: b05f d9bd 0098 74bd 8f0d aebd 1535 a7bd
00000020: 5fa7 fe3c c194 99bd aad6 62bd 4bd6 73bd
00000030: cc4b 72bd 5beb ba3d 4e29 0cbd 9cf9 c23c
00000040: 83e8 fdbc 502d 903d 97f9 983d 9acc 5d3d
00000050: ab96 b03d 4f59 5c3c b23c 7dba 5fb4 0fbb
00000060: 828b f43c 0eec 60bd 6549 ad3c 6c6b 413d
00000070: d4ca ce3d d574 32bc f0d7 3a3c 9e4b 55bc
00000080: 8603 1ebd c0e2 cabb c50c 09bd 6e15 033c
00000090: 33a3 10bd d9fb 9cbc eabf e43c 56e9 7fbd
000000a0: 74ea 5dbc 1d7e 88bd 706a 753d e007 ef3c
000000b0: 2d26 743d 806b 833c ad96 b33d 9307 5b3b
000000c0: c805 a83d 56ef 67bd 9737 893d fbd5 943c
000000d0: fd85 bdbd 9007 3bbd 5417 a4bd 02ea db3c
000000e0: ebe2 11bc 5fdf 84bd 7cf3 b03d 0c50 c03d
000000f0: db50 2ebd 5cbe 60bb 9fa9 71bc ce40 213d
00000100: c3db bdbd 4700 913b 9b7b b03d 7446 1f3d
00000110: e74f c8bc ab01 7fbd 454d b03b 56a6 e13c
00000120: 84d5 c63c aa3a 59bd dbfe b5ba 73c9 46bd
00000130: b6a3 48bd efba d5bc d500 943d 2e3e 44bd
00000140: 8047 67bd 2951 2cbc 398d a2bc d68b a73d
00000150: 6123 b7bd 59ff bcbd dc65 82bc aaa8 a53d
00000160: 6c76 bebd bc5c b83c 41fb 7939 2949 903d
00000170: 677c 833d 9704 1f3d b2c7 b4bd e789 3ebd
00000180: a4e9 88bd 112c 1dbd 80c0 86bd d3cb a5bd
00000190: 8578 4d3c 326c 6d3d 48ad 813d ade4 3bbd
000001a0: 8fae 3fbd 7628 10bd c4c6 7f3d 9f63 833d
000001b0: 4924 e2bd b043 16bd 52d0 aa3d 3286 c33d
000001c0: 9df9 783d 47c6 59bc 1f92 c93d 5136 ad3d
000001d0: b4be 32bd 464b 8cbd 2d1e 12bd 5e24 4e3d
000001e0: 276e 96bd a8a6 c13d ebf2 e33d f6db 87bd
000001f0: c802 423d 3449 b5bd a95f 58bd 0d7e 85bd
00000200: 371b 06bd 3caf d43d 2857 ec3d e386 8a3d
00000210: fd8b 663d 9232 a23c 5693 63bc 83c9 32bd
00000220: 2921 193c fb4d a5bb 0101 8e3d 423d 9c3d
00000230: 5a67 c5bd 8ebd adbd 94bf 883c 793b 99bd
00000240: c4f6 13bd d48c dcbc 0207 00bd ccfc b4bc
00000250: 144b c03d 57db 3e3d ca7d a13d a0c0 fc3b
00000260: efb2 f1bd b752 d33d ff3f 7a3c 8c2c 463d
00000270: 5c0f 2bbc db1c 19bd c253 493d 81ec 003e
00000280: 7ac9 323d 1921 9ebd 5c73 d63d 7016 25bd
00000290: 484b 2239 d6fd 25bd a6f8 8e3c cdc2 01bd
000002a0: 215c 2a3d 7e66 59bb 46e7 163a 6606 1e3c
000002b0: 2072 bc39 b13d debd da55 bc3d 7159 603d
000002c0: e6ce 7c3d 26d8 3cbc 8cf3 743d 47bb 0b3d
000002d0: 33fa a7bd 3380 dcbb 1c62 9f3d 1267 be3d
000002e0: d762 48bd d8b5 483d 90c9 4bbd 1ec9 10bd
000002f0: bd8b f83c 559a 9fbd 9a9c 43bd 1519 a9bd
00000300: 6a3b c63d bb56 41bd 2ccc 8ebd 3f49 c43c
00000310: 2578 ac3c 7779 a63c c60a 15bd 18f2 513d
00000320: 5f42 693d 57e1 803d 76be 0cbc 57ff 97bd
00000330: 28b2 2d3d 733c aa3d b3ba 8abd ce78 a63c
00000340: 56e1 d9bd b46d 123d 1a54 8a3d dd16 95bd
00000350: 90c7 dfbd 2091 d73b f014 54bc 8177 d63d
00000360: def6 21bc 19a7 3f3d 131e 0a3d 1653 55bc
00000370: 408b 503d 6749 45bd 53b4 0d3d aa1e 043d
00000380: 63a5 b63c dc0f d13c 8b40 92bc af1a f13b
00000390: 6707 20bd 6159 a43d 65ef 803b fc70 b93d
000003a0: f4fc 80bb 8221 263d 94e5 3ebd 5e7f 113c
000003b0: 026e 62bd e23a b1bd f0de d9bd 04dc a0bc
000003c0: 5f51 3d3d fd1f 333c 46f0 7b38 2e61 7abb
000003d0: dd80 a03d 7fd6 3cbc a422 383d 2b0a 6bbb
000003e0: 13f9 943d a4d8 53bd 7035 d2bc 73b3 38bd
000003f0: dc24 963d b5f5 15bd 6ee8 83bd 63f1 90bd
-0.0013357562 -0.107616045 -0.033864554 -0.04715134 -0.10613954 -0.05971527 -0.0849868 -0.081644215
0.031085668 -0.07499076 -0.0553805 -0.059530538 -0.059154317 0.09126922 -0.03421908 0.023800664
-0.03099466 0.07039893 0.074694805 0.0541502 0.08622488 0.013449027 -0.00096602284 -0.0021927578
0.029851679 -0.05491262 0.021153161 0.047221586 0.1009728 -0.010892113 0.011404023 -0.013018517
-0.03857758 -0.0061915815 -0.033459444 0.008000715 -0.03531189 -0.01916306 0.027923543 -0.062478386
-0.0135446675 -0.06664679 0.05991596 0.02917856 0.05960672 0.016042471 0.087689735 0.0033421263
0.08204228 -0.056624733 0.06700056 0.01816844 -0.09254072 -0.04566151 -0.08012262 0.026844982
-0.008904199 -0.06487917 0.08640191 0.09390268 -0.04255758 -0.003429315 -0.0147499135 0.039368443
-0.09270432 0.004425082 0.08617326 0.03888555 -0.024452163 -0.06225745 0.005380305 0.027545135
0.024271734 -0.053034462 -0.0013885157 -0.04853196 -0.048984252 -0.026090113 0.07226721 -0.04791086
-0.056464672 -0.010517397 -0.01984273 0.081809685 -0.08942295 -0.09228391 -0.015917711 0.08088811
-0.09299931 0.022505157 0.0002384009 0.07045204 0.06420212 0.038822737 -0.08827151 -0.046518233
-0.066851884 -0.038372103 -0.06579685 -0.08095517 0.012540941 0.05796451 0.06331879 -0.04587238
-0.04679733 -0.035194837 0.062445417 0.064154856 -0.11042077 -0.036685646 0.08340515 0.0954708
0.060784925 -0.013291902 0.098423235 0.08457626 -0.0436389 -0.06850295 -0.03567331 0.05032765
-0.07345229 0.09455615 0.11130317 -0.06633751 0.047365934 -0.08851853 -0.052825604 -0.06518183
-0.032740798 0.10384986 0.11540061 0.06764009 0.056285847 0.019799504 -0.013890108 -0.043649208
0.009346285 -0.0050446964 0.06933785 0.076288715 -0.09638853 -0.0848342 0.016692914 -0.07482047
-0.036124006 -0.02692262 -0.031256683 -0.0220932 0.0938932 0.046595898 0.078853205 0.0077133924
-0.11801707 0.10318511 0.015274047 0.048382327 -0.010440674 -0.037381034 0.049152143 0.12590219
0.043649174 -0.077211566 0.10471222 -0.0403046 0.00015477568 -0.04052528 0.01745255 -0.031679917
0.041591767 -0.0033172662 0.00057565083 0.00964508 0.00035943184 -0.108516105 0.091960624 0.054772798
0.06172075 -0.011526143 0.059802577 0.03411415 -0.082020186 -0.0067291497 0.07782385 0.09297003
-0.048922386 0.049001545 -0.04975277 -0.03534805 0.03034007 -0.077931084 -0.04775677 -0.08256737
0.09679301 -0.047201853 -0.069725364 0.023960708 0.021053383 0.02032159 -0.036387227 0.05125627
0.056948062 0.0629298 -0.008590331 -0.07421749 0.04240623 0.08312311 -0.06773891 0.020321276
-0.106386825 0.035749152 0.06754322 -0.072797514 -0.109267354 0.0065785795 -0.012944445 0.10472012
-0.009885518 0.046790216 0.033720087 -0.0130202975 0.05091405 -0.048165705 0.0345958 0.032255806
0.02229566 0.025520258 -0.017853042 0.0073579173 -0.03906956 0.0802486 0.003934788 0.09054753
-0.0039364044 0.0405593 -0.04660566 0.008880464 -0.055280693 -0.08653809 -0.10638225 -0.019636162
0.04622018 0.01093292 6.0066835e-05 -0.0038204896 0.07837079 -0.011525749 0.04495491 -0.0035864215
0.0727407 -0.051720276 -0.025660247 -0.04509301 0.07331249 -0.036611278 -0.06440817 -0.07077291

rnn.bias_ih_l0 f4 [400]
00000000: 934e 4d3d 2405 e4bc 88b2 88bc 654c e63d
00000010: e782 90bd e031 c2bd e56a b53d 54a5 81bc
00000020: 5839 aa3a 7793 8bbc 862a 923d 83a5 78bc
00000030: e3d1 f53d ab17 d1bc e727 2fbd 1f4d 833c
00000040: 5501 edbc 515f bf3d 9ce5 96bd b4ad 953d
00000050: 23ce 28bd f9a8 8d3d 12da 85bd 3be4 073d
00000060: c289 c13d 1c0d 9d3a c7c0 99ba 75bb d9bb
00000070: 1018 703d 0e31 293c e24d 83bd f1c2 d1bd
00000080: dc7d 533c 0e19 99bb ba2b b93c bf13 ac3d
00000090: 9546 673d b33a c43d df23 723d 874f 5d3d
000000a0: 9f12 bb3d 9aa7 56bd 06b8 1dbd 3e2b e43d
000000b0: a2a7 4a3d 3f44 ab3b d1b0 86bd f3e0 a2bc
000000c0: 97df 863d 3492 da3d 7d2d ecbd abaa 82bd
000000d0: 4923 acbd d5c3 64bd cc59 b63d b3fd 8cbd
000000e0: 1766 7f3d ff9d 243d a91c 683d d28c 71bd
000000f0: 574d b6bb 2e2d 95bd 0b2a 283d 4221 43bc
00000100: 5e71 723d ed3f e0bd e1af e33d 9743 713d
00000110: 4399 8e3d 32be 4fbd 183a 1f3d ed80 693d
00000120: 53d6 17bc 34cf a23d 3a6a c73d 3a31 b1bd
00000130: a24f 3d3b 1052 8bbd a74a 863d bfd5 fc3c
00000140: 2200 d8bc 1375 1b3c 6d1f b63d 8d93 81bd
00000150: f0dc f03c c223 3bbd 635e 8cbd b89d e6bc
00000160: 8c01 103d eff8 bc3d 9668 8a3c fe86 59bd
00000170: f88c 7a3c 74f8 febc 78df 8b3d 7fb9 b93d
00000180: 6568 44bd fb93 99bc 29a0 ce3d 215f 0abd
00000190: 7728 ebbb 1121 2fbd ba55 b03d 6c32 13bd
000001a0: 09ec 99bd 76cf 513d 8ccc c93d ddb4 7fbb
000001b0: f57c bdbd f46f 66bd 9006 653d bcd1 54bb
000001c0: 5757 c8bb 0fab 7e3d daea 053b 6101 37bd
000001d0: 1d48 b43d 070f b53d 98d5 2cbd 371c e03d
000001e0: c2b3 923d 3eb4 a63d 91fe 85bd 90ee 843d
000001f0: 84af 53bd c5ff d13c 8226 86bc 04ad 5fbd
00000200: 1e60 8cbd b06b afbd fb02 533d 7742 bbbd
00000210: 8a8b 9d3c 0b82 89bd 80b7 70bd 5b53 4d3d
00000220: 0a71 cbbd 6527 ebbc 8837 b2bd a6a3 95bd
00000230: 1647 ba3d a724 bcbd 820f 0cbc be9d 8bbd
00000240: a56b a6bd 5904 93bd 7011 583c 4943 babd
00000250: 2338 333d c324 44bd 2817 8c3d e0b8 7abd
00000260: 5ecf 733c d914 503d 0275 8f3d 1a65 843d
00000270: 3298 9ebc 6104 9e3d 9d54 b0bd ba82 95bd
00000280: 0313 60bd 56c8 bd3c b5f2 223d 1bd9 12bd
00000290: 95cc 0abc 7f16 87bc cfab 7a3d e69d 64bd
000002a0: 7284 f13c ef60 883d 3ec7 babd 292a cdbc
000002b0: 1d83 8a3d 9e5f 423d c7af 79bc 83bc 8fbd
000002c0: 3b7d 68bd beb8 01bb a4e2 fa3a ec51 b6bc
000002d0: e4d3 a33c 7969 503c 51a5 afbd 6b37 793d
000002e0: 61f9 c73d 52b9 8e3d dccc ef3d c718 44bd
000002f0: aa2a 113c a243 883d 9f95 62bd 41e7 b53c
00000300: bf55 783d 3603 0bbd 13b8 0ebd 177c 933c
00000310: bc5f 21bd 5016 b5bc f138 89bc 9f7a 39bd
00000320: 4b5b 6dbd 24aa 3abd c95a 13bd 6c15 d83c
00000330: 20ea b5bd 6139 ee3c 5e05 12bc dacc 403d
00000340: 6efc 603d 7026 c43c 2ab9 3ebd 6a14 1b3c
00000350: 3012 7abd f831 e53c 121d 9e3d f106 91bc
00000360: a8e9 1fbd 30d7 e23d fd87 94bd 13ba 463d
00000370: ed28 663d 6908 7c3d 10ef c6bc aa5e edbc
00000380: ba6d b93a 5fd2 1fbd 0f78 793d e02f d23d
00000390: f3c5 9d3b 3a56 d83d 0bd0 0d3d 9898 f4bc
000003a0: 2852 2fbd b329 38bd 022a a33b 3fd4 113d
000003b0: 2455 76bd 267c 3cbc 2194 e93c 6420 0cbc
000003c0: 1488 d0bd 272a d63d d5d1 ba3d acfb 9f3d
000003d0: 1a55 95bd b81b 233d c678 57bd fc6e 83bd
000003e0: 0bd0 123d 5dbd 8cbd f4ca 3bbd 3cc8 4f3d
000003f0: c142 86bd 873a 733d a4b3 273d 65a5 aa3d
0.050123762 -0.027834482 -0.016686693 0.1124504 -0.07056218 -0.09482169 0.08858279 -0.015825905
0.001298706 -0.01703809 0.07137017 -0.01517618 0.12002923 -0.025523981 -0.042762663 0.016027985
-0.0289313 0.09344352 -0.07368013 0.07308522 -0.041212212 0.069169946 -0.06535734 0.033176642
0.09450103 0.0011982056 -0.0011730426 -0.006644661 0.058616698 0.010326637 -0.06411339 -0.1024226
0.012908425 -0.004672176 0.022603858 0.08402204 0.056463797 0.095815085 0.05911624 0.05403092
0.09134411 -0.05240593 -0.038505577 0.1114106 0.049476273 0.0052266414 -0.06576694 -0.019882655
0.06585615 0.10672417 -0.11532114 -0.063802086 -0.084051676 -0.055850822 0.08903846 -0.06884327
0.06235322 0.04018974 0.056667957 -0.058972187 -0.005563419 -0.07284008 0.04105572 -0.011909785
0.059190147 -0.10949693 0.111175306 0.05890235 0.06962826 -0.050718494 0.038873762 0.05700772
-0.0092674075 0.07949677 0.09737058 -0.08651967 0.0028886576 -0.068027616 0.065572076 0.03086364
-0.02636725 0.009488362 0.08892713 -0.06326971 0.029402226 -0.0456884 -0.0685394 -0.028151378
0.035157725 0.09227168 0.016895574 -0.053107254 0.015292399 -0.031124331 0.06829733 0.09068584
-0.04795112 -0.01874732 0.10089142 -0.03378213 -0.0071764546 -0.042756144 0.08610101 -0.035936758
-0.07515723 0.05122324 0.09853467 -0.0039017715 -0.09252349 -0.05625911 0.05591446 -0.0032473644
-0.0061139273 0.062174853 0.0020434172 -0.04467905 0.08802817 0.08840757 -0.042195886 0.109428816
0.07163192 0.08139847 -0.06542695 0.06490815 -0.051681057 0.025634656 -0.016375784 -0.05460836
-0.068542704 -0.08565462 0.051516514 -0.091435365 0.019231576 -0.06714257 -0.05876875 0.050128322
-0.0993367 -0.028705308 -0.08701998 -0.07306604 0.0909559 -0.091866784 -0.008548619 -0.06817196
-0.08126 -0.071785636 0.013187751 -0.09094865 0.043754708 -0.04788662 0.06840354 -0.061211467
0.014880983 0.050801132 0.07004739 0.06464596 -0.019359682 0.07715679 -0.08609889 -0.07300325
-0.05470563 0.023166817 0.039782245 -0.03585158 -0.008471628 -0.01649022 0.061199006 -0.055814646
0.0294821 0.066591136 -0.09120034 -0.025044518 0.06763289 0.04745447 -0.0152396625 -0.07018378
-0.056760054 -0.0019793953 0.001914103 -0.02225586 0.019998498 0.012720459 -0.085764535 0.060843866
0.09764362 0.06968941 0.11708996 -0.047875192 0.00886027 0.06653525 -0.05531847 0.022204997
0.06062865 -0.03393861 -0.034843516 0.018003507 -0.03939794 -0.022105366 -0.016750785 -0.045282956
-0.057948392 -0.045572415 -0.03597525 0.026377402 -0.088825464 0.029080095 -0.008912412 0.04707036
0.054928236 0.02394411 -0.046563305 0.009465316 -0.0610525 0.027977929 0.077203885 -0.017703505
-0.03904119 0.110762 -0.072525 0.048517298 0.056191374 0.061531458 -0.024283916 -0.028975803
0.0014147081 -0.039018985 0.060905512 0.10263038 0.004814857 0.105633214 0.034622233 -0.029857919
-0.04280296 -0.044961642 0.004979373 0.035602804 -0.06013979 -0.011504209 0.028513016 -0.008552644
-0.10182205 0.10457259 0.091220535 0.078116745 -0.072916225 0.039821357 -0.052605413 -0.06417653
0.035842936 -0.06872056 -0.045847848 0.050728068 -0.06555701 0.059381988 0.040942803 0.08332328

rnn.bias_hh_l0 f4 [400]
00000000: 5b63 24bd d6bd 4ebd 7e31 ab3d f9b2 8e3d
00000010: 71fa 3cbc fb9d a4bd f752 75bd 4a82 80bd
00000020: b2e0 85bc 8557 bc3d 0e1a 023e d7f7 efbd
00000030: ef0f 80bd a6e7 6d3c 2e92 0b3d bb4d ae3b
00000040: 5566 933c 9347 d53d 9815 c1bc 9669 f93d
00000050: 127f 603d bf81 b1bd ed76 3cbd ce44 f43d
00000060: 7325 47bd fd58 d5bc b0a8 8cbc a254 a13d
00000070: 308e b13c 9971 0bbd c146 3a3c 0ad6 68bc
00000080: f180 da3d 0b23 77bd 3256 ffbc f34c 1e3d
00000090: 0954 9fbd 9278 f03d ff9a 14bd c670 503d
000000a0: 43d7 053d 7ada 60bc d288 2cbd 6998 463d
000000b0: e2c5 d13d dcd5 70bd 6d64 573d 3ce9 4fbd
000000c0: 56e3 833d 0ef6 a0bd 646f 21bd 214b 93bd
000000d0: 699a 9fbd bc9c 82bd 1032 55bd c480 d33d
000000e0: 10d9 05bb b76c f03b 89d2 6c3c 36c2 2fbd
000000f0: 4a0c 2abd beb0 993d 9576 d63c dcd7 6bbc
00000100: d896 2b3d ad55 dd3c b630 ed3d 660e b53c
00000110: fa41 76bb 2a46 34bd b5ab 843d ca99 123d
00000120: 3b91 81bd 7dcc 02bd 49f6 87bc 680b fdbb
00000130: 85e3 97bc 530d 7e3d 4cce 723d 3040 93bd
00000140: cb60 8b3c e979 a43d 8b06 9fbd d3e5 a53d
00000150: f0ff 86bd ece4 43bd a00d 7bbd 5c4f 8d3b
00000160: 7201 86bb 171b c2bc bdb0 8cbd 4e6d 8b3d
00000170: 5bef e1bd a001 883d e417 453c f03c 7bbd
00000180: 6063 66bd 5350 d63d cea0 883c 0616 e73d
00000190: b8c1 6ebd 92fd f73c 53a7 433d 8f63 c83d
000001a0: f853 923b 622b d1bd 081a a13d 2645 643d
000001b0: ee99 e8bd 5f81 853d 321d b13d 6202 88bd
000001c0: c76d c73d 335f a7bc 5393 8e3c 17c0 6ebd
000001d0: 5291 88bc 8770 153d 1bde 0fbd d0fe 053c
000001e0: 1cbd a63d c47e 81bd 02e7 a93d eddf 60bc
000001f0: f457 e03d b739 aa3c 617b ec3c e611 f93c
00000200: f194 b43c 074a 8bbc cb78 ba3c 73a5 a8bd
00000210: 43ef ba3c f283 243d c0ae ca3d f4ec 00bb
00000220: 0efb 5dbd 9b8a 29bd dd28 d03d 717f 493d
00000230: d87b 4c39 9577 79bd ed96 58bd 239f b03a
00000240: 81c2 223d 41f7 87bd db05 9fbd 0cf8 7f3d
00000250: eaae d0bd d682 74bd b406 c9bc 0d30 42bc
00000260: a7a7 7b3d ffae 3bbc 4307 26bd 4747 24bd
00000270: cf4b 22bd fae3 eebc 4345 303c 10ea 9d3d
00000280: 0650 853d dabb f33d a1c5 563d 6f15 97bd
00000290: be95 a43d 9661 19bd 1127 68bd b251 a53d
000002a0: 3877 33bd 09d3 d63d cb35 983d 403e 4b3d
000002b0: 3e3b a0bb df90 9cbd fd7b 923d c5ec 873d
000002c0: d1fd 893d 1ea6 593d afdf 0b3d 53ff 0ebd
000002d0: 13f4 ac3d cbb9 da3d 2c95 efbc 5932 173d
000002e0: 6ced 8a3d 2a6f a03d 80b8 8dbd dfd6 83bd
000002f0: 28c4 79bd b398 dabc 4e23 1c3d 1b32 7fbd
00000300: 21c9 06bc 0c15 e9bb d91d 7b3d c3fe f33c
00000310: 0da9 893d 33a1 fc3d 0e3c 863d 4eb1 89bd
00000320: a44c b13d 677b d2bc 8f5e 5e3b ed8a 61bd
00000330: fed7 8fbc 8f00 9cbb 3f36 3a3c 15bc a93d
00000340: 72cd 40bd d1de 4a3c f8dd 5a3b c0c2 aabd
00000350: 4288 403d 8762 34bd 6ae7 233d 7a34 cb3d
00000360: 1afc 5b3c edfc de3d 734f 64bc fb20 d5bd
00000370: 7b43 893c fbfa b13d 631b 9f3d c280 e23b
00000380: 54ee 9a3d 29ee 9b3d cdf0 31bd 6dd8 a03d
00000390: 2808 95bd a30e 9c3c 8c88 b03d 13ae c53d
000003a0: c54c d0bd 19d7 a73c 3f66 28ba e540 2b3d
000003b0: 1462 5dbd c1d7 273d a358 2cbd 82e8 533a
000003c0: dc78 82bc cbd7 d73d e0ce bb3d e757 ffbc
000003d0: d225 ffbc 25fe 15bd 8d4a 233d 995d c1bc
000003e0: 1522 1f3d e115 a53d b2b7 b5bd f316 ff3b
000003f0: d41f c0bd 6854 603d eaa8 c03c efc6 65bd
-0.040133815 -0.05047401 0.08359049 0.0696773 -0.011534319 -0.08037945 -0.059893575 -0.06274851
-0.016342495 0.091963805 0.12705252 -0.117171936 -0.06253039 0.014520561 0.034074955 0.005319325
0.017993132 0.10414042 -0.023569867 0.12178342 0.054808684 -0.08667325 -0.046011854 0.11927186
-0.0486197 -0.02604341 -0.01717028 0.078774706 0.021674246 -0.034043882 0.011369408 -0.014211187
0.10669125 -0.060336154 -0.03116903 0.038647603 -0.077797 0.11741747 -0.03628063 0.0508888
0.032675993 -0.013723964 -0.04212267 0.048485193 0.10242821 -0.058797702 0.052586008 -0.05075954
0.06439845 -0.07859431 -0.03941287 -0.07192064 -0.07793123 -0.06377551 -0.052049696 0.103272945
-0.0020423569 0.0073371786 0.014454492 -0.042909823 -0.041515626 0.07504414 0.026179591 -0.014394727
0.041891903 0.027018392 0.115815565 0.022101592 -0.0037575946 -0.044012226 0.06478063 0.035791196
-0.06326529 -0.031933296 -0.01659693 -0.007722307 -0.018541107 0.062024426 0.05927877 -0.07189977
0.017013928 0.08031065 -0.0776492 0.08100476 -0.06591785 -0.04782574 -0.06129229 0.004312439
-0.0040895278 -0.023694558 -0.06869648 0.068079576 -0.110319816 0.06640935 0.012029622 -0.06133741
-0.056247115 0.104645394 0.01667824 0.112834975 -0.058290213 0.030272279 0.047766995 0.09784614
0.0044655763 -0.10213353 0.07866293 0.055730008 -0.11357485 0.06518816 0.08648147 -0.066410795
0.09737735 -0.020431137 0.017404234 -0.05828866 -0.016670857 0.036484268 -0.035123926 0.008178428
0.081415385 -0.06323007 0.08296014 -0.013725263 0.10954276 0.020779474 0.028867425 0.030404042
0.022043677 -0.017003072 0.022762677 -0.08234682 0.022819167 0.040164895 0.09896612 -0.0019672485
-0.054194503 -0.04139195 0.10164044 0.049193803 0.00019501091 -0.060905058 -0.05287831 0.0013475161
0.039736275 -0.06638957 -0.07764789 0.062492415 -0.10189612 -0.059695087 -0.02453933 -0.0118522765
0.061439183 -0.011455297 -0.04053427 -0.040107038 -0.039623078 -0.029161442 0.010758701 0.077106595
0.06509404 0.11901064 0.052434567 -0.07377135 0.080363736 -0.03744658 -0.05667788 0.08072223
-0.043814868 0.104894705 0.07432135 0.049619913 -0.0048898747 -0.076448195 0.07152555 0.06636957
0.06737865 0.053136937 0.03414887 -0.034911465 0.08444991 0.106799684 -0.029245935 0.03691325
0.06783566 0.07833703 -0.06919956 -0.06437468 -0.060978085 -0.02668414 0.038119607 -0.062303644
-0.008226664 -0.0071131047 0.06130776 0.029784566 0.06721697 0.12335434 0.06554423 -0.06723271
0.08657196 -0.025693608 0.0033930873 -0.05506413 -0.017559048 -0.004760809 0.011365472 0.08287827
-0.047070928 0.012382225 0.0033396464 -0.08337927 0.047004946 -0.044039275 0.040015616 0.099221185
0.013426805 0.108880855 -0.013934958 -0.10406681 0.01675581 0.08690449 0.077688955 0.006912322
0.07564989 0.07613785 -0.043442536 0.0785378 -0.07276946 0.019049948 0.08619794 0.09652343
-0.101708926 0.020488309 -0.0006423927 0.041809935 -0.054048613 0.040977243 -0.042076718 0.00080836576
-0.01592677 0.10539206 0.09170318 -0.031169845 -0.031145964 -0.036619324 0.03986602 -0.023604201
0.038850863 0.08060814 -0.08872928 0.007784718 -0.09381071 0.054767996 0.023518045 -0.05609792

linear.weight f4 [1, 100]
00000000: 69e2 d83c 7c2f abbd 43b4 003e d39f 393d
00000010: e83d 2bbd e9e8 8abd c82b c6bd da0f dd3c
00000020: ed27 c23c be0e 1a3d 1643 033e 4c33 29bd
00000030: c770 05be 52c2 ab3d d89e 953d 87e0 a33d
00000040: a5d0 d23d 6178 073d 0ec4 053d 7293 a6bd
00000050: bc39 03be 722b 443d 6b7c eb3d 74da 7fbd
00000060: 0385 71bd 5c71 04be 40a2 6fbc 952f b93d
00000070: 0af5 bcbc 32c1 873d 586b b03c d656 6bbd
00000080: fa5f 4dbd 3c20 bbbd b898 c03c 438a 933c
00000090: 9401 8cbd 16bc b0bd aca5 8abc 70d1 97bd
000000a0: 7d7a b8bd 9fac 8b3d 9cdd e63d 2ae1 96bc
000000b0: a415 a8bd 2834 c33c d534 dc3d a218 a03d
000000c0: ee2e 83bd f8a3 68bd d6f2 09bd 3624 803d
000000d0: 3ec3 97bd 54ed 90bd f479 56bd 6b43 fa3d
000000e0: 8121 6e3d 310a 913d 9d49 4e3d 0ac8 84bd
000000f0: 1966 85bd 03b3 893d 9a28 373d f97c dcbd
00000100: 15d1 053d 94e4 453d 3311 ecbd 7cc2 8dbd
00000110: 7061 903d 7eff bbbd 01e8 d03b bb25 58bd
00000120: 0473 22bd 6b29 16bd c45c 70bd 6c2c afbd
00000130: 1c8a c8bd 8937 86bd e652 edbd fd93 2b3d
00000140: 8b63 863d 132d 4fbd b3d5 b1bd 710a c43d
00000150: e8b5 7dbd 4f0a fd3c 82aa cc3d 3a56 583d
00000160: 0ad7 6a3c 8f6b e43d 811c 803d 6b37 01be
00000170: 149f a9bd 3a11 40bd ee9a 793d 87fc 7b3d
00000180: 8c92 d9bc 22bf 07be af1f 3a3d 6718 5f3d
0.026475148 -0.08358666 0.12568764 0.045318436 -0.041807085 -0.06782705 -0.09676319 0.026985098
0.023700679 0.037611715 0.1281856 -0.041308686 -0.13031302 0.08386673 0.07305688 0.080018096
0.10293702 0.033073787 0.032657675 -0.08133592 -0.12814993 0.047892995 0.1149834 -0.062464193
-0.05896474 -0.12933868 -0.014626086 0.09042279 -0.023066062 0.06628646 0.02153556 -0.05745586
-0.05014036 -0.091370076 0.023510322 0.018010264 -0.068362385 -0.086296245 -0.016924702 -0.07412994
-0.09007738 0.06820034 0.112727374 -0.018417913 -0.082072526 0.023828581 0.107522644 0.07817198
-0.064054355 -0.056796998 -0.033678852 0.06256907 -0.07410286 -0.07076517 -0.052362397 0.1221989
0.05813742 0.07082022 0.05036317 -0.06483467 -0.06513614 0.06723597 0.044716455 -0.10766024
0.0326701 0.048313692 -0.11526718 -0.069218606 0.07049835 -0.09179591 0.0063753133 -0.052770358
-0.03966047 -0.036660593 -0.05868222 -0.08553395 -0.09791967 -0.06553561 -0.11588077 0.04188918
0.06561955 -0.050580095 -0.08683338 0.09572304 -0.061941057 0.030888705 0.09993459 0.052816607
0.014333496 0.11153328 0.06255437 -0.12618797 -0.08282295 -0.04689143 0.060938768 0.061520126
-0.026559137 -0.13256505 0.045440372 0.05446663
