backend/trained_models/EBL_LSTM_model_state_dict.pth (torch, 167939 bytes, 5 tensors)

rnn.weight_ih_l0 f4 [400, 1]
00000000: 1cbe 4cbd 027e 9cbc 3ddf f83d 43fc 22bd
00000010: 3e01 ca3c 46b2 d0bd 87fb 61bd a094 c7bb
00000020: 24b8 17bd 1117 09be 42c7 aa3d 8fb8 8e3d
00000030: 21cc 013e f86a dfbb e4ec 1a3d 74f2 333d
00000040: cd77 3cbd 6830 903d 3578 36bc 6f26 bcbd
00000050: 6267 80bc c601 963d 451c c3bc 8fa5 713c
00000060: 27a9 06bd c597 163d 8574 513d f0d5 833d
00000070: d241 d83d a82d 8c3c 8f5b de3c f0e2 ae3c
00000080: 6422 353c 18cb 243d e7fc 163d e051 03bd
00000090: 05cb 5b3d fcce d73c 93ad 84bd 6c79 983d
000000a0: 0914 42bd 11c6 b53d a8bc 783d 2c4b b33c
000000b0: 2df8 06be 2d73 ae3d 4a06 83bb 2546 393d
000000c0: d96f 84bd 39c2 dbbd 4fd6 b2bd 2da1 df3d
000000d0: 9c79 f63d 8454 a43d efdc ac3d 0e1f ce3d
000000e0: cc7e c4bc 8b1a b63d af39 cdbd 408f e93d
000000f0: dd91 793c e411 90bd bc4d a3bc 9983 efba
00000100: c381 54bc 02bc 9cbc c1f4 f33d addc 693d
00000110: 24ba e23c df26 2b3d 6d7f 23bc 9c3e 36bd
00000120: 10ac c4bd 01b5 b43c 6dec 693d 1b05 0fbc
00000130: b34a 10bc f952 bd3d a644 a63c 19e9 6cbd
00000140: 3583 31bd 8076 653c 75b5 5abd 23df 603d
00000150: 16e9 8dbd 1dfa 163c b583 f33c c2ca 95bc
00000160: c874 81bc 0d3f b3bb 21e3 443c 6e2e b5bb
00000170: 53ab 44bd 8cc6 df3d 52a4 a33c 2dd3 953d
00000180: 6b97 b13c fb1a f1bc 1cc3 523a e69a 263d
00000190: f21e 85bc e315 6ebd 9410 e03d 1507 d63d
000001a0: c0c3 89bd 7f72 383d bcc7 04be a831 653c
000001b0: b42d a63d 3c0c 3e3c a01c bc3d 8f30 fb3c
000001c0: a27e 763d c24d 25bd 274a 9dbd 38b2 6cbd
000001d0: 93e5 e9bc dbcc d63d 23cb 323d f58c 58bc
000001e0: 4e36 8bbd a86e b93d e2aa 8ebd 5bf7 f1bb
000001f0: ce51 f63d 5dba 8a3c 91f1 643d 17ca bd3d
00000200: eeb9 443d 64d6 ccbb 3ec2 7a3d 0e38 77bc
00000210: ea16 253d 7581 e53d 8389 3dbb 6243 2abc
00000220: 68b5 5a3c 13c4 c33b df8a b4bd 6fa2 45bc
00000230: a5a1 d63c 996d 6e3d fd54 623d fdf6 fb3d
00000240: 3029 493d 2c10 76bd 4264 e4bc a492 c13d
00000250: 5bbe a4bd 2dad 36bd e775 363d e470 dfbc
00000260: 193e e73d 006b 76bd 4f67 783c 6d98 7cbd
00000270: 24d4 7e3d 7137 1fbd 39ee 50bd c7a2 933c
00000280: a2cd 903d 330e 5fbd 5b61 c7bd 5504 02bd
00000290: 7b4a 173d 0e3b f23d 5749 883d 2bf2 bc3b
000002a0: c4a9 bbbd 5b0c 463d e270 8e3d 455f 493d
000002b0: 4adc 5639 9416 47bb 78d8 eebc b403 73bd
000002c0: b302 b43c 871d e6bc 1d03 d53d 077c 373d
000002d0: eaa3 b93d 4c5a d33c 9226 7abd 7976 013e
000002e0: fa5b 273d 6fca c8bc 544a d93c 1965 6b3c
000002f0: ba82 563d b7c4 edbc 782d dc3d ab1f b83a
00000300: 9017 5cbd 9ee4 78bd 1d4d 02bd 7e00 203d
00000310: f27d 71bb ae54 a0ba dd12 ee3d 9170 04be
00000320: 450a edbd 48a5 753b 1469 5b3d fc6d 16bd
00000330: c509 d93c 65e9 5dbd fd67 40bd 2b1c 883d
00000340: 285e efbd 7e62 a2bd baf5 ca3d b479 ae3c
00000350: 4605 013d f95f 283d 1275 95bd 9057 043e
00000360: 4d62 bebd 786c b8bd 519d 22bd b2af 9cbd
00000370: 7fa1 9bbd 546d f73d b9c7 22bd 23ce 9ebd
00000380: abe2 a13d 09b7 23bd b687 1c3d 8cb4 8b3d
00000390: d5eb a93d c5ff c5bd 7e49 a73d f2d4 c03d
000003a0: 1804 e8bd 3ec9 9ebc b671 03be 8283 adbd
000003b0: cef1 bb3d 397e b53c ec0d a63d bfbe a0bd
000003c0: 8666 57bd 012c c53d 7de7 8a3d a738 5d3d
000003d0: 8ca9 9e3d 88ee f53d ac6e 853c 39ed c13d
000003e0: 274d a33c c8e3 82bd c91d bd3d c342 0cbd
000003f0: 3aa1 803d 4e18 28bd 666d 8bbd 4370 f2bd
-0.04998599 -0.019103054 0.12151954 -0.039791357 0.024658795 -0.10190253 -0.055171516 -0.0060907155
-0.037040845 -0.13387705 0.08338787 0.069687955 0.12675525 -0.0068181716 0.037823573 0.043932393
-0.04601269 0.07040483 -0.011137058 -0.09187018 -0.015674297 0.07324557 -0.02381719 0.014748945
-0.03287616 0.036765832 0.051136512 0.0643729 0.10559429 0.017111614 0.027143268 0.021348447
0.011055563 0.040232748 0.03686228 -0.032060504 0.05366041 0.026343815 -0.06478419 0.074450344
-0.04738239 0.08875669 0.06072679 0.02188643 -0.13180609 0.08518062 -0.0039985524 0.04523291
-0.06466646 -0.107304044 -0.08732282 0.10919414 0.12034914 0.080239326 0.08440577 0.10064517
-0.023986243 0.088917814 -0.10020768 0.11404276 0.01523253 -0.07034662 -0.019934528 -0.0018273472
-0.012970391 -0.019132618 0.119119175 0.05709522 0.02767665 0.041785117 -0.009979111 -0.044493303
-0.09603131 0.022058966 0.05711024 -0.008729245 -0.008806872 0.092443414 0.020296406 -0.057839487
-0.04333802 0.014005303 -0.053395707 0.0549003 -0.06929223 0.009214905 0.029725889 -0.018285159
-0.015802756 -0.0054701627 0.012017042 -0.0055292165 -0.04801495 0.10926542 0.019975815 0.07315669
0.021678647 -0.02943181 0.0008039938 0.040675066 -0.016250107 -0.05812634 0.10940662 0.104505695
-0.067267895 0.045031067 -0.12966818 0.01398889 0.08114186 0.011599597 0.09185147 0.030662803
0.06017936 -0.04035736 -0.07680159 -0.05778715 -0.028551852 0.10488292 0.043650758 -0.0132172005
-0.06797467 0.09054309 -0.06966187 -0.0073842234 0.12027322 0.016934568 0.05589444 0.09267061
0.04802888 -0.0062511433 0.0612204 -0.015089048 0.040305056 0.112063326 -0.0028921075 -0.010392042
0.013348915 0.0059743016 -0.0881555 -0.012062653 0.026200125 0.05820999 0.055256832 0.12302969
0.049111545 -0.060074016 -0.027879838 0.094517976 -0.0804412 -0.044598747 0.044546034 -0.02727551
0.11291141 -0.060160637 0.015161349 -0.061668802 0.06221403 -0.038871232 -0.051008437 0.018021954
0.07070471 -0.0544569 -0.09735366 -0.031742413 0.036936264 0.1182767 0.066546135 0.0057661734
-0.091632396 0.048351627 0.069551244 0.04916312 0.00020490694 -0.0030378448 -0.029155955 -0.059329703
0.021973943 -0.028090252 0.104009844 0.044796016 0.09064467 0.025799893 -0.06107194 0.1264285
0.0408592 -0.02451059 0.0265247 0.014367365 0.052370764 -0.029024465 0.1075086 0.0014047524
-0.05373341 -0.0607649 -0.031811822 0.03906297 -0.003684875 -0.0012232268 0.11624692 -0.12933566
-0.115742244 0.0037482549 0.053567007 -0.036725983 0.026493916 -0.05417766 -0.04697417 0.066459976
-0.11687881 -0.07928942 0.0991015 0.021298267 0.03149917 0.04110715 -0.0729772 0.12924027
-0.09296093 -0.09005064 -0.03970081 -0.07650699 -0.07599162 0.120813996 -0.03974125 -0.07754161
0.079045616 -0.039969478 0.03821536 0.06821546 0.082969345 -0.09667925 0.081683144 0.09415616
-0.11328906 -0.01938307 -0.12836346 -0.08472349 0.0917698 0.022154914 0.08108124 -0.07848882
-0.05258801 0.09627534 0.06782434 0.054009106 0.07747182 0.12008387 0.016288124 0.09469075
0.01993425 -0.06391102 0.09234197 -0.034243356 0.062807515 -0.041038804 -0.068079755 -0.118378185

rnn.weight_hh_l0 f4 [400, 100]
00000000: 2539 2f3b d2df 6b3c f6f6 403d 2d1b afbd
00000010: 5d74 ae3d 03cb 83bc e988 903d 8f61 023d
00000020: 8240 a4bd 2a44 b83d ace3 53bc 594f 6fbc
00000030: cddb c13c e69a afbb 8acf 2abd 982c 353d
00000040: 7c95 9c3d bfd2 203d 8dad a2bd 3cec e13c
00000050: 62d5 4f3c f56f 4b38 d7af 31bc b7e0 b93d
00000060: 11a0 9abd fd55 963d de0f bdbd fb8c b53c
00000070: 0bee d23b 58d2 bdbd 756a 58bd 13f9 38bd
00000080: 0ce8 13bd ada8 d8bc 5155 a83c 4e45 92bd
00000090: c6e1 80bd 4dfb bebd 3410 d13c ff8b 1a3b
000000a0: ce82 1ebd f9ac 1238 57a8 cc3d c496 41bd
000000b0: 0c2d adbd bfa1 853d e628 61bd 1829 26bd
000000c0: 15a1 f7bc e258 c13a 679c 00bd dd48 bcbd
000000d0: a9b9 dd3d d69f 7bbd cf27 9f3d 6d16 40bc
000000e0: 9ad2 8a3d 8976 28bd d37a 6dbd 6ffd 773d
000000f0: ebaa b0bc e829 583d 21d4 b1bd 5412 b43d
00000100: 2b64 3ebc b37a 393c 80b4 b5bd 8718 0bbd
00000110: de65 15bd e174 c93c c8a8 723d b5d0 80bd
00000120: dbb1 51bc 86c3 013d 0297 8f3d f3a5 bbbd
00000130: e043 973d 7ed1 243d 4190 6b3b eb31 82bd
00000140: 4e8a b5bd 8388 c43d 5ebf 23bd e226 d0bd
00000150: 31a6 b5bd 67aa 5bbd af98 fdbb 3d15 ad3d
00000160: b076 45bd 3310 da3d a9b5 9dbd c0a0 7bbd
00000170: 0d09 d93b 59f3 12bd 74db 0cbd 41e6 a13d
00000180: af32 2a3c db6c 87bc 6f78 9cbd d818 6c3a
00000190: 6d35 e53d 6698 bcbd 788e f23c ceba 43bd
000001a0: eadf 913d 29e9 a43d 0f3f d8bc 919c 99bd
000001b0: 66ae 383d 1f41 753c 4923 c5bd 811e 133d
000001c0: ec9e 66bd 5dcf 6abd f091 82bc 5c58 d7bd
000001d0: 1402 ea3d b677 00bc 8232 c1bd 4853 253d
000001e0: f9c0 9d3d c7b8 5a3c 7e39 003e 228a 003e
000001f0: 9d9a 25bd 5094 393d 5490 8abd 5cd4 bd3d
00000200: 5043 44bd 9a6d 29bd 51a1 7dbb 1172 6f3d
00000210: 0fac b4bc 47a1 a4bd 3b3d e43d bc52 8d3d
00000220: 2387 d0bd 0e5a 8e3d 0027 d33d 479c a6bd
00000230: 339a f13c 78db dcbd c958 45bd db24 84bd
00000240: a1a9 09bd e2b2 c4bd 64f7 68bc 3215 093b
00000250: 22d6 913d 0e77 39bd 8f60 8a3d 2e3b 3c3b
00000260: be2e b43c 004b 57bd 2cbc f83d 84a8 07bd
00000270: 9a4f 5bbc 1f74 573d aca2 cf3d 2d7a 60bd
00000280: 90f4 83bb 975d fcba 2944 ac3d f043 963d
00000290: 9d45 b1bc c7bd adbc 548a b0ba f435 91bd
000002a0: 6c69 9e3c 1ac3 b1bc 88b2 143c a1c1 803d
000002b0: 1d04 46bd 523a cf3d 1c2b 823d fbd1 b53d
000002c0: 367f 5e3b 08f3 5a3d 6da0 a8bd 96b5 b9bd
000002d0: 48f7 663d a3de b9bb bc0d 62bd da8d 963b
000002e0: 01ca dcbd 4528 2cbd 17ec 5b3d dbb8 903d
000002f0: a41c a5bd a9d8 88bd 8217 04be 86db dfbd
00000300: 12de debc 0b2b d43b 7884 8bbd 98c2 893d
00000310: c637 603c 4394 273d cff0 57bd 36da af3b
00000320: 737e 52bd 4331 0e3d 07be a6bd 5b3d 94bc
00000330: bbd1 813d edbe 913d 73d7 533d cd0e 6e3d
00000340: bcab acbb a1bd 3fbd aacc 61bc ae67 bebc
00000350: 5ba9 4bbd 6eeb 91bd c098 943d c446 90bc
00000360: c64a 0b3d cd1e 10bd ee6a b6bd db52 93bd
00000370: 9b21 5d3c d60d cb3d 0884 153d 471d 28bb
00000380: dae0 b13d 6fb8 853d 768b 14bb 0b9c 8a3c
00000390: 8581 bc3d 0c48 95bd 7290 803d cdb5 c13d
000003a0: e7e8 3ebd 94d7 1b3d 89c5 b6bd c062 913d
000003b0: 0634 a93d bdb9 84bd 7490 5f3d 4e8c 993c
000003c0: 8843 d3bd 3d82 93bd d849 ce3c b523 cbba
000003d0: a5b3 1fbd 5d5a ce3d cdcd ebbc b82f 73bd
000003e0: d3cb 8abd be47 ddbc 47b3 3fbd 383a 863d
000003f0: 6114 ba3d 0db0 0c3b 7f5a 84bd 376f 43bc
0.0026736942 0.014396625 0.04711052 -0.08550105 0.08518288 -0.016088014 0.070573635 0.03183132
-0.080201164 0.08997376 -0.012932699 -0.01460632 0.02366438 -0.0053590415 -0.04170183 0.04423198
0.076456994 0.039263483 -0.079432584 0.027578466 0.012685152 4.850324e-05 -0.010845146 0.09076064
-0.075500615 0.0734062 -0.09231542 0.022161951 0.0064370683 -0.092686355 -0.0528359 -0.04515941
-0.03610997 -0.026447618 0.020548495 -0.07142125 -0.06293063 -0.093252756 0.025520422 0.002358198
-0.038698964 3.4970206e-05 0.09993046 -0.047262922 -0.08455858 0.06524991 -0.054970644 -0.040566534
-0.030228177 0.0014751221 -0.031399157 -0.09193585 0.108264275 -0.06143173 0.07771265 -0.011724097
0.0677845 -0.04112867 -0.057978462 0.060544427 -0.021565875 0.05277434 -0.086830385 0.08792558
-0.011620562 0.011320758 -0.08872318 -0.033958938 -0.0364741 0.024591865 0.059242994 -0.06289808
-0.012798752 0.031680606 0.07011224 -0.09162512 0.07385993 0.04023885 0.0035944136 -0.06357177
-0.0886427 0.0959635 -0.039977424 -0.10163666 -0.08869589 -0.053629305 -0.0077391486 0.084513165
-0.048208892 0.10647621 -0.077006646 -0.0614326 0.0066233934 -0.035876606 -0.034388974 0.079052456
0.0103880605 -0.016531399 -0.076401584 0.00090063876 0.11191831 -0.09208755 0.02960895 -0.047785573
0.07122786 0.08052284 -0.026397256 -0.07500566 0.045088194 0.014969139 -0.09625871 0.035917763
-0.056303903 -0.057326663 -0.015938729 -0.105149 0.114261776 -0.007841041 -0.09433462 0.040362626
0.07702822 0.013349718 0.12521932 0.12552693 -0.040430654 0.045307457 -0.0676581 0.0926902
-0.047915757 -0.04136429 -0.0038700888 0.05845839 -0.0220547 -0.08038574 0.11144491 0.06900546
-0.10182025 0.0695077 0.10310173 -0.08135276 0.029492473 -0.10784048 -0.048180375 -0.06452342
-0.033609036 -0.09604432 -0.014219139 0.0020917174 0.07120921 -0.045279555 0.06756698 0.0028721797
0.021994945 -0.05256176 0.12145266 -0.033119693 -0.013385678 0.052600976 0.10138449 -0.054804016
-0.004026957 -0.0019253966 0.08411438 0.07337177 -0.02163964 -0.021208657 -0.0013468959 -0.07090369
0.019337378 -0.021699477 0.009075768 0.06286932 -0.048343766 0.101185456 0.06355879 0.08877941
0.0033950335 0.05345443 -0.08233724 -0.09067838 0.05638817 -0.0056722923 -0.05518888 0.0045945467
-0.10780717 -0.04203059 0.05369195 0.070665084 -0.080621034 -0.0668195 -0.12899593 -0.10930543
-0.0272055 0.0064748577 -0.06812376 0.06726569 0.013685172 0.040912878 -0.052719887 0.005366589
-0.051390123 0.03471495 -0.081417136 -0.018095663 0.06338831 0.07116494 0.05171914 0.058119584
-0.005269496 -0.046811704 -0.013781706 -0.023242798 -0.049722057 -0.07124983 0.07255697 -0.017611869
0.034006856 -0.035185624 -0.08907114 -0.07193538 0.013496782 0.09914748 0.036502868 -0.0025652216
0.08685465 0.065293185 -0.0022666133 0.01692011 0.092043914 -0.072891325 0.06277551 0.09458504
-0.04660883 0.03804739 -0.089243956 0.07098913 0.08261876 -0.06480739 0.05458112 0.01874366
-0.10315615 -0.07202575 0.025181696 -0.0015498312 -0.03898968 0.10075829 -0.028784657 -0.05937168
-0.06777158 -0.027011748 -0.04680183 0.06554073 0.09085918 0.002146724 -0.06462573 -0.011928371

rnn.bias_ih_l0 f4 [400]
00000000: abaf c23d 7c1e be3d 4260 22bd 2c7c 353d
00000010: 8572 a93d eb3d d23d 51cd 3fbc 2807 cbbc
00000020: 1b0e fd3d 8944 2bbd 4a14 82bd dbe6 6e3d
00000030: fa5f f23d 6a44 bd3d 8763 e5bc 5e70 a73c
00000040: b11c 1d3d 2b8f f6bc 636b 773d 1ee3 d1bd
00000050: 2f7b 943d 2997 f13d 140d 43bc f715 14bd
00000060: f1e3 ab3d 4f73 043d 7598 463c a7d1 173d
00000070: c10d 45bd 7e44 9f3c df93 ad3c 470a ab3d
00000080: 5690 8abc 70c0 a93d e93d 8cbd d677 fd3c
00000090: 2a6a b43d 62b0 9739 8b6b c8bd 8044 8abd
000000a0: 3f6e 32bd 8038 013d fb62 8bbd 3bf1 0d3d
000000b0: d3c9 6cbd 0a82 ad3d 0f42 343d 170e 6a3d
000000c0: a536 0c3d e1cc 453d 7ca9 9b3d f3dc cd3b
000000d0: 1cd9 a6bd 4a9d 043d bc73 b13d eff2 63bd
000000e0: 2a50 d83c 39fc c3bc 2538 d8bd 17f1 16bd
000000f0: 9630 823d b9e4 a33d 282a 3ebd b830 7ebd
00000100: 0c6f bebc 0cc2 3c3a 39f6 893d c1d4 163d
00000110: 28ea cfbd 6f8a 0ebd ea8e 943d 472a c93d
00000120: 74c5 d2bd 3ff5 d93c 0206 00bd af04 883d
00000130: baf3 843d 3f5d 9dbd e8db 763d 109b 60bd
00000140: 19b7 2abd c1a6 533d 40b3 a33b 8865 ac3d
00000150: e867 823d 9b7b a03b 79e3 84bc d052 f93c
00000160: 5737 3fbd 1da6 9f3d 56f6 fa3d 973f aa3d
00000170: 829c b43d 46f9 0dbc 47d2 34bd 3194 40bd
00000180: 3bb0 afbd df69 63bd 7e91 053d 3774 3fbc
00000190: ccf2 c83d c5cd 7b3d b20e 1cbd 99a0 d23b
000001a0: aa8b bb3c b7cc 31bb 3fb0 033e ed37 883d
000001b0: bc2f a73b ae21 1a3c 805f 423d 83a1 94bc
000001c0: 4180 87bd f4c0 123d 39f9 03bc 2c6d 3e3d
000001d0: 7fae a8bc e2e6 adbc f987 d8bd 0894 b23c
000001e0: e5d7 9ebd 9f80 9c3d cf0d ef3c e19d c23d
000001f0: 05fd 8abb 2dbd 723d b5d6 92bd 8392 b0bd
00000200: ef56 fd3c d548 0ebd bf4e 9e3d 8914 8c3d
00000210: fd83 253c 64d7 7b3d 9311 d43a 3c96 6ebc
00000220: 7228 803d b4b0 de3d 4660 fc3c f647 37ba
00000230: eb01 ac3b 99da e73d 0802 95bb 62b0 1b3d
00000240: f7a8 d4bb 609b 0cbc 0758 80bd 7439 553c
00000250: 2cb7 913d fbb1 9a3d 373d d6bc 7c74 26bd
00000260: 0b42 80bd 4512 873c 9e29 23bc 6be2 49bd
00000270: eb1e f2bc 246a 0d3c 004c 323c 806f 873d
00000280: f7f2 cc3d 60ec 603d 0f70 973d 88bd 68bd
00000290: 3b0f 77bd 0da7 b53d a022 31bd b9f2 86bd
000002a0: b27c 1f3d 6174 053d 45b2 a63b 33b1 a03d
000002b0: 3be4 383d 4fd0 05bc 6456 4bbd 1dea 97bd
000002c0: fd7d a63c 2f3b 93bd 8cb8 ab3d 3472 14bd
000002d0: 1992 81bd 941a 93bd 3c24 633d 90ca 6e3d
000002e0: 4255 513d 45fe 90bd 328c 863d 4b4c ccbd
000002f0: 390e 5c3d 9f30 2bbc 3072 df3d a954 543c
00000300: f50a d13d 7179 ef3d 22bc 47bd ca07 e33d
00000310: 01e1 9abc e0d3 9bbb a516 afbc 544a be3d
00000320: 03d8 6ebc 3d95 7cbd 57dd 4c3d cb14 5a3d
00000330: f110 17bc f0ca a63d 99f0 113d 567f 42bc
00000340: 86e5 b9bd e265 583d e5f6 9d3d afd7 fcbc
00000350: c815 a33d ea90 813d 290a 30bd 7c47 983d
00000360: 578f eebc a5ba 553c 2b30 203d 1bd0 ba3d
00000370: 8ea1 5b3d 9aaf 08bd 24f9 65bc fa62 78bc
00000380: eaed 693d dcec 833d 4973 8dbd 9539 cdbd
00000390: 4277 db3d 292b 58bd 420b 0a3d 7023 c53d
000003a0: 8876 adbd 148c ef3c f142 debb 097a 2f3d
000003b0: 307a a039 26ff 18bd d985 cfbd 0e13 c23d
000003c0: 9e78 b83c 3c98 a93d 554f 183a 0a30 903d
000003d0: 2f06 32bd 0bfe fc3c 4930 8b3d 9a9e 30bd
000003e0: 221d a1bc e93f 6c3d 2b3f 23bd c624 1f3d
000003f0: 3ef8 a33d a187 7abc 9f66 f03c 78fd f4bc
0.09506162 0.09283158 -0.03964258 0.044307873 0.08273796 0.10265716 -0.011706666 -0.024783686
0.12356206 -0.041813407 -0.06351526 0.05832563 0.11834712 0.092415646 -0.02800156 0.020439323
0.03835744 -0.030097565 0.060405146 -0.10248397 0.07250058 0.1179641 -0.011904974 -0.03615376
0.08393086 0.03233653 0.0121213095 0.037065174 -0.04810882 0.01944184 0.021188674 0.083515696
-0.016914528 0.08288658 -0.06847746 0.030940931 0.08809312 0.0002893238 -0.09786137 -0.067513466
-0.04356217 0.031548023 -0.068059884 0.034653883 -0.057809662 0.084720686 0.04400831 0.057142343
0.0342318 0.04829109 0.07600686 0.0062824427 -0.08146879 0.032376565 0.08664653 -0.0556516
0.026405413 -0.02392398 -0.10557584 -0.036851015 0.06356923 0.0800261 -0.046426922 -0.06205818
-0.02324631 0.0007200546 0.06736416 0.03682399 -0.10152084 -0.03479999 0.07253821 0.09822517
-0.102915674 0.0266062 -0.03125573 0.06641518 0.064918 -0.07683801 0.060268313 -0.05483538
-0.04167852 0.0516727 0.0049957335 0.08417803 0.06367475 0.0048975474 -0.016221749 0.030434996
-0.046683636 0.077953555 0.12254016 0.0831291 0.08818914 -0.008665388 -0.04414585 -0.047016326
-0.08578535 -0.05552089 0.032609455 -0.011685423 0.09811935 0.061475534 -0.038099952 0.006427836
0.022893745 -0.0027130076 0.12860201 0.06651292 0.005102126 0.009407444 0.047454357 -0.018143421
-0.06616259 0.035828546 -0.008055025 0.046490833 -0.020591019 -0.021228258 -0.1057281 0.021799102
-0.07756022 0.0764172 0.02918139 0.09502769 -0.004241588 0.059262443 -0.07169858 -0.08621695
0.030925242 -0.034737427 0.077298634 0.06839854 0.010102269 0.06148471 0.0016179554 -0.014562186
0.06257714 0.10873547 0.030807626 -0.0006991619 0.005249252 0.11320991 -0.0045473613 0.03801001
-0.0064898687 -0.008581966 -0.0626679 0.013014186 0.071150154 0.07553478 -0.026152236 -0.040638432
-0.06262597 0.016488204 -0.009958653 -0.049288195 -0.029555758 0.008631263 0.010882378 0.06613064
0.10007279 0.054912925 0.0739442 -0.056821376 -0.06031726 0.08869753 -0.04324591 -0.065892644
0.038937278 0.03258169 0.0050871694 0.07846298 0.045139533 -0.00816734 -0.049642935 -0.074177004
0.020323748 -0.07189023 0.08384809 -0.036241725 -0.06326694 -0.07182804 0.055454478 0.058298647
0.0511067 -0.07079748 0.06569709 -0.09975489 0.0537245 -0.010448604 0.109104514 0.012959638
0.10207168 0.11693085 -0.0487634 0.1108547 -0.018906118 -0.004755482 -0.021373102 0.09291521
-0.014577868 -0.061665762 0.050015774 0.053242486 -0.009220348 0.08144176 0.035629842 -0.01187118
-0.09076981 0.052831538 0.07713107 -0.030864565 0.07963139 0.06326468 -0.04297844 0.074355096
-0.029121084 0.013044988 0.039108437 0.09121724 0.053620867 -0.03337059 -0.014036451 -0.015160317
0.05711166 0.06441662 -0.069067545 -0.100207485 0.10716106 -0.052775536 0.033702143 0.096259
-0.08469874 0.0292416 -0.0067828824 0.04284099 0.00030608615 -0.037352704 -0.10132951 0.09476291
0.022518452 0.082809895 0.0005810161 0.07040413 -0.04346293 0.030882856 0.06796319 -0.043120004
-0.019667212 0.057678137 -0.039855164 0.03885343 0.08006333 -0.0152911255 0.029345809 -0.02990602

rnn.bias_hh_l0 f4 [400]
00000000: a274 3a3d b7ef a1bd 794f 823a 21b7 983d
00000010: a94d bebc 6d5b 83bd 4338 af3d 1c1c cb3c
00000020: 142b 9d3d 26f1 5b3d 8235 ba3d 5770 023d
00000030: 786f 4bbc 856e 8fbc 19e1 0a3d 5654 3cbd
00000040: bc13 91bd 854f 53bd 0afa c5bd 3943 9ebd
00000050: 1d55 70bc 0b4a 7cbd 1e3a 153d 0628 ec3d
00000060: d8b8 dc3c c2c4 ac3c e406 e6bc b483 d1bd
00000070: 4d87 90bc bfb6 6f3d 7fd4 113d 9a4d 3dbd
00000080: 93e1 5bbd 31fc 2d3d b6fb 063d e3dc 8dbc
00000090: 441c a03c a269 8cbd 8b29 9dbc b748 a4bd
000000a0: f264 88bd c5ab c73d 4b47 903d 2d99 c83d
000000b0: e7b1 273c 8e10 f73d 262f d3bd 3a19 f93d
000000c0: 99a4 9fbc 308c 8abd bf5f 68bd 4169 b3bc
000000d0: 3b2b eabc 3396 1e3c 603d 95bc c103 58bd
000000e0: ab3e 2cbd c76d a83d 996f a83d 0659 5bbd
000000f0: 5581 033d ec46 7f3d a52d 153c 5eb4 a8bc
00000100: d45f ad3d cf13 e2bc 3ee7 98bd 3573 4c3c
00000110: 1a6e a13d 683a ce3d 89f3 913d aa45 f63d
00000120: a517 5e3d edd5 90bb 0e4d a5bb 4100 773d
00000130: 913f fdbb c44c cebd 1a9f 173d 2708 d53c
00000140: 7c59 37bd af2c a2bd a32c 183d 1939 46bd
00000150: 198d febc 5709 a9bc ad31 b4bd 206c 1cbc
00000160: 5932 643d f3f4 cc3d bfbc 94bc ba9f 93bb
00000170: fdd7 58ba b946 d93d 015b a83d 394a 91bd
00000180: 8176 11bd 4652 d43d eb2d 0a3d 7240 853d
00000190: 91b8 c03d 5cd3 a03d 7315 05bc a2b6 db3d
000001a0: 60a9 b23d 0c0b 58bd 418c 00bd b9eb c03d
000001b0: 1dfa b53c 6426 723c 79af 773c f46e 36bd
000001c0: 9ef0 d33d d047 da3d 2cad d93d fae6 653d
000001d0: 3b31 f23c b3b3 9dbb 8717 7b3d e23e 2cbd
000001e0: 71d5 243d 3321 783d 56ad 9a3d 3c8b 0d3d
000001f0: 8449 83bd 353b 99bc fe36 883d 0ceb 4e3d
00000200: a8fa d73d ac23 f53d 6e46 7b3d 3901 76bc
00000210: 14b5 cbbb 188a cf3d cf96 8e3d 61f8 ba3d
00000220: 6ad8 75bd d587 f33b 37c7 0dbd 5c62 a53d
00000230: 8a53 63bd 89f5 d33d 9167 b6bd f547 94bd
00000240: f9c6 713c bc6e 70bd ea57 e2bc 4e43 003e
00000250: 5890 1abc 2530 7dbd cfed c9bb e732 ccbd
00000260: 83a6 81bd cbff d2bd 6908 c13c b59b e63c
00000270: 1f94 9fbd 5517 b0bd 3940 7dbd f183 433d
00000280: 5b5f 84bd d94e acbd 6542 b2bc 72f1 113d
00000290: f7f6 32bc 170f 84bc 49d7 7c3c a7b4 393d
000002a0: 2da3 e9bc 1ca5 52bd a868 84bd e64b fdbc
000002b0: 840e fabc 5d6a 34bc 1f56 d93d a7bb fd3c
000002c0: 9c4b 713d 2a5c 0abd 9481 91bd a841 ba3a
000002d0: e3c6 bd3c b077 813d 81e9 25bd 46a1 443d
000002e0: f9ff 743c 37e5 c1bd 531a b2bd b231 b8bd
000002f0: 671e 63bd fb5c 903c 6840 60bc 4b9f ba3d
00000300: 6a5f 16bd 19f4 083d 33f7 013d 46f7 eb3d
00000310: f8df 9cbd 82dc 80bc 8cf9 a53d 82f3 1fbd
00000320: 270c 87bd 0840 3fbc 4d03 75bd 5f21 12bd
00000330: aead a53d c126 74bc 9994 1abd a8aa 3db8
00000340: b386 fbbc 3aa6 7e3b 0b9d a2bd a4a0 613d
00000350: f305 b93c d684 29bd f842 b43d 52b7 be3d
00000360: 38e3 c6bd ced4 8bba 0db6 cebc a910 49bd
00000370: 4fc8 74bd ad19 d9bc b565 0c3d 7a4b 8cbd
00000380: fd0c 193d 19d1 77bd b19e a13d 1c34 64bd
00000390: afa5 8cbd 4e49 1d3d 59ac 06bd 226b b2bd
000003a0: 0d53 103b 615e 343d e066 2f3b 0673 8dbc
000003b0: dd86 e93c e6ca 1ebd 7b10 f3bd dc6e 5ebd
000003c0: 9692 6ebd ca4f 84bb 1c8d bd3d 42eb 70bd
000003d0: e2bd 37bd fb86 5c3d f712 863d c44e af3d
000003e0: 486b 60bd 5696 303d 92fa d5bc 3bd6 d63d
000003f0: 8f1c ff3c 53c1 3fbd 947b bebd ee15 483d
0.045521386 -0.0790705 0.0009941898 0.07456804 -0.02323039 -0.064139225 0.08555653 0.024793677
0.07674232 0.053696774 0.09092237 0.031845417 -0.012416713 -0.017508755 0.033906076 -0.045978867
-0.07083842 -0.051589508 -0.09666832 -0.077276655 -0.01466873 -0.06159405 0.036432378 0.11531071
0.02694361 0.021089915 -0.028079458 -0.102301985 -0.017642641 0.05852389 0.035603043 -0.046216585
-0.05368192 0.042476837 0.032954894 -0.017317241 0.019544728 -0.06856085 -0.019184848 -0.08021682
-0.06659879 0.09749559 0.07044848 0.09794841 0.010235286 0.120637044 -0.10311727 0.12163015
-0.019487666 -0.0676502 -0.056731936 -0.021900775 -0.028585067 0.009679365 -0.018217742 -0.052737955
-0.042051952 0.08224063 0.082244106 -0.053551696 0.032105763 0.062323496 0.009105121 -0.020593818
0.084655434 -0.027597336 -0.07465981 0.012478639 0.07882328 0.10069734 0.07126529 0.12025006
0.054221768 -0.004420033 -0.005044586 0.060302977 -0.007728525 -0.10073236 0.037016965 0.026004864
-0.044763073 -0.07918679 0.037151944 -0.048394296 -0.03107314 -0.020634336 -0.087985374 -0.009547263
0.055712078 0.10007658 -0.018156407 -0.004505125 -0.0008271931 0.106091924 0.082204826 -0.07094235
-0.035513405 0.10367255 0.033735197 0.065064326 0.09410203 0.078528136 -0.00812279 0.10728194
0.08723712 -0.05274491 -0.031383757 0.094199605 0.02221399 0.014779661 0.01511752 -0.044539407
0.103486285 0.106582284 0.10628733 0.05612848 0.02956449 -0.0048126816 0.061301734 -0.042052157
0.040242616 0.060578536 0.075525925 0.034556612 -0.06410506 -0.01870499 0.06651114 0.050517127
0.10545856 0.119696945 0.061346464 -0.01501494 -0.0062166546 0.10133761 0.06962358 0.09129406
-0.06002084 0.007431964 -0.034613814 0.08075401 -0.05549959 0.103495665 -0.089064725 -0.07240287
0.014756911 -0.058699355 -0.027629811 0.12525675 -0.009433828 -0.061813492 -0.006162382 -0.09970646
-0.06330588 -0.10302695 0.02356358 0.028150419 -0.07791924 -0.085982 -0.061828826 0.04773325
-0.064635 -0.084134765 -0.021760175 0.03563065 -0.010923139 -0.016120477 0.015432187 0.0453383
-0.028520191 -0.05142699 -0.06465274 -0.03091998 -0.0305245 -0.011011687 0.106121294 0.030973269
0.058909997 -0.0337793 -0.07104793 0.0014210241 0.023166126 0.06321657 -0.04050589 0.048005365
0.014953607 -0.094675474 -0.08696427 -0.08993854 -0.055448916 0.017622462 -0.013687231 0.09112414
-0.036712088 0.033435915 0.03172989 0.11521773 -0.07659906 -0.015730146 0.08104238 -0.039050587
-0.06594115 -0.011672981 -0.0598176 -0.035676356 0.080897674 -0.014901818 -0.03773937 -4.5220047e-05
-0.030703878 0.0038856403 -0.0794011 0.05508484 0.022585845 -0.041386448 0.08801836 0.09312309
-0.09711307 -0.0010668279 -0.025233293 -0.049088154 -0.05976134 -0.026501501 0.034276683 -0.068503335
0.037365902 -0.060502145 0.07891596 -0.055713758 -0.06867539 0.038399987 -0.032879207 -0.0871184
0.0022022158 0.04403532 0.00267642 -0.017266762 0.02850669 -0.038767718 -0.11868378 -0.054304942
-0.058245264 -0.004037832 0.0925543 -0.05881811 -0.04485882 0.053839665 0.06546586 0.08559945
-0.05478981 0.04311212 -0.026120458 0.1049008 0.031141547 -0.046815228 -0.093009144 0.04884904

linear.weight f4 [1, 100]
00000000: 3138 ccbc 0b1a 5f3d 48d8 d03d b5ac 06bd
00000010: c3b8 bebd 4b01 44bd 8177 09be 9a73 0b3e
00000020: c0f7 c5bd efde debc e0ef 943c d7bc 1fbd
00000030: da08 ef3d bd9d 733d ec1f d3bd 070c b23d
00000040: dac5 a4bc b05b ccbd 1bb1 013d d2a7 da3b
00000050: 62d9 843d 645b 043e 2e43 65bc 92d0 06be
00000060: b293 813d 025a 403d 8e0f eb3d 9f1c 9dbd
00000070: fd25 de3d 2c0c 1ebd 0a14 84bc 410d b03d
00000080: 461e 19bd e651 d13d 998d 4bbc cc85 0ebd
00000090: 62b2 3dbd bc1c c03d 4baa 36bd 5898 643d
000000a0: c97b b3bd 885c d63d c229 9dbc 60c8 cb3d
000000b0: 145e ff3b 6893 fb3d f7ee e5bc 5ce6 cf3d
000000c0: ac2b 033e ea47 4abd f553 0fbd 57b5 3b3d
000000d0: 07ee 843c a7b4 983d fa10 90bd ae6b 01be
000000e0: 647d 43bc 5580 3abd 185a 803c efc4 333d
000000f0: 6780 87bd 4cbd a93c 7cdb cebd 6401 e13a
00000100: 6092 7f3c 57d4 9ebd bd65 1e3d 8da4 c1bc
00000110: 5d0a 8fbc a22e abbd 189b 053e 7ce9 a83d
00000120: 951c 483d d277 fcbd 9d71 88bd d2fa a3bd
00000130: 14be cebd c576 d1bb 0ab7 8c3d 34c4 8c3d
00000140: aabf 81bd 3aff 28bc dad8 04bd 8420 a6bd
00000150: 8724 b13c b295 8a3d f7b8 56bd cbba 83bd
00000160: 9dd7 963c 94b4 853d aa79 103e 14a0 bd3d
00000170: 4568 4b3b 7f14 58bd 2cab d3bc c2a8 99bd
00000180: 4100 3fbd a48b eb3d 27fd 87bd f10f 92bd
-0.024929138 0.054468196 0.101975024 -0.03287955 -0.09312584 -0.047852796 -0.13424493 0.13618317
-0.09666395 -0.027205912 0.018180788 -0.03899845 0.1167161 0.059476603 -0.10308823 0.086937
-0.020113874 -0.099784255 0.03166304 0.006672838 0.06486775 0.12925488 -0.013993068 -0.13165501
0.06326999 0.04696084 0.11477576 -0.07671475 0.108470894 -0.038585827 -0.016122837 0.08596278
-0.037382387 0.10220699 -0.012423896 -0.034795567 -0.046312697 0.09380481 -0.044595998 0.05580935
-0.087638445 0.10466868 -0.01918495 0.09950328 0.0077931974 0.12283975 -0.028068049 0.101513594
0.12809628 -0.04938499 -0.034992177 0.045827236 0.016226782 0.07456332 -0.07034488 -0.12638733
-0.011931751 -0.045532543 0.01566796 0.043888982 -0.06616288 0.020720147 -0.10100457 0.0017166552
0.015598863 -0.07755344 0.038671244 -0.023638034 -0.017460996 -0.08358504 0.13047445 0.082476586
0.048855383 -0.123275414 -0.06662295 -0.080068246 -0.10094848 -0.0063923323 0.068708494 0.0687336
-0.06335385 -0.010314757 -0.03243337 -0.081116706 0.021623863 0.06766833 -0.05242249 -0.06432112
0.01841336 0.06528583 0.14108911 0.09259048 0.0031037491 -0.05275392 -0.025838457 -0.07502891
-0.0466311 0.11501244 -0.06640082 -0.07131947
