backend/trained_models/GBIME_GRU_model_state_dict.pth (torch, 126732 bytes, 5 tensors)

rnn.weight_ih_l0 f4 [300, 1]
0	0xbcc2531d	-0.023721272
1	0x3da521c5	0.08063082
2	0xbcf4b509	-0.02987148
3	0x3d2a7bb2	0.04162187
4	0x3db80693	0.08985629
5	0x3df22543	0.11823513
6	0x3dc7a8dd	0.09749005
7	0xbbfe7ec5	-0.007766577
8	0xbcda8901	-0.026676657
9	0xbc6026e8	-0.013681151
10	0xbd099eca	-0.0335987
11	0x3d91f98b	0.07127675
12	0xbab14740	-0.0013525262
13	0x3c509c1d	0.012732533
14	0x3c60964f	0.013707711
15	0x3da065ca	0.07831915
16	0x3d914507	0.07093244
17	0x3d51d7a6	0.05123105
18	0x3dd6ddd9	0.10491533
19	0x3a1400d6	0.00056458765
20	0x3d9b305e	0.07577585
21	0x3d5faf16	0.054610334
22	0x3d0fcecf	0.035109337
23	0xbc2a4b1a	-0.010393882
24	0x3a8ecf7c	0.0010895575
25	0xbc0774d1	-0.008267597
26	0x3c5a5597	0.01332607
27	0xbd4c5790	-0.049888194
28	0x3c988618	0.018618628
29	0xbd664c42	-0.05622507
30	0xbdd4df8a	-0.10394199
31	0x3dc27a4e	0.09495984
32	0xbcafdd1e	-0.021467742
33	0x3d97a036	0.07403605
34	0x3c2a90e2	0.010410519
35	0x3d544e39	0.05183241
36	0xbd630175	-0.05542131
37	0x3dde1e47	0.10845619
38	0x3c836bdd	0.016042644
39	0xbdf415fc	-0.11918256
40	0xbd7a05fa	-0.061040856
41	0x3c8d8ec9	0.01728
42	0xbd14c00a	-0.036315955
43	0x3d147f54	0.036254242
44	0x3d605386	0.054767154
45	0x3d79f169	0.061021242
46	0x3d8284c3	0.063729785
47	0x3d5cfd96	0.053952776
48	0x3da2af54	0.079435974
49	0x3de53d91	0.111933835
50	0x3d01f884	0.031731144
51	0x3d24fdf3	0.040281247
52	0xbc09701c	-0.008388545
53	0x3c1b884e	0.009492947
54	0x3d65ba27	0.05608573
55	0xbd6de3c2	-0.058078535
56	0xbce8034b	-0.028321883
57	0xbc6c3d28	-0.014418878
58	0x3d2854de	0.04109656
59	0x3bd0188a	0.0063505815
60	0x3de128d9	0.10994119
61	0x3dbe3fee	0.09289537
62	0xbc90fb66	-0.017698001
63	0x3c91b268	0.017785266
64	0x3dbba3bc	0.09162089
65	0x3d385367	0.045001414
66	0xbbe0437f	-0.0068439837
67	0x3db7a3a7	0.08966761
68	0x3de71912	0.11284079
69	0x3d46d11c	0.048539266
70	0x3d379914	0.04482372
71	0xbd7ca8a4	-0.061684266
72	0x3c5b73f5	0.0133943455
73	0xbdbaf677	-0.09129041
74	0xbbe37ab3	-0.006942117
75	0xbd12776b	-0.035758417
76	0x3d98fdf5	0.074703135
77	0x3df2b36c	0.11850628
78	0xbdd5ffa1	-0.10449148
79	0x3dc5b11a	0.0965292
80	0x3dd89a95	0.10576359
81	0x3d2c9146	0.04213073
82	0xbd9ca943	-0.076494716
83	0x3d6aa4e4	0.05728616
84	0x3da781b6	0.08179037
85	0xbdb204f9	-0.08692355
86	0x3da894ba	0.08231492
87	0xbcdfaab9	-0.027303087
88	0xbd902f46	-0.07040267
89	0xbdc0cbdb	-0.09413882
90	0x3d0f1061	0.03492773
91	0xbd36ff5c	-0.044677123
92	0x3c493e57	0.012282929
93	0xbd922a91	-0.07137025
94	0xbcd63d7f	-0.02615237
95	0xbd23fd8b	-0.04003672
96	0x3dd31134	0.103060156
97	0x3cbbafb0	0.022910923
98	0xbd006755	-0.031348545
99	0xbcfd3005	-0.030906687
100	0xbd719463	-0.058979403
101	0x3caa60c9	0.020798104
102	0xbd9e4a20	-0.07728982
103	0x3d2f1c4c	0.042751595
104	0xbdcd4bec	-0.100242466
105	0x3903ebbb	0.0001258095
106	0xbdd047b7	-0.101699285
107	0x3d3e2338	0.046420306
108	0x3c393528	0.011304177
109	0xbe179d01	-0.14805986
110	0xbe060ddc	-0.13091224
111	0xbe0f8d6c	-0.14018792
112	0x3cf3888c	0.029728197
113	0xbde7e7dd	-0.11323521
114	0xbd0c3bbc	-0.034236655
115	0x3c8c6421	0.017137589
116	0xbe0185c6	-0.12648687
117	0xbd265568	-0.040608793
118	0xbdd8b2e4	-0.10580996
119	0xbd98133a	-0.07425542
120	0xbe08407c	-0.13305849
121	0x3be82cf4	0.007085437
122	0x3d75fcec	0.06005566
123	0xbc51069d	-0.012757924
124	0xbd516252	-0.051119156
125	0xbd65419c	-0.055970773
126	0xbe0c14de	-0.13679835
127	0xbd8aac85	-0.06771187
128	0x3d3cd8a6	0.04610505
129	0xbc6f20e7	-0.014595247
130	0x3d15903a	0.0365145
131	0xbce2374e	-0.027614262
132	0xbdc31607	-0.09525686
133	0xbb14efe8	-0.0022726003
134	0x3912462b	0.00013949785
135	0xbc76001a	-0.015014673
136	0x3d8a1369	0.067419834
137	0x3d09ec46	0.033672594
138	0x3c73263a	0.014840657
139	0xbd922e4e	-0.07137738
140	0xbdfa8da1	-0.12234045
141	0xbd3027a5	-0.043006558
142	0x3d6a83a1	0.057254437
143	0x3d7141c4	0.05890061
144	0xbe129cae	-0.14317581
145	0xbe0d9ef3	-0.13830166
146	0xbccdd047	-0.025123728
147	0xbdcfaf77	-0.10140889
148	0xbddf963f	-0.10917329
149	0x3d92f16e	0.07174955
150	0xbdaeb543	-0.08530667
151	0xbe0abff1	-0.13549782
152	0xbde6e1af	-0.112735145
153	0xbdac2d3d	-0.08407066
154	0x3db92e3b	0.09042021
155	0xbdbd00c5	-0.092286624
156	0x3c3be10f	0.011467232
157	0xbd80b82f	-0.0628513
158	0xbe06f4b0	-0.13179278
159	0xbe226c3e	-0.15861604
160	0xbe0bc186	-0.13648042
161	0xbd9cfcfd	-0.07665441
162	0x3c55d1a4	0.0130504705
163	0xbdbb400f	-0.091430776
164	0xbd4a71a0	-0.049424767
165	0xbd9041b8	-0.07043785
166	0xbe0a7f83	-0.13525204
167	0xbe0b4387	-0.13599978
168	0x3cd1b72f	0.025600044
169	0xbe30142e	-0.17195198
170	0xbd2e553b	-0.04256175
171	0xbdbfa1af	-0.093570106
172	0xbe0e7dc4	-0.13915163
173	0xbe13a4b4	-0.14418298
174	0xbe1a5789	-0.15072455
175	0xbd477185	-0.048692245
176	0xbc0509a2	-0.008119972
177	0xbd40d9f8	-0.04708287
178	0x3ac3f504	0.001495034
179	0xbe1ec6b1	-0.15505482
180	0xbdf10627	-0.117687516
181	0xbe0c71da	-0.13715306
182	0xbd87a658	-0.066235244
183	0xbdfd3cf0	-0.123651385
184	0xbc754672	-0.014970409
185	0xbe03d7f7	-0.12875353
186	0x3bce38d1	0.006293394
187	0xbb82a4e7	-0.003986943
188	0x3b83de3f	0.0040242965
189	0xbd077555	-0.03307088
190	0xbddfc249	-0.10925729
191	0xbd270fb3	-0.040786456
192	0xbd516d0c	-0.051129386
193	0xbd24daf1	-0.04024786
194	0x3d05daa5	0.03267922
195	0xbd861057	-0.06546085
196	0xbdc7b199	-0.09750671
197	0x3c27da84	0.010244969
198	0xbd04e641	-0.03244615
199	0xbe0e0245	-0.13868053
200	0x3deafb01	0.114736564
201	0x3d675a10	0.056482375
202	0x3df72a5a	0.12068625
203	0x3c8253c5	0.015909085
204	0x3d71b071	0.05900616
205	0xbc8fe00a	-0.017562885
206	0xbdab8078	-0.08374113
207	0xbc493478	-0.012280576
208	0x3d37a9c1	0.044839624
209	0xbcd258a3	-0.02567703
210	0xbde39159	-0.11111707
211	0xbd14ca09	-0.03632549
212	0xbd8372ba	-0.06418367
213	0x3dc98e8c	0.09841642
214	0x3d705bea	0.058681406
215	0x3d9b2410	0.07575238
216	0xbd9d4837	-0.076797895
217	0x3dcb9feb	0.09942611
218	0x3daee794	0.08540264
219	0xbd878d5b	-0.06618758
220	0xbd83b5f3	-0.064311884
221	0xbca65e9f	-0.02030879
222	0x3ce9efff	0.028556822
223	0x3d4a7e0a	0.049436606
224	0xbca384e9	-0.019960837
225	0xbda94e7e	-0.08266924
226	0xbdc12579	-0.094309755
227	0x3cc51fc7	0.024063004
228	0x3ce525e1	0.027972164
229	0x3d919285	0.071080245
230	0xbdadc6d0	-0.08485186
231	0x3d644109	0.055726085
232	0x3da40e3f	0.0801053
233	0x3d2a18a7	0.041527417
234	0x3d53d85a	0.05172
235	0x3da62dec	0.08114228
236	0xbc1f535d	-0.009724465
237	0xbd3434fb	-0.04399584
238	0x3db31ded	0.08745942
239	0x3daed9b5	0.08537618
240	0xbde78778	-0.113051355
241	0xbc8ff022	-0.017570559
242	0xbd23e136	-0.0400097
243	0x3d3bf353	0.04588635
244	0x3dae7f32	0.08520354
245	0x3d2ea0a2	0.04263366
246	0xbdc76da8	-0.09737712
247	0xbdeb1759	-0.114790626
248	0xbd9a17b1	-0.0752405
249	0x3cd74ec7	0.026282681
250	0x3da394ea	0.079873875
251	0x3ddbc333	0.10730591
252	0xbdde266d	-0.10847173
253	0x3d252d47	0.040326383
254	0xbd5200a5	-0.051270146
255	0x3c0ead50	0.008708313

rnn.weight_hh_l0 f4 [300, 100]
0	0xbd33cb2d	-0.043894935
1	0xbd686540	-0.056737185
2	0xbd73b1e7	-0.059495833
3	0x3d006539	0.031346533
4	0xbdd4c332	-0.10388793
5	0x3dc91abe	0.09819554
6	0x3b9a8b78	0.004716333
7	0xbda1454b	-0.07874545
8	0xbdc6d8d8	-0.097093284
9	0xbd48d854	-0.04903443
10	0x3dc964af	0.09833657
11	0x3dbc7cea	0.09203513
12	0x3cb140f0	0.02163741
13	0xbdcad11a	-0.09903164
14	0xbdb53441	-0.08847857
15	0xbd5b9f2d	-0.0536186
16	0xbd9026c1	-0.07038642
17	0xbc975941	-0.018475177
18	0xbd158589	-0.036504302
19	0xbd393f01	-0.0452261
20	0xbca7a977	-0.02046655
21	0x3d2e6b04	0.042582527
22	0xbd31ad53	-0.043378185
23	0xbd0eab64	-0.03483142
24	0xbd570ad7	-0.052500572
25	0x3daa7ffe	0.08325194
26	0x3cdf06ce	0.027224924
27	0x3d57ca66	0.052683257
28	0x3d184b05	0.03718092
29	0xbd149d5f	-0.036282893
30	0x3dab6111	0.08368123
31	0xbd7a8eea	-0.06117145
32	0xbd711453	-0.058857273
33	0x3d8adfe1	0.06780983
34	0xbc772cf0	-0.0150863975
35	0xbc322081	-0.010872007
36	0x3d454bf0	0.048168123
37	0x3d3147c3	0.043281328
38	0xbddf60f6	-0.10907166
39	0xbda57814	-0.08079544
40	0x3d246833	0.040138435
41	0xbd909b6d	-0.07060895
42	0x3d6f6c52	0.05845291
43	0xbacd3c6d	-0.0015658267
44	0xbcbc9183	-0.023018604
45	0x3d595ebb	0.053068858
46	0x3dd66d8a	0.10470112
47	0xbd44308d	-0.047897864
48	0x3c8c6849	0.01713957
49	0xbd82c257	-0.06384724
50	0xbd02ded2	-0.03195078
51	0xbd6fd5fa	-0.058553673
52	0x3cfdf678	0.031001315
53	0x3d7f11dc	0.06227289
54	0xbd92acf4	-0.071618944
55	0xbd81e56a	-0.063425854
56	0xbde0c981	-0.10975934
57	0x3cbba0f0	0.02290389
58	0xbdc34b7f	-0.09535884
59	0xbd1b2a01	-0.037881855
60	0xbc5cd773	-0.0134791015
61	0x3d8e5a35	0.069507994
62	0xbd8579c4	-0.065173656
63	0xbdd8577b	-0.105635606
64	0x3d21804b	0.03942899
65	0x3c0d544c	0.008626055
66	0xbcdb6b04	-0.026784427
67	0xbd84af85	-0.0647879
68	0xbd8d7be1	-0.06908394
69	0x3b55d60d	0.0032628805
70	0x3d03f7e8	0.032218844
71	0x3d72df9f	0.059295293
72	0x3d819122	0.0632651
73	0x394f67dd	0.0001977975
74	0xbd7a0ce7	-0.06104746
75	0xbd8cac2a	-0.06868775
76	0xbd34666f	-0.044043
77	0x3c805202	0.015664104
78	0x3d5a9db7	0.053373065
79	0x3dc0a03c	0.09405562
80	0x3d9dbf94	0.07702556
81	0x3dbcc778	0.09217733
82	0x3dc3f335	0.095678724
83	0x3d238f2e	0.03993147
84	0x3c122bee	0.0089216065
85	0x3dc32cf4	0.095300585
86	0xbddef41c	-0.10886404
87	0x3d0c153f	0.03419995
88	0x3d6fcbb1	0.058543865
89	0xbd3cdb27	-0.046107437
90	0xbcf38ab4	-0.029729225
91	0xbd1d5b31	-0.038417045
92	0xbc93b051	-0.01802841
93	0x3cda3759	0.02663772
94	0x3d7716cb	0.06032447
95	0xbd2d4497	-0.04230174
96	0x3d749948	0.059716493
97	0x3cadd9de	0.021222051
98	0xbd9ac72a	-0.07557519
99	0x3b0a9e18	0.002115136
100	0xbcdb58df	-0.026775775
101	0x3dca7f8e	0.098876104
102	0x3c9235ba	0.017847884
103	0x3b8cfbd0	0.0043024793
104	0x3bd3b784	0.0064610858
105	0x3ddfa9a2	0.10921027
106	0x3d8c742a	0.06858094
107	0x3c35fcc1	0.0111076245
108	0x3dc3fe46	0.09569983
109	0xbd3d9557	-0.046285
110	0x3d8f8340	0.07007456
111	0x3db66dcf	0.08907663
112	0x3bc7fd6b	0.006103208
113	0x3d276740	0.04086995
114	0xbcdbf665	-0.026850889
115	0xbce80cde	-0.028326448
116	0x3db884ce	0.090097055
117	0xbc2438e1	-0.010023327
118	0x3d5ef35a	0.054431297
119	0x3d5d0242	0.05395723
120	0xbddb97c4	-0.10722306
121	0x3cce21d7	0.02516262
122	0xbcd1f663	-0.025630182
123	0xbd2d6b8e	-0.0423389
124	0x3b31d320	0.0027133897
125	0xbcc1ecdf	-0.02367252
126	0xbdb45366	-0.088049695
127	0x3d8c29f5	0.0684394
128	0x3dae16c2	0.085004345
129	0x3d5f34ac	0.05449359
130	0xbc397cfb	-0.011321302
131	0x3c472ea2	0.012157114
132	0xbd94c93d	-0.07264946
133	0x3d89de6e	0.06731878
134	0x3c97cd9f	0.018530665
135	0x3d890650	0.06690657
136	0xbd85c411	-0.06531537
137	0x3bbe19d9	0.005801421
138	0xbd2f0f98	-0.04273948
139	0x3c4b615d	0.01241335
140	0xb9e149f0	-0.00042970432
141	0xbb9db7b0	-0.004813157
142	0xbdcfa301	-0.101385124
143	0x3d9c7d86	0.07641129
144	0xbd0f8614	-0.035039976
145	0x3ccb9909	0.024853246
146	0xbd105039	-0.035232756
147	0xbcb00dcb	-0.021490952
148	0xbd3e8086	-0.04650929
149	0xbdd65eac	-0.10467276
150	0xbc6c2f6a	-0.014415601
151	0x3d35b23a	0.044359423
152	0xbc31c428	-0.01084999
153	0xbbb71c45	-0.005588087
154	0x3de16293	0.1100513
155	0xbdacec09	-0.08443458
156	0x3b3b0aa4	0.0028540278
157	0x3ddb6d22	0.10714175
158	0xbdb62caa	-0.08895238
159	0xbd1b8884	-0.03797199
160	0x3d39885b	0.045296054
161	0x3d625360	0.055255294
162	0x3de239d5	0.11046187
163	0xbd979b5e	-0.07402681
164	0x3bcda07b	0.0062752343
165	0x3c801d2a	0.015638907
166	0xbd1cd3eb	-0.03828804
167	0x3ca2ff80	0.019897223
168	0xbd92c66f	-0.071667545
169	0x3dd7e4e4	0.10541704
170	0xbda504c2	-0.08057548
171	0x3d191b4b	0.037379544
172	0xbc7d5e70	-0.01546441
173	0xbd8e09dd	-0.06935475
174	0xbd128c4c	-0.03577833
175	0x3ca8f1e4	0.020623155
176	0x3db39e42	0.0877042
177	0xbb8de718	-0.004330527
178	0xbd903aed	-0.07042489
179	0x3d8ca170	0.06866729
180	0xbc27e939	-0.010248476
181	0xbd915ce9	-0.07097799
182	0x3cd683f7	0.026185973
183	0xbc6e459e	-0.014542965
184	0x3d6cbc05	0.057796497
185	0xbd0b0796	-0.03394278
186	0x3d5999e3	0.053125273
187	0xbd8134d7	-0.063089065
188	0x3d84f98b	0.06492909
189	0xbd82e5e7	-0.06391507
190	0xbd4e1e1b	-0.05032168
191	0x3dfc002e	0.12304722
192	0x3c097b27	0.008391178
193	0x3c989908	0.018627658
194	0xb9e5ecb2	-0.00043854635
195	0xbd176e5b	-0.036970478
196	0xbc19b973	-0.009382593
197	0x3d66aa20	0.056314588
198	0xbc428466	-0.011872387
199	0x3d037d04	0.032101646
200	0xbd3a44c9	-0.045475755
201	0x3de9baf6	0.11412613
202	0x3d41cf32	0.047316737
203	0xbc0304f9	-0.007996791
204	0xbc3ce275	-0.011528601
205	0x3d090017	0.03344735
206	0xbce2ad6f	-0.02767059
207	0x3cab7ef1	0.020934554
208	0xbc7b3c90	-0.015334263
209	0x3d62e073	0.055389833
210	0x3cdd2977	0.026997311
211	0xbbedaee6	-0.0072535155
212	0xbdd2b1d1	-0.10287822
213	0xbddec833	-0.10878029
214	0x3d06a275	0.032869775
215	0x3dd25320	0.10269761
216	0xbd5b1f72	-0.053496785
217	0xbdab83bf	-0.08374738
218	0x3caa4865	0.020786474
219	0xbcddeb7e	-0.02708983
220	0x3d238784	0.03992416
221	0x3c4dc011	0.012557999
222	0xbdb9fdf9	-0.090816446
223	0xbcb56975	-0.022145012
224	0xbd8d14d2	-0.06888737
225	0x3d917702	0.07102777
226	0xbcb4a221	-0.022049965
227	0xbdaaa864	-0.08332899
228	0x3dfaff17	0.12255686
229	0x3d911748	0.07084519
230	0x3de65bc9	0.112479754
231	0x3cfc4d9f	0.030798731
232	0xbc35cbb3	-0.011095929
233	0x3da0f650	0.078594804
234	0xbdef701c	-0.11691305
235	0x3cec1170	0.028816909
236	0xbc55dbe3	-0.013052913
237	0xbd93cb00	-0.072164536
238	0x3d8e6d7a	0.06954475
239	0xbcdd453c	-0.027010553
240	0x3d75cf34	0.060012057
241	0x3bf1ae9e	0.0073755523
242	0x3d5db100	0.05412388
243	0x3df20dc6	0.11819033
244	0xbd475c4f	-0.048672017
245	0xbd1009bd	-0.035165537
246	0x3cbed764	0.023296066
247	0x3da459f6	0.08024971
248	0x3c8bedd0	0.017081171
249	0xbd9abd87	-0.07555681
250	0xbdcc7735	-0.099836744
251	0x3d8356ab	0.06413015
252	0xbc0ea9e8	-0.008707501
253	0x3dca641a	0.09882374
254	0x3dd81918	0.10551661
255	0x3c374da1	0.011187942

rnn.bias_ih_l0 f4 [300]
0	0x3d9a6955	0.07539622
1	0x3d6cde88	0.05782941
2	0x3de24209	0.110477515
3	0xbd8bd3a2	-0.06827475
4	0xbd9224d8	-0.07135934
5	0x3cf1bc84	0.029508837
6	0x3d6835bf	0.05669188
7	0xbd319928	-0.04335895
8	0xbcd69e62	-0.02619857
9	0xbd56d818	-0.052452177
10	0xbcabd52d	-0.020975674
11	0xbc98b976	-0.018643122
12	0xbdd691bf	-0.104770176
13	0x3dbce4f3	0.09223356
14	0xbd92f54e	-0.071756944
15	0xbd8267d9	-0.063674636
16	0x3d1d020a	0.038332023
17	0xbd03885b	-0.03211246
18	0x3c7e58f8	0.0155241415
19	0x3d9874da	0.07444163
20	0xbd72c862	-0.05927313
21	0xbc01153f	-0.007878601
22	0xbce00422	-0.02734572
23	0x3b24b50a	0.0025132322
24	0xbd9efdad	-0.077632286
25	0x3d29b6e9	0.041434202
26	0x3d48aad5	0.048991043
27	0xbd0b90a4	-0.034073487
28	0xbdcdd2da	-0.10049982
29	0xbd7e47d6	-0.062080227
30	0xbd14e94c	-0.0363553
31	0x3da12df7	0.07870095
32	0xbdf538db	-0.11973735
33	0x3d2203d1	0.03955442
34	0xbdb91488	-0.09037119
35	0x3df0f5b6	0.11765616
36	0xbd70f1cd	-0.05882435
37	0x3da3b8ae	0.07994209
38	0xbccb5c46	-0.024824273
39	0x3b3f92d3	0.00292318
40	0xbd5afc9c	-0.053463563
41	0xbcad0d9f	-0.02112466
42	0xbd2fa3bb	-0.042880755
43	0xbd6e5582	-0.058187015
44	0x3d3fdfde	0.046844356
45	0x3da08481	0.07837773
46	0x3d2873ad	0.041125942
47	0x3d13d0ee	0.036087923
48	0x3d370707	0.044684436
49	0xbd03e716	-0.032202803
50	0x3d9e7f6f	0.0773915
51	0xbc23ae2e	-0.009990258
52	0xbdf0b161	-0.11752582
53	0xbd8b237d	-0.06793878
54	0xbd854cc8	-0.065087855
55	0xbcdc3c44	-0.026884206
56	0x3d9a1d62	0.075251356
57	0x3d8539be	0.06505154
58	0xbd150346	-0.036380075
59	0x3cd11930	0.025524706
60	0xbd672202	-0.056428917
61	0xbcf60486	-0.030031454
62	0x3ca2a6ca	0.019854922
63	0x3d887ee2	0.06664826
64	0xbdc9af39	-0.09847874
65	0xbca120f7	-0.01966904
66	0x3cae14ae	0.021250095
67	0xbbec5d3f	-0.0072132642
68	0x3d2ff5ba	0.042958952
69	0x3d8dd60a	0.0692559
70	0x3db87f46	0.090086505
71	0x3d2839e1	0.041070823
72	0xbd89cae0	-0.067281485
73	0x3d5e2254	0.054231957
74	0xbd3ce39f	-0.046115514
75	0xbd88faa3	-0.0668843
76	0xbdb39b89	-0.087699
77	0x3c1ade6a	0.009452442
78	0xbdbbc4f8	-0.09168428
79	0x3dedcfb8	0.11611885
80	0xbd86a2e9	-0.065740414
81	0x3dc4594d	0.09587345
82	0x3dfc4737	0.12318271
83	0xbd3668d4	-0.044533566
84	0x3dc6debb	0.09710451
85	0xbb5534d1	-0.0032532702
86	0x3be882eb	0.0070956848
87	0xbd457eae	-0.048216514
88	0xbd2997b8	-0.041404456
89	0xbbab893d	-0.005234866
90	0xbd5f8423	-0.054569375
91	0x3d8bf297	0.0683338
92	0x3d6c718a	0.057725467
93	0x3d4b8bc4	0.049693838
94	0x3c943041	0.018089416
95	0xbd3d5b48	-0.04622963
96	0x3de14f0d	0.11001406
97	0x3dbe3c6f	0.092888705
98	0x3d4446ac	0.04791896
99	0x3cc7a746	0.024371754
100	0xbe3afda6	-0.18260822
101	0xbdd2f21b	-0.10300084
102	0xbdb3c0d6	-0.08777015
103	0x3dab474e	0.0836321
104	0xbe1c3493	-0.1525443
105	0xbd8031be	-0.062594876
106	0x3d684511	0.05670649
107	0xbe19c656	-0.15017065
108	0xbd454979	-0.048165772
109	0xbdce430b	-0.10071381
110	0xbe145394	-0.14485008
111	0xbd573e3b	-0.052549582
112	0xbde0d086	-0.10977273
113	0xbcf41c3b	-0.029798618
114	0xbd305d99	-0.04305801
115	0xbdf59848	-0.11991936
116	0xbe37fce4	-0.17967564
117	0xbe3dd531	-0.18538357
118	0x3b86b843	0.004111321
119	0xbe445bf9	-0.1917571
120	0xbe25776a	-0.16158834
121	0xbd3aada3	-0.04557575
122	0x3cae01a9	0.021241026
123	0xbd79b98f	-0.060967978
124	0x3cbd7e68	0.023131564
125	0xbde3c8e5	-0.11122302
126	0xbe2d3d9e	-0.16918036
127	0xbd279a06	-0.040918373
128	0xbbe1f686	-0.006895843
129	0xbce44254	-0.027863659
130	0x3c953190	0.01821211
131	0xbbbd27b5	-0.0057725557
132	0xbc3cd1e4	-0.011524651
133	0xbdd358bf	-0.10319661
134	0xbb3b0ccf	-0.002854157
135	0xbd8fbef8	-0.07018846
136	0x3d8ddf42	0.06927349
137	0xbd82e938	-0.06392139
138	0xbe1b2c37	-0.15153585
139	0xbe1206e3	-0.1426044
140	0xbe19304d	-0.14959832
141	0xbda4e660	-0.08051753
142	0x3dcf3d7b	0.10119148
143	0xbcb78bfd	-0.022405619
144	0xbd0124bb	-0.03152917
145	0xbc70129d	-0.014652875
146	0x3cae4cb5	0.021276811
147	0xbb3edb5d	-0.002912245
148	0x3bc896f5	0.006121511
149	0x3d9b2419	0.075752445
150	0xbd2a6210	-0.041597426
151	0xbd40687c	-0.046974644
152	0xbd8ee807	-0.069778495
153	0xbe0e3f55	-0.13891347
154	0xbcadd9a3	-0.021221941
155	0xbd120d06	-0.03565695
156	0xbddcb75a	-0.10777159
157	0xbdf313a1	-0.11868978
158	0x3c4b67d0	0.012414888
159	0xbd73abdd	-0.059490073
160	0xbe33d44f	-0.17561458
161	0xbe28013b	-0.1640672
162	0x3bb70f75	0.0055865594
163	0xbe05c88b	-0.13064782
164	0x3a0ad2aa	0.00052956736
165	0xbdbba1cf	-0.09161722
166	0xbe1c13f4	-0.15241987
167	0xbc38f705	-0.011289363
168	0xbd551250	-0.052019417
169	0xbe2c622c	-0.16834325
170	0x3bdd518e	0.006754107
171	0xbd3fdcda	-0.04684148
172	0xbe00953e	-0.12556931
173	0xbd84bb25	-0.064810075
174	0xbc98a2ac	-0.018632255
175	0xbd7c0d49	-0.061536107
176	0xbe0e98a4	-0.13925415
177	0xbe2c846f	-0.16847394
178	0x3c106d15	0.00881507
179	0xbe1759ba	-0.14780322
180	0xbba78bd3	-0.005113104
181	0xbc56fa97	-0.013121269
182	0xbcd13271	-0.025536748
183	0xbe210e86	-0.15728197
184	0x3c2dbcee	0.010604126
185	0xbe09e356	-0.13465628
186	0xbdf4e558	-0.11957806
187	0xbd9f46cb	-0.077771746
188	0xbddae19e	-0.10687564
189	0xbe04d6ef	-0.12972616
190	0xbe39f854	-0.18161136
191	0xbd8e24de	-0.069406256
192	0xbe1d7bed	-0.15379305
193	0x3db9e7da	0.09077425
194	0xbd87bbb3	-0.06627598
195	0xbc8f8a71	-0.017522069
196	0xbd88d641	-0.06681491
197	0xbe39b40a	-0.18135086
198	0xbcdd80c9	-0.027038949
199	0xbe410103	-0.18848042
200	0x3dd26b8a	0.10274418
201	0x3d8a3e7a	0.06750198
202	0x3d63d718	0.05562505
203	0x3d6accbb	0.057324152
204	0xbda95623	-0.082683824
205	0x3d6649bd	0.056222666
206	0x3d41ee93	0.047346663
207	0xbd9b5f81	-0.07586575
208	0x3c28e7be	0.010309158
209	0xbdbe2946	-0.09285216
210	0x3d8bc6ad	0.06825004
211	0xbc36ae92	-0.011150019
212	0xbd90a545	-0.07062773
213	0xbd61e416	-0.05514916
214	0xbc15673a	-0.009118849
215	0x3c42fc7b	0.011901016
216	0x3d7506ad	0.05982082
217	0x3dc88c52	0.09792389
218	0x3d967e21	0.07348276
219	0xbd347eed	-0.04406636
220	0xbcfc4483	-0.030794388
221	0xbd8de7da	-0.06928988
222	0xbdd3da1b	-0.10344335
223	0x3d54e60b	0.0519772
224	0x3b9da063	0.0048103794
225	0xbcd0a758	-0.02547042
226	0x3d975c88	0.07390696
227	0x3cc23102	0.02370501
228	0x3c1bf47f	0.009518742
229	0xbc4340da	-0.011917317
230	0x3d9e81f9	0.07739634
231	0x3d754bd3	0.059886765
232	0xbc7923bb	-0.015206273
233	0x3dca135e	0.09866975
234	0xbd899cb7	-0.06719344
235	0xbc9f1169	-0.019417481
236	0x3dabd413	0.08390059
237	0x3cffdc79	0.03123306
238	0x3dd8de7a	0.10589309
239	0xbd92cdb2	-0.071681395
240	0xbdbe042d	-0.0927814
241	0xbcaddbac	-0.021222912
242	0xbd16d81f	-0.036827203
243	0x3da2cfca	0.07949789
244	0xbdbd3224	-0.09238079
245	0x3d7fdd9d	0.062467206
246	0x3d3b41b7	0.045716967
247	0x3cb58013	0.022155797
248	0x3d1a7273	0.037706804
249	0xbc87d003	-0.01657868
250	0x3c4bc046	0.012435978
251	0xbd3e69a8	-0.04648748
252	0xbd055470	-0.03255123
253	0x3dca5363	0.09879186
254	0x3d90ca43	0.07069828
255	0xbd6bc4b4	-0.057560638

rnn.bias_hh_l0 f4 [300]
0	0xbdc47d0d	-0.09594164
1	0xbd3d76ce	-0.04625588
2	0xbc0e9025	-0.008701359
3	0x3cbac19e	0.022797402
4	0xbda3954d	-0.07987461
5	0x3de7e1f8	0.11322397
6	0xb9ff4f05	-0.00048696264
7	0xbcbac2b6	-0.022797924
8	0x3d8f3b35	0.06993715
9	0xbdf54ced	-0.11977563
10	0xbb6506f8	-0.003494678
11	0x3cc4dc17	0.024030728
12	0x3cf34582	0.02969623
13	0x3b8bf00a	0.0042705582
14	0xbd1bc643	-0.038030874
15	0xbd49a87f	-0.049232956
16	0x3cbcac4f	0.023031382
17	0x3d51ee56	0.051252685
18	0x3d83b3ed	0.064308025
19	0x3c8f10a4	0.01746399
20	0x3ce3813b	0.027771583
21	0x3daae22c	0.0834392
22	0x3c924304	0.017854221
23	0xbd01ef8b	-0.031722587
24	0xbc2a942e	-0.010411305
25	0x3d440438	0.047855586
26	0x3c18da7e	0.009329436
27	0x3dc3e800	0.09565735
28	0xbc3c795a	-0.011503542
29	0xbc2b96c2	-0.010472955
30	0xbd9f3347	-0.07773452
31	0x3d33715c	0.04380928
32	0xbdf41abf	-0.11919164
33	0xbc0b2a53	-0.008493978
34	0x3dafc906	0.08583264
35	0xbcb3393c	-0.021877877
36	0x3daea75e	0.085280165
37	0xb9ee01e5	-0.0004539631
38	0x3d816544	0.06318143
39	0x3d2f7e90	0.04284531
40	0x3daefa03	0.0854378
41	0x3d0f2bc5	0.03495385
42	0x3dc8f8de	0.09813093
43	0x3d06d301	0.032916073
44	0xbce1d1fc	-0.027565949
45	0x3dabd9b9	0.08391137
46	0x3ca34b22	0.019933287
47	0xbd093bcf	-0.033504304
48	0x3b91da12	0.004451045
49	0x3d8bda9d	0.068288065
50	0x3db25815	0.087082066
51	0x3d4fb981	0.05071402
52	0x3b848036	0.0040436042
53	0xbdf3e494	-0.11908832
54	0xbbbbf548	-0.005736027
55	0xbce0fbf1	-0.027463885
56	0x3dd46149	0.10370118
57	0xbc9a6cfc	-0.018850796
58	0x39b7f62f	0.000350879
59	0xbd3a9542	-0.0455525
60	0xbbd9e9bd	-0.006650178
61	0xbd794019	-0.060852144
62	0x3d1b74e7	0.037953284
63	0xbda19f1c	-0.07891676
64	0xbd90824e	-0.07056104
65	0x3dcca0d9	0.09991617
66	0x3ccea829	0.02522667
67	0xbc914603	-0.01773358
68	0x3ceaeceb	0.028677424
69	0x394b432c	0.00019384612
70	0x3dce46dc	0.10072109
71	0x3d3853fb	0.045001965
72	0x3d7fc78f	0.062446173
73	0x3c889f2d	0.016677463
74	0xbdd922fa	-0.106023744
75	0xbd8405b0	-0.06446397
76	0x3da649f1	0.08119572
77	0xbd83f3c8	-0.06442982
78	0x3d9a06f4	0.075208575
79	0x3d360b2f	0.04444426
80	0xbb32f226	-0.0027304976
81	0xbd26bcbb	-0.04070733
82	0xbcb9e3e9	-0.022691684
83	0x3d58407d	0.052795876
84	0xbd8eb7ff	-0.06968688
85	0xbda01f84	-0.07818511
86	0x3cf3de2e	0.02976903
87	0x3da28efc	0.07937428
88	0x3dbbf212	0.091770306
89	0xbcb825bc	-0.02247893
90	0xbd992e45	-0.07479528
91	0x3d895313	0.06705298
92	0x3de8ac0b	0.113609396
93	0x3e026fa0	0.12737894
94	0x3d88ecab	0.06685766
95	0x3b413df3	0.0029486388
96	0x3d0881f1	0.033327047
97	0x3dda0d87	0.106471114
98	0xbde44976	-0.11146824
99	0xbcd82bc6	-0.02638806
100	0xbe1fea57	-0.15616737
101	0xbe3aeac4	-0.18253618
102	0xbe0e312c	-0.13885945
103	0x3cf6f42d	0.030145729
104	0xbddb7c0b	-0.10717019
105	0xbc571dc4	-0.013129655
106	0x3d4239f4	0.04741855
107	0xbcdab900	-0.026699543
108	0x3d6058d7	0.054772224
109	0xbd46f1b5	-0.048570354
110	0xbdf0378e	-0.11729346
111	0xbe22b79b	-0.15890352
112	0xbdcd9ac2	-0.10039283
113	0xbe1f225b	-0.1554045
114	0x3a25b9b6	0.00063219236
115	0xbdd5d2ab	-0.10440572
116	0xbde523c1	-0.1118846
117	0xbc56129f	-0.013065963
118	0xbd2d0e5a	-0.042250015
119	0xbc136792	-0.008996861
120	0x3c882598	0.016619489
121	0x3ac92a68	0.0015347721
122	0xbb9780bf	-0.004623502
123	0xbcee4744	-0.029086716
124	0xbd16f525	-0.03685488
125	0x3d126f94	0.03575094
126	0x39b95274	0.00035347382
127	0xbe2368ab	-0.15957896
128	0xbcb5c814	-0.022190131
129	0x3bcb504f	0.006204642
130	0xbd48253b	-0.04886363
131	0x3dbeca98	0.093159854
132	0xbe205f74	-0.15661412
133	0xbe05e1e7	-0.13074456
134	0xbdb44304	-0.08801845
135	0xbd59704c	-0.05308561
136	0xbdfae2a3	-0.12250259
137	0xbe277144	-0.16351801
138	0xbd5b5c1c	-0.05355464
139	0xbdcf381e	-0.101181254
140	0xbbfc156c	-0.0076929834
141	0xbddcae3c	-0.1077542
142	0x3b8f2a5e	0.0043690642
143	0x3b586fa2	0.0033025523
144	0xbc7ab566	-0.015302038
145	0xbc990eee	-0.018683877
146	0xbe02ad41	-0.12761404
147	0xbe2daff3	-0.1696165
148	0xbe015fd8	-0.12634218
149	0x3d2e6a14	0.042581633
150	0x3dcb1fc9	0.09918172
151	0xbdf1a011	-0.11798108
152	0xbd046def	-0.032331403
153	0xbddb8a6f	-0.107197635
154	0x3dbae019	0.091247745
155	0x3d3e8e4f	0.046522435
156	0xbd880a06	-0.06642537
157	0xbb38b4ad	-0.0028183863
158	0xbdaff4ec	-0.08591637
159	0xbb156844	-0.0022797743
160	0xbda8c7a1	-0.08241201
161	0xbd9fd10c	-0.078035444
162	0x3c376bff	0.011195182
163	0xbe275788	-0.16341984
164	0xbe105ba5	-0.1409746
165	0xbd95164f	-0.07279646
166	0xbd5bce54	-0.053663567
167	0xbd42c5ed	-0.047552038
168	0xbd557ce3	-0.052121054
169	0xbabdb64a	-0.0014473882
170	0xbd0ab53a	-0.033864237
171	0xbe08746d	-0.13325663
172	0xbdb5da4e	-0.08879529
173	0xbe28f4af	-0.1649959
174	0xbde21712	-0.110395566
175	0xbe11eb20	-0.1424985
176	0xbce22499	-0.027605342
177	0xbccce83b	-0.02501308
178	0xbd177af4	-0.03698249
179	0xbddf52e2	-0.109044805
180	0xbe2fafad	-0.17156859
181	0xbd704406	-0.058658622
182	0xbdb6368d	-0.088971235
183	0xbe392964	-0.18082196
184	0xbdc1391d	-0.094347216
185	0xbdf7f9b1	-0.12108172
186	0xbd85131a	-0.06497784
187	0x3cff98cc	0.031200789
188	0xbdd01353	-0.10159936
189	0x3d36b957	0.044610348
190	0xbc176b36	-0.00924187
191	0x3d0864bf	0.033299204
192	0x3d02a1de	0.03189265
193	0x3cc84825	0.024448464
194	0xbd0d0c3d	-0.0344355
195	0xbcafd35e	-0.021463092
196	0x3cf817c2	0.030284766
197	0xbdd20d13	-0.102564
198	0xbc6cdf20	-0.014457494
199	0xbe24e15f	-0.16101597
200	0xbcf3a3e6	-0.029741239
201	0x3aa61a7e	0.001267269
202	0xbd85fd6a	-0.065424755
203	0xbd536459	-0.05160937
204	0x3b5e9da3	0.003396847
205	0x3d8a4e8c	0.06753263
206	0xbd2267bb	-0.039649706
207	0xbd5adb52	-0.053431816
208	0xba936743	-0.0011245984
209	0xbc9aebe4	-0.01891131
210	0x3d90969b	0.07059976
211	0x3cd0a414	0.025468864
212	0x3cedc11c	0.029022746
213	0xbd2012c9	-0.039080415
214	0x3d68413c	0.056702837
215	0xbd4bd8e8	-0.049767405
216	0xbd597a1b	-0.053094964
217	0xbd297967	-0.041375544
218	0x3db2ae42	0.08724643
219	0x3bbd3265	0.0057738298
220	0x3d7a2627	0.06107154
221	0xbd893871	-0.067002185
222	0xbd72984b	-0.05922727
223	0x3cefc526	0.029268812
224	0x3d668c5f	0.056286212
225	0x3da8ceeb	0.082425915
226	0xbdcbc3db	-0.09949466
227	0xbcc761ba	-0.024338592
228	0x3d52b987	0.051446464
229	0x3d1b5d0f	0.037930544
230	0xbbb8493e	-0.0056239655
231	0x3c6eae2d	0.014567894
232	0x3d26220e	0.04055982
233	0xbd34fd7e	-0.04418706
234	0xbd9ad223	-0.07559612
235	0xbd0cc93a	-0.034371592
236	0xbdaabbbf	-0.08336591
237	0xbd272c65	-0.040813822
238	0xbda4bdbc	-0.080440015
239	0xbdb6a33a	-0.08917852
240	0x3d38dd50	0.045132935
241	0xbcedbdbc	-0.029021136
242	0x3d534bc6	0.051585935
243	0xbdec5052	-0.115387574
244	0x3d9ef29c	0.07761118
245	0x3d993aaa	0.074818924
246	0xbca5fdc6	-0.02026261
247	0xbd860a1c	-0.06544897
248	0x3d0b300e	0.033981375
249	0xbd85c70a	-0.06532104
250	0xbdcdba0b	-0.100452505
251	0x3dc5c967	0.09657555
252	0xbd22c296	-0.039736353
253	0xbd181315	-0.037127573
254	0x3d798b3d	0.060923804
255	0xbcd3c893	-0.025852477

linear.weight f4 [1, 100]
0	0x3df3af66	0.11898689
1	0x3da3650d	0.07978258
2	0x3dacea37	0.084431104
3	0xbcbafdc2	-0.02282608
4	0x3de79fbe	0.11309765
5	0x3d6315d1	0.055440728
6	0x3b98ed58	0.0046669655
7	0xbd40f41e	-0.04710781
8	0xbd3d3113	-0.04618938
9	0xbcd146de	-0.025546487
10	0xbdd7ade0	-0.10531211
11	0xbda0466c	-0.07825932
12	0xbc2c61c3	-0.010521355
13	0x3db50fd9	0.08840913
14	0x3d7315d9	0.059347007
15	0x3d6c8d7a	0.05775211
16	0xbdd31e73	-0.10308542
17	0x3d401dcb	0.046903413
18	0x3de4c0c7	0.11169582
19	0xbe01aad8	-0.12662828
20	0xbb32827c	-0.002723842
21	0xbdb5bd34	-0.08873978
22	0xbd451efd	-0.048125256
23	0xbd6ded1a	-0.058087446
24	0xbd92ea14	-0.07173553
25	0x3d27fc75	0.041012246
26	0xbde54e7d	-0.11196611
27	0x3d668b31	0.056285087
28	0xbc640b6c	-0.013918739
29	0x3d91b8c8	0.07115322
30	0x3c8fade2	0.017538968
31	0xbcc91504	-0.024546154
32	0x3dd6903b	0.104767285
33	0x3dd51f49	0.10406358
34	0x3db024fa	0.08600803
35	0x3d8017ad	0.06254516
36	0x3cb66a9d	0.022267634
37	0xbcf3d1e0	-0.029763162
38	0x3d630942	0.05542875
39	0x3dc0113c	0.09378287
40	0x3b576a38	0.0032869708
41	0xbde1ed0e	-0.11031543
42	0x3d22873c	0.03967975
43	0xbda1ba81	-0.07896901
44	0x3c601e16	0.013679048
45	0x3dcd76d2	0.10032429
46	0x3b3ff77d	0.0029291802
47	0xbcfad48c	-0.030618928
48	0xbca12c02	-0.019674305
49	0xbd82d925	-0.06389073
50	0xbd781a9b	-0.060572248
51	0x3dee51f6	0.116367266
52	0x3c0b1c5f	0.008490651
53	0x3dcbaa1f	0.099445574
54	0x3d8793b9	0.06619973
55	0xba8bb69b	-0.0010659279
56	0x3ca2924a	0.019845147
57	0x3da440ec	0.08020195
58	0xbda72b0c	-0.081625074
59	0x3d9555a6	0.07291727
60	0x3df5ec94	0.12008014
61	0x3d6c0f01	0.057631496
62	0x3c4fba1a	0.012678647
63	0x3d9ec134	0.07751694
64	0x3b0b44b5	0.002125067
65	0x3e03a28c	0.12854975
66	0xbda8f754	-0.08250299
67	0x3de0e05a	0.10980292
68	0xbde7e658	-0.113232315
69	0x3de94150	0.113894105
70	0x3de6cc59	0.11269445
71	0x3c86f8d4	0.016476072
72	0xbd2da15a	-0.042390205
73	0x3d4e78b7	0.05040809
74	0x3d6ee70b	0.05832581
75	0xbd95aa8a	-0.07307918
76	0x3dd59559	0.104288764
77	0xbda2b20d	-0.07944117
78	0xbdbd3572	-0.092387095
79	0xbd74e284	-0.059786335
80	0x3d70da43	0.0588019
81	0xbddbbfed	-0.10729966
82	0x3d49a76d	0.049231935
83	0x3df03675	0.11729137
84	0xbd5e080f	-0.054206904
85	0x3ba250f4	0.004953498
86	0xbc56c7c3	-0.01310915
87	0xbbbba447	-0.0057263705
88	0x3d73f074	0.059555486
89	0xbd0e5a44	-0.034754053
90	0x3d3aaf2a	0.045577206
91	0xbd7e4512	-0.06207759
92	0xbd92a12b	-0.071596466
93	0x3d8d3cac	0.06896338
94	0xbd8122d5	-0.06305472
95	0x3d183e00	0.037168503
96	0x3d30a7c1	0.043128733
97	0x3d5b52f2	0.0535459
98	0x3c20292d	0.009775442
99	0x3ded34c8	0.11582333
