backend/trained_models/GBIME_LSTM_model_state_dict.pth (torch, 167957 bytes, 5 tensors)

rnn.weight_ih_l0 f4 [400, 1]
000000 f6 ac 0d 3d e3 66 d5 bd 57 0f 6b 3c 4d 84 fd 3d
       0.034588777 -0.10420015 0.014346919 0.1237875
000010 91 5a a0 3c 95 09 9c 3d 0a 32 99 bc fb fe a9 bd
       0.019574435 0.07619015 -0.018700618 -0.08300587
000020 29 6d ea 3d 64 ff 0e 3d 09 98 ba 3b 09 5d d7 3c
       0.11446602 0.03491153 0.0056943935 0.02628948
000030 2f e5 55 3d 0a 21 75 bb 14 51 8f 3d e6 fc 8b 3c
       0.05222052 -0.0037403726 0.06997886 0.017088365
000040 ff c5 6b 3d 23 6d b3 3c 63 ec b5 3d ca 94 de bd
       0.05756187 0.021902626 0.08882978 -0.10868223
000050 db ec 27 3d 5b 83 7c bc 96 fe 83 bc 2e c0 60 3d
       0.040997367 -0.015412177 -0.016112607 0.054870777
000060 61 ea f1 3d 56 ad d2 bd 23 ee d7 3d ee 17 ed bc
       0.11812282 -0.102869675 0.10543468 -0.028942075
000070 9c 0f 31 bd b4 b3 82 3d e8 81 76 bd 9b 32 d8 3b
       -0.043227777 0.06381932 -0.060182482 0.0065978295
000080 75 fc b5 3c fb 29 e5 bc 70 54 5d 3c 58 29 80 bc
       0.022215107 -0.02797412 0.013508901 -0.015644714
000090 9a 73 a1 3c dc 45 25 bd 97 72 42 bd 4e 40 d9 3d
       0.019708443 -0.040349826 -0.047472563 0.10607968
0000a0 33 b7 01 bd 62 9f ac 3d 84 97 b3 bd 42 46 a7 3c
       -0.031668853 0.08428837 -0.08769134 0.020419244
0000b0 79 b1 b8 3a 3f 52 e8 3c c3 58 cb bd 2f 7f 09 bd
       0.0014090977 0.02835953 -0.09929039 -0.033568557
0000c0 1a 18 23 bc f3 be 9e bd f6 ed ae 3c d6 a9 c0 bd
       -0.009954477 -0.077512644 0.021353703 -0.09407394
0000d0 c3 08 c5 bc ca ae a4 3c 9a 00 b5 3d 72 8b d0 3d
       -0.02405203 0.020102877 0.08838005 0.10182847
0000e0 7a 7e 54 bd 0c 16 18 bd 99 6a ae 3d c9 80 08 bc
       -0.05187843 -0.0371304 0.08516426 -0.008331486
0000f0 b4 80 eb 3d 10 46 a9 bc 86 54 af 3d a4 6e 15 bc
       0.114991575 -0.020663291 0.085610434 -0.009120617
000100 ff fb 13 be 43 d3 15 bd 55 bd 36 3c 71 63 81 bd
       -0.14451598 -0.036578428 0.011153539 -0.06317795
000110 5b 83 d7 3c 8b ce cc 3d 8c dc 4d 3d f3 5b d3 bc
       0.026307752 0.100003324 0.050259158 -0.02580068
000120 e7 5f dc bc e0 01 57 bd e8 ca 0c bc 3a a4 16 bd
       -0.026901199 -0.052492023 -0.0085932985 -0.036777712
000130 08 ed 83 bd ae b6 06 3d dd d8 3a 3d 32 6b a3 bb
       -0.064416945 0.03288906 0.045616973 -0.004987144
000140 2b f9 e5 bd da 45 b3 3d e8 df 4e 3d f8 a3 84 3b
       -0.11229166 0.087535575 0.050506502 0.004047867
000150 b1 93 94 3d 3e c9 bc 3b 8e 1d 2e bd 04 56 96 3d
       0.072547324 0.0057612946 -0.042508654 0.07340625
000160 96 33 b4 3d 3c 1d f4 bb 97 e9 d6 bc df 68 05 3d
       0.08798902 -0.007449774 -0.026234431 0.032570716
000170 cd 42 33 3d 04 98 82 3d d6 bb 9a bd 03 62 e7 3d
       0.043764878 0.06376651 -0.07555358 0.11297991
000180 6b 32 01 3d dd c9 57 3b 11 e1 40 3d 0a ad 3f bd
       0.031542223 0.0032926716 0.04708964 -0.046795882
000190 83 62 7a bd 2b 95 12 be 97 7b 3e bc 62 a0 d4 3c
       -0.061129104 -0.14314716 -0.011626146 0.025955383
0001a0 52 1e a7 3d 51 f6 22 3c df af 7a 3d 33 79 a9 bd
       0.0816008 0.009946422 0.06120288 -0.0827507
0001b0 ec 1e 20 bd 38 d0 92 3b 1b ca 9a bd 68 1a d5 bc
       -0.03909199 0.004480388 -0.0755808 -0.026013568
0001c0 9c 84 d2 3d 23 c8 16 bd 71 c3 b2 3d 03 56 82 bd
       0.102791995 -0.03681196 0.08728684 -0.06364062
0001d0 5b cd 21 bd 77 ca 04 3c 5d c3 d7 3c 60 7e 4a 3d
       -0.039502483 0.008104912 0.026338274 0.049436927
0001e0 66 e3 60 3c e5 f9 cc 3d 89 a0 da bd 3c bb b7 3d
       0.013726091 0.10008601 -0.10675151 0.08971259
0001f0 21 70 0f 3d bb 60 46 3c 5b ef 15 bd 55 ed 5b 3d
       0.035019044 0.012108023 -0.03660522 0.053693134
000200 a8 80 9d bc 88 3e d0 bc 86 2c 43 3d 4b 71 ff 3c
       -0.019226387 -0.025420442 0.047649883 0.031181952
000210 78 0f 07 3e e4 cf f3 bc b8 21 95 bd 3d 1b ae 3d
       0.13189495 -0.029762216 -0.07281822 0.08501289
000220 12 8b 6b 3d 95 73 87 bd 9a 22 c6 bd d4 df ac bc
       0.057505675 -0.066138424 -0.096745685 -0.021102823
000230 ef 42 13 3e 94 e0 30 bd 68 b7 ad 3c 93 f2 60 bd
       0.14381002 -0.043182924 0.021205619 -0.054918837
000240 ce f7 5d bd a6 02 93 bd 2b 85 ee bb 77 6c 43 3d
       -0.054191403 -0.071782395 -0.0072790585 0.047710862
000250 9f 1e 75 3d a4 9c d1 3d d8 52 b4 3c d3 fa 0e bd
       0.059843656 0.10234955 0.02201216 -0.034907173
000260 86 07 ef 3d 21 1a 31 bc bf fb 5c 3d 10 0b 69 bc
       0.11671357 -0.010809452 0.05395102 -0.014223829
000270 4f 34 cd 3b 15 c7 e3 bd d9 27 ab 3c 15 b5 04 3d
       0.006262339 -0.11121956 0.020893024 0.032399256
000280 13 c1 19 bd 6d 1a 9d 3d 94 25 ab 3d bd bb 3b 3d
       -0.037537646 0.07671056 0.08356777 0.045833338
000290 3a 55 4b bc 33 1b 8b 3d dd bb c4 3d 1a b8 02 be
       -0.012410456 0.06792297 0.096061446 -0.12765542
0002a0 16 dc be bb a8 f8 3f bd ce f9 86 3d 58 7d d0 bc
       -0.005824576 -0.046867996 0.06590615 -0.025450394
0002b0 4c d5 37 bb 47 b9 dd bc 4c a5 ee 3d 2a d4 66 bc
       -0.0028050719 -0.027065886 0.116526216 -0.01408867
0002c0 dd 0b c2 3d 37 17 8b 3d f0 43 80 bd 1d 87 88 bc
       0.09474919 0.06791537 -0.06262958 -0.01666599
0002d0 c0 c4 fd bd ab c1 e0 3d 4f db 31 3d cc cb 88 bd
       -0.12391043 0.10974439 0.04342204 -0.06679496
0002e0 9e 9b 41 bd 7b 7f a6 3c 95 b5 0f 3d a7 83 49 3d
       -0.04726755 0.02032446 0.03508528 0.04919782
0002f0 2e 30 54 3d 44 ee 80 3c 0f 49 38 3d df b8 bd bd
       0.05180376 0.015738614 0.04499155 -0.09263777
000300 33 8e 7b bd 5b 5d e3 bd b0 e2 1c 3d b6 71 74 bd
       -0.06141491 -0.111017905 0.038302124 -0.059678756
000310 28 0d 0a 3d 12 0a c0 bc a8 7a 3f 3d 03 a2 8f 3d
       0.033703953 -0.023442302 0.046747833 0.07013323
000320 f1 c1 ca bc 55 76 c4 bd d4 5c c5 3b 23 42 fc bc
       -0.024750682 -0.095928825 0.006023029 -0.030793255
000330 65 fe 78 3d 03 e2 ef bd 03 e0 fc bd 50 08 ae 3d
       0.060789485 -0.1171303 -0.12347414 0.08497679
000340 14 24 f0 3d 4e 68 a9 3c 89 d6 d6 bd cd 09 09 bd
       0.11725631 0.02067962 -0.10490138 -0.033456612
000350 e2 d2 bf 3d 2a 12 81 bd 5f 4d 26 bd 9c 0c b5 bd
       0.093663946 -0.06302293 -0.04060113 -0.08840296
000360 b1 a9 2c 3d bb d7 20 3d 47 35 69 3d 1b 5a 7c 3d
       0.042154018 0.039268237 0.056935575 0.06160937
000370 d7 d3 9f bd ee 66 ca bd 13 6a 9f 3d d2 e3 91 3d
       -0.07804077 -0.098829135 0.07783904 0.071235314
000380 9e f6 c1 3c 43 57 01 3d 14 5c 99 bd 15 5c 47 bd
       0.023677167 0.03157736 -0.07488266 -0.0486718
000390 ff ba a5 bd e1 83 9f 3c 43 3d 34 3d 9d b9 f2 bb
       -0.08092307 0.019472064 0.044003736 -0.0074073807
0003a0 72 5d 50 bd c0 a5 13 3d 35 53 4e bd 1a 6b e3 bd
       -0.050870366 0.036046743 -0.05037232 -0.111044124
0003b0 b4 21 b6 bd 23 d3 e9 bd 40 64 27 bd e9 3b ce 3c
       -0.08893147 -0.11417224 -0.04086709 0.025175052
0003c0 27 4f 08 3d 53 d2 2f 3d b2 cf 8c 3d ba 9e 1f 3d
       0.03327861 0.04292519 0.06875552 0.038969733
0003d0 e3 b0 d8 bb 8f 50 0a 3d ac b0 74 3d 78 6b f6 3d
       -0.0066128834 0.033768233 0.0597388 0.12032217
0003e0 6c 73 ec 3d 8f 2c 9d bd 82 e6 da 3d fa 46 01 3e
       0.115454525 -0.076745145 0.10688497 0.12624732
0003f0 f0 5d bc bd 71 10 01 3e 0c 18 44 3d 01 b7 d9 bd
       -0.09197605 0.12603928 0.047874495 -0.10630608

rnn.weight_hh_l0 f4 [400, 100]
000000 70 c7 b6 3c cd 41 fd 3c 6b 18 41 bb 18 01 25 bd
       0.022311896 0.030915165 -0.0029464017 -0.040284246
000010 e1 ce 95 39 f8 86 b4 bd 61 19 22 bd 7e 72 7b 3d
       0.0002857363 -0.08814806 -0.039574984 0.061388485
000020 06 96 c2 bd 21 a4 78 bd ed fa ed 3d 45 36 c9 3b
       -0.09501271 -0.0607034 0.11620126 0.0061405026
000030 0d a9 5e 3d f5 e3 80 3c e7 be bd bd 4f 1f ae 3d
       0.05436044 0.015733698 -0.09264927 0.085020654
000040 70 c1 95 bd db 1e 04 3d 79 98 8f bc 57 b5 ea 3d
       -0.07312286 0.03225599 -0.01752876 0.11460369
000050 10 37 cb 3d db da 0c bd 8d c9 4a 3d 24 ef b7 3d
       0.09922612 -0.034388404 0.04950862 0.08981159
000060 61 c2 9a bd 4e 61 7b 3d 38 33 44 bd 0b e7 a1 bc
       -0.07556606 0.061372094 -0.04790041 -0.01976349
000070 c7 fc 1c 3d 77 70 7c 3d ee 9a c2 bb 0e 2e 87 bd
       0.038327005 0.061630692 -0.005938879 -0.06600581
000080 1b d2 61 3d e0 50 98 3d c2 8e 33 bc 65 da ba bd
       0.055132013 0.07437301 -0.010959329 -0.09123687
000090 1f 69 9b bb 38 36 36 3c 48 1a c8 bd 82 aa 06 bd
       -0.004742756 0.011121325 -0.09770638 -0.032877453
0000a0 b8 f7 71 bc 00 78 c5 3d f5 c0 2a bd 08 7b c1 bd
       -0.014768533 0.09642029 -0.041687924 -0.094472945
0000b0 a2 00 20 3c 1b cd 4c bc ca da cc bc e7 ce 1d 3c
       0.009765776 -0.012500073 -0.02500667 0.009631849
0000c0 56 2d 13 bb 96 fb b1 3d 96 ff 5c 3d 45 2f dc b9
       -0.0022457442 0.08690564 0.053954683 -0.00041996888
0000d0 ac 9c 73 bd 4f 07 50 bc bb d0 ab bd 4e 04 0d 3d
       -0.059475586 -0.012697055 -0.083894216 0.034427933
0000e0 c9 e9 53 bd ac 9e 36 bd 58 df ef bc 43 95 cc bd
       -0.051736627 -0.044584915 -0.029281303 -0.09989407
0000f0 38 88 73 bd 77 eb af bc 05 e4 f0 bc cb 8e 88 bd
       -0.05945608 -0.021474583 -0.029405603 -0.066678606
000100 60 ec a6 3c 83 f3 ed 3b e8 d1 97 3d 42 5a 8e bd
       0.020376384 0.007261695 0.07413083 -0.06950809
000110 4b f0 13 3c 01 55 98 bd a8 06 85 bd e0 f8 b6 3d
       0.009029458 -0.07438088 -0.0649541 0.08934188
000120 58 68 1e bb d3 b9 04 bc 44 8e b3 bd 11 c1 b5 3c
       -0.002417108 -0.008100945 -0.087673694 0.022186788
000130 46 e4 c4 3d 84 fe a9 3d 45 5a 97 3d fd aa 83 3d
       0.09613852 0.08300498 0.073902644 0.06429098
000140 30 09 c4 bc d3 a6 61 3d 25 a6 c5 3d ed bb d1 bd
       -0.023930162 0.055090737 0.0965083 -0.10240922
000150 be 6d 8b bd 62 3e 83 bb e1 d3 3c 3d 5a 39 9c 3d
       -0.06808041 -0.0040052393 0.0461005 0.076281264
000160 46 fa 99 3c 6c 1c 55 3a 6d 09 d7 bc ad 4d 6f 3d
       0.018796097 0.00081295404 -0.026249612 0.058423687
000170 ee 96 b3 3c 02 b7 a8 bd b2 85 be 3d 4c de 06 3d
       0.021922555 -0.08238031 0.09302844 0.032926843
000180 05 85 68 3d 0c d7 87 bb 66 a1 f8 bc 29 a7 ca bd
       0.056767482 -0.0041455086 -0.030350398 -0.098951645
000190 d0 91 43 bd 57 fd 0e bc 5b a5 39 bd a9 e2 15 bd
       -0.04774648 -0.008727393 -0.04532371 -0.036593113
0001a0 c5 fe be bd 2d 79 b6 bd 19 09 38 3d 15 da 1d 3c
       -0.09325937 -0.08909831 0.04493055 0.009634514
0001b0 b7 07 b5 bc 17 d7 9f bd ed cc b8 bd e8 45 f5 3c
       -0.022098405 -0.07804697 -0.090234615 0.02994056
0001c0 61 cb 79 3d 91 c6 ac 3c a5 93 92 bd de ec 48 bd
       0.060984973 0.021090778 -0.07157067 -0.04905402
0001d0 d4 14 a5 bc 89 e8 35 bd ba 37 cd 3d 03 61 ed bd
       -0.020151533 -0.044411216 0.100203946 -0.11590769
0001e0 a5 ab c6 bd 7c 04 9d 3d e8 e0 cb 3c c7 9d c0 3d
       -0.09700707 0.07666871 0.024887517 0.09405094
0001f0 6f 46 30 bd b1 5e 95 3d dd 0e de 3c d3 69 84 3d
       -0.04303592 0.072934516 0.027106697 0.06465497
000200 5f 9f d8 3d 63 ec ba 3c 0d 18 8b 3d 40 c6 aa 3d
       0.105772726 0.022817796 0.06791697 0.083385944
000210 35 3c f5 bc 61 05 89 3d e7 bd bd bd 7f e4 08 bd
       -0.029935936 0.06690479 -0.092647366 -0.033421036
000220 21 6a f9 3c 4e fe 93 3c 93 37 c9 bb a8 67 1d bd
       0.030446114 0.018065598 -0.006140658 -0.038428932
000230 99 bd 55 3c 46 b1 8d 3d 77 85 de 3d bd ff 83 bd
       0.013045692 0.06918578 0.108653 -0.064452626
000240 7c 76 c6 bc 2c e2 a3 3d 36 21 d5 bc 2b 9d c5 bd
       -0.02422642 0.08002123 -0.026016813 -0.09649118
000250 d0 18 e9 bb 04 28 18 3c d8 0c a2 3d b6 ea 5c 3d
       -0.0071135536 0.009286884 0.07912606 0.053934775
000260 a6 7e c1 bd e5 94 af 3d c8 a7 27 bd d2 f5 19 3d
       -0.094479844 0.08573321 -0.040931493 0.03758795
000270 ae d6 c0 3d e3 e8 95 bc 10 7f a1 bd cd c7 a9 3d
       0.09415947 -0.018299526 -0.078855634 0.08290062
000280 8d 7e a7 3b c1 54 10 3d b5 42 63 bc 94 11 39 3d
       0.0051115216 0.035237078 -0.013870885 0.04518278
000290 60 3c 8e 3c 26 23 6b 3d 01 85 41 3d 7f 77 9d 3d
       0.017362773 0.057406567 0.047245983 0.07688808
0002a0 c6 6c d6 bc bf 39 1e bd d1 4a cb 3a 38 c8 3b bd
       -0.026174914 -0.03862929 0.0015509968 -0.04584524
0002b0 ca b2 a3 3d 7a 72 af bd 77 71 7e bd 77 ed 76 3d
       0.07993086 -0.085667565 -0.062119927 0.060285058
0002c0 40 e9 06 bd 2b 2a 5b 3d 2f 01 17 bc 15 ab 9b bc
       -0.03293729 0.05350701 -0.009216591 -0.019002477
0002d0 ed 28 be 3d 11 6b ba 3d ff 31 76 bd c6 b9 5b 3d
       0.0928515 0.091024525 -0.060106274 0.053643964
0002e0 31 9d b3 bd 56 42 aa 3d d2 21 26 bd 85 57 cf bd
       -0.08770216 0.08313434 -0.040559597 -0.10124115
0002f0 11 48 be bd b2 18 d3 3c 3b f9 82 36 6f aa 80 bd
       -0.09291089 0.025768612 3.903316e-06 -0.06282508
000300 33 ff a9 3d 92 36 a1 bd c9 ab c2 bd 70 00 1c bd
       0.083006285 -0.078717366 -0.09505422 -0.038086355
000310 2a b0 61 bd d0 7e 97 bd 01 bf 0d 3d 97 28 4c bd
       -0.055099644 -0.073972344 0.034605984 -0.049843397
000320 1c 4a 61 bb f8 a9 9c 3c 19 5f ae bd c2 e5 8d 3c
       -0.0034376448 0.019124016 -0.08514232 0.017321471
000330 34 71 2f 3d 95 2d 96 3d 2d 8e 61 3d 93 a4 c6 bc
       0.04283257 0.07332913 0.05506723 -0.024248397
000340 1c 48 e0 3c 1f ae 5a 3d 57 77 ba bb c4 14 d4 3c
       0.027378134 0.05338871 -0.005690496 0.025888808
000350 df e3 46 3d 66 00 0c bc 8f 4f 9e bc 08 80 de 3b
       0.04855716 -0.008545017 -0.019325046 0.006790165
000360 89 f6 82 bd db 10 c7 bd 25 d8 d5 3c ca 8f 6b bc
       -0.06394679 -0.09720012 0.026104042 -0.014377544
000370 7e 3b 60 bd 71 22 b3 3d cb 52 a9 3d a2 57 b1 3d
       -0.054744236 0.087468036 0.08267745 0.08659293
000380 36 47 b3 3d 52 ca bb bd 5f f2 41 bc 6d b4 5f bd
       0.08753817 -0.09169449 -0.011837571 -0.054615427
000390 a1 da 24 3d 38 54 10 bb 93 0b 24 3d 1f a6 38 3d
       0.040247563 -0.0022022855 0.0400501 0.0450803
0003a0 e4 a8 6a 3d 1f 65 ba 3d c8 73 7e bd b1 89 aa bd
       0.057289973 0.091013186 -0.062122136 -0.08327044
0003b0 b3 7b ce 3d b5 33 81 bd 8f 17 36 3d 28 7a 4d bd
       0.100821875 -0.063086905 0.04445606 -0.050165325
0003c0 46 6b 65 bd 1f f0 f1 3c 8e 7c ec bc 65 ff 01 3c
       -0.056010507 0.029533444 -0.028867986 0.007934426
0003d0 8f 9b 1f bd f3 32 4d bd 9c 84 c5 bd 5c 1c ce bb
       -0.03896671 -0.050097417 -0.09644434 -0.006290002
0003e0 00 1e a6 3d c9 3f 9d 3d 5e 28 ab bd f0 b6 85 bc
       0.08111191 0.07678182 -0.08357309 -0.016322583
0003f0 d4 12 3e bd 7f 39 46 bd 37 db 7b 3d c9 87 9d bd
       -0.046404675 -0.048394676 0.061488356 -0.076919146

rnn.bias_ih_l0 f4 [400]
000000 ec 82 87 3d da 97 15 bd 26 b8 63 3d c4 b3 78 3d
       0.06616768 -0.03652177 0.05559554 0.060718313
000010 71 a0 08 3d 57 5d ef bc 5b 6f c4 3d a6 ae 97 3d
       0.033356134 -0.029219313 0.09591552 0.074063584
000020 9d 26 69 3d 0d 08 b3 3d 7d be 08 3e f0 2a ec 3d
       0.05692159 0.0874177 0.13353916 0.11531627
000030 ba 4f 1f 3d 3c 5f 12 bd 25 59 e9 bc e5 ca 1f bd
       0.038894393 -0.035735354 -0.02848489 -0.039011855
000040 b2 6f 96 bd cb f8 4d 3c 70 34 a0 ba d7 a9 3a 3d
       -0.07345523 0.012571524 -0.0012222659 0.04557213
000050 77 b8 88 3d c4 b9 2a 3d b0 3b 70 3d 99 00 14 3b
       0.06675809 0.041681066 0.058650672 0.0022583364
000060 27 ab 1b bd 0f 1e 9d 3d 66 ad 8c 3d fd 3c e5 bb
       -0.03800502 0.07671749 0.068690106 -0.0069957958
000070 d5 06 83 3d 17 ad 60 3d 17 82 c7 3d 7c d7 3c bd
       0.063977875 0.05485257 0.097416095 -0.04610394
000080 c2 d1 9f bc 6a 17 79 ba c3 7b 5a 3d 49 a7 20 3d
       -0.0195092 -0.0009502085 0.053340685 0.039222036
000090 ea 0b 82 3d ef 3d f0 bc a9 2a 87 bb 0a 79 45 bd
       0.06349929 -0.029326407 -0.0041249585 -0.048211135
0000a0 65 b1 4e bd d1 e4 e8 3d 38 3e 34 bd f1 20 58 bd
       -0.050462145 0.11371768 -0.04400465 -0.05276579
0000b0 2e 34 b9 bc e8 23 a3 3d 36 b1 76 bd d2 90 d0 3d
       -0.022607889 0.07965833 -0.060227595 0.10183872
0000c0 b0 f5 56 bd d6 d6 3a bc fd 78 c2 3d 63 b6 f5 3d
       -0.0524804 -0.01140376 0.09495733 0.11997678
0000d0 1a 8a 2a 3d 56 ce 2c bd 83 0c 97 bd 87 d8 2c bc
       0.04163561 -0.042188965 -0.07375433 -0.010549671
0000e0 40 86 d0 3d cb d0 72 3d fe 53 fd bb 32 54 88 bc
       0.10181856 0.05928115 -0.00773096 -0.01664171
0000f0 1c b1 6f 3d 74 5a 83 bd bd d8 e8 bd 31 c3 1e bb
       0.058518514 -0.06413737 -0.113694645 -0.002422523
000100 55 63 d9 bd 19 38 b1 3d 9e 16 79 bd 12 9f b3 bd
       -0.10614649 0.08653278 -0.060812585 -0.08770575
000110 31 2e 30 bd 9a aa d8 3b 32 6e ae 3c 5f 2c 24 3d
       -0.0430128 0.006612134 0.02129278 0.040081378
000120 27 00 14 3d 55 e4 5c bc 18 c7 55 3d fb 82 fb bc
       0.036132958 -0.013482173 0.052191824 -0.030702105
000130 aa 00 54 bd f9 95 13 3d 37 35 a6 bd 84 06 45 bd
       -0.051758446 0.036031697 -0.08115619 -0.048101917
000140 42 a6 d2 bd bc 88 f6 3c 91 0e 57 bc cf df b2 3d
       -0.102856174 0.030094497 -0.0131260315 0.08734094
000150 cf 55 ad 3d 40 ab bf bc 0f 77 cb 3d 8e 33 ad bd
       0.08463632 -0.023397088 0.09934818 -0.08457099
000160 c4 f1 70 bc ed 76 b1 bc 0b fa eb bb 0f 6e c5 3c
       -0.014706079 -0.021663154 -0.0072014383 0.024100332
000170 24 90 8b bd 0b b3 d3 3c c4 aa b5 3d db 58 79 3d
       -0.06814602 0.02584221 0.088704616 0.060875755
000180 48 2d f0 3d 05 00 ef 3d ba dc 81 3c e5 42 f7 bc
       0.11727387 0.116699256 0.015852321 -0.030183265
000190 e6 80 82 3c c5 1f 97 3c 58 14 bd 3c 7a 0b 99 3c
       0.015930604 0.018447766 0.02308099 0.01868223
0001a0 f2 3e bc bd 56 14 95 bc 07 4b d0 3c 14 6f 94 3c
       -0.09191693 -0.018198173 0.0254264 0.018119372
0001b0 a4 6a 65 3d c2 39 60 3d f0 b8 11 bc 13 57 9e 3d
       0.056009904 0.054742582 -0.00889419 0.07731452
0001c0 da 31 a9 3c 32 6e 0d 3d 91 71 51 bd 19 6a 69 bd
       0.020653654 0.03452892 -0.051133696 -0.05698595
0001d0 f8 ff 8a 3d bd 89 eb 3d 94 93 2a 3c 99 c5 ad 3d
       0.067871034 0.11500881 0.010411162 0.084849544
0001e0 8e 76 a9 bd a2 75 1c 3d c5 c7 77 bd 25 c2 16 3c
       -0.08274566 0.03819812 -0.06049325 0.009201561
0001f0 fe dd 7e bd 08 bc ad 3a 64 db f3 3d 73 bb 8e b9
       -0.062223427 0.001325489 0.1190708 -0.0002722401
000200 5a 46 09 3c 43 86 81 bd 35 35 d9 3b 92 cf 76 3d
       0.0083785895 -0.063244365 0.006628657 0.06025655
000210 dc 53 78 3c b8 04 c1 bc 5d 06 ef 3c 4f a6 8c bd
       0.015156712 -0.02356182 0.029177839 -0.06867658
000220 a9 9f 85 bd 3e 30 a9 bc 25 c3 ac bd 93 c8 0e bd
       -0.065245934 -0.020652886 -0.08435658 -0.03485925
000230 0b 3b b0 3c bd 5a 87 3d e3 b6 21 bd 53 fa 64 3a
       0.021512529 0.06609104 -0.039481055 0.0008734811
000240 b3 d6 01 3c 4e 17 a6 3d a6 ac c8 bd 1b 89 87 3d
       0.007924723 0.08109914 -0.09798555 0.06617948
000250 c4 03 94 bb 52 e4 8b 3c 4d da 0a 3d 8d 37 89 bc
       -0.0045170505 0.017076645 0.033899594 -0.016750121
000260 38 e2 0c bd 63 ca 72 bd cd dd 9f bd 62 94 81 bd
       -0.034395427 -0.059275042 -0.07805977 -0.0632713
000270 77 3c 2b bd 09 4a ba 3d e3 c2 9b bc 09 04 a1 bd
       -0.04180571 0.09096152 -0.019013828 -0.07862098
000280 27 c4 d0 3d 3a e6 da 3d 02 19 b2 3d 6e 26 b4 bd
       0.10193663 0.106884435 0.08696176 -0.087963924
000290 e3 90 41 3d dc cf dd bd 01 32 90 3d bc 70 06 3c
       0.047257315 -0.10830662 0.070407875 0.008205589
0002a0 35 09 36 bc 7b c0 1f 3d f0 d3 d9 3c 88 c8 ea bb
       -0.011110594 0.039001923 0.026590317 -0.0071650185
0002b0 2f 82 b1 3d e4 24 b7 3c 29 1c 8a 3d 72 59 8e bd
       0.08667409 0.022356458 0.067436524 -0.06950654
0002c0 fd 49 a5 3d f9 1a 64 3d 55 eb 40 bd 07 a2 18 bd
       0.08070753 0.055689786 -0.04709943 -0.037263896
0002d0 9c 54 65 bd 0b e7 d0 3b f2 b0 1f 3d eb 23 30 3d
       -0.055988893 0.0063751987 0.038987108 0.043003004
0002e0 4b b3 e9 3b 45 dc a1 3b b1 2a 6f bd 61 67 a0 bd
       0.007131969 0.0049395883 -0.058390323 -0.07832218
0002f0 f6 4f 48 bd bc e8 8b 3d 7a ad 69 3d 96 a2 28 b9
       -0.04890438 0.068315 0.057050206 -0.00016082296
000300 71 d9 a6 bc 66 89 e3 bb 58 34 15 3c 0e 1a 94 3c
       -0.020367356 -0.0069438694 0.009106718 0.01807883
000310 e0 70 9c 3d 38 d6 52 3d 66 da 8c bd 9f 25 80 bd
       0.07638717 0.051473826 -0.06877594 -0.06257176
000320 70 09 35 bd 52 88 a2 3d c9 cd 85 bd 0b 73 60 bc
       -0.044198453 0.07936157 -0.06533391 -0.013699303
000330 37 86 b7 bd 0b ea 8b bd 8a 68 27 3d f7 fc 08 bc
       -0.08961146 -0.068317495 0.04087118 -0.008361093
000340 34 9d 30 bd d2 70 6f bd 2b db 96 3d 97 52 92 3d
       -0.04311867 -0.058457203 0.07366022 0.07144659
000350 7a 88 88 3d a0 23 8f 3d 01 d9 b4 bd ba 6e 78 3d
       0.06666656 0.06989217 -0.08830453 0.060652472
000360 ea 0a 86 3d e6 06 a5 3d 54 fc 88 bd f5 50 98 3d
       0.065450504 0.080579564 -0.06688753 0.07437316
000370 6e ec e5 3d 44 ba 95 bd 6c f6 89 bd e3 b4 23 bd
       0.11226736 -0.07310918 -0.06736454 -0.03996743
000380 27 18 9b 3c 0d b5 90 bd 20 de aa 3c db 83 2b 3d
       0.018932415 -0.07065783 0.02085787 0.041873794
000390 af ed db bc 2d d7 58 3b 23 bc c9 3d 28 40 a3 bd
       -0.026846735 0.003308724 0.09850337 -0.07971221
0003a0 90 73 d6 3d 8c c1 3d 3d 5c d1 ac 3d b7 11 7e bd
       0.104712605 0.04632716 0.0843837 -0.062028613
0003b0 e5 f4 57 3d 69 65 89 bd 66 a5 8c 3c 10 ef 4f 3d
       0.052723784 -0.067087956 0.017168712 0.050765097
0003c0 b6 0f ac 3a 8a b4 85 bc 37 98 95 bd 6a cc d3 bc
       0.0013127241 -0.01632144 -0.07304423 -0.025854308
0003d0 88 d3 9e 3d 43 f2 88 3d 49 1f 68 bd dd 15 c4 3d
       0.0775519 0.06686833 -0.05667046 0.095744826
0003e0 3b 0f 56 bc 3e de af 3d 4d b6 10 bd f2 0d 4c bd
       -0.013065155 0.08587311 -0.035330106 -0.049817987
0003f0 0d 45 7b 3c 13 72 24 3d 9e a8 ba 3d 37 78 b2 bd
       0.015336287 0.040147852 0.091141924 -0.087143354

rnn.bias_hh_l0 f4 [400]
000000 86 6a 36 3d 02 a0 0e 3d 4c 98 ca bd d0 2e 06 bd
       0.044535182 0.034820564 -0.098923296 -0.032759488
000010 52 5d aa 3d 99 f2 be 3d d1 df 96 bc f8 8c e6 bc
       0.08318581 0.093236156 -0.01841727 -0.028143391
000020 89 3f b9 3d 85 01 7d 3b bd cb ce 3d 9b da 90 bd
       0.090453215 0.0038605642 0.10097454 -0.07072946
000030 16 60 8a bd 70 0c 79 3d 10 18 9d 3d f1 82 a4 3c
       -0.06756608 0.060802877 0.07670605 0.020081969
000040 13 3c b2 bd bd 45 03 3c 7b a0 ec bc 8f 59 90 bc
       -0.087028645 0.008012232 -0.028885117 -0.01762083
000050 71 dc ab 3d 98 4e 71 3d 2e 0a 36 3c 1c 7d ad bc
       0.08391655 0.058912843 0.011110825 -0.02117782
000060 69 97 c8 3d 23 b6 7f bd 47 5c fa 3d 54 26 9b 3b
       0.09794504 -0.06242956 0.12224632 0.0047347937
000070 a4 07 4c bd 31 05 92 3b 5b 9b e7 3c cc ea 27 3d
       -0.049811974 0.0044561853 0.028272321 0.040995404
000080 68 7d d0 bd ac 5c 26 3d 70 72 23 3d ba c1 2d bc
       -0.10180169 0.040615723 0.039904058 -0.01060527
000090 6f fe f4 3d 37 91 72 3d 23 db 1c 3d 9d 36 93 3d
       0.11962592 0.05922052 0.038294923 0.07188151
0000a0 0d 12 e1 bc 02 3f 95 bb 84 2a ed 3d b1 eb f5 bc
       -0.027474428 -0.0045546303 0.11580375 -0.030019613
0000b0 16 ef 9d bd a7 ac 53 bd bb 48 9b 3d 6f 99 7b bc
       -0.07711618 -0.051678326 0.075822316 -0.015356406
0000c0 8e 0e 46 3d 1c 22 5b bc e8 e6 b6 3c 5a 85 68 bd
       0.048353724 -0.0133748315 0.022326902 -0.0567678
0000d0 7d 2a d1 3d 42 5b f5 3d 07 8b eb 3d c0 54 ea 3d
       0.10213182 0.11980297 0.11501127 0.11441946
0000e0 59 f4 56 3c 66 df c1 3d 38 1b b5 3d cd 3a ed 3d
       0.01311978 0.09466438 0.08843082 0.11583481
0000f0 22 d4 3f 3d ed a9 49 3c e6 7d 90 3c 3c 51 b5 3d
       0.046833165 0.01230858 0.017638158 0.08853385
000100 a7 29 13 bd a5 e2 ca bc 41 fd 87 3d 9d 23 29 bd
       -0.035928395 -0.024766276 0.06640101 -0.04129373
000110 28 cd 1a bd bc 2c ae bb 07 bf 55 bd 72 0d e9 bc
       -0.03779331 -0.0053153913 -0.05218413 -0.028448794
000120 60 a7 b1 3d 9d 36 9d bd 6a b6 a6 bd d2 57 bd 3d
       0.086745024 -0.07676432 -0.081402615 0.09245266
000130 f9 16 97 bd 7c e2 03 bd 77 6a 80 3d 15 9e 81 bb
       -0.073774286 -0.032198414 0.062703066 -0.0039556124
000140 84 26 a8 bd 38 9b 61 3b 17 61 4f bd 0d 82 0b 3d
       -0.08210471 0.0034424793 -0.0506297 0.034059573
000150 30 8f e1 bc 80 cc f0 3b f5 6d d1 bc 6c 0f 93 bd
       -0.027534097 0.007348597 -0.025565127 -0.07180676
000160 16 45 2e 3c 22 cc 80 bd 2d 7c c2 3c fd 1e 55 3d
       0.010636589 -0.06288935 0.023740852 0.052031506
000170 06 53 c3 bd c0 b9 59 3d c6 ad 4c 3c 49 fd ab 3c
       -0.0953732 0.05315566 0.012492603 0.0209948
000180 f6 4b 6c 3c f1 3a db 3c 25 6c a5 3d f1 74 6f 3d
       0.014422407 0.026761504 0.080772676 0.058461133
000190 79 67 b0 3d 87 7e cf bd fa 5e cc 3a f2 8a 50 3d
       0.08613486 -0.10131555 0.001559227 0.05091376
0001a0 b6 e6 b3 3c 1e df 1e 3d 31 e2 30 bc 99 5a 58 bd
       0.021960597 0.038787 -0.010796116 -0.052820776
0001b0 a1 4b 76 bd ca 6c 82 3d ab 9f 02 3d 7c e2 aa 3d
       -0.06013072 0.06368406 0.031890552 0.0834398
0001c0 5b 14 96 3c 2a 82 41 bd 4c 13 a7 3c e8 39 88 bd
       0.018320253 -0.047243275 0.020394944 -0.0665167
0001d0 00 86 35 3c cd 98 a9 3d 82 02 95 3d 9f 48 d4 bd
       0.011079311 0.082810976 0.07275869 -0.10365414
0001e0 8a 98 ac bd f9 bc 3c 3d b4 7a cd 3a 24 9c d6 bd
       -0.08427532 0.046078656 0.0015676827 -0.10479
0001f0 83 d0 4b 3b 33 56 74 bd dc 70 cb 3d 69 ac 8e 3d
       0.0031099624 -0.05965252 0.099336356 0.069664784
000200 e2 5b 9e 3d c0 e5 88 3b 3f b6 93 3d 3d 02 d7 3c
       0.07732369 0.004177779 0.07212495 0.026246184
000210 63 97 71 bd 58 1c 88 bc 97 90 63 3d fb 2e 53 3b
       -0.058982264 -0.016615078 0.055557813 0.0032224047
000220 e8 c6 e7 3d c5 7c c5 3d 84 97 64 3d e6 0c 83 bd
       0.11317235 0.096429385 0.05580856 -0.063989446
000230 c1 4c 13 3d 7f 65 74 3c 74 9d 51 3d 70 87 78 3d
       0.03596187 0.014916777 0.05117555 0.06067604
000240 2e e2 0d 3b d1 d1 41 3b fa 4c 63 3d ff b0 63 3d
       0.0021649706 0.0029574523 0.055493332 0.05558872
000250 62 8a 33 bc dc d0 1a 3d 04 74 79 bd 81 20 e5 3d
       -0.010958286 0.03779684 -0.060901657 0.1118784
000260 95 c7 31 bd d9 a7 a2 3c e9 19 1c 3b d4 fb b3 bc
       -0.043403227 0.019855427 0.0023819155 -0.021970667
000270 f3 7d 73 3d 59 9f 79 bd f2 90 d3 3d dc f1 bb bb
       0.059446286 -0.06094298 0.103303805 -0.005735619
000280 76 f6 62 bc 2e 8c a5 3d 19 7d 8d bd 6a be 8d 3d
       -0.013852706 0.08083378 -0.06908626 0.06921084
000290 f3 90 d1 bd 0d 67 8b bc b2 50 8a bd 16 51 b1 bd
       -0.10232725 -0.017016912 -0.06753673 -0.08658044
0002a0 e2 eb cf 3a bd 8a ad bb 57 89 ba 39 7f 57 69 bd
       0.0015863145 -0.00529608 0.0003557901 -0.05696821
0002b0 8b ee b2 3d 7f 31 29 3d 36 f2 d2 b8 04 2a 9c 3d
       0.08736905 0.04130697 -0.000100586956 0.07625201
0002c0 fc 98 27 3d b3 40 fa 3c 99 e9 32 3d fb 5b 9e bc
       0.04091738 0.03054843 0.043679807 -0.01933097
0002d0 66 e9 68 3c 34 cb bf 3d 2d 7b 20 bd ff 04 47 3d
       0.014215803 0.0936493 -0.03917997 0.04858875
0002e0 c2 19 da 3c f0 22 de 3d d6 2f 54 3d a4 af f4 bc
       0.02662361 0.108465075 0.051803432 -0.029868908
0002f0 1b 84 a3 bd 73 81 e6 3c dc e7 18 bd 7a ed 06 3d
       -0.079841815 0.028137898 -0.037330493 0.03294132
000300 ec d6 85 3d 9b f6 ce 3d 8e e7 9a 3d 3d e9 ff 3d
       0.06535134 0.1010563 0.07563697 0.124956585
000310 88 92 76 bd 17 42 51 bd 22 c6 54 3d 71 42 58 bd
       -0.060198337 -0.05108842 0.051946767 -0.05279774
000320 9a b0 61 3d 63 e8 10 3d c4 5f 30 3d 5b 81 dc bb
       0.05510006 0.03537787 0.04306008 -0.0067292876
000330 d3 0c 97 bd d4 62 72 ba d4 18 0b 3c ed 69 8a bd
       -0.07375493 -0.0009246294 0.008489806 -0.06758485
000340 49 0c 82 3d 2e c6 a6 bd 59 4a ce 3c e4 6d bc bd
       0.063499995 -0.081432685 0.025181936 -0.092006475
000350 e7 c2 24 bb e9 8f 48 bc 56 db 70 bd 0b b0 8c 3d
       -0.0025140585 -0.012241342 -0.058802925 0.06869515
000360 99 43 dd 3d 10 f5 87 3d e8 18 b4 3d f3 7f a4 bc
       0.10803909 0.06638539 0.08793813 -0.020080542
000370 6b 14 b5 3c 86 b9 af bd ca e6 9d bc 21 d0 aa 3d
       0.022104463 -0.08580308 -0.019275088 0.08340479
000380 fa 73 94 3d f5 84 c0 3c 02 98 a4 bd 76 e5 47 3c
       0.07248683 0.023500899 -0.08036806 0.012200704
000390 20 fc a7 3d d5 2a 8a 3d 65 56 9d bd 7e 7b 7f bc
       0.08202386 0.06746451 -0.07682494 -0.015593408
0003a0 30 8d b1 3d 9e 9f 82 3d bb 3f 64 bd 0b 1a 0a 3d
       0.086695075 0.06378101 -0.05572484 0.033716243
0003b0 12 14 cc bd 75 cc 43 bc c3 cf 68 bd 0f 6a 41 bc
       -0.099647656 -0.011950602 -0.056838762 -0.0118050715
0003c0 53 c9 da bd ac 0c 8c 3d 59 44 7b 3d 85 5f cf 3d
       -0.10682931 0.068383545 0.06134448 0.10125641
0003d0 1a c5 0e 3b fd 00 66 bd 94 65 19 3b e5 6b b3 bd
       0.0021784962 -0.056153286 0.0023406493 -0.087608136
0003e0 65 9d e3 3c b9 6c 80 bd 68 1c c2 bd d2 05 45 bd
       0.027785012 -0.06270737 -0.09478074 -0.048101254
0003f0 2b 76 8f bd ee 5c 40 bd c1 49 94 3d 3a a1 f4 3c
       -0.070049606 -0.046963625 0.0724063 0.029862035

linear.weight f4 [1, 100]
000000 8a 01 cf bc 97 ee 32 3d 60 7e bc 3d b3 df 03 be
       -0.025269289 0.04368457 0.092037916 -0.12878303
000010 e7 a5 7a bd b6 b4 c9 bd 29 44 f1 bd 1d 4d 70 3d
       -0.061193373 -0.09848921 -0.11780579 0.05866729
000020 7e 3e 02 3e f1 7c 46 bd 43 1e 07 be 7a 5e 8e bd
       0.12719151 -0.048458997 -0.13195138 -0.06951614
000030 0c f7 7a 3d df aa b5 bd ee fa a0 3c 25 ef 66 3c
       0.06127076 -0.08870482 0.019650903 0.014095102
000040 51 48 d9 3c c4 6c 97 3d bc a2 d3 3d f5 9b 6c bd
       0.026523741 0.07393792 0.103337735 -0.05776592
000050 9d be 6f 3d 24 70 1e bd 40 3a e5 3d 4f 94 e6 bb
       0.058531392 -0.038681164 0.11192751 -0.0070367227
000060 37 b8 f9 3d 17 c6 fe 3d 55 3e 08 be bc 19 85 bd
       0.12193339 0.124401264 -0.13305028 -0.06499049
000070 59 8c 11 3d 7e c5 2c 3d 8e 97 ce 3d 0e fd 0b bc
       0.035534237 0.04218053 0.100875005 -0.00854422
000080 1d b5 aa 3d 91 16 bf 3d 31 91 a4 3d e4 f6 ab 3b
       0.08335326 0.09330476 0.080355056 0.0052479375
000090 25 31 a7 bd 56 dd 4d bd 48 63 65 3d 34 ff 9d 3d
       -0.081636705 -0.05025991 0.056002885 0.07714692
0000a0 af 6b 96 bd 2f 77 40 3d ea eb 2a 3d 24 0e 0e 3d
       -0.07344758 0.046988662 0.04172889 0.034681454
0000b0 2d 5a f6 bd 78 68 93 bc c1 fe 83 bb 22 23 d1 3d
       -0.120289184 -0.01799415 -0.0040281718 0.10211779
0000c0 73 6f b5 3d 14 cc 07 be 36 92 17 3c c6 59 69 3d
       0.08859148 -0.13261443 0.009251168 0.05697038
0000d0 e9 60 09 be fb 45 51 3d 72 b6 a1 3d a2 f4 82 bd
       -0.13415875 0.05109213 0.07896127 -0.06394316
0000e0 23 a7 6a bd 33 ee d5 bd 85 5c b1 bd db 6d bd 3c
       -0.0572883 -0.104458235 -0.08660225 0.023123672
0000f0 6e ee de 3d b1 c0 c6 3d 4e 7a 02 3d 55 dd 3e bd
       0.108853206 0.09704722 0.03185492 -0.046597797
000100 00 99 76 bc e5 55 17 bd 4e 61 06 3e 18 eb 7f bd
       -0.0150511265 -0.03694715 0.13123056 -0.062480062
000110 f6 5d 1f bd ca 00 ee bd 4f a1 19 3d 25 cd 10 3e
       -0.038907968 -0.11621244 0.03750735 0.14140756
000120 b5 53 a6 3d 3c 24 01 3e 2f cc 54 bd 55 1e c5 bd
       0.081214346 0.12611479 -0.051952537 -0.09624926
000130 64 a5 c5 3d 5d 3a 2a bd 3a 60 a0 bd 3a 6a d5 3c
       0.096506864 -0.041559566 -0.07830854 0.02605163
000140 38 4d b7 3d 90 a9 ee bc f3 0e ea bd 54 bc 03 3e
       0.08950275 -0.029133588 -0.114286326 0.1286481
000150 44 65 a0 3a 91 d8 94 3d 0d 91 e3 3d 41 a3 87 bc
       0.0012237211 0.07267869 0.111116506 -0.016557338
000160 84 14 76 3d da a7 a3 bd 15 52 d7 bc 52 52 f2 bc
       0.06007816 -0.079909995 -0.026284257 -0.029580269
000170 3b 59 c0 3c 67 8c c0 bd 84 37 95 bd 06 5e d3 3d
       0.023480048 -0.094017796 -0.072859794 0.10320668
000180 2f a9 0f 3d d8 d4 fd bd 3e c1 c9 3c 16 fe 78 3d
       0.035073455 -0.12394112 0.024628278 0.06078919
