backend/trained_models/HBL_GRU_model_state_dict.pth (torch, 607226 bytes, 9 tensors)

rnn.weight_ih_l0 f4 [384, 5]
000000 82 a7 ca bc 3b 22 3c 3d 2c b9 54 3d 4b ec 13 bc
       -0.024738077 0.045931082 0.051934406 -0.009028505
000010 b8 b2 6e bd 32 43 00 bd ab ea 6c 3c 12 ee 57 3d
       -0.05827591 -0.031314082 0.014460246 0.052717276
000020 8c 7e dc 3d 5b 21 20 3d bd 7e 40 bd 58 bb 0d 3c
       0.107663244 0.03909431 -0.046995867 0.008650623
000030 36 a6 ef bb 2c 8a 20 bd af 94 a5 bd 8c 68 d5 3d
       -0.007313515 -0.03919427 -0.08085 0.10420331
000040 0a 57 a6 bb b9 8d 03 bd e9 d2 10 3e a3 1c f2 3c
       -0.005076294 -0.03211758 0.14142956 0.02955467
000050 e9 49 9f bc db 40 c4 3d 27 54 10 bd 63 cd 72 ba
       -0.019444423 0.09582683 -0.035236504 -0.00092621724
000060 84 4e 4b bd 68 5d 9b bd dc 18 a6 bd cf 3d fd bc
       -0.049635425 -0.07586175 -0.0811021 -0.030913262
000070 b4 0c 1c bd 43 a8 a2 3d 0a db 33 3c af eb c6 3c
       -0.038098052 0.079422496 0.010977516 0.024282305
000080 dc dd ab 3d d7 30 7f bc 0e 44 e9 3c 0a 3f 8a 3c
       0.08391926 -0.015575609 0.028474834 0.016875762
000090 4e a2 40 bc a7 71 83 3c 8a 56 c3 3d 50 29 09 bc
       -0.011757446 0.016045405 0.095379904 -0.008371666
0000a0 72 51 b2 3c 1b 1f 60 3a 3f 2b d7 3d 91 d8 ac bb
       0.021767352 0.0008549557 0.105062954 -0.00527484
0000b0 ba 6f 5b 3b 8f 61 8e 3b dd 78 16 3d ff e7 9e bd
       0.0033483342 0.004345126 0.036736358 -0.077590935
0000c0 b7 04 c2 bd 53 05 a2 bd c3 ba 93 3c 8e 7a 86 3b
       -0.094735555 -0.07911172 0.01803339 0.004103965
0000d0 db c1 18 3d da 83 87 3d c9 1f 8c bd d3 61 ac bc
       0.03729425 0.066169456 -0.06842 -0.02104274
0000e0 18 7c 1e bd 0b f9 b6 bb ac 62 ce 3d 0b 4a e7 bc
       -0.038692564 -0.0055838875 0.10077414 -0.028233549
0000f0 d6 0b 6e bc c1 2b 8a bd 5a d9 b6 3d 76 9b 0f bc
       -0.014529189 -0.06746627 0.08928175 -0.008765092
000100 14 1b 26 3d 4b 0c 8c 3d 8b 71 b1 bd 24 dd 77 3c
       0.040553167 0.06838282 -0.08664235 0.015128408
000110 0d d0 07 bd f9 70 05 3d 54 91 e7 bd bb 05 fe bc
       -0.033157397 0.032578442 -0.11307016 -0.031008592
000120 b8 ce 20 bc a1 88 06 be fa be a0 3d a8 eb a0 3d
       -0.009814911 -0.13138057 0.07848926 0.07857448
000130 8f 11 8f 3d a0 93 a1 3d 66 8e ba 3c f9 c4 01 bd
       0.06985771 0.07889485 0.022772979 -0.03168199
000140 a9 0a 13 3d 97 be a8 bd 7b 23 1f 3c 52 ff b2 bd
       0.03589884 -0.08239477 0.009713049 -0.08740105
000150 1f 5d cb bd eb 4d 3d bd 97 d1 a2 3c a7 be bd bd
       -0.09929871 -0.046216886 0.01987533 -0.0926488
000160 23 d4 17 3d 24 5d 97 bd 6b 1e c3 bc f1 55 aa 3b
       0.037067544 -0.07390812 -0.023818215 0.0051982333
000170 fd aa 14 3b 06 cc a0 3d 5a 79 95 3d 8a 16 07 bd
       0.0022684925 0.078514144 0.072985366 -0.03298048
000180 d6 68 c7 3b 54 84 cf 3d a6 2a 9a 3d 0f 2f af 3d
       0.0060854955 0.101326615 0.07527666 0.085538976
000190 d6 3c af bc 0a 49 3d ba 82 35 4a bd 90 cc 4c bd
       -0.021391314 -0.00072206615 -0.049367435 -0.049999774
0001a0 d2 c5 86 3d 9a 3f 88 3c ff 34 4b bd b5 f9 5c 3c
       0.065807 0.01663189 -0.049611088 0.013487269
0001b0 8f 3f 9a 3b 37 ef 8c 3b e2 30 2b 3d 62 b3 73 bd
       0.004707284 0.0043009776 0.041794665 -0.059497245
0001c0 e4 bf de 3c 89 30 32 bd f1 26 2d bd d3 7e 51 bd
       0.02719111 -0.043503318 -0.042273466 -0.05114634
0001d0 4a 76 96 bc 30 4c 3a bb 8e 14 85 3d 75 05 c0 bc
       -0.018366951 -0.002842676 0.06498061 -0.023440102
0001e0 80 42 8e bd a3 c3 8b 3d bb 8c f1 bc 0e f6 83 3d
       -0.069462776 0.06824424 -0.02948605 0.064434156
0001f0 cf ae e3 3c 11 d4 46 bd 70 72 48 bd 33 db 95 bd
       0.027793316 -0.048542086 -0.04893726 -0.073171996
000200 32 48 2d bd fc 2a 34 3d 84 06 de 3c 64 23 6c bd
       -0.04230518 0.043986306 0.027102716 -0.05765094
000210 49 23 00 3d 23 ee 74 3c f0 f4 b1 bd 09 06 b8 3b
       0.03128365 0.014949354 -0.08689296 0.005615954
000220 62 44 ce bc f4 49 80 bd c5 63 b0 bd 9e 0f 89 bd
       -0.025179092 -0.062641054 -0.086127795 -0.06692432
000230 a2 79 0f bb d4 f5 94 3d 42 7c a5 3d 7f 8a 05 3e
       -0.0021892567 0.072734505 0.08080341 0.13041113
000240 e4 aa b2 3c c5 aa 52 bd 78 68 73 bd 22 58 09 3d
       0.021810003 -0.05143239 -0.0594258 0.033531316
000250 7c 78 25 3d 10 35 50 bd d1 51 1d bd 58 cb a4 bb
       0.040398106 -0.050831854 -0.038408104 -0.0050291233
000260 87 3c 16 3c ff f7 b1 39 74 f4 dd bc 34 fa dd bc
       0.009169704 0.00033944842 -0.027094103 -0.027096845
000270 df 9d 7a bd b5 cc 91 bd 0c aa c6 bd d2 1a 7d 3d
       -0.061185714 -0.07119123 -0.097004026 0.061793156
000280 78 26 30 ba a9 52 4c bd 31 58 d2 bb f5 c3 a3 3d
       -0.00067195995 -0.04988352 -0.0064192046 0.0799636
000290 c8 4c 12 3d b4 81 72 bc 67 53 dc bc b6 95 9a 3d
       0.035717756 -0.014801431 -0.026895238 0.07548086
0002a0 e3 f1 48 3d b1 32 97 3c 4c 31 68 3d e8 dd 55 3d
       0.049058806 0.018456789 0.05668764 0.05221358
0002b0 28 a3 b0 bd 75 c9 96 bd 95 95 4e 3d 71 8f 1a 3d
       -0.086248696 -0.07362644 0.05043562 0.037734453
0002c0 07 25 4b 3d 0f 5a 5d bc 48 17 cc 3c 2c ea 07 3d
       0.04959586 -0.013510241 0.024913445 0.033182308
0002d0 8d 4a 02 bc 60 ce d8 3c 7f 07 62 bb b6 03 fc 3b
       -0.007952345 0.026465595 -0.0034489331 0.007690872
0002e0 61 89 9b bd 6d 00 89 bd b3 3b 8f bd 3e cf 45 3d
       -0.07594562 -0.06689534 -0.069938086 0.048293345
0002f0 2d 28 5a 3d 6c 6f 9a 3d a3 58 c9 3b 9c 9b 58 bc
       0.05326097 0.07540783 0.0061445995 -0.013220694
000300 91 40 6a 3d e8 c6 b7 3d 82 a6 16 3d 5f 1a 58 bd
       0.05719048 0.08973485 0.036779888 -0.052759524
000310 81 a8 aa 3d e6 af 87 3d c8 2f 7b 3c 0d 54 83 3d
       0.08332921 0.06625347 0.015331216 0.06412516
000320 d2 86 af bd 13 c1 5e 3c 72 11 ac bc 0c fd fb bc
       -0.08570637 0.013595837 -0.021004412 -0.03076031
000330 e8 22 ac bd 04 b0 1b 3d b3 a8 74 3d b3 42 d2 bc
       -0.08405095 0.03800966 0.059731197 -0.02566657
000340 7d bb 08 3d 4f 59 9a 39 74 42 db 3c ad 87 51 3d
       0.033381928 0.0002943971 0.026765086 0.05115478
000350 54 79 c3 bd ef 34 eb 3b d1 b4 5a bd 74 eb fd 3c
       -0.09544626 0.007177941 -0.053395096 0.030996062
000360 a1 17 9e 3d 4a e7 4b bd fa 7c 57 3b e2 53 f2 bb
       0.077193506 -0.04978112 0.0032880888 -0.0073952535
000370 5a 4a 90 3d c2 91 d0 3c ad 89 74 bc c8 90 53 bd
       0.070454314 0.025460128 -0.014925403 -0.051651746
000380 b3 c0 98 3c 5c 89 6d bc bf 55 25 3c 9d 85 8f bd
       0.018646574 -0.014498081 0.010091244 -0.070079066
000390 df fd cb bd 1e b8 58 bd d2 ad 81 3d 3b 31 87 3c
       -0.099605314 -0.052909963 0.06331982 0.016502967
0003a0 b4 7b 65 3d 8d 4c 0f bd 93 2b 55 3d 27 34 be bd
       0.056026176 -0.034985114 0.05204351 -0.09287291
0003b0 4f ff 10 bd 3a b6 b9 3c 53 d2 aa bd 4e c0 34 bc
       -0.03539973 0.0226699 -0.083408974 -0.011032177
0003c0 a6 4d 6e bd d1 72 3b bd 99 d8 82 3d 5e 60 96 3d
       -0.05817952 -0.045763794 0.06388969 0.07342599
0003d0 61 94 5a 3d 85 9f dd bd d6 43 82 bd 78 89 0d bd
       0.05336416 -0.108214416 -0.06360595 -0.03455493
0003e0 cf bc 62 bd 25 2a 40 3d bc 62 d6 3c 0f ca b5 bc
       -0.055355843 0.046915192 0.026170127 -0.022191076
0003f0 12 5d be bc ab 01 57 bd 2c 2a 16 3b 4b d0 4d 3d
       -0.023237739 -0.052491825 0.002291332 0.05024747

rnn.weight_hh_l0 f4 [384, 128]
000000 ed 27 99 bc ba 47 26 bd 7f b7 90 bd 46 7f db 3c
       -0.018695796 -0.040595748 -0.07066249 0.026794087
000010 c5 0f c2 3c 20 4e 5a 3d b3 db 88 bb f4 07 3c bd
       0.02368916 0.053297162 -0.004176581 -0.045906022
000020 6d 87 25 bc 91 20 fd 3c 1b 38 c0 3d c2 2b 7c 3c
       -0.010103089 0.030899318 0.09385701 0.015391292
000030 9a 29 c1 3d bb 5a bb 3c ff 20 11 3d 03 1b c5 3d
       0.09431763 0.022870412 0.03543186 0.09624293
000040 a3 17 eb 3c 78 68 89 bd b7 84 04 bc 08 33 50 bd
       0.028697794 -0.06709379 -0.008088282 -0.050829917
000050 dd 7b 99 3c 45 11 93 bd 00 c1 ca 3d ed cc c6 3b
       0.01873582 -0.07181028 0.09900093 0.0060669095
000060 6b 85 d1 bd 09 36 58 3d bc 92 05 bd ca 8d 67 bd
       -0.102305256 0.052785907 -0.03261064 -0.056531705
000070 de fe 8a bd b1 a1 50 bc fc 7f 2d bd 11 33 ae bd
       -0.06786893 -0.012733863 -0.042358384 -0.08505834
000080 60 ab 9c 3c bd 2a 0d bc f8 c3 14 3d 3e a3 8e bd
       0.019124687 -0.008616147 0.036319703 -0.0696473
000090 9a 9c a7 bc 7b f5 77 3d 7f 3f c9 bc cb b7 14 3d
       -0.020460416 0.060536843 -0.02456641 0.03630809
0000a0 11 e2 00 3b 4d 15 26 bd 69 bc a6 3d 02 87 97 3d
       0.0019665996 -0.040547658 0.08141405 0.073987976
0000b0 17 dc a1 bc ee 51 9d 3c 99 44 be 3d 0b 25 5f 3d
       -0.019758267 0.019204106 0.09290428 0.054478686
0000c0 34 c5 bb 3c aa 0a 99 bd 43 68 c0 ba d5 4b 00 3d
       0.022921182 -0.07472737 -0.001467951 0.03132232
0000d0 3a 2d 25 bd 1a 14 81 3d 3e b5 af bc 63 f4 47 bd
       -0.040326335 0.06302662 -0.021448728 -0.04881705
0000e0 e7 ad a2 3d 5a 18 36 bc 4a 97 12 bd 84 f3 23 3d
       0.079433255 -0.011114204 -0.03578881 0.040027156
0000f0 64 40 99 bd 0e 6f 83 b9 43 f2 6e 3d 5f 8b 80 bd
       -0.07482985 -0.0002506901 0.058336508 -0.06276583
000100 5b 40 04 bd 3e 72 0c 3d dd c5 2f bc e7 91 0c 3d
       -0.032287937 0.034288637 -0.010728327 0.03431883
000110 38 40 da 3a 0f a0 f7 3c d1 a8 54 bb e4 99 21 3c
       0.0016651219 0.03022769 -0.0032449255 0.009863351
000120 e3 a7 a5 bd b8 fb c8 3d f5 dc f7 3c 06 e7 b2 3c
       -0.080886625 0.098136365 0.030256728 0.021838676
000130 d8 5d 0b bc c4 7f 89 bc 76 68 24 3d 2b 8a f1 3c
       -0.008506261 -0.016784556 0.040138684 0.029484829
000140 e5 cf 80 3d 21 20 fc bc b8 0f a9 3d a9 2d 7e 3d
       0.06289653 -0.030777039 0.08254951 0.062055264
000150 03 fe f4 3c 75 67 f2 bc e2 c9 7d bc 52 bf cb 3d
       0.029906278 -0.029590348 -0.015490027 0.09948601
000160 93 53 b5 3d 92 9f c4 3c 65 aa aa 3d da b7 23 ba
       0.08853831 0.02400187 0.083332814 -0.00062453526
000170 9b 4e 79 3d 2f 62 87 bd 13 20 ea 3c 29 7c 66 bd
       0.06086598 -0.06610524 0.028579747 -0.056270752
000180 27 13 5d bd f1 88 e9 bc f9 e9 20 3c 13 2a 46 3d
       -0.053973343 -0.028507682 0.009821408 0.04837997
000190 1e 24 88 3d 51 2c db bc 96 e2 0c bd cc d4 a2 bd
       0.06647514 -0.02675453 -0.034395777 -0.07950744
0001a0 ad b9 8a bd 03 b0 9b bd b6 a7 0a 3d 3c bb 21 bd
       -0.06773696 -0.07601931 0.033851348 -0.0394852
0001b0 b1 62 24 bc 95 bb ae 3d ea 82 0a bd 61 5e 3e 3d
       -0.0100332955 0.08531872 -0.033816256 0.046476725
0001c0 ea a1 36 3d b5 0f ae 3d e7 a7 d5 3c 68 b4 96 bc
       0.044588007 0.0849909 0.026081039 -0.018396571
0001d0 72 03 4b bc 54 29 26 bd a1 e3 d3 3a e0 c0 4b 3d
       -0.012390958 -0.040566757 0.0016165861 0.049744487
0001e0 06 2a 5f bc c9 e8 43 bb b9 db 8e 3d 5b b7 8a 3c
       -0.013620859 -0.002989339 0.069755025 0.016933134
0001f0 b3 df df 3c c5 cf 5e 3d 39 92 e8 3c 3e 72 86 3d
       0.027328348 0.054397363 0.028390037 0.06564759
000200 91 01 d2 3c 7a 85 f2 bc ad e4 27 bc 9e 28 8a 3d
       0.025635513 -0.029604662 -0.010247392 0.06746028
000210 c5 9e 9f bd 5e 4c cc bc 92 a9 be bb 61 85 11 bd
       -0.07793955 -0.024938758 -0.005818554 -0.03552759
000220 c5 2d 3c 3d d7 39 a4 3c cd 43 9a bc 06 e5 46 3b
       0.045942087 0.020047111 -0.018831158 0.003034891
000230 f9 28 0c bd b2 8c b4 3c b7 10 8a 3c 7b ba 87 3d
       -0.034218762 0.022039745 0.016853673 0.06627365
000240 10 99 19 3c f0 e1 3d 3c b3 fb 11 bd 4d 81 12 bd
       0.009374872 0.011589512 -0.03564043 -0.035767842
000250 2d 7e 59 bc ed 06 6f 3d 3f 9a 60 bd 49 e8 a6 bd
       -0.013274712 0.058356214 -0.0548346 -0.08149774
000260 0f 59 3e 3d 3e d2 61 3d 67 59 b6 3d e3 29 1d bd
       0.04647165 0.055132143 0.08903771 -0.038370024
000270 18 f9 54 bd a5 29 bb 3c e5 22 74 3c 45 d0 08 bd
       -0.051995367 0.022847006 0.014900898 -0.033401746
000280 1a 5d 81 3b 37 f3 ec 3c 45 62 d4 3b e3 12 0f bd
       0.003947866 0.028924568 0.006481441 -0.03493012
000290 3a ef 19 bd 31 a4 85 3d 9c 96 d7 bb f6 3a 82 bd
       -0.03758166 0.06525458 -0.0065792333 -0.06358902
0002a0 29 c6 91 bc fd 2d 61 3c e9 31 34 bd 8d ff c5 bd
       -0.017794685 0.013743875 -0.04399291 -0.09667883
0002b0 ab a0 7b bd 1b 6d 2d 3d e1 d5 cc bc 8e 6d 54 bd
       -0.06143252 0.04234038 -0.02500433 -0.051862292
0002c0 b6 9c d4 3c 39 62 e8 3c 65 b2 87 bd a9 91 6d bd
       0.025953632 0.028367149 -0.06625823 -0.05800024
0002d0 67 10 85 bd a1 f6 dd bc b3 e6 41 bd e3 ee b0 bc
       -0.06497269 -0.02709514 -0.047339153 -0.021598285
0002e0 da cb 49 bd 5d fa 30 3c c4 f1 c1 3d 05 b3 93 3b
       -0.049266674 0.010801879 0.09469941 0.004507425
0002f0 7e 67 a0 3d 3e 51 b9 3d c8 37 22 bd 9f 36 97 bd
       0.078322396 0.09048699 -0.03960398 -0.07383465
000300 50 35 49 bd aa ca 93 3d 6b 68 14 bd 5b 64 d1 3d
       -0.04912311 0.072163895 -0.036232393 0.102242194
000310 5c c8 bf 3d 08 d5 9b bd fb a9 6f 3b 21 58 c3 3d
       0.093643874 -0.07608992 0.0036569822 0.09538294
000320 44 4f b2 3b c8 79 6f 3d da 92 03 bd 33 63 79 3d
       0.005441578 0.05846575 -0.03212247 0.06088562
000330 cb 15 b2 3d e7 af 84 3d 24 55 33 3d dd 64 16 bd
       0.08695563 0.06478863 0.04378237 -0.036717284
000340 16 ac 41 bd 95 52 a3 3c 6f 44 b1 3d 03 cc 0b 3d
       -0.047283255 0.01993684 0.08655631 0.034130108
000350 a5 61 2d bd 03 ba 26 3d a7 8c 74 bd c4 55 b8 3d
       -0.04232945 0.04070474 -0.05970445 0.090007335
000360 9e 5c 9e 3d cc be 6a bd 64 bc 95 3c 7d 4f 4f bd
       0.07732509 -0.057310864 0.018278308 -0.050612915
000370 fc 3b f5 3c 3c 6d 80 bd 73 34 25 bd 00 86 7f 3d
       0.02993583 -0.06270835 -0.040333223 0.06238365
000380 ed da d0 bc 53 c1 7a bd 05 44 0a 3d 00 ab 05 3d
       -0.025495017 -0.061219525 0.033756275 0.03263378
000390 11 71 5e 3c 70 db 75 3d 92 93 89 3d af bd 44 3d
       0.013576762 0.060023725 0.067176 0.04803246
0003a0 3b 43 97 3c a4 7a 61 3d 22 38 1d bc 5e 1d 88 3b
       0.018464675 0.0550486 -0.009595903 0.0041538915
0003b0 66 37 83 3d 2d 30 0b 3c c1 5b 1e 3d 97 44 26 bd
       0.06407051 0.008495373 0.038661722 -0.040592756
0003c0 84 3f d5 bc 1b 36 83 bd 9c 3b 7a 3d 62 f6 46 3d
       -0.026031263 -0.06406804 0.061092004 0.048574813
0003d0 ec b6 fa bc 03 a4 30 bc a2 5c 59 3d 68 9b b8 3b
       -0.030604802 -0.010781291 0.053066857 0.0056337602
0003e0 45 f5 94 3d 38 8d 30 bc 02 a0 08 3d a7 42 a5 bc
       0.07273344 -0.010775857 0.03335572 -0.020173384
0003f0 7e d8 72 3d d7 9a 65 3d c6 8f d2 bc f1 2e 0a 3c
       0.059288494 0.05605587 -0.025703322 0.008434043

rnn.bias_ih_l0 f4 [384]
000000 af 08 97 3d e3 d6 85 bd 53 5a 88 bd 77 94 17 bd
       0.07374703 -0.06535127 -0.06657853 -0.03700682
000010 84 b5 9e 3d 76 cc 20 bd 6f 08 e0 bc c4 ba 93 bd
       0.07749465 -0.03925749 -0.027347771 -0.07213357
000020 92 fa d3 3b 0d 71 1b 3d ac 8d 7c 3d 1c e5 cf 3c
       0.0064690793 0.03794961 0.061658546 0.025377803
000030 a2 ed 20 bc 59 65 28 3d cd 7a 64 bd 87 6e 11 3d
       -0.009822281 0.041112278 -0.055781174 0.035505798
000040 ba d5 af bd 63 e9 c3 3c 7a c7 93 bd f7 7e 32 bd
       -0.08585687 0.023914998 -0.072157815 -0.043578114
000050 e4 71 70 bd c2 99 71 3c ea 66 84 3d db 33 96 bd
       -0.058702365 0.014746131 0.06464942 -0.073341094
000060 86 62 ef 3c 31 56 ca bd 50 00 a6 3d 94 61 7e 3d
       0.029221784 -0.09879721 0.08105528 0.062104777
000070 e1 0f e4 3b 22 36 1a bd 52 6a 68 3c 92 56 e9 3c
       0.0069599007 -0.03764928 0.014185505 0.028483663
000080 94 8d 23 3d 74 4f ed 3c a2 42 b8 bd b7 0a 24 3d
       0.03992994 0.02896855 -0.08997084 0.04004928
000090 7e fc 55 bc 1f 00 3f bc 1d 7a 8f 3d 97 12 b7 bc
       -0.013060687 -0.011657744 0.07005713 -0.022347732
0000a0 45 cf 29 bd 72 0a 05 bd 8f 57 68 bd 03 da fb bb
       -0.041457433 -0.032480665 -0.056724127 -0.007685901
0000b0 70 0a 84 bd 1c fd af 3d 04 73 ae 3c e2 1a 9c bd
       -0.06447303 0.08593199 0.021295078 -0.07622315
0000c0 97 eb 86 3d 4c 90 ae 3d 48 39 39 bd 4c d5 f6 3b
       0.06587904 0.08523616 -0.045220643 0.007532751
0000d0 a2 7a 47 3d fc 77 dd 3c 8f a5 52 bd 5a 96 1f bc
       0.048700936 0.027034752 -0.05142742 -0.009740436
0000e0 33 4e c6 3d 74 08 32 3d 96 5c a5 bd 6a 1b ad bb
       0.09682884 0.043465093 -0.080743 -0.005282809
0000f0 a5 70 1d bd ba bf a9 bb 5c 6d 0c bc 18 14 47 bd
       -0.038437504 -0.0051803263 -0.008570995 -0.048603147
000100 53 2d 61 3d 37 98 cc bc 9c 90 cf 3c 88 5d 15 bc
       0.054974865 -0.024974925 0.02533751 -0.009116538
000110 37 6c fd bc b7 d3 68 bd 9e 6a 24 3d ae 79 6f bd
       -0.03093539 -0.056842532 0.04014074 -0.058465652
000120 10 b1 6c 3c 1c 18 94 3a 4f 75 4d 3d 9f ba 4f 3d
       0.014446512 0.0011298689 0.050160702 0.050715085
000130 4e 21 37 3d ad cb b8 3c b6 71 6c bd 6e e9 4b 3d
       0.044709496 0.022558058 -0.05772563 0.049783163
000140 90 03 b6 3d 5d 6c 54 3d c6 b8 0d 3d 0c e1 38 3d
       0.08887398 0.051861156 0.03460004 0.045136496
000150 8e c8 23 3d 6d 9c d8 bc 65 8b fa bb b7 20 a9 bd
       0.039986186 -0.026441777 -0.0076460117 -0.08258193
000160 01 6e 66 bd 02 c5 9d 3d 33 f6 24 bc af 2a 2c 3b
       -0.05625725 0.07703592 -0.010068464 0.0026270559
000170 58 46 9d 3d 06 36 75 bd 4b 5d 96 bc a8 a2 45 3c
       0.07679433 -0.059865974 -0.018355032 0.012062706
000180 5c 2a 2d 3b cf 70 88 bc 68 8d 62 3d c2 a2 56 bb
       0.0026422953 -0.016655354 0.055310637 -0.003275082
000190 8f f6 06 bd 14 db 7e 3c 34 98 a5 3d b1 98 38 bd
       -0.03294998 0.015555162 0.08085671 -0.045067493
0001a0 60 49 b8 3c 4f 4b a5 3d bb 2b eb 3c f3 26 ba bc
       0.022495925 0.080710046 0.028707376 -0.02272365
0001b0 3c c6 ac bd 68 cc b2 bd 74 e0 e8 bc 14 b1 95 bd
       -0.08436248 -0.08730394 -0.02842734 -0.073091656
0001c0 fd a2 c9 bc 9f 80 55 bc 27 19 95 3d e9 e8 96 bd
       -0.024613852 -0.013031154 0.07280188 -0.07368643
0001d0 e9 ad 16 3d bb 47 bb bc 67 aa 22 bd 0e 50 4f 3d
       0.036786947 -0.022861352 -0.03971329 0.050613455
0001e0 15 f7 77 3c f2 fc 92 3d 5f 86 58 3d e0 d9 1d bd
       0.015134593 0.07177152 0.05286252 -0.03853786
0001f0 f9 49 51 3d 97 1b 23 3d c2 b9 61 3d 04 f1 6c 3d
       0.051095936 0.039821234 0.055108793 0.057847038
000200 b0 56 aa bd 65 9b 1f be 9e 4a 02 be b0 df 74 bd
       -0.083173156 -0.15586622 -0.12723777 -0.059783638
000210 a1 7c e2 3d d1 a6 a0 bd 68 f5 b9 bd 0d 16 05 be
       0.11058927 -0.07844318 -0.09080011 -0.12996693
000220 1e 35 c7 bd 86 49 64 bc 56 80 69 bd 54 69 6b 3c
       -0.09726928 -0.013933545 -0.057007156 0.014368374
000230 c7 34 c7 bd 12 68 88 3c e4 d2 83 3c a7 d5 17 3d
       -0.09726863 0.016651187 0.016091771 0.03706899
000240 ed d3 cf bd e0 fd b7 bb cf 2c fa bd 81 b8 67 bd
       -0.101478435 -0.005614981 -0.12215578 -0.05657244
000250 81 f3 b2 bd b5 6f 53 3d b3 48 ec bd 57 03 e7 bc
       -0.08737851 0.051620204 -0.11537304 -0.028199835
000260 bf d1 3f bd e3 48 ae 3c 86 13 c1 bd 6e 2e 4f bd
       -0.04683089 0.02127499 -0.09427552 -0.05058139
000270 dc 75 3a 3d 92 34 96 bd ab 9f 1c be c7 f0 09 3c
       0.045522556 -0.07334246 -0.15295283 0.008419222
000280 e9 77 70 bd ca 47 23 bd 54 2d 8e 3d 63 07 bd bd
       -0.058708105 -0.039863385 0.069422394 -0.092299245
000290 e2 79 9b bc 2a be f2 bd 31 d9 31 3d 29 98 e6 3d
       -0.018979017 -0.11852677 0.04342002 0.11259491
0002a0 68 bd 57 3c 19 f9 a0 bd 35 d2 32 bd db 7b d5 bd
       0.013167717 -0.078600116 -0.0436575 -0.10424014
0002b0 6d 71 51 bd c3 5f 1f 3e d7 ae 53 3c d8 90 29 bd
       -0.051133562 0.15563874 0.012920103 -0.0413979
0002c0 e0 17 26 bc bd 56 fc bd e5 95 34 bd a2 77 3b 3d
       -0.010137528 -0.123212315 -0.044088263 0.045768388
0002d0 a8 93 03 be d5 f6 27 be 6b 63 11 3c 1e f4 6a bc
       -0.12849295 -0.16402753 0.008873801 -0.014340429
0002e0 98 d5 16 3e 02 4d 8e bb 1f 39 6b bc 46 25 cb bd
       0.14729917 -0.004342676 -0.01435688 -0.09919219
0002f0 41 67 18 bc 75 26 ad bc 8c 6d ea bc 43 d8 3c bc
       -0.009301961 -0.021136502 -0.02861669 -0.01152617
000300 b8 fa 9a bd cb 72 e2 3d 34 be d3 bd 3e 58 c0 bd
       -0.07567352 0.11057051 -0.10339013 -0.09391831
000310 41 cf 82 bc cc c9 92 bd 4c fe a0 bc 0c 85 ac bd
       -0.015967967 -0.07167396 -0.019652508 -0.08423814
000320 4d 36 b8 bc 79 79 ab bd 77 ce 06 be 10 7a 1a be
       -0.02248683 -0.083727784 -0.13164698 -0.15085626
000330 f1 87 51 bc a0 f8 7c bd d3 de 22 be 7c 43 12 be
       -0.012788759 -0.061760545 -0.15905313 -0.14283556
000340 13 32 7c bd 07 be 90 bd 41 b2 81 3d 33 59 17 be
       -0.061571192 -0.07067495 0.06332827 -0.1478012
000350 d4 a5 ae bd 86 6f b4 bd 95 ae c4 3d 9f 11 b9 bd
       -0.08527723 -0.08810334 0.096036114 -0.09036564
000360 16 7b 98 bd f1 8e d7 bb f2 37 b9 bd 9f 55 02 bb
       -0.07445352 -0.0065783192 -0.09043874 -0.001988746
000370 26 87 96 bd 50 8b 1b be e5 45 5a bc 6e 55 d4 3a
       -0.07349996 -0.15189862 -0.013322328 0.0016199776
000380 c5 60 07 bd e0 ba 19 3e 93 19 a6 3c 0a 9c 55 3c
       -0.03305127 0.15012693 0.020275867 0.013037691
000390 77 3a b5 bd 37 7e 17 3d df 00 cc bd d9 33 c8 bd
       -0.08849042 0.036985602 -0.09961104 -0.09775514
0003a0 4a 99 1c be 4d 23 59 bd b9 4a 09 3d 81 e2 e7 3c
       -0.1529285 -0.05301218 0.033518527 0.028306248
0003b0 f5 8f 2b 3c fc ee f0 3d 81 f3 9e 3d e0 44 13 3d
       0.010471334 0.11764333 0.077612884 0.035954356
0003c0 c7 e0 bf bc a2 8d 0b be 47 25 76 bd c8 61 3d bb
       -0.023422612 -0.13628247 -0.060094144 -0.0028897393
0003d0 05 2d a2 bd 4b 35 a2 bd 75 3a 78 bd 24 5c 22 bd
       -0.07918743 -0.07920321 -0.060602624 -0.039638653
0003e0 87 92 e4 bd 81 30 ab 3c d8 3b 7c bd 1c 03 15 bd
       -0.111607604 0.020897152 -0.06158051 -0.03637992
0003f0 73 0d 03 bd 13 a0 51 3b 40 29 18 be 9a f5 e2 bc
       -0.031995248 0.003198628 -0.14859486 -0.027705003

rnn.bias_hh_l0 f4 [384]
000000 2a 4a f7 bc 6a c6 39 bd 3b 22 05 3d 34 cf ed bb
       -0.030186731 -0.045355238 0.032503348 -0.0072573666
000010 c7 fa 2b bd e5 dd 55 bd dd dd 6e bd 12 49 8c bd
       -0.041987207 -0.05221357 -0.058317054 -0.068498746
000020 65 06 f0 bc 80 3c a0 3c 39 0d 1d 3d de 4e cb ba
       -0.029299924 0.019560099 0.03834269 -0.0015511175
000030 9e 8e a3 bd 54 f7 55 3d c9 15 79 3d 45 3e c9 3c
       -0.079861864 0.052237824 0.06081179 0.024565825
000040 d5 64 25 3c a8 fe fe bc 0a e6 2c bc 44 d1 5c bd
       0.010094841 -0.031127289 -0.010552892 -0.05391051
000050 09 fd 6c bd 31 53 90 bd af f3 94 3c da ca 89 bd
       -0.0578585 -0.070471175 0.018182604 -0.06728144
000060 48 38 2e 3d 85 16 f8 ba 29 98 6e bc 59 a7 90 3d
       0.042534143 -0.001892761 -0.014562645 0.07063169
000070 1a 35 73 3c a6 0d 6d bc 82 1e 67 3d fe cc 90 b9
       0.014844203 -0.014468586 0.05642558 -0.0002761855
000080 25 0f c0 bd 74 21 8b 3d 92 a3 83 3d 43 7b 97 bd
       -0.093778886 0.0679349 0.06427683 -0.07396557
000090 50 1a 6e 3d 6a e5 3f 3d e0 e5 a1 3d 62 be af 3d
       0.058130562 0.046849646 0.07905173 0.085812345
0000a0 07 8e 70 3d 80 7e 1f bc d7 8f 73 bd ee 9c d8 3c
       0.058729198 -0.00973475 -0.05946335 0.026442017
0000b0 51 37 20 3d 90 36 88 bd 75 b4 4c bc 34 61 5e bd
       0.039115254 -0.06651032 -0.012494196 -0.05429192
0000c0 d7 98 90 3d c2 05 87 3d 95 9c b6 bb cc fd 87 bd
       0.07060402 0.06592895 -0.0055728653 -0.06640205
0000d0 d7 d5 2e bd 80 e4 8c bd b5 ae 92 bd 3a 90 84 3d
       -0.042684402 -0.068795204 -0.07162229 0.064728215
0000e0 55 39 52 3d da a0 1d bd c8 95 7c bd 46 17 8d 3d
       0.051324207 -0.038483478 -0.06166628 0.06889205
0000f0 0f 20 f8 3c 23 01 69 3c 71 4c ac 3d f2 09 1d 3d
       0.030288724 0.014221462 0.084130175 0.038339563
000100 f0 86 58 bb c7 ef 2c 3d 68 dc 63 bd cc 10 10 3d
       -0.0033039413 0.042220857 -0.055630118 0.03517227
000110 08 5b a4 3d e0 09 a8 bd ee 1d 66 3d 04 be 90 3d
       0.08025175 -0.082050085 0.056180887 0.070674926
000120 7c d9 b1 3c 87 47 09 bd 78 35 e0 bb d0 a2 e9 bc
       0.02171015 -0.03351548 -0.0068423115 -0.028520018
000130 84 f8 af 3d 9a 9d 84 3d e8 8f 33 bd e7 49 9b bd
       0.085923225 0.064753726 -0.04383841 -0.07582455
000140 ec 34 9c bd 8d b8 ad bd e1 27 a5 bd e1 b7 9f 3d
       -0.076272815 -0.08482466 -0.08064247 0.07798744
000150 d1 4e 47 3b 08 02 7e bb 37 00 e6 3c e2 e5 80 3d
       0.0030411968 -0.0038758535 0.028076274 0.06293847
000160 e8 e6 12 3c 10 31 e1 3c 29 f9 b2 3b 34 96 db 3c
       0.008966185 0.027489215 0.005461831 0.02680502
000170 86 49 ab bd cb 54 73 bd c2 b3 d2 bb fc 00 c6 bc
       -0.08363633 -0.059407037 -0.00643012 -0.024170391
000180 1c a1 31 3c f6 2e 99 bd e7 8d 87 3d 41 a6 8b bb
       0.010841634 -0.0747966 0.066188626 -0.0042617624
000190 6c 45 a5 bd 87 09 44 3d 2a f1 9e 3d 37 59 79 3d
       -0.08069882 0.04786065 0.07760842 0.060876098
0001a0 44 28 77 3d 86 04 5a bc e0 62 28 bd 94 46 9b 3c
       0.060341135 -0.0133067425 -0.04110992 0.018954553
0001b0 89 6f a6 bd 4a fc 93 3c 07 55 58 bd 35 df e2 3c
       -0.081267424 0.018064637 -0.052815463 0.027694324
0001c0 22 3a c6 bc b9 d8 ee bb b3 90 b7 bc 7f dc bf bc
       -0.024197642 -0.007289019 -0.022407865 -0.02342057
0001d0 8e e2 5d bd 8a 9a 85 3d 78 39 6c 3d eb ce 81 3c
       -0.054171138 0.065236166 0.057671994 0.015845736
0001e0 5e 37 33 bd 38 9a af 3d dd d7 63 3d 08 d1 b1 bd
       -0.043753974 0.08574337 0.055625785 -0.08682448
0001f0 68 dd 9d 3d c1 ae 3c bc 72 93 eb bb 44 e5 84 bd
       0.077082455 -0.011516274 -0.0071892077 -0.064890414
000200 cc eb 01 be 5f eb 19 be 4c 24 de bc cc 95 38 bd
       -0.12687606 -0.15031193 -0.027116917 -0.045064732
000210 d3 91 4f 3d c7 d9 3d bd 83 20 c6 bd 96 c7 9a bd
       0.05067618 -0.046350267 -0.0967417 -0.07557599
000220 58 bf c8 bc 8b 8e d0 3d 1f cd 9d bd ff cb c0 bc
       -0.024505302 0.10183438 -0.07705139 -0.023534773
000230 00 0f 05 be 30 e6 21 be 75 73 5b bd c6 59 b1 3d
       -0.12994003 -0.15810466 -0.053576905 0.08659701
000240 90 24 df bd 47 82 e8 bd 60 f5 90 bc 60 b7 b6 bc
       -0.108956456 -0.113529734 -0.017695129 -0.022304237
000250 9b 8e d6 3c 74 d9 46 3c 7e 97 d0 bd 11 b9 23 be
       0.026191046 0.012136806 -0.10185145 -0.15988566
000260 0e a5 84 3d 93 fa 19 bd a7 24 2c bd d2 3c a2 3d
       0.06476794 -0.03759248 -0.042027142 0.07921757
000270 6b f1 8d bd 97 7d 91 3c 03 da 65 bd 8b 28 d7 3c
       -0.069308124 0.017760081 -0.056116115 0.02626445
000280 c9 53 1b 3d e6 a5 54 bd 67 ce 69 bd d7 ea 9c bd
       0.0379217 -0.051916026 -0.057081606 -0.0766198
000290 05 6e 1b 3d 36 da 17 be 26 4b 50 ba 88 ac 15 3d
       0.03794672 -0.14829335 -0.00079457683 0.03654149
0002a0 e8 11 44 bb 3e d3 e3 bd db b2 e6 bd c2 c1 c0 bd
       -0.00299179 -0.111242756 -0.11264583 -0.09411956
0002b0 25 0d 02 be 25 93 9d 3d ae 7e a0 bd 83 ee 2a be
       -0.12700327 0.07694081 -0.07836662 -0.16692548
0002c0 47 9e e3 3b ed 23 09 be b9 5a b0 3c 11 4e df bd
       0.0069463584 -0.13392611 0.021527635 -0.10903562
0002d0 b2 0b 43 bd 81 61 29 be ca 5f 03 3e 1a 81 df bc
       -0.047618575 -0.16541101 0.1282951 -0.02728324
0002e0 5f 5a 34 3d 12 79 83 bd e6 b5 1a be a3 94 95 bd
       0.044031497 -0.06419577 -0.15108451 -0.07303741
0002f0 e4 0f 1a bd db 5e c2 3d e6 04 35 bd 48 da 86 bd
       -0.03761281 0.094907485 -0.044194125 -0.065846026
000300 6e 09 e8 3a 4c 3b 83 3d 7f 71 67 bd 49 7e 93 bd
       0.0017703006 0.06407794 -0.056504723 -0.07201821
000310 25 89 f8 3b 93 c3 ca bd f6 cb ce bd 42 14 07 be
       0.0075847083 -0.09900584 -0.10097496 -0.13191321
000320 58 52 46 3d 7c 93 70 3b 6d 8c a9 3c f4 94 04 3c
       0.048418373 0.0036709001 0.020696843 0.008092154
000330 87 06 03 3d 1b 64 5f 3c 81 27 b3 bc b5 1c 05 be
       0.031988647 0.013634707 -0.021869423 -0.12999232
000340 47 94 94 bd e4 9f a7 3b 2d 90 28 3d 8a 13 a3 bd
       -0.07254844 0.005115496 0.04115312 -0.07962711
000350 22 e9 04 be 69 db b7 bd e9 a6 a8 3d ba 7b 77 bd
       -0.12979558 -0.08977396 0.082349606 -0.06042073
000360 50 c4 84 bd da 9a 71 3c b7 0b 87 3c 82 01 84 bd
       -0.06482756 0.014746392 0.016485078 -0.064456
000370 b0 20 f1 3c 19 24 b9 bd 6c f1 ee bd 8c 52 08 ba
       0.029434532 -0.09040088 -0.11667141 -0.0005200289
000380 42 5f e7 3c f8 1a 1a 3e f1 a1 29 3d f0 97 a0 ba
       0.028243665 0.1504935 0.041414205 -0.0012252312
000390 9b 9f 15 bd 80 c9 32 3c 21 0b 9f bd 5d da fc 39
       -0.036529165 0.010912299 -0.077657945 0.0004822788
0003a0 f7 4a 0e bd 3c 2d 01 3b f6 55 a4 bd 85 3a b0 bd
       -0.03473946 0.00197108 -0.08024208 -0.08604912
0003b0 82 30 db bd c5 0a 1c 3e e0 85 a1 bb fe 87 96 3c
       -0.107026115 0.15238483 -0.004929289 0.018375393
0003c0 66 aa e2 bc 5e fc ba bd a2 cf 2e bd e0 27 02 bc
       -0.027669143 -0.091301665 -0.042678483 -0.007944077
0003d0 f1 a5 1c bc 5f 7c de bb 91 af b2 bd f1 8d b4 bc
       -0.009561048 -0.0067897285 -0.08724893 -0.02204034
0003e0 73 64 bb bd b8 0c 9c 3d 41 65 01 be e3 8b 55 bd
       -0.091500185 0.076196134 -0.12636282 -0.05213536
0003f0 3f f2 fa 3c f4 0b bc bd f6 95 eb bd 0a 7d 06 3d
       0.03063309 -0.091819674 -0.11503212 0.03283409

rnn.weight_ih_l1 f4 [384, 128]
000000 ea 76 54 bd 19 9c 79 bd 90 f7 23 3d 74 ce 97 3b
       -0.051871218 -0.060939882 0.040031016 0.0046327654
000010 5f 5e 97 bd 53 19 92 3c 92 a5 7f bc 66 2e be 3c
       -0.07391047 0.017834341 -0.01560344 0.023215484
000020 e3 d6 62 bd d1 6a c5 bc 15 d4 b8 3d 30 11 69 bd
       -0.055380713 -0.024098786 0.090248264 -0.056901157
000030 9b 35 9a bc 00 7a 9c 3d b4 7a a4 3d 8b f5 2c bc
       -0.01882439 0.07640457 0.08031216 -0.010556589
000040 22 fa 3b bd 1a 7f ee 3c 56 59 42 bd 1c ca a0 3d
       -0.045892842 0.029113341 -0.04744848 0.07851049
000050 c3 03 b6 bc 3b 92 d5 bd a4 f3 4e bd 16 e7 89 bd
       -0.02221859 -0.10428282 -0.050525323 -0.06733529
000060 c8 12 26 3d 98 d4 f1 bc 30 36 d4 bb 3f fd 7c 3d
       0.040545255 -0.029520318 -0.006476186 0.06176495
000070 d9 77 54 bd 9d 41 7b bc 55 70 36 bd ee 69 83 bc
       -0.051872108 -0.015335468 -0.044540722 -0.016041722
000080 ec 66 6a bd d2 54 4b 3d ce c3 fa 3d 5a 2f 23 3d
       -0.05722706 0.049641438 0.12244378 0.03984008
000090 47 78 97 bc 3e d2 41 3d c4 16 7f ba 4a 75 e6 3d
       -0.01848997 0.047319643 -0.00097308704 0.1125284
0000a0 86 5a 9e bd db 4e 48 bd 3d 37 ab 3c bf 52 f2 bc
       -0.0773211 -0.048903327 0.020900363 -0.029580472
0000b0 89 8b ae bd af 73 c8 3d 3c 8b 16 bd 80 dd 2b bc
       -0.08522708 0.0978769 -0.036753878 -0.010489821
0000c0 7d 89 26 3c 6a 4a 39 bb 89 28 d6 3c 7f a7 d8 bc
       0.010164616 -0.0028273114 0.026142376 -0.026447056
0000d0 a7 aa a8 bd 5a fd 0b bd 2d f6 26 bd 98 35 f2 3c
       -0.08235674 -0.03417716 -0.040762115 0.029566571
0000e0 fe 01 52 bd a4 67 f9 3c 5c 19 39 3d 08 d3 72 3d
       -0.05127143 0.030444928 0.0451902 0.059283286
0000f0 28 01 85 3d aa 6c 98 bd 22 5a b0 bc 97 cc 77 3d
       0.06494361 -0.07442601 -0.021527354 0.060497846
000100 66 77 47 3d 25 f8 83 bd 0f d4 96 3d bc 8d 4c 3d
       0.04869785 -0.06443814 0.07364666 0.049939856
000110 5e f9 37 3d 33 a9 6c bd 64 01 73 3d 74 11 04 3c
       0.04491555 -0.05777855 0.059327498 0.008060802
000120 1e a0 08 bd af c5 cd 3c b0 10 b9 3d ab ca 69 bd
       -0.033355825 0.025118677 0.09036386 -0.057078045
000130 f4 95 7e bd 7d b0 93 bc 70 49 11 3d da 79 63 3d
       -0.062154725 -0.018028492 0.035470426 0.05553613
000140 d8 3e e5 3c f3 c1 6f 3c 15 95 93 3d 37 71 02 bb
       0.027984068 0.014633643 0.072061695 -0.0019903907
000150 90 a8 cc 3d d4 43 73 3b a1 00 a3 bd 53 c1 18 bd
       0.09993088 0.0037119286 -0.07959104 -0.037293743
000160 4b 88 9f 3d d0 31 88 bd f8 96 ae bd 0e 93 21 3d
       0.07789668 -0.06650126 -0.08524889 0.039446883
000170 ef 56 60 3c d3 02 80 bd 55 e9 29 3d fb a7 1a bd
       0.013692602 -0.06250539 0.04148229 -0.037757855
000180 f8 4a a8 3d 99 b3 8b bd 59 7f 48 bd 66 19 17 bd
       0.08217424 -0.06821365 -0.048949573 -0.036889456
000190 3e a3 90 b8 c1 af 13 3d 0c 51 d1 3d f3 6d b6 ba
       -6.896861e-05 0.036056284 0.102205366 -0.0013918265
0001a0 18 f1 1b bd 3d 58 1e 3d 8f 3e c3 bd 5f 30 50 3d
       -0.03807172 0.03865837 -0.095334165 0.05082738
0001b0 35 ab 4a bc 91 6b 37 3d 98 e5 9c 3c e7 dc 8e 3d
       -0.0123699205 0.044780318 0.019152448 0.069757275
0001c0 a2 ca b0 bd 97 70 79 3d 56 75 8c 3d bd fd 9b bc
       -0.08632399 0.06089839 0.068583176 -0.01904189
0001d0 11 10 9f 3d 8e da 0a 3d f9 ea 9d 3d 52 99 de bd
       0.07766736 0.033899836 0.07710833 -0.10869087
0001e0 e9 b1 b0 bc 93 a9 52 bb e3 eb 01 3d e7 4e b8 3d
       -0.02156921 -0.003214453 0.0317191 0.089994244
0001f0 6f 4d d9 bc 07 5f 76 bd 75 f8 9d ba ec 43 b2 bc
       -0.026526181 -0.06014922 -0.0012052195 -0.021760903
000200 59 3d 91 bd 54 d2 d1 3c 60 ca a4 bd 7c a0 7c bd
       -0.07091779 0.025612988 -0.080464125 -0.061676487
000210 83 43 e2 3c fe 63 01 3d 06 72 46 bd 61 27 cb bc
       0.027620083 0.0315895 -0.048448585 -0.02479905
000220 25 cf 0e 3d f3 f9 6a 3d cf 0e 12 b9 d5 4e 45 3d
       0.034865517 0.057367276 -0.00013929162 0.048170883
000230 04 29 99 3d 13 3a 8b 3d 19 0c f3 3c 63 4c fa bc
       0.07478526 0.06798186 0.029668855 -0.030554002
000240 3b 78 38 3c 77 c3 db 3c 2a 5a 5c 3d e6 b5 5e bd
       0.011259134 0.026826603 0.053796925 -0.05437269
000250 5c 1b cf bc e9 78 5e 3d 0b cd 9d 3d 4d 91 44 3d
       -0.0252816 0.054314528 0.077051245 0.047990132
000260 b7 b5 a6 3a 87 87 10 3c c4 83 53 bd 52 60 04 bd
       0.001271895 0.008821375 -0.051639333 -0.03231842
000270 38 30 83 3d f9 1e 37 bd 2b 3f 84 bd 28 10 11 3d
       0.06405681 -0.044707272 -0.06457361 0.0354158
000280 2e 1e 45 bd 1f b1 a8 3d ea 4e 92 3d 1a 83 6c 3d
       -0.048124485 0.08236908 0.07143958 0.057742216
000290 33 ba ed 3c 0a c0 7a 3c a5 6b c2 3d 26 98 8e bd
       0.02901945 0.015304575 0.09493188 -0.06962614
0002a0 d0 0e 0b bc 23 43 a0 3d c0 37 be bc 32 3f ec bc
       -0.008487418 0.07825305 -0.023219943 -0.028838728
0002b0 41 3c de 3c d9 ab 98 3d be 45 42 bd 5a 24 f0 3c
       0.02712834 0.07454652 -0.047429793 0.029314209
0002c0 da 7b 68 3d 4e 86 ad bd a7 20 50 bd dd 03 48 bd
       0.05675874 -0.08472882 -0.05081239 -0.04883181
0002d0 2e 16 a9 bd d9 7d b6 3c d6 8e 2b 3c f9 19 5f bd
       -0.082561836 0.022276806 0.010471066 -0.05446813
0002e0 85 7b 79 3d f5 5f 43 3d 91 f1 0b 3d 02 5e 92 bd
       0.060908813 0.047698934 0.034165923 -0.07146837
0002f0 0b 53 b7 3c b1 1b 6c 3d de 3a 87 bd 01 50 1a 3d
       0.022378465 0.057643596 -0.06603025 0.037673954
000300 f2 91 12 3b 67 18 f3 bc ac f4 64 bd f2 02 02 3d
       0.0022364822 -0.029674722 -0.0558974 0.03174109
000310 f2 b4 7f bd c8 1c af 3d 68 09 00 3c 42 9c 8f 3d
       -0.062428422 0.085504115 0.007814743 0.07012226
000320 f0 bf a4 3d b7 f8 9c bd 2c e7 2a 3d 42 a7 66 bd
       0.08044422 -0.07664626 0.04172437 -0.056311853
000330 ba ad ab bd 97 7b 15 3d 7d c6 09 3d 17 84 1b 3d
       -0.08382745 0.036494818 0.03363656 0.037967768
000340 1d 99 1a 3d d5 bf 00 3c 5f 0c 95 bd 2f 06 27 bc
       0.037743676 0.007858236 -0.0727775 -0.010194345
000350 ac 0a c9 3d 1c b5 8a 3d 5b 5b 00 bd 05 c5 9a bd
       0.098164886 0.06772825 -0.031337123 -0.0755711
000360 1e f7 40 3d b6 e6 d5 3c 6a f2 6b 3c 10 6a 0a bd
       0.04711067 0.026110988 0.014401058 -0.033792555
000370 aa 3b 84 3d 5a a7 46 bd b2 a1 86 bd dc 43 c5 3d
       0.064566925 -0.048499443 -0.0657381 0.09632084
000380 c0 8f 56 3d 8f f4 42 3d ed b5 3e 3d b9 13 d0 bb
       0.052383184 0.04759651 0.046560217 -0.0063500074
000390 54 65 44 bd 04 8c e4 bc b8 7f 5b bc c1 e8 aa bd
       -0.047948197 -0.027898796 -0.01339715 -0.083451755
0003a0 d3 5b 1d bc 6e 9e 01 3d 20 10 b0 bd d7 4a 20 3d
       -0.009604412 0.03164523 -0.085968256 0.039133873
0003b0 66 da 97 bd 1a c4 99 3d 45 04 7b bc 10 9d 19 3d
       -0.07414703 0.075081065 -0.015320842 0.037503302
0003c0 83 f4 d2 3b 29 26 68 bc bf 8e 5e 3d f9 76 9b 3d
       0.0064378395 -0.014169254 0.054335352 0.075910516
0003d0 61 91 86 bd e6 4f da bc 07 c5 9a bd e4 53 7a bd
       -0.065706976 -0.026649427 -0.07557111 -0.06111516
0003e0 36 30 54 3c d2 6b b4 bc 24 6b 10 b9 98 30 e8 3c
       0.0129509475 -0.022024069 -0.00013772823 0.028343484
0003f0 35 06 56 bd ec 50 c2 bd 15 a1 48 3d d0 d0 a8 3d
       -0.052252013 -0.09488091 0.048981745 0.08242953

rnn.weight_hh_l1 f4 [384, 128]
000000 b3 ab e9 3c c9 53 b3 bd f1 eb 15 3c 95 b9 cb 3c
       0.028524255 -0.08756215 0.009150491 0.024868766
000010 d8 19 64 3d 3d 24 78 3d 31 5b 24 3d 03 2e 17 bc
       0.05568871 0.060581435 0.04012603 -0.009227279
000020 a4 c8 f5 3c 5c 11 1e 3c dc 8c f3 bb a1 4a ba 3c
       0.0300029 0.0096476935 -0.007432563 0.022740664
000030 a9 a9 8b bd e1 56 bd bb 93 af 85 bd 03 00 75 3d
       -0.068194695 -0.005778179 -0.06527629 0.059814464
000040 f6 2d 00 bd b5 5a a3 3c 4a 17 b5 3d d9 56 83 3d
       -0.03129383 0.019940713 0.08842333 0.06413049
000050 8e 0b 41 bd e5 ba 13 bd 5d 42 da bd 93 a9 ba bc
       -0.04713016 -0.03606691 -0.10657189 -0.022785937
000060 e4 d8 92 3d 93 51 d8 bd 82 9c 64 bd ee 61 f0 3b
       0.07170275 -0.10562434 -0.05581332 0.007335893
000070 b6 e5 96 3d 19 ee 94 3d 82 f8 a9 3c ff 17 a9 3d
       0.07368033 0.07271976 0.02074838 0.0825653
000080 c6 d1 7d 3d 26 86 9b bc 5a 4a 29 bd d5 0d 33 3d
       0.061967634 -0.018984865 -0.041330673 0.043714363
000090 bd 93 bd bc 45 fe 48 bd 24 d3 8c 3d c4 84 9f ba
       -0.023141736 -0.049070615 0.068762094 -0.0012170305
0000a0 48 94 b5 bd 9e dd 42 bd 0f 21 77 3c 7f 49 ea 39
       -0.08866173 -0.047574632 0.015083565 0.00044686717
0000b0 a0 62 8a bc fa ad 7c bd 7a c5 76 bd b4 ab 51 bd
       -0.016892731 -0.061689354 -0.060246922 -0.05118914
0000c0 2f 4c 39 bd 58 60 8d bd 3f 43 8f 3d 85 eb 80 bd
       -0.04523867 -0.06903142 0.06995248 -0.06294922
0000d0 55 ae 0d 3c 5d 7c 13 bd 28 df c8 bc ca 95 91 bd
       0.008647521 -0.036007274 -0.024520472 -0.07108648
0000e0 c3 19 61 bd a0 e2 c0 3c f4 79 82 3d c5 4a 11 3b
       -0.05495621 0.023545563 0.06370917 0.002216981
0000f0 b1 c6 dd bc c4 6b fd 3b 54 9f 6b 3d c1 c2 e0 3c
       -0.027072283 0.007733794 0.057524994 0.027436616
000100 62 1f 53 bd 83 57 d2 bc de 8c 83 bd dc 55 54 bd
       -0.0515436 -0.025676494 -0.06423353 -0.051839694
000110 79 10 23 bc df f0 13 bd 02 ed f8 bc 64 52 35 bd
       -0.009952658 -0.036118384 -0.030386452 -0.044268027
000120 5c 23 2a 3d 0b 2d 82 3c fb f5 9d 3d 12 6a c4 bd
       0.041537628 0.015890619 0.07712933 -0.09590544
000130 24 b5 2c bd 6d 26 66 bc 5b 48 30 3d 5a 69 fa 3c
       -0.042164937 -0.014047247 0.043037754 0.030567814
000140 23 49 f0 bc ea 66 63 bd 03 c0 d1 bc 28 0c fc 3b
       -0.02933175 -0.05551807 -0.025604254 0.007691879
000150 97 5e 8c 3d c0 ef 89 3d 17 da 5d 3d 4a 50 fa bc
       0.06853979 0.06735182 0.054163065 -0.030555863
000160 a5 aa 7b bd 20 64 0f bd 3d bd 77 bc 6f 9c 4c 3c
       -0.061442036 -0.035007596 -0.0151208015 0.012488469
000170 09 08 83 3d a4 70 28 3d 4d 7e a3 3d f1 36 80 3d
       0.06398017 0.041123047 0.07983074 0.06260479
000180 6d 9d 68 bc 19 fb 65 bd f4 0f 0b 3c 36 6a 11 bd
       -0.0141976895 -0.05614767 0.00848769 -0.03550168
000190 6e 05 19 3d e6 e2 ba bd ff 73 35 3d bb d9 da 3d
       0.037358694 -0.09125309 0.044300076 0.1068606
0001a0 6e 47 c6 3c 7c a4 10 bd cc 14 a7 3d 68 fe d1 3c
       0.024203982 -0.035313115 0.081582636 0.025634006
0001b0 0d c5 e1 bc 69 d0 bf bc 66 8a c4 bc 4f a2 92 3d
       -0.027559781 -0.023414807 -0.023991775 0.07159864
0001c0 68 fa 81 3c 91 5d 31 3d e6 5b 87 3d 41 79 b9 bd
       0.015866473 0.043302123 0.06609325 -0.090563305
0001d0 6a 21 39 3d 63 14 55 3d b4 04 ee bc 2c 08 04 3d
       0.04519788 0.052021395 -0.029054977 0.032234356
0001e0 32 28 59 bd 3c 39 98 bd 6a 6d d5 3b 17 a4 9a 3d
       -0.05301685 -0.074327916 0.0065132873 0.07550829
0001f0 ab a6 9b bc 8e 14 a8 3d 6b 68 16 3c 09 df 6e 3c
       -0.019000372 0.082070455 0.009180169 0.014579543
000200 f5 96 9e 3d fe f8 a8 3d 02 d8 49 bd 5e e9 0d 3d
       0.077436365 0.082506165 -0.049278267 0.034646384
000210 83 07 a1 bd f8 a5 b7 bd 04 c8 48 bd 42 67 aa 3d
       -0.07862761 -0.08967203 -0.049018875 0.08320476
000220 59 e6 a9 3c e6 2c 8d 3d 76 9c 8d bd a8 a4 0c bd
       0.020739721 0.06893329 -0.06914608 -0.034336716
000230 3c be 8c 3d 2e 44 f2 3a 9f 84 7b bd 57 b4 21 3d
       0.06872222 0.0018483454 -0.061405774 0.039478626
000240 2a ad 14 bd 1e 23 3d 3d 9d 9a a3 bd 21 cb 2e bd
       -0.036297955 0.04617607 -0.079884745 -0.042674188
000250 98 38 43 3d 1a 16 50 bc d5 0f d1 3c aa ce 45 3d
       0.047661394 -0.012700582 0.025520245 0.048292793
000260 1d bf 86 bd 8e 44 a6 bc 40 27 ac 3c eb a7 07 3b
       -0.06579421 -0.020296361 0.02101481 0.0020699452
000270 1b ca 45 bd c2 4a f3 3c 3c 99 50 3c 85 a0 64 3d
       -0.048288446 0.029698733 0.012731846 0.055817146
000280 4c 16 45 3d b2 ed 81 3d ea 7a 31 bd f7 cf d8 3c
       0.048116967 0.06344165 -0.04333011 0.026466353
000290 0f f1 16 bd 31 8a 71 bd d2 e3 75 bc d1 fa 92 3d
       -0.036850985 -0.05896968 -0.01500793 0.07176746
0002a0 a5 af e4 bc 4c 0e be bc bf 5d 53 3d 4c fe 6c bc
       -0.027915785 -0.023200177 0.051603075 -0.014464926
0002b0 f0 22 7c 3d 3e 8d b5 bd 5e 16 3d bd a2 1a 3e bd
       0.061556756 -0.088648304 -0.04616391 -0.046412118
0002c0 64 d8 f3 bc 92 8b 35 3d 31 50 8e bc 7f c1 5f 3d
       -0.029766269 0.044322558 -0.017372223 0.05462789
0002d0 bc ad 7d bd ea a6 dd bc a2 98 3e 3d 78 37 55 3c
       -0.061933264 -0.02705713 0.04653228 0.013013713
0002e0 f5 75 96 bd d2 de fe 3c ae e7 18 3c df 76 73 bd
       -0.07346717 0.031112108 0.0093325805 -0.059439536
0002f0 4e 6f 32 bc 0a e4 9c 3d 58 8e 37 3b 2a 96 4d 3c
       -0.010890795 0.076606825 0.0028008427 0.012548009
000300 f4 09 4a bd 73 89 c8 bc 25 0e 13 bd e1 ac 57 3d
       -0.0493259 -0.024479603 -0.03590216 0.052655105
000310 9b 82 87 bd 7d b7 1d 3d 8b 1e 94 3d ed b2 18 bd
       -0.06616708 0.038505066 0.07232388 -0.037280012
000320 5a 6e ae bd fc 6b a1 bd 95 de 88 3d 71 21 42 3b
       -0.08517142 -0.078819245 0.06683079 0.0029621983
000330 e6 90 77 bd 72 9c e5 bb 1a ca 29 bd 04 9e 5e 3d
       -0.06044092 -0.007007175 -0.041452505 0.054349914
000340 9c 44 b2 3d b1 12 0e bd 60 ac 5b bd 79 02 50 bd
       0.087044924 -0.034685794 -0.053631186 -0.050783608
000350 77 ad 58 3c 3a b1 94 3d 85 c2 a6 3b 6b 0d 15 3d
       0.013224951 0.07260366 0.0050891065 0.03638975
000360 bf f8 82 bd cf 0b 81 bd b0 6f 33 3d 5c 28 04 bc
       -0.06395101 -0.063010804 0.043807685 -0.008066263
000370 2d fd b7 bd 63 e6 c3 3d 2c 5e 6f bc 2d 45 a9 3d
       -0.08983836 0.09565427 -0.014609855 0.08265147
000380 ed 43 2a 3d a9 07 81 3d 3a 95 13 bd f9 8a de 3c
       0.041568685 0.06300289 -0.036030985 0.027165877
000390 3c 27 a6 bd 40 27 52 3d 43 6d 40 3d 26 83 4d bc
       -0.08112952 0.051306963 0.0469792 -0.012543475
0003a0 25 a0 69 3d 33 2c b7 3c 4c 35 56 bc 3b cb 14 bd
       0.05703749 0.022359943 -0.01307423 -0.03632663
0003b0 c7 a3 06 bd c8 89 8b 3d 45 d0 9f bc 2f 05 b6 bb
       -0.032871034 0.06813389 -0.01950849 -0.005554817
0003c0 da fd 92 bd bd 54 0d 3d 0e 16 67 bc 43 70 47 bd
       -0.071773246 0.03450464 -0.014104379 -0.048691045
0003d0 4d 22 95 3b 0f 5c 2c bc 2f 16 3f 3b 04 67 88 ba
       0.004551208 -0.010519995 0.002915751 -0.0010406678
0003e0 ed 0c 19 39 f0 de 3c bc f2 cb 0b 3d 71 3d ad bc
       0.00014596032 -0.011527762 0.034130044 -0.021147462
0003f0 8b 47 85 3d 5e 48 8d bd 52 b6 78 3d 62 5f ad bc
       0.06507786 -0.068985686 0.06072075 -0.021163646

rnn.bias_ih_l1 f4 [384]
000000 36 5e f7 3c 83 89 03 3d ec e3 43 3d 13 85 c2 bd
       0.03019629 0.032113563 0.047824785 -0.09498038
000010 0f 89 a0 3d 12 42 f1 3b f6 c0 18 3d 84 87 91 3c
       0.07838642 0.0073626125 0.037293397 0.017764814
000020 4e eb 91 bb 9a 5f bd ba ee ec 86 bd 23 0d cb bd
       -0.0044530993 -0.0014448047 -0.065881595 -0.09914615
000030 6e 75 07 3d 05 d9 56 bd 61 69 75 bd a1 24 44 bd
       0.033070974 -0.05245306 -0.05991495 -0.047886495
000040 5f 95 ad bb 24 24 37 bd ec 6d 61 bc 9b 1a 54 3b
       -0.0052973474 -0.0447122 -0.013759118 0.003236449
000050 14 0a a2 3d ed 68 2d bc 01 2a df bc 42 ac ed 3c
       0.079120785 -0.010584098 -0.027241709 0.029012803
000060 7b 01 de 3c da 9a 20 bd 3b 3c 3c bc 91 7d 86 bd
       0.027100315 -0.039210178 -0.011488969 -0.06566919
000070 ee a9 8b 3d 15 87 d5 bc 26 c8 3e 3d 00 a0 9e bd
       0.06819521 -0.026065389 0.046577595 -0.07745361
000080 d9 03 02 bd db 8e 49 3d 66 b6 51 3d 43 16 98 bd
       -0.03174195 0.049208503 0.05119934 -0.07426121
000090 69 16 22 bc 2d a3 b7 3b fa 08 9b bc 37 7e 28 3b
       -0.009893038 0.005604169 -0.018925179 0.0025709996
0000a0 86 65 d3 3b 00 94 2b 3d a3 38 f3 bc d9 3a 19 3d
       0.0064513115 0.04188919 -0.029690092 0.037409637
0000b0 61 29 5b 3d 4d 21 36 bd 25 7b b2 bd 3a ae 38 bd
       0.05350626 -0.04446535 -0.08714894 -0.04508803
0000c0 60 88 bf 3c 5c 03 43 bc e3 37 97 bd ab 9c 5b bc
       0.023380458 -0.011902656 -0.073837064 -0.013404052
0000d0 54 5d 91 3d 92 4f a3 bd a0 ef 47 3d cd d1 d2 3c
       0.07097879 -0.07974161 0.04881251 0.025734806
0000e0 69 6a 30 3d f3 b8 68 bd 29 01 8b bd 3f d4 7e 3d
       0.04307023 -0.056817006 -0.06787331 0.062214132
0000f0 b4 f0 24 bd 1f 17 9e bd 72 96 f5 3b d7 b0 d4 3b
       -0.040268615 -0.07719254 0.007494741 0.0064908075
000100 6d 8c 86 3d fe 8c a3 bd be eb 17 3d 28 b9 af bd
       0.06569753 -0.079858765 0.037090056 -0.085802376
000110 fb 4f a0 bd 93 99 a1 3c 4f 85 24 3d 75 88 0c bd
       -0.07827755 0.01972655 0.040166195 -0.034309823
000120 6d 02 63 bd 7b 75 2d bd 3f 29 38 bd 7b 30 3c 3d
       -0.055422235 -0.042348366 -0.04496121 0.045944672
000130 54 6d ac 3d c0 d2 2a 3d 5f 94 20 bd 38 cf 91 bd
       0.0841929 0.041704893 -0.039203998 -0.07119602
000140 8b 92 19 bd 17 98 49 bd 6d af 35 3c b2 13 81 bb
       -0.03749327 -0.04921731 0.011089188 -0.0039391154
000150 08 45 41 bd d0 72 b4 bd 9f 2b 1f 3d ae 71 95 bc
       -0.047184974 -0.08810961 0.03885996 -0.018242683
000160 f8 a6 57 3d 1c 65 bb bc de 94 f6 3c 8f 59 ee bc
       0.05264947 -0.022875361 0.030100282 -0.02909544
000170 eb 39 98 3d 4d 46 ee 3a 20 8a 49 3d ca 81 a3 bd
       0.07432922 0.001817891 0.049203992 -0.0798374
000180 69 06 90 3d 8f f7 75 3d 62 fe b6 3a e4 30 21 bd
       0.07032473 0.060050543 0.001396131 -0.039353266
000190 1b 18 0b 3d 41 66 d2 bd 5f a0 cb 3c 31 ec e5 39
       0.033958536 -0.1027341 0.024856744 0.0004385426
0001a0 23 9c b1 bd 6b 3a a6 bd cb 76 59 3d f6 9e 08 bb
       -0.08672359 -0.08116611 0.053091805 -0.0020846701
0001b0 6b d5 3f 3d d2 f6 1c 3d 10 3d 36 3c 3e db 32 3d
       0.04683439 0.038321324 0.011122957 0.043666117
0001c0 e5 9c 35 bd cd 17 72 3d 48 00 94 3d 04 19 34 3d
       -0.04433908 0.05910473 0.07226616 0.04396917
0001d0 9c 34 19 3c d9 c6 f1 bc fc 5a 9e bd 57 02 67 bd
       0.009350922 -0.029513763 -0.07732198 -0.056398716
0001e0 3b 8b 7e 3d 6d 86 02 3d 16 5e dd bc 0b 1d 07 bc
       0.0621445 0.03186648 -0.027022403 -0.0082466705
0001f0 04 9a f1 3c db 56 bf bd f4 e5 86 bd c8 1c 50 bd
       0.029492386 -0.09342738 -0.06586829 -0.050808698
000200 4c e6 d1 3b ff 89 42 bd d5 5e 2c 3d 6f 55 fa bc
       0.0064056274 -0.047494885 0.042082626 -0.030558316
000210 2c 35 64 b9 d5 38 79 bd e2 69 cf bd 5f 01 f9 3b
       -0.00021763582 -0.060845215 -0.101276174 0.0075990404
000220 c0 6c a0 bd ef ff 4b bd c5 5e b9 bc ce 63 87 3d
       -0.078332424 -0.049804624 -0.022628197 0.06610833
000230 70 a3 29 3d 7c 1a 8f bd 32 ec 8e bc 0b bc 6e bd
       0.04141563 -0.06987473 -0.017446611 -0.0582848
000240 9a 88 a3 bc 4d 70 fb bc 23 c4 40 bd 13 22 b8 bd
       -0.019962598 -0.030693198 -0.04706205 -0.08990874
000250 12 bd 3a 3d 93 96 c7 bd fb 95 12 bd 5c c3 34 bd
       0.045590468 -0.09745517 -0.035787564 -0.04413162
000260 65 71 90 3d 7a 62 81 3c 9e 14 81 bd c5 7c a6 bd
       0.07052878 0.015794028 -0.063027605 -0.08129267
000270 85 ee e0 bd 59 96 b8 bd 93 39 61 bd ec d6 38 3d
       -0.10982994 -0.090130515 -0.054986548 0.04512684
000280 b3 ba de bc e5 2d 55 bd 70 ee 76 bc 8a ef 87 3c
       -0.027188634 -0.05204572 -0.015071496 0.016593713
000290 55 86 d8 bd c4 9e 60 3d 45 16 ac 3b 8f e5 ba bc
       -0.10572497 0.05483891 0.005251678 -0.02281454
0002a0 bd b1 02 be 78 64 d1 ba c4 f8 53 bd a4 f7 0e 3d
       -0.12763114 -0.0015975377 -0.051750913 0.034904137
0002b0 ef 31 6f 3d 09 04 4a bd f6 ad 90 3d 00 46 f9 bd
       0.05839723 -0.049320254 0.070644304 -0.121715546
0002c0 3c 2c 5e bd 39 ac c6 bb f8 0f ac bd f1 08 af bc
       -0.054241404 -0.006063011 -0.08401483 -0.021366568
0002d0 71 f3 ee 3d 95 39 7e bd c8 0d 7b bc c5 a9 f0 bb
       0.116675265 -0.062066633 -0.01532311 -0.007344457
0002e0 e4 4d 60 bd 2e 81 5a bd e5 08 88 bd a1 6b de bd
       -0.054761782 -0.05334585 -0.066423215 -0.10860372
0002f0 78 d2 0d 3d 91 da cb 3c 22 d5 b0 bc cb 51 ae bd
       0.034624547 0.024884494 -0.021586005 -0.085116945
000300 05 67 1d bd 5d 31 ab bd 5b f8 ba bd 38 93 c4 3d
       -0.038428325 -0.08359025 -0.09129401 0.09598392
000310 19 0f 1d bd 4d 53 c9 bc b8 cf 97 bd 63 39 40 3d
       -0.038344476 -0.024575854 -0.07412666 0.04692973
000320 72 04 9b ba 5d a5 ea 3d 13 6c 62 3b 76 a8 2f 3d
       -0.0011826886 0.11457322 0.003454928 0.042885266
000330 27 75 2f bc 60 ff c5 bd 8f 40 d7 3d 19 53 71 bd
       -0.010709084 -0.096678495 0.105103604 -0.05891714
000340 04 b8 c5 3b 0e 6b 9d 3d 8b 65 24 3d 18 ab 6a bd
       0.0060338993 0.07686435 0.0401359 -0.057292074
000350 41 1c da bc 12 3c 8d bc 05 f2 2d bd 69 c8 cf bd
       -0.0266248 -0.017240558 -0.042467136 -0.10145647
000360 c7 7b 12 be 20 5d 42 bc cf 16 33 3b fa 62 b4 bd
       -0.1430503 -0.011863023 0.0027326827 -0.08807941
000370 43 ae 7b bd 20 79 3c bd f8 99 21 3d 44 02 f7 bd
       -0.061445486 -0.04601395 0.039453477 -0.12060979
000380 88 65 b1 bd c3 e3 e1 bc 8f ce b2 bc 9e 28 05 3d
       -0.08661944 -0.027574426 -0.02182701 0.03250944
000390 04 cc f2 bc 0f 84 83 bd 58 26 9d bd 1b f8 7e bd
       -0.029638298 -0.064216726 -0.07673329 -0.06224833
0003a0 53 a1 73 bd 17 79 d5 bd c8 97 a9 3c 36 43 33 3d
       -0.059480023 -0.10423487 0.020702258 0.04376527
0003b0 80 19 2e 3d 2a 6c 46 bd 16 29 8d 3d 4e 69 7c 3c
       0.042504787 -0.048442997 0.06892602 0.015405966
0003c0 a9 72 69 bd 65 44 2e 3d a2 83 d6 b9 9b 4e c9 3b
       -0.056994114 0.042545695 -0.00040915335 0.0061434037
0003d0 c2 81 0a 3d fc 76 4e bc 07 43 21 bc 6b 17 7e 3d
       0.033815153 -0.01260161 -0.009842641 0.062034052
0003e0 f5 fa c2 3b 34 c3 a7 3c 67 98 e9 bb 79 e7 7a bc
       0.0059503266 0.020478822 -0.0071287635 -0.015313976
0003f0 02 2e 28 bd f3 0b 8b bd 27 d0 ec bc ac 52 5a bd
       -0.0410595 -0.067893885 -0.028907849 -0.0533015
