backend/trained_models/HBL_LSTM_model_state_dict.pth (torch, 167939 bytes, 5 tensors)

rnn.weight_ih_l0 f4 [400, 1]
00000000: 8b6d 80bd 605d c03c 3b59 703a 5ff1 c0bd
00000010: 12d4 853d dfa0 023e e8cc 05bd f94b f63d
00000020: b60d de3c 0f55 8ebd 515c 4cbd e872 1d3d
00000030: ca51 c03a fcda 29bd 5abd 8e3d 1f0a 88bd
00000040: ad30 523c 55e5 9d3c e638 81bc a6c6 49bb
00000050: ec28 93bd efb0 d63b d6ec 883d eae1 853c
00000060: 4e55 113c fb24 8ebd cb49 553d b4ce 8c3d
00000070: 6e54 f5bd 7208 d9bc 40dc 42bd 6367 073d
00000080: 1c7c 4fbd f606 5e3d be21 09bd 8711 97bd
00000090: 2bc3 85bc 6e32 2ebd 6baf 83bd f7a7 68bd
000000a0: a5ca 8b3d f016 dc3d c186 9b3c 8cd6 01bc
000000b0: f7f5 bebc bac2 773d 9816 dc3c f42b 8fbd
000000c0: 656c c23d e494 1d3d f759 8c3d 11b6 d13d
000000d0: 76c8 a03d d187 67bd bbb3 7d3d 0ce0 ec3d
000000e0: 53b9 9fbc 0c51 ca3d 0aab f43a 7fb8 003d
000000f0: 3c2d 4d3b d217 233d 1f9e d7bd 6a3c 9abc
00000100: f19a de3c cf53 72bd bf03 06bc bec9 f33b
00000110: a4be bfbc 1e7c e43d b812 ed3d 4e6a 05bc
00000120: 45ab d53d 7b41 c73d 175e e63d d31b 723d
00000130: 4fc9 88bd b349 b43d 2274 8e3d ab94 00bd
00000140: 23ae ecbb 67bc 293d 9aab 99bc 73f1 05bd
00000150: 27ee 96bd 6bcd 40bd 0921 d03c 04cc 08bd
00000160: 9d4a cebc ff6f 2cbd b7e0 bf3d b7e5 3dbd
00000170: b5b4 803d eaa4 bdbc 1192 133d 75e3 5dbc
00000180: 509d c038 091a 91bd a71a 14bd 0f3e f13d
00000190: 38c1 833d c949 b33d fde7 e2bd 6814 16bd
000001a0: 9062 803a 6613 943c 65f3 b23d 7a26 6b3d
000001b0: d735 813b 8c2d a63d 26b5 3cbd a846 243d
000001c0: feb7 02be 9d55 8c3d fcb1 d43c 1daa 893d
000001d0: bfc3 fcbc 4a75 abbd 5645 94bc 1dd3 2a3d
000001e0: f082 de3c e033 d93d a3fe d13d 51b9 b7bd
000001f0: 6a79 0bbd c940 d93d 6bba 1f3d 32eb 923d
00000200: 31b0 2b3c 1059 db3d 6992 3dbd 1c88 533d
00000210: dfc4 473d bcdc ac3d df55 30bd 2a0b d7bd
00000220: d12d 70bd 0c77 bf3d 3720 0c3d 658b 8e3d
00000230: b1ea ab3b 6e85 c43d 3c1f afbd e037 5cbd
00000240: 913f 53bd 9573 21bd 236b 8cbd 1580 c73d
00000250: 14b5 713d fa36 993c e69e ab3d 96a4 fa3d
00000260: 992a bdbc b3b2 7a3d 36a0 943d 3a2b 7bbd
00000270: 8c37 8f3d 752b b7bc ee55 a5bd 4d70 27bd
00000280: f452 b53d 1483 ac3b 5b9c 053c 9b2c acbd
00000290: feb4 adbc f871 703d 1708 653d 5c02 0c3c
000002a0: 5d16 223d 8c8d b8bc 25a8 923d d317 1bbd
000002b0: 4885 e83c b504 b33d eac3 d73c f820 993d
000002c0: 5791 00bd abf7 1cbd 4a66 c63d 6bd1 aabd
000002d0: b6e3 02bd 0d74 f6b9 0d40 00be fc44 7e3d
000002e0: 6ccc 18bd 7646 763d d4fd 1bbc 8c6c 24ba
000002f0: ea1b 933d 0d41 bd3c 4eb7 223d 108e 433d
00000300: ce3c b33d 9da7 d93d b183 bebd b6ad 613d
00000310: 473a 02be 23f9 b2bd cb8e c33d 9899 30bc
00000320: 21fa 043e a8a7 bb3d a33f 86bc d4ff a03d
00000330: 641a 3d3d c43b 073d bcb2 e23d a361 a53d
00000340: 24dd 013e 36e5 8c3c bf4a c13c d180 52bd
00000350: 4a2e ec3b 006b d93d 7d32 05be e746 933d
00000360: 307e 063e 72c0 e1bd 6dcc f13d a1c9 cc3c
00000370: a4e9 e23d aad8 f7bd c991 b7bd e3d1 93bd
00000380: 3139 8abd d41a b7bd 724d 05be 190f 20bd
00000390: f177 903d 922a 1cbd 4dd1 09be c0f1 173d
000003a0: 719f 9d3d e7a8 b5bd c6f9 19bd 2723 c5bc
000003b0: f00d d23d 9ee7 993d 4b70 10bd 34f5 92bd
000003c0: 7cd1 b13c d25b 973d 0676 1f3d 8980 923d
000003d0: 3e42 b6bd d0e3 83bd 57c7 0dbd 9630 4cbd
000003e0: b62b 07be 0f09 a5bd de25 12bd 46ee 01bd
000003f0: bb00 69bd ae70 89bd 7c3e d8bb 0c02 7cbd
-0.06270894 0.023482025 0.000916857 -0.09421038 0.0653459 0.1275668 -0.032666117 0.120262094
0.027106147 -0.069498174 -0.049892727 0.03843966 0.0014672813 -0.041468605 0.0696971 -0.066425554
0.012828988 0.019274393 -0.015774202 -0.003078857 -0.071855396 0.006551854 0.06685798 0.016343076
0.008870436 -0.06940647 0.052072328 0.06875363 -0.11978994 -0.026493285 -0.047573328 0.03305758
-0.05065547 0.054205857 -0.033479445 -0.0737639 -0.016328415 -0.042528562 -0.06429943 -0.05680081
0.06825761 0.107465625 0.018985154 -0.007924687 -0.023310645 0.06048844 0.026866242 -0.06990805
0.09493331 0.03847207 0.06853097 0.102398045 0.07850735 -0.05652601 0.061938982 0.11566171
-0.01949755 0.0987874 0.0018666696 0.03142595 0.003130748 0.03981764 -0.10528206 -0.018827636
0.027173491 -0.059161957 -0.008179604 0.007439821 -0.023406334 0.11156486 0.11575836 -0.008143021
0.10433058 0.09729286 0.11248415 0.059108566 -0.066790216 0.088031195 0.06955744 -0.03139178
-0.007222907 0.04143944 -0.018758584 -0.032700967 -0.07369643 -0.0470709 0.025406377 -0.03339769
-0.025182063 -0.042098995 0.09369033 -0.04636165 0.06284467 -0.023149926 0.03602797 -0.0135429995
9.184575e-05 -0.07085044 -0.03615823 0.11779415 0.06433338 0.08754308 -0.110794045 -0.036640555
0.0009794999 0.018075656 0.0873783 0.05740974 0.003943186 0.08114156 -0.046071194 0.040106446
-0.127655 0.06852267 0.025963776 0.067219 -0.030855058 -0.083719805 -0.018099468 0.04170524
0.027162045 0.106055975 0.10253646 -0.08970893 -0.034051336 0.1060806 0.03899614 0.07173766
0.010479019 0.10710347 -0.046282206 0.051643476 0.048771735 0.08440539 -0.043050643 -0.10500176
-0.058637444 0.09348878 0.03421041 0.06960181 0.0052464833 0.09595762 -0.08550879 -0.053764224
-0.051574294 -0.03941687 -0.06856372 0.097412266 0.05901058 0.018702973 0.08379917 0.122384235
-0.023091601 0.061205577 0.0725712 -0.06132052 0.069930166 -0.02235959 -0.080730304 -0.040878583
0.08853713 0.005264649 0.008154954 -0.08406945 -0.021204468 0.05870244 0.05591592 0.008545484
0.03957211 -0.022528432 0.07160977 -0.037864517 0.028383866 0.08741132 0.026338536 0.074769914
-0.031388607 -0.038322132 0.09687479 -0.083407246 -0.031955443 -0.0004700724 -0.12524433 0.062077507
-0.037304327 0.06012579 -0.009520967 -0.0006272278 0.071830586 0.023102308 0.039725594 0.047742903
0.08751832 0.10627673 -0.09302462 0.055097304 -0.12717544 -0.08738925 0.0954872 -0.010778807
0.12986042 0.09162837 -0.016387766 0.07861295 0.046167746 0.03301598 0.11069247 0.08075263
0.12682015 0.01719914 0.023595212 -0.05139238 0.0072076665 0.10616112 -0.13007541 0.07191258
0.13134074 -0.11023034 0.11806569 0.024998488 0.1107972 -0.12101872 -0.08963353 -0.07217767
-0.0674919 -0.08940664 -0.13017824 -0.0390769 0.07054127 -0.038126536 -0.13458748 0.037095785
0.07696427 -0.08870106 -0.037591718 -0.024064614 0.102565646 0.075148806 -0.03526334 -0.07175675
0.021706335 0.0739056 0.038930915 0.071534224 -0.088993534 -0.06439936 -0.034613933 -0.049851023
-0.13200268 -0.080583684 -0.035680644 -0.031721376 -0.056885462 -0.06710945 -0.0065992456 -0.06152539

rnn.weight_hh_l0 f4 [400, 100]
00000000: 00b9 0dbd 132e f539 388c 0bbd 4a57 1ebd
00000010: 3998 f83c cd1a 8fbd b860 e3bc e4e2 74bd
00000020: ee5a 12bd 5ab1 393d 843a f03d 8ffe e6bc
00000030: a4ea d93d 1be1 c63d e87d 9cbd 7c4f 513d
00000040: 5c59 a93d 9eda 163d 9175 8cbc a8b3 813d
00000050: c028 86bd cc4a c6bc 4e12 363d 92e1 a8bd
00000060: 27fe 863d 10a9 37bd 4ff4 6d3c 765a 5e3d
00000070: 10f9 ccbc ab48 5abd 6bcb 953d 4284 1bbd
00000080: 8df1 e93d b64d cd3c 9d8a 403d 956b 383d
00000090: a036 f73d d750 2fbb 9bba 663c 10a1 3bbd
000000a0: 9a72 703d 1807 8fbd 04e0 7f3d 932d 653d
000000b0: 1702 783d 672e 803d 002d 093c 1cbb 2abc
000000c0: dcec ebbd cb55 e43d ad83 98bc 1fda f4bc
000000d0: 0a80 893d f437 a13d db41 bb3c d0bc a8bd
000000e0: 64b2 87bd 5341 36bd a7be e53d dcfd f8bd
000000f0: 4ac8 6b3d bb35 eb3c c237 033e a4d5 06bd
00000100: 3ed8 293c 6b31 133c aac0 aabd 2d42 f3bd
00000110: 6d3c 9dbc 1aa0 4ebd 29ef 0f3d 6bd9 843d
00000120: 867e 933d 5803 3f3d 063b 8abc a5e5 403c
00000130: d975 18bc 793d 81bd c421 823d 6500 923d
00000140: 8340 8abc 8c7e a8bd f980 11be 1ef2 85bd
00000150: d9e0 c6bd a95d 833d c6c2 f9bc 87ff 8a3c
00000160: b1e6 52bd f7cf c83d e378 b13c ae7e 37bd
00000170: 1861 803d 065b 94bd 3ce3 9d3d daf2 8cbb
00000180: a750 50bb b781 95bc 29da 58bd 2f06 0abd
00000190: 09ce b3bd 8145 873a d937 3d3d 3703 473c
000001a0: 60e7 acbd bb70 943d 09b8 a2bd 9007 e4bc
000001b0: cf0d 6fbd eb13 ccbc 06db 92bd f8f4 18bd
000001c0: edd6 69bc e25f cebd c850 33bd 5699 4e37
000001d0: a9e2 333d 4a43 f2ba d69c 6c3d 4cc9 19bd
000001e0: 12b2 a3bd e100 c43d c881 bb3c 300a 853d
000001f0: 96a6 25bd bf63 80bd 6383 be3d f1ea ecbc
00000200: d809 403d 7c53 d03d e261 ddbc 18aa bebc
00000210: eaca 683d 248c a33d 79b5 94bd e1a2 c4bd
00000220: 1000 ab3d 9bc4 8cbd 4a78 9b3d 13a4 85bd
00000230: 5e0c 3e3d 487c d23c a96f 45bc 183d 573b
00000240: c3a4 e43d 7848 173c b4b7 d43d 27c4 b3bd
00000250: 276b 483a 1a60 12bd 8e6d 993c 42d6 afbd
00000260: 0101 833d bb1c 0c3c 6a3e 22bd 68c3 8a3c
00000270: 00cf b0bd 2a43 16bd 1a60 4b3d 489f 35bd
00000280: 83e1 7bbc b68d 323d cbfe 92bd 5e68 2abd
00000290: 8e4d d63d 09fb b23d e7fb d23c 0a41 b23d
000002a0: c481 83bb 41f6 8fbd c05a dabd 8370 afbd
000002b0: 9c68 b93d 8bd9 293b dbeb 52bd a779 533c
000002c0: 7a13 493d 7437 f4bc bf1c 4bbc 6623 283d
000002d0: 7bbc b3bd b1b4 c53d 98a3 393d 34a7 f93b
000002e0: 47e6 d1b7 c6f8 073d ce1c 47bd 902f 5cbd
000002f0: fb64 61bd 88ad e3ba 5122 773d b132 7dbd
00000300: f152 b23d 029d 923d 8ed1 40bc d6fc c9bd
00000310: 25fb 243d 64d7 c63c 45d3 92b9 950e c4bc
00000320: 05b3 7bbc 078a 8f3d 7b71 77bd f178 c0bd
00000330: 49df 9a3d 4cca 34bc ae9b abbd fd27 4b3d
00000340: 8a86 5fbb 13da 9fbd cb28 eb3d f9d1 6cbd
00000350: 391e 8dbd 3374 5fbd 3fb0 21bd d84a 323d
00000360: a9af 9ebd b401 f83d 6b83 f13c 6bbc 08be
00000370: cda1 70bd 078d 5f3d 63db ac3d 1509 6dbd
00000380: 4f3a 64bd ac7a f6ba 98b0 bc3d 4b89 7d3d
00000390: 0516 66bd 2e00 b73c 2258 06bc 69db 89bc
000003a0: 1d3d 05be b389 9f3d 624d 703d 2ec2 b63d
000003b0: fef9 783d 671a cd3b 5c24 6d3d 759a debc
000003c0: 3713 aabd c63a 92bd 6a3e 92bc e6b5 5d3c
000003d0: b018 0bbd 5be2 73bc c44a 8a3d 0982 a3bd
000003e0: 22cc dd3d 913b b03d c85f 81bd ef75 673d
000003f0: 54ac aaba 5655 c23d 8f47 79bc 1a41 9fbc
-0.034600258 0.0004676437 -0.03406927 -0.038657464 0.030346023 -0.06987534 -0.02775608 -0.059786692
-0.03573125 0.04533515 0.11729911 -0.028197555 0.10640457 0.09710904 -0.07641202 0.051101193
0.08268997 0.036829583 -0.017145904 0.06333095 -0.06550741 -0.024205588 0.04445105 -0.08246149
0.065914445 -0.044838965 0.01452358 0.05428549 -0.025021106 -0.053291958 0.073141895 -0.037967928
0.11423025 0.02506147 0.047007192 0.045024473 0.12070966 -0.0026751065 0.014082576 -0.045807898
0.058703043 -0.06983775 0.062469497 0.055951666 0.060548868 0.062588505 0.008372545 -0.010420587
-0.11519787 0.11149176 -0.018617475 -0.029889164 0.06713875 0.07872 0.02285855 -0.08239138
-0.06625822 -0.04449589 0.11218005 -0.12157795 0.057564057 0.028712144 0.12814239 -0.032918587
0.010366498 0.00898395 -0.08337529 -0.118778564 -0.019193852 -0.050445653 0.03514019 0.06486782
0.07201867 0.04663405 -0.016873848 0.0117735015 -0.009305441 -0.06310553 0.063540965 0.071289815
-0.016876465 -0.08227262 -0.14209355 -0.06540321 -0.09710855 0.06414349 -0.030488383 0.016967548
-0.051489536 0.09805291 0.021664089 -0.044798546 0.06268519 -0.07243924 0.07709357 -0.004301411
-0.0031786354 -0.01825033 -0.05294243 -0.033697303 -0.087795325 0.0010320396 0.04619584 0.012146763
-0.08442569 0.07248064 -0.07945258 -0.027835637 -0.05836278 -0.024911841 -0.07170682 -0.037342995
-0.014272434 -0.10076882 -0.04377821 1.2314258e-05 0.04391733 -0.0018483188 0.057766758 -0.037545487
-0.079929486 0.0957048 0.022889033 0.06496084 -0.04044207 -0.06269025 0.09302404 -0.028920623
0.046884388 0.101721734 -0.027024213 -0.023274466 0.05683414 0.07985714 -0.07261176 -0.09601379
0.08349621 -0.06873437 0.07591303 -0.06525435 0.046398513 0.025694028 -0.012050548 0.0032842811
0.11164238 0.0092335865 0.10386601 -0.087776475 0.00076453615 -0.03573618 0.018728998 -0.08585788
0.06396676 0.008551772 -0.039610304 0.01693888 -0.08633232 -0.036685146 0.049652196 -0.044341356
-0.01537359 0.043592177 -0.07177504 -0.04160344 0.10464011 0.087392874 0.025754882 0.087038115
-0.004013272 -0.07029391 -0.106618404 -0.08566382 0.09053156 0.002591702 -0.05149446 0.012907422
0.04909084 -0.029811598 -0.01239699 0.041049384 -0.08776184 0.09653605 0.04532203 0.007618809
-2.5021973e-05 0.033196233 -0.048611455 -0.053756297 -0.055027943 -0.0017370442 0.06033546 -0.06181592
0.08707226 0.07158853 -0.011768712 -0.09862678 0.040278573 0.024272628 -0.00028004698 -0.023932735
-0.015362506 0.070087485 -0.060410958 -0.09398068 0.075621195 -0.011034559 -0.08379303 0.049598683
-0.003410729 -0.07805266 0.1148239 -0.057817433 -0.0689053 -0.054554176 -0.039474722 0.043528408
-0.07748348 0.121097 0.02948161 -0.13353126 -0.058748055 0.054577854 0.08440282 -0.05786999
-0.05571967 -0.001880487 0.0921337 0.06189851 -0.056173343 0.022338953 -0.008199723 -0.016828256
-0.13011594 0.07789936 0.058667548 0.089237556 0.060785286 0.006259251 0.057896003 -0.02717326
-0.08304446 -0.071401164 -0.017852027 0.0135321375 -0.03395909 -0.01488551 0.06752542 -0.079837866
0.10829951 0.086051114 -0.06317097 0.056508955 -0.0013021328 0.09488933 -0.015214815 -0.019440223

rnn.bias_ih_l0 f4 [400]
00000000: 6d15 a83c b365 0ebd 910c 153c ea41 edbb
00000010: 6619 c6bd ffd3 10bd 289c fd3d bb0c 37bd
00000020: a1d9 f53d 5a2b 813d a22f 95bd cf09 e2bd
00000030: a5c0 083d c2af 60bd 1e03 7c3d 2f7f 6cbd
00000040: f83d 463d 3d5f 03bb ff1c 88bc 4d3a 61bd
00000050: a227 f23d df89 e63d e189 173d 1a54 a8bc
00000060: 130c e63c c281 283d a581 8ebb 7319 ddbd
00000070: ab1e ca3c 48b4 87bc 7498 0d3d 2677 9dbd
00000080: 752f 6a3c f1d4 513d 0d75 d33d d070 81bd
00000090: 4901 52bd a8f4 cbbd d9a2 b4bc e001 b83d
000000a0: fc71 2c3d 1e6b 9abd 777d 77bd 0db3 da3b
000000b0: 99b2 38bc 3194 8ebd f999 24bd 9863 c13d
000000c0: 8711 dc3d b092 a2bd 3630 963d 71a5 99bd
000000d0: 6799 c3bd f8bf 953c 8214 433d e2eb cbbc
000000e0: 3f95 5cbd a480 253d ebce 1abd fbad b0bd
000000f0: 4e23 2bbd 7f6b a63d 28f3 40bd 44f2 293b
00000100: addc ba3d 5ae1 e83b b145 cebd 60c0 af3d
00000110: 3f0e 43bd 735f e13d eb87 be3d 1629 8dbd
00000120: 874c e53d 7489 7ebd dc86 4f3d 7d2d 583d
00000130: af8e b1bc 5aff 053d cea8 9b3d 82e5 8a3d
00000140: 9d85 dbbd fc0f 4b3d e676 9d3c 6668 13bb
00000150: 88d4 dfba 2dec 7abd 6c31 8f3d 3b7a 173d
00000160: d500 573c ed32 aebc 67cc 8b3d 68fe 58bd
00000170: 13c0 11bc 70a0 87bd 6a5a 93bb 9e99 0d3d
00000180: 87d5 763d 77e4 663d 7f87 abbd ce9c 843d
00000190: 5da7 e33b cced 923d ac60 82bd 5e94 b53d
000001a0: a529 3f3d b879 6f3a 5301 87bc 5e38 433d
000001b0: 1713 e4bc 7424 a33d ad13 3a3c 8b39 e2bd
000001c0: 5ec9 9ebd ee4f 013e 0ca9 df3d 74c8 42bd
000001d0: 3bf2 113d 430e 07bd da87 803d 1608 9a3d
000001e0: 2817 f2bb 6398 9cbd 7d3d b93d aa18 54bb
000001f0: ab0b 193d 220f 243d b1f8 89bd 7259 813c
00000200: 694a 8fbc c941 de3d 05b5 e03c 68bc 603d
00000210: 0922 a43d 2bbb b5bd 604e a93d 8956 dabc
00000220: c880 bb3d 48fd 093d 78e3 febc 579e 0b3c
00000230: b7d8 53bd 431e b4bd 8d37 253a d32a 8dbc
00000240: 6ad1 53bd 70d1 403d 40ce f1bd 0750 acbd
00000250: f638 583d f8a8 a63b f00e f538 5f12 7dbc
00000260: 41c8 c3bd e301 4bbd 6ad5 3bbb d225 25bd
00000270: bd68 89bc 5a47 993d 721f 8d3d 7e02 753d
00000280: ce30 313d ebdc 5fbd 3017 bdbc 7305 9c3d
00000290: 5f0d e23d 506f 893c 84a8 b23c a5d0 80bd
000002a0: 3ee2 663d 5f87 3c3d 76b1 96bd e42d 9f3d
000002b0: 19fc 0dba a570 8e3d bd00 553d 24a5 b83d
000002c0: 8ecf b43d 8dfe ad3d 4041 78bd 9e29 10bd
000002d0: eea7 9f3d 34fe ee3c 8898 9b3d 210a 83bd
000002e0: 815b b23d bedc efbc 2efe b03d 2c36 93bd
000002f0: 29f9 973d 9f4d 953d f330 3abc 68b0 b43d
00000300: 3ea0 fc3d 6816 e8bc c6e5 353d 261d 433b
00000310: d70b 6b3d 58b9 463d 026e a6bd cc5c 10bc
00000320: fa12 90bd 5cfa 67bd 6db1 99bc 7993 b6bd
00000330: a390 563c 3754 9d3c 5d28 9d3d 9cd7 9c3d
00000340: 9126 66bc cac8 4d3d 9b68 803d 63e2 c6bc
00000350: 0b92 373d a858 8c3d eaae 73bd d075 40bd
00000360: f046 a03d 8645 7abd 3150 13bd 0cb4 e5ba
00000370: 84e2 8abd 2e41 2dbd 5d43 7d3d e534 4fbd
00000380: 30b4 893d 1c31 de3c 2e7b a73d 3913 49bd
00000390: 953e 1c3d a64e c4bc 298f 023a 4155 0b3d
000003a0: 8711 f53b 02d3 76bc 8b98 a8bd 35a5 c23d
000003b0: 2392 4d3d bc8f 95bd cbab 1a3d 105f 6e3d
000003c0: 7f56 7cbc ae58 b9bd 16f8 ab3d 59cf e73c
000003d0: 5423 5abd 6adc 4dbd 2f61 023c 5a68 273d
000003e0: 5cf0 003d beb5 06bc db1c d03d b63b 7cbd
000003f0: 6bee 62bd c729 d83d 46ac 9a3d de60 b23b
0.02051803 -0.034764957 0.009097234 -0.0072405236 -0.09672813 -0.035358425 0.123833 -0.044689875
0.120044 0.06307097 -0.07284476 -0.11037027 0.033386845 -0.054855116 0.06152641 -0.05773848
0.04839894 -0.002004578 -0.016615389 -0.05498724 0.118239656 0.112567656 0.036996726 -0.020547915
0.02808193 0.04113937 -0.004348951 -0.1079587 0.024672827 -0.016565457 0.03456922 -0.076887414
0.014293541 0.051228467 0.1032506 -0.063203454 -0.051270757 -0.09958774 -0.022050308 0.08984733
0.04210089 -0.07539962 -0.060422387 0.0066741765 -0.01127305 -0.06961859 -0.040185902 0.09442824
0.107455306 -0.07938135 0.07333414 -0.075022586 -0.095507436 0.018280014 0.04762698 -0.024892751
-0.05385327 0.040405884 -0.03779499 -0.08626934 -0.041781716 0.08125972 -0.047106892 0.0025931755
0.09124122 0.007106942 -0.10071886 0.085816145 -0.047621008 0.110045336 0.09303268 -0.06892602
0.11196237 -0.062142804 0.05066572 0.052777756 -0.021674482 0.032714225 0.07600556 0.067820564
-0.10718844 0.04957579 0.019221734 -0.0022492646 -0.0017076889 -0.06126039 0.06991848 0.036981802
0.013122757 -0.021264518 0.06826096 -0.052976996 -0.008895892 -0.06622398 -0.004496862 0.03457033
0.06026223 0.056370225 -0.08375453 0.064752206 0.0069474415 0.071742624 -0.06366095 0.088661894
0.046670575 0.0009135264 -0.016480124 0.047661178 -0.027841134 0.07965937 0.01135723 -0.11046132
-0.077532515 0.12628147 0.10920915 -0.04755445 0.0356314 -0.032972585 0.06275912 0.075210735
-0.0073880143 -0.07646253 0.09044931 -0.0032363334 0.037364643 0.040053494 -0.06736887 0.015789721
-0.017491536 0.10852391 0.027430067 0.05486718 0.08014304 -0.0887359 0.08266902 -0.026652591
0.091554224 0.033688813 -0.031114325 0.008521638 -0.051720347 -0.087948345 0.0006302528 -0.017232334
-0.051713385 0.047074735 -0.11806917 -0.084137015 0.052788697 0.0050860606 0.00011685293 -0.015446275
-0.0955968 -0.049562346 -0.002866114 -0.04031927 -0.016773576 0.07484312 0.06890763 0.05981683
0.043259434 -0.054654043 -0.023082346 0.07618227 0.110377066 0.01677671 0.02180887 -0.06289796
0.056368105 0.046027537 -0.07358067 0.07772425 -0.00054162886 0.06955079 0.052002657 0.09015873
0.088286504 0.08495817 -0.060609102 -0.03519594 0.07795702 0.029173948 0.075974524 -0.06398416
0.08708859 -0.029280063 0.08642231 -0.07188067 0.074205704 0.07290196 -0.0113642095 0.08822709
0.12335251 -0.028330997 0.044408582 0.0029772012 0.05738434 0.0485166 -0.08126451 -0.008811187
-0.070348695 -0.056635246 -0.018761361 -0.08914847 0.0130960075 0.019205196 0.07673714 0.07658312
-0.014047281 0.050240315 0.06269952 -0.024277871 0.04481701 0.06852847 -0.059492983 -0.046987355
0.0782603 -0.06110146 -0.03596515 -0.0017524972 -0.06781486 -0.04229849 0.06183182 -0.050587554
0.06723821 0.027123027 0.081777915 -0.049090598 0.03814562 -0.023963284 0.0004980439 0.03401685
0.007478896 -0.015064957 -0.0823222 0.09504167 0.050188195 -0.07302806 0.03776149 0.058196127
-0.015401482 -0.090501174 0.08396928 0.028297113 -0.053256348 -0.05025903 0.007957741 0.040871
0.031479225 -0.008222042 0.10161754 -0.061580382 -0.055403154 0.105548434 0.0755239 0.0054436764

rnn.bias_hh_l0 f4 [400]
00000000: 9a11 033e afb9 e4bd 92fd 00bc 11ae fd3c
00000010: 4f5d 433d 9fd7 733d 270f 5dbd 89ae d13d
00000020: 1fab 8dbd c329 4c3c d95b 8fbd c570 e1bd
00000030: be1b 0bbd 18e0 a4bc ceff 4f3d 71e6 c6bd
00000040: ba95 d2bc 7d3f b63d a8f6 ba3d 84c6 83bd
00000050: 131d b83d d2f1 e03d 9bca 783d 4c7f 4d3d
00000060: 702f 0fbb e768 953d 43ac 12bd a72c ddbd
00000070: b892 8abc cde0 d03d 7096 e23d 002a d43c
00000080: 6f12 52bd 73fe ac3c eabe 15bd e467 2ebd
00000090: 3aec c23d 87dd 8bbd 73c0 5d3c 9a25 fabc
000000a0: 5d0d 9c3d 4b40 4a3d 5de6 b8bd f616 013e
000000b0: b2a1 28bb 3109 3e3d 5aed 073d 898b aebd
000000c0: 540f 71bd 9727 b63c c993 b3bd d1aa 69bd
000000d0: 4166 cdbd d9de 93bd f3eb 53bd 957b 97bc
000000e0: dd9e a03d 94f8 663d fec1 2ebd b670 e03c
000000f0: 73b6 e53d 7d53 b2bd 74c2 4ebc d76b b63c
00000100: 97c4 773d bcc1 cd3d a927 303d 7ded e8bc
00000110: c485 36bd cb52 54bd d08d eb3d f2e0 2a3d
00000120: 5d60 a13d 503e e2bc 8b36 643d fa8f ec3d
00000130: 03c3 d73d 1755 bf3d 0f31 b13d 0383 b43d
00000140: 029b a5bd f615 e1bb 57db 1cbd 07ff 5ebd
00000150: 7a9a acbd 060f 183c 9c80 f43c 67a7 18bd
00000160: f837 363d 8c67 52bc cd62 a9bb 3ece bd3c
00000170: cddb cd3d 0cc1 49bd 3c51 c93d 08ac 373d
00000180: 3fff 693d 9072 a23d e72b 0e3d eda6 9f3c
00000190: 3a69 cf3d 7d39 09bc 9994 e5bc f7aa 18bc
000001a0: c8e2 21bb 8750 e43d d7f6 93bd 6f12 f23c
000001b0: cefb a43d d134 453d 73fc 8abd 4fe7 49bd
000001c0: 504f 8abd 47ea e1bc 67b6 e6bc 2549 e4bb
000001d0: 7d74 593d 05e2 a9bd 26d4 f93d 73c8 1b3d
000001e0: d0fe e5bc b15f 343d 3e3b c33c e826 13bd
000001f0: f11b abbd 1fc0 8abd 3e52 82bd c615 d8bd
00000200: 46fb cb3d b781 993d 2170 aa3d c59a 2fbd
00000210: d939 c53d a8a3 3dbd d5dc dc3d 06d7 2ebd
00000220: 5e51 ce3d ca05 e33c 375c 02bc 244b 1cbc
00000230: 386e 903b 6669 803d ed71 a2bd d10c 45bc
00000240: 3a51 c83d 9bee 95bc 237e d2bd 7fc3 003d
00000250: 3250 183c 00eb b8ba fbf5 dcbd d126 b7bb
00000260: 2c08 64bd 492d 70bd 52ba 4cbd db47 44bd
00000270: 5fee b4bd ae78 d53b f7c3 353d 0203 6cbd
00000280: 6360 0f3d 433a ba3d 537e 68bd 6ad9 b8bc
00000290: 2425 7b3d 5d19 943c 505a abbc 7366 9b3b
000002a0: 33d9 c63d d513 c33d 1f5f 263d fa73 583d
000002b0: 6e72 24bc e66d c63c 21de d6bc 37bc 68bd
000002c0: 4262 803d aa1d 6c3d 4558 273a 03d9 a43d
000002d0: 48db 0e3d f49d 243d 2ffe 79bd 83d1 10bd
000002e0: 328d 3c3d 60a0 b2bc 9e5d 87bd 0fe1 ed3c
000002f0: e656 40bd e722 c63d e233 8c3c 98f6 bd3d
00000300: 70ed 6fbd 0f91 a2bc e4f0 7dbd cf9b ef3d
00000310: 1ad5 2d3d 9660 843c 4632 7fbd 8fae e9bc
00000320: eabb a3bd 0156 7d3d be17 a6bd 7b87 663d
00000330: fe95 bebd 07ba 423c bc32 b3bc 2247 6f3c
00000340: ae38 f0bb 4aa4 9f3d 91a7 d83d 7122 a43d
00000350: 2aec a33d f0d3 55bd b0be 31bd ec55 07bd
00000360: df27 b0bd 52ac b93c 74fd 623d 9680 b63b
00000370: 96a9 ddbb c11a dbbd 193e c3bd 204a 9d3d
00000380: 0f0c 9ebd 0c1b c7bd 96ee 3e3d d695 70bd
00000390: 5d26 8ebd 94c0 d9bd 1817 87bd 12ed c83d
000003a0: efc5 bebc 2080 b3bc e074 793d d05f 1abd
000003b0: 2dc6 6e3d a84c dcbd 6dc8 b3bd 6b7b e238
000003c0: a69a 6bbd 925e 32bd d6ec f0bc 7c7d babd
000003d0: d930 a9bc 22b1 4f3c 090c 1f3c 5710 193d
000003e0: fff9 fcbc a126 363d b8b3 54bd 2ccc 0abb
000003f0: efdb a83d ef9b 3cba c7ef a2bc 8dd2 17bd
0.12799683 -0.11168229 -0.007872956 0.03096679 0.047696408 0.059531804 -0.05396953 0.10238368
-0.069174044 0.012461129 -0.069999404 -0.11007837 -0.033962004 -0.020126387 0.050781064 -0.09711922
-0.02570616 0.08898828 0.09129077 -0.06434348 0.089899205 0.109836236 0.060740095 0.050170228
-0.0021848343 0.07295399 -0.035808813 -0.107995324 -0.016915664 0.10199127 0.1106385 0.025898933
-0.05128711 0.021117425 -0.036559023 -0.042579547 0.09517713 -0.06829362 0.013534653 -0.030535508
0.07619736 0.04937772 -0.09028313 0.12606415 -0.0025731144 0.046395484 0.03318534 -0.08522708
-0.05885251 0.022235675 -0.08768422 -0.05704767 -0.10029269 -0.07220239 -0.05173869 -0.018491546
0.07842801 0.056389406 -0.042665474 0.027397495 0.1121644 -0.087073304 -0.012619603 0.022268219
0.060490217 0.100467175 0.043006573 -0.028433556 -0.044561163 -0.05183677 0.11501658 0.04171843
0.07879708 -0.027617604 0.05571608 0.11550899 0.105352424 0.093424015 0.08651935 0.08814051
-0.08086206 -0.006869073 -0.038295116 -0.05444243 -0.084279016 0.009280926 0.029846482 -0.037269022
0.04448697 -0.01284207 -0.0051692487 0.023169633 0.10051689 -0.04925637 0.09829947 0.044841796
0.057128187 0.07932007 0.034709837 0.019488776 0.10127492 -0.008375523 -0.028024958 -0.009318105
-0.0024701823 0.11148172 -0.07224815 0.029549805 0.080558404 0.048146073 -0.06786432 -0.04929286
-0.06753409 -0.027577532 -0.028163148 -0.0069667273 0.053089608 -0.08295063 0.12198667 0.03803296
-0.028075606 0.04403657 0.02383196 -0.035925776 -0.08354939 -0.067749254 -0.06363343 -0.10551028
0.09960036 0.07495444 0.08322168 -0.04287221 0.09630174 -0.046298653 0.10784308 -0.04268553
0.10074113 0.027712721 -0.007956556 -0.009539399 0.0044076703 0.06270103 -0.07931886 -0.012026981
0.09781118 -0.018302253 -0.10277965 0.03143644 0.009296464 -0.0014108121 -0.107891046 -0.005589344
-0.055671856 -0.058636937 -0.049982376 -0.04792009 -0.08834528 0.0065146303 0.04437634 -0.057620056
0.03500403 0.09093144 -0.056761097 -0.022564609 0.061314717 0.0180785 -0.020917088 0.0047424375
0.09709396 0.09525267 0.04061806 0.05284498 -0.010037048 0.024222326 -0.026228966 -0.05682012
0.06268741 0.057645477 0.00063836976 0.08049204 0.03487709 0.0401897 -0.061033424 -0.035356056
0.04603309 -0.021804988 -0.06609653 0.02903798 -0.046957873 0.09674626 0.017114583 0.0927555
-0.058576047 -0.01984456 -0.06199731 0.1169964 0.042439558 0.016159337 -0.062303804 -0.028525619
-0.07994826 0.061849598 -0.08109997 0.056281548 -0.093059525 0.011885173 -0.021874778 0.014604362
-0.0073309755 0.077950075 0.10578836 0.08014382 0.08004029 -0.052204072 -0.043394744 -0.033040926
-0.08601355 0.022665177 0.055417493 0.005569528 -0.006764601 -0.10698462 -0.095333286 0.07680154
-0.07717144 -0.09721956 0.046614252 -0.058736645 -0.06940911 -0.106324345 -0.06596202 0.098108426
-0.023287741 -0.02191168 0.060902476 -0.03768903 0.058294464 -0.107568085 -0.087784626 0.00010799508
-0.05752053 -0.04354722 -0.029409807 -0.091059655 -0.020653175 0.012676509 0.009707459 0.0373691
-0.030880926 0.044470433 -0.051929206 -0.0021178825 0.08245074 -0.0007194867 -0.019889725 -0.03706603

linear.weight f4 [1, 100]
00000000: 6b9a d63d 8e89 8bbd 70fe c73d 923f e1bc
00000010: 48d4 07bd 8d7a 073e 6a48 bc3d 67e5 053e
00000020: 2789 f63d caad 2d3d ebea 1f3d c593 533d
00000030: a17d b5bd c542 cf3d 3a38 05be 0169 24bd
00000040: 36c9 ed3d 04ba bebc 8bdf a53d fc74 923d
00000050: ff18 983d a789 2cbc b7d1 c2bd 1738 3d3d
00000060: 370f 373d 18cf 2dbd ece0 fbbd 84c8 823d
00000070: b6ed 3a3d cda8 07be f15e 9dbd 6089 533d
00000080: 0f0a c23c c087 023d 0eec 92bd e870 72bd
00000090: faa3 a23d 7e08 37bd 5f27 03bd e15b f8bd
000000a0: cfac f73d 404c b2bd 6a4c 82bd 7621 873d
000000b0: 80f0 17bd 62c7 1cbd 6895 a63c c8f5 9d3d
000000c0: f140 1fbd 2dd6 623c 27c9 ad3d 969f 89bd
000000d0: 150c 583d a207 1b3d fe11 a9bd 688c 75bd
000000e0: 5784 a4bc 5a26 b13d f661 493d 4d57 8b3c
000000f0: 0bee c7bd dee4 aa3d 7545 a7bd fd39 ebbd
00000100: 7220 ffbc c75e bfbd f34c b3bd 6165 e2bd
00000110: 968d 05be 5db3 5b3d 627e a83d eef2 c13d
00000120: 6e52 c5bd f9d8 dbbd 14cd ad3d fc6e c5bd
00000130: 53d3 1d3d 20ba f0bd 6088 803d 5ae1 21bd
00000140: 29f9 d1bc 14a5 6ebd afe5 5a3d 0007 39bd
00000150: 507d 943d 2bff 94bd 6d05 acbd a5d6 85bd
00000160: 5a97 21bd 6167 67bc 6cda f33d b6a7 ffbd
00000170: 741b debd 2462 1c3d f181 e8bd baf9 8c3d
00000180: 7ff5 863d 357f 653d e3e7 a23d 9af9 fe3d
0.10478672 -0.06813346 0.09765327 -0.027496133 -0.03316143 0.13230343 0.091934994 0.13075791
0.120378785 0.042402066 0.039042395 0.051654596 -0.088618524 0.10120157 -0.1300973 -0.040139202
0.116106436 -0.023282059 0.08099278 0.07151219 0.074266426 -0.010530866 -0.09512656 0.04619607
0.044692244 -0.042433828 -0.1229876 0.063859016 0.045636855 -0.13247986 -0.07684124 0.051644683
0.023686437 0.031867743 -0.0717393 -0.059189707 0.07941432 -0.044685833 -0.03201997 -0.121268995
0.120935075 -0.0870595 -0.06362231 0.06598179 -0.037094593 -0.038276084 0.020334914 0.07712895
-0.038880292 0.013845009 0.084856324 -0.06719892 0.052745897 0.037849076 -0.08255385 -0.059948355
-0.020082636 0.08649893 0.04916569 0.017009402 -0.097622 0.08344434 -0.08167545 -0.1148567
-0.0311434 -0.09344249 -0.08754911 -0.11054493 -0.13042292 0.05363785 0.082272306 0.09470163
-0.09634863 -0.107347436 0.08486381 -0.09640309 0.038531613 -0.117542505 0.062760115 -0.039521553
-0.025631504 -0.0582629 0.0534417 -0.04517269 0.07250464 -0.07275232 -0.083994724 -0.06535081
-0.03945098 -0.014123769 0.11906895 -0.1248316 -0.1084508 0.03817953 -0.11352909 0.06883569
0.065897934 0.056029517 0.07954385 0.124499515
