backend/trained_models/KBL_LSTM_model_state_dict.pth (torch, 808451 bytes, 9 tensors)

rnn.weight_ih_l0 f4 [512, 5]
00000000: cf0a b93d eb37 583c 879f 8dbd f07b 2e3b
00000010: a0ea ddbc 3389 de3b a011 013d ede3 ecbc
00000020: 2ea0 fcbc be49 31ba 1bfb ba3c 5612 a0bb
00000030: c146 933d 4dad 8d3d 5940 19bd d9fb 9c3d
00000040: 2fcb 343d 78fc a33d f313 c9bc 9412 1bbc
00000050: 5105 0d3d 6f6f 67bd 5b7d 30bd 7e2a 1b3a
00000060: 6ee9 6e3d 5736 413c 92e8 19bd 02a8 79bd
00000070: d498 803d 2835 b9bd fdbd 193c b570 9cbd
00000080: ed72 5e3c 0cf2 09bd e3de 96bd 5a31 c33d
00000090: c853 eabc c6d3 113d 6441 ae3d f6c9 913d
000000a0: 8715 bdbc 29f3 98bc a2d8 07bd f473 413d
000000b0: 9334 773d 5252 033d 0230 10bd e45c 82bd
000000c0: 77a4 0cbc d510 ffbc cb44 eebd 9b5e 91bd
000000d0: 9be8 8ebd 219c 3fbd f476 443d db19 e43d
000000e0: 885a 073e b258 913d 332d 7e3d 848d 3cbd
000000f0: e9dc b23d 7af8 8bbd 331a 82bd a0b0 97bc
00000100: df88 a1bd 4529 b03d 1316 dcbb b005 2dbd
00000110: 9f02 d73d 5b0c 8a3d 8c63 ad3d 753d 313d
00000120: af56 6dbd 832b 523d 9a69 9a3d 670b adbb
00000130: 0680 e9bc bbf6 c3bc fe1c b83d bf57 a0bc
00000140: 0bc6 913d 820b cdbb 7b15 493d a9c5 17bd
00000150: 335c 95bd f700 bb3d 8710 dc3c 8fc8 0cbd
00000160: 4ed1 22bd 0e1c 193d 9803 463d 620f 803c
00000170: 077f 9abc 08b6 d73c ec9e c33c 252c b43d
00000180: 50e7 27bd 8d45 52bd dc60 92bc 8400 b4bd
00000190: a338 833d 5101 683d fab2 6a3d 882c f4bc
000001a0: 2e5a 643c 79fd 96bd 17ea 573c 9f4d 453d
000001b0: c869 e6bc de93 77bc b53d d33c 37ae d73c
000001c0: 1b25 10bb 6218 03bd a96b c6bc b029 93bd
000001d0: d126 babb 6358 6ebd e84d 193d d539 413d
000001e0: 3c8a a83d aacd 153d d09c a93d af3c 6c3d
000001f0: 8975 823d a4c9 64bd 038c 353d e6d6 b73d
00000200: a04b 2fb9 f0c0 36bd a4d6 9ebd f2e1 643d
00000210: e350 f5bc 95f5 9a3d 33df 983d d8c9 3f3d
00000220: 81c7 4dbb 00b8 47bd 8235 e73c d82e 2b3c
00000230: c6f0 593d 2b9d 97bd 7704 893c 80b7 15bd
00000240: 274e 823d eff4 b23d 2c1f 9b3d a25e c0bc
00000250: 696d 973d 1d94 9f3d ccc2 c63d f2f7 8bbd
00000260: 9f66 aa3c 96d4 6f3c bcf6 a13d 914e 983d
00000270: 7173 89bd 7746 a33c 35a9 ce3d 687e d63d
00000280: 7f0e ce3c dd1b 5a3d 791a 6c3d 37be 593d
00000290: aebb 50bd 19f2 c6bd 16c6 b3bd 2c19 b1bc
000002a0: fc96 acbd baa7 4e3d d518 57bd 420b 103d
000002b0: 91e6 0ebd 9fad babc 6a4e b5bc ac16 543c
000002c0: 3d4b 9abd fd36 d83c 4cbb c83c a460 cc3c
000002d0: e5d0 34bd 2b7d 86bd 5e6a 0d3d cde2 883d
000002e0: e018 e9bc 8bac 83bd a403 b93d d102 8f3d
000002f0: 97b8 533d 8ac4 553d f99a 27bd 7bc8 83bd
00000300: c210 26bd 59ce 5e3d 3dbc 9bbd 0a89 813c
00000310: 0ddd 2bbd 468b 2fbd b917 b53d 9e34 92bd
00000320: 358d 933c f1f8 17bd cca3 91bd a6fd 053d
00000330: 71a3 b53d 05a1 e53c 91e0 85bd 7100 f53c
00000340: 6854 e63d 1788 12bc f19d 743d 7251 69bd
00000350: 7235 993c e413 b83d 1b36 9c3d f652 dcbb
00000360: f295 bcbc 9d26 983c 98fb ab3d 1aed 993d
00000370: 7479 8ebc cb3b 76bd 6365 4c3d 1062 883c
00000380: e8b6 12bd dc5b 83bc 8ffd b43c 59cd d9bc
00000390: 59aa 9039 ebfe 463d 2f3e cabc de9c 04bd
000003a0: 103e 7dbd 2fd2 44bc a519 943c 9112 963d
000003b0: a71f 5fbd 8615 5ebd 1778 cd3d 4e98 83bd
000003c0: 16ff 8e3d 4d79 35bd 5488 183d f027 c53d
000003d0: ed9e 9fbd 002e 09bd beba a7bd da41 a0ba
000003e0: 41dd b2bc 2180 333d add1 383d 1663 1abd
000003f0: 61dc 39bd b9f5 a93d a307 853a b5dc a03d
0.09035265 0.013196926 -0.06915193 0.0026624165 -0.027089417 0.0067912578 0.03151095 -0.028917277
-0.030838098 -0.00067630026 0.022824815 -0.0048849983 0.071912296 0.0691782 -0.037414882 0.07665224
0.044139083 0.08007139 -0.024545645 -0.009464879 0.0344289 -0.056502756 -0.0430883 0.00059191126
0.058328085 0.011792741 -0.037575312 -0.06095124 0.0627915 -0.09043342 0.009383676 -0.07638685
0.013577205 -0.0336781 -0.07366731 0.095308974 -0.028604403 0.035602354 0.08508566 0.07118599
-0.023081554 -0.018670635 -0.03316558 0.047229722 0.060352873 0.03206093 -0.035202034 -0.06365374
-0.008584133 -0.031135956 -0.11634215 -0.07098123 -0.0697796 -0.046779756 0.047965005 0.11137744
0.13218129 0.070969954 0.062054824 -0.046033397 0.087335415 -0.068345025 -0.06352653 -0.018516839
-0.07887434 0.086016215 -0.0067164986 -0.042241752 0.10498547 0.06740638 0.08466253 0.0432715
-0.057943996 0.051311027 0.07539673 -0.0052809003 -0.02850343 -0.023921361 0.08989905 -0.01957309
0.07117852 -0.0062574754 0.04909275 -0.037053738 -0.07292976 0.091310434 0.02686335 -0.034370955
-0.03975039 0.03738027 0.04834327 0.015632335 -0.0188594 0.026331916 0.02387949 0.087974824
-0.04099208 -0.05133586 -0.017868452 -0.08789161 0.06407287 0.05664188 0.05729959 -0.02980639
0.013937516 -0.07372565 0.01317837 0.04816973 -0.028126612 -0.015110938 0.02578626 0.02632819
-0.0021994773 -0.032005675 -0.024221258 -0.07185686 -0.005680897 -0.05818976 0.037427813 0.047174294
0.08229491 0.03657309 0.08281863 0.05767506 0.06370074 -0.055856362 0.04432298 0.089765355
-0.00016717473 -0.044617593 -0.07755783 0.05587954 -0.029945796 0.07566372 0.07464447 0.046823353
-0.0031399431 -0.04875946 0.028223757 0.01044818 0.053208135 -0.07403024 0.016725762 -0.036551952
0.063625626 0.087381236 0.07574305 -0.023482624 0.07393915 0.07791922 0.09705123 -0.06834401
0.020800887 0.014638087 0.07908389 0.0743686 -0.06711472 0.019931061 0.100908674 0.10473329
0.025153397 0.05324923 0.057642434 0.05315992 -0.050960235 -0.09714145 -0.08778016 -0.021618448
-0.084272355 0.050452925 -0.052513916 0.035166986 -0.034887854 -0.022787867 -0.022132117 0.0129448585
-0.07533882 0.026393408 0.024503373 0.024948426 -0.04414453 -0.06566843 0.034525268 0.06683884
-0.028454244 -0.06429394 0.090338975 0.06982959 0.05168971 0.052189387 -0.040919278 -0.06434723
-0.040543325 0.054396007 -0.07604263 0.015812416 -0.041958857 -0.04285743 0.08842415 -0.07138942
0.018011669 -0.037102643 -0.0711132 0.0327126 0.088690646 0.028030882 -0.06536973 0.029907437
0.11246568 -0.008943579 0.059720937 -0.056962438 0.018702243 0.08988169 0.07627507 -0.006723757
-0.023020718 0.0185731 0.08397597 0.07515927 -0.017391898 -0.060115617 0.049901377 0.016648322
-0.035818964 -0.016035013 0.022093562 -0.026587175 0.0002759274 0.048582952 -0.024687855 -0.032376163
-0.061826766 -0.012013002 0.018078635 0.0732776 -0.054473545 -0.054219745 0.10032671 -0.06425534
0.069822475 -0.044305135 0.037239388 0.09626758 -0.077939846 -0.033491135 -0.08189915 -0.0012226657
-0.021834018 0.043823365 0.045121837 -0.037692152 -0.045376185 0.08298821 0.0010149371 0.078545965

rnn.weight_hh_l0 f4 [512, 128]
00000000: 3a19 21bd f512 a6bd 61bd 203d 6fd6 8b3d
00000010: 51a8 edbc b88d 943c d12a 373c 47b4 793d
00000020: 9a51 6ebd 0f6b cf3c 4de0 b13c d184 11bd
00000030: c0a7 093d 1328 b73d 421a 0ebc e9c5 62bc
00000040: 44bc a6bd 9209 82bc f5c2 10bd 3c2a 88ba
00000050: bf9e 49bc c07b a2bc 3488 ed3c 0042 e03c
00000060: 34f8 ef3c 2a59 a53d eec3 8dbc f43c 96bd
00000070: 9430 763d 3865 ab3c 8c4d 563c 7fbd a1bd
00000080: b0c4 3b3d ab13 c3ba 4bbd 483d 4b33 80bd
00000090: dfb1 be3d 4ada a2bc 57e7 9c3d 5aff 52bd
000000a0: a148 603c 684c 003d 0cdd b53c c5f8 a33d
000000b0: 44dc 823d d2cc a8bd a58f 95bd ebd0 22bd
000000c0: 96f4 a7bd 5ba6 683d 1421 12bc 9d99 1dbd
000000d0: aa57 1c3d 2bef 013b ba49 8fbd 858c 04bd
000000e0: c0b5 103d b5aa 93bd aeda 90bb 59ed 59bd
000000f0: 4807 cc3b 715d 113c 1ad9 5b3d f796 223c
00000100: d80a aa3d 70a6 89bd d5e9 7b3d 47ca 143d
00000110: 6bde 0cbc 2d06 48bd 8a2e a5bd af01 1e3d
00000120: 280a aebd 0c5d 9cbd 660c b13d a984 963d
00000130: 2617 703d d2e2 ec3c 3900 5d3c 0983 803d
00000140: d947 97bd 0c1d b9bd 9dee 183c 55bc 753a
00000150: 0bcf a83d 3bd4 15bd b188 c83c 37a0 683d
00000160: dd7a e03c 0829 1fbd 76c8 a33d eb47 7e3d
00000170: 6dc6 b03d 3744 9b3d 0c29 103d bfac afbc
00000180: 1b2d 12bd b46f 95bd f053 0bbc 0af4 2abb
00000190: 322b 223c 95ec 913d 34a1 89bd 8e44 0cbd
000001a0: 701c 983d 4e70 053c 2e1c b3bc 3cb9 013c
000001b0: 9a05 51bd dbfb 9abd 3b36 9d3c 5d04 213c
000001c0: 09fe 8abd 5620 93bc aae5 ac3d 1c48 0e3d
000001d0: b087 99bd e921 9e3d 85c3 3d3d 1e78 be3b
000001e0: 71a9 183d 87d2 71bc 614b 5d3d b548 8d39
000001f0: c50b 6abd 9e96 79bd 6ea9 f4bc 9b1d b2bd
00000200: ee18 1fbc 7c81 b5bc eca4 2d3d b015 c3bd
00000210: e1b3 97bd 8152 4c3c 826b 013d b8a0 523d
00000220: ebd2 ca3b 69fd 383d 3967 0c3c 6692 ab3d
00000230: b214 83bd c245 c7bd b60f 9d3d 3583 bdbd
00000240: 480e 913d e24a de3b 046a 13bc a9bd a83d
00000250: b1af 94bd 57ad 23bd a847 203d 2df6 a0bd
00000260: 6dfa 9abd e40d cabb 36f9 e6bc bedf babd
00000270: 10ce 253b 7369 31bd 7439 273d 751a 733d
00000280: 0972 b43d f5de 9d3d b491 193d ca90 f13c
00000290: 6855 cd3b e595 1fbc 25df afba 7215 98bc
000002a0: a4e1 b83d fee0 9c3d 22f2 513c 77b7 43bd
000002b0: 61c4 34bd eec5 b43c 15df 783d 1a02 343d
000002c0: 0ba8 83bd b6d4 abbc d0c9 3d3b 62db b13c
000002d0: 354c 993d 6867 0a3c c439 01bb b8f9 fdbc
000002e0: 9713 293d 34fe 083c 0c1c 40bd fd8d f6bc
000002f0: f768 acbd 444a 263d 1bd0 24bc 81b4 fc3c
00000300: 7f4c b63c 86a6 80bc 77b4 863c 91bb 9f3d
00000310: ff9a 80bd 1065 bb3c 807d 5d3d fb2f 81bd
00000320: 68f8 793d 5a57 773c d435 6dbd 0dd9 0d3d
00000330: 623b e7bd 0894 55bd f384 9a3d b684 abbd
00000340: f409 953c e564 48bd 0ec6 923d 5923 53bd
00000350: b18e 83bd 08fc 0c3c 113f 873c f519 793d
00000360: eeca a13d 60af 2f3d bf23 6c3d 78a4 94bd
00000370: c985 8fbd 6dc7 62bd db76 74bd 1bc9 3f3d
00000380: 7735 15bd 3b72 9fbd 0ac3 88bc c91c 1bbc
00000390: d3c9 663d 2ac0 8b3b 37b8 8bbd 3461 d8bc
000003a0: 2b95 9fbd 19fa a33d ef25 b7bd 0d06 db3c
000003b0: bd08 a8bd a4a3 623d e68d c63d 0a34 5e3d
000003c0: 99e1 5ebc a036 163c 15f8 76bd 581d ebbc
000003d0: add7 34bd 3d51 483d 4d98 313d a272 90bb
000003e0: 9dc0 3c3d 98ff 5a3d 2475 5b3d e71f 293d
000003f0: aaeb 453d bb91 593d ce8e 26bb f8e1 503d
-0.0393307 -0.081090845 0.039243106 0.06828009 -0.029010924 0.018133983 0.011179642 0.06096294
-0.05818329 0.025319604 0.0217134 -0.035527054 0.033607244 0.089431904 -0.008673253 -0.013841131
-0.081413776 -0.015873704 -0.035342176 -0.0010388563 -0.012305914 -0.0198344 0.02899561 0.027375221
0.029293157 0.08073647 -0.01730534 -0.07335845 0.06010492 0.020922288 0.013080012 -0.07897472
0.045841873 -0.0014883181 0.04900865 -0.06259783 0.0931127 -0.019879479 0.07661312 -0.051513053
0.013689191 0.031322867 0.02220013 0.080064334 0.063896686 -0.082421914 -0.07302789 -0.03975002
-0.08200948 0.056799274 -0.008919019 -0.038476575 0.03816954 0.0019826393 -0.06996484 -0.032360572
0.03532958 -0.07210294 -0.0044206 -0.053204868 0.006226454 0.008872376 0.05367384 0.009923688
0.083028495 -0.067211986 0.061502296 0.03632572 -0.00859795 -0.048834015 -0.08065517 0.038575824
-0.08498031 -0.07634935 0.08644943 0.07349522 0.058615826 0.02891675 0.013488823 0.06274993
-0.07386751 -0.090387434 0.009334234 0.0009374072 0.08242615 -0.036579352 0.024479242 0.056793418
0.027402336 -0.03885749 0.07997219 0.062080305 0.08631597 0.0758137 0.035195395 -0.021444676
-0.035687547 -0.07296696 -0.008503899 -0.00260854 0.009897994 0.071252026 -0.067202 -0.034245066
0.07427299 0.008144451 -0.021864023 0.0079176985 -0.051030733 -0.07567569 0.019190898 0.0098277
-0.067867346 -0.017959755 0.084422424 0.034736738 -0.074965835 0.077213116 0.04632904 0.005812659
0.037270967 -0.014759666 0.054026965 0.00026947787 -0.05714013 -0.060934655 -0.029865947 -0.08697053
-0.009710534 -0.02215647 0.04239361 -0.09525621 -0.07407356 0.012470842 0.031596668 0.051422805
0.006189694 0.045163546 0.008569532 0.08377533 -0.06400432 -0.09730102 0.07669012 -0.092535414
0.07082802 0.006783829 -0.008997444 0.082393 -0.07260073 -0.03996023 0.039130837 -0.07859454
-0.07567296 -0.0061662067 -0.028195005 -0.09124707 0.0025299825 -0.043313455 0.040826276 0.059351403
0.08810813 0.07708541 0.03749247 0.029487986 0.0062662847 -0.0097403275 -0.0013417943 -0.018564913
0.090274125 0.07660101 0.012814077 -0.047782388 -0.044132594 0.022067036 0.060759623 0.043947317
-0.06428536 -0.020975452 0.00289594 0.021711055 0.074852385 0.0084475055 -0.001971827 -0.031002864
0.041278448 0.008361388 -0.046901748 -0.030097002 -0.08418458 0.04059817 -0.010059382 0.03084779
0.022253273 -0.015704405 0.016443474 0.07799447 -0.06279563 0.022875339 0.054074764 -0.0630798
0.061027914 0.01509651 -0.057912663 0.034630824 -0.11290623 -0.052143127 0.07544889 -0.08374922
0.018193223 -0.048924346 0.07166682 -0.051547382 -0.064237006 0.008605011 0.016509565 0.06081577
0.07900034 0.04289186 0.057651278 -0.072579324 -0.07007939 -0.05536597 -0.059683662 0.04682265
-0.03642794 -0.077854596 -0.016694564 -0.009467312 0.05634482 0.004264851 -0.068222456 -0.026413538
-0.077921234 0.08006687 -0.08942782 0.026736284 -0.08204792 0.05533184 0.09695034 0.054248847
-0.013603591 0.009168297 -0.060295183 -0.028700516 -0.044150997 0.0489056 0.043358136 -0.0044081965
0.046082128 0.05346641 0.05357851 0.04129019 0.04832045 0.053117495 -0.0025414708 0.05099675

rnn.bias_ih_l0 f4 [512]
00000000: d3f1 86bd 542b c7bc 7e32 d43c b283 91bc
00000010: b759 89bd 4695 6f3d 4784 9cbd a497 ba3c
00000020: 4749 d8bc 91ea 483d bc28 0fbd af6c 5fbb
00000030: 360b a73b cb45 77bd a8f7 a1bd ed59 4b3d
00000040: 7ae3 bb3c 06ad 483d 98d6 1e3c e556 8cbd
00000050: ceb2 9bbd 207c 07bd a46e b43d ef81 b03d
00000060: 4a51 b03d 84cf b3bc aad6 7ebd 34c6 ad3b
00000070: 95dc 813d df10 823d 0ed7 52bd ef9b 05bd
00000080: fc13 09bc 0cdf 863d 948a be3c 361d e23c
00000090: 560f 44bc 3216 783d 3f8a eb3c da59 2d3d
000000a0: 3a8c 2cbc a958 e53c 2317 a53d 3a42 8c3d
000000b0: fc38 6f3d 4210 923c 723c e8bc e3bb a93c
000000c0: 5c12 e43c 0986 95bd 25bb 87ba 5e7a a93d
000000d0: a245 81bd 9771 7bbd a952 5b3b 87b0 32bd
000000e0: 6030 b3bd 5f42 873d 8709 5dbd da0f 4c3d
000000f0: 8eb3 28bc 7e08 a13d 239a 373b b147 86bd
00000100: 386c 9d3d 0ba9 353a b492 093d 27b7 bb3b
00000110: 62dd a5bc b7cb a13d 499e 6f3c ac8d 6b3d
00000120: e87b 703d 95e9 3cbd bf1a c6bc dd65 3abc
00000130: d346 693d 38c6 7a3d 73a5 0e3c 4975 4cbd
00000140: 8753 923d 40ae 543d 93bc 953d 30b1 9b3d
00000150: 6dfa 3abb f927 b43d 8902 cdbb 7e47 153c
00000160: 5677 2f3d c042 7abd cded 13bb 24b6 cabd
00000170: 13eb 2c3d 726c b63d 561f 95bd 368d 8c3d
00000180: 2d9f 963d 3a00 7dbc 852d 063d 9bd8 883d
00000190: 369f cdbc 4e17 2ebd 760e 61bd 084a 413d
000001a0: 10e5 ca3d 4e7c 5a3d 9061 1dbd d36f e83c
000001b0: af82 a2bd 7545 69bd 0f22 99bc 91fb 883d
000001c0: 6a7c 09bc 079b 6bbd 780f 443d 793c 443d
000001d0: 39ce 86bd fb59 643d a72b 733d e91f 043c
000001e0: 598d a4bc 9156 a5bd 54ba a8bd 212b b03c
000001f0: ffad e1bb 9b87 40bd 52b0 9abb d083 62bd
00000200: c072 943d 6e06 0dbd 691f a93d 9791 71bd
00000210: c94c 97bd 8e6e 4ebd 4184 8ebd d927 9bbd
00000220: bcd0 8dbd 599b 1dbc 284d f6bc 78cc 963d
00000230: c0e4 23bb 185d 6f3c a700 8b3c 9c1a 25bc
00000240: 4512 67bd b8bc 32bc cac3 2abd 189e eb3c
00000250: c736 8b3d 9e2c 933d f6a7 1a3d ce93 ba3d
00000260: 569f b03c c7bd 623d 5618 6d3d 12c5 6a3c
00000270: a629 71bd 6037 04bd d662 f1bc aeed 4ebd
00000280: 91cb 083d 285d b3bd ad48 633d 7122 213c
00000290: c395 5fbd 5d41 933d 649e a2bd 325e 9c3d
000002a0: 76ab 673d 2ab8 393d 32d7 5a3d fb7f 1ebc
000002b0: 93ac 94bd a6bc bfbc 1723 ad3d df95 ab3d
000002c0: 8656 b0bd 7c3c c33c 46cc 563d 37f1 d2bc
000002d0: 5200 e93c 0caf 083d 5c67 873b fbaf aa3d
000002e0: 405c a9bd 820e 6f3d b88f 823d f736 193d
000002f0: 43a8 88bd 5950 383d 2ec9 563d 8a38 d6bb
00000300: 9842 12bd 2d8b e33c 2359 673d f40a 913d
00000310: e886 8f3d e190 ea3b e43e 3abd acd8 763c
00000320: 0c61 033d 294d 32bd 3d48 6abd fee6 cdbc
00000330: 916b d0bc a495 8ebd 778c 88bd 5996 6dbd
00000340: c7ac 9f3d 8f3d a2bd 6c8d 303d 48bf 9abc
00000350: 96a8 9bbc 0856 543d 050a 09bc 57a5 74bd
00000360: 7d35 60bb af9a b93a 0b75 ae3a 5b97 13bd
00000370: a5ab 27bd 0739 7c38 fc0e 88bd 0484 9cbd
00000380: 1971 9f3d 4d01 ea3c f589 45bd d9a4 643d
00000390: 7820 d7bc e1cb 97bd 18ea 50bd 4304 bb3d
000003a0: 7c87 993d 2e3d 06bd 6013 5f3d 847f dfbc
000003b0: 4f14 823d aaa3 b43d 70bf 1bbd eef2 e43c
000003c0: 8c80 843d 15ef 463c b021 d83c 94e7 873d
000003d0: 536e 9abb c050 be3c 2c4f b93c 5613 09bd
000003e0: 5d43 84bd 941d 10bd 3936 c5bd b6e2 0d3d
000003f0: c797 06bd 844e 343c b721 6bbc a352 a2bc
-0.06589093 -0.024312653 0.025902983 -0.017762993 -0.06706565 0.058491968 -0.076424174 0.022777386
-0.026402129 0.049051825 -0.034950957 -0.003409188 0.005097772 -0.060369294 -0.07908565 0.049646307
0.022935618 0.048993133 0.009694718 -0.06852511 -0.07602464 -0.03307736 0.088101655 0.08618533
0.08609255 -0.021949537 -0.06221644 0.0053031687 0.06340901 0.06350874 -0.051474623 -0.032619413
-0.008366581 0.065855116 0.023259439 0.02760182 -0.011966547 0.060568042 0.028752444 0.042322017
-0.0105314795 0.027996378 0.080610536 0.06848569 0.058403954 0.017830018 -0.028349135 0.020719474
0.027840786 -0.07300956 -0.0010355456 0.08275293 -0.063121095 -0.061387625 0.0033466017 -0.04362538
-0.08749461 0.06604456 -0.053964164 0.049819805 -0.010296715 0.07862948 0.0028015457 -0.06556643
0.07686657 0.00069297914 0.033587173 0.0057286206 -0.020247165 0.07900184 0.0146251405 0.057508156
0.058711916 -0.0461212 -0.024182675 -0.011376825 0.05695231 0.061224192 0.008706438 -0.04991654
0.07144838 0.05192399 0.07311358 0.07602155 -0.0028530613 0.08796687 -0.0062564057 0.009111283
0.042838417 -0.061098814 -0.002257216 -0.09898022 0.04221637 0.08907403 -0.072813675 0.06862871
0.07354579 -0.015441949 0.032758255 0.06681939 -0.025100332 -0.042502694 -0.05494543 0.047189742
0.099069715 0.053341202 -0.03842312 0.028373634 -0.07935082 -0.056951005 -0.018692998 0.066886075
-0.008391479 -0.057520892 0.047866315 0.047909234 -0.065823026 0.055749875 0.059367802 0.008064249
-0.020086931 -0.08073152 -0.08238664 0.02150494 -0.006887197 -0.047004323 -0.004720726 -0.055301487
0.07248449 -0.03442996 0.08257944 -0.058976736 -0.073876925 -0.050398402 -0.06958819 -0.0757596
-0.069245785 -0.009619557 -0.030066088 0.07363218 -0.0025008172 0.014609598 0.016968084 -0.010077145
-0.056413908 -0.010909252 -0.041690625 0.028761908 0.06797557 0.071862444 0.037757836 0.09110223
0.021560352 0.055356767 0.057884537 0.014329212 -0.05887761 -0.032279372 -0.029466074 -0.050519638
0.03339726 -0.087580025 0.05548923 0.009834872 -0.054586183 0.071902014 -0.07940367 0.07635154
0.056560002 0.04534165 0.053427882 -0.009674068 -0.072594784 -0.023405384 0.084539585 0.08378195
-0.08610253 0.023832552 0.052440904 -0.025749786 0.028442536 0.033370063 0.0041321944 0.08334347
-0.082695484 0.058363445 0.063750684 0.037405934 -0.066727184 0.0449985 0.052437954 -0.0065375017
-0.03570804 0.027776325 0.05648149 0.07082167 0.07008153 0.007158384 -0.045470133 0.015066307
0.032074973 -0.043530617 -0.057197798 -0.02513456 -0.025441917 -0.069621354 -0.066674165 -0.05800471
0.077966265 -0.079218976 0.04310362 -0.018890038 -0.019001286 0.05183986 -0.008364205 -0.059727993
-0.003421157 0.0014160479 0.0013310028 -0.036033016 -0.040935177 6.0134593e-05 -0.06643483 -0.076423675
0.077852435 0.028565073 -0.04822727 0.055821273 -0.0262606 -0.07411934 -0.0510045 0.09131672
0.07496545 -0.03277319 0.054461837 -0.027282484 0.0635153 0.08820279 -0.038024366 0.02794787
0.06469831 0.012141963 0.026383251 0.06635967 -0.0047128587 0.023231864 0.02262076 -0.033465706
-0.06458161 -0.035184458 -0.09629483 0.034640037 -0.03285959 0.011005048 -0.0143513 -0.019814795

rnn.bias_hh_l0 f4 [512]
00000000: 9f47 49bd 8d77 003d a22f ffbb 5745 98bd
00000010: 185e 613d d19b 9a3d c7ad 50bc ea2b 443c
00000020: 7eda c53d 6038 a2bd ea80 89bd 7beb 533c
00000030: d77b 9a3d 5488 0bbd fcd3 753c a3c8 44bc
00000040: af9c 823b 7209 99bd b93f 2bbd 71ba d13c
00000050: f14b 0c3c 99d1 5dbc daf2 633d 66a4 00bc
00000060: 354a d33c af1f 86bd 20b1 3ebd d0a3 943c
00000070: 73dc 18bd 58c1 8dbd 890b 8a3d 37e3 6f3d
00000080: 160c cdbd 31c7 4039 145c 983d 4674 2c3d
00000090: c1df dd3c 9547 2c3d 71dc 5c3d 256a 0f3d
000000a0: 9cb0 a2bc af78 31bd eba0 8ebd f499 91bd
000000b0: c389 fa3b ab08 c73c 553d a9bb fe46 c43d
000000c0: c56f 843d 4c25 b33c 3bc2 0f3d 1ed7 a13d
000000d0: 8f52 9e3c 057a 79bd 6626 aa3c 34e7 b03d
000000e0: 5178 833d f272 c33d 5fb6 64bd d23a ae3d
000000f0: a4f8 783d e68f 30bd 283a af3d 13c3 81bd
00000100: 4429 b53c d981 aebd 6420 9b3d cf0f 813d
00000110: 5063 bc3c f0e2 e1bc cb97 97bc fb46 09bd
00000120: 32dd 63bc d360 37bd a06d 9c3d 2354 7cbd
00000130: c76d 2fbd 2fe3 e2bc abba b73d 0b1c 95bd
00000140: f90e bb3b 4a8e c9bc 982d ec3c ef41 b63d
00000150: d8fd ebbc 6954 843d f073 c9bc 0e49 233c
00000160: cdea e33b b052 043d 32f4 983d 0388 0c3d
00000170: 2ac5 83bc 1049 a1bb f14b 683d d7eb 7a3c
00000180: 2c97 0d3d fc3d 363d dfc4 a4ba acb3 6b3d
00000190: a7d9 a7ba 068f 5b3d 1180 6fbd 002c c53d
000001a0: 70a2 b93d 1d12 863d d3a5 bc3d 015d cd3d
000001b0: b352 d6bc 75b8 15bc 77e0 193d 7947 3bbd
000001c0: 0b06 ca3d d9d2 87bc c649 bdbc ae63 873d
000001d0: 5620 953c 03c2 21b9 402a 6f3d cfb1 9336
000001e0: 9e61 79bc 8ffd b739 5c73 2c3c db0e 11bd
000001f0: 89e2 753d e3d2 c0bc 208d 073d 54d1 94bd
00000200: beec 78bd f83b bdbd 9062 54bd 5531 0e3d
00000210: 4f34 6c3c 60fc 943d effe 893d 7119 9ebd
00000220: c090 9b3d 332b 97bd 175f 953d 1e6d c73d
00000230: 65f4 9fbd 84e4 b6bb 56cc 963b dfbe 8dbb
00000240: 688a 873b 5221 68bc aa0a c73c 8804 babb
00000250: f3d1 23bd b553 893c 19bb 5ebd 6392 a13d
00000260: c44f 7ebd 9e8d 66bb 028b b1bd 58e8 aabc
00000270: a5b3 353d 41f3 5a3d 693c 933c 229b 703d
00000280: e4a5 75bc ea60 19bc f6eb 603d b72c 3e3d
00000290: ad54 e43c e3dd 193d 16cb 583c 8cc7 183c
000002a0: 8dae b3bd bb56 58bd 9f24 e1bc 7cd8 3c3d
000002b0: e6f1 31bd 2523 db3c 44fe 9c3d 6125 5d3d
000002c0: 3150 193d a21a 3bbc 728b 7e3d d082 ce3c
000002d0: fdd2 a43d 6b85 513d a3a5 5e3d 5752 ab3c
000002e0: b7ff f1bb caff ce3c 49b5 67bd 152f 093c
000002f0: 1cbc 92bd 7d33 91bd 8e68 2fba a12b bd3c
00000300: d719 8e3d 4300 483d 6427 9bba 8911 9f3d
00000310: 128c 9d3d 2fc3 59bd e89f 00bd ebb6 b9bd
00000320: b0bd 71bd bfd4 93bd ae57 4fbd 4b90 1c3d
00000330: f1bb 9cb9 bae9 963d 6e6f 51bd 49a6 a8bd
00000340: 72c1 15bd f312 19bd 8954 c13b 0fe7 b83d
00000350: b3bd 29bd 67a0 823d 5777 bfbc c4c9 623d
00000360: 6d67 353d 9bf9 babd 9068 3c3d 2950 e73c
00000370: 4468 63bd 6390 f9bc f063 5d3d b830 083d
00000380: 6056 3b3d 4a4b 04bd 8029 67bd 10a2 3a3d
00000390: 4f62 12bd d880 92bd 91d6 0fbd 94b2 843c
000003a0: 77ad c33b 75c7 f7bc 6fcb a8bc 656d 163d
000003b0: ce71 7bbd 0dd0 643d 1b4c f3bc 8d62 823d
000003c0: bb18 07bd 9897 923c 55f0 f13c 3ca7 12bd
000003d0: 4195 fdbb 1c32 6b3d b8f6 9dbd 1942 db3b
000003e0: 7a5c 663d 7260 ad3d f7c4 de3c e02f b53d
000003f0: 90b9 0f3c c7c2 7dbd 4a4a 9ebd 7633 7fbd
-0.04914057 0.031364013 -0.0077876607 -0.074351005 0.055021375 0.07549251 -0.012736744 0.011973361
0.09660815 -0.07920909 -0.067140415 0.012934561 0.07543152 -0.03406556 0.015004154 -0.012010726
0.0039859633 -0.07472505 -0.041808818 0.025601598 0.008563028 -0.0135387415 0.055651523 -0.007851696
0.02579222 -0.06549012 -0.04655564 0.018144518 -0.03731961 -0.06921643 0.067404814 0.0585663
-0.10012071 0.00018384751 0.074394375 0.042103074 0.027084233 0.042060453 0.053921167 0.035013337
-0.019859605 -0.043327983 -0.069642864 -0.07109442 0.007645817 0.024296125 -0.005164782 0.09583853
0.06466631 0.02186837 0.035097342 0.079023585 0.019326476 -0.060907383 0.020770263 0.086378485
0.06419433 0.095434085 -0.055837985 0.08507313 0.060783997 -0.043105982 0.08556014 -0.063360356
0.022114404 -0.0852086 0.075745374 0.063018434 0.022996575 -0.027574033 -0.018504998 -0.033514958
-0.013907718 -0.044770073 0.07638097 -0.061603677 -0.0428293 -0.02769622 0.08971151 -0.072807394
0.005708572 -0.024603982 0.028830335 0.088992946 -0.028807566 0.064614125 -0.024591416 0.009966148
0.0069554807 0.03230542 0.074684516 0.0343094 -0.016085226 -0.00492204 0.05671305 0.015315018
0.034567997 0.044492707 -0.0012570879 0.057544395 -0.0012805954 0.053603195 -0.058471743 0.09627533
0.090641856 0.065464236 0.09211316 0.10027505 -0.026162481 -0.009138216 0.037567582 -0.04572246
0.09864434 -0.016580032 -0.023106467 0.06610809 0.018203896 -0.00015426431 0.058389902 4.401641e-06
-0.015221028 0.00035093396 0.010525551 -0.035414558 0.060030494 -0.023538059 0.03309357 -0.07266489
-0.06077265 -0.09239954 -0.05185181 0.034715015 0.014416768 0.07274699 0.06738078 -0.07719696
0.07595968 -0.073812865 0.072935276 0.09737609 -0.078102864 -0.0055814404 0.0046019955 -0.004325732
0.0041363724 -0.0141681 0.024297077 -0.0056768097 -0.039995145 0.016763547 -0.05437765 0.07889249
-0.06208779 -0.0035179625 -0.08669092 -0.020862743 0.044360776 0.05345464 0.017973142 0.058741696
-0.014993165 -0.009361485 0.05491253 0.046429362 0.027872408 0.037565123 0.013232013 0.009324919
-0.08773527 -0.052817088 -0.027483283 0.046104893 -0.043443583 0.026750157 0.07665685 0.053990725
0.037429992 -0.011419924 0.062144704 0.02520886 0.08048055 0.051152628 0.054357182 0.020913286
-0.00738522 0.025268454 -0.05656937 0.008373042 -0.07164785 -0.07089899 -0.00066913 0.023092093
0.06938522 0.048828375 -0.0011837301 0.077670164 0.07692732 -0.053164657 -0.0314025 -0.09068092
-0.05901879 -0.072183125 -0.050620727 0.038223546 -0.00029894666 0.073687986 -0.05113166 -0.082348414
-0.036561437 -0.037371587 0.00589997 0.09028446 -0.041440677 0.063782506 -0.023372335 0.0553682
0.044288088 -0.0912964 0.045998156 0.028236466 -0.055519357 -0.030464357 0.054050386 0.033249587
0.04573667 -0.032298364 -0.05643606 0.04556471 -0.035738286 -0.07153481 -0.035116736 0.016198434
0.0059716064 -0.030246476 -0.020604817 0.03672542 -0.06138783 0.055862475 -0.029699376 0.06366453
-0.03298257 0.017894551 0.029533545 -0.03580402 -0.0077387397 0.057420835 -0.077130735 0.006691229
0.056240536 0.08465661 0.02719353 0.08847022 0.008772269 -0.061953332 -0.07729013 -0.062304936

rnn.weight_ih_l1 f4 [512, 128]
00000000: aca2 193d e000 3f3d 02c6 4abd e2be c5bd
00000010: 6b53 713d 0731 213d 19ee 3e3d fc93 c03d
00000020: 7d60 6f3d 06d6 66bd c25c a7bd 7c2a 043e
00000030: f6c4 86bd a756 c4bc cbaf 593d c308 053d
00000040: 6a4a 103c a233 39bd dd3a 92bd 6cf5 3abc
00000050: 3cc5 9dbd beb1 55bd 37c3 9dbd 8836 1d3d
00000060: ec7f a1bd 357f ccbd b67f 813d 1ef7 3fbd
00000070: 7c0d 673d 426b 03bd 984e 24bd 5cd1 313d
00000080: 190c 13bd 4029 74bd 435a 963d d537 66bd
00000090: d7af 073d 41ce 90bc 8886 6dbd 325e 5dbd
000000a0: 5019 383d 2f57 873d b67b 943c 9398 67bc
000000b0: 3c2a 2abd f17b 77bd 5e01 8d3d dc4d c6bd
000000c0: a57d acbd 05c5 9bbd 7d43 303d 7eed 633c
000000d0: 59e1 943d 27b7 8d3d aaf4 803d 2e2d 8abd
000000e0: 1abd c9bc d921 883d b18a ed3c 17bf 25ba
000000f0: efd9 8dbd b29c 1a3d 786c c3bc 80cf 1e3c
00000100: 6ed1 39bd 36e7 e5bb 67eb 5ebc 4cbc 7a3d
00000110: 08bc 173d 8a7b fa3b e517 8f3d ca59 ea3c
00000120: 6cb7 233c 9ac5 9d3d 1718 4cbd 6a86 353d
00000130: 3877 4ebd cc80 a23d b08f 773d 21c3 2d3c
00000140: c920 653d a3a7 60bd 323e 8e3d ebbb 98bc
00000150: efe4 2fba f6c3 59bd 79e2 cf3d 487c a73d
00000160: 3c65 9fbd 2d2e 65bd cb16 39bc 77b5 d93c
00000170: caf9 1abd 9277 89bd 0a25 2f3d 2889 23bc
00000180: e6bb 97bc aec5 853c 749b 84bd 0e51 58bd
00000190: ce8b bfbb d94a 943d 410e 9cbc e914 84bd
000001a0: fa3a 823b 0c86 883d 1138 013d 6cc3 943d
000001b0: 6635 9ebd 0062 1cbc 45ac 6a3c 377b 86bd
000001c0: 20d9 b7bd 94a9 bf3d 5dc5 743d e7f8 8e3d
000001d0: 797e 6fbb e476 f43c 9426 d63d ebe7 c2bd
000001e0: f86a a1bb a524 98bd 4cef e2bc cd61 9bbd
000001f0: 5ac1 20bd c121 213d 9a5a 6bbd 32c1 d9bc
00000200: ce79 8b3d 008f d7bc 505b c4bd e503 c7bb
00000210: 5466 8a3d 7595 973c 8f59 09bc 8406 52bd
00000220: 75dd a13c 11c9 b9bc 284b b5bd 87d8 edbc
00000230: bb18 4e3b 6511 27bc 1bc3 2e3c 0003 843d
00000240: 4dc2 0fbd 36c9 ab3d ad23 00bd 9bb3 49bd
00000250: 8e2c 183d 83ae 74bd acf0 72bd b7e4 dabc
00000260: e85a bc3d f71d c83d 0c51 f63b 6b20 623d
00000270: 8005 55ba 600d a23d 94d8 cf3c 7111 80bd
00000280: 487d 51bc 10f8 cebd edc5 ed3c 27c4 14bd
00000290: da74 9e3c 9955 ffbc 0308 a63c bda7 14bd
000002a0: 31af b0bc 0fa0 eb3c 761d bdbc 14d5 0dbd
000002b0: 70cf 0e3d a784 c63c e9e2 323d f1c0 d03c
000002c0: d464 843c faf9 09bd c7b3 833d 0d8d 123d
000002d0: eefa b83d 96fa 403c b3e8 29bc 9083 d63c
000002e0: 093f 123d 9144 a7bd e8b1 213d 9d14 d83c
000002f0: 3a27 4bbd f89a e0bc 4abe 16bd 6c31 c63d
00000300: 668a 1bbc a2a5 5c3d 99ec 18bc 6ee0 eebc
00000310: 03b7 97bc a89c 6a3d 5702 6a3d 3b94 773c
00000320: 6067 b83c 20c2 fabc 811a bcbd f91b 333d
00000330: be9e ca3c f28b d53b 338d 813d ea34 e93c
00000340: 011c a8bd 3b51 b33d 53ba 863c b51a 4f3d
00000350: f1c7 f2bc 6bb9 aa3d 0edb 28bd a134 aabd
00000360: beea 273a 1cc4 473c 3f20 563d 8bd4 533c
00000370: be94 84bd c1b5 89bd 2511 8a3b c800 783d
00000380: 74f3 683d a341 3fbd f3bc 853c 9205 f4bc
00000390: 0214 0ebc 49d0 823d 17a6 52bc 780b 72bd
000003a0: 3ee6 b03d e10a 433d 8eba cd3d 9a27 aebc
000003b0: 47d7 c23d baf1 873c e2ad 56bc e4fc 0fbd
000003c0: 2e38 d83b f49e c23b 358b 2dbd c03f 733d
000003d0: 4bc2 213d c62f cb3c 7309 2d3d 7b20 68bd
000003e0: 1949 2cbd d063 e1ba 30fc 903c 5158 14bb
000003f0: 1bbe babd 6cc0 a13d 950d 2abd 1d44 08bc
0.03750865 0.046631694 -0.04950524 -0.09655549 0.058917444 0.039353397 0.046613786 0.09403226
0.058441628 -0.056356452 -0.08171989 0.12906832 -0.06580536 -0.0239671 0.053146165 0.03247906
0.008806804 -0.045215257 -0.071401335 -0.011411052 -0.07703635 -0.05217146 -0.0770325 0.038382083
-0.07885727 -0.099852 0.06323187 -0.04686653 0.056409344 -0.03208471 -0.040114015 0.04341255
-0.03590021 -0.05960965 0.07341435 -0.05620559 0.03312668 -0.017676475 -0.057989627 -0.05404491
0.044946015 0.06608426 0.018125396 -0.014135498 -0.041544184 -0.060420934 0.068850264 -0.09682819
-0.08422402 -0.07605938 0.04303311 0.013911603 0.07269544 0.06919699 0.06296666 -0.067468986
-0.024626303 0.06647081 0.028996797 -0.0006322725 -0.06926333 0.037747093 -0.023855433 0.009693027
-0.045365743 -0.007016088 -0.013605929 0.06121473 0.037044555 0.0076441215 0.069869794 0.028607268
0.009992462 0.07703705 -0.04982766 0.04431764 -0.050406665 0.07934722 0.060439765 0.010605604
0.05593947 -0.05484737 0.069454566 -0.018644294 -0.0006709834 -0.0531654 0.10150618 0.08178002
-0.07782981 -0.05595224 -0.011296938 0.026575787 -0.037835874 -0.06712259 0.042759933 -0.009981431
-0.018522214 0.016329613 -0.06474963 -0.052811675 -0.0058455234 0.072408386 -0.019049766 -0.06449301
0.0039743157 0.066661924 0.03154761 0.07263836 -0.07725029 -0.009544849 0.014323299 -0.0656647
-0.0897696 0.09358516 0.059758533 0.06981068 -0.003654389 0.029841848 0.10456577 -0.09516891
-0.0049260817 -0.074288644 -0.027701996 -0.075870134 -0.039246894 0.03933883 -0.05745945 -0.02658138
0.06810342 -0.026313305 -0.09587729 -0.0060734623 0.06757799 0.018503884 -0.008383169 -0.051275745
0.01975892 -0.022678884 -0.088522255 -0.029033912 0.0031447846 -0.010197018 0.010666634 0.06445885
-0.03509741 0.08387987 -0.031284023 -0.04924355 0.037151866 -0.05973674 -0.059311554 -0.026720388
0.091970265 0.0977134 0.0075169858 0.055206697 -0.0008126125 0.07912707 0.025371827 -0.06253327
-0.012786217 -0.10105908 0.029025042 -0.036319878 0.019342829 -0.031168746 0.020267492 -0.03629278
-0.021567913 0.028762845 -0.023085337 -0.034627035 0.034865797 0.024233175 0.04367343 0.025482627
0.01616136 -0.03368566 0.06430774 0.035779048 0.09032236 0.011778494 -0.010370421 0.02618578
0.035704646 -0.08167375 0.039476305 0.026377017 -0.049597956 -0.027417645 -0.036802568 0.09677395
-0.009493446 0.053868897 -0.009333753 -0.02915975 -0.018519884 0.057278305 0.057131138 0.0151110245
0.02251023 -0.030610144 -0.09184743 0.04372785 0.024733897 0.006516927 0.0632576 0.028467614
-0.08208466 0.08755728 0.016446268 0.05056258 -0.029636355 0.08336147 -0.04122453 -0.083108194
0.0006405524 0.012192752 0.052276846 0.012929092 -0.06473683 -0.0672412 0.0042134696 0.06054762
0.0568728 -0.046693455 0.01632545 -0.029787812 -0.008671762 0.063873835 -0.012856982 -0.05909297
0.08637665 0.047617797 0.10045348 -0.021259118 0.09513717 0.016594756 -0.01310298 -0.035153285
0.006598494 0.005939359 -0.042369086 0.05938697 0.039491933 0.024803054 0.04224534 -0.0566716
-0.0420619 -0.0017195884 0.017698377 -0.0022635648 -0.09118291 0.0789803 -0.04151686 -0.008317021

rnn.weight_hh_l1 f4 [512, 128]
00000000: 2910 babd cb65 13bc 7982 98bd 9034 61bd
00000010: 91c8 bcbd f85b 323d 9a0e 5f3c e530 5c3d
00000020: 3bb3 0f3d 0a0f 933d cbf2 453c 6d9a a43d
00000030: 541b 94bd a571 37bd 82d3 8a3d eda2 50bd
00000040: 647e 4ebd 68bf c93c 3b82 b1bd cfc1 9cbd
00000050: 270c 723d ce6d 85bd d5e2 463d fd3c 813d
00000060: e6ee c73c 4711 b9bd e943 ac3d a4b9 cb3c
00000070: 39da 24bd 9a40 a7bd 2a9e 7d3d 27c2 953c
00000080: 4e4e debc 2c24 203d e034 9dbd 4456 473d
00000090: fe78 813d 69f5 acbd 0636 febc f810 7f3c
000000a0: 6c72 4abd 9940 8cbc 87e1 6b3d a012 9a3d
000000b0: e55b 853d 015f 62bd aa4c 0bbd cfe0 91bd
000000c0: aeed 7b3d 2fe8 ca3c cf02 31bd f35c 85bd
000000d0: 13fa b5bd 24d4 79bd 5fd3 b5bd 1428 cb3b
000000e0: bf92 31bd fe65 313d f1fa b33a e26e 103c
000000f0: 6a6a d13b e126 af3a 8463 8a3d d513 863d
00000100: 19cf a23d d198 a73d b225 833c 651a aebd
00000110: cc9e e03b 77d7 313d 6bd3 53bd d6b5 9bbc
00000120: af97 393d 8790 81bd 3411 5dbd 979e a13d
00000130: f01e 963d 0138 663d d965 893d 3578 d4bc
00000140: 4bde b2bd 4ab6 1f3d b935 03bc 7e32 aebb
00000150: 02dd 723d 95cc 85bd 96e8 e9bc 1104 083c
00000160: 68dc bfbc b922 aebc 75ae 6e3d 389e 6dbd
00000170: 3594 a5bd 4200 dbbb 2765 4ebd 43c9 233d
00000180: f0ad 9ebd 8eae da3c ea1a d6ba 6cbc 893d
00000190: 25b9 843d e98d 663d 7371 133d 146a 493b
000001a0: 94c1 52bc d133 343d 63e4 acbd f91d 193d
000001b0: a466 0f3d 58f4 d3bc ea15 8cbd d40f 9dbc
000001c0: 72d4 c53d d8ed a7bd 6550 773b adcf 943d
000001d0: 6ed9 24bd 65d6 483d 84f8 aabd 81b1 4e3d
000001e0: da3e 10bd 8a07 5abd 43db a73d 0120 963d
000001f0: 224e 963d 8a41 223d cec2 b939 3ab6 283d
00000200: 67f5 90bd 7068 a13d 710d 243d 510b 593d
00000210: 87d4 8b3d 6402 45bd a875 263d b36f bd38
00000220: 3e02 7f3d 1891 cf3d f815 883c 0098 6abd
00000230: cb81 cdbc d38e 933d d47a 3dbd 61ee 463d
00000240: ece9 a7bd 4f91 4cbd f407 af3d 01db 9c3d
00000250: 7972 b53c ca8b ad3d a7e0 25bd 4765 62bc
00000260: 22c0 e2bc 5e2a 313c debb 8abd 8740 04bd
00000270: 75fe 2f3c ff46 98bc 3f98 04bd e678 c0bc
00000280: 0d75 543b 7fa5 923d d9b5 b23c 1557 2abd
00000290: 2004 813d 1d5a c9bc 26af 17bd ce3d 0cbd
000002a0: f35b 90bc 8325 30bd 4f42 313d c39a 95bc
000002b0: 8444 7cbd 6f4c 91bd 3140 163d 143c 333d
000002c0: 8cd2 2a3d f19c 773d ca88 00bd b4f7 4b3d
000002d0: ec2b 953d 69da 00bd ed7d cabc ed2c 8abc
000002e0: ae4f 05bc 82e4 a93d 48f0 3e3d ea98 cfbc
000002f0: bfdf 4f3c 5ee3 5d3b e889 1f3d a939 d13c
00000300: d60b 5e3d 9cad 56bd b12e 833d 44d8 b23d
00000310: 84cb 19bd 1430 71bd 53ea 643d f5f3 1a3d
00000320: 61ba b0bd d024 cebc 95cf 65bd e671 553d
00000330: 9a6a 213d bb1c e7bc a7dd 863d aa8c b5bd
00000340: 1c6e c03b 8135 2139 e656 893c ab97 09bd
00000350: 0f94 d43c 7e42 a8bd 87d6 bdbd dc9a 7f3d
00000360: ae4e 0f3d d055 473d d51f 8abd cc71 f43c
00000370: 19e6 7f3c cc91 fbbb 3586 983d 3cce a1bd
00000380: cf95 333d b96a c2bd 851c bc3d 7205 9dbc
00000390: c942 8d3d 9819 823d cc35 c93d d6c2 b0bd
000003a0: af49 c93d 91ac 6e3d 18d3 51bd 1e72 4d3d
000003b0: 79ed 94bd 7384 bc3c 24f1 a8bc 0331 a9bd
000003c0: 4c4c 97bd cf6b bb3d 58e7 ac3c 05be d1bd
000003d0: f895 473c 0465 323c 2a85 c2bc 259d 9f3d
000003e0: 618f 5c3d 1804 56bd a608 af3d ea07 8abd
000003f0: 039d a73c 46ad 873d 371a 99bd 16ca 383d
-0.090851136 -0.008996437 -0.07446761 -0.054981768 -0.092179425 0.04354474 0.013614321 0.053757567
0.035083037 0.07180603 0.012081812 0.08037267 -0.07231775 -0.044786114 0.06778623 -0.050936628
-0.050413504 0.024627402 -0.086674176 -0.076541536 0.05909362 -0.06515084 0.048556168 0.06310461
0.024405908 -0.090364985 0.0841139 0.024868794 -0.040247176 -0.08166619 0.061918415 0.018281056
-0.027136948 0.039096996 -0.07676101 0.048666254 0.063219056 -0.08445246 -0.03103162 0.0155680105
-0.049425527 -0.017120646 0.057588127 0.07523084 0.06511668 -0.055266384 -0.03400866 -0.07122957
0.061505966 0.024768917 -0.04321557 -0.06511869 -0.088855885 -0.06099333 -0.088782065 0.006199846
-0.04335284 0.043310158 0.0013731403 0.008815499 0.0063908594 0.0013363027 0.06757262 0.065467514
0.07949657 0.08183444 0.016009185 -0.08501128 0.0068548676 0.043418374 -0.051715296 -0.019007605
0.045310672 -0.063263945 -0.053971484 0.07891577 0.073301196 0.056205753 0.06708879 -0.025936225
-0.08733805 0.038992204 -0.008008414 -0.0053160777 0.0592928 -0.065331616 -0.028553288 0.008301751
-0.023420528 -0.021256791 0.058271844 -0.058012217 -0.08084909 -0.0066833803 -0.050389435 0.03998686
-0.0774802 0.026694562 -0.0016334925 0.06725392 0.06480626 0.05628768 0.035996865 0.0030733394
-0.012863535 0.04399473 -0.08441999 0.0373821 0.035009995 -0.025873348 -0.06840117 -0.019172587
0.09659661 -0.08199662 0.0037737128 0.072661735 -0.04024642 0.049032588 -0.08348182 0.05046225
-0.03521619 -0.053229846 0.08196118 0.07330323 0.073391214 0.039613284 0.0003543109 0.04118941
-0.07078057 0.07881248 0.04005188 0.052989308 0.06827646 -0.048097983 0.04063955 9.033028e-05
0.062257998 0.10135096 0.016612038 -0.057273865 -0.025086304 0.07204976 -0.046259716 0.04856718
-0.08198914 -0.049943265 0.08546439 0.07658959 0.022149311 0.08473928 -0.04049745 -0.013818092
-0.027679507 0.010813324 -0.06774114 -0.0322881 0.01074182 -0.018588541 -0.032371756 -0.023495149
0.00324184 0.07160472 0.021815227 -0.041586954 0.06299615 -0.024579102 -0.03703227 -0.03423863
-0.01762197 -0.043004524 0.043276127 -0.018262273 -0.06158878 -0.07094657 0.03668231 0.043758467
0.0417047 0.060452405 -0.031380452 0.049796775 0.07283768 -0.031458292 -0.02471825 -0.016867125
-0.008136673 0.082955375 0.04661587 -0.02534147 0.012687623 0.0033857445 0.038949877 0.02554019
0.054210506 -0.05241166 0.0640539 0.08732656 -0.037547603 -0.05888374 0.05588753 0.03783031
-0.08629299 -0.025164038 -0.05610617 0.052110575 0.039408304 -0.028211942 0.065852456 -0.0886472
0.005872501 0.00015374088 0.01676507 -0.033591907 0.025949506 -0.082158074 -0.092694335 0.062403545
0.034987144 0.04866582 -0.06744353 0.029839419 0.015618824 -0.0076772925 0.07447473 -0.07900664
0.04384404 -0.09493012 0.09185127 -0.019167636 0.06897504 0.06352538 0.09824714 -0.08630912
0.09828507 0.05827004 -0.051226705 0.05015766 -0.07271857 0.023012375 -0.020622797 -0.08261301
-0.07387599 0.09151422 0.021106407 -0.102413215 0.012181751 0.010888342 -0.023745138 0.07793645
0.053847674 -0.052249998 0.085465714 -0.06739791 0.020460611 0.06624846 -0.07475703 0.0451146

rnn.bias_ih_l1 f4 [512]
00000000: f2b6 333d dbd4 60bd ccff c13d 3c49 303d
00000010: e35d 4a3d 59be dcbc d4b5 43bd de3a 2dbd
00000020: 18f5 d9bc 84f3 84bd c2be 7e3d 799f 473c
00000030: 48dd 6b3d 40d8 91bc 1c16 eb3c f8b5 71bc
00000040: 3885 963d 64f2 0ebd 72dd 5a3c 9392 8e3d
00000050: c661 e33c 50ea ebbc 8d96 c7bc b6c5 32bd
00000060: ab3b 0d3d e45a 193d c175 57bd 9e30 533d
00000070: c578 b33c da8e ed3c 16b3 013c 3094 51bd
00000080: d2a6 77bd 1796 2abd 90be a53d 8144 743d
00000090: 6240 8a3c 8caf a83d f74a 643d 6440 91bd
000000a0: d1f0 21bd 3527 aabd 931d 00bb a6f8 d53c
000000b0: 876f c53d 4feb 40bd a3b5 b23c 0acd 5fbd
000000c0: f9fa 693d b3de 8f3d 59fe 82bd 4a57 d63c
000000d0: 12a4 623c 8ce6 cebc fdca c63d 0d4e 9c3d
000000e0: 4d11 ed3c 6909 273d d977 8d3c fb10 82bd
000000f0: 4cb6 d63c abc1 36bd 4374 c83d 4219 8fbc
00000100: 4573 3fbd a894 9b3d f639 49bd 11e4 83bd
00000110: aea1 9b3c 2299 69bd b6ae b93d 7f7c bc3d
00000120: 4098 943d 1f43 a43d 9a4b 503d 2e8e ba3d
00000130: 600e 9c3b c1b9 ad3d 2e64 f33c f6b7 bf3b
00000140: 3ff9 febb 68a8 bbbd d1d0 2a3c dbc9 3cbd
00000150: f863 6abd df4f 90bd 1464 d5bc 8f82 7cbc
00000160: 4fd8 c63c 94ac e93c 3dd9 843d efdd 663c
00000170: 28bd d33b 144f d6bc 6083 a5bd 45b9 88bd
00000180: 4b83 46bc fee3 48bd 1b06 be3c ecd1 3ebd
00000190: 4f33 a8bd 16cb 0b3d 4955 aebd 0905 483c
000001a0: dafa 7dbd 18b8 923c 354e 323c 4e7f ac3c
000001b0: eae0 9e39 648c e5bc d873 ee3c bbf9 a23d
000001c0: 6652 aabd cd82 bc3a 4bbd a13d 5ed8 f9bc
000001d0: 36b4 6e3d 0d66 053d 7ef7 7dbd b8a8 c23c
000001e0: 2add 9bbd 691a 7cbc e2ca 863d d5cc dc3b
000001f0: 2e4f 783d 9f82 f13c 6bf9 56bc 8d43 1d3d
00000200: 6b2c 8b3d 39c8 0d3d 4fab 78bc fd83 b93c
00000210: e585 c1bd f0d8 d83c 0415 d13c 18fb a3bd
00000220: c116 8bbc eb72 1bbc 5d01 203d 04ad 953c
00000230: 385a 9fbc d35d c13b 1970 d2bc 35b4 1c3d
00000240: 9372 f9bc aca7 983d ccd1 353d a467 05bd
00000250: 447c 8ebc 5919 b23c 86b9 053c 8932 56bd
00000260: b660 c53b e525 7c3d 1652 9e3b 6c4e de3c
00000270: 604f 603d 9cd8 ac3d 40d6 4fbd b9c6 8fbd
00000280: 3363 a03d 7e89 023c 7e82 e33c f953 14bd
00000290: 64b0 953d 6f2e c73c 17bf 44bd 41f3 063d
000002a0: f109 43bd fdac a93d 9d73 bebc 075e 98bd
000002b0: aaca 783d 5736 ba3d a2da 5d3d 6756 0e3d
000002c0: f291 823d 705f edbc 2598 b3bd 9b08 2c3c
000002d0: 5157 aa3d 696b b6bc 80ce b13d 20dd 82bd
000002e0: 1129 c2bc e6e1 823d 4d60 bc3d 088f 5dbd
000002f0: 5527 97bc e410 983a 4931 8abd 0835 18bd
00000300: 0fce d2bc e783 bb3d b8d2 1fbd 40d2 56bd
00000310: 0d7d 5d3d c7f8 8c3d b71e b83d 7798 27bd
00000320: c3bc a83c eb03 533d 8d1f 3f3d c4fb b83d
00000330: 8dd4 bdbc 4e1a 7b3d f630 b03c 5c9a 7a3c
00000340: 36fb b63d 30a7 093d 074f 96bd b191 0bbd
00000350: e961 02bc 037a cdbb 910b 933d a3ef 963c
00000360: 552f 8bbd 92d7 9dbd 3489 9cbc 18eb 29bd
00000370: d5f6 43bd befd 5b39 1756 7d3c ef58 9b3c
00000380: 9b48 843d 5c09 703d 9d02 193d fc4a de39
00000390: ea44 68bd 201a a9bd ad36 2ebd 2134 66bd
000003a0: 59d5 463d 7c43 933c 74fe 3bbd d0b2 b63d
000003b0: e951 33bd 74fe 8fbc a45c 5b3d d5b1 963c
000003c0: e7d6 a43d d697 76bd ed0c 263d 3a22 7f3d
000003d0: 5a00 3a3c 9906 40bd 5fa3 8fbd 87a4 c23d
000003e0: f31b 4ebd c8d5 5c3a 51cc 41ba d3eb b2bb
000003f0: cead 74bd bd10 683d 337b 50bd f5a5 bbbb
0.043875642 -0.054890495 0.094726175 0.04303859 0.049405944 -0.026946234 -0.047780827 -0.04229247
-0.026606128 -0.064917594 0.06219364 0.012184017 0.057584077 -0.017803311 0.028697066 -0.014752857
0.07349628 -0.03489913 0.013358461 0.069615506 0.027756583 -0.028798252 -0.02436378 -0.043645583
0.034480732 0.037440196 -0.052602533 0.051560037 0.021908173 0.028998781 0.007916233 -0.051166713
-0.060461827 -0.041647043 0.080929875 0.059635643 0.016876403 0.08236608 0.055735555 -0.0709236
-0.0395363 -0.083082594 -0.0019548878 0.026119541 0.09640413 -0.047099408 0.021815127 -0.0546389
0.05712411 0.070248984 -0.06396169 0.02616467 0.013833063 -0.025256418 0.09706686 0.076320745
0.028938914 0.04078046 0.017269062 -0.06350895 0.026209973 -0.04461829 0.097878 -0.017468099
-0.04674079 0.07596713 -0.04912754 -0.064399846 0.018997993 -0.057030804 0.090665266 0.09203433
0.07255602 0.08020615 0.05085335 0.0910915 0.004762456 0.08482695 0.029710855 0.0058507873
-0.0077811773 -0.0916298 0.010425762 -0.046090942 -0.057224244 -0.07046484 -0.026048698 -0.015411987
0.024273066 0.028524674 0.064867474 0.014090999 0.006461758 -0.026160754 -0.080816984 -0.06675962
-0.012116264 -0.049045555 0.02319627 -0.046586916 -0.08212911 0.034129225 -0.085123606 0.012208232
-0.06200681 0.017910048 0.010882904 0.021056797 0.00030303682 -0.028021045 0.029107973 0.079577886
-0.083164975 0.0014382243 0.07897433 -0.03049868 0.05827733 0.032568026 -0.062003605 0.023762092
-0.07610543 -0.015387156 0.065816656 0.006738285 0.060622387 0.02948123 -0.013120989 0.0383945
0.067955814 0.034614775 -0.015177562 0.022645945 -0.094493665 0.026470631 0.025522716 -0.08006877
-0.016978623 -0.009487848 0.0390638 0.018270977 -0.0194522 0.0059010773 -0.025688218 0.038257796
-0.030450141 0.07453856 0.04438953 -0.032569543 -0.017393239 0.021740602 0.008161908 -0.052294288
0.0060234917 0.061559577 0.0048315628 0.027137004 0.054763198 0.084397525 -0.050741434 -0.07020325
0.07831421 0.007967351 0.027772184 -0.036212895 0.073090345 0.024314133 -0.0480338 0.03294683
-0.047616903 0.08284948 -0.023248488 -0.07439809 0.06074015 0.09092396 0.054163583 0.03475037
0.06375493 -0.028976172 -0.08769254 0.010500099 0.083174355 -0.022268014 0.08681965 -0.063898325
-0.023701223 0.06390743 0.091980554 -0.054091483 -0.018451372 0.0011601713 -0.06747682 -0.03715995
-0.025733022 0.09156018 -0.039019316 -0.052446604 0.054074336 0.06883388 0.089902334 -0.040916886
0.020597821 0.05151741 0.04666095 0.090323955 -0.023172641 0.061304383 0.021507721 0.015295591
0.089346334 0.033606708 -0.07339292 -0.03407449 -0.007957914 -0.0062706484 0.071799405 0.018424815
-0.06796137 -0.077071324 -0.019108392 -0.04148397 -0.04784282 0.00020979994 0.01546242 0.018963305
0.06459161 0.058602676 0.037356008 0.00042399007 -0.056706347 -0.08256936 -0.04253261 -0.056202058
0.048543308 0.017976515 -0.045896962 0.089208245 -0.043779287 -0.017577387 0.053555146 0.018395344
0.08048802 -0.060203396 0.04053967 0.0622885 0.011352623 -0.046881292 -0.070135824 0.09504037
-0.050319623 0.000842419 -0.0007392811 -0.0054602413 -0.059736066 0.056656588 -0.050898742 -0.0057265707
