backend/trained_models/KBL_GRU_model_state_dict.pth (torch, 607226 bytes, 9 tensors)

rnn.weight_ih_l0 f4 [384, 5]
000000 5d 3e af 3d 4c 00 7a 3d eb 22 27 3d 26 a7 cd 3d
       0.08556817 0.06103544 0.040804785 0.10041647
000010 97 4f bc bc 5c a5 89 3c 87 13 a7 3d c5 99 aa bd
       -0.02298717 0.016802482 0.081580214 -0.083301105
000020 66 ab 5d 3d 0d 6b 5c bd 7c 7a 81 3d 71 fd 81 3d
       0.054118536 -0.05381303 0.0632219 0.06347168
000030 f2 28 6e 3d c8 bb 92 bd 3f f9 0e bd 51 b7 af bc
       0.058144517 -0.07164723 -0.03490567 -0.021449717
000040 3e b2 96 3d 45 b3 89 3b fc cd c7 3d 95 d4 43 3b
       0.07358216 0.004202279 0.09756085 0.0029881347
000050 c5 1b bb bc 37 63 a1 3d ab 94 36 3d 21 14 08 3d
       -0.02284039 0.07880252 0.044575375 0.03322232
000060 eb d9 dd bc fa ab 23 3d 48 5f 52 3c 9a 3c 0b 3d
       -0.02708145 0.03995893 0.0128401 0.03399334
000070 bc dc ea 3c 62 dc a0 3d 9f ae a0 bc 70 f2 87 3c
       0.028669707 0.07854535 -0.019614516 0.016595095
000080 10 8f 03 3d 8e ed 04 3d 0a e1 8d 3d 37 b3 7a bc
       0.032118857 0.032453112 0.069276884 -0.015301517
000090 55 78 29 bd d2 44 e0 3c 0e 07 8a bb ea 79 90 3d
       -0.041374523 0.027376566 -0.0042122668 0.07054503
0000a0 73 bc 6d 3d 05 b3 07 3d 85 48 d2 3c 60 21 22 3d
       0.058041047 0.03312971 0.025669346 0.03958261
0000b0 1f 64 9c 3d 19 38 8f 3d dc 0e 43 3a 33 44 81 3d
       0.07636284 0.06993122 0.0007440874 0.06311836
0000c0 16 62 ab 3c c0 ce 64 3c cd f1 00 bd fc a1 b5 3b
       0.020920794 0.013965309 -0.0314806 0.0055429917
0000d0 e0 cf 9d bd 71 f6 cc 3c e1 61 8c bd 43 cc 44 3d
       -0.07705665 0.025019856 -0.068546064 0.04804636
0000e0 2c 94 50 3d 8e 7d 45 3d 0e 5d fb bb 2a b9 cd ba
       0.050922558 0.04821544 -0.007671005 -0.0015695442
0000f0 5a e8 cf bd d9 8d 2c bd ce 78 c0 bd 3b 2a b2 bd
       -0.101517394 -0.042127464 -0.09398042 -0.08699461
000100 27 67 1f 3d aa 61 3d bd 5c ca 9a 3c 5c 8b f6 bc
       0.038916733 -0.046235718 0.01889532 -0.030095749
000110 f3 2f 89 bd 0c 77 d4 3c 89 4c ec bd 23 74 80 bd
       -0.06698599 0.025935672 -0.115380354 -0.06272151
000120 9f 86 1a 3d 5f 2c 0c be 05 ca 95 3c 73 41 5b bd
       0.03772604 -0.13688801 0.018284807 -0.053529214
000130 34 ea 9b 3d 31 b1 6f 3d 72 06 f2 bc 77 be 0d bd
       0.0761303 0.058518592 -0.029544089 -0.03460547
000140 f4 34 8d bc 8f 56 96 bd 40 15 e3 bc c4 a4 e2 bd
       -0.017237164 -0.073407285 -0.027720094 -0.11066583
000150 ad 26 7e bd 90 d0 2a bd c9 b8 74 bd 67 5e 65 bd
       -0.062048603 -0.041702807 -0.059746537 -0.055998232
000160 61 96 b1 bc 36 5a 2b bd dd a7 c6 3c 32 63 c7 bc
       -0.021678152 -0.04183408 0.024249965 -0.024339292
000170 62 05 98 bd 6b c0 40 bd 58 97 25 3d c4 20 f2 3c
       -0.07422902 -0.047058504 0.040427536 0.02955664
000180 de df 67 3d fc 22 60 3d b1 75 6c bc 24 ac a2 bd
       0.05660998 0.054720864 -0.014432357 -0.079429895
000190 6a 0e 1d 3d 3a 92 8c bc 1f d0 49 3c f3 08 44 3d
       0.038343824 -0.01715957 0.012317686 0.047860097
0001a0 b2 ae 6a 3d 44 15 d5 3c 41 93 de 3c d5 4c b7 3c
       0.05729551 0.026011117 0.027169826 0.022375504
0001b0 da 0c 74 3d e9 58 50 bd 35 98 1b bd 6a 04 1e bc
       0.05958257 -0.05086604 -0.037986953 -0.009644607
0001c0 e5 aa 7c bd 0b 9e 9f 3d 08 f2 a2 37 26 0d 7a bc
       -0.061686415 0.07793816 1.942461e-05 -0.015261924
0001d0 4e 3f 80 bd e2 75 fb bc d2 9d 7f 3d 74 6e 21 3c
       -0.062620744 -0.03069586 0.06240637 0.009852994
0001e0 b2 19 73 bc ee c1 1b bd 6a 48 d9 3c a8 0c e1 3c
       -0.014837669 -0.038026743 0.026523788 0.027471855
0001f0 90 fe fc bb 88 69 66 bd 70 2c 8e 3c 4c 78 69 bc
       -0.007720776 -0.056252986 0.017355174 -0.014249872
000200 48 12 d6 3d 06 33 cf bc 17 a9 6a 3c 9f cc 6d 3d
       0.104527056 -0.025292885 0.014322541 0.05805647
000210 76 02 b0 3c 65 24 b3 bd 62 b0 75 3c 3f 5c 25 3d
       0.021485548 -0.08747176 0.014995666 0.040371176
000220 5e 80 91 3d 76 c0 10 3d 7b ec cb 3d 2c f7 94 3d
       0.07104562 0.035339795 0.099572144 0.07273707
000230 37 5b 32 bc 4e 8d 90 3d 29 b6 46 bd 7c 36 39 bd
       -0.010886005 0.07058202 -0.048513565 -0.045217976
000240 8d 9c c3 bc 0b e3 3f 3d c8 16 86 3d 80 74 16 bc
       -0.02387836 0.046847384 0.06547314 -0.009183049
000250 1a fe 38 3d 2f 1b fb bc 62 70 ab 3c 85 00 86 3d
       0.045164205 -0.03065261 0.020927612 0.06543068
000260 61 cc 08 bd 54 f6 04 3d 2a 56 9b 3d 7a 17 94 bc
       -0.033398036 0.03246148 0.07584794 -0.0180776
000270 d9 b3 9f 3d a4 73 21 3c 4e d9 c3 3d 2a 1d b0 bd
       0.07797975 0.009854231 0.09562932 -0.085993126
000280 7b 08 b0 3d a0 93 a8 3d 43 fb 8b 3d 83 1c c0 3d
       0.085953675 0.08231282 0.06835034 0.09380438
000290 80 5e 14 3d 6b 96 d9 3d c5 bc 94 bd 8b 36 93 3d
       0.036222935 0.10624393 -0.072625674 0.071881376
0002a0 5e ed ae bc 06 64 39 3d 14 fa ad 3c 76 4d ee bc
       -0.02135342 0.045261405 0.02123741 -0.02908967
0002b0 52 2a 2b bd de ec ba bd 31 12 ac bd c3 9a 22 3d
       -0.041788407 -0.0912721 -0.08401907 0.039698374
0002c0 3f 1f 03 3d 83 50 b4 3c ba c5 c6 3c ab f2 96 3d
       0.03201222 0.022011047 0.024264205 0.07370504
0002d0 78 1b 83 bd 69 85 e6 3c 37 f1 94 3d 73 ac 8c bb
       -0.064017236 0.028139787 0.072725706 -0.0042930185
0002e0 ce 79 5f 3d 59 20 76 3d 01 2d 4e 3d b2 99 99 bd
       0.05455952 0.060089443 0.050335888 -0.07500018
0002f0 7d fe af 3d e0 fc d6 3c 8b d9 f6 bb a8 04 cb bd
       0.08593462 0.026243627 -0.0075332574 -0.099129975
000300 3a 78 22 3d 85 15 5e 3c eb 66 93 3c f1 a7 ac 3d
       0.03966544 0.013554935 0.017993411 0.0843047
000310 c5 f4 cd bc 05 3f 60 bb d8 3b 8c 3c f8 bf 43 3d
       -0.02514113 -0.003421725 0.01711838 0.047790498
000320 56 25 f7 3c 61 69 71 bd 00 d0 93 3d f1 69 03 bd
       0.03016917 -0.058938388 0.07217407 -0.032083455
000330 7d 2c 49 bd 17 8b 0c 3d 2e 56 17 3d 59 2d 92 3d
       -0.049114693 0.034312334 0.03694742 0.07137556
000340 28 da 1e 3c b1 3b f7 bc 5e 75 aa 3d a8 59 1b bd
       0.009695567 -0.03017983 0.08323167 -0.0379273
000350 09 83 c6 3c 37 2c a1 3d 49 b4 0f bd f1 bb 8b 3d
       0.024232404 0.078697614 -0.035084043 0.06822956
000360 be 61 b1 bb 67 ea b3 3c 32 56 74 3c 4b 48 83 bd
       -0.005413263 0.021962358 0.014913129 -0.06410273
000370 ef 3e 1b 3d 44 50 93 bd c6 79 42 bc bd 02 70 bd
       0.037901815 -0.07193044 -0.011869853 -0.05859636
000380 42 b3 12 bd aa 97 82 bc 37 61 28 3c 43 1c 9f 3d
       -0.035815485 -0.01594146 0.010277084 0.07769062
000390 4d c9 e2 3b 10 41 ca 3c 1e 84 73 bd d9 d0 84 bd
       0.0069209696 0.024689227 -0.05945217 -0.06485147
0003a0 be 0a 0f 3d a9 d9 ae 3c 8a 7f 0b 3d 41 84 16 bd
       0.034922354 0.021344023 0.034057178 -0.03674722
0003b0 4c aa 6b bb d7 94 7e 3d 38 b0 87 3d 57 45 e1 3c
       -0.003595966 0.062153663 0.06625408 0.027498884
0003c0 80 ee b1 3d 97 0c 1f bd 8b 70 b7 3c 35 87 c2 3d
       0.086880684 -0.038830366 0.022392532 0.09498445
0003d0 de 71 fb bc 96 3e 1c bd c6 9b 83 bd a8 6d 78 bd
       -0.030693945 -0.038145624 -0.06426196 -0.06065145
0003e0 2d fa 2e 3d ca df b1 3c 4a 6a 25 bd 08 6c af bd
       0.042719055 0.021713156 -0.04038457 -0.08565527
0003f0 32 d2 09 bc 46 0c 4a 3d f5 c1 26 3b de f9 22 3d
       -0.008411931 0.04932811 0.0025445197 0.039789073

rnn.weight_hh_l0 f4 [384, 128]
000000 f9 64 34 3c 2c 5a 2f 3d 67 1c 2c 3d 99 c3 16 3d
       0.011010402 0.042810604 0.042019274 0.03680763
000010 6f bb d7 3d 1c bd 02 3d 20 50 3b bd 80 b0 58 bd
       0.10533797 0.03191863 -0.04573071 -0.0529027
000020 c0 c9 44 3c e9 65 38 3d 6d ea 44 3d be 10 5d 3d
       0.012010992 0.045019064 0.04807513 0.053971045
000030 50 7d ab 3d e8 fd ff bc a8 3a 47 bd c3 bc 47 bd
       0.08373511 -0.031249002 -0.048639923 -0.048764
000040 ca ab 2a 3c 5d b6 c1 bc b2 e6 3d 3d c9 66 60 3d
       0.010416934 -0.023646528 0.046362586 0.054785524
000050 a5 a7 78 3d 7e 2c 2f 3d 4d 5a 15 bd 9a 92 96 3d
       0.060706753 0.04276704 -0.03646307 0.07352181
000060 56 73 3a 3d c0 17 96 bd 30 d4 26 bc 0f 5a 56 3d
       0.04552015 -0.07328749 -0.010182425 0.05233198
000070 ae 26 67 3d 7b 87 f4 3c 3f e3 0a 3d c9 f1 33 3c
       0.056433372 0.029849758 0.033908125 0.010982939
000080 42 3d 49 bd 5b 41 83 3d 71 44 73 3c 14 17 a4 bc
       -0.049130686 0.0640895 0.014847861 -0.020030536
000090 67 14 22 bd 95 92 8c 3c 93 84 5b 3d 96 af b3 bd
       -0.03957024 0.01715974 0.05359323 -0.08773725
0000a0 44 a2 ab bd 49 5f 3b 3d db 88 a9 bc 42 9c 5f bd
       -0.08380559 0.045745168 -0.02069514 -0.05459238
0000b0 e7 d4 bc 3d 10 8f ae bd ad 0e 2f bd 7d c0 7d bd
       0.092202954 -0.08523381 -0.042738605 -0.06195115
0000c0 d8 7c a6 3d cb e6 cf bc b2 07 b0 3d d3 e5 96 bd
       0.08129281 -0.025378605 0.08595218 -0.07368054
0000d0 43 20 90 3d 6a 49 0b 3d af f5 d0 bc e7 d9 b6 3d
       0.070374034 0.03400556 -0.025507776 0.0892828
0000e0 a2 9b 97 3b 8f b5 bc 3d 95 80 b2 bc 63 8c 34 3d
       0.004626707 0.09214317 -0.021789828 0.044079196
0000f0 a4 dd 69 bd 45 53 60 3d d2 45 82 3d 44 29 2a 3d
       -0.05709614 0.054766912 0.063609734 0.04154326
000100 02 1f 92 3d f9 b3 19 bc 05 6f 51 bd ea c3 a0 bd
       0.071348205 -0.009381288 -0.051131267 -0.07849868
000110 42 0e 44 bc a2 25 91 bd 3e 82 27 bd a9 87 92 bd
       -0.01196629 -0.07087256 -0.040895693 -0.07154781
000120 f7 b2 b2 3c a8 b5 8d 3d 88 c3 b7 3d b9 28 16 3d
       0.021813853 0.06919414 0.089728415 0.03665993
000130 95 18 28 bd 65 b9 a5 3d c0 04 4b 3c fc 95 04 bd
       -0.04103907 0.08092002 0.012391269 -0.0323696
000140 6a 15 8a 3c 7f d4 88 3a b4 fe 90 3d 3c b3 9b bb
       0.016855914 0.0010439305 0.07079831 -0.004751591
000150 a4 81 b0 bd 71 17 f7 bc 92 a3 78 3d e8 67 ca bb
       -0.08618477 -0.030162545 0.060702868 -0.0061769374
000160 32 62 42 bd fc e7 27 bd fb d8 5b 3d 06 67 e8 3d
       -0.047456928 -0.040992722 0.053673726 0.11347775
000170 b1 ad 36 bd 16 bc b4 3d 0d df 82 3c 27 89 16 bc
       -0.04459924 0.08824937 0.0159755 -0.009187973
000180 b6 3a bd 3c 7a 04 fc 3c 71 a1 90 bd d4 75 54 bd
       0.023099285 0.030763853 -0.070620425 -0.051870182
000190 a3 df 78 bd 81 f1 c2 3c f2 7f 77 3c 85 be b6 3c
       -0.06076015 0.023796799 0.015106188 0.022307644
0001a0 71 d1 c6 3c ee 5f 21 3d f1 a8 98 3d ff 7d 66 3d
       0.024269791 0.039398126 0.07454098 0.056272503
0001b0 bc ba 9c bd c8 50 67 3c 34 67 80 3d 78 0e 7d bc
       -0.07652804 0.014118381 0.062696844 -0.015445344
0001c0 26 77 6b 3b 12 58 78 bd 89 c2 11 3d 48 70 1a bd
       0.0035929172 -0.060630865 0.035585914 -0.037704736
0001d0 aa b4 87 3d cb 82 98 bd 68 be 0f 3d ba 1d bc bd
       0.06626256 -0.07446822 0.035093695 -0.091853574
0001e0 f4 11 29 3c 3a dd 39 3d fa 9c 1b 3b 86 d4 50 3d
       0.010319222 0.045376994 0.0023744688 0.05098393
0001f0 5a 5e 3b 3d 1a fd b0 bd 1b 55 86 3d 40 c2 16 bd
       0.045744278 -0.08642025 0.06559201 -0.036806345
000200 8d 6e ae bd 61 9d 88 3d 06 ae b6 3d 11 3a 16 3d
       -0.0851718 0.06670643 0.08919911 0.03667647
000210 c2 8c 26 bd 0d bb 18 bd 1e 4d 07 3d dc 94 ae bc
       -0.04066158 -0.03728776 0.03303253 -0.021311216
000220 fa a0 be ba f4 0c 0f 3c c4 0e f9 3c 92 33 5c 3d
       -0.0014543824 0.008731116 0.030402549 0.05376012
000230 9e ae 03 3d 95 9f a0 3d 1c 2d 14 bc b5 b4 e6 3c
       0.03214895 0.07842938 -0.009043958 0.02816234
000240 39 7f 3e 3b 52 83 c4 bc b2 80 3b 3d 10 82 bc 3d
       0.002906753 -0.0239884 0.04577703 0.09204495
000250 77 a8 a5 3d c6 fe 07 bd 9f 1e 34 3c 84 b1 76 bd
       0.08088773 -0.033201955 0.010993629 -0.060227886
000260 5c 1c a7 3d 84 d6 8f bd f5 a1 de 3c 27 f1 3d 3d
       0.08159706 -0.070233375 0.027176837 0.04637256
000270 13 b6 d2 bd c4 83 7f 3c 75 40 e9 3c cf 42 14 bd
       -0.10288634 0.01559538 0.028473118 -0.036196526
000280 7c 87 af 3a ad c7 80 3b dd 33 70 bd ed 60 01 bd
       0.0013391818 0.003930053 -0.05864321 -0.031586576
000290 4b 81 42 bd 6c f8 29 bd cd 39 58 3c e6 ce 7c bd
       -0.047486585 -0.04149668 0.0131973745 -0.06172075
0002a0 ea a0 24 bb f7 01 33 bd fc 9f 2a bd 43 d7 fa 3c
       -0.0025120326 -0.043703046 -0.04165648 0.030620223
0002b0 44 d9 43 bd 51 91 39 bd 90 9d 9a 3d be 7e 36 bd
       -0.047814623 -0.0453046 0.07549584 -0.044554465
0002c0 89 df 54 3d f7 4d c5 bd dd 69 81 bd 77 e4 0e bb
       0.051970992 -0.09634011 -0.0631902 -0.0021803656
0002d0 41 28 c2 bc 68 4f ac bc a1 ea 90 bc c3 18 aa bd
       -0.023700835 -0.021033958 -0.017690005 -0.08305504
0002e0 c0 34 2f 3d 16 63 b9 3c e6 d0 a0 3d c2 11 b2 3d
       0.042774916 0.022630256 0.07852344 0.08694793
0002f0 3f 7a 7a 3d c4 77 51 bd 19 01 82 3d 96 23 45 3c
       0.06115174 -0.051139608 0.063478656 0.01203241
000300 e4 fe 41 3d c0 43 a2 bd 6f bd 8d 3d a4 13 07 3d
       0.047362223 -0.079230785 0.06920897 0.032977715
000310 50 c1 f1 bc 03 7b f9 3c 6b 26 9c 3d 91 e6 8f bc
       -0.029511124 0.030454164 0.07624515 -0.017565997
000320 bd 71 b1 bd 26 97 dd 3b 06 6e a2 3d 1f eb d5 bc
       -0.08664272 0.006762403 0.079311416 -0.026113091
000330 92 72 1a bd d0 ac 4f 3d 08 1f a1 b9 a3 a4 83 bd
       -0.03770692 0.050701916 -0.00030731433 -0.06427886
000340 8b 01 cb 3c 8d dc 00 3d cd 4e 0c 3d 9c e4 8f bd
       0.02478101 0.031460334 0.034254838 -0.07026026
000350 01 8f 41 3d b0 a0 42 bd 24 ed b9 bd a1 64 8d 3d
       0.04725552 -0.047516525 -0.09078434 0.06903959
000360 52 47 92 bc cb cb 26 3d 7e ff a2 bd 53 2c 93 3d
       -0.017856274 0.040721696 -0.079588875 0.071861885
000370 fd cb e1 ba 51 a4 79 bd 63 a4 74 bd bd f3 53 bc
       -0.0017226931 -0.06094772 -0.059727084 -0.01293653
000380 44 71 cb 3d 3f bb 95 3d 68 2c 60 ba c1 db b0 3b
       0.09933713 0.07311105 -0.0008551539 0.0053972905
000390 5c 67 42 bd c0 0e 6f 3d 57 92 8e 3b 24 4b 88 3d
       -0.047461852 0.058363676 0.004350941 0.06654957
0003a0 17 23 64 bd cf c1 b5 3d 3c 3c 65 3d 2c b5 8e 3d
       -0.055697527 0.08874857 0.055965647 0.069681495
0003b0 e7 d7 a4 bd 0d cf 43 bd 9a a9 1b bc 4c 53 5b 3d
       -0.080489926 -0.04780488 -0.009500885 0.053546235
0003c0 6b fc 8b 3d 6c ba 7f 3a 27 96 20 3c 7f 6c b1 bb
       0.06835254 0.0009755257 0.009801424 -0.005414545
0003d0 84 36 08 bc fa 10 2f 3b 85 e1 bc bd 82 5f 02 3c
       -0.008313779 0.0026713 -0.09222702 0.007957341
0003e0 20 1f ae bd 1e 55 6a 3c ae 86 4b bd ea 1c b0 bd
       -0.085020304 0.01430252 -0.049688987 -0.08599265
0003f0 b4 8b 38 3d 43 02 b6 bd e6 01 45 bd ba 3b 0e bd
       0.045055106 -0.0888715 -0.048097514 -0.03472493

rnn.bias_ih_l0 f4 [384]
000000 c0 a2 89 bc c8 35 c8 bd d9 02 85 bc 98 f7 1b bd
       -0.016801238 -0.09775883 -0.01623671 -0.03807792
000010 5c f3 76 3d 4a ee 7b 3d 2b 83 d2 bc 42 ba 3f 3d
       0.06029068 0.061506547 -0.025697311 0.04680849
000020 77 1c 86 3c 63 7a 61 3c b4 15 a8 3c d0 9a 9a 3c
       0.016370995 0.013762089 0.020518161 0.018872648
000030 f1 33 93 bd 7d 0e 5b 3d 5e 7f 69 3d 20 e2 b6 bd
       -0.071876414 0.053480614 0.057006232 -0.08929849
000040 fa fd b7 3d 01 ee d8 bd 00 12 98 bc eb 93 92 bd
       0.08983989 -0.10592271 -0.01856327 -0.07157119
000050 e7 c8 a4 bc 7b cf a8 b9 ef e6 c7 bd 6e fc b1 bd
       -0.020115329 -0.00032198042 -0.09760844 -0.08690725
000060 9e 99 79 bc c9 46 0e 3d 8d 1c c0 bd be 69 3b bc
       -0.015234379 0.034735475 -0.09380446 -0.011438785
000070 66 1e 8f bd 32 0f 8d 3d ff f9 a2 bc 1a aa df 3c
       -0.0698822 0.06887664 -0.019894598 0.02730279
000080 a6 21 71 bd 26 2d fd bc f3 f1 45 3d 2f 25 ef 3c
       -0.05886998 -0.030905318 0.048326444 0.029192535
000090 07 ba 3c bd 79 e8 84 3d b1 58 0b bd e7 15 9c 3d
       -0.046075847 0.06489653 -0.03402013 0.07621365
0000a0 f0 f5 73 bd 40 db 98 bd b8 67 27 bd a1 35 7d bd
       -0.059560716 -0.074636936 -0.0408704 -0.061818723
0000b0 28 90 4d 3d 23 38 f8 bc da 3f 51 3d 6e be a3 bd
       0.050186306 -0.030300206 0.051086284 -0.07995306
0000c0 92 4b 52 bd e0 f5 b6 3d 11 9a b2 bb 3d 14 29 bd
       -0.0513416 0.08933616 -0.005450495 -0.041279066
0000d0 48 f2 d6 bc 13 bf 80 bd 61 3b ca bc 67 d8 67 3c
       -0.026238576 -0.062864445 -0.024686517 0.014150715
0000e0 86 36 ea bc e3 7c b2 bd 0c f8 db bc 65 7f 13 3c
       -0.028590452 -0.087152265 -0.026851676 0.009002541
0000f0 16 5c 81 bd cb a2 57 3b 87 2b 87 bc a0 86 9e bd
       -0.06316392 0.0032903429 -0.016500248 -0.077405214
000100 1e 55 8a 3c 28 74 81 bd b7 87 10 bd 6d a3 b7 bd
       0.01688629 -0.06320983 -0.035285678 -0.08966718
000110 36 c3 26 3d ef 0a ac bd 01 dd 33 bd 43 ea 16 bc
       0.04071351 -0.08400523 -0.043911938 -0.009211126
000120 88 ba 5e bd 5a aa 63 3d bb ef e5 3c 0e 9f 22 bd
       -0.05437711 0.05558238 0.028068414 -0.039702468
000130 7b 6f 98 bd 57 fb 96 3d c6 8b fa 3b f7 6b 33 bd
       -0.07443138 0.07372158 0.007646057 -0.043804135
000140 65 16 6c bc af e9 3b bc 80 e4 bb bd 7d c9 07 3c
       -0.014409636 -0.011469289 -0.09174442 0.008287785
000150 7c ef a1 bd 1e 39 06 bc 43 6b 2c bd 1f a6 9f bd
       -0.07907006 -0.008192329 -0.04209448 -0.07795357
000160 1e e5 79 bd 0d 67 18 3d d1 78 3a bc cf 01 a3 bd
       -0.06100952 0.037207652 -0.011381344 -0.07959329
000170 c2 15 63 bd e4 dc d4 bc fd 5d db 3c 51 7e af bc
       -0.05544067 -0.025984235 0.026778216 -0.021422537
000180 9e 59 a4 bd ad 50 26 3d b4 38 10 3b b6 35 61 bc
       -0.080249056 0.040604282 0.0022006454 -0.013745716
000190 59 c7 c8 bc 60 d8 6d bd d5 fe 8b bd a5 d2 56 bd
       -0.024509119 -0.05806768 -0.06835715 -0.05244698
0001a0 7f 09 b1 3d 24 49 86 bc 83 19 5c 3d 83 a7 0e bc
       0.08644389 -0.016392298 0.053735267 -0.00870693
0001b0 a0 d2 7c bd b9 9d f3 bc 7f d8 25 bd 5b a4 24 bd
       -0.061724305 -0.029738294 -0.04048967 -0.040195804
0001c0 7a d6 5a bd 34 ad af 3c 61 7d 52 3d 80 b6 3f 3d
       -0.053427197 0.021444894 0.051389102 0.046804905
0001d0 6f ef 8d 3d 5c 81 0b bd 30 12 57 bd d5 c9 70 3d
       0.06930434 -0.034058914 -0.05250758 0.058786232
0001e0 98 f4 93 bd 3a e9 a9 3b f5 b0 58 3c 68 20 40 bd
       -0.07224387 0.0051852735 0.013225784 -0.046905905
0001f0 1c 6f ec 3c 54 78 76 3d df 36 98 3d 68 30 07 bd
       0.028861575 0.060173348 0.07432341 -0.03300515
000200 91 1f 98 bd c7 da 44 bc 3b b9 d8 3a 84 26 87 bd
       -0.07427896 -0.012015051 0.0016534695 -0.06599143
000210 72 f9 43 3d 9f 8c 41 3d a2 6a 1c bd f9 63 88 3d
       0.04784531 0.047253247 -0.03818763 0.06659693
000220 d0 42 a3 bd d4 0d cf bd 67 7f a3 3c 14 5c 77 bd
       -0.07971728 -0.101100594 0.019958211 -0.060390547
000230 8f 57 a9 3a 22 4f 3b bb 94 f9 09 bc 97 2e e4 bd
       0.0012919771 -0.0028581102 -0.0084213205 -0.11141699
000240 94 33 a2 3b 51 89 f5 3d 65 a9 af bd 62 b6 a0 3d
       0.0049499962 0.11989082 -0.08577231 0.07847287
000250 3b 7f e5 bd 35 6a 4a bd 7b 0c ad bd 39 e1 b9 bd
       -0.11205908 -0.049417693 -0.08449646 -0.09076161
000260 e8 a8 c6 bd f2 77 a4 bd 44 af 03 bc 1d 46 16 3d
       -0.09700185 -0.0803069 -0.008037392 0.03668796
000270 7d c9 63 3d 1d d7 7a bd 88 4d 2f 3d c0 cb 25 bc
       0.055612076 -0.061240304 0.04279855 -0.010119379
000280 ba 6a 18 bd f6 1f 9f bd 1f 6a 04 be 29 dd 86 bd
       -0.037211157 -0.07769768 -0.12931107 -0.06585152
000290 f2 0d 21 bd 3f 49 97 bb 30 c4 c8 bb e4 d0 89 bd
       -0.03931994 -0.004616886 -0.006126903 -0.06729296
0002a0 76 9d 8b 3c 8d 86 da bd 41 2f b1 bd 77 6e c7 bd
       0.017042857 -0.10670195 -0.08651591 -0.09737866
0002b0 1a 9b bb bd 30 d4 d0 bd 48 8a b8 3b 3d 38 a2 bd
       -0.09160443 -0.101967216 0.005631719 -0.07920883
0002c0 01 d8 9e bd d3 93 da 3c a2 83 4f 3c 5d 5d d2 bd
       -0.07756043 0.026681816 0.012665661 -0.10271714
0002d0 4a 53 86 bd dc 2b 6d bb 33 4c 2d bd 4f b0 28 bd
       -0.06558855 -0.0036189472 -0.042308997 -0.041183766
0002e0 c9 b0 7e bd 3c 94 f7 bd 09 50 fa bd 7c 8c b3 bd
       -0.062180314 -0.1208882 -0.12222297 -0.0876703
0002f0 e9 80 f5 bd a0 00 82 3c 14 6b 73 bd 63 de 92 bd
       -0.11987478 0.015869439 -0.05942829 -0.07171323
000300 ff b7 c7 bd fa 83 30 bd c2 15 b7 bc f5 cc 41 bd
       -0.09751891 -0.043094613 -0.022349242 -0.047314603
000310 e1 e7 a6 bd 9f f5 e4 3d 6d 68 0d be b3 39 0b be
       -0.08149696 0.11179661 -0.13809367 -0.1359623
000320 2c f4 80 bb 01 3b 60 3c 65 da bf 3d 03 99 06 be
       -0.0039353576 0.013685943 0.09367827 -0.13144307
000330 76 3a 5d bd 89 9c e7 bd 3b 44 44 bd f8 8b 9d bc
       -0.05401083 -0.113091536 -0.047916632 -0.019231781
000340 d5 48 df 3c 8f 2e 26 bd 8f 1a 13 3e 55 a0 45 bd
       0.027256409 -0.040571745 0.143656 -0.048248608
000350 19 60 02 be 45 e7 9f bd 65 32 a2 bd cf 1a fa bd
       -0.12731971 -0.07807783 -0.07919768 -0.122121446
000360 62 57 fc 3c 0a 1f a8 bd d0 3f d9 3c 48 dc b5 3d
       0.030803386 -0.08209045 0.026519686 0.08879906
000370 c2 93 b1 3c cf 85 ad bd 8d cb f8 bc 97 b4 50 bd
       0.021676902 -0.084727876 -0.030370498 -0.050953474
000380 5d f0 fb bd cc 06 25 be 43 60 8d 3c 57 a5 61 bd
       -0.12301705 -0.16115874 0.017257815 -0.05508932
000390 13 5b 0a bc b1 be 81 3c 21 38 32 3b 0e f2 cd bc
       -0.008444565 0.015837999 0.00271941 -0.025139835
0003a0 24 e7 7b bd 07 37 82 bc e4 05 e9 bd 2d a4 c6 bc
       -0.06149973 -0.01589538 -0.11378077 -0.024248207
0003b0 09 47 27 bd dd e3 ba bd 37 e1 22 be 96 11 dc bc
       -0.04083923 -0.09125493 -0.15906225 -0.026863854
0003c0 f1 d2 b2 3d 50 76 36 bc 31 4c fb bd a4 42 bc bc
       0.0873164 -0.011136606 -0.12270392 -0.022980995
0003d0 a7 82 f9 ba ea a0 a4 bd 68 dd a0 bc cb 6c 9c bd
       -0.001903613 -0.080385044 -0.019636825 -0.07637938
0003e0 08 e3 1f bd 08 dc 1c bd 3d fc 0a be 14 65 61 bd
       -0.039034873 -0.038295776 -0.13572784 -0.055028036
0003f0 33 b7 8f bd fd 1d f1 bb a3 dd 7a bd 8a 98 31 bd
       -0.07017364 -0.007358311 -0.061246525 -0.043358363

rnn.bias_hh_l0 f4 [384]
000000 56 08 f7 bc fd a5 80 bd 18 d5 89 3d fa 0f 0a bd
       -0.030155342 -0.0628166 0.067300975 -0.033706643
000010 24 ee 41 bd d4 e0 66 3d 98 8b cf bd 98 d3 41 3d
       -0.04734625 0.056366757 -0.10134047 0.047320932
000020 8c 9c 86 3a 96 3d 99 3d 87 6a c0 bd 3b 50 bc 3b
       0.0010270043 0.0748245 -0.093953185 0.005746869
000030 59 34 89 3d 3d a9 4e bd 0b ef 57 3d f1 84 23 bd
       0.06699438 -0.050454367 0.052718204 -0.039921705
000040 2b 61 13 bd 6f c6 53 bd ab fd 01 bd ce 0a b3 3c
       -0.03598134 -0.051702913 -0.031736057 0.021855738
000050 11 2b 0d bd b2 b1 7c 3d a5 0a 4b 3d be 1e 59 3b
       -0.0344649 0.0616929 0.0495707 0.0033129896
000060 58 a3 57 3d 54 c4 89 bd 34 ab 5b 3d 16 c1 7d bd
       0.05264601 -0.067269 0.05363007 -0.06195172
000070 94 15 81 3c c4 2e 10 bd 40 a9 c3 3c 7a 96 d6 3c
       0.01575736 -0.03520085 0.023884416 0.0261948
000080 43 6c 98 3d 4a 43 f3 3c 32 ea 65 bd 1d f5 23 bd
       0.07442524 0.029695172 -0.05613155 -0.04002868
000090 dd b5 99 3d d4 de 37 bd 17 66 91 bd 10 26 ef bc
       0.07505391 -0.04489024 -0.0709955 -0.029192954
0000a0 5a 60 9f bd cd aa f1 3c e8 ef 62 bd bf c6 3d bd
       -0.077820495 0.02950039 -0.055404574 -0.046332117
0000b0 70 90 42 bd f7 3b 75 bc 57 90 22 3c 42 f4 d3 bd
       -0.047501028 -0.01496791 0.009922109 -0.10349323
0000c0 d7 d5 b6 3d 21 07 a3 bd 41 9e 2f bc 16 aa cb 3c
       0.089275055 -0.07960344 -0.010718883 0.024861377
0000d0 d6 b0 81 3c ec 7f 68 bd 06 21 88 3b 58 1a 8c bd
       0.015831392 -0.05676262 0.0041543273 -0.06840962
0000e0 29 8c 1e bc 77 8e c0 3c a8 6e 07 3d 7a ce 09 3d
       -0.0096769715 0.023505433 0.033064514 0.033644177
0000f0 cd 52 62 3d 69 77 a0 3c 02 5b 19 3d 15 11 bb bd
       0.055254746 0.01958819 0.037440307 -0.091341175
000100 cc 72 f3 3b 49 d2 95 bd ce f3 8f bd 4b e9 04 bc
       0.0074294563 -0.07315499 -0.07028924 -0.008112262
000110 82 c1 7e 3d f5 97 85 3d 42 6e 0c 3d cc f0 60 3c
       0.062196262 0.06523124 0.034284838 0.013729285
000120 2d 96 11 bd 0b 6b 92 3c 0f a9 b9 bd 1c cb 8a bd
       -0.03554361 0.017873308 -0.090654485 -0.06777021
000130 87 a1 dc bb 30 6c 53 3d 78 21 a9 3d 60 fc ba bd
       -0.0067331227 0.051616848 0.08258337 -0.09130168
000140 c6 42 e8 3b 0d 7c cb 3c 9d cb 8f bd 3e 37 1c bd
       0.007088038 0.024839425 -0.07021258 -0.03813862
000150 c0 98 56 bd bb a8 47 bd c4 73 74 bd f3 74 5f bd
       -0.052391768 -0.0487449 -0.059680715 -0.05455489
000160 43 e4 94 3d 89 6f cf bd 06 81 89 3d c5 8e 9e bd
       0.072701 -0.101286955 0.067140624 -0.07742075
000170 72 9a ae 3b 40 93 58 bd e2 6c 2d bd a4 ce 4a bd
       0.00532847 -0.052874804 -0.042340167 -0.049513474
000180 33 66 22 bc a2 b3 81 3d ca ba a1 bb f4 ad 03 bd
       -0.0099120615 0.0633309 -0.004935597 -0.032148317
000190 5f 9c 30 3d 91 97 7e bc 42 bc b5 3d 84 87 38 bd
       0.043117877 -0.015539066 0.08873798 -0.045051113
0001a0 e5 99 03 3d 9b c2 b5 bd fd f6 b7 3c 93 3a 7e 3c
       0.032129187 -0.08875009 0.02245664 0.015516895
0001b0 5c d1 39 3c f4 d7 8e 3d 46 03 c5 bd 93 c9 fc 3c
       0.011341419 0.069747835 -0.09619765 0.030857837
0001c0 15 41 1f 3d 36 77 45 bd 30 ac 32 bd 36 05 25 bd
       0.038880426 -0.04820939 -0.043621242 -0.040288173
0001d0 56 2d 05 bd c8 c6 66 3d 16 0f 97 bd db 66 f2 3b
       -0.03251394 0.056341916 -0.07375924 0.0073975152
0001e0 13 d1 85 bd b1 82 18 39 9e 2f a3 3c b2 22 82 bd
       -0.06534018 0.00014544536 0.019920167 -0.06354274
0001f0 34 e6 e0 bc 40 4f 56 bc ec 4a b5 39 da e5 af 3d
       -0.02745352 -0.013080418 0.0003457883 0.085887626
000200 42 51 9f bd a7 38 b9 3b 89 d5 57 bc ba 46 e7 bd
       -0.077791706 0.0056525054 -0.013173469 -0.11292787
000210 fb 32 0d bb fe 24 9c bd 47 b1 13 3d 74 a6 40 bd
       -0.002154528 -0.07624243 0.036057737 -0.047033742
000220 5b 5c cf 3b 8d 66 00 be 06 2b ab 3d 07 77 0d be
       0.0063281483 -0.1253912 0.083578154 -0.13814937
000230 c7 94 8a bc 79 be bf 3d f4 6a 94 bc 14 9d ad bd
       -0.016916646 0.09362502 -0.018117405 -0.08477226
000240 d1 f6 16 3d 3b 6b de 3d 78 5b ba bd 52 eb 27 bd
       0.036856476 0.10860296 -0.090994775 -0.040995903
000250 7b 39 4c 3d fe 4d e3 bd 4b 3f ab bd d6 55 23 3d
       0.049859505 -0.1109886 -0.083616816 0.03987678
000260 1f 65 08 be e9 42 2d bd d2 3d 03 be bf 6a 95 bd
       -0.13319825 -0.04230014 -0.12816551 -0.07295751
000270 85 bb 91 3d 26 01 ae bd 3c 78 d7 3c 64 3a 8d bc
       0.07115845 -0.08496313 0.02630245 -0.017239757
000280 58 d1 60 bd 81 d9 c2 bb a2 7a d9 bd d5 76 ce bd
       -0.054887146 -0.0059463386 -0.106190935 -0.10081259
000290 9e 8f ea bd 99 39 28 3d fa 6c 0e bd 10 aa 71 bd
       -0.11453174 0.041070554 -0.034771897 -0.059000075
0002a0 ed c2 a0 3d 73 77 38 3c 86 b1 bf 3c f3 ab b5 bd
       0.07849679 0.011258948 0.02340008 -0.08870687
0002b0 b5 f2 11 be bf 29 b7 bd 28 b3 ec bd 90 fa cb ba
       -0.14252742 -0.08943509 -0.11557609 -0.0015562344
0002c0 09 05 1f be 3c 1c c7 bc 01 83 02 3d 66 37 0f be
       -0.15529265 -0.024305455 0.031863216 -0.13985977
0002d0 cc 7b 27 be b2 c8 8a bd 94 3b 74 bd a9 b9 0f bd
       -0.16355819 -0.06776561 -0.05962713 -0.03508917
0002e0 e3 7d 3b bd ba 23 4a bc b3 00 7c bd 35 9a da bd
       -0.04577435 -0.012337619 -0.061524104 -0.10673944
0002f0 3a df 2c bd 92 50 7c bd de b2 84 bd ca b0 b6 bc
       -0.042205073 -0.061600275 -0.06479429 -0.022301096
000300 cd 8d 16 bd 87 49 e8 bd ef b7 23 be 7d 37 3a 3c
       -0.036756326 -0.11342149 -0.15988134 0.0113657685
000310 96 d7 be 3c de e3 49 3d 3c f6 1a 3c 35 69 18 bd
       0.023296159 0.049289577 0.009458121 -0.03720971
000320 39 55 e9 3c 89 fb b2 bc a5 1d ad 3d 91 ec 98 bd
       0.02848302 -0.021848457 0.0845292 -0.074669965
000330 b9 9f 41 bd bd 25 17 bd 6c 29 08 bd 7e 9a 9c bd
       -0.047271464 -0.036901224 -0.033242628 -0.076466545
000340 fb 92 f0 bd 31 89 1e be d6 9a 1d 3d d1 f2 45 3b
       -0.11746784 -0.15482022 0.03847774 0.0030204544
000350 00 e9 cb bc dc 18 ac bd 71 0f e9 bc 13 d7 07 bd
       -0.024891376 -0.08403179 -0.028449746 -0.033164095
000360 a8 95 b1 3c 7a 93 83 3b 60 9a 49 bc 7b 49 19 bd
       0.021677807 0.0040153833 -0.012304872 -0.037423592
000370 79 2e 96 3d 0b 25 21 bc 55 5e b9 bd ed 2e 8c 3c
       0.07333083 -0.009835492 -0.090511955 0.01711222
000380 3c 38 46 bd 7b e3 86 bc 86 d2 30 3c 3b 19 99 bd
       -0.048393473 -0.016465893 0.01079238 -0.074755155
000390 2a 47 18 bc a0 7c d9 bd 30 95 97 bd 73 c0 f7 bd
       -0.009294311 -0.106194735 -0.07401502 -0.12097254
0003a0 3b 6a 81 bd 7e ec f4 bd 71 61 bf bd cb 37 83 bd
       -0.0631909 -0.1195917 -0.09344757 -0.06407126
0003b0 f2 a5 65 bd d2 0d 4a bd d7 4e 8d bd 18 60 ff bc
       -0.05606646 -0.049329586 -0.06899803 -0.03117375
0003c0 ac 69 d8 3d 84 19 05 be 06 ed 6d bc 8b 2c 83 bd
       0.1056703 -0.12998015 -0.014521843 -0.0640498
0003d0 c6 fa 7e bd 3d 86 e6 bd 8d d2 42 3d 4b fc 05 bd
       -0.062250875 -0.11256073 0.047564078 -0.03271131
0003e0 fb f2 92 bc 3e 5b b1 3c 4a b3 9e 3c cc c6 a8 bd
       -0.017938128 0.021649953 0.019372601 -0.082410425
0003f0 e1 31 0c 3a 59 f7 8a bc 6e 05 f4 3c 0e ae 42 bd
       0.00053480087 -0.016963648 0.029787745 -0.047529273

rnn.weight_ih_l1 f4 [384, 128]
000000 5c 07 91 3d 07 27 5d 3d 09 80 92 3d d0 f4 b7 bb
       0.07081482 0.053992298 0.07153327 -0.0056139007
000010 8a e1 69 bd 2d 9f 6a 3d 85 76 52 3d fc e0 91 3b
       -0.057099856 0.057280708 0.05138256 0.004451869
000020 58 a2 39 3d 5c 92 93 3d 79 55 62 bc e9 51 6a bd
       0.04532084 0.0720565 -0.013814324 -0.05720702
000030 fc 31 98 bc 12 c5 7b 3d 47 3d 1c bc 11 97 2b 3d
       -0.018578522 0.061467238 -0.009536094 0.041892115
000040 9c ea 93 3d f0 6f 83 bd 41 7b fe bc a7 52 ad 3c
       0.072224826 -0.06417835 -0.031064631 0.021157576
000050 0b 87 13 3d 7d 77 7c 3d 26 1c 53 bd 61 51 42 3d
       0.03601746 0.06163739 -0.051540516 0.04744089
000060 47 bb 40 bd c4 05 42 bd 83 99 d9 3c 17 97 9b 3d
       -0.0470536 -0.04736878 0.026562458 0.075971775
000070 a7 7a a7 bc 48 c7 07 3d c5 1d c1 bd 48 c5 d1 3b
       -0.020444227 0.033149034 -0.09429506 0.0064016916
000080 90 03 65 bd b1 fd 74 bd 35 da 2d 3b a0 42 70 bd
       -0.0559116 -0.05981225 0.0026527767 -0.05865729
000090 d4 b3 3c 3d da 00 7b 3b 0b 15 90 bc 6d 05 72 3d
       0.046069935 0.0038300068 -0.01758816 0.059087206
0000a0 13 ad b8 bd bb 53 0b 3c cb 50 43 bd 61 68 6a bd
       -0.09017386 0.00850385 -0.047684472 -0.05722845
0000b0 1c 4a 0a bd a7 0e 90 3d 7e 27 31 bc 4e 0f 36 bd
       -0.033762082 0.07034045 -0.010812638 -0.04444819
0000c0 cf 4a d9 bb 87 7f 2e bd 45 c5 5e 3d 85 83 e6 bc
       -0.0066312323 -0.04260209 0.05438735 -0.028138885
0000d0 be ec 28 bc d9 6c 55 3d 2c cc a8 bc b4 58 9c bd
       -0.01031035 0.05210576 -0.02060517 -0.07634106
0000e0 05 f0 57 3d c4 aa 97 bd b2 60 ab 3b 2b ba 08 ba
       0.052719135 -0.07405618 0.005230033 -0.00052157295
0000f0 7a 2b b5 3d 50 f9 27 3d aa 37 55 bc b7 3a 4a bc
       0.08846183 0.041009247 -0.01301376 -0.0123431
000100 20 89 23 bd e9 85 16 3b bd 1b 58 3c ff 72 0f 3d
       -0.039925694 0.0022968 0.013190207 0.03502178
000110 9e 9b 98 bd b5 cf ef bc 94 87 77 bc a2 f0 b7 39
       -0.074515566 -0.029273847 -0.015108008 0.00035083765
000120 a6 c8 1c 3d 0f 55 c4 3d bf c4 9f bb 9b 8f 80 bd
       0.03827729 0.09586536 -0.004875749 -0.062773906
000130 e1 fc 0e 3c dc 94 6d 3d c9 4b bf 3c b2 a9 06 3d
       0.008727283 0.05800329 0.023351567 0.032876678
000140 b0 67 d7 3c 42 13 9e 3d 68 c2 b4 bd 2f 06 6e bd
       0.02629456 0.07718517 -0.088261425 -0.058111366
000150 ee 3d 87 bd 11 6f 2a bd c6 00 d0 39 03 94 8c bd
       -0.06603609 -0.041609827 0.00039673428 -0.068641685
000160 ba 09 66 bd 7f 79 f3 3c 14 c3 87 3d 0b dc 3f bc
       -0.05616162 0.02972102 0.06629005 -0.011710177
000170 4d 3b 80 bd 80 83 c0 3c bb fa e1 bc 82 03 da 3d
       -0.06261311 0.023500204 -0.027585378 0.106452
000180 ed 01 8e bd 2c 4a 74 bc db 39 3e bd 7a 6b 99 3d
       -0.06933961 -0.014910262 -0.046441894 0.07491203
000190 d2 43 cd 3c b5 90 0b 3d 5a d5 0a 3d 25 68 26 b9
       0.025056753 0.03407355 0.033894874 -0.0001586979
0001a0 7a 45 af bd e7 bb 8a 3b 06 bc c4 bc c1 17 aa bd
       -0.085581735 0.0042338255 -0.024015438 -0.08305312
0001b0 0f e4 92 3d e9 97 54 3d 1b 6c 8e bd fb 73 83 3d
       0.07172405 0.051902685 -0.06954213 0.06418606
0001c0 01 91 1d 3d a8 da 81 3d 8e 48 6a bd a1 1f 9d bd
       0.038468365 0.063405335 -0.0571981 -0.07672048
0001d0 ee e9 fe 3c 87 50 8b bd dd 4f ee 3d 79 93 21 bd
       0.031117406 -0.06802469 0.116363265 -0.03944728
0001e0 7c 73 ca 3d 29 7a aa bd aa 62 54 3d 9a 75 74 3b
       0.09885308 -0.083240815 0.051851906 0.0037301541
0001f0 73 38 70 bd fa 5e f1 3d 84 53 15 b8 4f 8a f8 bb
       -0.058647584 0.117856935 -3.560215e-05 -0.007584847
000200 29 38 b9 3d 4a a3 6f bd 1c 17 4b 3d 2d 82 43 bd
       0.09043915 -0.058505334 0.049582586 -0.047731567
000210 97 d3 6c 3d fd a5 a0 3d 78 e7 93 bd 93 92 4b bc
       0.057818975 0.0784416 -0.072218835 -0.012425083
000220 8f ef 3e bb 16 77 a6 bd 63 f3 6e bd 06 3b 85 bd
       -0.0029134487 -0.081281826 -0.05833758 -0.065053985
000230 d3 24 01 bd 5f c9 82 3c 3b 0d 8a bd b4 f8 ca 3d
       -0.03152926 0.015965162 -0.06740805 0.099107176
000240 88 0a 14 bc d9 d2 a5 3d a1 f9 c7 bd 04 91 32 3d
       -0.009035714 0.080968566 -0.0976441 0.04359533
000250 01 2c a0 bd 0e be 18 3c 8f 39 3d 3d 4e 63 e9 3c
       -0.07820893 0.009322656 0.04619747 0.028489735
000260 d1 56 e3 bb 8e 13 96 3d 97 6a 6c bc 57 db 68 3d
       -0.0069378396 0.073279485 -0.01442971 0.056849804
000270 47 56 02 ba c0 b8 ac 3b 15 90 68 3d 5b 35 3f bd
       -0.0004971963 0.0052710474 0.056778032 -0.046681743
000280 63 ab 79 3d 46 1a 9d 3c 00 f2 c8 bc 21 17 e4 3b
       0.060954463 0.019177567 -0.024529457 0.006960765
000290 56 0d 33 bd 72 b9 80 3d d8 24 92 3d fd a3 62 bd
       -0.04371389 0.06285371 0.07135934 -0.055332173
0002a0 91 ce 26 bd bb 75 97 bd f8 dd d9 bc b9 2a 92 3d
       -0.04072434 -0.07395502 -0.0265951 0.07137055
0002b0 5e c7 49 3c 94 41 60 bd 75 14 5e 3c 65 5f a7 bd
       0.012315599 -0.05475004 0.013554682 -0.08172492
0002c0 e9 7e c9 bd 2e 1b 2e bd df 79 75 3d 13 71 61 bd
       -0.09838659 -0.04250639 0.05993068 -0.055039477
0002d0 9a a8 73 bd 69 b6 41 3d ed 0b a1 bc bb 7a a7 3d
       -0.059486963 0.0472931 -0.019659007 0.08177706
0002e0 86 82 e4 bc c3 11 12 bc 67 f5 87 3d 44 c0 93 3d
       -0.02789427 -0.008915368 0.06638604 0.07214406
0002f0 d3 98 3e 3d e6 98 7c 3d 37 f1 27 bd 9b b9 8b 3d
       0.046532463 0.061669253 -0.041001525 0.06822511
000300 74 2f 95 3d 3b 76 a8 3d 15 b3 14 bb e5 49 2d bc
       0.072844416 0.08225676 -0.002268975 -0.0105767
000310 72 32 27 3d ea a9 17 3b ed f2 6f bd 57 bd 93 3d
       0.040819593 0.0023142048 -0.05858128 0.07213848
000320 37 26 94 3c cf e2 a8 bc 6a c0 1d bd 70 41 8b bd
       0.018084629 -0.020615963 -0.03851358 -0.067995906
000330 dc b3 70 bd 49 4a e8 3c ea 92 78 bd 8c b2 a6 3d
       -0.058765277 0.028355734 -0.060686983 0.08139524
000340 dd b9 5f 39 9c 31 56 3c b0 52 0d 3d 55 ba e6 bc
       0.00021336177 0.013073351 0.034502685 -0.028165022
000350 3d 94 a8 bd 04 88 b2 bd 07 ba 7e 3c 85 f4 12 bd
       -0.08231399 -0.08717349 0.015547282 -0.035877723
000360 3d 78 9d 3d f1 e8 b0 3d 80 b6 36 bd e7 f3 3f bc
       0.07688949 0.0863818 -0.04460764 -0.011715866
000370 12 51 94 3c 5e 9b 3a bd 58 c4 82 3d 21 d2 04 bd
       0.018105064 -0.045558326 0.06385106 -0.032426957
000380 60 35 c1 3b 85 88 9e 3c cc 20 19 ba 01 30 90 3d
       0.0058962554 0.019352207 -0.0005841374 0.07040406
000390 d0 19 03 bc 88 c2 32 bd 1d 1e 34 bd ae e3 f0 3c
       -0.00800176 -0.04364255 -0.04397403 0.029405441
0003a0 3e 16 e7 bc 55 1d c7 3c fe da e3 bc b5 26 c0 3c
       -0.028208848 0.024305979 -0.027814385 0.023455957
0003b0 14 20 8f 3c b0 0e c8 bd e3 61 ce 3d 72 75 7a bd
       0.01747135 -0.097684264 0.10077264 -0.06114716
0003c0 7c af 33 bd ce 89 ac 3c 1c 0f 09 bd 8a 4d 69 bd
       -0.043868527 0.021061804 -0.033461675 -0.056958713
0003d0 7a ce 37 3d 4c b8 bd bd a5 dd d3 39 5b e0 7c 3c
       0.044874646 -0.092636675 0.00040410194 0.01543435
0003e0 a5 28 35 bd 47 55 9c bc 97 0a 4b 3d 69 ad 81 3d
       -0.044228215 -0.019083632 0.049570646 0.063319035
0003f0 61 57 bf bb 39 8c d1 bd d4 60 ab bc cc fa 4b 3d
       -0.005839274 -0.102318235 -0.020920195 0.049799725

rnn.weight_hh_l1 f4 [384, 128]
000000 33 25 47 3d 03 c0 be 3d 26 e2 80 3d f3 d3 4e 3d
       0.04861946 0.09313967 0.062931344 0.0504951
000010 e9 10 84 bd 40 f6 8a bd 2e 97 6a bc 8b ea 96 bd
       -0.06448538 -0.0678525 -0.014318271 -0.07368954
000020 54 7c 19 3c 58 40 4b 3d 1c 44 7f bd e2 51 92 3a
       0.009368021 0.04962191 -0.062320814 0.0011163319
000030 68 61 a5 3b 72 42 8c bd a3 7c 39 bc 4a 16 89 bc
       0.005047012 -0.06848611 -0.01132122 -0.016734261
000040 2c 80 3c 3c b4 3b 20 bd 9d df 8c bc a8 9c fa bb
       0.011505168 -0.039119437 -0.01719647 -0.0076480694
000050 62 1f 29 bd d1 67 1a bd 78 a5 3a bd 78 c6 a5 bd
       -0.041289695 -0.037696663 -0.04556796 -0.080944955
000060 21 bf 3e 3d 20 7c c5 bc ca 23 a7 3d c3 39 47 bd
       0.046568993 -0.024107039 0.08161123 -0.04863907
000070 16 f1 6f bd 0e 64 af 3d 75 65 12 bb e8 b1 0e bd
       -0.058579527 0.08564006 -0.0022338305 -0.034837633
000080 e3 b7 77 3d 4c 29 f8 bc 2f 61 a5 bd a9 f1 8a bd
       0.060478102 -0.03029313 -0.08075177 -0.06784374
000090 e4 4c da 3c 36 47 34 bd d7 fb 84 3c 4a f0 22 bd
       0.026647992 -0.044013225 0.016233368 -0.03977994
0000a0 30 28 00 3d e2 54 42 3d f3 67 17 bd 16 7b 2b bd
       0.031288326 0.04744423 -0.036964368 -0.04186543
0000b0 78 f8 4f 3c bf b3 5c bb 82 ac a5 3d 22 fb a1 bc
       0.012693517 -0.0033676473 0.08089544 -0.01977307
0000c0 bc df 07 3d ec b2 92 bd 2f d1 21 bd c3 83 a0 bd
       0.033172354 -0.07163033 -0.039506134 -0.078376316
0000d0 56 91 26 3b be f6 6d bd 16 ce 03 3d e7 b0 4d 3d
       0.0025416217 -0.05809664 0.03217896 0.050217535
0000e0 c6 50 91 bc 33 bb a5 bb 44 56 ca 3b f5 fb 33 bd
       -0.017738711 -0.0050577163 0.0061748344 -0.043941457
0000f0 68 69 03 3d 7c 59 84 3c a8 57 3b bd 0b 0b a8 3d
       0.032082945 0.01615595 -0.045737892 0.08205231
000100 b6 69 7e bc a4 eb 42 bc 01 1c eb bb 36 09 6b 3d
       -0.015528133 -0.011897001 -0.007174969 0.05738183
000110 f0 01 34 bd 08 e0 4f bc bc 1c 2c bc c6 35 2b 3b
       -0.04394716 -0.012687691 -0.010504898 0.002612458
000120 be 4d 0f bd 61 94 2e bd 60 d5 a4 bd 0d d6 97 3d
       -0.03498625 -0.042621974 -0.080485106 0.07413874
000130 61 ce dd bc 3f 94 ab 3d 94 f7 6a 3d cd 86 2b bc
       -0.027075948 0.08377885 0.057365015 -0.010469151
000140 64 c2 ac bc 93 9a 81 bd d6 c1 70 3a 1a 91 09 bd
       -0.021088786 -0.06328311 0.0009184157 -0.033585645
000150 27 66 85 bd 2a 77 8e 3c 50 77 bd 3a 47 e5 2c 3d
       -0.06513625 0.017390806 0.0014455114 0.042210843
000160 46 cf 9e 3d 3f a2 8e bd ce 90 4a bb f4 ae 50 bd
       0.07754378 -0.0696454 -0.0030909064 -0.0509481
000170 d5 b2 c6 3c b0 49 1d bd a2 a9 48 bc 76 6d a7 bd
       0.024255196 -0.038400352 -0.012247475 -0.08175175
000180 a6 4b 58 3c c0 d9 a9 bd a6 31 84 bd e3 4c 77 3d
       0.01320163 -0.08293486 -0.06454782 0.06037606
000190 10 bd 81 b9 4e 44 2e bc 75 16 20 3d d1 b2 ee bc
       -0.0002474566 -0.010636402 0.039083917 -0.029138
0001a0 af be bd 3c ee 6a 28 bd f4 33 2f bd df d0 c5 ba
       0.023162214 -0.0411176 -0.042774156 -0.0015092156
0001b0 f9 7f fc b9 c0 f3 1e 3d 0c 0d 96 3c 34 6d fe 3c
       -0.00048160533 0.038806677 0.018316768 0.031057931
0001c0 7a 07 77 3c 71 ca 84 bd ee 21 0f 3d f3 6f 83 bc
       0.015077466 -0.06483925 0.034944467 -0.016044592
0001d0 85 17 84 bd dd 28 9a bc af a6 8a bd 63 6c 5a 3d
       -0.064497985 -0.018818313 -0.067700736 0.053326022
0001e0 2b ee 93 bd 52 1a 98 bd d2 5d 92 bd 6f ff 1f bd
       -0.07223161 -0.07426895 -0.07146801 -0.03906196
0001f0 44 40 3e bd 9d f7 74 3d 55 d8 ef bc 2a 08 ac 3a
       -0.046448007 0.059806455 -0.02927796 0.0013124992
000200 2a 94 87 3d b3 39 2c bd 5e 26 37 bd d5 80 6b bd
       0.06620057 -0.042047214 -0.044714324 -0.05749591
000210 ec dd 25 3d 88 13 85 bd 72 bd eb 3c 54 d9 17 3d
       0.040494844 -0.06497866 0.028776858 0.037072495
000220 1e 60 6a 3d b2 5f 25 3d 7f 52 82 3d 7c d1 03 3d
       0.05722057 0.040374465 0.06363391 0.0321822
000230 1b 97 97 bd e0 ad 7c bc 12 45 9d bd df dc 96 3d
       -0.07401868 -0.015422314 -0.0767919 0.073663466
000240 ab cb b6 bc 1c a1 8d ba 96 8e 8e bd 09 41 9b 3d
       -0.022313913 -0.0010805461 -0.0696079 0.07580764
000250 8b fb 88 bd de a0 28 3d d3 c9 92 bb 13 36 fb ba
       -0.06688603 0.04116904 -0.0044796257 -0.0019165896
000260 ee e8 b1 3d ea 01 21 bd eb 63 be 3d 6f 1f 1b 3d
       0.08687006 -0.039308466 0.092964016 0.037871774
000270 bf de be 3c 82 7a 88 bd 36 70 95 3d 05 a6 a8 3c
       0.023299573 -0.066639915 0.07296793 0.020586977
000280 a4 85 1d bd 63 3a b3 bc e0 6e 97 3d fb c9 96 3d
       -0.038457528 -0.021878427 0.073941946 0.073627435
000290 dd e1 8b 3c 11 15 21 bb fc d6 39 bd 8d 61 d8 bc
       0.017075473 -0.0024579207 -0.04537104 -0.026413703
0002a0 1d 1a 92 3c 3a 6a 8e 3d f5 11 c2 3d 73 c7 95 3c
       0.017834717 0.06953855 0.09476081 0.018283581
0002b0 a6 2d 1a 3d f3 84 19 bd 2b d9 ac 3d d6 49 a0 bd
       0.03764119 -0.037480306 0.08439859 -0.07826583
0002c0 f0 e7 ae 3d bd 94 80 3d 58 90 7e bd 93 9e 76 3d
       0.08540332 0.062783696 -0.062149376 0.060209822
0002d0 0a 97 54 bd f1 b9 cc 3d 1e d6 0a bd 00 44 a8 bc
       -0.051901855 0.09996403 -0.033895604 -0.020540237
0002e0 7e d4 dd 3b 2e 0c 24 3d 6b 16 f7 3c 9e 03 98 3d
       0.006769716 0.040050678 0.030162057 0.07422565
0002f0 44 0f 01 bd 83 b5 e2 3c 9a d6 8d 3d 9f a2 1f bc
       -0.0315087 0.027674442 0.069256976 -0.009743362
000300 c4 c8 0d 3d d4 89 a7 3d b2 cb 25 bd ff 94 f6 bc
       0.034615293 0.081805855 -0.040477462 -0.030100344
000310 84 6a 86 3d a7 31 74 3d 6d d4 24 3d a8 2d 57 3d
       0.06563285 0.059617665 0.040241648 0.052533776
000320 82 37 52 3d 33 15 70 bb 54 0e b3 3c 7b d9 ad 3d
       0.051322468 -0.003663373 0.021857418 0.08488747
000330 28 50 14 3d 49 81 4b 3d 9c 38 c8 bd 9d ce 2e bc
       0.036209255 0.049683843 -0.097764224 -0.010669378
000340 26 15 97 bd 6e 31 b4 bc 64 a6 f0 3b 19 a2 cd 3c
       -0.073770806 -0.021996226 0.007344054 0.025101708
000350 2a 98 5f bd 63 4d a2 3d df d5 79 3d 96 a7 80 bd
       -0.054588474 0.079249166 0.06099498 -0.062819645
000360 79 b7 84 bd 1f 53 1c 3c 5f 55 99 bd 63 38 b0 bd
       -0.06480307 0.009541302 -0.07486986 -0.08604505
000370 ea 7a 8d 3d 3d b9 da bc 92 7f a2 3c 9a 07 e8 bc
       0.069082096 -0.026699657 0.01983622 -0.028323937
000380 ab 41 95 bb 90 5c 59 3d a3 19 02 3c ea 94 ba 3d
       -0.0045549474 0.05306679 0.007940683 0.09110434
000390 2f 82 b5 bc 57 8e be 3c 2e 09 8b 3c b5 55 ae bd
       -0.022156803 0.023261232 0.01697215 -0.08512441
0003a0 48 46 c8 3d 7a ac 7f bb 28 45 65 3c d2 7a 92 3d
       0.0977903 -0.0039012716 0.013993539 0.07152332
0003b0 7f a4 ce 3c da 63 c1 3b e4 0f 8f 3c 1c 5d 64 3d
       0.025224922 0.005901796 0.017463632 0.05575286
0003c0 61 02 20 3d ff 1c 8b bd e1 fe 56 3c f7 9b ea bb
       0.03906477 -0.0679264 0.013122291 -0.0071597057
0003d0 c2 42 0e 3c 67 67 9b bd 04 aa c2 3c 31 20 3c 3b
       0.0086829085 -0.07588082 0.02376271 0.002870571
0003e0 e5 62 ba 3d e2 dc 79 bd 0d b5 8e bd 68 cf 79 bd
       0.09100894 -0.061001666 -0.069681264 -0.060988814
0003f0 11 99 99 bd 54 5b 96 bd f1 d4 eb 3c 6a b6 88 3d
       -0.07499898 -0.07341638 0.028788062 0.06675418

rnn.bias_ih_l1 f4 [384]
000000 9e c3 1a 3d 76 20 ca bd 3f 87 7b bd c7 6c 91 bd
       0.03778421 -0.09869473 -0.061408278 -0.07100826
000010 96 1f b5 3d e2 1c de 3a ce db 2d 3d f2 44 77 3d
       0.08843915 0.0016945864 0.04244595 0.060368486
000020 6f 58 22 bd 18 79 e5 bc f7 11 0c bd 78 59 cf 3c
       -0.039635118 -0.028011844 -0.03419682 0.025311217
000030 bd f4 09 3d bb f2 79 bc 84 3f cd 3b 39 ac bf bc
       0.033680666 -0.015255625 0.006263675 -0.023397552
000040 64 5a 75 bd 7b 79 93 bd d6 dc f9 bc bc 01 65 3d
       -0.059900656 -0.07200905 -0.03050081 0.055909857
000050 08 88 58 bb 32 06 5f 3d fe 71 c8 bd 72 b7 28 3d
       -0.0033040065 0.054449268 -0.09787367 0.041190572
000060 ac 97 1c bc f2 78 d2 bd 92 81 3b bc 3a 4a e7 bc
       -0.009557646 -0.10276975 -0.011444466 -0.028233636
000070 29 34 8e bd 9a 4c 9f bd 01 6f 00 bc f1 ca eb 3a
       -0.069435425 -0.077782825 -0.007838965 0.0017989558
000080 78 70 3c 3c 6b 94 35 bb cf 6b 8a bd 96 2e 77 3d
       0.011501424 -0.0027706872 -0.06758844 0.060347162
000090 80 f2 cf bd b5 1b a3 3d 5a 6a 44 3c cd fd be bd
       -0.10153675 0.07964269 0.011988247 -0.093257524
0000a0 7f 20 e2 bc 13 7b 87 bd 6c 01 24 3c aa fe 75 bd
       -0.027603386 -0.066152714 0.010010105 -0.06005732
0000b0 bc e9 4a 3c 07 a5 d2 bc 1b 2a 0a 3c a9 ab 8c 3d
       0.012384828 -0.025713457 0.00843289 0.06868679
0000c0 aa d7 c9 bb 32 49 19 3d af ce c1 3b 2d c2 30 3d
       -0.0061597424 0.03742332 0.005914531 0.04315393
0000d0 4f 7a 02 3d fb 63 06 3d 13 37 b6 3d ca 44 0d bc
       0.031854924 0.032810193 0.08897223 -0.008622358
0000e0 50 3b 1e 3d 48 33 90 3d 97 19 87 3b dd 60 92 bd
       0.038630784 0.07041031 0.0041229236 -0.071473815
0000f0 81 15 c9 3c 99 a7 47 3d 0e ee 3b bd c4 29 9c bd
       0.024546387 0.048743818 -0.045881324 -0.07625154
000100 81 99 89 bd f8 98 48 bc ad dc 3d 3d 2f 33 55 3b
       -0.06718732 -0.012243502 0.04635303 0.0032531729
000110 8c 53 a0 3d 16 fe e5 bc b9 2d 09 bd fb 40 8b 3d
       0.07828435 -0.02807526 -0.03349087 0.067995034
000120 35 30 89 3d e7 dc ba bd 03 b3 2d 3d 4c 03 8a 3c
       0.06698648 -0.09124165 0.042407047 0.016847275
000130 65 1a 89 3c 3b 59 db bc 13 88 0c bd 89 af fb bc
       0.016736219 -0.026775947 -0.034309458 -0.03072335
000140 37 1e c4 3c 44 70 3c bd 64 3c 82 bd b8 2a 24 bd
       0.023940189 -0.046005502 -0.06359175 -0.040079802
000150 b3 e3 ef bc ff eb 97 bc e9 25 26 bd 6e 14 43 3d
       -0.02928338 -0.018545149 -0.040563498 0.047626905
000160 9b 29 bc 3a 1e 1f 09 3d 0b 63 49 bd a4 72 17 bc
       0.0014355661 0.03347694 -0.04916672 -0.009243641
000170 76 35 60 3d de 72 fe 39 c9 27 2d 3d c1 ec 2f bd
       0.054738484 0.00048532238 0.04227427 -0.042950395
000180 ba 47 5c bd 12 ec b7 3d f1 2d 92 3c b7 6b 91 bc
       -0.05377934 0.08980574 0.017844172 -0.017751558
000190 d1 09 a0 bd 1b 59 2f 3d 19 c5 3b 3d e5 fe 25 3c
       -0.07814372 0.042809587 0.045842264 0.010131572
0001a0 2f da 08 bd 5b c1 85 3d f7 00 a1 bc 5f 9e cc bb
       -0.0334112 0.0653102 -0.01965378 -0.0062444652
0001b0 1e b1 76 3d a2 fb b1 bd 6c 56 9d bc eb 36 59 bc
       0.060227506 -0.08690573 -0.019206248 -0.013257722
0001c0 ac 2c 8d bd 4b 80 a1 bc 1b d4 a2 3d cd c7 c6 bc
       -0.06893286 -0.019714495 0.07950612 -0.024265194
0001d0 98 f4 ff bc e0 b6 85 3d 2e 14 7f 3d 6c fa f6 ba
       -0.031244561 0.06529021 0.062275104 -0.0018842942
0001e0 10 94 88 bd 45 0f 9c 3d aa 9d 50 3d 8a 9d 88 bd
       -0.06668866 0.076201 0.05093161 -0.06670673
0001f0 82 ce 38 3d 95 2e c7 bc 77 c0 23 bd 1b 37 0d 3d
       0.045118816 -0.024314204 -0.03997847 0.03447638
000200 fe 98 04 3d 11 02 aa bc 7e b0 03 be 63 c4 ca bd
       0.032372467 -0.020752938 -0.12860295 -0.09900739
000210 1a c9 79 bc 88 c1 03 be 97 09 c9 3c d5 8d e9 bd
       -0.0152457 -0.12866795 0.024540706 -0.114040054
000220 9e 6e 26 3d 8b c6 3e 3d e7 0e da 3b 02 ad fb 3c
       0.040632837 0.046576064 0.0066546085 0.030722145
000230 d8 e5 ee bd b8 fa c0 3c 00 50 87 bd 53 35 b8 3c
       -0.11664933 0.023557052 -0.06607056 0.022486364
000240 b8 9e d9 bd ae d7 bf 3d 6f f3 12 3d a0 ec 3b bd
       -0.10625976 0.093673095 0.035876688 -0.04587996
000250 6d 1a 0b bc 3c db 92 3c b9 b7 ff bd 69 37 d5 3c
       -0.008490187 0.017926805 -0.12486214 0.026027398
000260 2a 6f e1 3d 56 7e e2 bd 1d e0 41 bd a3 f3 d4 bd
       0.11007531 -0.11059253 -0.04733287 -0.103980325
000270 9d cd 59 bb b8 a4 a5 bd 12 4f 07 be 56 e7 81 bd
       -0.0033234127 -0.08088058 -0.13213757 -0.06342952
000280 5d d4 2d 3d a3 7f 9b bc 8a 75 12 be a5 bd 5e bb
       0.042438854 -0.01898176 -0.1430265 -0.0033987549
000290 1d 56 30 bd 82 53 c5 3c a6 5f 01 be f6 3e bd bc
       -0.043050874 0.024087671 -0.12634143 -0.023101311
0002a0 3e 1b 06 3d d0 5a cc 3c 96 ab 16 3d 69 bd 08 bd
       0.032740824 0.024945647 0.03678473 -0.03338376
0002b0 16 65 6d bd c2 bf e3 3d f1 b7 d9 bd 48 3d 47 3c
       -0.05795773 0.11120559 -0.10630787 0.012160607
0002c0 a3 28 9e 3c c8 63 21 bd 60 a5 36 3b 87 d5 c0 bd
       0.019306486 -0.0394018 0.0027869567 -0.09415727
0002d0 5c ec 95 bc 30 f6 78 3d c4 55 4e bd 48 e8 db bd
       -0.018301181 0.060781658 -0.05037476 -0.107376635
0002e0 17 a5 ab bd 06 25 f7 bd a7 31 ff bc ce 44 71 bd
       -0.08381098 -0.120676085 -0.031151606 -0.058903508
0002f0 08 5a 1a bd 0a 30 78 bd ac ac 1c bd 33 71 22 bd
       -0.037683517 -0.06059269 -0.03825061 -0.039658736
000300 55 27 27 bc b6 a4 33 3c fe 54 3e 3c c0 46 8a bd
       -0.010202249 0.010964563 0.011616943 -0.06751776
000310 4b d2 d5 bd bb 5d 00 bc 5a 37 d4 3d 83 af f2 bc
       -0.10440501 -0.007834847 0.1036212 -0.029624706
000320 65 df 12 bc 8c 75 b7 bd 55 9d c7 bc 94 38 21 bd
       -0.008964394 -0.08957967 -0.024367014 -0.039360598
000330 e1 67 60 ba 61 a2 b5 3b 1e 97 02 be b3 e9 cf bc
       -0.0008560401 0.0055430387 -0.12752959 -0.025379991
000340 2a 2f 0d bb 9f 7c 5b bd ce d9 57 3d ef fd e9 bd
       -0.0021543005 -0.053585645 0.05269795 -0.11425387
000350 20 be d2 bc e1 fa 5e bd 28 d1 89 bc 07 32 82 3a
       -0.025725424 -0.054438476 -0.016823366 0.0009933122
000360 6e 3f b4 bd 59 97 93 bd 81 f9 da 3b a9 fc 89 bd
       -0.08801161 -0.07206602 0.006682575 -0.06737644
000370 69 a8 9b bd 62 de 4d 3d ad 82 af 3b a3 10 0c 3d
       -0.07600481 0.05026091 0.005356154 0.034195554
000380 86 1a 92 bd 1f 3c 91 3d 27 ac 05 bd 34 eb b0 bd
       -0.07133965 0.07091545 -0.03263488 -0.086386114
000390 f4 41 4f bd 94 af b1 bd cc 90 b7 bd 10 9c 8f bd
       -0.050600007 -0.08676067 -0.08963165 -0.070121884
0003a0 da 5e 13 bd 86 d9 2f bd ed de 11 bd 74 42 50 bd
       -0.03597913 -0.042932056 -0.03561299 -0.050844625
0003b0 a0 0e bc bd be 8e bb bd 2c aa b6 3c 35 7f f2 bd
       -0.09182477 -0.09158085 0.022297941 -0.11840669
0003c0 a0 04 78 bd f3 03 41 3c 61 90 bd bd 2a 60 e8 bc
       -0.060551286 0.011780727 -0.09256054 -0.028366167
0003d0 fe 8c 08 bd 5c 45 b2 bd b9 29 96 bc d0 54 89 bd
       -0.033337586 -0.087046355 -0.018330442 -0.0670563
0003e0 9c 73 06 3d 6a 20 7d bd e5 f3 9b bd 18 87 ea bd
       0.032825097 -0.06179849 -0.076148786 -0.11451548
0003f0 04 89 05 3d 53 b6 c7 3c 9d 9b df bc 52 e2 8f bd
       0.03260137 0.024378931 -0.027295882 -0.07025589
