backend/trained_models/KBL_LSTM_model_state_dict.pth (torch, 167939 bytes, 5 tensors)

rnn.weight_ih_l0 f4 [400, 1]
00000000: a662 dc3c 58d8 853d 31c8 b3bb 2a30 c43d
00000010: 558b 293d 6050 ae3d 9099 5bbc 9c61 ce3c
00000020: 7a7d 77bd cbfe 693c 0b9f 073d 1c3e 963d
00000030: afb0 53bd 8e44 7fbd 3a6b 303c df25 a43c
00000040: e43f 883d a738 65bd 6b4e f53c 36ce bdbc
00000050: 6e8e dc3d a419 f83c 4f6f 1ebb e479 88bd
00000060: 53f1 dbbd edde 83ba 2103 44bd d6a1 223c
00000070: 535f 933d b74b 3abd 70bc 8b3d a122 d73d
00000080: dffa 0bbe a255 2fbc af24 4c3c 2279 a0bc
00000090: 8d3f a73d b99b 193d 5fb8 80bd 5eed 773d
000000a0: e838 7d3d bd68 d13b 1be6 d53c d07f dabc
000000b0: 8c08 7cbd 7105 b03d 04f5 09bd 9c66 28bd
000000c0: 2d3a 2d3d b309 7d3d a7d0 97bd e32b fdbd
000000d0: 1aa7 c7bd e5eb b9bd 4816 17bc f68f 483c
000000e0: 8b0f 17bd a811 55bd e045 90bd 0af5 793d
000000f0: eb2b 423d 4e08 d53c f773 93bc 8b83 1dbd
00000100: d38a c4bc 6e3e d03d a0f3 de3d 8afe 763d
00000110: 4571 fc3d e358 95bd cf49 fc3d 41a5 903d
00000120: 67f2 08be 4e0e 8d3d 5061 e3bc e451 22bc
00000130: fdc3 be3d f60f b1bb 177b 38bd b7de ffbd
00000140: 59fb 10bd 45ed a73d 82b9 e8bc ac25 b3bd
00000150: 9c76 5b3c 778c 41bd 6d56 163d fa5a bf3a
00000160: bbcb d13d 77c6 a1bc f657 9ebc d142 a3bc
00000170: 3d68 66bd d121 3b3c a33c 953d fbd5 813d
00000180: 86c4 993d f4b2 68bd 249f 703d b88b b4bc
00000190: 4619 27bd ee36 5cbd a4f3 56bd bddb fabc
000001a0: 9564 1abc 43aa 43bd 6a4c be3c 9d9b 87bc
000001b0: 5856 d03d 2082 bdbb ebde fe3d 0356 2c3c
000001c0: 2ebc 79bd 3e7d d8bb ae27 a03d 37e8 343d
000001d0: ffdc 44bd d0e4 e9bd 1cb4 463b 62ae 0d3d
000001e0: 203f 893c 5c34 afbd c2fc 11be 13c6 f6bc
000001f0: 8828 dfbd c9be 623d d39d 003e 52e4 2dbd
00000200: 53ab 05bc 5e25 813d a858 abbd dd5d d83c
00000210: 5a14 92bd 4f89 1fbd 1a94 8d3d 9122 0d3b
00000220: 5b4d 89ba 7d09 603b 293c fa3d 4741 b43d
00000230: a52d 4f3d 644b 3f3d 0ba1 96bd 5db4 febc
00000240: b259 9b3d f854 07bd 5e85 233c 611a a93b
00000250: c4d1 713d dcd8 3c3d 02c1 60bd 5b77 40bd
00000260: 47b6 bfbd 6ee5 62bd bee8 a4bc 433a fdbc
00000270: 2e8b 623d 0c9d cfbc fe9d 8b3d cb43 93bc
00000280: 8cfc fcbc 973f e53d d18d 403d 4b0a 9f3d
00000290: 7e29 a53d 199e e53d e307 76bd 8315 9abd
000002a0: a463 f93d 056e 2abc 0936 1e3d 626d 623d
000002b0: e422 5abd 3855 9d3c b556 ed3d e3dd a03d
000002c0: 3a83 3c3d c923 333d 46aa f0bc 9199 64bd
000002d0: 28a0 2c3d 84b7 dd3d 0511 4dbd e568 aabc
000002e0: eb37 cf3d 9550 dc3d 5246 98bd d4cb 8dbd
000002f0: 076b 043e d156 9f3d 7876 973d e519 ccbd
00000300: c882 8d3d cae7 cf3d dda7 343d 59b5 9a3d
00000310: c926 953d a6da dfbb 87c9 41bd f910 ec3c
00000320: 83e4 f4bb f142 f83d d512 343d 49f7 ef3d
00000330: bc40 233d edae 983d 09b6 31bb bcf8 f43c
00000340: a892 b53d d35a 1ebd 609f dd3c e13e 093e
00000350: 0bec 11be 6b84 dfbd c0dc c03c 6a9a e73c
00000360: c9e6 36bd 447e c03c 16ae 443d c464 89bd
00000370: 447d 5b3c db64 c5bd e835 9abd 2ba0 d43c
00000380: 28e6 8f3d 049f 263d 75c9 9c3d 8533 4bbc
00000390: 3bb8 fabd 76d4 433d e9e8 033d f5ab 3fbd
000003a0: 7f4c 803d 2e8c d03d 7bd1 833d 1734 1ebd
000003b0: 240c a8bd 2382 793d 679a f6bd 6e0a e93d
000003c0: 6722 ccbd 7d4d f83d 8c6d ffbd a48b 3dbd
000003d0: 974b debd 4b05 fc3d c79b 053c 288b 1c3c
000003e0: 701c 3cbd 3c0c 9b3b 78ac 8e3d e9fa a23d
000003f0: e099 5c3c c5df 0abd 38c1 5dbd 07eb 3abd
0.026902508 0.06535405 -0.005486511 0.09579499 0.041392643 0.08511424 -0.013403311 0.025193028
-0.0604224 0.014281939 0.03311066 0.07336065 -0.05168217 -0.06232124 0.010767752 0.02003759
0.06652811 -0.05596223 0.02994462 -0.023169618 0.10769354 0.030285664 -0.0024175232 -0.06663874
-0.10739388 -0.0010060944 -0.047854546 0.00992628 0.07195916 -0.045482364 0.06823051 0.10504652
-0.13669918 -0.010701569 0.012459918 -0.01958901 0.08166418 0.037502024 -0.06285166 0.060529105
0.06182185 0.0063906596 0.0261107 -0.026672274 -0.06153159 0.08594788 -0.03368093 -0.04111348
0.04229181 0.061776828 -0.07412844 -0.12361886 -0.09748669 -0.090781964 -0.009221621 0.012241354
-0.036880057 -0.05201879 -0.070445776 0.061024703 0.047405165 0.026004937 -0.017999632 -0.038455527
-0.023991978 0.101681575 0.108863115 0.06030134 0.12326292 -0.072923444 0.12318765 0.0706277
-0.13373719 0.06887494 -0.027756363 -0.00990722 0.093147255 -0.005403514 -0.045039263 -0.12493651
-0.035395954 0.081995524 -0.02840877 -0.0874742 0.013394978 -0.0472531 0.036703516 0.0014599257
0.10243937 -0.019747956 -0.019329052 -0.019929321 -0.056251753 0.011421637 0.07286956 0.06339642
0.07508187 -0.056811288 0.05874552 -0.02203928 -0.040795587 -0.053763323 -0.052478448 -0.030622358
-0.009423395 -0.047769796 0.023229796 -0.016553694 0.10172719 -0.0057833344 0.12444862 0.010518554
-0.060970478 -0.006606727 0.07820068 0.04416677 -0.04806232 -0.11420596 0.0030319756 0.034590133
0.016753733 -0.08554909 -0.14256576 -0.030123746 -0.108964026 0.05535773 0.12560205 -0.04245407
-0.008158523 0.06305955 -0.08366519 0.026411945 -0.07132788 -0.038949307 0.06913014 0.0021535496
-0.0010475324 0.0034185343 0.12218506 0.08801513 0.05058064 0.046702757 -0.07354935 -0.031091863
0.075854674 -0.033040017 0.009980528 0.0051606153 0.05903794 0.04610525 -0.054871567 -0.046988826
-0.093609385 -0.055394582 -0.020130511 -0.03091157 0.055308513 -0.02534344 0.06817244 -0.017976662
-0.030882142 0.111937694 0.047010247 0.07765635 0.08064555 0.11211795 -0.060066115 -0.07523634
0.12177208 -0.010402207 0.03862575 0.055280097 -0.05325593 0.019205675 0.11588804 0.078548215
0.046023585 0.0437353 -0.029378068 -0.055810515 0.042144924 0.108260185 -0.05006506 -0.02080197
0.101180874 0.10757557 -0.074352875 -0.06923643 0.12931453 0.07780231 0.07395643 -0.099658765
0.0690971 0.10151632 0.0441054 0.075541206 0.07282788 -0.006831485 -0.047311332 0.028816687
-0.00747353 0.12122143 0.043963272 0.11717088 0.039856657 0.074552394 -0.0027116558 0.029903762
0.08865863 -0.038660835 0.027053535 0.13402893 -0.142502 -0.109139286 0.023542762 0.028271873
-0.044653688 0.023497708 0.048017584 -0.06708673 0.013396565 -0.09638377 -0.07529813 0.02595528
0.07026321 0.040678993 0.076556124 -0.01240242 -0.122421704 0.04781004 0.032204542 -0.04679485
0.062645905 0.10182987 0.064364396 -0.038623895 -0.08205441 0.060915124 -0.12041169 0.113789424
-0.09967499 0.12124155 -0.12472066 -0.04627575 -0.10854261 0.12305697 0.008154816 0.009554662
-0.045925558 0.004731683 0.069664896 0.079580136 0.013464421 -0.03390481 -0.054139346 -0.045634296

rnn.weight_hh_l0 f4 [400, 100]
00000000: d4c5 e2bd 42c8 c03d 4e74 a03d b72b d23d
00000010: 7aff c7bd 9819 a6bd 4f16 c7bd f08c 333d
00000020: 2327 21bd 9247 9d3b 6c5d 8ebd fe63 2cbd
00000030: db1e 9bbd 38c0 0fbd 5c39 443b 1bee 50bd
00000040: 5cbf a23d eefe 6039 643c a5bd 060e 123d
00000050: 22d1 843d f7ea 8f3c b5c6 febc 57ba aabd
00000060: 5826 3c3c c90c 86bc 48be 8d3d dfe1 71bd
00000070: 08b9 adbd 84c1 083d e938 dbbc 3c81 23bd
00000080: 68d6 7b3d 00e3 a3bd f05f 1fbd a9ab 03bc
00000090: ecbc 19bd fcbe 66bd 59c0 b1bb d4c3 183d
000000a0: d7b2 7abb f579 a33c 33bf 893d c279 b2bd
000000b0: f281 bfbd 3dab a83d b820 74bd 2ce7 03be
000000c0: 5845 363d 8d14 1dbd e726 ae3d 1c98 a13d
000000d0: 99a1 c23c 685c e0bd ba53 22bd 5e21 863a
000000e0: b625 643d 4dcd 303d b555 d83d 9c6c 8e3d
000000f0: 46c0 e23d d58f 1abd 1daa 8eb9 5d00 9bbd
00000100: d9b7 d9bd 74cb c2bd 84a6 ce3d 4127 333d
00000110: 08ad c1bd 5a4f 403d 8dfb 9e3b 9544 83bd
00000120: 2497 d5bc e6d4 41bd 3a33 80bc 8c85 6cbd
00000130: f655 b83c c038 113d 33c5 5abc 4f79 32bc
00000140: f919 bc3c 7daa 62bd ec16 ba3d d1af 67bd
00000150: 2fe3 003d 27b4 94bd eb2a d93d 202c 63bc
00000160: 4578 b8bc 3daf dc3c d32e 9ebd 03bb bebb
00000170: 8ed0 623d d990 6cbc 5a15 d0bb c2e2 653d
00000180: 7e80 9a3d 41e4 83bd 8f53 b83a 16e8 57bc
00000190: a51f a73d a995 84bd 424b 96bd 0239 10bc
000001a0: 8f9a 1a3d 1d70 f23d de9d 1cbc 11e1 8bbd
000001b0: 8854 e43d e12d 973d dd5d 03bd 608b b93d
000001c0: c862 4abd b724 b03c 615d 193d e6ec bb3b
000001d0: ceeb 3a3d ae00 683b b7c7 c53d f105 913d
000001e0: 9978 eebc 9e6b 9fbd 7bbb a73c 0a49 4c3d
000001f0: 898f 04bd 16f7 f03c 0fc8 32bd a77d ad3d
00000200: 4e63 f4bd dcf2 493c 1541 3eba 61b1 8dbd
00000210: 327b b83d 2531 ce3d 7e64 6ebd a231 8d3d
00000220: 1874 053d edb1 6b3c 04ca 413d 3250 243d
00000230: fd53 a2bc 6363 f33d 4d49 133d 4545 a73d
00000240: 5c41 5cbd a1af b43b 044a b3bb 1b50 2c3c
00000250: 9c53 8cbc ff2b 82bd 7f16 89bd 4765 623c
00000260: 842f 01be d339 3a3d 8253 4fbd ebe1 92bd
00000270: 61a4 8c3d 02e2 9bbc d406 b9bd cec4 2a3d
00000280: abc1 67bd 9069 433d 6391 febc 2f8e b03c
00000290: 1606 953c e4f2 7cbd 36d8 c33d 642d 96bd
000002a0: cacb 0ebd 6f70 bcbd 9f7e 84bd b678 3f3d
000002b0: f1ee b73d d998 973d d8e9 e63d dad9 b6bd
000002c0: 6bef a53d 5d21 8e3d 3349 d33d a6da 023d
000002d0: 3d4f 203d 5b58 e3bd 710f 763d 8418 d3bc
000002e0: 9502 a53d f2cc 9a3d 4bd9 afbb ccee cfbc
000002f0: 5a65 9e3d 4173 9abd 49c7 003d d242 903d
00000300: 46e1 593d 3979 9e3d d796 c03c c45b 503d
00000310: 439f c1bd 0de8 12bc 7707 8b3d 8313 6bbd
00000320: 857a 85bc d826 70bd b10b 2f3c 0c6f a23c
00000330: 4b97 29bd 9bed 28bd ebf4 d53d bf71 4cbd
00000340: e6bd 9a3d 63e8 eebc 2900 e8b9 c191 8d3b
00000350: 6dac 8dbd a73e bebc 28d1 923d 767e a63d
00000360: 1480 92bd 5a62 8d3c 0a98 a33d fda1 793d
00000370: 6083 e83b ad31 d33c d1fb 2b3d 5090 173d
00000380: 2780 13bd 6d2e 5cbd 9305 623d b343 7e3d
00000390: 18ef c7bd acb5 9fbd 0f24 5a3d cd7b 54bd
000003a0: a171 913c 4a64 9bbd 2e50 9d3d ba49 fd3c
000003b0: 9817 413c 7e4e 97bd 8fd8 bcbd b1d4 273d
000003c0: 2212 bdbd 335d 693b c063 60bd 05fa aa3d
000003d0: bf9e b0bd 3af2 1a3d f55d c53c 0a6a e3bc
000003e0: 159c 6cbd 601c 91bd 4362 393d 1a62 b7ba
000003f0: 8bac febd 37b9 923d c4b2 8b3d 2876 46bd
-0.11072889 0.09413196 0.07834683 0.10262244 -0.09765525 -0.0811035 -0.09721052 0.04383558
-0.039343964 0.0047997916 -0.069514126 -0.042087547 -0.075742446 -0.035095423 0.0029941415 -0.051008325
0.07946655 0.00021457273 -0.08068159 0.035657905 0.064852014 0.017568095 -0.03110061 -0.08336323
0.011483751 -0.016363518 0.06921059 -0.059053298 -0.084825575 0.033387676 -0.026760535 -0.03991817
0.06148377 -0.08002281 -0.038909853 -0.008036532 -0.037533686 -0.05633448 -0.005424541 0.03729613
-0.003825357 0.019955615 0.067259215 -0.0871463 -0.09350957 0.08235786 -0.059601516 -0.12881154
0.044499725 -0.038349677 0.08503514 0.07890341 0.023758696 -0.10955125 -0.03963063 0.0010233333
0.055700026 0.04316454 0.10563222 0.06954309 0.110718295 -0.037734825 -0.00027211095 -0.07568429
-0.10630769 -0.09511462 0.10090354 0.043738607 -0.09456831 0.046950676 0.0048517645 -0.06409565
-0.026073046 -0.047322176 -0.015649427 -0.057744548 0.022501927 0.03545451 -0.01335268 -0.01089318
0.022961603 -0.05533837 0.09086403 -0.056564156 0.03146666 -0.07260924 0.10603889 -0.013865501
-0.022518286 0.026939029 -0.07723775 -0.0058206334 0.055374674 -0.014438831 -0.0063502016 0.056124456
0.07544039 -0.0644002 0.0014062988 -0.013177892 0.081603326 -0.06473858 -0.07338573 -0.008802654
0.037745055 0.1183779 -0.009559123 -0.068300374 0.111489356 0.073817976 -0.032071937 0.09059787
-0.04941061 0.021501882 0.03744257 0.0057350276 0.045635037 0.0035400796 0.09657233 0.07081211
-0.02911024 -0.07784198 0.02047514 0.049874343 -0.03236345 0.029414695 -0.043647822 0.08471232
-0.11933003 0.012325969 -0.0007257623 -0.06918598 0.09007873 0.10067967 -0.058201306 0.06894232
0.03258142 0.0143856825 0.047311798 0.040115543 -0.01981544 0.11884191 0.035958577 0.08167509
-0.05377327 0.0055141007 -0.00547147 0.0105171455 -0.017129712 -0.06356048 -0.06693744 0.013818092
-0.12615782 0.0454653 -0.05061675 -0.07171997 0.0686729 -0.019028667 -0.090345055 0.041691594
-0.05658118 0.047708094 -0.031075185 0.021552173 0.018191379 -0.061755076 0.09562723 -0.07332876
-0.034862317 -0.092011325 -0.064694636 0.04674598 0.08981121 0.074022 0.11275071 -0.08928271
0.08102306 0.06939957 0.10316696 0.0319468 0.039138068 -0.11100837 0.06007332 -0.025768526
0.08057133 0.075586215 -0.0053664795 -0.025382422 0.07734175 -0.07541514 0.031440053 0.07043995
0.053193353 0.07737965 0.023509426 0.050868765 -0.09454205 -0.008966458 0.06788533 -0.057391655
-0.016293773 -0.058630794 0.01068394 0.019828342 -0.04140405 -0.041242223 0.10447105 -0.049913164
0.075557515 -0.029163545 -0.00044250608 0.0043203537 -0.06917653 -0.023223234 0.071688 0.08129589
-0.07153335 0.017258812 0.079879835 0.0609455 0.0070957392 0.025780523 0.041988198 0.03700286
-0.036010887 -0.053755213 0.055181097 0.06207628 -0.097624004 -0.07798323 0.053257044 -0.051875878
0.017754378 -0.07587488 0.07681309 0.030918945 0.01178541 -0.07388018 -0.09220993 0.040974323
-0.09231974 0.003560853 -0.05478263 0.08348469 -0.086240284 0.03782866 0.024092654 -0.027760524
-0.05776604 -0.0708549 0.045259725 -0.0013991029 -0.12435254 0.07164233 0.06821206 -0.048452526

rnn.bias_ih_l0 f4 [400]
00000000: 8be9 91bd e1f7 7f3d 3aaa aebc bad3 b73d
00000010: 2cfa e0bd d915 2dbd 603d 16bd 4abf cebc
00000020: 98ce 9b3d cfdc 4abd 1028 a8bd 5a6d 5bbd
00000030: 46a1 c83d f3fe bfbd 0850 a43d a1af 76bd
00000040: 2bd8 203b 87a5 abbd c9f6 8f3d d6b8 4ebc
00000050: 7c9e 56bd 307a 393d a2a6 5abd 8fc1 ea3c
00000060: b4e9 33bd e538 82bd 1d8a 23bc 1522 4dbd
00000070: f683 1dbd 5747 b23d f062 843b 7478 3cbd
00000080: 7dde 543d 2432 4cbc f13f a3bd a253 a7bd
00000090: c05e f2bc c581 7b3d 36a7 0bbc be39 ca3c
000000a0: eba2 0cbd 95ea 04bd 9fa0 c23d e531 3dbd
000000b0: 71fe 93bc a96c 4c3d 0828 963d ef98 55bc
000000c0: d849 91bd 5324 8fbd d3d2 a9bb cab6 eb3d
000000d0: 4bda d23c 7c15 643c d3c5 a8bc 22e5 e0bc
000000e0: 25b1 363d e2db 653d 8536 2e3c ecf7 81bc
000000f0: 608e 083d e8ff 473d 2654 a2bc db03 a5bd
00000100: b415 d63d 1bad ffbc 1dfb 693d 0d99 7cbb
00000110: c079 f93d 5d91 ae3c 4c0d 17bd a6ce 00bd
00000120: 7d99 87bc 9588 a43b d1ec b6bc cb43 d93d
00000130: 7822 34bd 0d51 01bb ebf3 7ebd 55c9 b6bd
00000140: 41ee 57bc 3402 413c f324 9f3b a9e3 8b3d
00000150: 089c 16bd 4a1d 66bd ace6 e83b 43ec 82bb
00000160: 31c8 9d3d a71c 843d ed8a ccbc 5758 823d
00000170: 65ec a8bb 87a6 6bbb 0cf9 2ebc 511f 74bd
00000180: eb0d 583d a157 623d dc2f b73d 4d77 aebd
00000190: 397e 343d 5e43 8a3d 154a 19bd 9a59 c33d
000001a0: 0dac fabd 693e 4fbd 42a5 20bd a54f bbbc
000001b0: 8638 7a3d 6603 0d3c 6fb1 dabc 2e97 61bd
000001c0: a598 023e dbf5 9cbd 52e1 763d fc98 393d
000001d0: 30ed 91bd e28b 603c 2d5e 83bd 3341 44bd
000001e0: 48eb 86bd a774 98bd 82cd d53d 8d67 763d
000001f0: 20c8 35bc a515 133d 8d07 88bb 04f9 143d
00000200: 801b 2c3d 2f53 ef3d 5b1f b43c 5417 b63d
00000210: b1d2 133d a5d3 be3d 834a 1abb 736f 8abd
00000220: e61b 4cbc 461f 233d 3ac8 d43c 1c2a 7abd
00000230: f07a d83d 4e5a f53d 331c 9dbd ed51 ef3c
00000240: 67e1 dcbc 2a8b 9e3d 7f2b 893c 964a 8f3d
00000250: 0f9a 5a3d 28c8 86bd 390a e0bc bab6 3cbd
00000260: 0617 6a3d 6c3c 283c 8e03 4b3c e870 913d
00000270: e26a 85bd af3b 443d 218e 983d abdf 0c3d
00000280: 80e1 99bc 4d54 e23d 6633 ca3d acd4 4d3c
00000290: 3dea ef3d 40d1 1dbc 782d 64bd 4d6f 94bc
000002a0: e635 a8bb cc07 f5bc 5fa8 8a3d 73bc 5abd
000002b0: bafd 9bbc 34cf c6bc dd22 0dbd 7825 63bc
000002c0: c792 903c 043f 99bd ae55 053d d9de 21bc
000002d0: 371e a13c 2e55 3bbd 81de 4abd 7c3a 61bc
000002e0: 27a4 c1bc c466 1ebd 28c7 c7bd fcee 5c3d
000002f0: aa86 62bd d9cd 873d 004f 4f3d a483 0c3d
00000300: a67d 7a3d 5bbd 62bd e258 94bc d2f0 12bd
00000310: 8a42 b2bd 0a31 83bc 5a12 aa3d 5e16 3b3d
00000320: c945 1dbd 1e6b da3c 76df 7f3d 51da 34bd
00000330: 0355 dfbb b08b 4dbb e78c 443d bfa2 04bd
00000340: e475 233b 6f1c 9f3c 24f3 bd3d de7d a83c
00000350: a5ce 13bd bda7 683d 56b1 33bc db4b 98bc
00000360: 3d55 22bd f819 e3bc 2c6e 04bd 0662 bbbd
00000370: 90d9 ca3c 05f4 bb3c c391 bb3d 9e59 243d
00000380: 78a8 03bc c1cd 893d a18d ab3d 0ac8 1e3d
00000390: aecb 7fbd a6db 903c 2f78 40bd 87c5 33bd
000003a0: 912f a7bd 6999 983d 669a 15bc 7923 193d
000003b0: 4a7a 313d 1358 1abd 1e26 09bc a3c6 8abd
000003c0: bfb8 a1bd 31a4 cc3c 030f 0a3c d4e7 d73d
000003d0: d8fc 963d dbaa 973c bc84 8c3b b540 1abd
000003e0: b8ee 90bd 414b b8bd 3606 d9bb c2d6 b6bd
000003f0: 294e 82bd 7ec8 723d d0b1 4fbd 9a90 b1bd
-0.07124623 0.062492255 -0.021321405 0.089759305 -0.109852165 -0.042257164 -0.036679626 -0.025237698
0.07607764 -0.049526986 -0.08210766 -0.053571083 0.097963855 -0.093747996 0.08023077 -0.060226087
0.0024542909 -0.08381181 0.070294924 -0.0126173105 -0.052397236 0.045282543 -0.05338157 0.028656749
-0.04392405 -0.06358508 -0.009981659 -0.05008133 -0.038455926 0.08705013 0.0040401146 -0.04601331
0.051969994 -0.012463126 -0.0797118 -0.081702486 -0.029586196 0.061403055 -0.008523753 0.024685737
-0.03433506 -0.032450277 0.09503292 -0.04619016 -0.018065663 0.049908314 0.07331854 -0.0130369505
-0.07094163 -0.0698935 -0.005182603 0.115094736 0.025738856 0.013921138 -0.020602142 -0.027453009
0.044602532 0.0561179 0.010633116 -0.015865289 0.033338904 0.048828036 -0.019815516 -0.08057376
0.10453358 -0.031210473 0.057124246 -0.0038543374 0.12181425 0.021309549 -0.036877915 -0.031447075
-0.016552681 0.0050211647 -0.02232972 0.106086336 -0.043978184 -0.0019732148 -0.062244337 -0.0892512
-0.013179363 0.01178031 0.0048566996 0.06830532 -0.036769897 -0.056180276 0.0071075764 -0.0039954497
0.07704199 0.064507775 -0.024968589 0.06364506 -0.0051551335 -0.0035957412 -0.010679495 -0.05960018
0.05274765 0.05525935 0.08944675 -0.085188486 0.044065688 0.067511305 -0.037424166 0.095385745
-0.12239847 -0.05059663 -0.039220102 -0.022865126 0.06108906 0.008606767 -0.026695935 -0.055075817
0.12753542 -0.07664081 0.060273476 0.045311913 -0.07125318 0.013705226 -0.06414447 -0.04791374
-0.06587845 -0.07444125 0.10439588 0.060157347 -0.011095077 0.035909314 -0.0041512907 0.036370292
0.042018414 0.11685788 0.021987608 0.08891168 0.036089603 0.09317712 -0.0023542948 -0.067595385
-0.012457823 0.039824747 0.025974382 -0.061075315 0.105703235 0.11980115 -0.07671394 0.02921387
-0.026962949 0.07741387 0.016744373 0.06996648 0.053369578 -0.065811455 -0.027348625 -0.0460727
0.057150863 0.010268312 0.012390984 0.07101613 -0.06514527 0.04790848 0.07448984 0.034392994
-0.018784285 0.11051235 0.09873085 0.012562912 0.11714599 -0.009632409 -0.055707425 -0.018119479
-0.0051333783 -0.029910944 0.067703955 -0.053402375 -0.019041885 -0.024268724 -0.034457076 -0.013863914
0.017648114 -0.074827224 0.032552414 -0.009879791 0.019667728 -0.04573553 -0.049528603 -0.013746854
-0.023637844 -0.038672224 -0.09754783 0.05393885 -0.055304207 0.06631059 0.05061245 0.03430523
0.061154984 -0.055356365 -0.018108789 -0.035874195 -0.087040976 -0.016014595 0.083042815 0.045675628
-0.03839663 0.026662406 0.06246897 -0.044153515 -0.006815554 -0.0031363778 0.047985937 -0.03238177
0.0024942094 0.019422738 0.09274891 0.02056783 -0.036085743 0.056800593 -0.010967573 -0.018590858
-0.03963207 -0.027722344 -0.03233163 -0.09149556 0.024761945 0.022943506 0.09158661 0.040124528
-0.008035772 0.067286976 0.08376623 0.03876499 -0.062450103 0.017682862 -0.046989616 -0.04388955
-0.081633694 0.07451136 -0.00913105 0.037387345 0.043329515 -0.03768165 -0.008370904 -0.06776168
-0.07896566 0.024980636 0.008426431 0.105422646 0.07372445 0.018514087 0.004288284 -0.037659366
-0.07076782 -0.089987285 -0.006623055 -0.089276806 -0.06362564 0.059273235 -0.050706685 -0.08670159

rnn.bias_hh_l0 f4 [400]
00000000: 5203 2fbd d29f 79bc 6f11 b43d e720 ee3d
00000010: db14 0f3d 5983 a1bc 9a21 dc3b 81c3 9c3d
00000020: a997 a43d 5be8 563d 9cfc 82bc 64a3 40bd
00000030: c0cc 02bc 5b25 1abc cb19 963d 41cd 60bc
00000040: 5473 4dbd 961e af3d a167 2c3d f074 37bd
00000050: 81f4 e1bd 48a8 91bd d74a c13d 2513 5cbc
00000060: 0026 b43d c14a a0bd bc14 1c3d 812d 463c
00000070: 4f4e 89bd 1a6a 76bd c3a0 913d c4c2 75bd
00000080: f0f9 c73d 9718 67bc d32d 90bd 9193 853c
00000090: 3403 ecbc 4505 4ebd 5294 05bd 1c09 3dbd
000000a0: 1e2d d8bb 7859 24bd 6945 97bd 0f68 373a
000000b0: 3f88 ba3d 5379 963d 603c d1bd 10e7 be3d
000000c0: c355 af3d aa4f eb3c fdeb 8fbd dfa7 ac3d
000000d0: b763 983c 1455 753c cde4 6b3c 7e55 ff3c
000000e0: 7264 8dbd 647f e4bb 068a 77bd 9a4d d4bc
000000f0: 7b59 6ebd de08 8cbd ad54 6fbd 6316 7c3d
00000100: 3bbf 913a b460 b93d 14bc a83d 0b4e b83d
00000110: 6920 613d 69bb d03d ab74 453d b8bb 1ebd
00000120: ac24 fa3d c2d5 babd 318c 813d 58e5 b73d
00000130: 1054 be3c 716d 8c3d c6da 18bc 2699 893d
00000140: 1a4c 4dbc e31a 88bd 58eb 333d 6901 0ebd
00000150: 64b5 813d 3f70 7c3c 880c c4bc d3b6 3b3d
00000160: 7550 83bd 2e46 cebc 05cc 863d 41b8 c0bd
00000170: 2d61 d63d e5b7 6abd 2d77 9c3d 34fe c53d
00000180: 6f68 4c3c cd0e 7bbd 8576 68bd 1f9c 693c
00000190: dd15 aabb 62a2 bebc 787f 8dbd 2925 4c3d
000001a0: a095 acbd 3e3d fcbb f2a1 c23d 7a79 3abd
000001b0: 4f96 3fbd 2a05 96bd 3663 a5bd 79d4 1b3d
000001c0: 1ce6 6dbd 06bb b0bd 8ec6 923d 1efb 83bd
000001d0: a102 49bd ff05 aebc caba 82bd 7b4c 883d
000001e0: 3a6d 10bd 8edd 82bd 0a13 f53c 9f76 ee3d
000001f0: 1395 c23c e39c a8bd 05de fa3d 6b6c 4c3c
00000200: e62c cfbc ae5b 933d bbfa d33c a5cd ecbc
00000210: d145 6abd 3965 8bbc e657 833c 04f2 c53d
00000220: 83eb df3d 47a7 44bd d4be 9d3d 32b5 1bbd
00000230: 1b38 ca3d 1783 213d 391b 8fbd 8c1d a6bc
00000240: 1145 843c 7ab9 55bd 7091 ccbd ff37 c23c
00000250: fdc7 be3d 24f2 4dbc f68d 74bc b268 c8bb
00000260: 0080 17bd 7805 bf3b 56c5 7bbd b89a e53d
00000270: ce9e 33bd 76b9 e7bb 51a7 41bd 9e3d 5dbd
00000280: 42a4 393d ffaf cabc 7dbe 17bd 8aec cb3d
00000290: fc99 89bd 86eb c43c 26e6 be3d 6878 b53d
000002a0: 9988 523d 1f63 04bc 901d 873d 9462 edbd
000002b0: 1fde 1f3a 2e2b b53c 4869 a4bd c6f8 62bd
000002c0: 3d48 98bd fe72 8bbd eb53 703d bcfa 84bd
000002d0: 29f8 c03d 84b0 3dbd 3d08 d5bc ccf3 bbbd
000002e0: 66aa 6ebd bef7 a13d 1343 91bd ac8d 693d
000002f0: c440 433d ab66 333d b09e ad3d caa9 a43d
00000300: 4ecb d63d be37 94b9 dd44 803d cbf9 2fbd
00000310: 9c75 92bc e6ac 0bbd 8825 673d 2b9e a23d
00000320: 76f0 823c 571f b63d 27fc 47bd 7244 8e3d
00000330: 0447 e03c afba 59bc 9013 15bd e7f5 203c
00000340: 2d70 073c 435f febb 62db 113d 5534 163d
00000350: a155 913d 2a13 323d 22a7 7f3d 303e 113d
00000360: 2d2b 95bd 9c41 833c 0903 8a3d 62c2 1eba
00000370: 741a 1dbd 2a04 0a3d ca0d 32bc 0815 3bbc
00000380: f8fb 8abd 46a3 0b3d cd93 4abd 16e5 b63c
00000390: baec dbbc cf66 adbd e99b 23bd 00db 4bbd
000003a0: bb7e 5f3c f4a6 44bd bf54 c83d a65f 66bd
000003b0: bcf0 783d 9bdd 983d f470 7b3d a54a 9c3d
000003c0: fe2d 9a3d 1775 91bc 36fe 953c 11cf c83c
000003d0: edee 58bd e7f9 be3d b41b 60bd 7743 3a3d
000003e0: 2f09 993d 6fd7 bebd 214d 3dbc 673b 9bbd
000003f0: 08a3 a23c e470 c5bc f58a af3d 75ff 8a3c
-0.042727776 -0.015235858 0.08792388 0.116273694 0.034932 -0.019715952 0.006717873 0.07654477
0.080367394 0.052467685 -0.015989594 -0.04703082 -0.0079833865 -0.00940832 0.07329138 -0.013720811
-0.050158814 0.08550756 0.042091016 -0.044789255 -0.110329635 -0.07112175 0.09438103 -0.013432299
0.087963104 -0.07826758 0.03810571 0.01209581 -0.06704389 -0.06015978 0.07110741 -0.060000196
0.09764469 -0.014104984 -0.0703999 0.016305717 -0.028810121 -0.050297994 -0.032612152 -0.046151266
-0.0065971753 -0.040124387 -0.07386286 0.0006996402 0.09108018 0.073473595 -0.10216594 0.093214154
0.085612796 0.02872451 -0.07027433 0.08430456 0.018602235 0.0149738975 0.014397812 0.031168696
-0.06903924 -0.006973194 -0.060434364 -0.02591591 -0.058190804 -0.06837629 -0.058430362 0.061544787
0.0011119613 0.09051648 0.08238998 0.089992605 0.05496255 0.10191996 0.048206966 -0.03875324
0.12214026 -0.09122802 0.063255675 0.08979291 0.023233443 0.06856812 -0.009329503 0.06718664
-0.012530351 -0.06645753 0.043925613 -0.034669314 0.06333426 0.015407621 -0.023931757 0.04582865
-0.0641183 -0.025179949 0.065818824 -0.09410144 0.104677536 -0.05730428 0.076399185 0.09667626
0.012476071 -0.061293412 -0.056753654 0.014258414 -0.0051905946 -0.02327079 -0.06909078 0.049840126
-0.08426976 -0.0076977303 0.09503545 -0.045526005 -0.046774205 -0.07325204 -0.080755636 0.038044427
-0.058080778 -0.08629422 0.071667776 -0.06444381 -0.049074773 -0.021243094 -0.063832834 0.066552125
-0.035260417 -0.063899145 0.029916305 0.11643719 0.023752725 -0.08233049 0.12249378 0.012477021
-0.025289964 0.07195221 0.025876394 -0.028906653 -0.05719549 -0.01701604 0.016033124 0.096653014
0.10933592 -0.04801109 0.07702413 -0.0380146 0.098739825 0.039431658 -0.06987614 -0.02027776
0.016146215 -0.052178837 -0.099886775 0.023708342 0.093154885 -0.012569938 -0.014926424 -0.0061159963
-0.036987305 0.0058295093 -0.06146749 0.11211151 -0.04385262 -0.007071669 -0.047278706 -0.05401384
0.045322664 -0.024742125 -0.0370469 0.099572256 -0.06718823 0.024038088 0.09321241 0.08860856
0.0513998 -0.008080273 0.065974355 -0.11591068 0.0006098467 0.022115316 -0.08027893 -0.05541303
-0.07435653 -0.068090424 0.05867378 -0.06493136 0.09422333 -0.046310917 -0.026004905 -0.0917736
-0.058267973 0.07908581 -0.070928715 0.057019874 0.047669187 0.043799084 0.08477533 0.08040197
0.10487996 -0.0002827029 0.06263135 -0.04296283 -0.017878346 -0.034100436 0.056432277 0.079403244
0.015983801 0.08892696 -0.048824456 0.06946649 0.027377613 -0.013289138 -0.03639561 0.009824253
0.008266491 -0.007762821 0.03560961 0.036671 0.070964105 0.043475308 0.06241525 0.035459697
-0.07283626 0.016022496 0.0673886 -0.0006056187 -0.038355306 0.033695377 -0.010867545 -0.011418588
-0.067863405 0.034091257 -0.04945736 0.022326034 -0.026846278 -0.08466875 -0.03994361 -0.0497694
0.013641055 -0.04801078 0.09781789 -0.05624356 0.060776457 0.07464143 0.061387017 0.07631425
0.075283036 -0.017756028 0.018309694 0.0245128 -0.052962232 0.09325009 -0.05471392 0.045474496
0.07472455 -0.093184344 -0.0115540335 -0.075796895 0.01985313 -0.024101682 0.08571426 0.016967515

linear.weight f4 [1, 100]
00000000: 9561 e3bd 7160 ed3d 1fda 973d f8a0 813d
00000010: 7134 94bd 3b56 9abd e2c3 aabd 00d7 7ebd
00000020: f74d 743d cd6b f7bd 4295 dd3d 3b66 ab3d
00000030: 4c54 c3bd b7c4 f33c 93c0 913c 9339 9fbd
00000040: 6ce2 85bd 9f74 de3d d96e 2cbd fc51 01be
00000050: 9d1d 4b3d d218 2ebd 98bf d0bd 5b43 023e
00000060: 4e1a c23d 769d ce3d c9ec 053e fe2d 9b3d
00000070: 660b 85bd 6be6 f53d 2de3 e83d 60aa cabd
00000080: 8608 a13d 3deb 0b3e bc3a d13c 6036 e0bd
00000090: c6a7 9bbc 2c83 ae3d a1ac 0ebe ff59 ba3d
000000a0: d96a 84bd f078 1c3d 0ae5 8ebc 65a3 3b3d
000000b0: d0f3 f03b 0a22 023e 50e0 b13d 77b6 82bd
000000c0: 6ece 20bd 62b7 eabd e84c 5d3c 5055 a63d
000000d0: 1c90 e03d 5d18 2bbd 550d 533d 23e0 febd
000000e0: b186 023d 9cb9 c5bd 5347 4e3d 6789 c93d
000000f0: 7246 693d 8e37 9bbd 614e c63d 351c 95bd
00000100: 683f 06be 15c1 9dbd d174 023e 0bf3 97ba
00000110: a395 9abd a81a 073e 5c32 cf3d 309c 913d
00000120: 40e7 77bd dd4a 253d 0b9d 783b b374 06be
00000130: 2f26 843d f931 963d b073 9d3d b11b cb3d
00000140: 8724 b0bc 377c adbb 0a9b 0a3d 973b 203d
00000150: ea25 4abd 8db7 c1bd 79ae 533d fb2f a53d
00000160: 4732 ccbd f3f4 db3b 6864 c8bc 21c9 92bd
00000170: 3156 3abd 6faa c73d b323 883d d399 01be
00000180: 4678 d33d 0bed aebb ed5b a9bd cdd4 023d
-0.11102597 0.1159066 0.0741465 0.063295305 -0.07236565 -0.075359784 -0.08338143 -0.06221676
0.059644666 -0.12081108 0.10819484 0.08369108 -0.09537563 0.029756887 0.017792022 -0.07774653
-0.06537327 0.108620875 -0.0420979 -0.12628931 0.04958879 -0.04250414 -0.101927936 0.12721007
0.094776735 0.10088627 0.13078608 0.07577132 -0.06496315 0.12006839 0.11371455 -0.09895778
0.07862954 0.13663955 0.025540702 -0.10947871 -0.019000899 0.08521113 -0.1393304 0.09099197
-0.06465692 0.038201272 -0.017443199 0.045810122 0.0073532835 0.12708297 0.08685362 -0.06382459
-0.039259367 -0.11460759 0.013507105 0.08121741 0.10964987 -0.04177128 0.051526386 -0.124450944
0.031866733 -0.09654543 0.05036099 0.098406605 0.056951948 -0.075789556 0.09682918 -0.07280771
-0.13110125 -0.07702843 0.12739874 -0.0011592818 -0.07548072 0.13193762 0.10117027 0.071098685
-0.06052327 0.0403546 0.0037935402 -0.13130455 0.064525954 0.0733375 0.07688081 0.09917391
-0.021501793 -0.0052943486 0.033839263 0.03911933 -0.049352564 -0.09458838 0.051680062 0.08065792
-0.09970527 0.00671255 -0.02446194 -0.071672685 -0.045492355 0.097493045 0.06647434 -0.12656336
0.10325675 -0.0053383163 -0.082694866 0.031941224
