backend/trained_models/MBL_GRU_model_state_dict.pth (torch, 126714 bytes, 5 tensors)

rnn.weight_ih_l0 f4 [300, 1]
-0.022183694 0.059404574 -0.0021234327 -0.019736798 0.040646136 0.08309495 0.08901618 -0.03524145
-0.123725444 0.084661104 0.1088926 0.06443318 0.00569798 0.08305444 0.0129467165 0.048261862
-0.061389983 0.022747023 -0.02315217 0.09602796 -0.09410576 -0.078406654 0.0090784 0.04675454
-0.04729305 -0.0044486164 0.0403847 -0.031947263 -0.00697551 -0.00093062205 -0.101279795 0.11573439
0.016590903 0.05270823 -0.06633148 0.07673215 -0.003720109 0.11963294 0.08843842 -0.0015852796
-0.011754884 -0.068081014 0.005950384 -0.033870775 0.0879235 -0.056575105 -0.07039016 -0.03742572
0.1113162 0.07542701 -0.040738918 -0.041018832 -0.037251774 0.0031855411 0.11843463 -0.06506996
-0.01750657 0.05436773 -0.01690907 0.10043818 0.03802362 -0.021679746 0.08776778 0.04329341
-0.05134319 0.113011986 0.039686885 0.040142648 -0.062239762 0.10451506 0.038051028 -0.08301525
0.040667437 0.05538214 -0.016741807 0.04079684 -0.02381512 -0.082585044 -0.040988132 0.027968375
-0.060790714 0.00821764 -0.0035734095 0.051496077 0.07411249 0.04968423 -0.072308585 0.0112235015
0.016452095 0.004557468 0.054655958 -0.04885859 -0.015381745 0.088651106 -0.035686664 -0.065168545
-0.109420896 -0.034983367 0.012146863 0.011328176 -0.062344898 -0.029188717 0.030384678 -0.009417734
-0.16757077 0.013701649 0.020247607 -0.07647977 -0.10517676 -0.077698365 -0.06748136 -0.07092141
0.025324032 -0.16792454 -0.025267508 -0.10345205 -0.09793467 -0.00923027 0.014053844 -0.034600604
-0.08962774 0.07487834 -0.0975506 -0.08499215 -0.1006121 -0.09985577 -0.039102096 -0.117060795
-0.082074456 -0.12752137 0.0073023424 -0.111642264 -0.04751897 -0.1470132 -0.14612459 -0.08885389
-0.039475862 -0.04836504 -0.021199003 -0.00881122 -0.0061390195 0.048191257 0.006419124 0.0046679205
-0.10355432 -0.08328007 -0.077069685 -0.11704439 0.10350701 0.06832821 -0.08197441 -0.003438934
0.024868753 -0.13114618 -0.10612443 -0.05056965 0.0215398 -0.11455062 0.031405028 -0.15258214
-0.106795736 -0.009334151 -0.07416176 0.03918558 0.013535127 -0.14360744 0.033237915 -0.10089725
-0.11287779 -0.006791613 -0.12159528 0.023709256 -0.15573178 -0.0552305 -0.024834003 -0.10667279
-0.13715169 -0.06476848 0.0025562695 -0.024181845 -0.12593764 -0.07941583 -0.006993471 -0.06944727
-0.13331735 -0.05062995 0.040367763 -0.0024153416 -0.040581085 -0.063189976 0.037681773 -0.10623039
-0.107920475 -0.080121234 -0.026371982 -0.11639023 -0.03269809 -0.07566356 -0.047480892 -0.00872205
-0.06748477 -0.028052054 0.090310685 -0.1140219 -0.07030937 0.09378859 0.020854358 0.12565598
0.06313977 -0.0123182135 0.032747567 -0.033879075 0.10741275 0.042323872 0.030262453 0.03273852
0.07848663 -0.011040828 0.013907981 0.025917755 -0.09039323 0.05471788 -0.0736447 0.05426041
0.0010196265 0.040932864 -0.007831079 0.07525999 -0.112877026 -0.05998343 0.070809126 0.04063166
-0.11961423 -0.048117496 -0.092849895 -0.12324681 0.022943191 0.03852991 -0.04218986 0.05533755
-0.045252647 0.022716653 0.03176287 0.030659588 -0.11127093 -0.023571454 -0.060636062 0.110463604
0.0413315 -0.029292397 0.02905025 0.11442025 0.09364402 0.114238925 0.09774757 -0.055041507
00000000: 94ba b5bc 3652 733d 4a29 0bbb 11af a1bc
00000010: 907c 263d af2d aa3d 1d4e b63d 5759 10bd
00000020: c463 fdbd cd62 ad3d 1503 df3d 8bf5 833d
00000030: 1fb6 ba3b 7218 aa3d 771e 543c 3bae 453d
00000040: 1074 7bbd f757 ba3c 9fa9 bdbc 4faa c43d
00000050: 85ba c0bd ab93 a0bd 92bd 143c b081 3f3d
00000060: 5bb6 41bd b3c5 91bb 6d6a 253d 22db 02bd
00000070: d292 e4bb fdf4 73ba c86b cfbd 2706 ed3d
00000080: a5e9 873c 96e4 573d cdd8 87bd bf25 9d3d
00000090: 12cd 73bb 1d02 f53d 341f b53d 28c9 cfba
000000a0: 8f97 40bc 0f6e 8bbd 70fb c23b 15bc 0abd
000000b0: 3c11 b43d 4cbb 67bd b728 90bd b64b 19bd
000000c0: bff9 e33d 7a79 9a3d dadd 26bd 5d03 28bd
000000d0: 5195 18bd 83c4 503b db8d f23d 6643 85bd
000000e0: f069 8fbc b2b0 5e3d e484 8abc 88b2 cd3d
000000f0: a8be 1b3d b999 b1bc 98bf b33d 6e54 313d
00000100: 3d4d 52bd d472 e73d b78e 223d 9e6c 243d
00000110: 1fef 7ebd fe0b d63d 65db 1b3d e603 aabd
00000120: e692 263d 62d8 623d 1d26 89bc 961a 273d
00000130: ed17 c3bc 5922 a9bd 2ce3 27bd ef1d e53c
00000140: afff 78bd 48a3 063c dd2f 6abb 8ded 523d
00000150: 4ac8 973d b181 4b3d 8616 94bd c7e2 373c
00000160: 8bc6 863c d056 953b edde 5f3d f21f 48bd
00000170: b703 7cbc b68e b53d 2e2c 12bd 1677 85bd
00000180: 1018 e0bd b84a 0fbd a303 473c d099 393c
00000190: 5d5d 7fbd 2d1d efbc 4ae9 f83c d74c 1abc
000001a0: ac97 2bbe e27c 603c 4fde a53c 6da1 9cbd
000001b0: ea66 d7bd 5220 9fbd ab33 8abd 3f3f 91bd
000001c0: 5874 cf3c 69f4 2bbe cefd cebc abde d3bd
000001d0: f991 c8bd 8f3a 17bc 1842 663c 5db9 0dbd
000001e0: c08e b7bd d159 993d 9cc8 c7bd 5d10 aebd
000001f0: b70d cebd 2f81 ccbd 8529 20bd 92bd efbd
00000200: a716 a8bd f694 02be 7d48 ef3b b3a4 e4bd
00000210: 40a3 42bd a18a 16be afa1 15be 07f9 b5bd
00000220: 71b1 21bd 6c1a 46bd 88a9 adbc ef5c 10bc
00000230: d429 c9bb 3264 453d 8457 d23b 5bf5 983b
00000240: 4a14 d4bd be8e aabd b6d6 9dbd f8b4 efbd
00000250: 7cfb d33d a9ef 8b3d 33e2 a7bd bd5f 61bb
00000260: 8eb9 cb3c 2f4b 06be c457 d9bd 1f22 4fbd
00000270: 3c74 b03c 8499 eabd 8fa2 003d 7e3e 1cbe
00000280: b9b7 dabd 44ee 18bc 1fe2 97bd 0f81 203d
00000290: 70c2 5d3c d40d 13be 7b24 083d 38a3 cebd
000002a0: 792c e7bd 2e8c debb f206 f9bd ea39 c23c
000002b0: 2778 1fbe 6039 62bd ae70 cbbc 4477 dabd
000002c0: 7e71 0cbe 56a5 84bd 1687 273b 0119 c6bc
000002d0: ccf5 00be c4a4 a2bd 7d29 e5bb 5f3a 8ebd
000002e0: 5884 08be 5a61 4fbd ab58 253d b54a 1ebb
000002f0: 5a38 26bd bf69 81bd 3458 1a3d 528f d9bd
00000300: 6905 ddbd 9a16 a4bd 0e0a d8bc 005e eebd
00000310: 6fee 05bd 7ff5 9abd 537b 42bd eee6 0ebc
00000320: 7535 8abd 6ccd e5bc cff4 b83d 5084 e9bd
00000330: 5cfe 8fbd 3b14 c03d c2d6 aa3c f6ab 003e
00000340: 6c4f 813d 55d2 49bc 5022 063d c9c4 0abd
00000350: 37fb db3d cc5b 2d3d f7e8 f73c d418 063d
00000360: 99bd a03d 97e4 34bc 4dde 633c 7951 d43c
00000370: 1620 b9bd db1f 603d 08d3 96bd 2a40 5e3d
00000380: fda4 853a 38a9 273d ed4d 00bc e921 9a3d
00000390: 122c e7bd 2fb1 75bd 6004 913d 626d 263d
000003a0: 4ef8 f4bd da16 45bd 1628 bebd d368 fcbd
000003b0: 5cf3 bb3c 8ad1 1d3d 46cf 2cbd a0a9 623d
000003c0: d75a 39bd 4618 ba3c c819 023d d129 fb3c
000003d0: 03e2 e3bd ec18 c1bc 855d 78bd be3a e23d
000003e0: 384b 293d 9cf6 efbc cafa ed3c 2a55 ea3d
000003f0: 70c8 bf3d 19f6 e93d e12f c83d 3473 61bd

rnn.weight_hh_l0 f4 [300, 100]
0.023472501 0.0060225464 0.035091903 -0.017243333 -0.110267326 -0.04131225 -0.022057598 -0.045859724
0.04932396 -0.017274698 -0.095511235 -0.051005673 0.016477346 -0.074682824 -0.081746854 -0.0045242985
-0.04101176 0.017526176 0.030929787 0.11222258 0.0063332305 0.031949643 -0.049066186 -0.023193177
-0.07524457 0.061207958 -0.061036415 -0.026617419 -0.05011373 -0.014268816 0.103843845 -0.03273856
-0.068630494 -0.02367444 -0.01575101 -0.043919094 0.003634822 0.045511384 0.04198492 0.009584639
-0.106507 0.05987408 0.0139256995 -0.0506345 0.030775713 0.0014623271 -0.11013284 -0.045863822
0.030094337 0.0075388453 0.056705173 0.03613516 0.07151935 -0.004154563 0.08266271 -0.042361185
0.05815231 0.07320028 0.067256145 0.07635426 0.09314811 -0.11803777 -0.024836281 0.096967995
-0.039166946 0.12533504 0.047045883 -0.12520449 0.020022903 -0.013348597 -0.051104087 -0.008354481
0.1023365 0.08975583 0.017563736 -0.024274651 0.056187946 0.100430615 -0.060066413 -0.051293086
0.08209338 -0.1025457 0.09883172 0.016308276 -0.044869624 -0.06509492 -0.10459356 -0.10877627
0.011209171 0.04567441 0.11502384 0.024355492 -0.077265725 0.03541257 -0.055593997 -0.011717822
-0.0034765017 0.06803774 0.046219934 0.054696664 -0.053042673 -0.04361999 0.117077366 -0.034420736
0.027401414 0.09884535 -0.019743504 0.047943864 0.015518589 0.010373654 -0.03868528 0.07402016
0.012806283 0.014881356 -0.07937647 -0.04334476 -0.0042360076 -0.03983845 0.06684107 0.009637682
-0.100633614 -0.04915313 0.02076436 -0.023314474 -0.103207305 0.039648995 0.009338872 -0.0002324922
0.063704595 0.076897286 0.120498344 0.0425112 -0.05388121 -0.09113986 -0.044117406 0.047402162
0.0625184 -0.029215148 -0.06425847 0.06829109 0.07821494 0.028526723 0.0016125906 0.11020905
-0.0018516888 -0.09367105 0.044589955 0.012225335 0.06500581 -0.0097420085 0.06735412 0.033770252
0.07953877 0.10759735 0.05565777 -0.120190285 0.016409256 0.0180876 0.006012716 0.05399256
-0.030833416 -0.094936915 -0.07769233 -0.016594315 -0.043421976 0.021917272 -0.045172922 -0.07019354
0.012037576 0.0019516699 0.018539159 0.016417334 -0.03931322 0.039706722 0.004974112 -0.048676834
-0.117026575 0.0036421933 0.03432192 0.059010096 -0.0688464 0.06450371 -0.040823273 -0.059532452
0.029423965 0.11771941 0.06453945 -0.017273892 0.0780369 0.054639183 0.09548079 0.07365402
-0.11200604 0.061649915 -0.0881334 -0.11877604 -0.03859875 0.00634186 0.07613489 0.08069851
0.05612942 -0.070187405 0.0041689007 0.09174365 0.04764327 0.014870232 -0.02585973 -0.046714935
0.079628155 -0.02697693 -0.08617626 -0.006637656 -0.10973663 -0.05688328 -0.07983032 0.06552616
-0.118698366 0.044983022 0.043371502 -0.03962909 -0.050561734 0.08626761 -0.0382197 -0.039355993
0.07545066 0.022649618 0.01422741 -0.012699522 0.088433355 -0.053229973 -0.07821836 0.058721583
0.037158597 -0.06794207 0.121300794 0.05116015 0.099194646 -0.01818424 0.009220939 -0.058140017
0.0080569405 0.0016804927 0.11387331 -0.07132438 0.06751408 -0.0049318885 -0.06636613 -0.04674045
0.047137532 0.044880345 0.038456947 -0.06844227 -0.033105854 0.047914922 -0.07737982 -0.05159572
00000000: 6749 c03c c858 c53b 87bc 0f3d e441 8dbc
00000010: d6d3 e1bd 0937 29bd 23b2 b4bc 68d7 3bbd
00000020: ec07 4a3d ab83 8dbc 659b c3bd 53eb 50bd
00000030: 80fb 863c 4ff3 98bd e56a a7bd 9140 94bb
00000040: f2fb 27bd 0e93 8f3c 7760 fd3c f4d4 e53d
00000050: fd86 cf3b a1dd 023d a0f9 48bd 9eff bdbc
00000060: d319 9abd 32b5 7a3d 5201 7abd c60c dabc
00000070: 0e44 4dbd c1c7 69bc 15ac d43d de18 06bd
00000080: 258e 8cbd e6f0 c1bc 4308 81bc 82e4 33bd
00000090: 3236 6e3b 256a 3a3d 61f8 2b3d e408 1d3c
000000a0: 5820 dabd 863e 753d 9e28 643c 1f66 4fbd
000000b0: 591d fc3c 8eab bf3a 548d e1bd b4db 3bbd
000000c0: 6688 f63c 6b08 f73b af43 683d 7602 143d
000000d0: bd78 923d 0023 88bb 114b a93d ec82 2dbd
000000e0: 1e31 6e3d 07ea 953d 97bd 893d 9f5f 9c3d
000000f0: 70c4 be3d c9bd f1bd 7575 cbbc 2897 c63d
00000100: 856d 20bd d457 003e 2fb3 403d 9b35 00be
00000110: 1207 a43c 13b4 5abc 8552 51bd 3ce1 08bc
00000120: cd95 d13d e8d1 b73d d3e1 8f3c a2db c6bc
00000130: 5525 663d 91ae cd3d 3308 76bd b318 52bd
00000140: 9320 a83d 7b03 d2bd 4968 ca3d ef98 853c
00000150: 36c9 37bd 7c50 85bd 2635 d6bd 18c6 debd
00000160: aca6 373c 1715 3b3d 9e91 eb3d 2b85 c73c
00000170: 7e3d 9ebd c50c 113d 88b6 63bd 1cfc 3fbc
00000180: 05d6 63bb 5f57 8b3d 1d51 3d3d 9c09 603d
00000190: 4643 59bd e0aa 32bd 42c6 ef3d c2fc 0cbd
000001a0: ee78 e03c 6e6f ca3d 21bd a1bc c960 443d
000001b0: ae41 7e3c 42f6 293c 7574 1ebd e297 973d
000001c0: 72d1 513c eed0 733c 2190 a2bd 468a 31bd
000001d0: 35ce 8abb a42d 23bd f9e3 883d 5ee7 1d3c
000001e0: ff18 cebd cb54 49bd 051a aa3c fffd bebc
000001f0: 5a5e d3bd fc66 223d 1102 193c 26c9 73b9
00000200: 8e77 823d 537c 9d3d d6c7 f63d 3920 2e3d
00000210: 8bb2 5cbd 89a7 babd 74b4 34bd c528 423d
00000220: a609 803d 9b54 efbc f299 83bd 33dc 8b3d
00000230: 282f a03d e0b0 e93c 905d d33a 48b5 e13d
00000240: 5eb4 f2ba 9cd6 bfbd f5a3 363d c64c 483c
00000250: c421 853d f29c 1fbc f5f0 893d ad52 0a3d
00000260: 39e5 a23d 005c dc3d 67f9 633d 5326 f6bd
00000270: b46c 863c 722c 943c 5106 c53b 4d27 5d3d
00000280: 5c96 fcbc 496e c2bd 281d 9fbd cdf0 87bc
00000290: 3edb 31bd da8b b33c 3e07 39bd a1c1 8fbd
000002a0: 4139 453c 2dcf ff3a 6fdf 973c a57d 863c
000002b0: e606 21bd 84a3 223d e0fd a23b 5c61 47bd
000002c0: a1ab efbd ddb1 6e3b 2495 0c3d 92b4 713d
000002d0: 57ff 8cbd 851a 843d 4e36 27bd 4dd8 73bd
000002e0: 870a f13c e016 f13d 422d 843d fa81 8dbc
000002f0: cfd1 9f3d 56cd 5f3d 6f8b c33d ebd7 963d
00000300: 6c63 e5bd 9f84 7c3d 497f b4bd da40 f3bd
00000310: b919 1ebd 61cf cf3b 9cec 9b3d 4345 a53d
00000320: f6e7 653d 6abe 8fbd 469b 883b 18e4 bb3d
00000330: 9725 433d 46a2 733c c9d7 d3bc 2958 3fbd
00000340: 1614 a33d b9fe dcbc 2e7d b0bd b280 d9bb
00000350: 99bd e0bd 71fe 68bd 147e a3bd 9432 863d
00000360: 2118 f3bd 1e40 383d 51a6 313d 1d52 22bd
00000370: d219 4fbd 13ad b03d 438c 1cbd c033 21bd
00000380: e085 9a3d b18b b93c 151a 693c a811 50bc
00000390: 8c1c b53d ac07 5abd f330 a0bd 0b86 703d
000003a0: 9d33 183d 3625 8bbd 8d6c f83d 4e8d 513d
000003b0: 9026 cb3d 1ef7 94bc 6c13 173c 3a24 6ebd
000003c0: 4201 043c fa43 dc3a 6936 e93d 8412 92bd
000003d0: d244 8a3d ae9b a1bb f7ea 87bd ea72 3fbd
000003e0: 4913 413d 74d4 373d 0885 1d3d 762b 8cbd
000003f0: 019a 07bd 7042 443d 5079 9ebd 0956 53bd

rnn.bias_ih_l0 f4 [300]
0.050557252 0.092197604 -0.021902557 0.072391964 -0.0328392 0.06426649 0.030168284 0.092309326
-0.0684985 -0.021813449 -0.022529967 0.09941507 0.07881249 0.099695645 0.09728728 -0.008194178
-0.092680275 0.06722371 0.02261036 0.018767696 -0.099331245 -0.05590288 0.08079465 -0.07468453
0.057006612 0.009319805 0.030126927 -0.060108196 -0.076907195 0.08773304 -0.05519671 0.08247313
0.03365569 0.0034076362 0.05255434 -0.06156055 -0.008921959 0.062466215 0.05162128 0.09558403
0.0409122 0.07052709 -0.055010844 0.086241625 -0.03056279 0.09865088 0.0006195939 -0.08128228
0.03483188 0.030542504 -0.012510146 -0.06284461 0.091497965 -0.014121819 0.10178235 0.105044216
0.043464653 -0.08278204 -0.03773412 -0.02721733 0.046534047 0.0874734 -0.046402473 0.028613878
0.082820535 0.00950109 -0.03406532 -0.08920704 -0.012392923 -0.0077499636 0.054307908 -0.08181997
0.07380491 0.046180997 0.040953193 -0.0035353666 0.08612327 -0.11383366 0.022754213 0.01895405
0.09513686 0.022963993 -0.034794483 -0.07853018 0.0038293176 0.11054572 -0.027023025 -0.052484807
0.08323654 0.08598985 0.088644646 0.045411035 0.09088663 0.0104736285 0.0013401745 0.0651541
-0.012056664 0.019556738 0.045926053 -0.016939016 -0.10668993 0.005196162 -0.030735577 0.0039457623
-0.033918425 -0.15479365 -0.029212156 -0.17967986 -0.1150253 -0.15410191 0.016268382 0.0036066913
-0.041508194 -0.14463024 -0.05268822 -0.029334556 -0.049691953 -0.10078694 -0.16370554 -0.10290613
-0.119335935 0.06461569 0.055460207 -0.0994866 -0.03629703 -0.019023323 0.027594516 -0.097888425
-0.131995 0.020944126 -0.12729117 0.053766266 -0.0709314 -0.077250116 0.029860675 -0.00221819
-0.0522435 -0.0948632 -0.019119505 0.060806934 -0.115561135 0.048582647 0.0691901 0.0063400306
-0.039041482 -0.052063894 -0.03347439 -0.08792576 0.06803911 0.078417644 -0.1237724 -0.06075188
-0.09448296 -0.017844766 -0.009597079 -0.16238207 -0.14887282 -0.10894293 -0.05880817 0.009830154
0.0008599495 -0.07944231 -0.18169129 -0.02827936 0.004331825 -0.14101905 -0.06645516 -0.07227872
-0.14085859 -0.08195737 -0.027302658 0.011985169 -0.17703964 -0.134535 0.022650823 -0.14086072
-0.16365634 -0.12053613 -0.0016163861 -0.08260383 -0.15970924 -0.100623146 0.041340433 -0.17399694
-0.17033124 -0.080588736 -0.15172344 0.007781756 0.08753972 -0.049296245 -0.050583612 0.01185505
-0.04078862 -0.14632934 -0.10563298 -0.09524303 0.032830402 -0.13367403 -0.063648395 0.017011661
0.07351329 -0.039019763 -0.069932304 0.051786732 0.09190124 0.03867962 -0.062059354 -0.060411684
0.047697145 -0.026219625 -0.08843597 -0.06770505 -0.05908487 -0.053001173 -0.04182091 -0.05718671
-0.063566275 -0.0980157 -0.041213237 -0.09904143 -0.053011034 0.06607253 -0.0711599 0.08417512
0.025299598 0.05117498 0.017937034 -0.11468322 0.07250251 0.08049572 0.017743139 -0.06445133
-0.082806565 -0.015787017 0.05123622 0.00046238914 -0.013737725 -0.028595058 -0.087893695 0.0168588
-0.006228858 -0.012377251 0.033470772 -0.013567906 -0.040093873 0.08938543 -0.0065517784 -0.081484854
0.08200546 -0.082720146 -0.0312128 0.015390913 0.08880554 0.04041465 -0.015415689 0.09867489
00000000: 1f15 4f3d 19d2 bc3d fe6c b3bc 3d42 943d
00000010: 6682 06bd 269e 833d 7a23 f73c ac0c bd3d
00000020: f148 8cbd 1eb2 b2bc c490 b8bc 219a cb3d
00000030: 7168 a13d 3b2d cc3d 8e3e c73d e040 06bc
00000040: 28cf bdbd 96ac 893d 5d39 b93c b6be 993c
00000050: 2e6e cbbd 6bfa 64bd aa77 a53d 34f4 98bd
00000060: c47f 693d 18b2 183c bfcc f63c 0334 76bd
00000070: 8581 9dbd 61ad b33d f215 62bd ace7 a83d
00000080: 8cda 093d a652 5f3b 3843 573d ea26 7cbd
00000090: 692d 12bc 93dc 7f3d d670 533d 8fc1 c33d
000000a0: 8d93 273d 8270 903d 0d53 61bd 739f b03d
000000b0: d15e fabc 7909 ca3d 3e6c 223a 5377 a6bd
000000c0: e0ab 0e3d 4634 fa3c 5bf7 4cbc adb4 80bd
000000d0: 4963 bb3d 345f 67bc 4473 d03d 6c21 d73d
000000e0: fe07 323d a189 a9bd 188f 1abd e1f6 debc
000000f0: 7c9a 3e3d 4125 b33d 8510 3ebd a767 ea3c
00000100: d09d a93d 76aa 1b3c 1488 0bbd 2eb2 b6bd
00000110: b00b 4bbc 68f3 fdbb f871 5e3d 3a91 a7bd
00000120: 0727 973d 4928 3d3d 89be 273d 9cb1 67bb
00000130: 6661 b03d 9f21 e9bd 0b67 ba3c 8645 9b3c
00000140: 1dd7 c23d fc1e bc3c a984 0ebd 6ed4 a0bd
00000150: 4af5 7a3b cb65 e23d 645f ddbc 4ffa 56bd
00000160: eb77 aa3d 721b b03d 538b b53d ec00 3a3d
00000170: c522 ba3d 9599 2b3c cba8 af3a 836f 853d
00000180: 5089 45bc 7435 a03c f51c 3c3d b1c3 8abc
00000190: 4080 dabd 9144 aa3b 2dc9 fbbc 744b 813b
000001a0: 0cee 0abd 3a82 1ebe 554e efbc fffd 37be
000001b0: 6292 ebbd e4cc 1dbe 4545 853c 3d5e 6c3b
000001c0: 7f04 2abd f319 14be 9acf 57bd 064f f0bc
000001d0: ca89 4bbd 6269 cebd 6da2 27be 73c0 d2bd
000001e0: 6666 f4bd 3b55 843d 3e2a 633d a1bf cbbd
000001f0: 32ac 14bd cdd6 9bbc e50d e23c ba79 c8bd
00000200: b329 07be 0493 ab3c 9e58 02be 043a 5c3d
00000210: 7b44 91bd 4f35 9ebd 609e f43c 0e5f 11bb
00000220: 48fd 55bd a347 c2bd 82a0 9cbc b110 793d
00000230: 51ab ecbd 99fe 463d 8ab3 8d3d 08c0 cf3b
00000240: f6e9 1fbd f340 55bd 711c 09bd 6c12 b4bd
00000250: 1758 8b3d 6e99 a03d 627c fdbd f7d6 78bd
00000260: 4880 c1bd 302f 92bc 113d 1dbc 7c47 26be
00000270: 1e72 18be 791d dfbd d6e0 70bd a70e 213c
00000280: 3c6e 613a a6b2 a2bd 480d 3abe 1eaa e7bc
00000290: fbf1 8d3b 4c67 10be a519 88bd de06 94bd
000002a0: 3c3d 10be 44d9 a7bd d3a9 dfbc 715d 443c
000002b0: e149 35be 8bc3 09be 388e b93c cb3d 10be
000002c0: 8795 27be a6db f6bd ebdc d3ba 322c a9bd
000002d0: d28a 23be 8213 cebd 9654 293d 412c 32be
000002e0: 506b 2ebe b50b a5bd 645d 1bbe 1afe fe3b
000002f0: 0648 b33d dcea 49bd c330 4fbd af3b 423c
00000300: f811 27bd 5cd7 15be 1b56 d8bd c70e c3bd
00000310: 2c79 063d d8e1 08be 175a 82bd 0a5c 8b3c
00000320: 238e 963d 30d3 1fbd ab38 8fbd 531e 543d
00000330: b836 bc3d 856e 1e3d f331 7ebd 3e72 77bd
00000340: 155e 433d 8aca d6bc eb1d b5bd f2a8 8abd
00000350: fa02 72bd c217 59bd 674c 2bbd 9d3c 6abd
00000360: 092f 82bd 75bc c8bd 36cf 28bd 3cd6 cabd
00000370: 1922 59bd 0951 873d 48bc 91bd 0164 ac3d
00000380: 1a41 cf3c db9c 513d b0f0 923c 09df eabd
00000390: 327c 943d f1da a43d 0f5a 913c 0fff 83bd
000003a0: 7d96 a9bd c653 81bc 12dd 513d d26c f239
000003b0: 3214 61bc 2f40 eabc 9c01 b4bd 771b 8a3c
000003c0: 731b ccbb f4c9 4abc a618 093d ec4b 5ebc
000003d0: 7939 24bd b50f b73d 4db0 d6bb 88e1 a6bd
000003e0: 7bf2 a73d 2e69 a9bd fcb1 ffbc 2b2a 7c3c
000003f0: aedf b53d d589 253d 1692 7cbc 1016 ca3d

rnn.bias_hh_l0 f4 [300]
0.007992198 0.07351583 0.05115689 -0.023977013 0.06627536 0.07342434 0.07128008 0.020578468
-0.0079330485 -0.014087474 0.11696822 0.06118414 -0.010195 -0.024832701 0.020454386 -0.024022203
-0.060349744 -0.10280737 0.07709328 0.09672722 0.032825075 0.05140818 -0.05375864 0.085048385
0.08092746 0.053588714 0.052197386 -0.02798287 0.086940035 0.05478574 0.05124171 0.10607443
-0.045963325 -0.028414557 -0.044176716 -0.071647145 0.034587763 -0.02326487 -0.048179228 -0.042824596
0.036380786 0.108300805 0.042341307 -0.041130405 -0.063449934 0.028988773 -0.055633977 0.046382446
-0.036793273 -0.043957606 0.0780348 0.022402572 -0.011878359 0.073286325 -0.055639558 -0.08293043
0.087542206 0.0023074867 -0.08549546 0.11575381 -0.066988744 0.07310656 -0.08243691 -0.010901515
0.02652939 0.053639 0.02949803 -0.017774977 0.038464505 -0.07287389 0.055442948 0.09069223
-0.01859095 0.04258778 -0.07538776 -0.057108138 0.005987891 0.048188858 0.03137777 0.08639072
-0.025720853 0.023002401 -0.05047634 0.06915774 -0.06572908 0.09542653 0.006551917 -0.030567957
-0.07268638 0.07038749 0.027180705 -0.020140393 -0.062171675 0.02186908 -0.009019738 0.053469796
-0.06371137 0.08107137 -0.018697394 -0.07407629 -0.17045632 0.009030204 -0.017200002 0.002508885
-0.05312148 0.0015157006 -0.0955117 -0.15738465 -0.0717639 -0.10738912 -0.038363058 -0.10329862
-0.15660791 -0.037186753 -0.13353065 -0.13448957 0.009443101 0.07214041 -0.14480358 -0.15415533
-0.09024985 -0.07703399 -0.1102384 -0.1744446 -0.090798974 -0.03521709 -0.11284279 0.019989163
-0.09676157 -0.04240748 -0.13262603 0.02987255 -0.05213848 -0.102773614 -0.09360939 -0.1430189
-0.020038689 -0.1617664 -0.044586528 -0.115000255 -0.15681677 -0.12762333 0.09502631 -0.04569459
-0.07974892 0.052631214 -0.13932277 -0.1426207 -0.0007884534 0.07118792 -0.15952931 -0.0731017
0.0030976224 -0.13716094 -0.04631173 0.003464074 -0.16650374 -0.043212492 -0.16749045 -0.13808964
-0.16500485 -0.1618118 -0.1543441 -0.007688829 -0.09019734 -0.026154626 -0.14685684 -0.13212991
0.038702406 -0.033261627 -0.06911629 0.0221385 -0.14331791 -0.07453555 -0.019747974 -0.04581568
-0.10039261 -0.13964802 -0.04861749 0.0024401578 -0.128963 -0.16466856 0.026955936 0.010990045
-0.13901249 0.013871629 -0.02551245 -0.030536037 -0.08511052 -0.1173408 0.0027517946 0.033161104
-0.119556926 0.010940702 -0.16348755 -0.16555496 -0.07009408 -0.038137905 0.029553859 0.08725889
0.07755706 -0.062883966 0.03187338 -0.011305903 -0.047032017 0.090531744 -0.015315685 -0.03529508
-0.031706817 -0.017582253 0.041203294 -0.055391252 0.0532562 -0.027732452 -0.08032792 0.055429883
0.0064416355 -0.018939942 -0.08519119 -0.015420406 -0.006324167 0.040395174 0.010557959 -0.021045879
-0.051501554 0.014154908 -0.0016201918 -0.09843807 0.037523977 -0.05561047 -0.06000487 -0.0255612
-0.03622358 0.0057423376 0.03877118 -0.050079387 -0.09970161 0.014768786 -0.04853371 -0.09930008
-0.01588903 0.07020344 -0.0069914986 -0.10114178 0.022584707 -0.07345358 0.053307872 0.017162787
-0.02811831 0.10856398 0.057496622 -0.037480604 0.01458022 0.039742712 0.03354086 0.01047691
00000000: b5f1 023c 788f 963d e389 513d 716b c4bc
00000010: 60bb 873d 805f 963d 4afb 913d 2d94 a83c
00000020: 9ef9 01bc 26cf 66bc 098d ef3d 399c 7a3d
00000030: ee08 27bc f36d cbbc f58f a73c 36ca c4bc
00000040: 4b31 77bd ac8c d2bd 15e3 9d3d ec18 c63d
00000050: 9673 063d 6291 523d 0532 5cbd d92d ae3d
00000060: 4cbd a53d d77f 5b3d edcc 553d 553c e5bc
00000070: 9e0d b23d 0367 603d d4e2 513d 8d3d d93d
00000080: 0a44 3cbd a5c5 e8bc a5f2 34bd bdbb 92bd
00000090: e6ab 0d3d f895 bebc 9557 45bd d868 2fbd
000000a0: 0504 153d d0cc dd3d 146e 2d3d 5b78 28bd
000000b0: 0af2 81bd dd79 ed3c 74e0 63bd 85fb 3d3d
000000c0: 8bb4 16bd e40c 34bd b6d0 9f3d 9985 b73c
000000d0: 739d 42bc 2417 963d 4ee6 63bd 6ed7 a9bd
000000e0: 5449 b33d 3439 173b 3e18 afbd 5510 ed3d
000000f0: 6531 89bd e4b8 953d afd4 a8bd 459c 32bc
00000100: 2a54 d93c 91b4 5b3d daa5 f13c d49c 91bc
00000110: f58c 1d3d e83e 95bd 2518 633d d9bc b93d
00000120: 0c4c 98bc 8670 2e3d e664 9abd 39ea 69bd
00000130: 1236 c43b ae61 453d fa85 003d 9eed b03d
00000140: 8ab4 d2bc 886f bc3c 47c0 4ebd 93a2 8d3d
00000150: f89c 86bd fc6e c33d 77b1 d63b a769 fabc
00000160: 99dc 94bd 5127 903d 12aa de3c 77fd a4bc
00000170: baa7 7ebd c926 b33c 86c7 13bc 2503 5b3d
00000180: 1b7b 82bd bf08 a63d 472b 99bc 4fb5 97bd
00000190: 1a8c 2ebe 6cf3 133c 05e7 8cbc 1b6c 243b
000001a0: e995 59bd 79aa c63a a39b c3bd 7129 21be
000001b0: f4f8 92bd d4ee dbbd 9522 1dbd 3a8e d3bd
000001c0: d35d 20be 2351 18bd 42bc 08be a2b7 09be
000001d0: 3cb7 1a3c 5abe 933d 6447 14be e5da 1dbe
000001e0: ead4 b8bd ffc3 9dbd acc4 e1bd 9ba1 32be
000001f0: d0f4 b9bd cc3f 10bd 1f1a e7bd 50c0 a33c
00000200: ee2a c6bd 77b3 2dbd 1ecf 07be 47b7 f43c
00000210: 298f 55bd f97a d2bd 48b6 bfbd 8c73 12be
00000220: 2d28 a4bc 17a6 25be 5da0 36bd 4185 ebbd
00000230: 9394 20be b1af 02be 279d c23d 402a 3bbd
00000240: 6753 a3bd d493 573d a1aa 0ebe 290b 12be
00000250: 36b0 4eba f9ca 913d a75b 23be 58b6 95bd
00000260: 7b01 4b3b eb73 0cbe 5eb1 3dbd 8505 633b
00000270: f57f 2abe 95ff 30bd 9e82 2bbe 5f67 0dbe
00000280: 08f7 28be feb1 25be 610c 1ebe 93f2 fbbb
00000290: 62b9 b8bd 3a42 d6bc a461 16be 104d 07be
000002a0: 6a86 1e3d 583d 08bd d78c 8dbd cd5b b53c
000002b0: eec1 12be 18a6 98bd 81c6 a1bc 39a9 3bbd
000002c0: a49a cdbd e4ff 0ebe 2223 47bd 0eeb 1f3b
000002d0: e00e 04be e09e 28be b2d2 dc3c 970f 343c
000002e0: 4a59 0ebe d445 633c 7cff d0bc b626 fabc
000002f0: 6d4e aebd 6050 f0bd 7457 343b f0d3 073d
00000300: 43da f4bd a140 333c 4869 27be 3d87 29be
00000310: 7c8d 8fbd 7e36 1cbd ef1a f23c cab4 b23d
00000320: 3cd6 9e3d 4fc9 80bd a98d 023d 653c 39bc
00000330: a5a4 40bd b568 b93d a4ee 7abc 9391 10bd
00000340: 02df 01bd a808 90bc c9c4 283d f0e1 62bd
00000350: 2c23 5a3d 2b2f e3bc f782 a4bd 720a 633d
00000360: 5b14 d33b f027 9bbc b878 aebd dfa5 7cbc
00000370: f53a cfbb 6975 253d 4afb 2c3c 6868 acbc
00000380: 4bf3 52bd fde9 673c 9e5c d4ba e699 c9bd
00000390: beb2 193d cec7 63bd abc7 75bd b965 d1bc
000003a0: 2d5f 14bd 382a bc3b 87ce 1e3d 0b20 4dbd
000003b0: 5c30 ccbd c7f8 713c 49cb 46bd d75d cbbd
000003c0: b629 82bc d2c6 8f3d f118 e5bb 6c23 cfbd
000003d0: 9003 b93c d56e 96bd 5b59 5a3d f998 8c3c
000003e0: 5f58 e6bc cb56 de3d 9481 6b3d 4385 19bd
000003f0: e0e1 6e3c 41c9 223d 2462 093d 58a7 2b3c

linear.weight f4 [1, 100]
-0.12584476 -0.10637113 0.017570082 -0.12544732 -0.053201754 0.067519575 0.067606114 0.08328591
0.002844004 -0.111330755 -0.0698072 0.04342323 0.06329267 0.05117233 0.09303446 0.11238878
-0.04090145 0.00052780967 0.004747679 0.039764058 0.015336122 -0.01751976 0.066581145 0.10763204
-0.102533564 -0.013934733 -0.07211152 0.018268785 -0.12860008 -0.06862972 0.070410274 -0.06178865
-0.105056584 -0.0377492 -0.013132284 -0.11505179 -0.071293265 0.08745007 -0.06426884 -0.065825626
-0.039801378 -0.0912549 -0.06813326 0.107795954 -0.0902018 0.04524528 -0.11968061 0.01636812
-0.08258578 0.0291751 0.07695328 0.072465934 0.10351451 0.084692284 0.03725228 -0.026747504
-0.12552541 0.05268896 -0.043238707 0.06280377 0.06503299 -0.0657677 -0.08767065 0.111901656
0.045445073 0.09734728 0.058794174 -0.095707 0.018100834 -0.06489227 0.097391754 -0.021156205
0.07462382 0.03764935 4.5397224e-05 0.09140329 -0.09146496 0.006742497 -0.05117208 -0.087947614
-0.10992803 -0.07590094 0.08325441 0.0899619 -0.12017995 0.099387534 -0.014785548 0.030585371
0.040235285 -0.05545846 0.056739572 -0.014290016 -0.11435686 0.009513886 -0.12662292 -0.121104755
0.010765068 -0.06582668 -0.074096814 -0.07466008
00000000: 73dd 00be 1bd9 d9bd 22ef 8f3c 4375 00be
00000010: 15ea 59bd b447 8a3d 1375 8a3d ce91 aa3d
00000020: 7862 3a3b 6101 e4bd 14f7 8ebd 8fdc 313d
00000030: 969f 813d 149a 513d da88 be3d 172c e63d
00000040: 4788 27bd b55c 0a3a 6b92 9b3b a3df 223d
00000050: 5c44 7b3c 9a85 8fbc b25b 883d 306e dc3d
00000060: 1efd d1bd 824e 64bc 34af 93bd 6ba8 953c
00000070: bdaf 03be bd8d 8cbd 4333 903d 1816 7dbd
00000080: e827 d7bd e89e 1abd cb28 57bc 46a0 ebbd
00000090: 3402 92bd 0619 b33d 629f 83bd 96cf 86bd
000000a0: c506 23bd d9e3 babd 7389 8bbd 20c4 dc3d
000000b0: b9bb b8bd 1d53 393d 1c1b f5bd 7016 863c
000000c0: bc22 a9bd 9f00 ef3c ae99 9d3d 0569 943d
000000d0: 6aff d33d 2673 ad3d d995 183d 951d dbbc
000000e0: bc89 00be 61d0 573d 121b 31bd 439f 803d
000000f0: 0430 853d 37b1 86bd ab8c b3bd b22c e53d
00000100: 9d24 3a3d 035e c73d 29d2 703d 0802 c4bd
00000110: 3348 943c 3de6 84bd 5475 c73d c74f adbc
00000120: 60d4 983d 3436 1a3d e668 3e38 a631 bb3d
00000130: fb51 bbbd 2af0 dc3b d199 51bd e11d b4bd
00000140: f221 e1bd f471 9bbd 4a81 aa3d f23d b83d
00000150: e820 f6bd b18b cb3d 153f 72bc 2c8e fa3c
00000160: c1cd 243d 6928 63bd c167 683d ac20 6abc
00000170: ee33 eabd 21e0 1b3c 70a9 01be c505 f8bd
00000180: f85f 303c 23d0 86bd 12c0 97bd 62e7 98bd
