backend/trained_models/NABIL_LSTM_model_state_dict.pth (torch, 808469 bytes, 9 tensors)

rnn.weight_ih_l0 f4 [512, 5]
00000000: 3d00 073d 9a82 793d 58c7 553d d7c4 8c3a
00000010: 62de 19bd defb f2bc 534a 60bd 7f6e 95bd
00000020: 3424 6cbc 3fb9 08bd 7754 343d 7dd5 423d
00000030: c3d0 7f3c 5351 27bd a6f6 bb3d c6eb 38bd
00000040: 9f28 ddbc 2911 363d aba7 d33b 453a 893d
00000050: 78b0 b3bc 67ed e3bc 63b3 64bd 04b1 993d
00000060: f984 833b 9326 2abd 9b27 ca3b 01e7 74bc
00000070: da2c 503d e923 9bbc cefb b13d 4dab b03d
00000080: 167c f83c 3fbc a53c 5a85 6ebc 5a34 a23d
00000090: 35d2 5ebd c023 b63c 219f b13d 038f 263d
000000a0: 8720 683d 1d82 eebc 47c9 1fbd aed9 93bb
000000b0: 0757 a4bd 3732 413d f9b7 95bc 22fe d6bc
000000c0: 5626 5bbd a7de 8b3c 13b1 dc3c 21e1 7e3d
000000d0: fadf a8bd 0d9b 873d 002b 78bc 1ff7 bfbd
000000e0: 4726 bbbd 7a69 0b3c 60f5 7b3c d5e3 babd
000000f0: 1b88 1bbd 0c0e b0bd 9a49 813d fbd5 bbbc
00000100: 423b 41bd 282d c33c f58e c13d e221 66bb
00000110: a5a1 8abd 40d1 90bd 0e36 49bd 7739 78bd
00000120: b782 8abd 65dc 95bb a815 bebd 8f26 79bd
00000130: 6996 123d 476d 1c3c f076 883c e753 62bc
00000140: 0a20 f33c ecd8 893d 5fdc b9bd b50f 9c3c
00000150: e962 5ebd 7aac 54bd 1856 753d f90b 0fbd
00000160: dc4b 903c 68e7 c1bd 6d19 033d 881d 52bd
00000170: 6766 efbb c703 153c cdce 97bd 521b 30bd
00000180: 8012 61bd 6429 3e3d 6580 85bd aef0 4b3d
00000190: d498 aa3d c107 073d e07b 9e3d 4185 86bd
000001a0: a5ab 6bbd c8ac 4ebd a3de 3f3d 1dfc c03d
000001b0: 9fef c6bc 373d 8fbc ff79 50bd 3c71 a6bd
000001c0: 2194 4abc c717 e63c f4b9 a3bb c37f 48bb
000001d0: fa34 d83c c558 34bd 30ce 8dbd c31f ab3d
000001e0: d656 eabc 7cee 9f3b ad0b 173d 4b04 d63d
000001f0: 15a2 933d 144f aebc 4913 a7bd 0ca5 c1bd
00000200: d69f 71bc 90be f13c fc63 a63c 6243 9ebd
00000210: 47d9 8fbd 6399 73bd fca3 16bd c001 593d
00000220: 86b0 7f3d dacd 7cbd 6779 18bc 3c54 a23c
00000230: 3217 b93d 96bb b93d a6b5 bb3d 2776 043c
00000240: cfe9 8ebd 73ac 5a3c bea6 043b 34c7 793c
00000250: 57ab 7dbc b24f 1d3a c780 0d3d d501 04bc
00000260: 7e2b 033a ac65 b03b 3120 9cbc ca6f 983c
00000270: 095f b2bd 1b6e 92bc 11c5 8fbd b464 18bd
00000280: 3d66 a4bd 3c84 08bd 609c 8dbd 8440 65bd
00000290: 3b30 913d da1a 823d 6165 61bd 4e2f 03bd
000002a0: 0a26 693b 035d 95bd 195b 89bd 2062 f1bc
000002b0: 3a4d 573c ff83 9abd 7e4e 29bd 1144 53bd
000002c0: 98c3 af3d db71 0f3c 762b 06bd 5d5d 82bd
000002d0: 4f20 3fbd 4b05 523d 4fe9 0e3d 5888 80bc
000002e0: 455d 663c dc66 403c 4e7d 913d 0b11 1b3d
000002f0: 6764 a2bc 2583 a7bd e4ba 1f3d da94 5b3c
00000300: 7ac4 7dbd 559c b8bc 75f9 4e3d 66b6 e33c
00000310: bfdd ebbb 0b93 543c 17e9 32bd a3a7 0fbd
00000320: a952 54bd 4171 863d c96d 703c 6efa 3a3c
00000330: efa8 7dbd 5201 d0bb e313 9c3c 62e6 de3c
00000340: 8ce9 89bd 6aaa 733d a9d3 78bd bb69 9abd
00000350: 0088 a5bc fe03 693d 028f 0cbd 9311 fa3c
00000360: da15 ec3c 4b47 8b3d 90d9 313b 1e7c b33c
00000370: 4eda 6ebd 7f0a a33a f8f5 9abd 4561 58bd
00000380: 9c35 5abc ea8a 17bc 7447 b8bd aa21 fabc
00000390: 45ab 483d d49d 063d 7504 773d 70e8 683c
000003a0: 0579 b93c 694b 493d 528a 733d d5a4 e8bc
000003b0: 122b 4ebd db70 933c 90cc 8cbc 8552 7fbd
000003c0: 53bb eb3c 0825 45bd bc7d 0c3d ed0e 9dbd
000003d0: c6d9 36bd 07bd d33c f4d8 903c 7e23 afbd
000003e0: abaf 1a3d a855 afbd ea8b 153b 393f c7bc
000003f0: 0739 243d 5359 623d bfe7 b4bc 07a7 633d
0.03295921 0.060915567 0.052192062 0.0010739815 -0.037565596 -0.029661115 -0.05475838 -0.07296466
-0.014412928 -0.03337979 0.044025864 0.04756688 0.0156137375 -0.04084904 0.09177904 -0.045146726
-0.026996909 0.04444996 0.0064591966 0.06700567 -0.021934733 -0.027823163 -0.05583514 0.07504466
0.0040136543 -0.041540693 0.006169272 -0.014947654 0.050824024 -0.018938022 0.08690606 0.08626423
0.030332606 0.020231364 -0.014558161 0.079201415 -0.054399688 0.022233844 0.086729296 0.04066373
0.056671645 -0.029114777 -0.039010312 -0.0045120334 -0.08024412 0.04716703 -0.018276202 -0.026244227
-0.053503357 0.017073942 0.026939904 0.06222642 -0.08245845 0.066213705 -0.015146971 -0.093733065
-0.0913816 0.008509034 0.015378326 -0.09125487 -0.037971597 -0.08596429 0.063128665 -0.022929182
-0.047175653 0.023825243 0.09451095 -0.003511541 -0.067691125 -0.07071161 -0.049123816 -0.060601678
-0.06763213 -0.004573392 -0.09281474 -0.060827788 0.035787974 0.009547538 0.016658276 -0.013813949
0.029678363 0.06730828 -0.090752356 0.019050458 -0.054293547 -0.0519223 0.05989656 -0.034923527
0.017614298 -0.09467965 0.03200667 -0.051297694 -0.0073059085 0.009095139 -0.07412491 -0.042994805
-0.054949284 0.046426192 -0.0651863 0.049790077 0.08329931 0.03296638 0.07738471 -0.06568385
-0.05753674 -0.050457746 0.046843182 0.09423087 -0.024284182 -0.017485244 -0.050897595 -0.081270665
-0.012364418 0.02808751 -0.0049965326 -0.003059373 0.026392449 -0.04402997 -0.06924093 0.083556674
-0.02860586 0.0048807245 0.03687637 0.104500376 0.07208649 -0.021277942 -0.08157975 -0.09455308
-0.0147475805 0.029509813 0.020311348 -0.07727696 -0.07023864 -0.059472453 -0.03677748 0.052980185
0.062424205 -0.061719753 -0.009306288 0.019815557 0.09037627 0.09068982 0.09165506 0.00808481
-0.06978189 0.013346779 0.0020240988 0.015245248 -0.015482745 0.000600095 0.03454664 -0.008057077
0.0005003734 0.005383214 -0.019058319 0.018607993 -0.08709533 -0.017874768 -0.07020009 -0.037205413
-0.08027313 -0.033329234 -0.06914592 -0.05596973 0.07089277 0.06352778 -0.055028323 -0.032027535
0.0035575652 -0.07293131 -0.067068286 -0.029465735 0.013140971 -0.075447075 -0.04133462 -0.051578585
0.085822284 0.008755173 -0.03275629 -0.06365464 -0.04666167 0.05127458 0.03489047 -0.015690014
0.014060323 0.011743274 0.07103978 0.03785805 -0.019823266 -0.08179311 0.038996592 0.013402188
-0.061954953 -0.022535482 0.05053087 0.027796935 -0.007198065 0.012974511 -0.043679323 -0.03507198
-0.051836643 0.0656457 0.014674612 0.011412246 -0.061928686 -0.0063478136 0.019052451 0.027209464
-0.06733999 0.05948869 -0.06074873 -0.07539698 -0.020206451 0.056888573 -0.03431607 0.030525958
0.028819013 0.068007074 0.0027137734 0.02190977 -0.05831366 0.0012439041 -0.07566446 -0.05282714
-0.0133184455 -0.009249428 -0.089980036 -0.03053363 0.04899146 0.03286536 0.060306985 0.014215574
0.022640714 0.049144182 0.059458084 -0.02839891 -0.050334044 0.01799815 -0.017187387 -0.062334556
0.028775847 -0.04813102 0.034299597 -0.076688625 -0.04464128 0.025846971 0.017681576 -0.085516915
0.037765186 -0.085612595 0.002281899 -0.02432214 0.040093448 0.055260967 -0.022083161 0.05557921

rnn.weight_hh_l0 f4 [512, 128]
00000000: 54ba 8f3d 83ee 673b 7582 46bd 157e 7f3d
00000010: 011b 6ebd cc32 4dbd 870d 703d 6823 b53c
00000020: cbff 1ebc 31e1 d53b 93ca babd fc9d e2bc
00000030: f324 a43d 5e65 213d e68e a1bd ebb0 393c
00000040: 1c7d d03c c191 953b e59b 82bd 52ef 00bd
00000050: a2c6 5e3d c33b 033c fe8c 4c3b 3ca4 9ebd
00000060: fc8e 2d3c d23a 6b3d 7896 353d a3f5 77b8
00000070: 96ad 903d 2c0a 97bd 4a5a babd fa0b 8a3c
00000080: 9f74 bcbd 4df6 2ebc 68b1 373d 7e99 423d
00000090: ef7c e53b 9946 993d afb5 2dbd b75d 513d
000000a0: a519 953d b032 513c 5cab 743d 5530 ae3d
000000b0: d237 353d 0102 19ba 4733 e23b 8803 66bd
000000c0: 6e5a d63b 19a6 b3bd fd48 02bc 9022 253d
000000d0: 2222 9abd 4332 f6bc 91c7 6b3d dc25 c6bb
000000e0: 3743 633d 4468 823d e20e 5c3d 6075 1b3d
000000f0: 0121 96bd 95ea c63c 5373 49bd 8bd9 173c
00000100: 05cc 983b cdc9 873d bb77 06bd 56c3 043d
00000110: f336 63bd c287 e83a e47a 973d a6de 913d
00000120: 219c 9cbb 81e5 973d 1e36 a33d 269e 943d
00000130: 9084 cc3c 9c9b b1bd b7a8 8d3c 5cbb b6bc
00000140: 84a9 593d ed6c 813d 66a1 4a3d 8c4f c03b
00000150: 3021 b93c 4dde 57bd 9149 a2bd 71fc 98bd
00000160: 4a16 ec3c c521 ffbc 803f 5ebd 4ff5 cc3c
00000170: 33e1 3abd bee0 72bd 463b 90bd 3c05 153d
00000180: 4ca0 a63d 3b92 573d 7ad9 893d 3ace 9ebd
00000190: 3c83 be3c 166b b53d f15b 29bd d7a0 373b
000001a0: 3833 97bd b092 723d 6395 c8bc 8f16 88bd
000001b0: 667f cb3c f322 96bd 77cb b6bd 4bac 76bd
000001c0: ae4f 593d 6fa4 fa3b e3b1 b53d ecf2 3fbd
000001d0: bfcf 463d f816 b6bd a9ed ad3d 7c2b 4fbd
000001e0: 0804 ba3d 606d 013d 8b96 97bd 2824 86bd
000001f0: 9660 5a3d 71b5 41bd c11d 8bbd 3947 153d
00000200: 1497 c03c 0467 553c a3b8 8fbd 3922 863d
00000210: 2c67 a3bd 75a9 08bc f8b4 473d 2e14 293d
00000220: 4312 a63d 09de 4b3c 2b3f 64bc 7bed 973a
00000230: fe09 883d 7c47 463c 1c71 2dbd a08f 943b
00000240: d2bf 803d e652 813c 1fd8 0c3d 2805 b5bd
00000250: 1d63 4fbd f185 91bd 6879 a9bd e3fc 57bd
00000260: 8326 98bc f3af 8f3d 5229 9dbd a571 5abd
00000270: ee76 473d 6ffc 02bd d63f a63c 9e38 5cbd
00000280: 1281 603d 9b93 453d 047f e5bd a0bd 5a3b
00000290: e7ea a8bb b1da 49bd 6f08 b43c 5196 00bd
000002a0: 3de6 fa3c 8c1b b73c 5b0c a93d 6d72 0a3d
000002b0: 9ec0 fd3c 7e0e 0f3c b6e9 4cbd 9f1f aa3d
000002c0: 9108 97bd 2b5f 76bd 088e dcbc 4577 a53b
000002d0: 9e4b de3c 954c 493d 61c1 0abd bf5d 263d
000002e0: f185 b73d a5d8 53bb 5df0 c33d 4f06 9a3d
000002f0: 34e2 d23c 9887 9e3c 748e edbb f204 803d
00000300: f3e3 9ebd 8f18 63bd 99ae 15bd 446d b63d
00000310: 27d0 d0bc 4c18 543d 7edd d93c efeb 22bc
00000320: 21cf 20bc 2e71 47bd a8d5 18bd e6d8 8abd
00000330: f87e 99bd e339 cf3b ad78 0abc f156 c53c
00000340: ab2f 9fbd 657d 863d 89e5 083c 7b1b 73bb
00000350: 11b8 ae3c 141b aa3d bf0d b8bd d8e9 a63c
00000360: 3793 b3bb 2e8b ae3d a5e3 df3c 627b e6bc
00000370: 32eb 65bc 90a8 94bd c17b 9abd 8e60 80bd
00000380: 496e 433d ee80 56bd 3243 833d 6a49 05bc
00000390: c0b6 543d 6f75 e7bc 880b ce3d 7e11 afbd
000003a0: 277c 73bd 3072 1cbd 3bcc 213c 3928 5e3d
000003b0: e2df 2dbd c86e 5a3d 1788 16bd ded7 c3bc
000003c0: b5d1 70b8 3d92 453d 0474 e1bc 1c39 b4bc
000003d0: af29 d2bb f1ca c3bb 969c 56bd 8a5d 88bd
000003e0: ed27 7f3d 31b6 8fbd 2206 c63c 8614 48bd
000003f0: 2bff b93b 0a92 1abd 425a 473d 4aa9 373d
0.07017961 0.0035389967 -0.048464257 0.0623761 -0.05813122 -0.05009727 0.05860665 0.02211161
-0.0097045405 0.006527089 -0.09120669 -0.027663223 0.0801486 0.039403312 -0.07888584 0.011333684
0.025450282 0.0045644944 -0.06377391 -0.031478234 0.05438865 0.008009854 0.0031211968 -0.07746169
0.010593172 0.057429142 0.04433295 -5.9118156e-05 0.07064359 -0.07374987 -0.090992525 0.016851414
-0.09201931 -0.01067884 0.044846922 0.047509663 0.0070034186 0.074841686 -0.042409595 0.051114764
0.07280282 0.0127684325 0.059733734 0.08505312 0.044242688 -0.00058367854 0.0069030854 -0.05615571
0.006541542 -0.08771915 -0.007951972 0.040316164 -0.075260416 -0.030053264 0.05756337 -0.0060469937
0.055484023 0.06367543 0.05372513 0.037953734 -0.07330514 0.02428178 -0.049182247 0.009268175
0.004662993 0.06630287 -0.032829028 0.03241285 -0.055472326 0.0017740654 0.073964864 0.07122545
-0.004779354 0.07416821 0.079693064 0.07256727 0.024965554 -0.08672258 0.017292364 -0.022306137
0.05314018 0.06319604 0.049470328 0.0058688577 0.022598833 -0.052702237 -0.07924188 -0.074700244
0.028819222 -0.031144032 -0.054259777 0.025019316 -0.045624923 -0.059296362 -0.070425555 0.036381945
0.08136043 0.05262969 0.067309335 -0.07754178 0.023255937 0.08858316 -0.041347448 0.0028019452
-0.07382816 0.059221923 -0.024485296 -0.06644928 0.024841022 -0.07330885 -0.089255266 -0.060222905
0.053054504 0.0076489965 0.0887182 -0.046862528 0.048537966 -0.088911 0.08492596 -0.05057858
0.090828 0.03159845 -0.07401761 -0.06549865 0.053314768 -0.047292177 -0.067927845 0.036444876
0.02350954 0.013025049 -0.070176385 0.06549496 -0.07978663 -0.008341183 0.04875657 0.04127901
0.08108952 0.012443074 -0.013931076 0.001159116 0.06642531 0.012102004 -0.042344198 0.004533723
0.06286587 0.0157866 0.034385797 -0.08838874 -0.05063163 -0.071056254 -0.082751095 -0.052731406
-0.018573051 0.070159815 -0.07673897 -0.053331036 0.048697405 -0.03197902 0.020294111 -0.05376493
0.05481059 0.04823647 -0.11205867 0.0033377185 -0.0051549557 -0.049280826 0.021976678 -0.031393353
0.030627364 0.022352003 0.0825431 0.03380053 0.030975636 0.008731483 -0.05002757 0.083068125
-0.07374681 -0.060149353 -0.026923195 0.0050496184 0.027135666 0.0491453 -0.033875827 0.040616747
0.08961094 -0.0032325175 0.0956733 0.075207345 0.025742628 0.019351766 -0.0072496478 0.06250943
-0.077583216 -0.055443343 -0.036543462 0.089075595 -0.02548988 0.051780984 0.026594874 -0.009943946
-0.009815008 -0.04869192 -0.037313133 -0.06779651 -0.074949205 0.0063240393 -0.008451623 0.024089308
-0.07772764 0.06566886 0.008355507 -0.0037095237 0.021328004 0.08305946 -0.08986997 0.020375177
-0.005480196 0.0852264 0.027330229 -0.028135005 -0.014033126 -0.07258713 -0.075431354 -0.06268416
0.047712598 -0.05236905 0.06409301 -0.008135179 0.051932096 -0.028254239 0.10060793 -0.08548258
-0.059444573 -0.038194835 0.0098753525 0.054237578 -0.04244984 0.053328305 -0.03675088 -0.023906644
-5.7415764e-05 0.048235167 -0.02752114 -0.021999888 -0.0064136605 -0.0059751202 -0.052395426 -0.06658466
0.062293936 -0.07017172 0.024172846 -0.048847698 0.0056761703 -0.03773693 0.04867006 0.04483918

rnn.bias_ih_l0 f4 [512]
00000000: 5bf2 6cbc d11f 863d 1ff2 b93b 2925 3f3d
00000010: 80ed 933d 5f73 a03d 6c30 6fbd 05e4 46bd
00000020: 10cd b93c ec48 61bc 028e abbb 638f 973d
00000030: 2831 3b3c 217b a03b 894e 9b3c 9049 2f3d
00000040: be00 d1bb 1ac3 113d 2f58 06bd b7ff 18bb
00000050: a4e7 1bbb a551 b53d e7cf a83d c400 6c3d
00000060: 2d95 dd3c de23 b5bc af6e 9a3d 7295 c53c
00000070: 7899 d9bc e601 87bd 7c9f 9e3d 8aa8 593d
00000080: ca82 13bd f47b 103b d63c c73c ecbe eabc
00000090: 6c0b 60bd b92e 40bd e647 943d f014 143d
000000a0: 14c9 383d e874 313d dc67 a93d cac1 b53d
000000b0: c152 81bd dd99 85bd 1abb ee3c dcad c83c
000000c0: efd1 34bd 7447 683c e9f4 84bd 141a 383d
000000d0: c388 c6bc 3c96 6cbd ee21 9fbc 54f2 32bd
000000e0: b173 f03c c98e 973d aad3 abbd f640 94bd
000000f0: cdf5 993d 739c 943d 15af adbc c43e 093d
00000100: adc5 953d f243 b23d 1667 b73c 6ae6 90bd
00000110: d129 d6bc 91e4 d1bc 64cf 0fbc 3162 5b3d
00000120: 9606 663d 10f3 de3c a58d 093d 0178 9ebd
00000130: ebfa c53b 1c48 2fbd dfd9 f63c 1411 e73c
00000140: 1819 893d e10b 8cbc 104e d53a 9211 aabd
00000150: eedf 203c 2ae5 68bd b9ed 56bd ca6e 813c
00000160: d7ad c83d 9ed7 e4bc 4f82 093d 3d8b adbc
00000170: f783 733b 3ce9 5ebc d742 98bd fa54 02bd
00000180: c6a8 283d 6b2b 60bd 67f4 c23d 2928 f13c
00000190: 2a7d 4abc c1ad babd c5b7 acbd 01c7 10bd
000001a0: e828 c8bd b2b0 e13b 784d 463d 3c9a 3c3d
000001b0: dbce aa3c 4e9f 813c d39a b63a e4ad c0bc
000001c0: ba64 da3d 9495 9e3d 1ea3 213d 424d 1cbd
000001d0: 03d8 f83b d748 7a3d 9ca8 83bd 0f85 89bd
000001e0: 1ab9 29bd 42ea 9b3d 1f2d 36bd cd01 1d3d
000001f0: a156 84bd b0b3 253d f2c8 bf3c b8f0 fc3c
00000200: 764a 573d 7dc2 893c 5b0a 89bd 477d 553d
00000210: be51 96bd 8c01 dd3c 149a aebb 9737 c13d
00000220: 9653 cf3b cc31 013b cc9b 7b3d 3d10 aabd
00000230: b3cf 00bb 68ad 503d 9296 be3d 94a6 453d
00000240: 96ff 9a3d 54dd 893d 7b99 6d3d c56f 6a3a
00000250: 9227 f33c 8652 c33d 1d4c 87ba 5242 383d
00000260: 6468 92bd 615c 0bbc a863 a3bc 93aa aebd
00000270: 92eb 1f3d 945b 71bd 4706 083d 3b5a fabc
00000280: 885f 60bc 9c89 96bd 3c26 783d 08e3 d93c
00000290: 3dfa 873d 488d 183d 5c2a 0cbd 2b13 053d
000002a0: 9d8f 9dbd 05b3 a83d 11c4 583d 6227 933b
000002b0: b993 bebb e807 c83c bc62 b3bd 0f5b 513c
000002c0: 67c1 bebc e6b7 a0bd d519 90bd a62a 9d3d
000002d0: a969 55bd 18fb d43b fcb0 b2bd abd1 8cbb
000002e0: 11c2 a93c b1ba ba39 90e5 303d 8ce3 983b
000002f0: b2ec 363d 60b8 183d dfc9 2b3d db72 17bd
00000300: ee2d b3bb cca1 433d 0a51 6e3d d8dd 263d
00000310: d2a0 513c c663 10bd 99c2 3dba 6fd6 a03d
00000320: 2e61 c03d 374d 1cbd 63ea 963c ad1c 4e3d
00000330: b0c9 93bd 21ac 443d 7031 a33d 976e c33d
00000340: b60b bb3d 1b6d 823d cac6 b63c 555f 56bd
00000350: f424 b33d 6fa6 083d 0edf de3a b9d7 183d
00000360: ae8a 703c 263b 973b e364 33bd a579 11bc
00000370: 08dd 8b3d 9f08 14bd a473 563d ddb5 bbb9
00000380: be30 99bd d328 903d 49de 43bd e285 6c3d
00000390: c4d5 a13b 7377 bfbc 2603 093d 80f8 82bb
000003a0: 5d5c 91bd a5f2 573d 0392 87bc 656c 463d
000003b0: fb18 7ebd 37b8 243c 8011 a53b c4f5 6abc
000003c0: 800a 853d b351 96bd 8403 82bd 2ad6 b33d
000003d0: 0ffe 6f3d e51a 393d d8da 3bbb 24b5 fabc
000003e0: 9c80 6e3c 62ac 44bc 4f5e 563d 619b 91bd
000003f0: 96af 0e3d 87f7 1e3d 9af6 4a3d 8d08 2e3d
-0.014462079 0.06549037 0.005674615 0.046666298 0.07223034 0.07834505 -0.058395788 -0.0485573
0.02268079 -0.013750296 -0.0052354345 0.07400396 0.011425294 0.0048974906 0.018958347 0.042794764
-0.0063782623 0.035586454 -0.032798942 -0.0023345777 -0.0023789192 0.08853463 0.08242779 0.057617918
0.027048672 -0.02211183 0.075406425 0.024119113 -0.026562437 -0.06592159 0.07745263 0.053139247
-0.036013402 0.0022046538 0.024321001 -0.028655492 -0.054698393 -0.04691956 0.07240276 0.03615278
0.045113638 0.04332438 0.08271763 0.08874853 -0.06314612 -0.06523488 0.029141951 0.024496965
-0.04414552 0.014177192 -0.064920254 0.044946745 -0.024235135 -0.057760462 -0.019425359 -0.043688133
0.029352041 0.07400281 -0.08389981 -0.07238953 0.07517586 0.07256403 -0.02120165 0.033507124
0.07313094 0.08704366 0.022388022 -0.07075198 -0.026142986 -0.025621684 -0.008777473 0.05356044
0.056158625 0.02721551 0.03358235 -0.07737733 0.0060418746 -0.04279338 0.030133186 0.028206386
0.066942394 -0.017095508 0.0016273875 -0.083041325 0.009819014 -0.056859173 -0.052472804 0.015799899
0.09798782 -0.027934846 0.033571538 -0.021184558 0.0037157515 -0.013605412 -0.07434624 -0.03181932
0.04117658 -0.054728907 0.09519272 0.029438095 -0.012358943 -0.09115172 -0.08433489 -0.035346035
-0.09773427 0.006887519 0.048413724 0.046045527 0.02085059 0.015823033 0.0013931639 -0.023520418
0.10663743 0.077433735 0.0394622 -0.038159616 0.00759411 0.06110462 -0.06428644 -0.06714832
-0.041436292 0.076130405 -0.044476625 0.038331795 -0.06461836 0.040454566 0.023411248 0.030876502
0.052561246 0.016816372 -0.06691428 0.052121427 -0.0733981 0.026978277 -0.005328426 0.09434431
0.006327103 0.001971352 0.061427876 -0.083038785 -0.0019655048 0.050946623 0.09306063 0.048254564
0.075682804 0.06731668 0.0580077 0.00089430466 0.029681955 0.095372245 -0.0010322366 0.044985123
-0.07148817 -0.008505912 -0.01994498 -0.08528628 0.039043017 -0.058925226 0.03320911 -0.030560603
-0.013694651 -0.07350466 0.06058334 0.026597515 0.06639526 0.03724411 -0.034220085 0.032488983
-0.07693408 0.0823727 0.05292136 0.004490779 -0.0058159498 0.024417832 -0.087590665 0.012778058
-0.02328558 -0.07847576 -0.07036177 0.0767415 -0.05210272 0.0064996593 -0.08725163 -0.0042974553
0.02072242 0.0003561578 0.043187678 0.0046657976 0.044659324 0.03728521 0.041940566 -0.03697477
-0.0054681217 0.047761723 0.058182754 0.04073891 0.01279469 -0.0352514 -0.0007238775 0.078534
0.093935356 -0.038159575 0.018422311 0.050320316 -0.07216203 0.048015717 0.07968414 0.09542578
0.09133093 0.063684665 0.022311587 -0.05233701 0.087472826 0.03336185 0.0017003731 0.037315104
0.014681501 0.0046152053 -0.043797385 -0.0088791 0.06829268 -0.036141034 0.052356377 -0.00035802918
-0.0748 0.070390366 -0.04781941 0.057744868 0.004938813 -0.023372388 0.03345027 -0.0039969087
-0.07097695 0.05272164 -0.016549116 0.048443217 -0.062035542 0.010053686 0.0050374866 -0.014340822
0.06496143 -0.07339802 -0.06348327 0.08781083 0.0585919 0.045191664 -0.0028664377 -0.030603953
0.01455703 -0.01200399 0.052336033 -0.07109714 0.03483542 0.03881028 0.049551584 0.042488623

rnn.bias_hh_l0 f4 [512]
00000000: 2e30 fdbc 4ad9 41bd b903 5dbd c949 133d
00000010: 1c95 5e3d 7d99 c43d eb0b b03c 795e 823d
00000020: fc26 82bc 8ca7 48bc b137 1dbd 7793 97bd
00000030: f74a 7abd 63b8 5c3c f018 873d b851 d8bc
00000040: ac93 13bd 34bf 55bd 271e 2ebd 5cb6 78bc
00000050: 41f5 aa3d 94ab 1b3d c79b 93bc 4ef7 923d
00000060: 6fde 91bd 55b6 a33b 5ff0 cbbd b905 25bb
00000070: 9bec 1fbd 8fae 8fbd 47e4 bc3d 603d 4ebc
00000080: 14f1 923d 0a34 01ba 9cb8 71bc 14d5 30bd
00000090: 2366 9b3d 0bb1 7a3c bdb0 b03d eb8f 5f3c
000000a0: 886f 8cbd b873 513d e931 303d 0254 2d3d
000000b0: c23f 0abd 50cf 85bd 7eaf 163d a0bd 473d
000000c0: 206a 803c 06a9 f03c 2640 8e3d a7c4 043d
000000d0: 8c3c ba3d a5cb 873c e7cd 8e3d 8ac5 ef3c
000000e0: f99a 8b3d df9c afbd 6d3c 98bd 50c1 64bc
000000f0: d892 3ebd fb7f 8a3d 476e 6c3d 01e8 6fbd
00000100: 62f3 703d d22c 663d 55e7 a0ba faf6 7d3d
00000110: 711c 96bd bdfd 92bd b159 c1bc a845 75bd
00000120: 169b 9cbd 7e71 173d adda 41bd d997 7abd
00000130: 6d37 993d 7bac 703d a132 473d e9f8 82bc
00000140: e92f 78bc f133 c43c a2b5 b83c 08b4 8a3d
00000150: 59fd b83d e54d 9c3d d36b 7fbd f70b fdba
00000160: 31e4 c63c c19f f33b 74f9 1fbd ac37 8fbd
00000170: 940f 6fbc 57ef b7bd 3e57 08bd cdd0 25bd
00000180: fdcd 7d3d 4cbd 8abd 0be7 193b 974d 913d
00000190: 1324 8fbc 428b a1bd 82ff ad3c 9d48 9abd
000001a0: 0405 833d e05e 043d dcbd 8f3d e66a f83c
000001b0: e9eb 493d 9ac9 a03d 47a0 8dbd 1af3 0bbd
000001c0: 2dd2 96bc 66c5 8cbd faeb 63bd 6933 41bd
000001d0: 55a0 25bd e8d6 9a3d 730a 883c 109d e03c
000001e0: 19c7 01bd a55f 763d ff99 56bc 5a90 803d
000001f0: 5689 f53c 4f08 d9bc 03d3 59bd e21e 5dbd
00000200: 43f2 bd3d f872 1c3d 25a0 8bbc c34e c43c
00000210: ef09 6e3c 19b9 033d 0425 6a3d bed2 5b3d
00000220: c868 98bd ab7c 1cbd 5fb7 aabd 27f2 48bd
00000230: e6be f6bb 8581 f33c f6c6 533d 3318 923d
00000240: 63f5 b1bc b850 aebd 6026 5cbd 06f4 62bc
00000250: 6ea4 563d df3c 09bd af86 e83c fa79 153d
00000260: 038d 2a3d 8626 83bd a8b2 a4bd cc82 97bd
00000270: 2bca 3f3d 318b adbc c9ce 03bc d84a ba3c
00000280: c6dc 45bb 55bb ae3d 3172 37bc abd9 e53b
00000290: 2371 b63d ad07 0ebd e2d8 2dbd ff0c 9dbd
000002a0: 2e14 a2bd b6f5 193d 6352 b03d 5610 7ebc
000002b0: b994 44bd 8250 893d 83ad 59bd 5164 df3c
000002c0: 69f8 983d b5ef 68bd 10bc 60bd bd03 c23d
000002d0: 63b0 b53d 508c 953c f1f1 a93d 6005 823d
000002e0: ade5 433d c634 b7bc 7b0d bbbd 713b 303c
000002f0: 3087 823d 0071 8b3d 2b23 b43c 33c4 913c
00000300: 4bdd 8f3d ec30 e63c de23 23bc d091 4d3d
00000310: 9bb5 99bb 1201 5ebd d56b da3c a652 0f3d
00000320: 34a7 d3bc ef9a 94bd fead 81bc d404 2bbd
00000330: d93d 3b3d 1012 153c a1c4 553d da52 a83b
00000340: 050d 79bd 837f 5abd 8c31 a8bb 0146 9b3b
00000350: 9261 5d3c cc75 4ebd 3aec 7cbc 7d41 743d
00000360: d84b 7a3d 140a 653c 1b0f 60bc 9aed c43d
00000370: 9856 4dbd 46b3 013d 1c2f 33bd b512 28bd
00000380: 819e 883d 5a87 2f3d d017 b6bc 1e81 4b3c
00000390: 8fcb 14bd 3ee2 99bb 04d7 3c3b 4f70 c3bc
000003a0: 0a0a cdbd b8b5 733d 634a 973c 83f3 98bd
000003b0: db48 68bc 7a61 8b3d b1d1 b4bd 3185 bd3c
000003c0: 32c5 88bd 4527 9b3d f10c 673d 3d4f f13c
000003d0: a9fa dabc 9fce 49bd 42a9 26bd ccba 5dbd
000003e0: 93c8 a03d c734 573b 5954 91bd 240f 453d
000003f0: bc8a 113d a5fe 8c3d ea8d 0e3d 4d54 863d
-0.030906763 -0.047326364 -0.05395863 0.03595904 0.05434142 0.09599588 0.021490058 0.063656755
-0.01588773 -0.012246978 -0.03838319 -0.074011736 -0.06110665 0.013471696 0.06596553 -0.026406154
-0.036029503 -0.0521843 -0.042509224 -0.015180197 0.0834756 0.038005427 -0.018018616 0.07176076
-0.07122504 0.004996101 -0.099579565 -0.0025180413 -0.039044004 -0.07015716 0.09223228 -0.012587875
0.07174888 -0.0004928714 -0.014753487 -0.043171957 0.075878404 0.015300999 0.0862746 0.013645153
-0.068572104 0.05113575 0.043016348 0.042316444 -0.03375221 -0.06533682 0.036788456 0.048764825
0.015675604 0.029377472 0.06945829 0.032414105 0.0909358 0.016576597 0.069728665 0.029268999
0.06816668 -0.08574843 -0.074334 -0.013962105 -0.04652676 0.067626916 0.057722356 -0.058570866
0.058825858 0.056195088 -0.0012275974 0.062003113 -0.073296435 -0.07177303 -0.023602339 -0.059880883
-0.07646768 0.03697347 -0.047327686 -0.06117997 0.07481275 0.05875824 0.048632268 -0.01598783
-0.015148141 0.023950549 0.022547547 0.067726195 0.09032697 0.07632045 -0.06235869 -0.0019305934
0.024278732 0.0074348156 -0.039056256 -0.069930404 -0.014591116 -0.08981197 -0.033286326 -0.04048233
0.061964024 -0.06774387 0.002348366 0.07094877 -0.017473256 -0.078878894 0.02124 -0.07533381
0.06397441 0.032317042 0.07018635 0.03032441 0.049297247 0.078509524 -0.06915336 -0.034167387
-0.018410766 -0.06873588 -0.055644967 -0.04716817 -0.040436108 0.07560521 0.016606545 0.027418643
-0.031684015 0.060149807 -0.013098239 0.06277533 0.029972713 -0.02649322 -0.053179752 -0.05398453
0.092747234 0.03819558 -0.017044136 0.023963338 0.014528736 0.032158945 0.057164207 0.053667776
-0.074418604 -0.03820483 -0.083357565 -0.04905906 -0.007530081 0.029724846 0.051703416 0.07133522
-0.021723455 -0.0851149 -0.053747535 -0.013852125 0.052402906 -0.033505317 0.028384535 0.03649328
0.041638386 -0.06403832 -0.080418885 -0.073979944 0.04682366 -0.021184536 -0.008044907 0.022740766
-0.0030191406 0.085318245 -0.011196659 0.0070144734 0.08908298 -0.03467529 -0.042443164 -0.076684944
-0.07914005 0.037587844 0.08609464 -0.0155068245 -0.047993395 0.06704809 -0.05314399 0.027269514
0.074692555 -0.056869227 -0.05486685 0.09473369 0.08871534 0.018255383 0.082981 0.063486814
0.047826458 -0.022364032 -0.091334306 0.010756359 0.06373441 0.068086624 0.021989426 0.01779375
0.0702463 0.0280995 -0.009957282 0.050187886 -0.0046908385 -0.05420024 0.026662746 0.03499093
-0.025836565 -0.07256114 -0.015830036 -0.04175265 0.04571328 0.009098545 0.052189473 0.00513683
-0.060803432 -0.05334426 -0.0051328596 0.0047385697 0.013512032 -0.05040531 -0.01543718 0.059632767
0.061107486 0.013979454 -0.013675476 0.096156314 -0.05013141 0.03166511 -0.0437461 -0.041033465
0.06670857 0.04285369 -0.022228152 0.012420921 -0.03632694 -0.0046961596 0.0028814683 -0.023857264
-0.100116804 0.059499472 0.018468088 -0.07468321 -0.014177526 0.068057016 -0.08829058 0.0231348
-0.06678237 0.075758494 0.056408826 0.02945673 -0.026730852 -0.049269315 -0.04068876 -0.05413322
0.078507565 0.0032837854 -0.07096166 0.048110142 0.035532698 0.06884507 0.03480331 0.06559048

rnn.weight_ih_l1 f4 [512, 128]
00000000: 02b6 56bd c70f 3dbd 1562 ab3d fec5 80bd
00000010: d076 323c c0ab a33d 0e39 a33d dca5 d4bb
00000020: 2067 663d c30f 663d d635 93ba 04f6 86bc
00000030: 1ea4 a63d fd24 82bd 9c1c 963d 6771 9d3c
00000040: 4fc4 fdba f11e 923d 0137 b6bd 83a1 833b
00000050: d87c 38bb 6593 d1bc 5c29 4a3d e863 4bba
00000060: 63ef 86bd 2753 123d 463c 65bc 6cba aa3d
00000070: 9c65 2cbd 3cc8 a2bb d550 ad3c ef2b b5bd
00000080: 2e62 993d f8af 8cbd 23ea 003d d4c3 0ebd
00000090: fbd6 3cbd 1a04 a6bd 6947 9e3d a3f9 18bc
000000a0: d237 a5bd 084e 843d 709b 99bd 7bfe 85bc
000000b0: b951 163b e79c ae3d 109b 313d a4f7 fdbc
000000c0: f350 943d ae3f 80bc 5142 283d 9cc3 36bd
000000d0: 76d4 fc3c ff3b 5abd b364 233c 1edc ac3c
000000e0: 8764 213b 810c b2bc 9ccd e03c a577 f7bc
000000f0: 6fa2 083d 228f 04bd 314e 89bd 3f6d af3c
00000100: ea16 08bd 20f0 93bc 7403 cebc 2012 d13c
00000110: 2859 1a3d d518 053d dbcb 283d ec1c 51bd
00000120: 3751 1c3b b2eb a43c 3d40 8abd 646c 45bd
00000130: 913c b23d 25e4 aabd 3ba5 9dbd c9e7 61bd
00000140: a753 a7bd ffb4 a1bd b969 983d b1e9 8fbd
00000150: 1eee 91bc 612c 093b f90a 4d3d 739c bfbb
00000160: acac 15bd ce88 0a3d 22a5 a23d e0b4 71bd
00000170: ca42 a83d c1e8 243c 938d 833d ebb0 25bd
00000180: f2ef d43c 7020 433c 4081 643d 38f2 a83d
00000190: 2456 33bd 7ebe a4bd 4509 fcbc f76e 1d3d
000001a0: d169 343c 5a48 dd3c dbc4 a63c c64c 71bd
000001b0: 8bec 243d 9aea 4bbc 785b 61bd 0469 8bbd
000001c0: 73ef 36bd 40bf 68bd 2f6a 0cbd 0357 30bd
000001d0: 07a2 933d 339b 763d 7cfe 8cbd 1842 f4bb
000001e0: 9da8 4f3d 489a 913d c2b2 21bd 9e0f 63bc
000001f0: 5fdf 9a3d c027 103d d2af ad3c 46ce a8bb
00000200: f2b8 1cbd fb6b 3bbd 5386 8cbc 4950 9d3c
00000210: 7842 86bd 5720 88bd cab6 54bd 6d72 c53a
00000220: 432f 8cbd ac45 283d 6d1b 46bd 6930 25bd
00000230: 0f92 063d 9304 d93c 8495 b63c cb89 e03c
00000240: 4235 91bc b867 cbbc e39c 39bd c743 d03c
00000250: 82ef 9d3d afe1 6f3d b39d 9b3d a553 55bd
00000260: a203 07bc 6c46 cc3c e4c7 683d 199b 2cbd
00000270: ed8a e3bc c3b8 11bd 74ff 90bd d18c 783d
00000280: ae09 84bd 59f1 7f3d 0ea4 44bd 2b0e a03d
00000290: a850 923b 2c51 663d bfd6 e13c 11b9 593d
000002a0: 3aba 283d e359 5e3c f13b f63b cb0e 0f3d
000002b0: c9cf 41bc 602c aa3b ebde 1f3d edf1 9b3d
000002c0: 863d 913b dd4b d33c fad6 083d 2208 643c
000002d0: e17f 1f3c 1d6c aa3d 8d63 ab3d 8856 78bd
000002e0: 387d b8bd 29f8 91bc 9173 88bd e239 343d
000002f0: 35fa 283b 2a93 b83d e89f aa3d f975 3e3d
00000300: 781b 953c c4af 8abd 014d 543d 0571 1e3d
00000310: f401 3ebc a551 6bbd 4ea3 2a3c 995c ecbc
00000320: ffdf be3d ea17 56bd 6818 873d f220 4c3d
00000330: 833d 8cbd 6fa4 9c3d 2101 ef3c af14 b53b
00000340: d86f b53c fc1a a3bd 8381 7b3d edcd 80bd
00000350: 2901 c83c 47fc 533c c7b8 87bd 653f 91bd
00000360: 0137 c3bd a31a d43b 626f 62bd d2da 793d
00000370: 87d9 cb3c 8e83 b0bd abfa 03bd 8c87 b23c
00000380: b324 2338 66ea 953d 2c4b bf3c fc93 133d
00000390: 3fd2 a23d 7d2d 0d3d e98f a63c b0a9 7e3c
000003a0: 043d 8b3c 0482 8ebd 5bad 8a3c 7a7d 653d
000003b0: 2a12 413d 2a37 953c d07a 97bc 99d5 efbc
000003c0: 3567 4bbd a57d 353d 3d02 813b 9588 d2bc
000003d0: 91ee 8c3c 8266 2d3c 8a6d 453b b660 66bd
000003e0: 677e 623d 5b5b 743c fe64 a23d 173a 8ebd
000003f0: 8b63 57bd ab44 83bd 42b3 473d 9d84 9c3d
-0.05241967 -0.046157625 0.08368317 -0.06287764 0.010892585 0.07991743 0.07969867 -0.0064894985
0.05625069 0.056167375 -0.0011231254 -0.016474731 0.081367716 -0.06354711 0.073296756 0.019219114
-0.0019360873 0.07134808 -0.0889721 0.0040170564 -0.0028150585 -0.025582979 0.04935585 -0.00077587226
-0.06588628 0.03572383 -0.013991421 0.083363384 -0.04208909 -0.0049677175 0.021156708 -0.0884627
0.074894294 -0.06869501 0.03147329 -0.034854725 -0.04610346 -0.08106251 0.07728464 -0.009336862
-0.080672875 0.06460196 -0.075003505 -0.016356697 0.0022936894 0.085260205 0.04336077 -0.031001873
0.07242002 -0.015655365 0.04107887 -0.04462014 0.030863028 -0.053279873 0.009972739 0.021101054
0.002462657 -0.021734478 0.027441792 -0.030208418 0.033358034 -0.032363065 -0.06704367 0.021414397
-0.033224978 -0.018058836 -0.025148131 0.025521338 0.037682682 0.032494385 0.041210037 -0.051052973
0.0023852119 0.02013192 -0.06750534 -0.048199072 0.087029584 -0.08344296 -0.07697531 -0.05515269
-0.08170252 -0.078958504 0.0744204 -0.07026995 -0.017813738 0.0020930993 0.050059292 -0.0058475076
-0.036541626 0.033821873 0.07941653 -0.059010386 0.08215864 0.0100652585 0.064234875 -0.040451925
0.025993321 0.011909589 0.055787325 0.082493246 -0.043783322 -0.08044146 -0.030766139 0.038435902
0.011011557 0.027012039 0.02035754 -0.058911107 0.040264647 -0.01244607 -0.055018872 -0.068071395
-0.04466195 -0.056823015 -0.034280952 -0.04305173 0.07208639 0.060206603 -0.068844765 -0.007454168
0.05069791 0.07109505 -0.039477117 -0.013858704 0.07562136 0.03519416 0.021202002 -0.005151543
-0.038262315 -0.045757275 -0.017153895 0.019203322 -0.06555647 -0.06646793 -0.051932134 0.0015064009
-0.06844952 0.04108207 -0.048366 -0.04032937 0.032854136 0.026491439 0.022288091 0.027409455
-0.01772559 -0.02482973 -0.045315634 0.025422944 0.07711698 0.058564838 0.07598438 -0.052081723
-0.008240612 0.024935924 0.056831256 -0.0421401 -0.027776206 -0.035576593 -0.07079974 0.060681168
-0.06447159 0.062486026 -0.048008017 0.07815202 0.0044651814 0.056229755 0.02756822 0.05315501
0.041193224 0.013571235 0.00751447 0.034926217 -0.011829325 0.005193278 0.03903095 0.07614503
0.004432383 0.02579301 0.033408143 0.013917955 0.009735079 0.08321402 0.08368597 -0.060629398
-0.090082586 -0.017818527 -0.066626675 0.044000514 0.00257839 0.09012444 0.08331281 0.046499226
0.018201575 -0.06771806 0.05183125 0.038682003 -0.011597145 -0.05745091 0.010414911 -0.028852748
0.093200676 -0.0522689 0.06596452 0.049836107 -0.0684767 0.07648551 0.029175343 0.0055261473
0.022148058 -0.07964131 0.06140281 -0.06289277 0.024414616 0.012938566 -0.0662704 -0.0709217
-0.095319755 0.006472902 -0.055282004 0.0609997 0.024883999 -0.08618842 -0.032221477 0.02179315
3.8896407e-05 0.073200986 0.023351274 0.0360298 0.079502575 0.03446721 0.020332294 0.015543386
0.016996868 -0.06958392 0.016928365 0.056027867 0.047136463 0.01821478 -0.018491179 -0.029276656
-0.049658973 0.044309277 0.0039370344 -0.025699893 0.017203601 0.010583522 0.0030125105 -0.056244574
0.055296328 0.014914359 0.07929419 -0.069446735 -0.052585166 -0.06409582 0.048754938 0.076424815

rnn.weight_hh_l1 f4 [512, 128]
00000000: 13b1 d8bc b8ed 3cbd 6f08 213d c615 61bd
00000010: 888d e53c 34c3 ac3d b043 52bd 958e 9fbc
00000020: c3bb 113d 29d4 d33c 3d0d fe3c 2096 0c3d
00000030: 4c29 023c 7047 a6bd 54fa 5b3c b067 96bd
00000040: 9550 fb3c 6a80 093d 8b60 463d 3bb1 75bd
00000050: cdbf ae3d 0364 3a3d 6245 4bbb e474 003d
00000060: d47d a5bb f2a1 8abd a927 703d a269 503c
00000070: 0a2f 323d 2916 6a3d c4c1 f83c aec2 40bd
00000080: b2ae 76bd 4f47 82b9 52d7 59bd 0a91 42bc
00000090: 8f6b 03bc 4163 94bd 5b60 1cbc 379f 3cbd
000000a0: 4456 943d fb55 433d 8af7 39bd 5e79 ba3c
000000b0: 7e1d b0bc b7b4 953c e569 4abd 1927 73bd
000000c0: e6d0 e93c 24d7 30bc 418a 683c 0dda 863c
000000d0: ab32 4bbd cd8b 863d 0541 153d 7752 b53c
000000e0: 0a83 673d db53 5ebd c99f 333d fafe 23bd
000000f0: 4bc2 923d 1892 78bd 9ec1 453d 8847 0bbd
00000100: 6dc8 b5bd 6a52 303d 44fc 263c 9ac8 31bc
00000110: 30cf c93c b107 d13c ec98 2dbd 8db9 4e3d
00000120: f49c 9ebd a373 27bd 2d8d 493d 7ac2 b93d
00000130: efef 813d f060 7fbd d7f6 8abc 50c8 99bd
00000140: 0a58 593d 1e23 54bd 16e1 4abd b059 c23b
00000150: 03e9 80bd 8a75 53bd c11a 1a3d e187 9cbd
00000160: ab34 a8bb ed38 8b3d e7e6 eb3b 7b80 683d
00000170: d1c3 9e3d 68bb aabd a926 203d 0b8a a8bd
00000180: 0032 74bd a258 3b3c 36ad 8dbd f27b 11bc
00000190: 2351 52bd df94 82bd 12d8 a23d 7aaa 7abd
000001a0: 80c9 8b3c 542d 55bc 897a 1c3d 999b 413d
000001b0: 97da 653d c8ee 70bd fa49 9f3b 27f9 f53a
000001c0: 2194 253d b4cd beba f7d6 9cbc b4f2 333d
000001d0: 2eae 46bd 7719 b93c 15d6 563d 32d8 a5bd
000001e0: f62d 2dbc 18d9 27bd 61e2 49bc 6122 26bc
000001f0: 630f 603d 38e8 993c 9a24 3c3d 4cd5 673d
00000200: bdd0 7f3d 4be3 8c3d 4525 6abd a98d a63d
00000210: cec7 8abd 6f5b 083c 4d8a 4d3d 3daa b53d
00000220: d8cf 1f3d e544 84bd 5d33 81bd 17d7 663d
00000230: 404a 9a3d 224f 863d e908 8e3d 04bb 23bd
00000240: d5cd 4f3d dadf 0f3c e72b 063d b976 a0bd
00000250: 4bd0 903b 9d4b 73bc efcf ccbc c6c6 6bbd
00000260: c542 c1bc 254c 233d ae0e 4eba aeac 1abc
00000270: 0185 4e3c 6f13 94bd e3f5 563d 5803 08bd
00000280: f67e ba3d bf42 29bd f2da 6ebb 3123 ff3c
00000290: 67ed 8bbd 9784 7cbc 1c9c 913d 6bda 64bd
000002a0: be4e ad3d be63 21bd f178 a8bd d80c a13d
000002b0: 2733 3fbd 8b13 213d fc2e 3f3c 6644 8abd
000002c0: db06 3a3d 0f2a b93d f548 953d 6b1a 80bc
000002d0: ce61 a1bc e31c 97bd 7cb5 6bbd 9a2f 1a3d
000002e0: 9575 a5bd baa1 a63c a00a 383d ea10 acbc
000002f0: 4e41 95bd 640c 84bc 0602 adbd 09bb 933a
00000300: 0ef3 ae3d f4fe 9dbb 5d0a 0f3d f83b b9bb
00000310: d1bd 0e3d 340c 2a3d 9115 67bd f0e4 693c
00000320: fbbe b23d d588 75bd 91b1 6bbd 465b 86bc
00000330: e6d9 6ebd 9f9c 3abc 761b 56bd a7ba 95bd
00000340: 9ec4 fa3c 6cf5 3a3c 457b 87bb d3db 803c
00000350: 67b5 8e3b 2166 9ebd 7904 343d 9e57 85bd
00000360: 75e0 16bd 4098 473d 6643 213d 4999 223d
00000370: daa5 413d 32e1 81bc 9bd7 353d 1bd4 8e3d
00000380: f0db 92bd 48ab ad3d fd3f 06bd 6a37 96bd
00000390: 74a9 6f3c a5c9 b23d 95e5 37ba 4f2c f53a
000003a0: bd62 513d 600b 20bd c011 29bd a857 0abd
000003b0: 0d58 c6ba f7e8 d83c f659 1fbc 6f74 a63d
000003c0: 67de 863c 5b27 163d 185f 89bd 5310 7c3c
000003d0: 1c69 8ebd c37e 5ebd 2767 3cbb b43d e43c
000003e0: 7662 91bc 9c02 07bd 6296 453d eaed 363d
000003f0: b4fc 43bd 3ce2 5ebb cd06 b23d a1c3 45bd
-0.026451623 -0.046125144 0.039314684 -0.054952405 0.028021589 0.084356695 -0.051334083 -0.019477168
0.035579454 0.025858002 0.031012172 0.034322858 0.007944416 -0.08119094 0.013426382 -0.073439956
0.030678073 0.03356973 0.048431914 -0.059983473 0.08532677 0.045505535 -0.0031016697 0.031361476
-0.0050504003 -0.0676917 0.058631573 0.012720497 0.04350189 0.05715004 0.030365832 -0.04706066
-0.060225196 -0.0002484866 -0.05318386 -0.0118754 -0.008021249 -0.07245494 -0.009544457 -0.046050277
0.07243016 0.04768942 -0.045402087 0.02276295 -0.021498438 0.018274648 -0.049417395 -0.05936346
0.028541993 -0.010793481 0.014193119 0.016461397 -0.049608868 0.06569634 0.03643896 0.022134049
0.056521453 -0.05427919 0.043853555 -0.040038086 0.07165965 -0.0606862 0.04828035 -0.034003764
-0.08876119 0.043047346 0.010191981 -0.01085105 0.024634928 0.025516363 -0.042382166 0.050469924
-0.0774478 -0.040881764 0.0492069 0.090702966 0.06344592 -0.062348306 -0.016963406 -0.0750891
0.053062476 -0.051791303 -0.049531065 0.0059311017 -0.062944435 -0.051625766 0.03762317 -0.07643104
-0.0051332316 0.06797967 0.0071991566 0.056763154 0.07752193 -0.08336526 0.03909937 -0.082294546
-0.059617996 0.011434706 -0.06917803 -0.0088796485 -0.05134691 -0.06376051 0.079513684 -0.061197735
0.017063856 -0.013011295 0.038202796 0.04726753 0.056116667 -0.05882147 0.0048611136 0.001876627
0.04042447 -0.0014557154 -0.019145472 0.04393263 -0.048505954 0.02259515 0.05245026 -0.080978766
-0.01057004 -0.04097852 -0.012322039 -0.0101400325 0.054702174 0.018787488 0.045933343 0.0565999
0.062454928 0.0687929 -0.05716445 0.08132488 -0.06776391 0.008322581 0.050180722 0.08870361
0.039016575 -0.06458453 -0.06308625 0.05635747 0.07533693 0.06558062 0.06935293 -0.039973274
0.050733406 0.008781398 0.032756712 -0.078351445 0.0044193617 -0.014849571 -0.025001494 -0.057562612
-0.023591409 0.03986754 -0.0007860464 -0.009440584 0.012604953 -0.07230269 0.05248059 -0.033206314
0.09106247 -0.04132342 -0.003644642 0.03114471 -0.0683239 -0.015412471 0.071098536 -0.055872362
0.084622845 -0.039401762 -0.08226193 0.07863778 -0.046679642 0.03932528 0.011668917 -0.06751327
0.045416694 0.09041225 0.07289306 -0.015637597 -0.019699957 -0.073785566 -0.057546124 0.037643053
-0.080790676 0.02034079 0.044932008 -0.021004159 -0.072878465 -0.01611919 -0.084476516 0.0011270951
0.08542453 -0.0048216525 0.034921993 -0.005652901 0.03484899 0.041515544 -0.05641705 0.014275774
0.08727833 -0.059944946 -0.057542387 -0.016400944 -0.058313273 -0.01138988 -0.052272283 -0.07310992
0.030611333 0.011411052 -0.004134568 0.01572982 0.004355121 -0.07734323 0.043949578 -0.06510852
-0.036835153 0.04872918 0.039370917 0.039696965 0.04727731 -0.015854452 0.04439507 0.0697405
-0.07170856 0.08479935 -0.032775868 -0.07334788 0.014627803 0.08729867 -0.00070151064 0.0018705222
0.051119555 -0.039073348 -0.041276693 -0.033775 -0.0015132442 0.026478274 -0.009726038 0.08127677
0.016463472 0.036658626 -0.06707591 0.015384751 -0.06953642 -0.05432011 -0.0028748007 0.027861454
-0.017747145 -0.032961473 0.04823912 0.044660486 -0.04784842 -0.0034009358 0.086927034 -0.04828227

rnn.bias_ih_l1 f4 [512]
00000000: 52dd 8ebc 97c5 803d 5502 c8bc 3cbf 5b3d
00000010: 67b6 af3c a3e5 763d bf0c 4d3c 46d5 d9bb
00000020: c2ac 93bd a706 a83d 5127 29bd b288 4b3d
00000030: 332a 2abd 83fb ba3b 0597 44bd 76d8 9d3d
00000040: bb2a dabb 276b 0bbb 8f3d aabc 19d5 e8bb
00000050: faf5 6b3d 5e61 d03c fed2 98bd bbad 10bd
00000060: 5088 24bd f8a8 ff3c ea2d d63c f9cc 903d
00000070: d682 c4bc 7795 0cbd efdf 7e3d f6b1 253c
00000080: 9d3f d33c 0ed4 a73d 5764 86bc 0102 a1bd
00000090: 926f 5d3c 66fb 76bd b9f8 89bd 361c 913b
000000a0: c0c2 223d 0780 153d e769 493d 8561 86bd
000000b0: 6da1 653d 368a 96bc 5e5c a23d 03ed 343d
000000c0: 1d24 2bbd 8b26 e03c 7498 c4bc d058 ae3d
000000d0: 0062 87bd 7627 03bd 3b1f 9fbc 736b d93c
000000e0: 0a82 573d 65a0 21bd 2e1e 543d a59d b83d
000000f0: c1d2 89bd aa07 fc3c 39c0 4cbd 7622 c13c
00000100: 1732 cfbc 742f 8dbd a186 0e3c 0ab6 0d3d
00000110: 2915 0fbc 59e8 623d 91d4 d33c bdf1 abbd
00000120: a099 a5bb db27 fd3c ef24 483d dd49 ab3d
00000130: e43b 67bd 9571 8f3d c6a3 833d 4f03 a83c
00000140: d6dc a63b 01aa 16bd 6b60 c43c 16b3 393d
00000150: 2206 8d3c d9b5 c23c 2887 92bd e6ae bebd
00000160: 5e15 5b3d e9fd 9dbd 3d67 55bb a617 c3bb
00000170: 7a31 ffbb 600c b8bc 150a e03c 7c8e 3c3d
00000180: b7b5 ed3c 404b 9bbd b02f 50bd 90ee 18bc
00000190: 772d 29bd 2404 3f3d 01bd 83bd ba9e e33c
000001a0: 66e5 883d 6147 623d aaa2 9e3d 6178 a1bd
000001b0: 41b1 a93d dd92 0e3d c5ca 993d 38a3 623d
000001c0: 8480 9c3b 13bb 9f3d db80 483d 021e 1ebb
000001d0: dde1 99bd e2cd 973d e647 603d 9a94 9ebd
000001e0: 9187 c7bc 74c6 623c b8c9 443d 8e2c 863d
000001f0: ee51 09bd c15f 8cbc 3a3f d6bc d40c 4b3d
00000200: 0d75 933d cd0a bebb fec1 f6bb d106 16bd
00000210: b369 52bc c9e0 473d 8aa4 693d cc64 9a3c
00000220: f591 2b3c 4f8f a43c 1920 773b 32e6 87bd
00000230: acc6 82bc c1e2 833d cd72 b23d 189a 8abd
00000240: cd61 683d 4166 0bbd 0ea2 7e3c 0783 3ebc
00000250: 0425 c1bc 5b4e 4abd c4e2 b0bc 8056 63bd
00000260: 7e6b 37bd e023 84b9 f628 9c3d 2a2e bc3c
00000270: bab8 70bd 14ef 87bc 391a 623d 44eb 52bd
00000280: 8bcd 563d b32a 0ebc 4403 acbd 7251 99bd
00000290: af79 883d b2fa 953d 5621 fb3c 3054 c5bc
000002a0: a378 983d fdf3 293d 69ea 66bc c163 e03c
000002b0: c40e a13d 6b19 af3d 2e75 e03b 3a0d 9dbc
000002c0: 7806 b63c 3701 a63d 112f 283a a1ba a9bd
000002d0: 6a46 353c dc06 ac3c 15a0 6abd 5664 d63c
000002e0: 3e48 88bd 6cd7 2dbd 2590 bd3d a2df 513d
000002f0: fb05 183d 73bf 0ebd dda9 82bb c5f9 1d3d
00000300: 5c66 b43d bf81 013d b551 a3bd 0b35 853c
00000310: 591d 4d3c 61db 823d cfa0 1b3d 02bc a93d
00000320: fde5 96bd f2d3 a63d 4e68 4f3d a795 80b9
00000330: 6c25 bbbd 0368 95bd 2ba8 92bd c98e 8c3c
00000340: 262b efba b75d be3d 72ce cdbc e543 743c
00000350: 5702 6abd 210e 0e3d fe3e c039 d7a8 e2bc
00000360: df74 fb3c 0f03 a1bd d83a 54bc 3957 8ebd
00000370: f65f f33c ed25 01bd 445e a7bd daac ffbb
00000380: 8bfd 4cb9 abb0 0cbd 096d fbbc 2924 14bd
00000390: 8779 fe3c 3707 0cbc 5287 a4bd 335f ae3d
000003a0: 704e 93bd 1baf 813d eb0a 9b3d efec 6fbd
000003b0: 7e05 ed3c c307 9d3d d537 803d e2f6 38bd
000003c0: dca2 b53d 37c5 a0bc 99a0 79bc 9b01 093d
000003d0: 2738 21bc b74a 3bbd 08cc c13c 64a8 00bd
000003e0: 2336 81bd 8a65 b83d 7c30 f83c 2a75 afbc
000003f0: b5c6 3e3d 6042 503d eb63 8e3d 8997 1cbd
-0.017439518 0.06287687 -0.024415174 0.053649172 0.02144928 0.060277592 0.012515246 -0.0066477386
-0.07210685 0.08204394 -0.04129726 0.04969091 -0.04154415 0.005706252 -0.047995586 0.07707302
-0.006657926 -0.0021273585 -0.020781307 -0.0071054813 0.05760763 0.025437053 -0.074621186 -0.035321932
-0.04016906 0.0312085 0.02614494 0.070703454 -0.023988169 -0.03432223 0.06222528 0.01011323
0.02578717 0.08194743 -0.016405268 -0.0786171 0.01351537 -0.060298346 -0.06736893 0.004428412
0.03973651 0.03649905 0.049173262 -0.06561569 0.05606215 -0.018376451 0.07927774 0.044171344
-0.041782487 0.027362129 -0.023998477 0.085130334 -0.06610489 -0.032020055 -0.019424072 0.026540494
0.05261425 -0.039459605 0.051786594 0.09014443 -0.06729651 0.030765373 -0.049988005 0.023576003
-0.02529244 -0.068938166 0.00869909 0.034597434 -0.008733072 0.055397365 0.025858195 -0.08395717
-0.005053714 0.030902794 0.048863348 0.08363698 -0.0564536 0.07004086 0.06427722 0.02050939
0.0050922437 -0.036783222 0.023971757 0.045336805 0.017214838 0.023768352 -0.07154685 -0.09310703
0.053487174 -0.07714445 -0.0032562756 -0.005953747 -0.0077878805 -0.022466838 0.027348557 0.04603432
0.029017312 -0.07582712 -0.05082673 -0.0093342215 -0.041303124 0.04663481 -0.06432534 0.027785648
0.06684379 0.055243853 0.077458695 -0.078842886 0.082857616 0.03480803 0.07509378 0.05533144
0.0047760624 0.077993535 0.04895101 -0.0024126773 -0.07513783 0.07412316 0.054756068 -0.07743187
-0.024356635 0.01384126 0.048043936 0.06551467 -0.0335254 -0.017135503 -0.026153196 0.04957278
0.0720006 -0.0057996274 -0.00753045 -0.036627594 -0.0128425835 0.048798356 0.057041682 0.018846892
0.010471811 0.020087866 0.003770834 -0.06635703 -0.015963875 0.06439734 0.08713303 -0.06767672
0.056733895 -0.034033064 0.015541567 -0.011627919 -0.02357722 -0.04939113 -0.021592505 -0.055502415
-0.044780247 -0.0002520373 0.07625 0.022971231 -0.05876992 -0.016593494 0.05520079 -0.051493898
0.052442115 -0.0086771725 -0.0839906 -0.074862376 0.06663834 0.07323207 0.030655544 -0.024087995
0.07444885 0.04149245 -0.014093974 0.027391316 0.078641444 0.0854977 0.0068499064 -0.019171346
0.022219881 0.081057005 0.0006415705 -0.0828755 0.011064151 0.020999365 -0.057281572 0.02617089
-0.06654404 -0.04244177 0.09256009 0.051238663 0.03711508 -0.03485055 -0.0039875344 0.038568277
0.08808586 0.031617876 -0.07974569 0.016260644 0.012519204 0.063894995 0.037995156 0.08287813
-0.073680855 0.08145894 0.050636582 -0.00024525562 -0.09137997 -0.07295229 -0.07160982 0.017157929
-0.0018247112 0.092952184 -0.025122855 0.014908765 -0.057131138 0.034681443 0.00036668027 -0.0276684
0.030695377 -0.078619115 -0.012953483 -0.0695023 0.029708844 -0.03153031 -0.081722766 -0.007802588
-0.00019549408 -0.03434817 -0.03069164 -0.036167298 0.031063808 -0.008546642 -0.08033623 0.085142516
-0.07192695 0.06332227 0.07570442 -0.058575567 0.028933283 0.07667496 0.06260649 -0.04515732
0.088689536 -0.01962529 -0.015236043 0.033448797 -0.009840048 -0.04572555 0.02365686 -0.03141059
-0.06309154 0.09003742 0.030296557 -0.021418173 0.04657622 0.05084455 0.069526516 -0.038230453
