backend/trained_models/NICA_LSTM_model_state_dict.pth (torch, 167948 bytes, 5 tensors)

rnn.weight_ih_l0 f4 [400, 1]
0	0xbcabf957	-0.020992918
1	0x3dd8acab	0.10579809
2	0x3dc03f1e	0.09387039
3	0xbd0edc93	-0.034878325
4	0xbd97044d	-0.07373867
5	0x3dae37d7	0.08506744
6	0x3cd12bf8	0.025533661
7	0x3b67bd07	0.0035360472
8	0xbc31dfc7	-0.010856575
9	0xbb428170	-0.0029679202
10	0xbd733b47	-0.059382703
11	0xbdd5f6d7	-0.104474716
12	0xbbb1b7f4	-0.0054235402
13	0x3dc4ca76	0.09608929
14	0x3d1cf275	0.038317163
15	0x3e018561	0.12648536
16	0x3ca7171c	0.020396762
17	0xbd0a49de	-0.03376185
18	0x3cfa6ee6	0.030570459
19	0xbd9207ab	-0.07130369
20	0xbd6225c6	-0.055211805
21	0xbd49e594	-0.04929121
22	0xbd7fdf01	-0.062468532
23	0x3cba5fae	0.022750702
24	0x3dbd3b6e	0.09239851
25	0xbd3db39b	-0.046313863
26	0xbd811747	-0.06303268
27	0x3e0a168e	0.13485166
28	0x3b323563	0.0027192465
29	0xbd481606	-0.04884913
30	0xbda43529	-0.08017952
31	0xbd1244fd	-0.035710324
32	0xbcec0235	-0.028809646
33	0x3c51e326	0.012810504
34	0xbda88627	-0.082287125
35	0xbd08aef8	-0.03336999
36	0x3dcb7baa	0.099356964
37	0x3ce1646c	0.027513705
38	0x3dcdad65	0.10042838
39	0x3d21566a	0.03938905
40	0x3d4f8e68	0.05067292
41	0xbd2e9780	-0.04262495
42	0xbdc87f4f	-0.09789907
43	0xbe0a2e9d	-0.13494344
44	0x3b4a367d	0.0030855231
45	0xbdf40f59	-0.1191699
46	0x3d1a8732	0.03772659
47	0xbdadb155	-0.08481089
48	0xbd93c7cd	-0.07215843
49	0xbd15eccc	-0.03660278
50	0x3d6a5dad	0.057218242
51	0x3d5d9087	0.05409291
52	0x3de8fe17	0.11376589
53	0xbd7d4166	-0.061829947
54	0xbd1cde34	-0.038297847
55	0xbd04ca0d	-0.032419253
56	0xbd57d794	-0.052695826
57	0x3e09194c	0.13388556
58	0x3cda4be0	0.026647508
59	0xbdb9a49f	-0.09064602
60	0x3dc6b949	0.09703309
61	0x3de7f341	0.11325694
62	0x3d0d93f1	0.034564916
63	0x3ddc404c	0.10754451
64	0x3cf24445	0.02957357
65	0x3ca80b7d	0.02051329
66	0xbd1f32d4	-0.038866833
67	0xbd0cdc64	-0.03438987
68	0xbdade7a9	-0.08491451
69	0xbd53d48c	-0.051716372
70	0xbd0f935a	-0.035052635
71	0xbd8265be	-0.06367062
72	0x3dce4f57	0.100737266
73	0x3bd4f2d8	0.006498676
74	0x3d91a7b2	0.071120635
75	0xbd2364e9	-0.039891157
76	0xbc30dab1	-0.010794328
77	0x3d1b83f3	0.037967633
78	0x3d3a6f94	0.045516565
79	0xbc6115a5	-0.013738071
80	0x3d3a9e2b	0.045560997
81	0xbc7e4175	-0.015518536
82	0xbd25b4cc	-0.040455624
83	0x3d61b505	0.055104274
84	0xbda2abc2	-0.079429165
85	0xbc8f31d8	-0.017479822
86	0xbde31fc9	-0.11090047
87	0x3d507b64	0.050898924
88	0x3d491c85	0.049099464
89	0x3d94cdbb	0.072658025
90	0xbd1c5890	-0.038170397
91	0xbcef4e3b	-0.029212108
92	0x3cb119c0	0.021618724
93	0xbd705596	-0.05867537
94	0x3d9260a1	0.07147337
95	0xbd3a66f6	-0.045508347
96	0xbcccdf2c	-0.02500876
97	0xbca9e026	-0.020736765
98	0xbb93a155	-0.0045053163
99	0xbcf19408	-0.029489532
100	0x3d3c1f27	0.045928147
101	0x3d93bdcc	0.07213935
102	0x3db94233	0.090458296
103	0x3db82112	0.08990683
104	0x3d434e08	0.04768184
105	0x3dc0247e	0.0938196
106	0xbe03378a	-0.12814155
107	0xbd5d5f40	-0.054045916
108	0xbd774d86	-0.060376666
109	0x3d5a9e2d	0.053373504
110	0x3bcb8425	0.006210821
111	0xbd902759	-0.07038755
112	0xbdc2916d	-0.09500394
113	0x3cc372f4	0.023858525
114	0x3d903c3b	0.07042738
115	0xbd31adae	-0.043378524
116	0x3cfcce1a	0.030859996
117	0xbd82c531	-0.063852675
118	0xbcf0aa2b	-0.029378017
119	0xbd5ab6f3	-0.05339713
120	0x3df321ef	0.11871707
121	0x3dd02a86	0.10164361
122	0xbd419984	-0.047265545
123	0xbc1cae68	-0.009563066
124	0xbd26f011	-0.04075629
125	0xbd806223	-0.06268718
126	0xbe053d06	-0.1301156
127	0xbd6a3101	-0.05717564
128	0x3d256f55	0.040389378
129	0x3dc5e9e9	0.096637554
130	0xbd5dbf31	-0.054137412
131	0xbd9c2f3b	-0.07626196
132	0x3dc794bd	0.097451665
133	0x3be5a7a1	0.0070085083
134	0xbdee57c4	-0.11637834
135	0xbd9ebb14	-0.07750526
136	0x3d45f304	0.04832746
137	0xbcb378c9	-0.02190818
138	0xbd0c1c0f	-0.034206446
139	0x3d1db51a	0.03850279
140	0x3d10be55	0.035337765
141	0xbd11a519	-0.03555784
142	0x3cae598c	0.021282934
143	0xbe0f3dda	-0.13988438
144	0xbd17d3f1	-0.037067357
145	0xbdc6840a	-0.09693153
146	0xbd51094b	-0.051034253
147	0x3d09befd	0.033629406
148	0xbb630c10	-0.003464464
149	0xbd2e3b98	-0.0425373
150	0xbc2bba91	-0.010481493
151	0x3db0b68a	0.086285666
152	0xbc9488e1	-0.018131675
153	0x3da80b4c	0.0820528
154	0xbd0481df	-0.032350417
155	0xbc2d8705	-0.010591273
156	0xbd211c51	-0.039333645
157	0x3d8ffc8c	0.07030591
158	0x3d22e179	0.03976581
159	0x3c763b9b	0.0150288595
160	0x3dbf06d8	0.09327477
161	0x3cad5679	0.021159397
162	0xbdb254ed	-0.087076046
163	0xbb279350	-0.0025569983
164	0x3dad54aa	0.08463414
165	0x3db28b4d	0.08717976
166	0x3c52beaf	0.012862845
167	0xbb3f0e35	-0.0029152755
168	0xbc85a711	-0.016315015
169	0x3d88011b	0.06640836
170	0x3d56221a	0.052278616
171	0xbdc49646	-0.09598975
172	0xbb89babe	-0.0042031696
173	0xbd84909c	-0.064728945
174	0x3da091f3	0.078403376
175	0xbc8f8251	-0.017518194
176	0x3d54bd69	0.051938448
177	0xbb864999	-0.004098129
178	0xbe099477	-0.13435541
179	0x3cab580a	0.020916004
180	0x3da9eab2	0.08296718
181	0xbc7ab0cb	-0.01530094
182	0xbd42f6fc	-0.047598824
183	0xbd406590	-0.046971858
184	0xbdb52094	-0.088441044
185	0xbd852f24	-0.06503132
186	0x3d92ee37	0.07174342
187	0xbd82f582	-0.06394483
188	0x3d34d5dd	0.04414927
189	0x3d9f8930	0.07789838
190	0x3d81991d	0.06328032
191	0x3d7cc867	0.061714556
192	0x3dcb09fa	0.09914012
193	0xbe12c609	-0.14333357
194	0x3df03c84	0.117302924
195	0xbd2f4c8c	-0.04279761
196	0xbc260d89	-0.010135063
197	0xbda0e979	-0.078570314
198	0xbc397a15	-0.0113206105
199	0x3ce166bb	0.027514806
200	0xbde3e4a9	-0.11127598
201	0x3d1cc1c6	0.038270734
202	0x3c872d36	0.01650105
203	0x3e0762d9	0.13221301
204	0xbd6216d2	-0.055197544
205	0xbde9f41f	-0.114235155
206	0x3d339836	0.04384633
207	0xbda50a79	-0.08058638
208	0x3c878047	0.01654066
209	0x3cc7782b	0.024349293
210	0xbe04483a	-0.12918177
211	0x3da890fe	0.0823078
212	0x3d4de494	0.050266817
213	0x3cb5961f	0.02216631
214	0xbd42fdc0	-0.047605276
215	0x3d37ad8d	0.044843245
216	0x3d53d477	0.051716294
217	0xbdc0b5c0	-0.09409666
218	0xbc661bcd	-0.014044714
219	0x3d87593c	0.06608817
220	0x3e08bd94	0.13353568
221	0x3da7a6a6	0.081860825
222	0xbcdc6a98	-0.026906297
223	0x3d9c11fd	0.076206185
224	0xbc81c3e0	-0.01584047
225	0xbd56596e	-0.05233138
226	0xbe0cdea5	-0.13756807
227	0x3cd0039a	0.025392342
228	0x3dcb7309	0.099340506
229	0x3df97538	0.12180561
230	0xbd3678dc	-0.044548854
231	0x3e084178	0.13306224
232	0xbd9fd62f	-0.07804524
233	0xbd43edb9	-0.047834132
234	0x3db67032	0.08908118
235	0xbdc203bb	-0.09473368
236	0xbd741370	-0.05958885
237	0x3ddbb0e6	0.107271
238	0xbd17c9cc	-0.037057683
239	0x3d23941b	0.039936166
240	0xbd8f34f7	-0.06992524
241	0x3d6679e8	0.056268603
242	0xbd2d607b	-0.04232834
243	0x3a0f87d6	0.0005475258
244	0xbdde0e61	-0.10842586
245	0x3d6900a6	0.056885384
246	0x3dd22387	0.102606826
247	0x3d210cbc	0.039318785
248	0xbd87c76c	-0.066298336
249	0xbd494cf9	-0.049145672
250	0x3d744102	0.05963231
251	0x3d0efecb	0.03491096
252	0x3d02fa61	0.03197706
253	0xbdbddc24	-0.09270504
254	0xbc681f9f	-0.014167695
255	0x3ded663f	0.115917675

rnn.weight_hh_l0 f4 [400, 100]
0	0x3c5feb90	0.013667002
1	0xbd25b944	-0.040459886
2	0x3d84b5f3	0.064800166
3	0x3d2198e4	0.03945245
4	0xbd9da7cf	-0.076980226
5	0xbd66929e	-0.05629217
6	0x3d6c0cdf	0.057629462
7	0xbcb85a8c	-0.022504114
8	0xbcbad326	-0.022805762
9	0x3ca8b646	0.020594727
10	0x3d9d1494	0.076699406
11	0x3dae2240	0.085026264
12	0x3d9b2a2e	0.075764045
13	0x3ccf5569	0.025309281
14	0xbd853b7e	-0.06505488
15	0xbd648604	-0.05579187
16	0x3dd97c00	0.10619354
17	0xbd55b877	-0.052177873
18	0x3cc44e0c	0.023962997
19	0x3c576fff	0.013149261
20	0xbd2561b8	-0.040376395
21	0x3d547715	0.051871378
22	0xbda3fc2b	-0.080070816
23	0x3d8533de	0.065040335
24	0x3bfcbf53	0.0077132373
25	0xbd1f3592	-0.038869448
26	0xbcf37f9d	-0.029723937
27	0xbd07b28a	-0.033129252
28	0xbda9ea65	-0.0829666
29	0x3c6784b8	0.014130764
30	0x3da9586a	0.08268817
31	0x3d8a169f	0.06742596
32	0x3d9367a1	0.071975
33	0x3da6e3b9	0.081489034
34	0x3d151e81	0.036406044
35	0x3cc0c939	0.02353345
36	0xbd949237	-0.07254451
37	0x3dd8eff9	0.10592646
38	0x3c3fe6eb	0.01171277
39	0x3c44c075	0.012008776
40	0x3d93750d	0.0720006
41	0xbc9ea546	-0.019365918
42	0x3cc3468c	0.02383735
43	0x3d9b7a53	0.07591691
44	0x3d5e8f82	0.05433608
45	0xbba28ef5	-0.0049608895
46	0x3da8c58c	0.08240804
47	0xbdaaa440	-0.083321095
48	0x3c0a1324	0.008427415
49	0xbd19af17	-0.037520494
50	0xbcaf79f8	-0.021420464
51	0xbc21251d	-0.009835509
52	0xbda1e035	-0.07904092
53	0x3d70e2d3	0.058810066
54	0x3dd25efe	0.102720246
55	0xbc94935a	-0.018136669
56	0x3d5f57eb	0.054527204
57	0xbd862ba0	-0.065512896
58	0xbdbf89fd	-0.09352491
59	0x3d6ca19c	0.05777131
60	0x3dbd593c	0.09245536
61	0x3ac26a80	0.0014832765
62	0x3c3e7859	0.011625373
63	0xbd0610b6	-0.03273078
64	0xbdb7494c	-0.08949527
65	0x3bfef6b7	0.0077808755
66	0x3cfe0c95	0.031011859
67	0xbd82c387	-0.0638495
68	0x3d51c1e6	0.051210307
69	0xbd5d57cd	-0.05403881
70	0x3da7d299	0.08194465
71	0x3d853066	0.06503372
72	0xbd656cb1	-0.05601186
73	0xbd819d19	-0.06328792
74	0x3dc6730c	0.09689912
75	0xbd83ac4a	-0.06429346
76	0x3d9008c9	0.07032926
77	0xbd0a064e	-0.03369742
78	0x3d9aacb2	0.0755247
79	0x3dc57878	0.09642118
80	0x3c0d18b6	0.008611849
81	0xbd630c53	-0.055431675
82	0x3d4c5f1e	0.0498954
83	0xbc868db6	-0.016424995
84	0xbd67b85e	-0.05657231
85	0xbdaac888	-0.083390296
86	0xbd523a49	-0.051325116
87	0x3df9828e	0.121831045
88	0xbd86c057	-0.06579655
89	0xbdb454c5	-0.08805231
90	0xbd925190	-0.07144463
91	0xbd8e79a6	-0.06956796
92	0xba8221b3	-0.0009928256
93	0x3d2ca304	0.04214765
94	0x3d6fa1ec	0.05850403
95	0x3d868fca	0.06570394
96	0x3dac9ff3	0.084289454
97	0x3d6a7a97	0.057245817
98	0x3cff2c39	0.031149017
99	0xbd6b2c80	-0.057415485
100	0x3c4698df	0.012121408
101	0xbd36a225	-0.044588227
102	0x3da36f86	0.07980256
103	0x3b743db4	0.0037268223
104	0x3d226f34	0.039656833
105	0xbdd71a13	-0.1050302
106	0xbd9d0aba	-0.076680616
107	0xbd73cc0a	-0.05952076
108	0x3d61a04f	0.055084523
109	0xbd3f5c70	-0.046719015
110	0x3d32b53e	0.043629877
111	0xbd516225	-0.05111899
112	0x3daa1987	0.0830565
113	0xbcf40682	-0.02978826
114	0x3d89c0ba	0.06726213
115	0xbd3a341d	-0.045459855
116	0x3d29c53e	0.04144787
117	0x3d71057e	0.05884313
118	0x3d5641c9	0.05230883
119	0xbc41c6ff	-0.0118272295
120	0x3ad17e73	0.0015983119
121	0x3d9eb87c	0.07750031
122	0xbdb82cc7	-0.089929156
123	0x3dcb0a29	0.09914047
124	0xbd2a40be	-0.04156565
125	0x3c3f8253	0.011688787
126	0x3d50be50	0.050962746
127	0x3dc4d5de	0.096111044
128	0x3daf1f88	0.08550936
129	0x3dd008d4	0.10157934
130	0xbdd271f9	-0.10275645
131	0x3d88c796	0.06678693
132	0xbc175d46	-0.009238547
133	0xbd6abfbf	-0.05731177
134	0x3de91d59	0.11382551
135	0xbd68a13b	-0.056794386
136	0xbca9f5d4	-0.020747103
137	0xbd98005f	-0.07421946
138	0x3c8642cc	0.016389273
139	0x3dcafb71	0.0991124
140	0xbd8652a7	-0.065587334
141	0xbda05790	-0.07829201
142	0xbcdb590b	-0.026775857
143	0xbb5eb980	-0.0033985078
144	0xbd4b6096	-0.04965266
145	0xbc4c17e8	-0.012456872
146	0x3d6e1fd1	0.05813581
147	0xbd29faf3	-0.04149909
148	0xbd96d22a	-0.07364304
149	0x3ceea949	0.029133456
150	0xb9f27aea	-0.00046249415
151	0x3dc0471b	0.09388562
152	0x3db153db	0.08658572
153	0x3b322c90	0.0027187206
154	0xbd621a20	-0.055200696
155	0x3caf8788	0.021426931
156	0xbd5110ea	-0.05104152
157	0xbd03db7a	-0.03219173
158	0x3db1102a	0.08645661
159	0xbd769e2a	-0.06020943
160	0x3d90a8a5	0.070634164
161	0xbdb8a7d7	-0.09016388
162	0x3d820e83	0.06350424
163	0xbd8be36c	-0.06830487
164	0xbdb66958	-0.089068115
165	0x3de27ca4	0.110589296
166	0x3cd40836	0.025882822
167	0xbdbfae86	-0.093594596
168	0xbc4f1db0	-0.012641355
169	0x3d8acef6	0.06777756
170	0x3d66428e	0.056215815
171	0x3dff92b8	0.12479156
172	0xbdbc9d81	-0.09209729
173	0x3d5a9b2b	0.053370636
174	0x3dac4bcc	0.084128946
175	0x3d5f239d	0.054477323
176	0xbd2749d8	-0.040841907
177	0x3d18c327	0.037295487
178	0xbdac69d5	-0.08418623
179	0xbcae506d	-0.021278584
180	0x3d901974	0.07036105
181	0xbcc09d06	-0.023512375
182	0x3db98efa	0.09060474
183	0x3d66027c	0.056154713
184	0xbdf22d1e	-0.11825012
185	0xbd92d379	-0.071692415
186	0xbdaef3b0	-0.085425735
187	0x3db889c7	0.09010654
188	0x3cfe399d	0.031033332
189	0x3c004914	0.007829923
190	0x3dbb549d	0.09146998
191	0x3d74908e	0.05970817
192	0xbd893697	-0.06699865
193	0x3d955d96	0.07293241
194	0x3de857ad	0.11344848
195	0x3dde571f	0.10856461
196	0xbd24ee8b	-0.040266555
197	0xbbe6cb27	-0.0070432606
198	0x3d666979	0.05625293
199	0x3d9c978f	0.07646095
200	0xbd393cb6	-0.045223914
201	0x3d311c5f	0.043239947
202	0xbc37f72d	-0.011228365
203	0x3dee6e75	0.11642162
204	0x3d0dee1a	0.0346509
205	0xbd39f6c2	-0.045401342
206	0x3d1605d8	0.036626667
207	0xbd005785	-0.031333465
208	0x3cbf0964	0.023319907
209	0x3d9c479d	0.07630847
210	0xbdc5bea6	-0.09655504
211	0x3ca2053a	0.019777883
212	0xbc159c9d	-0.009131578
213	0x3c8e2c0f	0.017354993
214	0xbcfa3ccc	-0.030546568
215	0x3d6e7778	0.058219403
216	0x3ddfc9b4	0.10927144
217	0xbd22548e	-0.03963142
218	0x3c633a92	0.013868945
219	0x3d3d2768	0.04618016
220	0x3af256c5	0.0018488994
221	0x3dd9d8b9	0.1063704
222	0xbd9748cc	-0.07386932
223	0x3de9f04f	0.11422788
224	0xbbc94e47	-0.0061433646
225	0x3ca4d6a0	0.020121872
226	0xbcc79770	-0.024364203
227	0x3bc8f955	0.0061332383
228	0x3e150da0	0.14555979
229	0x3dffffc6	0.12499957
230	0xbd25fc8b	-0.040524047
231	0x3cc69866	0.024242591
232	0xbd0bad02	-0.03410054
233	0x3d51d843	0.051231634
234	0x3d11f481	0.035633568
235	0x3d8e31e4	0.0694311
236	0x3d2776b3	0.040884685
237	0x3e067081	0.13128854
238	0xbd8147c8	-0.06312519
239	0xbd75b5f2	-0.05998797
240	0xbdac6e4a	-0.084194735
241	0x3dad613b	0.08465811
242	0x3c9908a6	0.018680882
243	0xbdd22d08	-0.10262495
244	0x3caa621c	0.020798735
245	0x3ca074ca	0.01958694
246	0x3dd75ffe	0.10516356
247	0x3d8965c7	0.067088656
248	0xbd7019e7	-0.058618452
249	0xbd4b3fe2	-0.04962147
250	0x3c62eeca	0.013850877
251	0xbc561aaf	-0.013067885
252	0xbcc44527	-0.023958756
253	0xbdb47e67	-0.08813172
254	0x3d3c3b05	0.045954723
255	0x3dc69400	0.096961975

rnn.bias_ih_l0 f4 [400]
0	0x3b8890c6	0.004167649
1	0x3d7e4fff	0.06208801
2	0xbd26c3c7	-0.04071405
3	0xbcbe9e8b	-0.023268959
4	0xbd8dc2ee	-0.069219455
5	0xbd3659c5	-0.044519205
6	0xbd9dfce8	-0.07714254
7	0x3cf7d71e	0.030253943
8	0xbd2c3dfa	-0.042051293
9	0x3bca2e16	0.0061700447
10	0x3dfb2e5b	0.12264701
11	0x3dab8f22	0.0837691
12	0xbd1bd3c9	-0.03804377
13	0x3d5775cd	0.052602578
14	0xbcce5a12	-0.025189433
15	0xbcba0293	-0.022706306
16	0xbd0aa3ad	-0.0338475
17	0x3d8d340f	0.06894695
18	0x3c89bc2d	0.016813362
19	0xbd8f78a4	-0.07005432
20	0xbaa3147b	-0.0012442017
21	0x3d040c3d	0.032238234
22	0x3db646a9	0.08900196
23	0xbd09ba09	-0.033624683
24	0x3b0ffe28	0.0021971557
25	0x3de60176	0.112307474
26	0x3d566f75	0.052352387
27	0x3d7ae18e	0.061250262
28	0x3c1266e6	0.008935666
29	0xbb69fae8	-0.003570253
30	0xbda4c33f	-0.08045053
31	0x3c50b3e5	0.012738203
32	0x3a868787	0.0010263779
33	0xbd1175ea	-0.035512842
34	0xbd7d7c6a	-0.06188623
35	0xbcb897c0	-0.022533298
36	0xbd1fcccf	-0.03901368
37	0xbcede739	-0.02904092
38	0x3d1f77eb	0.038932722
39	0xbd4a291f	-0.049355622
40	0x3d82aa71	0.06380165
41	0xbc39a76c	-0.01133142
42	0x3d8c1fbb	0.068419896
43	0xbb53cd66	-0.0032318472
44	0xbdaad840	-0.08342028
45	0x3c7e58ca	0.015524099
46	0x3d57032d	0.052493263
47	0x3df9ea20	0.12202859
48	0xbd923877	-0.07139676
49	0xbcad4540	-0.021151185
50	0x3d285fea	0.041107096
51	0xbd7fdfd4	-0.06246932
52	0xbda52f27	-0.08065634
53	0x3d9601d8	0.073245704
54	0x3ddd2df8	0.107997835
55	0xbc32b541	-0.010907472
56	0xbbcafde8	-0.0061948188
57	0x3d9058b1	0.070481665
58	0xbd005e00	-0.031339645
59	0xbbac2ffc	-0.0052547436
60	0x3dc81c40	0.09771013
61	0x3d60a7b4	0.054847434
62	0xbd96cf54	-0.073637635
63	0x3cc3c09a	0.02389555
64	0xbcb04939	-0.02151929
65	0xbd71b7f8	-0.059013337
66	0x3d905121	0.07046724
67	0xbd6682e5	-0.056277175
68	0x3d54f678	0.051992863
69	0xbcc4c66c	-0.024020396
70	0x3d2fe156	0.042939506
71	0xbda04678	-0.07825941
72	0x3db8e9f8	0.09029001
73	0x3d9a085d	0.075211264
74	0xbda6c229	-0.08142502
75	0xbd21bb4e	-0.03948527
76	0x3dd7ae66	0.10531311
77	0xbd7adb1c	-0.061244115
78	0x3cf6524b	0.030068537
79	0xbd82e114	-0.063905865
80	0xbaaa7d64	-0.001300734
81	0xbc740738	-0.014894299
82	0xbd8b709e	-0.068085894
83	0x3d0c5bf2	0.034267373
84	0xbd94121b	-0.07230016
85	0xbd574f4b	-0.052565854
86	0xbcac0ccf	-0.021002201
87	0x3bab1dae	0.005222044
88	0xbd90d57c	-0.07071969
89	0xbd9db689	-0.077008314
90	0xbd88f687	-0.06687646
91	0xbd3dab37	-0.04630586
92	0xbc73a7e3	-0.01487157
93	0x3c5a74b6	0.01333349
94	0x383c4d72	4.489482e-05
95	0x3dfac605	0.122448005
96	0x3d9cb89a	0.076523975
97	0x3db70dcf	0.08938181
98	0x3b818358	0.003952425
99	0x3c1f11c6	0.009708827
100	0xbd87ef58	-0.06637448
101	0x3d335ad8	0.043787807
102	0x3c8f5cc4	0.017500289
103	0x3df09fb1	0.11749209
104	0xbd808844	-0.062759906
105	0x3c03c4e6	0.00804255
106	0x3d881b05	0.066457786
107	0xbd715fd9	-0.058929298
108	0xbd800e85	-0.062527694
109	0x3ceed33e	0.029153462
110	0x3ca54ab3	0.02017722
111	0x3d2f2173	0.04275651
112	0xbd35f7d3	-0.044425797
113	0x3d551cec	0.052029535
114	0xbd872a95	-0.06599919
115	0x3dce3af6	0.1006984
116	0x3cfdd6d7	0.030986233
117	0x3d289b25	0.041163582
118	0x3d94b991	0.072619565
119	0x3d706d9b	0.058698278
120	0x3da0fe69	0.07861025
121	0x3d3ba0e9	0.045807753
122	0xbd14cc8f	-0.036327895
123	0x3d837664	0.064190656
124	0xbd048a26	-0.03235831
125	0xbbf02c07	-0.007329467
126	0x3df975b3	0.121806525
127	0x3d874515	0.06604973
128	0x3db3985b	0.08769294
129	0xbd69cdf2	-0.05708117
130	0x3dc1a79d	0.09455798
131	0x3dda3e76	0.10656445
132	0x3e049b7e	0.1294994
133	0xbb90f1e8	-0.0044233687
134	0xbcb287cb	-0.021793267
135	0xbd5a2da9	-0.0532662
136	0x3c954cfa	0.018225182
137	0x3d5a531d	0.05330192
138	0x3d9c7081	0.07638646
139	0x3d89d0e8	0.06729299
140	0x3d46a740	0.048499346
141	0xbdb06579	-0.086131044
142	0x3c981b06	0.018567573
143	0x3d3a485d	0.045479167
144	0xbd5abf14	-0.053404883
145	0x3da9a006	0.08282475
146	0xbd54c869	-0.05194894
147	0x3d13149a	0.03590832
148	0xbd11ed00	-0.03562641
149	0x3c104530	0.008805558
150	0x3da75562	0.08170582
151	0xbd8580da	-0.06518717
152	0xbd652561	-0.05594385
153	0x3deaa204	0.11456683
154	0xbd20c35d	-0.039248813
155	0xbd81a3d9	-0.063300796
156	0x3b480878	0.0030522626
157	0x3dbc1f0a	0.09185608
158	0x3de3f7e1	0.111312635
159	0x3ccb0aac	0.024785362
160	0x3da49e78	0.08038038
161	0xbb75969d	-0.0037473806
162	0xbd23d6ea	-0.03999988
163	0x3dafea17	0.08589571
164	0x3d22b5b3	0.039724063
165	0xbd347e91	-0.044066016
166	0x3d4e043a	0.050297
167	0x3d56e7f5	0.052467305
168	0xbdc1b08e	-0.09457503
169	0x3dbba719	0.09162731
170	0xbd4220c5	-0.047394533
171	0x3cfa6be9	0.030569034
172	0xb918961e	-0.00014551773
173	0x3dba7ff4	0.09106436
174	0x3d02b515	0.031910975
175	0xbd55a89b	-0.052162748
176	0x3d87fe5d	0.06640313
177	0x3d5639a3	0.05230106
178	0x3ccb5040	0.02481854
179	0x3dde78b2	0.108628646
180	0xbd6955df	-0.05696666
181	0x3dd5e4fd	0.10444067
182	0x3d5e10f1	0.054215375
183	0xbd062290	-0.032747805
184	0x3daaea88	0.083455145
185	0xbc305775	-0.010763039
186	0xbd9af4de	-0.07566236
187	0xbdb9c309	-0.09070403
188	0x3d01aefe	0.031661026
189	0x3d86d7d3	0.06584134
190	0x3dce0eb8	0.10061401
191	0xbd5c1b77	-0.05373713
192	0x3d94905f	0.07254099
193	0x3d802eea	0.06258948
194	0x3d7efced	0.062252928
195	0x3df14314	0.11780372
196	0xbd7983ce	-0.060916714
197	0x3d480c5b	0.048839908
198	0xbc758917	-0.014986298
199	0x3cc08a8a	0.02350356
200	0x3d986b4f	0.074423425
201	0x3da98978	0.08278173
202	0xbda2fc89	-0.079583235
203	0xbd03f1ff	-0.032213207
204	0xbd034fd4	-0.032058552
205	0x3d0365f8	0.032079667
206	0xbd281131	-0.04103202
207	0xbd3d7e0b	-0.046262782
208	0xbd2424ac	-0.040074036
209	0x3d3a50cc	0.04548721
210	0x3d655819	0.05599222
211	0xbd58ea95	-0.05295809
212	0xbd40b67e	-0.047049038
213	0x3dc5a8ab	0.096513115
214	0x3d6ac484	0.05731632
215	0xbab5c721	-0.0013868549
216	0xbd97e7bf	-0.07417249
217	0xbd59c463	-0.053165805
218	0xbd7ac553	-0.06122334
219	0xbd91ab1f	-0.07112717
220	0xbd79be25	-0.06097235
221	0xbd82897d	-0.0637388
222	0xbd78eaaf	-0.060770687
223	0xbd03e7b9	-0.03220341
224	0xbdcb6896	-0.099320576
225	0x3d98a63b	0.07453581
226	0x3d1f9841	0.03896356
227	0x3d90f4a0	0.070779085
228	0xbd0f763f	-0.035024878
229	0x3c3efeec	0.011657458
230	0x3d89ac61	0.06722332
231	0xbc9bcd62	-0.019018833
232	0x3d2678b4	0.040642455
233	0x3d9bca43	0.07606938
234	0xbd7ce533	-0.06174202
235	0x3c514337	0.012772373
236	0xbdb7a569	-0.08967096
237	0xbd1a7809	-0.03771213
238	0xbd3419a0	-0.04396975
239	0x3d11c8f3	0.03559203
240	0x3dd16b0f	0.10225498
241	0x3ca87601	0.020564081
242	0x39139536	0.00014074598
243	0x3deb5a7f	0.1149187
244	0xbd5f007e	-0.05444383
245	0x3d38095a	0.044930793
246	0xbda19f43	-0.07891705
247	0xbd866104	-0.06561473
248	0xbc6d0c62	-0.014468284
249	0xbd107293	-0.035265516
250	0x3d5d0eaf	0.05396908
251	0xbb06360d	-0.0020478994
252	0x3c85bdae	0.016325798
253	0xbcfb28eb	-0.03065916
254	0x3d521192	0.051286288
255	0x3d1a216e	0.037629537

rnn.bias_hh_l0 f4 [400]
0	0x3d795edf	0.06088149
1	0x3d08daa6	0.033411644
2	0x3bbde66b	0.00579529
3	0x3d266e46	0.04063251
4	0x3c597bba	0.013274128
5	0x3d68d3b7	0.056842532
6	0x3ccb271c	0.024798922
7	0x3c398f41	0.011325658
8	0x3dd3512e	0.10318218
9	0x3cd0a9e9	0.025471644
10	0xbd501268	-0.050798804
11	0x3cafe8d0	0.021473318
12	0x3d045f3a	0.032317378
13	0xbcfe67aa	-0.03105529
14	0xbd9dc73c	-0.077040166
15	0x3ddad51c	0.10685179
16	0xbb95373f	-0.004553705
17	0x3c2a6257	0.010399423
18	0x3ab47e92	0.0013770631
19	0xbd6006e4	-0.05469407
20	0x3d222f7b	0.039596062
21	0xbd12dad9	-0.03585324
22	0xbdaa8959	-0.08326978
23	0x3d637215	0.05552872
24	0xbd94c2a8	-0.0726369
25	0x3dae8c61	0.08522869
26	0xbd2f8293	-0.042849135
27	0xbae77a29	-0.0017660308
28	0x3dc89382	0.0979376
29	0xbd8724b2	-0.06598796
30	0x3d4a9078	0.049454182
31	0xba0b07d2	-0.00053035945
32	0x3c9b68e5	0.018970916
33	0xbc21119a	-0.009830857
34	0x3c4da0c8	0.01255054
35	0xbcda4e6e	-0.026648726
36	0xbb2878d6	-0.002570679
37	0x3c7893cc	0.015171956
38	0xbc838cee	-0.016058411
39	0x3d73883b	0.05945609
40	0xbde71103	-0.112825416
41	0xbdac2f03	-0.08407404
42	0x3d7210df	0.05909812
43	0x3d3c1839	0.045921538
44	0xbd3cd67d	-0.04610299
45	0xbd01ca84	-0.031687275
46	0x3de84a1c	0.1134226
47	0xbd32b023	-0.04362501
48	0xbd92e2d7	-0.071721725
49	0xbc55857b	-0.0130323125
50	0xbd9253a1	-0.07144857
51	0xbc2bce19	-0.010486149
52	0xbca1041f	-0.019655285
53	0xbc09f47a	-0.008420104
54	0xbd7a8918	-0.0611659
55	0x3d1f4c15	0.038890917
56	0x3d1b6a3c	0.03794311
57	0x3d71c892	0.05902917
58	0x3d3c1796	0.04592093
59	0x3d70f613	0.058828425
60	0xbd56a061	-0.052399043
61	0x3d24aa59	0.04020152
62	0xbd541091	-0.05177361
63	0x3d709ff4	0.058746293
64	0xbd3d9b88	-0.046290904
65	0x3d99f4cf	0.07517397
66	0x3d94284a	0.07234247
67	0xbd2b1929	-0.04177204
68	0xbd6f6438	-0.058445185
69	0xbb8ee774	-0.0043610875
70	0xbbd3291a	-0.0064441087
71	0xbd9af430	-0.07566106
72	0x3be40528	0.0069586225
73	0x3dc3800f	0.095459096
74	0x3c625b4b	0.013815711
75	0xbdc64611	-0.09681333
76	0xbd4f0703	-0.050543796
77	0xbd83d368	-0.06436807
78	0x3d8f753f	0.07004785
79	0x3c9e6c09	0.019338625
80	0x3d98f9b4	0.07469502
81	0x3db9e4e0	0.090768576
82	0x3debd750	0.11515677
83	0x3bf72b1e	0.0075429818
84	0xbd41a320	-0.04727471
85	0xbc9aa5e3	-0.01887793
86	0x3c75c420	0.015000373
87	0x3d1c1a2b	0.038110893
88	0x3d5651b5	0.052324016
89	0x3d095b44	0.033534303
90	0x3cd4dc00	0.02598381
91	0x3cae79a1	0.021298232
92	0x3daf0f79	0.08547873
93	0xbd9835ad	-0.07432113
94	0x3d7e0ddd	0.06202494
95	0x3dc9f722	0.0986159
96	0xbd4d1096	-0.050064646
97	0x3d9455e5	0.072429456
98	0xbda7fcff	-0.08202552
99	0xbd1aee5c	-0.037824973
100	0x3dad81d8	0.08472031
101	0xbd65f4bf	-0.05614161
102	0x3cb87e79	0.022521244
103	0x3d8296bd	0.06376407
104	0xbb4bd82f	-0.0031104197
105	0xbd8f6745	-0.07002119
106	0x3d828869	0.063736744
107	0x3d2561a9	0.04037634
108	0xbd7739be	-0.0603578
109	0x3df0a0a3	0.11749389
110	0x3d938446	0.072029635
111	0x3bc10213	0.00589014
112	0xbd6a97ac	-0.05727355
113	0x3da374dd	0.07981274
114	0x3b5bf080	0.0033560097
115	0xbc8be40e	-0.017076518
116	0xbd1cec02	-0.038311012
117	0xbc559f4a	-0.013038466
118	0xbd52e347	-0.05148628
119	0x3c6407e9	0.013917902
120	0x3d65afe6	0.056075953
121	0x3dcde61c	0.100536555
122	0xbda04a4d	-0.07826672
123	0x3cb35701	0.021892073
124	0xbd2c54de	-0.042073123
125	0xbd5ae676	-0.05344244
126	0x3c8428c1	0.016132714
127	0x3d60377f	0.054740425
128	0xbc07c436	-0.008286526
129	0x3db66b51	0.08907188
130	0xbd473674	-0.048635915
131	0xbd6c5eba	-0.057707526
132	0x3db2c889	0.08729655
133	0xbd820e9f	-0.06350445
134	0x3de34a69	0.11098177
135	0x3b0c5dd0	0.0021418221
136	0x3d1886b8	0.037237853
137	0x3dc99255	0.09842364
138	0x3cf17608	0.029475227
139	0xbd90ece5	-0.07076434
140	0xbc253ad4	-0.0100848265
141	0x3d756f08	0.05992034
142	0xbcba6113	-0.022751367
143	0x3980866a	0.0002451421
144	0xbd45ec84	-0.048321262
145	0x3da0f0f6	0.0785846
146	0x3dbda7ac	0.092604965
147	0x3c870c76	0.016485434
148	0x3d849ad9	0.06474847
149	0x3ded366a	0.11582644
150	0x3b39f129	0.0028372502
151	0x3d43b788	0.04778245
152	0xbd15aa54	-0.03653939
153	0xbd95e61b	-0.0731928
154	0x3b88e98d	0.004178232
155	0xbae3a1be	-0.0017366929
156	0xbc22eb23	-0.009943756
157	0xbc27f148	-0.010250397
158	0x3cad6537	0.021166427
159	0x3dc4cd79	0.09609503
160	0x3cd0da96	0.025494855
161	0x3df2fd6d	0.118647434
162	0xbd826c88	-0.06368357
163	0x3da2e883	0.07954504
164	0xbdc868c5	-0.09785608
165	0xbd3366f9	-0.043799374
166	0xbd352ad3	-0.044230293
167	0xbce8292a	-0.028339941
168	0x3ca430b2	0.020042751
169	0x3dc9e730	0.09858549
170	0xbd0d1734	-0.034445956
171	0x3dc0c286	0.094121024
172	0xbc6e6f1e	-0.01455286
173	0x3b84c3e7	0.0040516737
174	0xbda78006	-0.081787154
175	0x3d48db9c	0.04903756
176	0xbd0780cc	-0.033081815
177	0xbd898afd	-0.06715963
178	0x3da3aa22	0.07991435
179	0xbd2555ec	-0.040365145
180	0xbc8ca2cc	-0.017167471
181	0xbd54b63a	-0.051931597
182	0x3da63d64	0.08117178
183	0xbd7954f7	-0.060872044
184	0xbd51f9ea	-0.051263727
185	0xbbeb4519	-0.007179868
186	0xbcaf1056	-0.021370094
187	0xbbe4e9b9	-0.0069858697
188	0x3c5ccee6	0.013477063
189	0x3cb53fe3	0.02212519
190	0xbd96ccba	-0.07363267
191	0x3d5fab57	0.05460676
192	0x3c8af148	0.016960755
193	0xba7df108	-0.00096871005
194	0x3d6e1e98	0.058134645
195	0x3d1cb056	0.038254105
196	0x3d421b74	0.047389463
197	0x3b455579	0.003011076
198	0xbd4fc359	-0.050723407
199	0xbb7c88ec	-0.003853376
200	0x3d74aab0	0.059733093
201	0x3d210639	0.039312575
202	0xbd8f27e3	-0.0699003
203	0x3da0091b	0.07814237
204	0xbcb4c7f0	-0.022067994
205	0xbd44d709	-0.048056636
206	0xbdab2e5d	-0.083584525
207	0xbdbefe05	-0.09325794
208	0x3d240a34	0.040048793
209	0x3c9f06d6	0.01941244
210	0x3daf2ba0	0.08553243
211	0xbd1833db	-0.03715883
212	0x3daa9d94	0.08330837
213	0xbd5a5096	-0.05329951
214	0x3b6b0b8e	0.0035865041
215	0x3d95ff3b	0.07324072
216	0x3d58aabd	0.052897204
217	0x3d93deef	0.072202556
218	0x3b1d8cfd	0.0024040334
219	0x3d822551	0.06354774
220	0x3d34545b	0.04402576
221	0x3d920959	0.07130689
222	0xbb0f69f5	-0.0021883224
223	0x3d743fb5	0.05963107
224	0xbdc68362	-0.09693028
225	0x3db19946	0.08671813
226	0x3d9f37fe	0.077743515
227	0x3d31ee71	0.043440286
228	0x3d77d283	0.060503494
229	0x3bb7a248	0.005604062
230	0x3ce976a8	0.028498963
231	0xbd94a686	-0.07258324
232	0xbdcb1cf5	-0.099176325
233	0xbd999ace	-0.0750023
234	0x3ada921d	0.0016675625
235	0x3d9f1340	0.077673435
236	0xbcb1e47c	-0.021715395
237	0x3d3d673b	0.046241026
238	0xbd84b5ab	-0.06479963
239	0x3cee6458	0.029100582
240	0x3d76c1b5	0.060243327
241	0xbdab2ed2	-0.0835854
242	0x3db241ee	0.08703981
243	0xbd402633	-0.04691143
244	0xbc4e48a3	-0.01259056
245	0xbdca6529	-0.09882576
246	0xbd3aef86	-0.045638584
247	0x3b0f3c87	0.0021856145
248	0x3d321178	0.04347369
249	0xba99dccb	-0.0011738775
250	0xbd855fa3	-0.06512382
251	0x3dba2f6e	0.09091078
252	0xbdc39d4f	-0.095514886
253	0xbc5d2381	-0.013497234
254	0xbdb1d3a8	-0.08682948
255	0x3c752813	0.014963168

linear.weight f4 [1, 100]
0	0xbca30bb5	-0.019903043
1	0x3df45013	0.119293354
2	0xbda8823c	-0.08227965
3	0x3df10bfe	0.117698655
4	0x3cf14b4c	0.02945485
5	0xbd837ced	-0.06420312
6	0x3dc9c07f	0.09851169
7	0xbdedcc61	-0.11611248
8	0x3da0fd6f	0.078608386
9	0x3d9dcf20	0.077055216
10	0xbdf45596	-0.11930387
11	0x3d4adc40	0.049526453
12	0xbcaca7ff	-0.0210762
13	0x3d2d7fda	0.042358257
14	0xbc53f7de	-0.012937514
15	0x3d3fd7ae	0.046836548
16	0x3d5074a0	0.050892472
17	0xbd94d3af	-0.07266938
18	0xbdbd4cf0	-0.0924319
19	0xbda5d5e4	-0.08097437
20	0x3d03fb2e	0.032221965
21	0x3dc2277e	0.09480189
22	0xbdda5657	-0.10660999
23	0xbca9bb7b	-0.02071928
24	0xbd574e52	-0.052564926
25	0xbd84afb9	-0.06478829
26	0xbd3de08e	-0.04635673
27	0x3d9baec1	0.07601691
28	0x3cdb2260	0.02674979
29	0x3e0cb2be	0.1374006
30	0xbd5f346e	-0.05449336
31	0x3ddedd92	0.10882105
32	0xbdeeca18	-0.1165964
33	0xbdcbcf5d	-0.09951661
34	0x3d9f9b0e	0.07793246
35	0x3cbf2f6b	0.02333804
36	0xba6ff70b	-0.0009153939
37	0x3ce2230b	0.0276046
38	0xbd90f234	-0.070774466
39	0x3dad39a8	0.08458263
40	0x3d0ddaac	0.03463237
41	0x3bb7fcee	0.0056148684
42	0xbcf00c20	-0.029302657
43	0xbd4dd52a	-0.050252117
44	0xbc57f5b1	-0.013181136
45	0x3d73a4b1	0.059483234
46	0x3dafaa83	0.085774444
47	0x3dddb67f	0.10825824
48	0xbbeaad90	-0.0071618035
49	0xbe06a2fd	-0.13148113
50	0xbcbd4577	-0.023104412
51	0x3da0de56	0.07854907
52	0xbd7df32f	-0.061999496
53	0xbd00045d	-0.03125416
54	0x3dd889d8	0.105731666
55	0x3cbbea35	0.022938827
56	0xbd8a7c67	-0.06762009
57	0xbe097f05	-0.1342736
58	0x3d944646	0.07239966
59	0xbd78a0b7	-0.060700145
60	0xbd41d3fb	-0.0473213
61	0xbe083943	-0.13303094
62	0xbbbdd78b	-0.005793517
63	0x3d812091	0.0630504
64	0x3d1433c0	0.036182165
65	0x3dff1c5d	0.12456582
66	0xbddb0f56	-0.106962845
67	0xbdc6974f	-0.096968286
68	0x3d2db9e5	0.04241361
69	0x3dfe81d5	0.12427107
70	0xbd45db47	-0.048304822
71	0x3c8cd488	0.017191187
72	0xbddeedb1	-0.1088518
73	0x3bbe20d8	0.005802255
74	0xbd876fa7	-0.06613093
75	0xbd1e33cc	-0.038623616
76	0x3da71335	0.0815796
77	0x3d8a920d	0.06766138
78	0xbd952216	-0.07281892
79	0xbb166cc3	-0.002295301
80	0xbdd9b41d	-0.10630057
81	0x3c39175f	0.011297076
82	0x3d93341c	0.071876734
83	0xbdd7753a	-0.10520406
84	0x3d39fe97	0.04540881
85	0xbd18ea94	-0.037333086
86	0xbdd319fa	-0.10307689
87	0x3b72473d	0.003696873
88	0xbc4a0494	-0.012330193
89	0x3d7db574	0.061940625
90	0xbdec3862	-0.11534192
91	0x3b500fea	0.0031747767
92	0xbd94b77b	-0.072615586
93	0xbd5886c5	-0.0528629
94	0x3d96bb5f	0.07359957
95	0x3dd0df10	0.10198796
96	0xbd9035ed	-0.070415355
97	0xbd896fdf	-0.06710791
98	0xbd65e6fe	-0.056128494
99	0xbda1bc28	-0.07897216
