backend/trained_models/NICA_LSTM_model_state_dict.pth (torch, 808460 bytes, 9 tensors)

rnn.weight_ih_l0 f4 [512, 5]
0.03473614 0.071032844 -0.0061096433 0.007457131 0.049590148 -0.03317161 0.06867941 -0.06807419
0.06982768 -0.015491246 -0.06764048 -0.0700054 -0.053810872 -0.036305856 0.057490803 -0.07784596
-0.037248816 0.086750455 0.080683425 0.024211757 0.06973092 0.046738006 -0.03253459 -0.07039628
-0.09674514 0.08549994 0.021932578 -0.04544277 0.09723947 -0.013070593 0.011101449 -0.047502164
-0.076562494 0.102092884 0.07449962 -0.02066119 -0.03046264 -0.09034799 -0.036222246 -0.029690955
0.010523905 0.034147453 -0.030456763 0.061365392 0.010994887 0.09828567 -0.029813498 0.07703365
0.07351279 -0.04474635 -0.03114069 0.04346005 0.034332782 -0.043060854 -0.056498475 -0.059331033
0.015108464 -0.09246077 -0.08249412 0.05774983 0.009066541 -0.07550337 -0.047114983 -0.026834387
0.0020743492 0.016056051 0.07375411 0.05296003 0.08013216 0.008273728 0.0488987 0.07212296
0.050366912 -0.059372276 0.01601673 0.03144863 -0.08683687 0.06321702 0.07413863 -0.08138452
0.040501866 -0.016217308 0.07994725 0.0017987397 0.090907484 0.09402386 0.08018549 0.003448186
0.026422558 0.02978578 -0.058307696 -0.013987208 -0.027238864 -0.00115138 0.09034128 0.050786845
0.0017011878 -0.031036336 0.06832156 -0.09870101 0.07867708 -0.041374285 0.04819111 -0.041379523
0.077158175 -0.06921337 0.050454266 -0.0604674 0.034652382 0.07689429 -0.028551329 0.00267354
0.053510915 -0.03931597 0.011017482 -0.07269738 -0.030056654 -0.027169062 0.03659432 0.039912898
-0.016741296 0.03073942 0.05223619 0.006138901 -0.025693825 0.032019287 -0.037804462 -0.097944416
0.065107815 -0.093783244 -0.056511845 0.007388256 -0.017243424 -0.0520359 -0.0055895303 -0.09233757
0.066937536 0.036534335 0.026625512 0.011484459 -0.038883243 -0.011374694 -0.021186832 -0.07984811
-0.025943108 0.0452727 0.019338619 0.0059111738 0.00018274639 -0.017190222 -0.03984431 0.08584857
0.041027755 -0.056471206 0.034721673 0.106824815 -0.019960836 0.00039484643 -0.03849866 0.02244329
0.026455645 0.018236661 -0.0318782 -0.06219767 0.08536511 -0.1004597 -0.05312687 -0.06487275
-0.0052245473 0.023960035 0.023142233 -0.050906893 0.030745458 0.082283 0.061924636 -0.032128304
0.03231467 0.012416802 -0.06979878 -0.030066213 -0.06527538 -0.056451414 0.066154756 0.068479165
-0.016820809 0.04377671 -0.06304413 -0.077812485 0.050773304 -0.06832556 -1.6081899e-06 -0.06786495
-0.043398097 -0.0067578587 -0.068723135 -0.008352496 0.09023078 0.092969 0.033153787 0.09203431
-0.065706566 -0.050803196 -0.10294586 -0.0652163 -0.0796254 0.0136199575 0.025235655 -0.060424406
0.0006621965 0.03391424 -0.050899945 0.004424579 0.06694587 0.09074063 -0.02837533 -0.05413735
-0.0041893693 -0.052883685 0.10564228 -0.011693129 0.03243806 0.028890561 0.032224476 -0.024398565
-0.0081436625 0.047515422 -0.0016247805 -0.086993895 0.048636217 -0.10539124 -0.044529393 0.031154865
-0.029230077 0.07807264 0.0053737983 -0.015844604 0.026772294 0.057990387 0.050957486 0.06318146
0.076509796 -0.0360668 0.029060142 0.086540036 -0.07358796 0.048771735 -0.08525269 0.026554132
-0.018438641 0.037441544 0.06618915 0.021505617 -0.037294794 -0.03404861 -0.07761109 0.090549186
00000000: 7c47 0e3d ab79 913d 6733 c8bb f35a f43b
00000010: 0a1f 4b3d f4de 07bd caa7 8c3d 7b6a 8bbd
00000020: d101 8f3d ffce 7dbc 1887 8abd fe5e 8fbd
00000030: ca68 5cbd 73b5 14bd 7a7b 6b3d b46d 9fbd
00000040: 3792 18bd 39aa b13d 5a3d a53d bc57 c63c
00000050: 16cf 8e3d 5a70 3f3d fe42 05bd ed2b 90bd
00000060: 5122 c6bd 981a af3d f3ab b33c 3322 3abd
00000070: 7d25 c73d 0a26 56bc dae2 353c a191 42bd
00000080: cccc 9cbd 1316 d13d 4293 983d a841 a9bc
00000090: c98c f9bc 5e08 b9bd c75d 14bd 723a f3bc
000000a0: 756c 2c3c 33de 0b3d 7680 f9bc 475a 7b3d
000000b0: e623 343c ff49 c93d 703b f4bc d1c3 9d3d
000000c0: e08d 963d f347 37bd c31a ffbc 2a03 323d
000000d0: 88a0 0c3d 9460 30bd f26a 67bd 1905 73bd
000000e0: 7e89 773c 125c bdbd adf2 a8bd 168b 6c3d
000000f0: d48b 143c 83a1 9abd a4fb 40bd cad3 dbbc
00000100: cef1 073b fb87 833c 650c 973d 9eec 583d
00000110: 541c a43d 888e 073c 014a 483d 34b5 933d
00000120: 894d 4e3d 5830 73bd 8435 833c 47d0 003d
00000130: 87d7 b1bd ed77 813d fed5 973d edac a6bd
00000140: 49e5 253d 29da 84bc 62bb a33d b0c3 eb3a
00000150: b42d ba3d 958f c03d 4a38 a43d f6fa 613b
00000160: 1f74 d83c 4f01 f43c 0dd4 6ebd 9a2a 65bc
00000170: 0a24 dfbc e7e9 96ba d904 b93d de05 503d
00000180: 64fa de3a ea3f febc 2dec 8b3d c123 cabd
00000190: 7321 a13d 1578 29bd 0b64 453d 937d 29bd
000001a0: 1b05 9e3d bdbf 8dbd 22a9 4e3d aaac 77bd
000001b0: a8ef 0d3d c17a 9d3d 7ae4 e9bc 8f36 2f3b
000001c0: 432e 5b3d c809 21bd ab82 343c 5de2 94bd
000001d0: 5f39 f6bc a791 debc ede3 153d b57b 233d
000001e0: 0b25 89bc 3cd1 fb3c 9df5 553d d628 c93b
000001f0: db7b d2bc a826 033d dad8 1abd 1597 c8bd
00000200: 3f57 853d 6e11 c0bd f778 67bd 2f19 f23b
00000210: 1542 8dbc 9923 55bd 6128 b7bb 7b1b bdbd
00000220: 8c16 893d 07a5 153d bf1d da3c 5029 3c3c
00000230: 0944 1fbd ed5c 3abc 0290 adbc 6887 a3bd
00000240: a486 d4bc de6f 393d 066c 9e3c 85b2 c13b
00000250: 9c9f 3f39 82d2 8cbc ca33 23bd 60d1 af3d
00000260: b80c 283d 5a4e 67bd 5038 0e3d f8c6 da3d
00000270: e884 a3bc 6403 cf39 c5b0 1dbd feda b73c
00000280: 82b9 d83c 0d65 953c b792 02bd fcc2 7ebd
00000290: e7d3 ae3d d1bd cdbd 909b 59bd 01dc 84bd
000002a0: ae32 abbb d647 c43c c894 bd3c bf83 50bd
000002b0: e6dd fb3c fd83 a83d b0a4 7d3d f898 03bd
000002c0: 635c 043d d86f 4b3c aaf2 8ebd 6b4d f6bc
000002d0: 19af 85bd 9939 67bd 257c 873d ce3e 8c3d
000002e0: cbcb 89bc 354f 333d 481d 81bd 275c 9fbd
000002f0: abf7 4f3d 45ee 8bbd fcd8 d7b5 c7fc 8abd
00000300: 34c2 31bd 0771 ddbb b7be 8cbd e8d8 08bc
00000310: eaca b83d 8866 be3d 44cc 073d 7c7c bc3d
00000320: 2a91 86bd 0317 50bd 47d5 d2bd 2090 85bd
00000330: a412 a3bd 3e26 5f3c 01bb ce3c 957f 77bd
00000340: 4197 2d3a a8e9 0a3d 767c 50bd 0ffc 903b
00000350: eb1a 893d 39d6 b93d 6173 e8bc 20bf 5dbd
00000360: fa46 89bb 909c 58bd fb5a d83d 8a94 3fbc
00000370: c5dd 043d e6ab ec3c d0fd 033d 80df c7bc
00000380: ff6c 05bc 889f 423d 96f6 d4ba db29 b2bd
00000390: c536 473d 5dd7 d7bd 7464 36bd 7d38 ff3c
000003a0: ea73 efbc 8ce4 9f3d b016 b03b 8bcc 81bc
000003b0: 9251 db3c 5487 6d3d ccb8 503d 4865 813d
000003c0: 2bb1 9c3d c8ba 13bd 890f ee3c e73b b13d
000003d0: 49b5 96bd dfc4 473d f698 aebd 0d88 d93c
000003e0: a20c 97bc 4e5c 193d 2d8e 873d 8c2c b03c
000003f0: 6dc2 18bd 8e76 0bbd 90f2 9ebd da71 b93d

rnn.weight_hh_l0 f4 [512, 128]
0.00888743 -0.054062504 -0.01583223 -0.07689553 0.054613523 -0.06449956 0.015530848 0.08628913
0.016120104 -0.07671604 0.06493471 0.019778911 0.032123804 -0.07764772 -0.02263038 -0.018217556
0.020034572 0.07046284 -0.03423945 0.0148188425 -0.06603519 0.0751838 -0.007321262 -0.07755771
0.055204988 -0.021916574 0.0668867 0.09614677 -0.0029791715 -0.040077627 -0.036671203 -0.007813539
-0.06458011 -0.07715106 0.0043008053 -0.050672997 -0.030760137 0.03827873 -0.020264555 -0.058060188
8.509143e-05 -0.093337595 0.007869084 0.022164013 0.047145385 0.041839406 -0.043435697 -0.021926198
-0.07252259 -0.07560706 0.018505774 -0.0853694 -0.03937857 -0.060542375 0.008841676 -0.048704498
0.09075456 -0.08899455 -0.011130951 -0.072691604 0.05680949 -0.04343028 -0.029773192 0.047812086
-0.052484915 -0.032514546 -0.033573683 -0.033855435 0.05323074 -0.038108043 -0.027707897 0.040075142
-0.0408337 0.04571047 0.055194497 -0.03927724 -0.016932687 0.061437044 -0.07869753 -0.077528715
-0.04958951 -0.0020355107 0.06974523 0.04118846 -0.016627714 -0.07897941 0.024539731 0.027948579
-0.020808315 -0.027985996 -0.023832336 0.016219653 0.07407469 -0.063089296 -0.018515682 -0.04116556
0.036434345 -0.06411099 -0.03301081 0.06636589 -0.050725095 -0.08249206 0.010624276 0.05930275
0.034238916 0.037942264 -0.023819523 0.031910338 -0.067007035 -0.036893014 0.031466283 0.028630506
-0.065283656 0.048858374 0.081527874 0.038620397 -0.032783728 -0.08357837 0.08054166 0.043661464
0.09426436 0.016150966 -0.058985114 0.019676415 0.021802723 0.029110853 0.07849759 0.06527791
-0.029636024 0.037280668 -0.034337457 -0.039885975 -0.08146663 0.007386429 -0.08577568 0.054938
0.058935497 0.0036952328 -0.015730495 -0.050140698 -0.022756588 -0.078947976 0.013792658 0.06138291
0.065772474 0.07992899 -0.015162183 0.06441485 0.062904134 0.03674494 0.02443829 0.0818748
0.029579975 -0.08830954 -0.048669152 0.06646518 0.035276636 0.033088014 -0.008834422 -0.06261738
-0.048318706 0.05908548 0.0801534 -0.054861795 0.030290501 -0.056425527 0.022910038 -0.03714502
-0.026241418 -0.012252722 0.03600198 0.06749322 -0.062834784 0.007785221 0.03489432 0.04647234
0.066261485 0.0038648637 0.019847086 0.06983745 0.035292283 -0.0120140035 -0.08625974 0.019533295
-0.07312797 -0.019947344 -0.024376692 -0.03444947 0.049485445 -0.07807868 -0.0477747 0.04446991
-0.022262784 0.03233027 -0.050677404 0.07300871 -0.06052291 0.07108792 0.021074628 -0.07601976
0.052113537 -0.012510441 -0.039784074 -0.044898774 -0.09465748 0.012438868 -0.073679335 0.05009386
0.057321288 0.01604086 0.099486135 -0.08299858 -0.055897832 -0.044807337 -0.06481219 0.086903505
0.018918538 -0.08131907 -0.0074480837 0.06519147 0.000743879 -0.044192176 0.0985588 0.037433762
0.051642258 0.036075782 0.030548565 -0.09214085 -0.08493382 -0.034498144 -0.005400917 -0.0016265465
0.045392986 -0.061896887 -0.08527563 -0.07507704 0.08067266 -0.017398199 0.04067076 -0.048639204
-0.071796685 -0.012669386 -0.0016167974 -0.051830336 0.052676104 0.031224472 -0.06815135 -0.0035477362
-0.061141778 -0.05670538 -0.05422564 -0.08929436 -0.05393741 0.041790746 0.09059979 0.046512328
00000000: 959c 113c a570 5dbd 98b2 81bc 677b 9dbd
00000010: 6eb2 5f3d 5818 84bd 1975 7e3c 5bb8 b03d
00000020: 4f0e 843c 4d1d 9dbd 7dfc 843d 6207 a23c
00000030: 4094 033d c505 9fbd 5963 b9bc fc3c 95bc
00000040: 8b1f a43c d24e 903d aa3e 0cbd bbca 723c
00000050: 753d 87bd f7f9 993d 32e7 efbb 94d6 9ebd
00000060: a01e 623d 638a b3bc e5fb 883d 99e8 c43d
00000070: 343e 43bb 7028 24bd 8b34 16bd 5c04 00bc
00000080: 9442 84bd 6001 9ebd c5ed 8c3b 7d8e 4fbd
00000090: affc fbbc 28ca 1c3d da01 a6bc 85d0 6dbd
000000a0: 1d73 b238 c827 bfbd 55ed 003c 4e91 b53c
000000b0: 851b 413d cc5f 2b3d a1e9 31bd 929e b3bc
000000c0: b986 94bd e0d7 9abd 6c99 973c 27d6 aebd
000000d0: 6c4b 21bd 48fb 77bd addc 103c 5e7e 47bd
000000e0: 87dd b93d c642 b6bd 985e 36bc 56df 94bd
000000f0: 11b1 683d f3e3 31bd e9e6 f3bc 9bd6 433d
00000100: 6cfa 56bd f92d 05bd 8f84 09bd ffab 0abd
00000110: 7a08 5a3d 2e17 1cbd acfb e2bc d525 243d
00000120: 3d41 27bd e73a 3b3d a013 623d 2ce1 20bd
00000130: 6bb6 8abc 69a5 7b3d 2c2c a1bd 60c7 9ebd
00000140: 5f1e 4bbd 3466 05bb 96d6 8e3d 3bb5 283d
00000150: d836 88bc f5bf a1bd 8c07 c93c 6bf4 e43c
00000160: 3376 aabc e342 e5bc 083c c3bc 14df 843c
00000170: 79b4 973d f634 81bd 33ae 97bc 389d 28bd
00000180: 2e3c 153d 9f4c 83bd 5836 07bd d7ea 873d
00000190: 1ec5 4fbd 99f1 a8bd 7111 2e3c 71e7 723d
000001a0: 1b3e 0c3d 5969 1b3d 2921 c3bc 6ab4 023d
000001b0: fc3a 89bd 211d 17bd cae2 003d 868a ea3c
000001c0: 70b3 85bd b81f 483d 16f8 a63d 6c30 1e3d
000001d0: 3b48 06bd 232b abbd 07f3 a43d 5dd6 323d
000001e0: ac0d c13d 084f 843c 609a 71bd 6f30 a13c
000001f0: a09b b23c e279 ee3c 58c3 a03d 6db0 853d
00000200: 3fc7 f2bc 9db3 183d 6fa5 0cbd 7a5f 23bd
00000210: fad7 a6bd db09 f23b 29ab afbd ab06 613d
00000220: 5966 713d b82b 723b 3ddd 80bc 5560 4dbd
00000230: 066c babc 7aaf a1bd 9afa 613c a56c 7b3d
00000240: b8b3 863d cfb1 a33d ce6a 78bc efeb 833d
00000250: e2d3 803d dd81 163d cf32 c83c faad a73d
00000260: b451 f23c a2db b4bd 4e59 47bd e51e 883d
00000270: 3c7e 103d 4c87 073d 40be 10bc 8a3d 80bd
00000280: d6e9 45bd 9e03 723d 7727 a43d c3b6 60bd
00000290: c923 f83c 741e 67bd d5ad bb3c 6025 18bd
000002a0: 3ef8 d6bc a4bf 48bc d076 133d e339 8a3d
000002b0: 86af 80bd 2b1b ff3b 59ed 0e3d c859 3e3d
000002c0: 1ab4 873d a749 7d3b 5b96 a23c f006 8f3d
000002d0: a48e 103d 62d6 44bc f2a8 b0bd 4a04 a03c
000002e0: 1ec4 95bd 9d68 a3bc a1b1 c7bc e31a 0dbd
000002f0: 40b1 4a3d b7e7 9fbd 67af 43bd 1526 363d
00000300: 7160 b6bc bf6c 043d 1c93 4fbd 9785 953d
00000310: dfe6 77bd 8b96 913d b3a4 ac3c 3fb0 9bbd
00000320: 0175 553d 98f8 4cbc a0f4 22bd c7e7 37bd
00000330: c8db c1bd 65cc 4b3c 31e5 96bd 382f 4d3d
00000340: bac9 6a3d 1f68 833c 63bf cb3d 29fb a9bd
00000350: 20f5 64bd e687 37bd 41bc 84bd 77fa b13d
00000360: 0dfb 9a3c 9d8a a6bd 0e0f f4bb 1b83 853d
00000370: e000 433a db02 35bd 32d9 c93d 2554 193d
00000380: d586 533d 33c4 133d fc40 fa3c 58b4 bcbd
00000390: c8f1 adbd ed4d 0dbd 2dfa b0bb d831 d5ba
000003a0: ffed 393d 9787 7dbd fda4 aebd fec1 99bd
000003b0: b537 a53d ab86 8ebc 6296 263d e739 47bd
000003c0: 240a 93bd 4293 4fbc b8ea d3ba 0c4c 54bd
000003d0: e6c2 573d 77ca ff3c ef92 8bbd 2381 68bb
000003e0: cd6f 7abd e743 68bd b41b 5ebd f6df b6bd
000003f0: 79ed 5cbd c62c 2b3d 628c b93d b683 3e3d

rnn.bias_ih_l0 f4 [512]
0.050953213 -0.06382166 -0.061546262 0.011624648 0.07715718 -0.049312968 0.037516598 0.04033574
-0.06366028 -0.07370459 0.09959382 -0.011021953 -0.023343235 -0.01411362 0.0034891278 0.0042473455
-0.06676487 0.021456495 -0.031210955 -0.054758698 -0.033156775 -0.04921493 -0.0449255 -0.013665532
-0.047298286 -0.061654154 0.009980284 -0.0796425 0.0702294 -0.06350943 0.015958602 0.015236741
0.073740736 -0.075910226 0.0329218 -0.07976689 0.012323101 0.0060195345 0.013841645 -0.0012320289
-0.041509923 -0.022235528 -0.074106514 -0.072275475 -8.9698646e-05 -0.029543806 0.06277301 -0.0014317749
0.080464244 0.014203462 -0.038137924 -0.07286849 -0.046265483 0.08029868 0.09427248 0.022660252
-0.029242927 0.030488122 0.080575585 0.05907547 -0.018589364 0.08730941 -0.017670332 0.014836387
0.10109201 -0.057378754 -0.025059827 0.049242657 0.049165852 -0.053587396 -0.042839758 -0.078466564
0.020511711 -0.0067810393 0.019288583 -0.011330359 0.02001664 -0.013564256 0.05354983 0.083345726
-0.016643146 0.03726925 0.088039465 -0.039000127 -0.08767663 0.07192749 0.032464646 0.027871821
-0.088831395 0.021345543 0.06430737 0.009897232 0.08396144 0.09093111 0.059465934 0.08018306
-0.0015785076 -0.032477506 0.056997452 -0.03243966 0.08339797 -0.039723083 0.00553571 -0.042458624
-0.011546082 0.08183113 0.013446383 0.024436504 0.06066005 -0.050876558 0.00097066496 0.015491036
0.08463654 0.05796189 -0.064480215 -0.0017379473 -0.014365972 0.016668728 -0.07494031 0.021121813
-0.06463567 0.065554105 0.06625586 -0.025503535 -0.0131253805 -0.037203472 0.05321793 -0.035939857
0.0087519325 0.09532979 0.038739514 0.021555515 0.0807722 0.039287806 0.038757365 0.08157814
-0.03801552 -0.040693626 -0.038693957 -0.06915819 -0.054810002 0.03191935 0.038632877 -0.09613257
-0.05585038 -0.0810469 0.032249898 -0.09414425 -0.053265743 0.040461592 -0.017796459 0.052589793
0.0012596449 0.07678447 0.060561515 0.030138647 0.073520705 0.056787863 -0.041708577 0.08181884
0.04316004 -0.027552443 -0.05876407 0.030474238 -0.06479981 0.07101694 -0.07121898 -0.040231045
-0.04173574 -0.041861646 0.068193465 0.052998606 0.02832475 -0.07047743 0.038866594 0.03883865
0.036142148 -0.024797 0.032261003 0.03470636 -0.039254315 -0.033849314 0.046734784 0.021856967
0.04678855 0.07079627 -0.07283367 0.06809416 -0.03345912 0.009578179 -0.03631698 -0.006379764
-0.07499695 -0.0041695978 0.0004318663 0.06421189 -0.030008828 -0.035864845 0.049987756 -0.041139036
0.03949415 0.033449683 -0.0782039 0.073393025 -0.0033984268 0.05667527 -0.027490245 0.027190914
-0.075179785 0.07690616 -0.057920594 -0.057654902 -0.06894306 0.088526264 0.009316443 0.0587354
0.053027555 0.063691795 -0.012313635 -0.040209297 0.0036982964 0.04891361 0.07745572 -0.045089133
0.04176122 0.015729198 0.04159852 -0.0193478 -0.071435474 -0.0738143 0.061443534 0.005437872
0.083896115 -0.09090994 0.0009697716 0.05315411 0.057203487 0.058352057 0.049659017 -0.08564298
0.06239772 0.09487153 -0.033011444 -0.07657375 -0.022017604 0.004152461 -0.03859375 0.002960872
0.017661843 -0.017587095 -0.017782774 0.067762166 0.06584606 -0.04978338 -0.032618985 -0.028079143
00000000: 51b4 503d eeb4 82bd ef17 7cbd 4f75 3e3c
00000010: 9504 9e3d 65fc 49bd 01ab 193d 1737 253d
00000020: 5260 82bd 6ff2 96bd d8f7 cb3d 6c95 34bc
00000030: 503a bfbc d03c 67bc daa9 643b 512d 8b3b
00000040: 05bc 88bd 88c5 af3c 1eae ffbc a84a 60bd
00000050: 66cf 07bd 9895 49bd cd03 38bd 65e5 5fbc
00000060: d9bb 41bd 1189 7cbd 5884 233c 9b1b a3bd
00000070: 6fd4 8f3d 3b11 82bd 9dbb 823c 86a3 793c
00000080: 6205 973d d276 9bbd 02d9 063d d35c a3bd
00000090: d5e6 493c 843f c53b 11c8 623c 087c a1ba
000000a0: 4f06 2abd 4827 b6bc 28c5 97bd 2a05 94bd
000000b0: 981c bcb8 da05 f2bc 238f 803d 65aa bbba
000000c0: 70ca a43d a3b5 683c 8336 1cbd 133c 95bd
000000d0: e080 3dbd a273 a43d ee11 c13d fea1 b93c
000000e0: dd8e efbc 3ac2 f93c d004 a53d 1ff9 713d
000000f0: b948 98bc 47cf b23d 5fc1 90bc 5114 733c
00000100: 5409 cf3d fc05 6bbd 444a cdbc abb2 493d
00000110: 2262 493d 757e 5bbd be78 2fbd 14b3 a0bd
00000120: 2d08 a83c 7b33 debb 1703 9e3c f8a2 39bc
00000130: f0f9 a33c 9d3c 5ebc 1157 5b3d 2ab1 aa3d
00000140: 3557 88bc a4a7 183d 094e b43d 99be 1fbd
00000150: ce8f b3bd b84e 933d a6f9 043d 7253 e43c
00000160: 3ced b5bd d9dc ae3c 95b3 833d 0028 223c
00000170: faf3 ab3d 173a ba3d 8d92 733d 0437 a43d
00000180: ede5 ceba 2207 05bd 2976 693d 73df 04bd
00000190: 8ecc aa3d acb4 22bd e764 b53b 18e9 2dbd
000001a0: c72b 3dbc 1497 a73d 384e 5c3c 102f c83c
000001b0: ac76 783d f063 50bd 3974 7e3a 1dce 7d3c
000001c0: ec55 ad3d 7269 6d3d 340e 84bd d6cb e3ba
000001d0: 415f 6bbc db8c 883c 4e7a 99bd a707 ad3c
000001e0: b55f 84bd 3b41 863d 27b1 873d caec d0bc
000001f0: d60b 57bc ab62 18bd 0bfb 593d ac35 13bd
00000200: 4464 0f3c 443c c33d 53ad 1e3d 3195 b03c
00000210: e56b a53d 40ec 203d 0bc0 1e3d 7112 a73d
00000220: 29b6 1bbd 5cae 26bd 8e7d 1ebd cfa2 8dbd
00000230: 7480 60bd ddbd 023d 823d 1e3d 27e1 c4bd
00000240: 5ec3 64bd ebfb a5bd 7818 043d b3ce c0bd
00000250: 2e2d 5abd 0ebb 253d e1c9 91bc 6568 573d
00000260: ab1a a53a 2d41 9d3d 5a0f 783d 53e5 f63c
00000270: 0692 963d 649a 683d 9dd6 2abd a390 a73d
00000280: 95c8 303d a9b5 e1bc 98b2 70bd 1ca5 f93c
00000290: c3b5 84bd 5471 913d 42db 91bd 4fc9 24bd
000002a0: 18f3 2abd 1e77 2bbd 04a9 8b3d 1115 593d
000002b0: 4e09 e83c 7956 90bd 9432 1f3d 4715 1f3d
000002c0: ca09 143d 1423 cbbc 1d24 043d 4228 0e3d
000002d0: 22c9 20bd 94a5 0abd f96c 3f3d 620d b33c
000002e0: 5aa5 3f3d a3fd 903d d229 95bd f374 8b3d
000002f0: 6e0c 09bd cbed 1c3c 1dc1 14bd 570d d1bb
00000300: 0098 99bd 1fa1 88bb 1d6c e239 8681 833d
00000310: 13d5 f5bc 04e7 12bd f6bf 4c3d 6881 28bd
00000320: 9ec4 213d 8902 093d 5e29 a0bd 154f 963d
00000330: 24b8 5ebb 5424 683d 3933 e1bc 7bbf de3c
00000340: dcf7 99bd fa80 9d3d 253e 6dbd 8c27 6cbd
00000350: 0532 8dbd 424d b53d ffa3 183c 8894 703d
00000360: 6c33 593d d870 823d 21bf 49bc 81b2 24bd
00000370: 1e5f 723b a359 483d 1ba1 9e3d 62af 38bd
00000380: d00d 2b3d 85da 803c 3663 2a3d 477f 9ebc
00000390: c34c 92bd f42b 97bd 37ac 7b3d 2d30 b23b
000003a0: bad1 ab3d fe2e babd 4538 7e3a 20b8 593d
000003b0: 344e 6a3d 9102 6f3d 4167 4b3d 9665 afbd
000003c0: c094 7f3d 014c c23d 0237 07bd b3d2 9cbd
000003d0: 435e b4bc 5e11 883b 7b14 1ebd 300b 423b
000003e0: 92af 903c d012 90bc 2ead 91bc e4c6 8a3d
000003f0: 4dda 863d a8e9 4bbd 7c9b 05bd 3b06 e6bc

rnn.bias_hh_l0 f4 [512]
0.08876739 -0.026245225 -0.0729928 0.05346638 -0.065337546 0.069519095 0.07639404 0.030857075
-0.036720797 0.0010772933 -0.07024571 0.057679888 0.0042106924 -0.057768524 0.06215993 -0.09964305
0.037645083 0.06238768 0.06063713 0.049308002 -0.002030953 0.06049139 0.03385245 0.04568958
-0.020639215 0.038773857 -0.05001895 0.02793193 0.0466935 0.0015361768 0.05777803 -0.027454372
0.051476754 0.032021984 0.012290894 0.058999583 0.041995037 0.07427281 -0.08654784 -0.056445923
0.08303398 -0.07788863 -0.032176826 -0.013607847 0.06669675 -0.014008817 0.050349012 -0.080394976
-0.011353961 0.04663829 -0.07581221 -0.041261934 0.004099844 -0.07419464 -0.0010248418 0.03445516
-0.023733238 -0.008323589 0.023058105 0.06644851 0.009732732 0.044099275 -0.0058676284 0.097540505
0.077883966 0.030569602 -0.04186445 0.098640144 0.034935728 0.013926181 -0.03317023 0.028367933
0.039864108 0.014028237 -0.03340227 -0.0012867403 0.007323983 -0.005960525 -0.08009064 0.088243574
0.082985826 0.0697976 0.08091868 -0.0029232125 0.0138682695 -0.016331075 -0.00810733 0.055296704
-0.06333348 0.04071931 0.069123745 -0.015499628 0.006165968 -0.00233733 -0.04742469 -0.044758286
-0.0042450135 -0.08372971 0.081186265 0.071562394 -0.032136172 -0.089052975 0.08173938 0.00060347223
0.08791759 -0.0066187237 -0.074472144 -0.07467397 0.05003192 0.035868227 0.022741875 0.0037733016
0.00417538 -0.04420585 0.06331644 -0.058872603 -0.029556459 -0.06851305 -0.01961789 0.031602364
-0.03636627 0.077020526 0.047905795 0.054794725 -0.0049544154 -0.07741984 -0.06762158 0.009569353
0.03644232 0.019261664 0.011770049 -0.028813003 0.021203225 -0.043242518 0.078923985 0.07554611
-0.047447983 -0.07450834 0.05929285 -0.02601834 -0.06495434 0.03207012 0.010951217 0.005849951
0.07945336 0.04139739 0.046839684 0.023876758 -0.0132181775 0.03613075 0.073654674 -0.0058637187
0.05808094 0.051650852 -0.04310622 0.026127381 -0.0772065 -0.04575121 -0.0673743 -0.0600096
0.041451227 0.07951003 0.046762742 0.030226223 0.011662196 0.0042721746 0.05454139 0.06452664
0.020793766 -0.00011252984 -0.016948104 -0.078273445 0.059057057 -0.037428252 0.021729732 0.02491256
0.06398456 0.00374618 -0.011897708 -0.077843465 -0.064248055 -0.0338893 -0.038336076 -0.038480137
-0.009002201 0.07649688 -0.014041435 -0.079745375 0.041332133 0.08411199 -0.06882652 -0.017422803
-0.057876967 0.02549234 -0.072303236 -0.0650443 -0.079390444 0.024996733 0.041272767 -0.082760386
-0.03875441 0.056476552 0.030602524 0.082265414 -0.03182211 -0.09989598 0.012925053 0.00620631
0.07904938 -0.07920402 -0.06415848 -0.039960086 -0.090808034 0.087008156 -0.06453578 -0.05369368
0.015513604 -0.068488725 0.032157473 -0.062383022 -0.05084314 0.006830019 0.072184466 -0.08636459
0.004523954 -0.008889909 0.07778882 -0.07469903 0.0375918 -0.04994336 -0.044107225 -0.011652402
-0.079628535 -0.062035564 0.03858992 0.09265383 0.05465882 0.008821366 -0.008421424 -0.06303544
0.03336513 0.06648513 0.05067233 -0.056318056 0.061066262 -0.04648114 0.0026372257 -0.0463362
-0.020846633 0.03260128 -0.07198605 -0.09136295 0.01566054 -0.06873213 -0.043358415 -0.07397135
00000000: adcb b53d 3a00 d7bc 407d 95bd 90ff 5a3d
00000010: b1cf 85bd 0760 8e3d 7a74 9c3d fac7 fc3c
00000020: 8c68 16bd f733 8d3a fcdc 8fbd bf41 6c3d
00000030: d9f9 893b b09e 6cbd 699b 7e3d a811 ccbd
00000040: bb31 1a3d 398a 7f3d a45e 783d 30f7 493d
00000050: bd19 05bb d2c5 773d dea8 0a3d ff24 3b3d
00000060: 9213 a9bc 56d1 1e3d ace0 4cbd 81d1 e43c
00000070: af41 3f3d 8a59 c93a a8a8 6c3d fee7 e0bc
00000080: 4ad9 523d 7c29 033d bf5f 493c 8ca9 713d
00000090: fd02 2c3d 581c 983d fe3f b1bd d733 67bd
000000a0: b80d aa3d 1384 9fbd d9cb 03bd 72f3 5ebc
000000b0: 4e98 883d 3d85 65bc c43a 4e3d 1fa6 a4bd
000000c0: f705 3abc cb07 3f3d 6f43 9bbd 4602 29bd
000000d0: fc57 863b 5cf3 97bd fc53 86ba db20 0d3d
000000e0: 356c c2bc aa5f 08bc 5ae4 bc3c 2816 883d
000000f0: 0976 1f3c 71a1 343d 3c45 c0bb 51c3 c73d
00000100: a181 9f3d 1a6d fa3c 0f7a 2bbd d803 ca3d
00000110: c418 0f3d a32a 643c 82dd 07bd de63 e83c
00000120: 8c48 233d b1d6 653c d2d0 08bd d7a7 a8ba
00000130: 06fe ef3b 8250 c3bb 9006 a4bd 0cb9 b43d
00000140: 79f4 a93d 0bf2 8e3d b1b8 a53d 5e93 3fbb
00000150: bd37 633c bfc8 85bc 9bd4 04bc cc7e 623d
00000160: fcb4 81bd 4bc9 263d c090 8d3d 27f2 7dbc
00000170: e30b ca3b e42d 19bb 6440 42bd 7754 37bd
00000180: c119 8bbb 7b7a abbd fc44 a63d 4e8f 923d
00000190: 38a1 03bd 6861 b6bd fa66 a73d 5632 1e3a
000001a0: 230e b43d e1e1 d8bb da84 98bd abee 98bd
000001b0: 45ee 4c3d 90ea 123d 2b4d ba3c 7f49 773b
000001c0: a0d1 883b 3211 35bd 0dac 813d 6624 71bd
000001d0: 6320 f2bc 9250 8cbd b2b5 a0bc 7b71 013d
000001e0: ccf4 14bd f0bc 9d3d de38 443d 6f70 603d
000001f0: a658 a2bb 4b8e 9ebd 2f7d 8abd c7c8 1c3c
00000200: 8b44 153d a3ca 9d3c 2ad7 403c 3f09 ecbc
00000210: 63b2 ad3c 111f 31bd e6a2 a13d ebb7 9a3d
00000220: d158 42bd d497 98bd 0fdd 723d 6a24 d5bc
00000230: c806 85bd f55b 033d bc6c 333c f2b0 bf3b
00000240: 71b8 a23d 4f90 293d f8da 3f3d 3199 c33c
00000250: 0e91 58bc d6fd 133d 43d8 963d 7024 c0bb
00000260: 48e6 6d3d d88f 533d 2690 30bd 1709 d63c
00000270: 711e 9ebd 9f65 3bbd 89fb 89bd a0cc 75bd
00000280: c3c8 293d 28d6 a23d 4a8a 3f3d fc9c f73c
00000290: cc12 3f3c 99fd 8b3b cb66 5f3d 8b26 843d
000002a0: b057 aa3c fffd ebb8 c0d6 8abc d44d a0bd
000002b0: d0e5 713d 5e4e 19bd 8d02 b23c 6d15 cc3c
000002c0: 560a 833d 7982 753b 9bee 42bc 656c 9fbd
000002d0: 7c94 83bd 82cf 0abd 4a06 1dbd 599d 1dbd
000002e0: f87d 13bc 65aa 9c3d 0c0e 66bc 8b51 a3bd
000002f0: e24b 293d e842 ac3d ebf4 8cbd 44ba 8ebc
00000300: 6610 6dbd 50d5 d03c b813 94bd f235 85bd
00000310: 7597 a2bd f3c5 cc3c a20d 293d 477e a9bd
00000320: f2bc 1ebd f553 673d 25b2 fa3c c57a a83d
00000330: e757 02bd 4396 ccbd 9ac3 533c 4d5e cb3b
00000340: a4e4 a13d b835 a2bd 8565 83bd 30ad 23bd
00000350: 90f9 b9bd 5531 b23d 562b 84bd e7ed 5bbd
00000360: c52c 7e3c d143 8cbd 8eb7 033d 5785 7fbd
00000370: e540 50bd 5ace df3b 73d5 933d ebdf b0bd
00000380: ad3d 943b fba6 11bc bf4f 9f3d cefb 98bd
00000390: dcf9 193d 6991 4cbd c7a9 34bd b7e9 3ebc
000003a0: 4914 a3bd 0119 7ebd 7710 1e3d 4bc1 bd3d
000003b0: ede1 5f3d 7e87 103c 03fa 09bc ba18 81bd
000003c0: e0a9 083d 5b29 883d ca8d 4f3d c3ad 66bd
000003d0: 9e20 7a3d 0263 3ebd 4ed5 2c3b 07cb 3dbd
000003e0: 8fc6 aabc eb88 053d 6c6d 93bd 801c bbbd
000003f0: 884a 803c 6ec3 8cbd 9898 31bd 4b7e 97bd

rnn.weight_ih_l1 f4 [512, 128]
-0.027847752 -0.05060549 0.061880566 -0.03484024 -0.039469592 -0.054387458 0.037186116 -0.10098373
-0.019835142 0.023773026 0.049752098 -0.05601551 -0.05678725 0.06305112 -0.022241583 0.0034908268
0.031997498 0.047731478 0.018409744 -0.07009769 0.0024135534 0.08050075 0.0061205323 0.008495676
0.012615397 -0.036007706 0.037182637 0.06396858 0.03759608 0.021317882 0.013452246 -0.03537774
-0.0073164105 -0.0830062 -0.0659472 0.042068522 0.03680529 0.011621386 -0.027470361 -0.04502868
-0.046614937 0.0031176684 -0.117148116 -0.026726088 -0.043124463 0.02001114 0.036793098 -0.077398926
-0.0852874 0.0888749 -0.058185514 -0.065592706 -0.094993256 0.008905866 -0.062231638 0.07189632
-0.064143404 -0.09062274 -0.034878556 -0.017822139 -0.026152061 -0.025004987 -0.057020713 0.03166598
0.050661102 0.046161156 -0.079578705 0.1042243 -0.0076214136 0.028765269 -0.052080374 -0.02157672
-0.004296001 0.04688453 0.043263197 -0.11161131 0.009682857 -0.075132765 0.03508004 0.032127816
0.04553225 -0.08250661 -0.08220429 0.029429983 -0.03375763 0.019974465 0.004439447 -0.016895803
-0.036592454 -0.058263917 0.015554473 0.0058947587 -0.0435726 0.07332466 -0.03819991 0.08061708
-0.028995156 -0.08263189 0.025476279 -0.0022585706 0.04286855 -0.049565356 0.00835327 0.029286068
-0.016216528 -0.09685735 -0.004201011 -0.04601017 0.027963439 -0.020455865 -0.01627348 0.07877202
0.03710685 0.10506015 -0.08943271 0.018154405 -0.009143691 0.054702505 -0.10780257 0.07687771
0.09311417 0.032271832 -0.05098256 -0.07836562 0.04341533 0.015336776 -0.032580696 -0.009006901
0.051518627 0.03705189 -0.015229097 0.07388395 0.045144446 0.047805663 -0.058576044 0.04038434
0.031166507 0.04031635 -0.076207496 -0.018058414 -0.03941151 -0.06969888 0.08174354 0.07338091
-0.04351052 0.06460349 -0.030170392 -0.058608633 0.057590794 0.06358526 -0.02062742 -0.04239004
0.018216006 -0.013286326 0.022338266 0.018204495 0.0019987412 -0.03066983 -0.045875818 -0.038115613
-0.0650186 0.027343184 -0.054812133 -0.03454433 -0.0013115141 -0.06689849 0.023342231 -0.06481159
0.035108496 -0.033100653 0.061879892 0.016833235 -0.037108462 -0.062961385 -0.034466065 0.06605206
0.08845052 -0.05903227 0.015557685 0.065398015 0.07773224 0.017810816 -0.026762165 -0.06791885
0.034474064 0.10030725 -0.06564892 0.051214457 -0.048485126 0.037637044 0.07265912 -0.07206779
-0.02905556 0.06488392 -0.088398196 -0.07104804 -0.014968148 0.078113966 0.0035017736 0.011115012
-0.093529955 0.09246251 -0.047473073 -0.070824996 0.045538116 -0.052803352 0.06303466 -0.01932232
-0.04656324 -0.10320755 0.001589195 -0.089164816 0.07462457 -0.036329743 0.045365673 0.08727194
0.06804499 -0.0111572845 0.006200007 0.076384686 -0.05584956 0.078450836 0.030802473 0.025901282
0.047398858 -0.055801384 -0.07992152 0.03443394 0.07087847 0.052011166 -0.0005203757 -0.054960754
-0.091919884 -0.020362206 -0.008494711 0.04267708 -0.051325634 0.07228352 0.011894175 0.03400726
0.05036382 -0.030668566 -0.06424304 -0.050783902 -0.08071524 -0.10011308 -0.059414368 0.08049731
0.033465162 -0.0018826334 -0.035409536 -0.06296306 0.022655856 -0.048988152 -0.045928605 -0.065750666
00000000: f820 e4bc b447 4fbd 7a76 7d3d a4b4 0ebd
00000010: deaa 21bd 62c5 5ebd 7850 183d 8fd0 cebd
00000020: 4f7d a2bc a6bf c23c dbc8 4b3d 8570 65bd
00000030: bf99 68bd f220 813d fb33 b6bc 5bc6 643b
00000040: cf0f 033d 1582 433d 08d0 963c 618f 8fbd
00000050: b52c 1e3b 94dd a43d bf8e c83b 7331 0b3c
00000060: cfb0 4e3c d17c 13bd d24c 183d f501 833d
00000070: 59fe 193d d7a2 ae3c cf66 5c3c 40e8 10bd
00000080: 80be efbb 28ff a9bd 530f 87bd 0b50 2c3d
00000090: 25c1 163d a067 3e3c 8609 e1bc fe6f 38bd
000000a0: 4eef 3ebd cc51 4c3b 5aeb efbd abf0 dabc
000000b0: 47a3 30bd 67ee a33c 5cb4 163d 5483 9ebd
000000c0: 29ab aebd 0b04 b63d ef53 6ebd 7855 86bd
000000d0: d38b c2bd e9e9 113c 9ae6 7ebd 613e 933d
000000e0: 9e5d 83bd 6a98 b9bd d1dc 0ebd bcff 91bc
000000f0: d93c d6bc 42d7 ccbc 8d8e 69bd 30b4 013d
00000100: 0482 4f3d 7b13 3d3d 29fa a2bd 8d73 d53d
00000110: 0dbd f9bb 24a5 eb3c 3b52 55bd a9c1 b0bc
00000120: 78c5 8cbb fe09 403d c034 313d 7894 e4bd
00000130: d9a4 1e3c 35df 99bd 17b0 0f3d 7598 033d
00000140: 0680 3a3d 3af9 a8bd b95a a8bd 2617 f13c
00000150: 7145 0abd 7da1 a33c c878 913b 1169 8abc
00000160: f8e1 15bd 25a6 6ebd 30d8 7e3c d228 c13b
00000170: 2f79 32bd 3d2b 963d 8277 1cbd 911a a53d
00000180: 4087 edbc e93a a9bd a1b3 d03c 8704 14bb
00000190: ef96 2f3d 0b05 4bbd 27dc 083c 56e9 ef3c
000001a0: 86d8 84bc 255d c6bd a2a8 89bb 2975 3cbd
000001b0: 9513 e53c 0f93 a7bc f64f 85bc 3a53 a13d
000001c0: 5afd 173d c729 d73d 7f28 b7bd 8cb8 943c
000001d0: 6bcf 15bc bc0f 603d 98c7 dcbd 1072 9d3d
000001e0: a4b2 be3d 782f 043d 17d3 50bd 277e a0bd
000001f0: 46d4 313d 1a47 7b3c 5673 05bd ae91 13bc
00000200: 3205 533d b9c3 173d 7683 79bc 7850 973d
00000210: 62e9 383d dfcf 433d 6fed 6fbd 0d6a 253d
00000220: e750 ff3c c222 253d ad12 9cbd 3def 93bc
00000230: f76d 21bd 49be 8ebd 2869 a73d bb48 963d
00000240: 1638 32bd d64e 843d e627 f7bc 9b0f 70bd
00000250: 53e4 6b3d fd38 823d d6fa a8bc 2ea1 2dbd
00000260: bc39 953c e4ae 59bc bdfe b63c 9821 953c
00000270: 50fd 023b 4c3f fbbc 48e8 3bbd 1e1f 1cbd
00000280: 7928 85bd d0fe df3c b082 60bd 5b7e 0dbd
00000290: 1ce7 abba 1302 89bd 3538 bf3c f0bb 84bd
000002a0: edcd 0f3d 8d94 07bd c575 7d3d dae5 893c
000002b0: 0bff 17bd e6f1 80bd 4a2c 0dbd 4d46 873d
000002c0: 8c25 b53d d2cb 71bd a9e5 7e3c 65ef 853d
000002d0: 1532 9f3d fde7 913c 543c dbbc 0a19 8bbd
000002e0: ad34 0d3d e36d cd3d f172 86bd 40c6 513d
000002f0: 5798 46bd 4d29 1a3d 4ece 943d 4798 93bd
00000300: ed05 eebc dce1 843d 1d0a b5bd a381 91bd
00000310: f73c 75bc 37fa 9f3d 037e 653b bd1b 363c
00000320: a28c bfbd fc5c bd3d 2073 42bd b20c 91bd
00000330: 2d86 3a3d 5448 58bd 5118 813d d849 9ebc
00000340: 19b9 3ebd 7b5e d3bd 894c d03a 0b9c b6bd
00000350: c4d4 983d 7fce 14bd 5bd1 393d a2bb b23d
00000360: 2c5b 8b3d 0bcd 36bc 6e29 cb3b 936f 9c3d
00000370: 82c2 64bd d5aa a03d 7855 fc3c ed2e d43c
00000380: 4e25 423d fe8f 64bd e5ad a3bd 9a0a 0d3d
00000390: bb28 913d a909 553d d269 08ba 871e 61bd
000003a0: 7e40 bcbd a4ce a6bc 662d 0bbc 29ce 2e3d
000003b0: d43a 52bd 6209 943d c9df 423c 324b 0b3d
000003c0: 4b4a 4e3d a53c fbbc db91 83bd c802 50bd
000003d0: 084e a5bd 1608 cdbd 7b5c 73bd c6db a43d
000003e0: c412 093d b2c2 f6ba 9709 11bd c7f2 80bd
000003f0: c698 b93c cda7 48bd a21f 3cbd 49a8 86bd

rnn.weight_hh_l1 f4 [512, 128]
-0.028401373 0.027332768 0.0014807875 -0.051135365 -0.00447248 0.048760723 0.049518082 -0.0011737179
0.021144614 0.057929512 -0.0893654 -0.04853826 0.08154928 0.06388739 -0.0023462868 -0.022099223
-0.06393594 -0.023272255 0.06347296 -0.05084934 0.016191736 0.092530504 0.030350167 -0.052088946
-0.017975878 -0.0005250656 -0.009449235 -0.027406678 -0.09887884 -0.08818395 0.09239899 -0.07561518
0.07663995 -0.06494715 -0.087003686 -0.01604483 -0.05531007 -0.063399546 0.053664215 -0.05487862
0.026392464 -0.03212871 -0.084301576 -0.027481696 -0.015806193 0.034199737 0.04207774 -0.024946483
-0.080943465 0.027718699 0.005424402 0.021997627 -0.070500344 -0.070259854 0.055815965 -0.07674604
0.089790806 -0.026790824 -0.04078371 -0.019427598 -0.013464337 0.0031761054 -0.03570641 -0.046521183
0.07713413 -0.074449226 0.05515714 -0.026187532 0.04760886 -0.095956326 0.07894343 -0.05450004
-0.020065408 -0.033118725 -0.014752489 -0.08022356 0.04461484 0.04659858 -0.048522342 -0.02889749
-0.03744254 -0.054333713 -0.06365617 -0.026258416 -0.04091889 0.08208202 -0.011457116 0.046301994
-0.09235063 0.03328891 0.01392037 0.087160125 -0.08020868 0.028319875 -0.0896838 -0.07795532
0.07817732 0.011439977 -2.8783557e-05 0.073127836 0.041996878 0.0028211426 -0.023732534 -0.04784317
0.043154776 0.05759596 0.032272868 -0.023790207 -0.078207724 0.01640219 -0.018994953 -0.03426278
0.008606308 -0.057576507 -0.06297417 0.011094529 -0.025737418 -0.030779157 -0.037227843 0.0708715
0.09742893 -0.038403418 0.030295495 -0.057346307 -0.032263108 -0.033429023 -0.029481877 0.084295504
-0.07119128 -0.012807992 -0.049385823 0.040766522 0.06579643 -0.018669913 -0.028381065 -0.087608516
0.09113929 -0.047757827 -0.050179433 -0.051018544 -0.059783895 -0.025686644 0.02548594 0.03655045
-0.030857332 -0.06691063 -0.055902738 0.068301804 -0.043881796 -0.019386195 -0.019894393 -0.030260414
0.026485134 -0.09008136 0.063786216 0.028648756 -0.06984763 -0.06360857 0.06254275 0.07888453
0.06817701 -0.017754756 -0.011494086 0.031960916 -0.016993921 -0.053469747 -0.02797547 0.052700695
-0.05729236 0.0029078613 -0.058601487 0.08023095 0.04822617 0.01656859 -0.04174138 0.026242094
0.058054376 -0.08359009 0.07239364 -0.037501413 0.010430092 -0.0862811 0.012692847 -0.010465193
0.06532964 -0.078143954 -0.04291843 0.033203866 -0.046428967 0.081985414 0.08940551 -0.030630436
-0.004972877 -0.04839198 0.076730095 0.05222949 -0.028330944 0.075232536 -0.0639706 0.014304885
-0.0045695505 0.016343566 -0.054625385 -0.016095998 -0.08097404 0.08924832 -0.07762158 -0.016032735
-0.03251573 -0.054535575 0.047973827 -0.039160393 -0.074995376 -0.018785445 -0.008993573 -0.047540396
0.044714246 -0.036264367 -0.08389049 -0.08236898 -0.045378573 0.034093887 -0.052907534 -0.08713301
-0.08162545 -0.0973764 -0.032502633 -0.06185534 0.09339069 0.014163866 0.048611805 0.084176
0.07283379 0.044907007 0.06268801 -0.0034637311 0.03360032 0.024288347 0.0896824 -0.07086709
-0.0019637938 0.007563608 -0.022824278 0.056881554 -0.030761674 -0.055338908 -0.03665626 -0.027063906
-0.012847241 0.08352986 -0.021641655 -0.058390245 -0.0038252824 0.033191964 -0.038535554 -0.0068908925
00000000: ffa9 e8bc f8e8 df3c fc16 c23a 5173 51bd
00000010: e28d 92bb 53b9 473d 79d3 4a3d 70d7 99ba
00000020: 7837 ad3c 7f47 6d3d 3505 b7bd 0ed0 46bd
00000030: 4f03 a73d 64d7 823d 29c4 19bb 6e09 b5bc
00000040: d9f0 82bd 75a5 bebc 1cfe 813d 6647 50bd
00000050: 88a4 843c a280 bd3d eaa0 f83c 385b 55bd
00000060: 2642 93bc 8ea4 09ba f7d0 1abc f883 e0bc
00000070: fd80 cabd c999 b4bd af3b bd3d 22dc 9abd
00000080: 68f5 9c3d 0303 85bd fd2e b2bd 7370 83bc
00000090: d08c 62bd 9fd7 81bd 02cf 5b3d 67c8 60bd
000000a0: 0235 d83c 6599 03bd 4ea6 acbd 4b21 e1bc
000000b0: fd7b 81bc 0615 0c3d b559 2c3d 915c ccbc
000000c0: b0c5 a5bd 5312 e33c 2fbf b13b 5e34 b43c
000000d0: 7c62 90bd 66e4 8fbd 489f 643d 072d 9dbd
000000e0: 3ee4 b73d 6e78 dbbc d20c 27bd a026 9fbc
000000f0: 8699 5cbc 3526 503b e240 12bd ff8c 3ebd
00000100: 80f8 9d3d d678 98bd 74ec 613d 3c87 d6bc
00000110: 8201 433d c084 c4bd 18ad a13d 6f3b 5fbd
00000120: 3660 a4bc 80a7 07bd 6cb4 71bc 404c a4bd
00000130: 0dbe 363d 27de 3e3d 5dbf 46bd 6eba ecbc
00000140: 595d 19bd 078d 5ebd 2b5e 82bd e41b d7bc
00000150: 919a 27bd 9e1a a83d a1b6 3bbc 29a7 3d3d
00000160: 5422 bdbd f459 083d 4312 643c 0281 b23d
00000170: 7344 a4bd 15ff e73c 24ac b7bd 0aa7 9fbd
00000180: 6e1b a03d be6e 3b3c 3874 f1b7 0cc4 953d
00000190: eb04 2c3d ebe2 383b bb6a c2bc 33f7 43bd
000001a0: 10c3 303d bee9 6b3d 8e30 043d aee3 c2bc
000001b0: 5f2b a0bd e35d 863c 4e9b 9bbc 2157 0cbd
000001c0: 7901 0d3c 58d5 6bbd 9af8 80bd d4c5 353c
000001d0: 47d7 d2bc 9224 fcbc 397c 18bd 1425 913d
000001e0: d288 c73d e74c 1dbd 422e f83c f6e3 6abd
000001f0: 5226 04bd dfec 08bd fa83 f1bc 1fa3 ac3d
00000200: bccc 91bd 9dd8 51bc ca48 4abd ccfa 263d
00000210: 47c0 863d a5f1 98bc 687f e8bc 186c b3bd
00000220: 3ca7 ba3d b69d 43bd f388 4dbd d2f8 50bd
00000230: f5df 74bd cc6c d2bc e4c7 d03c edb5 153d
00000240: 84c8 fcbc 7108 89bd 45fa 64bd d1e1 8b3d
00000250: 66bd 33bd cccf 9ebc 91f9 a2bc b0e4 f7bc
00000260: 5af7 d83c 937c b8bd 59a2 823d ccb0 ea3c
00000270: 460c 8fbd 3645 82bd 6a16 803d 368e a13d
00000280: 63a0 8b3d 6c72 91bc b151 3cbc 73e9 023d
00000290: d636 8bbc 1803 5bbd d02c e5bc afdc 573d
000002a0: 65ab 6abd d191 3e3b 1d08 70bd 2050 a43d
000002b0: ce88 453d daba 873c 02f9 2abd a9f9 d63c
000002c0: 6dca 6d3d 4831 abbd 1e43 943d 159b 19bd
000002d0: fae2 2a3c 25b4 b0bd a9f5 4f3c 3376 2bbc
000002e0: 8ccb 853d f009 a0bd 3ccb 2fbd c700 083d
000002f0: 4d2c 3ebd f8e7 a73d 3c1a b73d aeec fabc
00000300: 84f3 a2bb ab36 46bd ab24 9d3d 97ee 553d
00000310: 4c16 e8bc 8413 9a3d 0503 83bd 095f 6a3c
00000320: 2bbc 95bb f1e2 853c debe 5fbd c1db 83bc
00000330: b8d5 a5bd d3c7 b63d 10f8 9ebd 1557 83bc
00000340: 372f 05bd b260 5fbd 3480 443d a666 20bd
00000350: 2d97 99bd efe3 99bc c759 13bc b8b9 42bd
00000360: 4926 373d f289 14bd c7ce abbd 11b1 a8bd
00000370: e2de 39bd 08a6 0b3d 92b5 58bd cb72 b2bd
00000380: 3e2b a7bd 476d c7bd 7b21 05bd 065c 7dbd
00000390: 9e43 bf3d 8f0f 683c 2c1d 473d 7764 ac3d
000003a0: e229 953d 69f0 373d 9262 803d c4ff 62bb
000003b0: 7da0 093d 5bf8 c63c 68ab b73d c422 91bd
000003c0: feb2 00bb 24d8 f73b fbf9 babc a2fc 683d
000003d0: e8ff fbbc 0dab 62bd e024 16bd 20b5 ddbc
000003e0: 3c7d 52bc b411 ab3d d749 b1bc 9c2a 6fbd
000003f0: 97b1 7abb 4cf4 073d 75d7 1dbd ffcc e1bb

rnn.bias_ih_l1 f4 [512]
-0.022800377 0.052749645 0.07814612 0.050901514 -0.05241168 -0.028523576 0.0077393684 0.07729779
0.014965586 -0.022512976 0.013821611 -0.0015922486 0.062081616 0.071332246 0.040720064 -0.079717375
0.053485084 0.062006835 -0.013833121 0.074763164 -0.010474008 0.039265566 0.06872199 0.06386525
0.08279294 -0.041593038 0.0437809 0.045928065 0.049886785 -0.0029974398 -0.10842517 -0.046368815
-0.042495545 0.048722655 0.088376164 -0.09043935 -0.05731991 0.0012839272 -0.05011203 0.05751352
0.05589518 -0.06589771 0.09718105 -0.0009235315 -0.056456935 -0.038898155 -0.008197214 -0.007330726
0.05391009 -0.0018055463 -0.048384488 -0.012445905 0.06377969 -0.009396104 -0.018630678 -0.054734968
-0.058324285 -0.07821929 0.07750873 -0.07256629 0.025042713 0.058789436 -0.031208096 -0.022002805
0.02352738 -0.015373691 0.09352937 0.0643507 0.06991042 0.02456267 0.027896112 0.023543544
0.026688525 -0.0135844555 -0.09300789 -0.019340966 0.06713847 -0.036536794 0.05030927 -0.05168388
-0.073741294 -0.05545381 -0.04154064 0.07829934 0.08590909 0.049693637 0.05051702 0.038396534
0.06376871 -0.070343025 0.041717038 -0.043343253 0.011454256 0.0788132 0.07088871 -0.028251337
-0.019873483 0.019209016 0.021936655 -0.07565554 0.06027737 -0.06494232 0.07799702 -0.0697792
0.030393668 0.049663052 -0.04261864 -0.009100873 0.06914398 -0.0223814 0.023314523 -0.037625417
-0.055578128 -0.041656565 -0.02931047 -0.07535337 -0.00824261 -0.013521405 0.092967585 0.03204764
0.012998233 0.019411467 0.0115510365 -0.0036945897 0.075924195 0.09863237 0.09394679 0.029993098
-0.033149946 0.09494547 -0.02577419 0.06655431 -0.01216431 0.01805328 0.027040258 -0.040755402
-0.010206333 0.036043122 0.0102168 0.010054232 -0.026740672 0.048074126 -0.06658291 0.0421208
-0.07167383 -0.049546383 -0.09957708 0.06902568 -0.032495994 0.015724005 0.068271846 -0.011399899
-0.009185821 -0.038502514 0.026776703 0.09260281 0.0077344324 0.07693632 0.05377677 0.02738321
0.093498796 0.066123255 -0.0897142 -0.04550111 0.05174869 -0.040984813 -0.05543121 -0.08097205
-0.0749101 0.0669914 -0.0012802765 0.075225785 -0.077032834 0.001746539 -0.026080316 -0.07580411
0.012224402 -0.05779487 -0.012094498 0.047327667 -0.04999039 0.060913224 0.0019865127 0.07422714
0.052565333 0.00030624392 -0.046840325 0.066982634 0.0485053 -0.07650458 -0.016177528 0.08991794
-0.010697003 -0.07676432 0.059523538 -0.029912602 -0.043845024 0.03416775 -0.07865306 0.0050332574
-0.073649034 0.07904684 0.010748532 0.006809955 0.056390997 0.05831792 -0.08082121 -0.07750668
0.0056413617 -0.04280843 -0.03493853 0.076964825 -0.0022608468 0.022230515 0.0772595 -0.08625754
0.016737552 0.031282376 -0.075370796 -0.000488171 -0.040706757 0.05742074 -0.028475108 0.086318135
0.0534408 -0.07817617 -0.08776763 -0.09170113 -0.0612616 0.017627515 -0.0012391839 -0.06874436
-0.009250016 0.06381224 0.07835885 -0.03933214 0.092144944 -0.026743932 0.009630696 0.036308482
0.044700634 0.03519355 0.07282437 0.0013833166 -0.028388495 -0.0302765 0.08320883 -0.045221485
0.08868226 0.06564698 0.013301157 -0.040655743 -0.019741438 -0.071453534 0.06383668 0.0746512
00000000: dbc7 babc 0310 583d 130b a03d 1b7e 503d
00000010: a1ad 56bd 46aa e9bc 879a fd3b 4e4e 9e3d
00000020: 3832 753c 226d b8bc 0a74 623c ffb2 d0ba
00000030: 4b49 7e3d a416 923d 15ca 263d dd42 a3bd
00000040: 2d13 5b3d e1fa 7d3d 51a4 62bc 6e1d 993d
00000050: 2c9b 2bbc eed4 203d 1dbe 8c3d c9cb 823d
00000060: 588f a93d 765d 2abd 9a53 333d 111f 3c3d
00000070: 1656 4c3d b270 44bb 040e debd 3aed 3dbd
00000080: cf0f 2ebd 6891 473d 90fe b43d 4438 b9bd
00000090: 48c8 6abd 7349 a83a 4642 4dbd 4c93 6b3d
000000a0: 58f2 643d 61f5 86bd dc06 c73d 2619 72ba
000000b0: 633f 67bd ac53 1fbd 9c4d 06bc 9636 f0bb
000000c0: d4d0 5c3d 15a8 ecba d02e 46bd e9e9 4bbc
000000d0: ed9e 823d 1ef2 19bc 5d9f 98bc c631 60bd
000000e0: 72e5 6ebd 6f31 a0bd e6bc 9e3d a39d 94bd
000000f0: 6026 cd3c 31cd 703d 1fa8 ffbc 3a3f b4bc
00000100: 7ebc c03c efe1 7bbc 548c bf3d 4dca 833d
00000110: 322d 8f3d a737 c93c 6386 e43c 64de c03c
00000120: e5a1 da3c 5691 5ebc ec7a bebd f270 9ebc
00000130: e57f 893d 9ba7 15bd 1811 4e3d 7ab2 53bd
00000140: ad05 97bd 8923 63bd 8526 2abd 685b a03d
00000150: 1bf1 af3d 8e8b 4b3d efea 4e3d af45 1d3d
00000160: 2b99 823d 0110 90bd 7cdf 2a3d b288 31bd
00000170: a2aa 3b3c d168 a13d 1a2e 913d 596f e7bc
00000180: b7cd a2bc 3a5c 9d3c 80b4 b33c 4bf1 9abd
00000190: 67e5 763d 7b00 85bd e7bc 9f3d 66e8 8ebd
000001a0: 24fc f83c 7c6b 4b3d e290 2ebd d41b 15bc
000001b0: 5c9b 8d3d 3359 b7bc 19fe be3c 1c1d 1abd
000001c0: e4a5 63bd 13a0 2abd 831c f0bc de52 9abd
000001d0: 030c 07bc e288 5dbc ca65 be3d 6344 033d
000001e0: 8af6 543c cc04 9f3c 8f40 3d3c ee20 72bb
000001f0: 257e 9b3d c5ff c93d 2d67 c03d 16b4 f53c
00000200: 3dc8 07bd c572 c23d 6524 d3bc a04d 883d
00000210: d04c 47bc 79e4 933c 8883 dd3c 23ef 26bd
00000220: 7738 27bc f4a1 133d 5d64 273c 81ba 243c
00000230: 410f dbbc 60e9 443d 9f5c 88bd dc86 2c3d
00000240: bbc9 92bd 26f1 4abd 11ef cbbd 565d 8d3d
00000250: 851a 05bd a1cf 803c 1cd2 8b3d a4c6 3abc
00000260: 2080 16bc d0b4 1dbd d15a db3c 8ba6 bd3d
00000270: 1f71 fd3b ca90 9d3d 0845 5c3d c152 e03c
00000280: 4c7c bf3d a16b 873d 14bc b7bd 5f5f 3abd
00000290: 6ff6 533d b1df 27bd d60b 63bd add4 a5bd
000002a0: 776a 99bd ca32 893d f3ce a7ba fa0f 9a3d
000002b0: 64c3 9dbd 20ec e43a 63a6 d5bc 2f3f 9bbd
000002c0: dc48 483c 50ba 6cbd 0028 46bc a8da 413d
000002d0: b9c2 4cbd 2580 793d 2730 023b 6604 983d
000002e0: bf4e 573d 5d8f a039 a4db 3fbd 312e 893d
000002f0: 7ead 463d 6fae 9cbd bc86 84bc e626 b83d
00000300: 7c42 2fbc 9d36 9dbd f4ce 733d 460b f5bc
00000310: d796 33bd 7cf3 0b3d db14 a1bd 06ee a43b
00000320: 4ed5 96bd 4fe3 a13d 9c1a 303c 0b26 df3b
00000330: 3ffa 663d c5de 6e3d 9785 a5bd d2bb 9ebd
00000340: 2cdb b83b e457 2fbd b41b 0fbd bc9f 9d3d
00000350: b72a 14bb c51c b63c 3b3a 9e3d cba7 b0bd
00000360: 311d 893c f321 003d 015c 9abd 34f1 ffb9
00000370: 21bc 26bd 0332 6b3d a144 e9bc 90c7 b03d
00000380: bee4 5a3d d41a a0bd 84bf b3bd cdcd bbbd
00000390: 72ed 7abd 9467 903c 1d6c a2ba d8c9 8cbd
000003a0: 618d 17bc feaf 823d 9b7a a03d bd1a 21bd
000003b0: 7db6 bc3d 1716 dbbc 11ca 1d3c 34b8 143d
000003c0: 0318 373d 1d27 103d f124 953d 6750 b53a
000003d0: fd8e e8bc 6c06 f8bc 6469 aa3d 2a3a 39bd
000003e0: 0b9f b53d ed71 863d 19ed 593c a386 26bd
000003f0: ccb8 a1bc 3b56 92bd cebc 823d bae2 983d
