backend/trained_models/NIMB_LSTM_model_state_dict.pth (torch, 167948 bytes, 5 tensors)

rnn.weight_ih_l0 f4 [400, 1]
000000 f9 34 2c bc 1c 73 2d bd 2d d2 72 bd 72 f9 dc bd
       -0.010510677 -0.042346105 -0.05928247 -0.107897654
000010 5e 70 a3 3d 5d 24 73 3d 86 42 af 3c 93 10 99 3d
       0.07980417 0.05936085 0.021394026 0.074738644
000020 2b aa 7b bd 00 a5 3a bd 96 ae a1 bd f2 66 76 bc
       -0.06144158 -0.045567513 -0.07894628 -0.0150391925
000030 7e b9 af 3c 1d 61 de bc 25 4b 63 bd 35 89 d1 bb
       0.021450754 -0.027145917 -0.055491585 -0.00639453
000040 57 c9 e5 bd 15 bb fe 3d 72 d9 06 3c 7b 07 e0 bd
       -0.11220043 0.12438027 0.008230554 -0.10938927
000050 da c3 48 bd b6 b8 91 bc da 57 29 bd 35 c4 6c 3c
       -0.049014904 -0.017788272 -0.041343547 0.014451076
000060 38 19 3a 3d ac b2 ac 3b e4 13 6e 3d c9 57 fb 3b
       0.045434207 0.005270323 0.058124438 0.007670377
000070 ee 8b 15 bd a9 d2 dc 39 eb f5 e8 bd c1 4d e0 bd
       -0.0365104 0.00042118624 -0.1137503 -0.109523304
000080 fa 0b 96 bd 1f 90 d5 bd 07 a9 ac bc 59 06 94 3d
       -0.07326503 -0.104278795 -0.021076692 0.07227773
000090 9f d7 4a 3d bd 53 14 3d 6f 5b 93 3d ae d0 a5 3d
       0.04952204 0.03621267 0.07195174 0.08096443
0000a0 19 f2 97 bb 71 6f af bd 31 5f 5f 3d fc 5e 79 3d
       -0.0046370146 -0.08566178 0.05453414 0.0608816
0000b0 87 64 34 3d 6d d0 af bd 8b 50 c0 bb b8 ba d3 3c
       0.044041183 -0.08584676 -0.0058689765 0.02584587
0000c0 74 29 03 3d 26 ad 98 bc 20 ac bd bc 1c d0 dc 3d
       0.032021955 -0.018637251 -0.023153365 0.10781881
0000d0 63 f9 2a bd 32 4d 5b 3d 54 76 b0 bd a7 d6 9b bc
       -0.04174174 0.053540416 -0.08616319 -0.019023253
0000e0 c0 da 90 3c 8f be 89 3d 64 27 06 bd 8a 88 e7 bc
       0.017682433 0.06725799 -0.03275241 -0.02826335
0000f0 d4 f8 62 bc 2d 67 3d bd e3 12 ec 3d 7b 74 44 3d
       -0.013853271 -0.046240974 0.1152704 0.047962647
000100 0f a4 18 bd 80 30 83 bd e0 9a 41 3c c4 4c 7e bd
       -0.037265833 -0.06405735 0.01181671 -0.06208493
000110 58 41 16 3c 5a 9d b4 3d 7d 7a e7 bc 30 07 22 3d
       0.009170853 0.08819075 -0.02825665 0.039557636
000120 eb 12 40 bd b7 d2 75 3d c6 35 de 3d 76 43 07 3e
       -0.04689304 0.060015406 0.108501 0.13209328
000130 be d6 9d 3d e2 ba 9e 3d 30 f3 2a 3d 77 33 99 3d
       0.077069744 0.07750489 0.041735828 0.07480519
000140 8a 48 f9 bd 43 be d0 bc a3 a5 74 3c aa 93 fe 3d
       -0.12172039 -0.025481349 0.014932069 0.124305084
000150 72 39 ee 3b 31 db af 3b ca d6 b9 3d 0f 67 25 3d
       0.0072700316 0.005366706 0.09074171 0.040381487
000160 5b 8e d1 3d 16 95 8b bd 21 8f 5b bd ab c4 8c bc
       0.1023223 -0.06815545 -0.053603295 -0.017183622
000170 9c 04 a9 3c 90 22 eb bd 35 38 00 3d 1e d4 a5 3c
       0.02063208 -0.11481202 0.031303603 0.020242747
000180 03 90 f7 bd e2 6e 04 3b 60 9b f1 bd 6e a2 fc 3d
       -0.12088015 0.0020207693 -0.117972136 0.123356685
000190 0c ac b9 3a de 74 d4 bc a6 1b de bd 02 7e 8f 3c
       0.0014165654 -0.025934633 -0.10845117 0.01751614
0001a0 c8 4c 9c bd 10 7c e6 bd 84 3d 95 bb e7 5f 95 3d
       -0.07631832 -0.11254132 -0.0045544524 0.072936825
0001b0 f6 e3 41 bc f5 ba e5 bd ac d4 6b bb 9d d4 bc bd
       -0.011834135 -0.112173 -0.0035984917 -0.0922024
0001c0 69 d9 12 bd 02 50 0c 3e 47 f4 13 3d 9d 2a 19 3d
       -0.03585187 0.13702396 0.036121633 0.037394155
0001d0 d8 e2 60 bd 3c 4f 1c 3e 99 48 f6 bc bd c6 85 bd
       -0.054903835 0.152646 -0.030063914 -0.06532047
0001e0 1e b2 84 bd 62 3a e3 3d 21 cb 34 bd c6 b9 4f 3d
       -0.06479286 0.1109512 -0.04413903 0.050714277
0001f0 e4 f4 d4 3d c4 a2 5b 3d e7 74 58 3d e8 12 2f bd
       0.10398272 0.053622022 0.05284586 -0.04274264
000200 1f 9a ad 3d 4d d4 44 bc 8b f1 1e b9 87 e6 65 3d
       0.08476662 -0.012013507 -0.00015158036 0.05612805
000210 22 2c b7 bd d4 54 1b bc 6d dc 74 3c 1e ee 5b 3d
       -0.089439645 -0.009480674 0.014945132 0.053693883
000220 8d 2b d4 3d f7 7f db 3d e0 58 ee 3c 8c 89 aa 3d
       0.10359869 0.10717767 0.029095113 0.08327016
000230 84 f9 cd bd a9 70 ce bd b0 c7 c9 bd 0c 5d 94 3d
       -0.10057357 -0.10080082 -0.098525405 0.0724431
000240 a5 b5 58 bc 54 6c 45 bd 3d f5 55 bd 43 14 1a bc
       -0.013226901 -0.048199013 -0.05223583 -0.009404245
000250 6d c8 8f bd 63 f5 68 3d 91 81 e1 3c 18 67 23 3d
       -0.0702065 0.056874644 0.027527602 0.03989324
000260 f7 a4 bc bc 73 d7 04 3d e3 5e 7c 3c 6d d5 70 bd
       -0.02302788 0.03243203 0.015403482 -0.05879729
000270 83 f6 bd 3d b6 d1 6e bd 1b 2c 94 3d f8 9a b8 3d
       0.09275534 -0.058305465 0.07234975 0.09013933
000280 cc 10 e3 3d 7b 6e b3 ba 17 da ec 3c ee 2f c0 bd
       0.11087188 -0.0013689542 0.028912587 -0.09384142
000290 63 96 c6 bb d7 ac 4e 3c b6 36 34 3d bc 20 30 3d
       -0.006060408 0.01261445 0.04399749 0.042999968
0002a0 f9 e2 67 3c 23 92 72 ba 68 2f 2c bd f0 ae 05 3e
       0.014153236 -0.00092533435 -0.042037398 0.13055015
0002b0 a0 6a 82 3d 47 3c a5 ba 01 93 8d bd 76 ba 40 3d
       0.06367993 -0.0012606465 -0.069128044 0.047052823
0002c0 05 8a d6 bc fb d9 88 3d 7b 61 02 bd b5 9f 84 bd
       -0.02618886 0.066822015 -0.031831246 -0.06475774
0002d0 05 49 ce bd 82 7f 85 3c 81 0b 00 bd 98 85 dd 3d
       -0.10072521 0.016296152 -0.03126097 0.108164966
0002e0 30 21 91 3c e9 fc 62 3c c9 0e a5 bd 05 7e c1 bc
       0.01771602 0.013854244 -0.08059461 -0.023619661
0002f0 37 cb af 3d e0 3e a1 3d ef 50 29 bc 78 24 13 bc
       0.08583682 0.078733206 -0.0103342375 -0.008980863
000300 8b d5 88 bd af d6 4f 3d 58 c9 04 bd a4 8d 76 3d
       -0.06681355 0.050741848 -0.03241858 0.060193673
000310 62 e9 77 3d be 76 00 3d a0 6d f9 bd 5b 68 45 bd
       0.060525306 0.03136324 -0.121791124 -0.048195224
000320 24 1c 90 3c 02 63 a0 3d cb c3 f8 bb 20 73 33 3d
       0.017591543 0.07831384 -0.0075916997 0.043810964
000330 7a 12 fa bd c6 43 10 3d da 57 c2 bb 1e c8 9d bd
       -0.122105554 0.035220884 -0.005930883 -0.07704185
000340 4a 8d 74 bc b2 4e ea 3d ec ff c5 3d e0 01 04 3e
       -0.014926264 0.11440791 0.09667954 0.1289134
000350 8c fe d4 ba e9 e6 3f 3d a3 99 f4 3d ee fe 79 3d
       -0.0016250177 0.046851072 0.119433664 0.061034136
000360 d9 bd d0 bd 7d 78 94 3d 8e 5a c9 3d d1 06 a2 bd
       -0.101924606 0.07249544 0.09831725 -0.079114564
000370 9b 32 8e bd 97 61 be 3d dd c4 a6 bd c3 c3 8a bd
       -0.06943246 0.092959575 -0.081430174 -0.0677562
000380 16 96 e6 3c 95 c3 dc bd 49 37 5b 3d 02 7e b2 bd
       0.028147738 -0.10779492 0.05351952 -0.0871544
000390 72 1c b6 3d 79 26 01 3d 6d c8 f7 3d 52 dd 0c be
       0.08892144 0.03153083 0.12098775 -0.13756302
0003a0 92 e8 a9 3d 6d 3e 1a 3d 2c 90 a6 bd 6d 5b 0d be
       0.082963124 0.03765719 -0.08132967 -0.13804407
0003b0 59 02 e7 bd 07 0e 14 3e 18 4a a7 bd 87 04 d6 3c
       -0.11279745 0.14458476 -0.08168429 0.026125206
0003c0 40 08 8f bd d3 81 32 bd 42 44 f4 3d 68 84 be bd
       -0.069839954 -0.04358084 0.11927082 -0.09302598
0003d0 4d 3e 7c bc b8 3a ac 3d db 1d 9a bd 44 83 29 3d
       -0.015395713 0.08409637 -0.07525226 0.04138495
0003e0 f3 c3 0d 3e 55 8e e9 3d 08 7c 0f 3e 79 ad a2 3d
       0.1384428 0.11404101 0.14012158 0.079432435
0003f0 22 cb ce bd 7e 5f 84 bd 18 fb 1d 3c 02 90 be 3d
       -0.10097338 -0.06463526 0.009642385 0.09304811

rnn.weight_hh_l0 f4 [400, 100]
000000 4b e1 23 bc f4 8b 8b bd a9 01 c6 3d f7 5a 2b 3d
       -0.0100024445 -0.06813803 0.096682854 0.041834798
000010 7e f1 85 3d 1b 80 5b bc a3 b7 b2 3c 6d 87 90 bd
       0.065402016 -0.013397242 0.02181608 -0.070570804
000020 7e 0b ae 3d bc 8a 02 bd 7d 8e fc bc b9 70 b6 bd
       0.08498286 -0.03187059 -0.030829662 -0.08908219
000030 6f 56 8f bd c6 04 84 3d 4f dc 9a bd 72 63 af 3d
       -0.06998908 0.06446223 -0.07561552 0.085638896
000040 9a e2 56 3d 80 c5 80 3d 5a 73 b6 bd 2b 15 8f 3d
       0.052462198 0.0628767 -0.0890872 0.06986459
000050 b0 12 4f 3d 08 2d 46 3d 49 2e 78 3d ec 27 b1 bd
       0.05055493 0.04838279 0.060591016 -0.086501926
000060 5b b4 1b bd ee 16 80 3d 32 34 10 3d 66 8b 61 3d
       -0.038013797 0.062543735 0.035206027 0.05506458
000070 10 7a 99 3d 62 68 49 bc 3e af e6 bd 93 9e d1 3d
       0.07493985 -0.012292953 -0.112638935 0.10235324
000080 7d fa 25 bd 14 4c 4f 3b 8d a1 c5 3c 96 74 76 3d
       -0.040522087 0.003163104 0.024124885 0.06016978
000090 bd 56 8f 3c 3b b5 24 bc 19 93 83 bd 33 da cf 3d
       0.017497415 -0.010052974 -0.06424541 0.1014904
0000a0 35 e7 94 3d e2 20 c3 bd 8c da 6b 3a fd c8 1b 3b
       0.07270662 -0.09527756 0.00089971046 0.0023770921
0000b0 ec 44 0a 3d b1 b5 d3 ba 7d c5 3f 3c b9 fd 52 bd
       0.033757135 -0.0016152171 0.0117048 -0.0515115
0000c0 d2 1c 94 bd 2f 35 ce 3b 0a 25 a0 bd 45 c0 0b bd
       -0.072320595 0.006292961 -0.07819565 -0.03411891
0000d0 fd 6b 0a 3d b7 40 19 3d 94 29 8c bd 08 26 b8 bc
       0.033794392 0.037415233 -0.06843868 -0.022479072
0000e0 d1 5c 9f 3d 54 69 87 bd b3 16 d6 3c 0f 8a 65 3d
       0.07781375 -0.066118866 0.02613387 0.056039866
0000f0 cb ec 5d 3d 49 f0 99 bd ed 05 9e 3d bc 0e a3 3d
       0.0541809 -0.07516534 0.07715974 0.07961795
000100 d1 d9 ea bd 01 3a 37 3d 1a 7a b6 3d 53 ec b1 3d
       -0.114673264 0.04473305 0.08910008 0.086876534
000110 9d d1 54 bd 44 61 6a 3d 02 7b be 3b a6 86 da 3b
       -0.051957715 0.057221666 0.0058130035 0.0066688834
000120 78 af a5 bd c8 65 82 3d d0 25 a7 bc e8 52 e4 bd
       -0.08090109 0.063670695 -0.020403773 -0.111486256
000130 c8 46 b8 bd 1e be 8b bd b9 7e 85 bd 81 df de 3b
       -0.089978755 -0.06823371 -0.06518311 0.006801546
000140 83 85 c1 bd 38 60 e8 3d a2 75 34 bc b2 bb f3 3c
       -0.094492935 0.11346477 -0.011014374 0.029752586
000150 83 ef ab bd 8e fc bb 3d fd 32 5b 3d 92 42 7e 3b
       -0.083952926 0.0917903 0.053515423 0.0038797003
000160 12 51 29 bb 7c 07 8d 3d 82 6f 67 bb 57 e4 0b 3d
       -0.0025835675 0.06886193 -0.0035314267 0.03415331
000170 92 17 12 3d 63 ea af 3d 02 25 04 3d 72 7e 8b 3d
       0.03566701 0.085896276 0.032261856 0.06811227
000180 2f bd 5d 3d d1 62 07 3b c8 fd 2d 3d 26 32 aa 3b
       0.054135498 0.0020658264 0.042478353 0.0051939664
000190 2f 07 a4 bd 8d e6 f9 bb 8d d3 a3 bc 37 9c ce bd
       -0.08009183 -0.0076263607 -0.019998336 -0.10088389
0001a0 e6 4d 30 3c 34 ee 78 3d bb f3 d1 3d 4b 93 03 bd
       0.01076076 0.060774043 0.10251566 -0.03212289
0001b0 87 ac 22 3d ff b5 a6 3d 76 b8 98 bc 26 0e 3c 3d
       0.039715316 0.08140182 -0.018642645 0.04591193
0001c0 d4 ac b8 bd 89 b3 a7 bd 05 aa 6e bd 6b 2c f2 3c
       -0.09017339 -0.081885405 -0.058267612 0.029562196
0001d0 e0 4a b6 3d f2 8f 63 3d 41 e8 89 bd d1 c7 24 3d
       0.08901 0.0555572 -0.06733752 0.040229622
0001e0 e1 e8 42 bd fd e0 c2 3d 9d d2 00 3d e2 78 53 3c
       -0.047585372 0.09515569 0.031450856 0.012907239
0001f0 69 f3 d6 3c fc ff c8 bc 63 79 f0 bb b1 90 91 3d
       0.026239114 -0.024536125 -0.007338689 0.07107676
000200 c4 32 c6 bc 6d 6e ac 3d 5a b1 d0 bd e1 52 9c bc
       -0.024194129 0.084194995 -0.10190077 -0.019082488
000210 fb 9e a5 bc 32 f3 d2 3d d5 16 dd bd ff be 9e bd
       -0.02021741 0.10300292 -0.107953705 -0.07751273
000220 f8 db 89 3d 17 77 0b 3c 31 0e b8 3b d0 85 c3 3c
       0.06731409 0.00851228 0.005616926 0.023867518
000230 0c cd 1f bd f8 1b 89 3d 10 28 83 bd d9 3d 01 be
       -0.039013907 0.06694788 -0.06404126 -0.1262125
000240 8e ca e1 3c 84 39 18 bd 33 3f 03 bd db df 8a 3d
       0.027562406 -0.037164226 -0.032042693 0.06780978
000250 8b cc 53 3d ae ee 21 3d 74 34 9b 3d 56 41 8f bd
       0.05170874 0.039534263 0.07578364 -0.06994884
000260 a4 82 a1 3d 64 bb eb 3c 10 1c 72 3c 3b d3 19 bb
       0.07886246 0.028775878 0.014777198 -0.002347185
000270 2c c6 bf 3d f3 69 ec bc 36 5e 2c 3b ef b1 80 3b
       0.0936397 -0.028859114 0.0026301271 0.0039274613
000280 ec 8c b0 bd 33 0d b3 3d 3d 7b 20 bc 8e a9 34 bc
       -0.08620629 0.08742752 -0.009795007 -0.011026753
000290 c6 72 86 bd ef e9 14 bd ff 52 34 3c 64 d4 70 bd
       -0.0656486 -0.03635591 0.011006116 -0.0587963
0002a0 e6 24 20 3d 2e 25 36 3d c6 f4 08 3b 4c 26 8b bc
       0.03909769 0.04446905 0.002089785 -0.016986035
0002b0 52 62 90 3c f8 d0 48 3d e9 96 89 bc 7b 9c cd 3d
       0.017625008 0.049027413 -0.016795592 0.10039612
0002c0 20 4a ee bd 91 6e 09 3d f3 3f 38 3d a4 58 7f bd
       -0.11635232 0.03355271 0.04498286 -0.062340394
0002d0 03 2f 56 3d f1 3d 40 3d 7c 3f 5a bd 57 2e 1a 3d
       0.052290928 0.046934072 -0.0532832 0.03764185
0002e0 98 8a 94 3c d9 93 27 3b dc 6d b8 bc a1 8f 9f bd
       0.018132493 0.0025570302 -0.022513323 -0.07791067
0002f0 b7 e8 d8 bc 51 6d 27 bd a7 69 d4 3c 85 f1 a4 bd
       -0.026478155 -0.040875737 0.025929285 -0.08053879
000300 a2 3e af 3d 78 77 d9 3d 3f 38 b3 3c ae 78 8e 3d
       0.08556868 0.1061849 0.021877406 0.069566116
000310 73 f8 b2 3c 95 de 3e 3d bb 46 ad 3d 58 30 eb bd
       0.021846985 0.04659899 0.084607564 -0.1148383
000320 5d c7 d5 bd f6 d2 92 bc 69 ca fe bc d6 f5 3a bd
       -0.10438416 -0.01792286 -0.031102376 -0.045644604
000330 72 8d cb ba a0 d9 be bd 89 70 ab 3d 7f b2 1a bd
       -0.0015529825 -0.093188524 0.08371074 -0.037767883
000340 fc 69 15 bd 73 c7 25 3c e8 11 ce 3d 6c fa 89 bd
       -0.036478028 0.010118353 0.10062009 -0.06737217
000350 39 58 9a bc 27 a2 ea bd 4c 53 77 3d c1 28 83 bc
       -0.018840896 -0.11456709 0.060382172 -0.016010644
000360 89 68 4c bc 7b 36 b1 bd 77 70 c5 3d 1d a0 81 3c
       -0.012476095 -0.086529694 0.096405916 0.015823418
000370 62 3d 94 3d b5 0f 9b 3d 40 31 98 3c bc e4 e0 3c
       0.0723827 0.07571355 0.018578172 0.027452819
000380 0c 4a 15 3d be 85 f1 3d 3c 5e 27 bc d9 3e 79 3d
       0.03644757 0.117930874 -0.010215338 0.06085095
000390 f4 ea d6 bc 9f 0c 0f 3d c4 d9 62 bd 38 5c a2 3d
       -0.026235081 0.034924146 -0.05538346 0.079277456
0003a0 28 6b 1b bd 75 2d 9c 3d c0 24 ad bd 59 e0 c4 bc
       -0.03794399 0.07625858 -0.08454275 -0.024032759
0003b0 44 d0 b3 3d 61 d7 ca bd d3 70 e3 bc b6 0b 95 3d
       0.08779958 -0.099043615 -0.02776376 0.07277624
0003c0 ec 78 1d bd 50 66 c9 bc 37 7e 48 3d d4 ef 77 bc
       -0.0384454 -0.02458492 0.048948493 -0.015132863
0003d0 c3 06 ad 3d 3d 3a 9b 3c 7c ff d7 3d af 4c 43 3d
       0.08448555 0.018948669 0.10546777 0.047680553
0003e0 fb 71 25 bd ac da 8a bd f2 dc 81 bc a7 80 7f 3c
       -0.040391903 -0.067799896 -0.015852425 0.015594638
0003f0 8a f9 21 bd 1f 12 01 3c d6 70 22 bc 40 be 26 3d
       -0.03954462 0.007877856 -0.0099145975 0.04070878

rnn.bias_ih_l0 f4 [400]
000000 ed d5 2f bd ea ba 5c bd 27 96 0d bd 20 df 77 3d
       -0.042928625 -0.053889193 -0.034567025 0.060515523
000010 04 d0 66 bd 1f 4f 85 3d f6 e9 a5 3b 1d 81 22 3b
       -0.056350723 0.06509232 0.0050632907 0.0024796196
000020 cb cb c8 bd a5 8f b3 3d e0 d2 8b bd f7 75 58 bd
       -0.098044954 0.087676324 -0.068273306 -0.052846875
000030 a7 35 82 3d d3 96 8f 3c 53 b1 9d bc 2c 33 b0 bd
       0.063578896 0.017527973 -0.019249594 -0.0860351
000040 ea 7b d9 bc 06 99 7f bd 08 c5 12 3d a7 11 63 bd
       -0.026548345 -0.062401794 0.035832435 -0.055436756
000050 f1 0f 04 3e d4 5f b3 3d b7 70 84 bc 73 37 92 3c
       0.12896706 0.08758512 -0.016167028 0.017848706
000060 16 c8 2a 3d 27 6a 8f 3d fc 66 69 bd d2 de 09 3e
       0.041694723 0.07002669 -0.05698298 0.13463905
000070 6c c4 90 bc 8c 5b bd bd a0 4d f2 3c 08 3d 8e 3c
       -0.017671786 -0.09245977 0.02957803 0.017363086
000080 d2 02 63 bd 66 1c d0 bd 6d b2 f8 bc 20 f4 d8 3d
       -0.05542261 -0.101616666 -0.030358518 0.10593438
000090 4f 23 08 3e ac 32 9e 3d ec f7 0b 3d 2c 39 9d 3d
       0.13294719 0.07724509 0.034171984 0.0767692
0000a0 34 7d e8 3c b4 92 68 3d 77 30 85 bd 80 05 a4 bd
       0.028380014 0.056780532 -0.065033846 -0.080088615
0000b0 44 9d a7 3d fb 49 a1 3d 64 f9 8e bd b1 5a 87 bd
       0.08184293 0.07875439 -0.06981161 -0.06609095
0000c0 65 8a dc bc 15 fd 6d 3d 7d 2e 27 3d d2 70 a4 3d
       -0.02692146 0.058102686 0.04081582 0.08029331
0000d0 13 d5 3d bc 6b 6e a2 3d 3d 99 91 bd dd 6e 07 3d
       -0.011586445 0.07931217 -0.07109306 0.03306471
0000e0 b9 01 ea 3c 75 db 19 bd 64 61 95 bc 29 28 e1 bb
       0.028565275 -0.037562806 -0.018234916 -0.0068712425
0000f0 fd 97 3b bd fb f2 d0 3d 14 1b 5f bc 10 5d 91 3c
       -0.045799244 0.10202595 -0.013617296 0.017744571
000100 98 74 2b 3d a0 be 24 3d c4 c0 b4 bc 71 f1 c8 bd
       0.04185924 0.040220857 -0.022064574 -0.09811676
000110 d8 b2 d9 3d 2c 65 d9 3b c9 c5 5a 3d 7f 83 10 bc
       0.10629815 0.006634375 0.05341128 -0.008820414
000120 c7 b0 77 bb b6 3c 63 3d 3f 62 50 bd 37 d3 2d bd
       -0.0037794576 0.05547782 -0.050874945 -0.04243776
000130 d0 ec c4 3d e7 72 76 3d 72 8f 3c 3d c6 ed 20 3d
       0.09615481 0.060168173 0.046035238 0.03928926
000140 79 40 fd 3d 9d 62 05 3d 03 23 8d 3d e5 a9 12 bd
       0.12365813 0.032564748 0.068914436 -0.035806555
000150 7d 54 bf 3c 3f 5b 69 bd 65 51 bd bc 65 36 8a bd
       0.023355717 -0.056971785 -0.023110101 -0.06748656
000160 f5 7c ea 3d 2b 7e 72 bd 12 95 af bd aa 8f bf 3d
       0.11449615 -0.059202354 -0.08573355 0.093535736
000170 d0 e7 de 3d 4e 48 66 3d 14 51 97 bc 5e fe e7 3d
       0.108840585 0.0562213 -0.018471278 0.113278136
000180 f8 9d 0c bd 7c c8 42 3d 64 17 9e 3d 23 21 9f 3d
       -0.03433034 0.047554478 0.07719305 0.07769992
000190 07 21 94 bd 92 ff 37 bd ca a5 d1 3c d5 c1 03 bd
       -0.07232862 -0.044921465 0.02559175 -0.032167275
0001a0 f5 76 f6 3d 59 4f ad 3d 34 6c 7e 3d 35 6e 70 bc
       0.12034408 0.084624 0.06211491 -0.014674713
0001b0 5c 34 aa 3d be c7 7a bd de 09 bc 3d 01 e2 f7 3c
       0.08310768 -0.061225645 0.091815695 0.030259134
0001c0 f0 1e 73 bc 3f 7e f3 3a 4a 0e bf 3d 04 9b 41 bd
       -0.014838919 0.0018577053 0.09328897 -0.047266975
0001d0 ca de 49 bd a0 dc 68 3d 17 10 b9 bd 39 f6 2f bc
       -0.049284734 0.05685103 -0.09036272 -0.010739856
0001e0 bf f8 8f 3d b9 04 af 3d 52 df 51 3d 10 b6 b9 bd
       0.070298664 0.08545823 0.051238365 -0.09067929
0001f0 f4 28 b6 3d e7 c3 ba 3d d6 1d 84 bd 9c 9d 5a bc
       0.0889453 0.09119397 -0.06451003 -0.013343241
000200 7f 22 7c bc bf c2 5a bd b9 93 be 3d 2c 06 ad 3d
       -0.015389084 -0.05340838 0.093055196 0.08448443
000210 de 12 03 3d 7d 50 a5 3d bb 06 6e bb e7 4e 2f 3d
       0.032000415 0.080719925 -0.003631993 0.042799857
000220 dc a8 26 bd f9 05 30 bd b5 f6 ab 3d 9a bf a9 3d
       -0.04068838 -0.042974446 0.08396665 0.08288498
000230 09 10 c7 3d 2f 03 04 ba 82 68 d4 3d ab 93 5d 3d
       0.09719855 -0.0005035875 0.10371496 0.054095905
000240 8a 72 44 3a 36 e8 bd 3d 29 cd 9b 3d ef 80 14 3d
       0.0007493874 0.09272806 0.076074906 0.036255773
000250 b7 f5 74 bd bb 7b 8d bd 60 9c 98 3d 8d 2c ae 3d
       -0.059804644 -0.06908365 0.07451701 0.08504591
000260 c5 72 97 bd c8 b0 95 3c e0 bf 19 3c 1b 05 14 bd
       -0.073949374 0.018272772 0.0093841255 -0.03613768
000270 23 59 17 bc 08 3f af bc bc 2f 84 3d c1 eb 4b bd
       -0.00923756 -0.02139236 0.06454417 -0.04978538
000280 8f 55 b2 3d dc 52 f4 3c 8d 4b c3 bc ca b3 a5 3d
       0.08707725 0.029824667 -0.023839736 0.08090933
000290 54 86 1a bc 6a 95 7a bd ec af 81 bb 0a bb ff 3c
       -0.00943144 -0.06117765 -0.003957739 0.031217117
0002a0 0c 7a 2c bd 99 a9 fc 3d a6 15 9f 3c e2 10 3e bc
       -0.04210858 0.12337036 0.019419502 -0.011600705
0002b0 fa 6d 6a bd b3 68 9c 3c 0f 2d fc 3d 50 b4 83 3d
       -0.057233788 0.019092893 0.12313282 0.06430876
0002c0 35 09 55 bc d3 9f d6 3d f3 50 63 bd 42 82 48 3d
       -0.013002683 0.10479703 -0.05549712 0.04895235
0002d0 9f ba e9 3c 23 a4 65 3d f8 4f 57 3c da 45 81 3c
       0.02853137 0.056064736 0.013141625 0.015780378
0002e0 c1 c6 31 3d 96 a7 98 bd d4 be 9b bc 63 00 92 3d
       0.043402437 -0.074538395 -0.019011892 0.0712898
0002f0 69 86 c2 bc 9c ae b5 bd 42 7d 07 bd 84 89 8f bb
       -0.023745732 -0.08871195 -0.03307844 -0.004380407
000300 ee 06 92 3d 5e 87 b6 3d 89 e7 b8 3c 5a ec 28 bc
       0.07130228 0.08912538 0.022571342 -0.010310257
000310 b2 af bd 3d 54 95 bf 3d f8 51 f3 3d 9c 32 da bd
       0.09262027 0.09354654 0.11880869 -0.10654184
000320 79 c3 c2 bd 00 1b 09 3d d0 07 67 3d a0 be ce bd
       -0.0950994 0.033473015 0.056403935 -0.100949526
000330 8f 56 3c 3d e5 98 d9 bd ca ac b2 3c d1 d8 42 3d
       0.045980986 -0.106248654 0.021810908 0.047570053
000340 61 62 95 3b 73 0c ac bd da 5b ea 3d 9d a4 a5 bd
       0.004558847 -0.08400812 0.114433005 -0.08088038
000350 a3 e2 e7 bc 8d a6 5c 3c bd 9a 14 3d 02 08 eb 3d
       -0.028306311 0.013467443 0.036280382 0.11476137
000360 9b 18 bd 3b 92 5d a5 bd 97 49 a6 bc 29 99 85 3d
       0.0057707555 -0.08074488 -0.020298762 0.065233536
000370 65 6b c9 bc 85 40 75 3d eb 33 44 bd 40 da 1f bd
       -0.024587343 0.059875984 -0.047901075 -0.0390265
000380 0f fa 73 3d df f7 e8 3c e8 06 8e 3c 51 9d aa 3d
       0.059564646 0.028438507 0.017337278 0.08330787
000390 9f 3d 87 3d 16 1e 58 3d f6 63 0e bd 06 06 2d 3d
       0.0660355 0.052763067 -0.0347633 0.042242073
0003a0 d3 38 62 3d b7 a3 05 bd 62 48 a0 bd 2e 1b 7b 3d
       0.055229973 -0.032626834 -0.07826306 0.061305217
0003b0 74 10 0b 3d 08 71 90 3d f9 96 aa bd 4a a5 ac 3d
       0.033951238 0.07052809 -0.08329577 0.08429964
0003c0 44 3b 88 3c ee bc d4 bd 5f 5d 44 bd c5 ee f8 bd
       0.016629823 -0.10387598 -0.047940608 -0.12154917
0003d0 e5 36 2f bd 60 c1 5d bd e8 85 06 3b a3 ef 1b 3d
       -0.04277696 -0.054139495 0.0020526592 0.038070332
0003e0 ef a6 bb 3c 0e 78 4e 3d c6 ab 94 bd 86 5d c2 bd
       0.022906749 0.05040746 -0.07259326 -0.094904944
0003f0 ca e1 18 bc 00 ca 8e bd cf 4d 9a bc 6f 1f 72 3b
       -0.009331176 -0.06972122 -0.01883593 0.0036945005

rnn.bias_hh_l0 f4 [400]
000000 94 bc 90 bc 77 3a fe 3c 0f e7 ca 3d c0 89 36 3d
       -0.017668046 0.031033738 0.09907352 0.044564962
000010 57 80 8c 3d d0 d1 28 bd ec c9 9f bc 8f af 46 3d
       0.068604164 -0.041215718 -0.019505464 0.04850727
000020 92 56 9c 3c b6 70 06 3e 1e ee 08 bc 95 58 11 3d
       0.019084249 0.13128933 -0.008357553 0.03548487
000030 59 c9 45 3d f1 78 f3 3d b3 e6 fa 3c 9f 81 ff 3c
       0.048287723 0.11888302 0.030627584 0.031189738
000040 df a1 32 bc b4 81 2d bd 08 a7 58 3d 46 8c 9f bb
       -0.010902851 -0.042360023 0.05289367 -0.004869017
000050 bf 75 c9 3d e6 bc b2 3d d6 e9 cd 3d e9 3a 04 bd
       0.098369114 0.08727436 0.10054366 -0.032282744
000060 2b 5d 53 bd 1a 80 ef 3c 16 c9 58 3d 6a 19 40 bd
       -0.051602524 0.029235888 0.052926145 -0.046899237
000070 9d 59 db ba a9 59 4b 3c a4 d4 57 3d 11 83 44 3b
       -0.0016735081 0.012411513 0.052693024 0.0029985348
000080 0a ee 35 bc f6 96 47 bc 3b 8a 99 bc f0 c4 9f 3d
       -0.011104116 -0.012181988 -0.018742671 0.07801235
000090 15 0f ba 3d f0 dc ce bc 95 ef fb b9 b1 a1 71 3d
       0.09084908 -0.025251836 -0.00048052953 0.05899209
0000a0 3d 5a 44 ba 1c 6c 30 bd a8 81 23 bd 4a 7a 6e bc
       -0.0007490253 -0.04307185 -0.03991857 -0.014555523
0000b0 bb 4f 6d 3d ca 77 78 bd 70 29 ad bc 0a a4 11 3d
       0.057937365 -0.060661115 -0.021137923 0.03555683
0000c0 1e 3a cd 3d a0 f4 be 3d 41 33 a4 3d 61 35 08 3e
       0.100208506 0.09324002 0.080175884 0.13301612
0000d0 5a 59 84 bc 76 43 bb 3d 20 5a 7b bd 7f dd 0a 3e
       -0.016155887 0.091437265 -0.061365247 0.13561057
0000e0 7e 34 be 3d 49 33 92 3b 43 41 72 3d ef b9 54 bc
       0.09287356 0.00446168 0.05914427 -0.012983783
0000f0 6a a7 59 39 7c 52 b5 3d ae 9a f2 3b 97 60 98 bd
       0.00020757099 0.08853623 0.007403693 -0.07440298
000100 04 01 9e bb f5 75 8a bd b1 06 37 3d 17 da 86 3d
       -0.0048218984 -0.0676078 0.044684116 0.06584566
000110 39 dd fb bc f4 13 6d bd eb 69 49 bd 31 9d 04 3d
       -0.030745136 -0.057880357 -0.049173277 0.032376472
000120 3e 60 21 bd e2 6d bb 3c c6 bc 3c 3d dd 83 27 bd
       -0.039398424 0.022879545 0.046078466 -0.04089724
000130 09 6a be 3c 8a 56 6a bc 60 62 96 3d 21 c5 ab 3c
       0.02324392 -0.014302859 0.07342982 0.020968022
000140 17 10 dd 3d 9d 10 d8 3d ca 47 a4 bd b0 a6 a9 3d
       0.107940845 0.10550044 -0.08021505 0.08283746
000150 35 6c d2 bc 7b c2 87 bd b2 9f 92 3d bc 01 8f 3c
       -0.025686363 -0.06628891 0.07159366 0.017456882
000160 a8 2e e9 3b 95 24 c3 bd 7b 00 f7 3c 2d 86 f7 ba
       0.0071161576 -0.09528462 0.030151596 -0.0018884592
000170 1a 4f 11 bd db 0e 71 3d 8b 50 56 bd 28 bb a0 3d
       -0.035475828 0.058852058 -0.052322906 0.07848197
000180 5f da 04 3d 52 44 71 bd 12 43 72 3d 3d 37 7e 3c
       0.032434817 -0.058903046 0.059145994 0.0155160995
000190 ff 0d a9 3b eb ce 48 bd 37 32 02 3d de 5f 90 3d
       0.005159139 -0.049025457 0.03178617 0.07049535
0001a0 4d b2 fc bc 31 ad 93 3d d7 a3 4d 3d 36 b8 ca bd
       -0.03084674 0.07210768 0.050205078 -0.09898417
0001b0 d1 8b b0 bd a3 0b bd 3d 4f be 56 bd 8e 37 6b 3d
       -0.08620418 0.09230735 -0.052427586 0.057426028
0001c0 1d 66 0a bd 9b c1 0e bd 28 ab 87 3c 78 6b fc bb
       -0.03378879 -0.034852605 0.016561106 -0.007703241
0001d0 bb df 96 3a 13 d6 11 3d 92 5b b4 bc 1c 33 76 3d
       0.0011510769 0.035604548 -0.02201632 0.060107335
0001e0 6a 4a c4 3d 89 52 bd 3d ff 15 68 bd ef 6c ab 3d
       0.09584506 0.09244258 -0.056661602 0.08370387
0001f0 c6 2b 52 3d 58 e8 b2 3d b9 82 ce 3d 62 27 8e bd
       0.051311277 0.08735722 0.10083527 -0.069411054
000200 b8 4b 89 3d 82 aa 18 bd ed 25 ef 3d d9 e7 0d 3c
       0.06703895 -0.037271984 0.11677156 0.008661234
000210 18 d0 68 3d 38 66 67 ba db d9 9f bb 98 54 b5 3d
       0.05683908 -0.00088271825 -0.0048782653 0.088540256
000220 c3 ad 40 bd 48 11 76 bd 37 27 98 3b 16 86 ec bb
       -0.047040712 -0.060075074 0.0046433466 -0.0072181327
000230 f7 9c be ba 92 cf 00 bd 9a 16 9b 3d 89 36 ef bc
       -0.0014542629 -0.031447954 0.0757267 -0.02920081
000240 99 dc 21 bc d7 93 43 3d 1f 3e 6f bd c6 26 bc 3c
       -0.009879255 0.047748413 -0.058408853 0.022967707
000250 9f 87 8a 3d c2 4c 6d bc 94 68 17 bd ad 98 38 bd
       0.06764149 -0.0144836325 -0.036964968 -0.045067478
000260 50 93 05 bd 4d 79 09 bd 9e e6 0f 3d 7c 46 51 3d
       -0.03261119 -0.033562947 0.035132043 0.05109261
000270 3a 6e cd 3c 33 31 43 bd 4a ca 75 bd 64 af 4a 3d
       0.025076974 -0.047654342 -0.06000737 0.04948367
000280 87 7f 84 3d 11 61 ea ba b7 c1 af bd d0 e4 b7 3d
       0.064696364 -0.0017881711 -0.0858187 0.089791894
000290 60 c5 97 3d 47 1d 86 bd a6 27 da bd 71 3c 82 3c
       0.07410693 -0.06548553 -0.106520936 0.015897961
0002a0 f9 0a 79 bd 5f f7 0f 3d 93 86 50 bd ac 01 d6 3d
       -0.06080148 0.03514802 -0.05090959 0.10449538
0002b0 d6 8a 26 bd d6 46 66 bd 39 ad dc bc ac ca c8 bc
       -0.040659748 -0.0562199 -0.026938068 -0.024510704
0002c0 2a 10 f5 bc cd be a5 3c 73 14 b1 bc 00 89 a4 bd
       -0.029914934 0.020232582 -0.021616196 -0.08033943
0002d0 80 c7 90 bb 73 d8 85 3d e8 6e ce 3d d8 c2 17 bc
       -0.0044183135 0.06535425 0.100797474 -0.009262763
0002e0 48 da 09 3c a8 b6 24 3d 46 26 ec 3c 3b ab 88 ba
       0.008413859 0.040213257 0.028826844 -0.0010427007
0002f0 23 24 de 3b 04 cc dc bd 2a 7a 71 3d ef 94 eb 3c
       0.00677921 -0.107811004 0.058954395 0.02875754
000300 71 f4 9a bd 24 da c9 3c 2e dd 87 bd 06 aa a3 3d
       -0.07566155 0.02464015 -0.066339836 0.07991414
000310 41 ed 97 bd 4d 2d a2 3d fe 3d 92 3d 7c 8f 15 3d
       -0.074182995 0.07918797 0.0714073 0.03651379
000320 0b 41 57 bd 16 c8 0e bd dd 19 aa 3d 54 e5 a5 bd
       -0.052552264 -0.034858786 0.08305714 -0.081003815
000330 5e 41 3b bd a9 25 93 bb a3 03 53 3d cb 58 c1 bb
       -0.045716636 -0.0044905734 0.05151714 -0.0059004775
000340 f6 e4 17 bc d7 13 c0 bd eb dd 87 3d e8 fb 07 3c
       -0.009270897 -0.09378784 0.06634124 0.008299805
000350 38 01 d2 bd 01 f1 f4 3c 88 f1 bd 3c a1 c0 70 bc
       -0.10254139 0.029900076 0.02318646 -0.014694364
000360 0d 01 b4 3d 7d a5 ce 3c 6e 6c df 3d 35 d2 82 3d
       0.08789263 0.025225395 0.10909353 0.0638775
000370 f7 3c d8 3d 37 f0 88 3d 0c 79 e6 bc d4 2e 2d 3d
       0.10558503 0.06686442 -0.028133892 0.042280987
000380 7d e4 0e bc 58 ac bd 3d 71 96 c0 bd e9 ac 19 bd
       -0.008721468 0.092613876 -0.094036944 -0.037518416
000390 fd f4 71 3c f4 c7 96 3d 64 36 51 bd c4 b5 60 3d
       0.014767882 0.07362357 -0.05107726 0.054860845
0003a0 ca 6c ef 3d a6 fa 81 3d 3a fc 90 bd f9 8e a3 3d
       0.11690672 0.063466355 -0.070793584 0.07986254
0003b0 5c b3 6c bc 28 8e 87 3d 40 d5 3a 3d 9e 35 43 3d
       -0.0144470595 0.06618911 0.045613527 0.047658555
0003c0 14 16 27 3d b8 9b bc bd 68 4d c9 3c 0a 38 f7 bd
       0.04079254 -0.092093885 0.024573043 -0.120712355
0003d0 96 4b 4c ba f0 6a c1 bd a0 9c 0e bd 30 b2 da bd
       -0.00077932456 -0.09444225 -0.034817338 -0.10678518
0003e0 37 97 88 bd d2 e0 64 bd d0 c0 db 3c 3a a9 87 3d
       -0.06669467 -0.055878468 0.026825339 0.06624074
0003f0 ac af ac bd a0 96 66 3d 4c 79 fc bc 50 89 92 bd
       -0.08431944 0.05629599 -0.030819558 -0.071550965

linear.weight f4 [1, 100]
000000 49 04 f1 3d b4 fc 4c 3d ab a8 ea bd 94 af 03 3e
       0.117683955 0.050045684 -0.11457952 0.12859946
000010 7b d4 b0 bd 7f 0d e6 3d 08 5d f2 3d a7 dc 69 3c
       -0.086342774 0.11233043 0.118341506 0.014273799
000020 02 63 53 bd 5e b3 06 3e 2a 78 8a 3a 73 fb af 3d
       -0.051608093 0.1315436 0.0010564376 0.08592882
000030 7e 84 a6 bd 6b d1 15 3e eb cf 12 3e 53 06 96 bd
       -0.0813074 0.14630668 0.14337127 -0.07325425
000040 84 61 bc bd 6d 08 8a bd 14 cc b1 3c 07 11 10 be
       -0.09198287 -0.06739888 0.021703757 -0.14068995
000050 82 10 01 be 14 5a 9d 3d 3c 80 eb bd 3f cd 98 3d
       -0.12603953 0.07683197 -0.11499068 0.074610226
000060 7a 7b b5 3d aa 15 11 bd a0 9b 93 3d a1 dd a1 bd
       0.08861442 -0.03542105 0.072074175 -0.079036005
000070 94 89 ab 3d 15 bd 08 bd de ec ca 3d 4d 59 c0 bb
       0.0837585 -0.033383448 0.0990846 -0.0058700205
000080 6b fe dd bc 22 ba 30 bd 26 85 fc 3c 53 ab 60 bd
       -0.027098855 -0.04314626 0.030825209 -0.054850888
000090 54 61 00 be 31 45 03 3e e7 ef 57 3b f0 30 de 3d
       -0.12537128 0.12819363 0.003294939 0.10849178
0000a0 ca 68 1a bd 43 bf 30 3c c9 be 42 3d 17 50 f1 39
       -0.03769759 0.010787788 0.04754523 0.00046026774
0000b0 06 41 f0 bd 0e 5b 3a 3d 99 10 ae bd ec 8c ff 3d
       -0.11731152 0.045496993 -0.084992595 0.124780506
0000c0 5c cc 3e 3d b7 f6 95 bc d7 55 97 3d 07 5e 12 3e
       0.04658161 -0.01830612 0.073894195 0.14293681
0000d0 70 2e 49 bd cf 77 28 bd 9b 87 d2 3d 84 f5 05 3e
       -0.049116552 -0.041129883 0.10279771 0.13081938
0000e0 4f 5b d0 3d 4d 89 10 be df 8d c4 3d a8 ea 12 3d
       0.10173666 -0.14114876 0.09597372 0.035868317
0000f0 1b 45 09 3e 47 8e 40 3d 2e 92 7b 3d 36 bd 28 bd
       0.13405268 0.047010686 0.061418705 -0.04119607
000100 de 23 c1 3d 36 45 bb bd 9c 47 04 3d a4 1e 59 3d
       0.09430669 -0.0914406 0.032294855 0.053007737
000110 ab 0a f0 bc 72 3b 57 3d 07 a7 d6 3d 6c c2 d5 3d
       -0.029301962 0.052546926 0.10481077 0.10437474
000120 a8 44 dc bb d3 55 9d bd 2a 6a a3 bd 82 a5 2e 3a
       -0.0067220517 -0.07682385 -0.079792336 0.0006662236
000130 e3 88 79 bd 53 29 e1 bd 4c bc 01 be 3d c1 9d bc
       -0.06092156 -0.1099421 -0.12669486 -0.019257182
000140 f3 76 c0 3d eb c9 99 bd 97 42 a0 3d fc bd 27 bd
       0.09397688 -0.07509216 0.07825201 -0.040952668
000150 90 be a7 3d e4 16 97 bd 0c a4 cd bd 10 8f 0b be
       0.08190644 -0.07377413 -0.10041055 -0.13628793
000160 6f f8 f6 bd ac 63 64 bd 14 12 11 3d e1 07 40 bc
       -0.12059104 -0.055759117 0.03541763 -0.0117206285
000170 b4 c9 95 bd ba ea 8d bd 07 2a f8 3c fb 68 14 be
       -0.073138624 -0.06929536 0.030293478 -0.14493172
000180 9c 48 31 bd 1f 5d 25 bd 36 4a bf bd cd 72 10 3d
       -0.043282136 -0.04037201 -0.093403265 0.035265733
