backend/trained_models/NIMB_GRU_model_state_dict.pth (torch, 126723 bytes, 5 tensors)

rnn.weight_ih_l0 f4 [300, 1]
00000000: 1c40 17bd 3720 47bd b43b 94bd 6d75 d43d
00000010: 5f67 8e3d ca1a 6dbb e018 e6bd ba0f 89bd
00000020: 0e87 393c aa2b bf3c a25f 4bbd 8942 4c3c
00000030: 9739 3e3c 52e4 69bd 89e6 82bd 1f98 b93c
00000040: bedb 97bd 3aae 953d a662 99bd 5170 07bd
00000050: e763 e4bd 3822 ab3d ee86 a0bc 3b05 05bc
00000060: f412 0b3d ff24 29bd 76de 2bbd 363e 673c
00000070: 8f1f bb3b 94ab 313c 0be8 49bd 741b 03bc
00000080: a829 cabd f1fd 8e3d 34c9 793d a9ec 903c
00000090: 4e22 90bd 0a7e b4bd 2f05 0c3b 7bdc b23d
000000a0: 4a79 05bd 42bd 693c e7b9 10bd 8511 70bd
000000b0: 4056 1fbd 19df a8bd 7d44 903d a9fc 0a3e
000000c0: 4dbf bfbd 6238 28bd 8816 b63c 5823 71bd
000000d0: 5a14 8f3d 3e0a dc3d 00bf 563c fe04 8ebd
000000e0: b60e babd 3554 c2bd 6c26 b43d 619d 01be
000000f0: 0a2a 083e 052a 40bd 06ae bdbc ee12 49bd
00000100: 9429 f33d 6499 2abb 5f7a c8bd 1037 e7bd
00000110: 55cc f73c 6ea3 dabb 9c5e 313d 201e 6a3d
00000120: 6e82 a23d 5ae6 3b3d d056 8d3c 8511 0d3c
00000130: 0afa e4bd bbb1 c3bd 1a70 583d 6e82 4fbd
00000140: 0aaf 8f3c 5fa4 403d 8970 25bd 5dbc 263d
00000150: 46a1 c13d ac39 aa3c d4d5 da3c 443d aabd
00000160: 4a32 bc3d bf4e 01bd e66c 9fbd 20ea 333d
00000170: 94d0 37bd 2c80 d3bd 928c 86bc 7a00 e6bd
00000180: c5cd 46bd 00be 983d b6fc 86bc 35f4 62bd
00000190: bfaa 1bbe d407 84bd a1f9 f5bd bdf1 23be
000001a0: 304c efbc 3e8d c3bd 6646 8abd 47d5 89bd
000001b0: 24bf a2bc a5df 253d e9fe e6bc 35b9 b53c
000001c0: 66e6 17be 027d 5abd 16c8 31bc eb4d aebd
000001d0: 0eb2 213d a09a 13be dda3 673c 44f9 aebd
000001e0: ba2e 11be 3bc3 a33c 0ba8 c0bd 0ca9 abbd
000001f0: 8aba 1bbe 004f f43d 3b0f a8bd 1a78 c2bd
00000200: 2dd5 00be 654d 2abe c92f 09be 96f7 0dbe
00000210: 9a09 dcbc a080 dfbd e747 6fbb 1c7d 25be
00000220: 8f36 c4bd 35a5 f1bc e2ed acbc ff65 b2bd
00000230: 1fc0 bbbd ae9f b4bd 9b1c 1ebe 7c53 92bd
00000240: 9184 babc c9ac 6abd 38dd 5d3d 26aa 9cbd
00000250: 9b01 d3bd 6a3b edbd 0150 16be bcae c9bd
00000260: ee79 b8bd faef 5cbd 92a6 c23d 8688 14bd
00000270: 9124 553d a468 f6bd e70c 673b 69b5 19bd
00000280: 304d 8bbd c16e 00bd 1d83 3f3c 8461 733d
00000290: cc3e 0ebd 2c65 bfbd 7f86 09bc 4bf4 263d
000002a0: 7b64 d3bc ab3f 3dbd da4f 1d3d 1b9d af3d
000002b0: 0611 52bd 2d7c 09be d779 cebd 7f24 203c
000002c0: a3cd 9ebc b53f f1bd 6d56 9f3c feb7 97bd
000002d0: 0d53 91bd 4a82 ffbc 3b3a eabc 0d9f 93bd
000002e0: b8c9 a5bb e2c7 fcbd de7b e6bd b2a9 90bd
000002f0: 4869 413d eeb5 90bd d7a7 9ebd 8b98 32bd
00000300: 8617 cbbd 1883 11be 712e dfbd 9bd6 e4bd
00000310: 2d02 69ba 1e9e debd 8a3c fa3b 1000 58bd
00000320: b531 08be c728 8d3d 7d98 f0bd 7412 b13d
00000330: c7ed 8cbd 76a6 8fbd 412c 1c3d 089c cf3d
00000340: 062d 51bb ed31 d83c 421d d4bc 561e d0bd
00000350: ced8 8cbd 5eaa 5abd 9a6b 24bd f885 40bd
00000360: 8271 93bd 0497 b23c ef02 8abc 0a68 cfbd
00000370: 302f 053e 7a90 b03d 5837 96bd b06f 8d3d
00000380: 6b91 2fbd c00c 93bd 2cf4 b53c 68df 77bd
00000390: 085b d03d 148e 4cbd fa57 8abd a9e6 c5bd
000003a0: cec5 cd3d c520 953d 59bb 10bd a29e e5bd
000003b0: ecec c13d 663e ee3d afd4 5ebd 81ac 5e3d
000003c0: 6468 943c 04ac f6bd a7a6 d63d c5e9 c9bb
000003d0: 8bbb bf3d c29a 233d e461 04bd 9b63 d33c
000003e0: c490 a33d d9c3 893d 81c0 043e a906 8fbd
000003f0: a500 973d f346 e9bd 70ed 95bd 1f62 63bd
-0.036926374 -0.048614707 -0.0723795 0.1037396 0.0695331 -0.0036179298 -0.11235213 -0.06692453
0.011323703 0.02333625 -0.04965175 0.012467035 0.01161041 -0.05710251 -0.06391627 0.022655545
-0.07414959 0.07308622 -0.07489519 -0.033066098 -0.11151867 0.08356136 -0.01959559 -0.008118923
0.033953622 -0.041295048 -0.041960202 0.014113953 0.005710549 0.01084413 -0.04929356 -0.008002151
-0.098712265 0.06982029 0.060982898 0.017690973 -0.07037793 -0.088131025 0.0021365394 0.087334596
-0.032586373 0.014266314 -0.03533354 -0.058610458 -0.038900614 -0.082456775 0.07044313 0.13572945
-0.093626596 -0.041069396 0.02222754 -0.058871597 0.06986304 0.10744141 0.013107061 -0.06934546
-0.09084837 -0.094887175 0.08796391 -0.12657692 0.13297287 -0.046915073 -0.02315427 -0.04909032
0.11873165 -0.002603137 -0.097889654 -0.11289799 0.0302488 -0.0066723144 0.043303117 0.057157636
0.07935034 0.045873977 0.01725331 0.008610134 -0.11180504 -0.09555384 0.052841283 -0.050661497
0.01753952 0.047031756 -0.040390525 0.04070698 0.094545886 0.020779453 0.02671329 -0.08312467
0.091892794 -0.03156924 -0.077844426 0.04392445 -0.04487665 -0.10327181 -0.016424451 -0.1123056
-0.04853608 0.074581146 -0.016477924 -0.055408675 -0.15201853 -0.064468056 -0.120105036 -0.16010185
-0.029211134 -0.09548424 -0.06751709 -0.067301326 -0.019866534 0.040496487 -0.028197723 0.02218304
-0.14833984 -0.053341873 -0.010850927 -0.085109554 0.039476447 -0.14414454 0.014138189 -0.085436374
-0.14177981 0.019990554 -0.09407052 -0.083818525 -0.15207878 0.119291306 -0.0820603 -0.09495564
-0.1258132 -0.16631086 -0.13397135 -0.13863978 -0.026860047 -0.10913205 -0.0036511363 -0.16161007
-0.09580719 -0.029497722 -0.021109525 -0.087108605 -0.091675036 -0.08819519 -0.154406 -0.0714483
-0.02276829 -0.057293687 0.05416605 -0.07649641 -0.103030406 -0.11583598 -0.14678957 -0.09847781
-0.09007631 -0.053939797 0.09504427 -0.03626301 0.052036826 -0.12031677 0.0035255493 -0.03752652
-0.06801832 -0.031355623 0.011688975 0.05941917 -0.034727857 -0.09345469 -0.008393883 0.04076032
-0.025804749 -0.046203297 0.03840623 0.08574887 -0.051285766 -0.13426276 -0.10081833 0.009774326
-0.019385165 -0.11779729 0.01945039 -0.074081406 -0.07095919 -0.031190056 -0.02859222 -0.07208071
-0.005059447 -0.12342812 -0.112540945 -0.07063617 0.047219545 -0.0706595 -0.07746857 -0.043602508
-0.09916596 -0.14210165 -0.1089753 -0.11173745 -0.0008888569 -0.10870002 0.0076366113 -0.052734435
-0.13300212 0.06892543 -0.11747835 0.08646098 -0.0688129 -0.07014172 0.03812814 0.101371825
-0.0031917705 0.026390994 -0.025892857 -0.10162036 -0.0687729 -0.05338513 -0.04014168 -0.047002763
-0.07199384 0.021800525 -0.016847102 -0.10127266 0.13006282 0.08621307 -0.07334775 0.06906068
-0.04286329 -0.07180166 0.022211157 -0.06051579 0.10173613 -0.049940184 -0.067550614 -0.096631356
0.10047494 0.07281641 -0.03533492 -0.112118974 0.094690174 0.11632995 -0.05440205 0.05436373
0.018116184 -0.12044528 0.10481005 -0.0061619007 0.09361943 0.03994251 -0.03231992 0.025804332
0.07986596 0.06726808 0.1296406 -0.06983692 0.0737317 -0.113904856 -0.07320678 -0.055513497

rnn.weight_hh_l0 f4 [300, 100]
00000000: d861 e4bc 2d81 8cbb ed63 97bc ee55 3ebc
00000010: 8d34 73bd ea8e 833d 9544 8fbc 26b7 3abd
00000020: f7a2 2abd fbb8 b73d ec65 ea3c 0c72 12bd
00000030: 725b 61bb 4896 22bd 8441 fdbc 575d 3cbc
00000040: 2d69 133c b7c1 abbd 9818 8cbd 6633 8bbc
00000050: f275 51bd 2d11 3c3d 3e9c 133d 30d8 cebd
00000060: c5de 3e3d 8161 b03d d785 b53d 293c 9bbd
00000070: e777 62bd 65de 873c a7b5 36bc 6b68 963d
00000080: ef24 073d d65d b1bd 67ec 86bd 631a bb3d
00000090: 1931 a1bc 1665 5d3d f2fa 883d dac2 863d
000000a0: fa89 793d fd39 133d fbd4 cfbd 924d 8bbc
000000b0: 8df0 9e3c ea4d 7ebc f61a 46bd 6216 333b
000000c0: 5c7f d7bc bd8c 8f3d d390 e3bd 51b8 4c3d
000000d0: 8e9b 57bb 8fdf 41b9 7c74 f43d 4b4d 87bc
000000e0: 3a47 b0bd 003e 023d 1645 273c 97ba 9fbd
000000f0: 7561 c8bb 7a36 d6bd f969 b73b d550 43bd
00000100: 7f9c a8bb dacb 48bd 2b89 ce3c 83e6 b33c
00000110: d52c 0abd 7563 f3bd bacc b3bd 51a5 debc
00000120: bf34 4cbb 89ef a13c d503 a03c b554 1abc
00000130: dc32 63bd adf1 a03d 0151 babd 8e91 333d
00000140: 4c7e 843d 02c4 c4bc 7ae4 193d da82 49bd
00000150: 3a31 f4bc f92a 893b 7265 d73c 5346 643d
00000160: 22b7 9f3b 5471 a93d ba31 babc ba0d 6abd
00000170: 6687 95bd 77d3 a9bc 7c27 4a3d 11e5 80bd
00000180: 7538 c43d 45bd d0bd 40eb 963d 443f 79bd
00000190: 7054 a83d 27dc c33c b47f 3bbd cba8 b83d
000001a0: 59fb cd3c da0c ad3c a9cd bcbd 49f7 ca3d
000001b0: 85d9 bcbc 6aa3 cfbd 5db4 853d c797 743d
000001c0: 19e4 02bc a268 55bc 6494 dd3c 4bf7 3abd
000001d0: cc97 bb3d cc1a 19bd 610a 1c3d 0380 813d
000001e0: 2b37 823d 6a8c 1dbd e4ee 933c d7c0 fd3b
000001f0: dd8a a43d 18e5 97bd bd64 1cbb 2e7c c03d
00000200: 7235 6b3d 7fd9 10bd c36f c63d 78fc 233d
00000210: a829 603d eea2 c2bc 01a2 8d3d ce76 b13d
00000220: ad2d 48bd e3b9 27bc 9663 9e3d d424 8a3d
00000230: e893 6bbd be59 25bd 65e1 8e3c 9991 9fbd
00000240: 0bcd 8b3c 90e3 b83a 3cd6 4e3d 6b14 aabc
00000250: bfa7 d23d 47f5 9ebd ee8b 953d 60ba 9f3d
00000260: ea75 06bd bbef 55bd 82e4 60bb b51a 7bbd
00000270: 4605 d8bd f61a a13d 10d3 39bc 6648 463d
00000280: c94c 83bd d261 00bd 9892 ee3c 75a7 833d
00000290: bae1 393d 3f1a a5bd 6b6c 813d 6c88 cdbc
000002a0: 3ae6 dabc 8d65 b83d c5ff b0bc 7a50 ca3b
000002b0: 4515 ca3d 606a 843d d20f c5bd b32d a3ba
000002c0: 025c a3bd f0d3 f6bb c982 313d 5e54 613c
000002d0: 68e2 b13d 14cf 963d a94c b2bd bc36 233a
000002e0: 7974 8dbc 274c b9bc 9b5d 173d 44d7 f3bc
000002f0: 54e4 aabc ec21 f9bb 37f8 0ebd 3913 133d
00000300: 77e6 933d be41 b93d 70f5 b2bd 1199 bf3d
00000310: 8c2a 9fbd 4dfa af3d 59a0 57bb 37e4 153c
00000320: 1450 013d 5a79 2dbd 09d2 e3bc 0e03 48bd
00000330: e6ae 2cbc 1aef 713d e820 663d 5786 0e3e
00000340: c553 143b 4182 2bbd 4f15 b5bd ffef 0d3d
00000350: ff45 8ebb ae14 323c 301f cb3d 01b0 143d
00000360: 354e b4bd 6fb3 9b3d a83e 2a3c 6ce7 8abd
00000370: d432 b9bc 5b0f 17bd 40f9 173d c6fb abbd
00000380: 3515 cc3d ac9b dabd 3ce1 ef3b 37fe b7bd
00000390: 3d87 b13d a26b f8bc dc2e f6bb 2d81 4dbd
000003a0: 5e36 743d 0356 3fbd 5857 17bd a260 34bd
000003b0: 0057 22bd 1532 9bbd 5d20 89bc 8944 a03d
000003c0: 363d b33d a8f6 e73c 6e08 71bd 599f 79bd
000003d0: 6b54 90bd e400 abbc 1982 aebc 42f1 d23c
000003e0: c363 b33d 7486 bd3d bbf4 89bd be01 a23d
000003f0: af7c cf3d fc12 c7bb 0543 1d3d 666a 14bc
-0.027878687 -0.00428786 -0.018480266 -0.011617167 -0.05937629 0.06423743 -0.017488757 -0.04558482
-0.04165932 0.08970829 0.028613053 -0.035753295 -0.003438678 -0.0396941 -0.03091503 -0.011496863
0.008997244 -0.083865575 -0.068406284 -0.016992282 -0.051137872 0.045914818 0.036037676 -0.10099828
0.04659917 0.086123474 0.088634185 -0.07579834 -0.05529013 0.016585538 -0.011151708 0.07344135
0.032994207 -0.08660476 -0.06588059 0.09135892 -0.019676732 0.05405148 0.06688489 0.06580134
0.0609226 0.035943974 -0.10148045 -0.017004762 0.019401813 -0.015521506 -0.048365556 0.0027326574
-0.026305847 0.070092656 -0.111116074 0.049980465 -0.0032899114 -0.00018489196 0.1193628 -0.016516348
-0.086073354 0.03179741 0.010209342 -0.07799261 -0.0061151334 -0.10459609 0.0055973497 -0.04768451
-0.005145609 -0.049022533 0.025211891 0.021960502 -0.03373416 -0.11884204 -0.08779283 -0.027178438
-0.0031159369 0.01976754 0.019533077 -0.00941961 -0.055468425 0.07858596 -0.090974815 0.043839984
0.06469402 -0.024019245 0.037571408 -0.049197055 -0.02980863 0.004186031 0.02629349 0.05573113
0.004874126 0.08273569 -0.02272879 -0.057141997 -0.07301216 -0.020730717 0.04935406 -0.06293691
0.09581081 -0.1019235 0.07369089 -0.06085135 0.0821923 0.023908688 -0.045776084 0.0901657
0.025144266 0.021124292 -0.09218914 0.09910447 -0.02305294 -0.10138591 0.06528542 0.05971506
-0.007988953 -0.013025435 0.027048297 -0.045645993 0.09159812 -0.03737907 0.038095836 0.063232444
0.06358179 -0.038463987 0.018058248 0.0077439356 0.080342986 -0.07416743 -0.0023863756 0.093986854
0.057424016 -0.03536367 0.096892856 0.040035695 0.054727226 -0.023759332 0.069156654 0.08665238
-0.048871685 -0.01023719 0.07733838 0.06745306 -0.0575141 -0.040368788 0.01744146 -0.077914424
0.017065546 0.0014105905 0.05049728 -0.02076169 0.10285901 -0.07761627 0.0730208 0.0779922
-0.032827295 -0.052230578 -0.0034315889 -0.061304767 -0.10547881 0.078664705 -0.011341825 0.04840889
-0.0641113 -0.03134329 0.029122636 0.06428424 0.045381285 -0.08061647 0.06319507 -0.025089465
-0.026721109 0.09003744 -0.021606335 0.0061741443 0.09867338 0.06465602 -0.09622158 -0.0012449533
-0.079765335 -0.007532589 0.043337617 0.013753025 0.08685762 0.07363716 -0.08706028 0.00062261126
-0.017267453 -0.02261932 0.036954504 -0.029765733 -0.020860828 -0.0076029208 -0.034904685 0.035907004
0.07221692 0.090457425 -0.0873822 0.09355367 -0.07771787 0.08592663 -0.003290197 0.009148649
0.03157051 -0.042352058 -0.027810114 -0.04883104 -0.010539746 0.059065916 0.056183726 0.13918434
0.0022632938 -0.041872267 -0.08841955 0.034652706 -0.0043418403 0.010869188 0.09918058 0.036300663
-0.08803979 0.076025836 0.010390915 -0.067824215 -0.022607245 -0.03687988 0.037102938 -0.08397631
0.099649824 -0.10674223 0.007320551 -0.089840345 0.08668373 -0.03032476 -0.0075129103 -0.05017202
0.05962216 -0.046712887 -0.036948532 -0.04403747 -0.03963375 -0.07577912 -0.016739065 0.07825572
0.087519094 0.028315857 -0.05884593 -0.06094298 -0.070473514 -0.020874448 -0.02130227 0.025749806
0.087592624 0.092541605 -0.06736132 0.079104885 0.101312034 -0.006075261 0.038393993 -0.0090585705

rnn.bias_ih_l0 f4 [300]
00000000: 204d 65bd 0793 d1bd 55c2 5cbd 2ba0 67bd
00000010: f14b 493d e2f0 6b3d be9c 773c af52 093c
00000020: 9591 4e3d 3bd3 67bb a6aa b93b d3b0 0e3d
00000030: 9b5d 943d f5ae 143d 5877 803c 545e e63c
00000040: 0263 643c f459 073c 7e4b 233d b5ed 86bc
00000050: c698 8ebd 5d87 8e3d 8262 523d fe96 38bd
00000060: 32e3 943d ec67 c6bd d472 913c 1604 5c3d
00000070: d702 93bc 1564 043d 59cd 783c 1ce2 d83d
00000080: 9cdf 2c3d d633 06bd 835b 773d 1e87 f2bc
00000090: b382 043d 0288 d23c fcfb a53d dd62 b9bd
000000a0: 7620 b53d 178d b53d d143 94bd ac36 e63b
000000b0: aabd 9a3d fa3d 613d 923a 923d 0150 f43d
000000c0: edd8 a9bd 1139 5cbc 7f83 18bd 9e75 6d3d
000000d0: 1834 90bd a7d7 ec3d 3e82 063d 84b4 ee3d
000000e0: 51ed 07bd 14de 68bd 5310 1e3c 001a 83bd
000000f0: 5a39 cfbc aec7 ec3d 6eee 0bbd 9cd3 463c
00000100: a28d acbd c583 09bd e265 2cbd 9104 a43d
00000110: dfac 043e 34f8 24bd 461e 093d a764 ff3d
00000120: 381f a13d ad86 dd3c 8477 c83d 004f cbbc
00000130: dba3 b63d a4a0 fcbc 60e0 fcbb 7886 3cbd
00000140: c1b6 b63d 203d 53bd d5a6 e23c 5f70 1dbd
00000150: 22e0 b03d 35b1 af3d 55b6 6abd e8ec a3bb
00000160: 4705 2d3c b4a8 04bd edbe c93d 3cf5 0f3d
00000170: 13d1 383d 5052 ad3d 68ee 88bd b022 9cbd
00000180: 5454 1b3d 6253 413d 0c41 b43d 5f2e 67bd
00000190: 5df5 d1bd 460b 13bc 05d1 c9bd bdb9 55bd
000001a0: dc13 3d3d 76d4 35be 1b6a bebd 6286 84bd
000001b0: 3bee 8b3d c8f2 f73c 7b5a 7fbd 37ab 6ebd
000001c0: 60a9 c0bd 63b9 b7bd 0a5d d5bd f021 dabd
000001d0: d3fd 92bd 32c1 93bd ef6e ffbd 8375 73bb
000001e0: 1cf0 87bd 6f00 99bd ffa4 eabc 9f1f 163a
000001f0: 4240 04be 5c25 083d e5fa 813d 602c 24be
00000200: bf44 f2bd 382c f0bd e110 383c 1273 ebbd
00000210: 1862 cdbd 7068 b2bd 1aa5 23be 766a 0abe
00000220: b649 c2bd 6abb 2abe 7fc8 86bc 1e55 2bbe
00000230: 7ef1 243d 9711 1cbe 52d3 8abd c82a 3c3d
00000240: 9157 75bd 6dca 39be 38f0 863d 7357 89bd
00000250: df16 b7bd 8c73 03be a25c 14be bd9b 3ebe
00000260: b3a9 dfbc 31ab 0cbe c376 81bd 0e2c e0bc
00000270: fe64 bd3c 5aa0 20bd b211 4ebd 5990 ddbb
00000280: 6fbb c33b fbcb 13be 3e52 b8bd 9085 82bc
00000290: a544 a93c 1a0a a6bd 7eb7 76bc a8b1 efbd
000002a0: 1349 193d 1cd8 a8bd 2b5d 93bd 401d 3ebd
000002b0: 6f88 0a3d 5363 06bd b99a 0bbe 4c51 0fbd
000002c0: 5a26 ba3b ac5e f63c 82a9 99bd 75a5 97bd
000002d0: 95e1 cebd 6874 0e3c 76ae f4bd b94a bfbd
000002e0: 9818 a0bd 475f e3bd 3841 3cbd 7549 10bd
000002f0: aefc f2bd 478e f1bd 09cf d13c 9759 65bd
00000300: c217 a0bd a93a 8e3c 4c70 20bd cb6f c6bd
00000310: 4f14 75bd 803e a4bd e989 cdbd a082 19be
00000320: 3ac7 d93d 90b1 c53d 9d99 87bd 42cb fabb
00000330: 0bac fc3c d52f b9bd 00b9 993c 126b 9ebd
00000340: 9c97 b3bd 5d60 b43d e978 d03d 7b37 353d
00000350: 012e d33d 137c 3dbd 1793 1bbd 9cb0 69bd
00000360: 79e5 bc3d b759 8dbd 9096 0a3d 8fc7 c73c
00000370: 29b2 363d 320d e3bd f3fc a9bd 623a 7b3b
00000380: 3db5 79bd 21cd 7fbd 343d 3d3d 6038 7bbd
00000390: 5348 c23c 31ac 8b3d f024 a7bd 5ca9 fdbb
000003a0: 2915 05bd cf23 563c 7e79 cc3d aa6d 18bd
000003b0: c82f bd3d 6577 d0bd 160f 80bd c3d6 94bd
000003c0: c7aa 2ebd 85ff 8ebd 8a3c fa3b 35f5 bdbd
000003d0: 1b3c 6dbd 9e2e 0f3c 4e46 c2bd 5738 623d
000003e0: 7bea 5cbc 30b8 5fbd 28c5 4bbc 9a5a 8cbd
000003f0: c864 823d 0a77 96bd 6a00 14bb c703 40bd
-0.055981755 -0.10233121 -0.053896267 -0.056549232 0.04914469 0.05760277 0.015113054 0.00838153
0.050431807 -0.0035373706 0.005666095 0.0348366 0.07244416 0.036299665 0.015681908 0.028121151
0.013939621 0.008261193 0.039866917 -0.01647077 -0.06962733 0.06959412 0.051363476 -0.045065872
0.072698966 -0.0968779 0.01775495 0.053714834 -0.01794569 0.03232201 0.015185677 0.10590002
0.042205438 -0.03276428 0.060390007 -0.029605445 0.032351207 0.02569962 0.08104703 -0.0905206
0.08844082 0.088648014 -0.072394975 0.0070255604 0.07555707 0.054990746 0.07140078 0.11929322
-0.082933284 -0.01344134 -0.03723478 0.057973497 -0.07041186 0.1156457 0.032839052 0.116555244
-0.033185307 -0.056852415 0.009647447 -0.064014435 -0.025295902 0.115615234 -0.03416293 0.012135413
-0.08425452 -0.03357293 -0.04208935 0.080086835 0.1295657 -0.040275767 0.033476137 0.1247037
0.07867283 0.027041757 0.09788421 -0.024817944 0.08917972 -0.030838318 -0.0077171773 -0.046026677
0.08921576 -0.051571965 0.027667442 -0.038437244 0.086365 0.085787214 -0.05730279 -0.0050026067
0.01056034 -0.03238745 0.09850869 0.035145983 0.045121264 0.084629655 -0.066860974 -0.076238036
0.03792222 0.04719866 0.08801469 -0.056440707 -0.102518775 -0.008974856 -0.098543204 -0.052179087
0.046161518 -0.17756829 -0.09297582 -0.06470944 0.06832548 0.030267134 -0.06234215 -0.058268752
-0.09407306 -0.089709066 -0.104181364 -0.10651004 -0.071773194 -0.072145835 -0.12472331 -0.00371489
-0.06637594 -0.07470786 -0.02864313 0.0005726758 -0.12915137 0.033238754 0.063466825 -0.16032553
-0.118295185 -0.11727184 0.011234493 -0.11496557 -0.100284755 -0.08711326 -0.1598095 -0.13517174
-0.094867155 -0.16673055 -0.016453026 -0.16731688 0.040269367 -0.15241085 -0.067785874 0.045939237
-0.059897963 -0.18143626 0.06588787 -0.06706133 -0.08939909 -0.12837046 -0.14488462 -0.18614097
-0.027302599 -0.1373718 -0.0632148 -0.027364757 0.023119446 -0.039215423 -0.050309844 -0.0067615923
0.0059732716 -0.14433281 -0.090000615 -0.015932828 0.020662615 -0.081073955 -0.015058396 -0.11703807
0.037423205 -0.082443446 -0.07195505 -0.046414614 0.03382152 -0.032809567 -0.13633241 -0.03498964
0.0056808414 0.03007444 -0.07503034 -0.07404605 -0.1010162 0.008694746 -0.11947338 -0.09340424
-0.07817191 -0.11102157 -0.045960635 -0.035226304 -0.11864601 -0.117947154 0.025611417 -0.055993643
-0.078170314 0.017361956 -0.039169595 -0.096892916 -0.05983382 -0.080197334 -0.1003607 -0.14991236
0.106337026 0.09653008 -0.06621096 -0.0076536248 0.030843755 -0.09042326 0.018764973 -0.07735266
-0.087691516 0.08807442 0.10179312 0.044242363 0.10311509 -0.046260905 -0.037982073 -0.057053193
0.09223456 -0.069018774 0.033834994 0.02438715 0.0446035 -0.11086501 -0.08300199 0.003833436
-0.060963858 -0.062451486 0.046200946 -0.06133306 0.023716127 0.06819952 -0.08161342 -0.0077411365
-0.032490883 0.013070061 0.0998411 -0.03721396 0.09237629 -0.10179023 -0.062528774 -0.07267525
-0.042643335 -0.0698233 0.0076366113 -0.09275285 -0.05791865 0.008739142 -0.09486066 0.05522951
-0.013483639 -0.054619014 -0.012437142 -0.068532184 0.06366879 -0.07346924 -0.0022583255 -0.046878602

rnn.bias_hh_l0 f4 [300]
00000000: 1d9e 5bbd d31d bd3b dfb8 51bd 74bf f43b
00000010: f18d 2e3a 9644 a43d 871b 2fbd 9424 8abd
00000020: df52 e2bc 948c b63d ff04 3cbc 4ea4 0cbc
00000030: b92b aebb dfc2 69bc c609 00bd 32f9 c2bd
00000040: d948 90bc 00e3 58bd 5bf3 de3d 6bb9 16bd
00000050: 6a0e ce3c d2d1 703d 4a54 df3d c8e1 07bd
00000060: 9107 8dbc 7bcf e63c 8b87 30bb ec25 c9bd
00000070: 5ab5 9cbd 6c80 a93c abbf a33d 06de b4bb
00000080: 1669 8b3b 3ca5 a8bd 21b2 37bd ec0d 833c
00000090: 9e16 76bd aeab ba3d 7de5 d03b b7e4 b8bd
000000a0: f0f9 23bd 3b56 0b3d 02e1 9b3d b962 aa3d
000000b0: f5d7 853d b7ba 47bd 85f1 ee3d e509 8139
000000c0: 8682 b1bd 8d48 e8bc e082 9a3c 3e6b 46bc
000000d0: 9a5f 92bd c3ff bd3d 9450 c3bd c69f dc3d
000000e0: 3912 c9bc 1597 db3d 34d9 213d e825 873d
000000f0: 8dd1 1a3d bbcf 49bc 3692 82bd 574f 7abd
00000100: f72e 0abd cffd eabd 5f04 253d 97d2 7f3d
00000110: 1086 a23d c966 98bd 9042 673c 4ee1 89bd
00000120: b081 553d bd9c 1ebd 4fed fa3d 86da 6dbd
00000130: 01ae eb3c 3d0a c3bd 1bed 903d 5462 da3d
00000140: 448a e23c ea69 4a3d da1d bcbc cfbd ff3b
00000150: bc21 ffbb 6c37 093d 8135 55bd c58c 353c
00000160: 6dba 1a3d ad40 c93c a05d e03d e4c9 b43c
00000170: a06f 47bd 236c 883d 764c a4bd a508 8b3d
00000180: 029a 6d3d f4e9 433c a463 0b3d c8f6 2abd
00000190: 9061 fdbd 619f b9bd 9d49 02be 25a5 3dbd
000001a0: e952 8cb9 a9c5 34be 6e71 05be 3acf a0bc
000001b0: 07cb 75bd 13df 1ebe 547f ccba 50db 2abe
000001c0: 8bca 8abc ab7c 1bbe 7f67 6dbd 929a d5bb
000001d0: 3c17 7abc 9b81 34be 5af1 8d3b 5d91 4cbd
000001e0: 25af 92bc 4920 a6bd 95e3 013c 597e f83a
000001f0: 7a64 58bd af26 ed3c c8e1 863d 846e b2bd
00000200: aa29 06be f21c 41bd 805d 83bd 1864 13be
00000210: ee6b 9bbd 47f4 90bd d9f6 2abe da87 efbd
00000220: 4863 d1bd bfde 32be 9792 bbbd c915 11bd
00000230: 674c 03bd 571e 23be 515b 26bb 972d 863a
00000240: 9046 e1bd dad1 60bd b61b 3fbd 922a e7bd
00000250: 4b0f 8fbd 38b5 1bbe f5fe 38be aae1 96b9
00000260: 44e8 403b ad61 03bb 96c3 39bd de44 303c
00000270: fcf2 82bd 6d3f f73b 8659 943d e342 17bb
00000280: b6ba 20be 2dae 8cbd 9b6f fabc 1261 e33c
00000290: bc31 7c3d e921 d43c 9ab5 00be 6057 97bd
000002a0: 3298 d93d 9b94 26be c0df 89bd ebb4 463c
000002b0: a5ff ad3d 0a96 c3bd aa6c 4cbd 7de6 5bbd
000002c0: 56f4 3bbe 3424 1bbe c57f 8ebc 3e87 29be
000002d0: 2abd a7bd f4bf 813d bedd 25be 7416 88bd
000002e0: 0a3c 333c dbdc 2dbe 98f4 d7bd 5325 b1bd
000002f0: 5fef 48bd 7eae 73bd 0461 723d a87e c4bd
00000300: 9ebc 04bd f0c8 9b3c 9693 433c f9be 1bbe
00000310: 08f1 c33d 9ca8 24be 5e9b c4bd edf8 acbb
00000320: 76e5 1d3d d91a 8b3c bbd9 13bb 8d76 2a3d
00000330: addc cebd d868 9cbd 701b 9bbc f0dc b93d
00000340: a2bf f13c afaa dc3d 5c48 43bd 81c4 63bd
00000350: 7de7 a23d aa78 9dbd ff6c d33c f01b 29bd
00000360: 15cc bd3d e47e 8f3d 00bf 07bc 0514 c33d
00000370: 485f cfbd 3754 073b 461f 6e3d 8d81 b23d
00000380: 4b02 b43d ad79 903d c0af d83c 7920 8cbd
00000390: 89c1 ab3c eb66 dc3d 34ec 973c 396d 003d
000003a0: d170 9dbd 1201 92bd 0c91 cdbc 4f6f a4bd
000003b0: 8cb8 863d 771c 2abd 8dfb b9bd 6057 d93c
000003c0: 453d abbd 677f 9a3d 623e baba 9188 2dbd
000003d0: 0435 19bc 97a8 f5bc 593d 9fbc 6724 65bc
000003e0: 36d5 c13c b995 a43d bff1 6d3d da64 6a3c
000003f0: 5401 5cbd c51c c6bd 76a1 013d 5c33 44bc
-0.053617585 0.0057713776 -0.051201697 0.007469112 0.0006658724 0.08020894 -0.04275086 -0.06745258
-0.027627407 0.08913532 -0.011475801 -0.008584095 -0.0053152707 -0.014267652 -0.03125932 -0.095201865
-0.017612861 -0.05295086 0.1088626 -0.036797922 0.025153358 0.05879385 0.10904749 -0.033174306
-0.017215522 0.028175106 -0.0026936259 -0.09821686 -0.076517776 0.02069112 0.07995542 -0.0055196313
0.0042544706 -0.08234641 -0.04484761 0.01599785 -0.060080163 0.091147766 0.0063750134 -0.09027999
-0.04003328 0.034017783 0.07611276 0.08319611 0.06535331 -0.04876205 0.1166716 0.0002461217
-0.086674735 -0.028354907 0.018861234 -0.0121105295 -0.07147141 0.09277298 -0.095368534 0.10772662
-0.024544822 0.10722176 0.03951378 0.06599027 0.0377975 -0.012317593 -0.06375544 -0.06111082
-0.033736195 -0.114741914 0.04028737 0.062456694 0.07935727 -0.0744148 0.014114991 -0.067324266
0.052125633 -0.038723696 0.12252294 -0.05806973 0.028769495 -0.09523437 0.07076474 0.10663286
0.02765382 0.049417414 -0.022963453 0.0078046094 -0.007786004 0.03350012 -0.05205298 0.011080925
0.037775446 0.024566973 0.109553576 0.022068925 -0.04869044 0.066612504 -0.08022396 0.06788758
0.0580082 0.011957634 0.03403057 -0.041739255 -0.12372124 -0.09063602 -0.12723394 -0.046300072
-0.00026764654 -0.17653526 -0.13031551 -0.019630063 -0.060008075 -0.15514784 -0.0015601912 -0.16685224
-0.016942283 -0.15184276 -0.05796003 -0.0065186704 -0.015264329 -0.17627566 0.00433175 -0.049943317
-0.017905781 -0.08111627 0.007927795 0.0018958553 -0.052830197 0.02894911 0.06586033 -0.087124854
-0.13101831 -0.047146745 -0.06414318 -0.14393651 -0.07588945 -0.07077842 -0.16695727 -0.116958335
-0.102240145 -0.17467783 -0.09158819 -0.035421167 -0.032055285 -0.15929542 -0.0025384019 0.0010236976
-0.10999787 -0.05488763 -0.046657287 -0.112874165 -0.06985339 -0.15205848 -0.18066008 -0.00028778362
0.0029435316 -0.0020047233 -0.04535254 0.010758607 -0.06394002 0.0075454027 0.07243638 -0.002308064
-0.15696225 -0.06869159 -0.030570796 0.027756248 0.061570868 0.025895076 -0.12569275 -0.07389712
0.10624732 -0.16267626 -0.0673213 0.012128095 0.08496026 -0.09550102 -0.049908318 -0.053686608
-0.18354926 -0.15150529 -0.01739491 -0.16555497 -0.08190377 0.0633544 -0.16197869 -0.066449076
0.010939607 -0.16978781 -0.105446994 -0.08649697 -0.049056407 -0.05949258 0.059174553 -0.0959447
-0.032406442 0.019016713 0.011937043 -0.15209569 0.095674574 -0.16079944 -0.095999464 -0.0052786977
0.03854891 0.016980575 -0.0022560197 0.041616965 -0.10100684 -0.07637185 -0.018933982 0.090753436
0.029510323 0.10774743 -0.04767643 -0.055607323 0.07954309 -0.076890305 0.02580881 -0.04128641
0.09267441 0.07006624 -0.008285284 0.09525303 -0.10125595 0.0020649561 0.058135293 0.08716116
0.087895 0.07054458 0.026450992 -0.06842131 0.020966308 0.107618175 0.018545248 0.031354163
-0.07687534 -0.071291104 -0.025093578 -0.08029043 0.06578168 -0.041531052 -0.09081183 0.026530921
-0.083612956 0.07543831 -0.0014209265 -0.042366568 -0.009351019 -0.029987616 -0.019438433 -0.01398573
0.023661237 0.0803637 0.058091875 0.014306271 -0.053712204 -0.09673456 0.03164812 -0.011975136

linear.weight f4 [1, 100]
00000000: 23f8 8abd 5d30 073d 38d6 8cbb 3b20 983d
00000010: 2c38 c73c 82d9 90bd a335 223d 4df8 473b
00000020: 6a78 d73c 2b62 b93c 1dd3 56bd 3cdc 27bd
00000030: 6ff9 88bd 4e1d b0bd 5c03 d3bd da96 eabd
00000040: 4135 b5bc bf13 a33d cdd5 e3bd a24f 223a
00000050: e027 083d b87d 013e 6097 6fbd 89c8 1e3d
00000060: 229c 3dbd 1f17 793d 34ff 5ebd dcc0 053c
00000070: 29c7 ee3d b460 90bd 7ad7 95bd 1235 b5bd
00000080: 8153 dd3d 3961 0a3e 873f e3bd 4585 03be
00000090: 7f03 1b39 ec13 5d3c b312 6abc 92da ab3c
000000a0: 651e 80bd c8cc c0bd 4f85 853c a954 893d
000000b0: d90d f93d 87a1 9c3d 7bc5 6c3d e2cf a6bd
000000c0: 4b1b 46bb 8f5a aa3d ea24 ed3d a177 53bd
000000d0: 1fba 28bd 1e93 64bd 7cd8 b83c f8b7 afbd
000000e0: 6a80 a6bd b7e0 f63c a878 223d 51c1 22bd
000000f0: 29c6 783d 3f4d bcbd 8a7a ca3d fd9f 473d
00000100: e285 7ebc bb23 5f3c e6e0 00be df98 e73d
00000110: f088 87bd bc7c 673d 7de1 8cbc 74f3 48bd
00000120: 5b1d 99bd 61d8 3a3d 04f3 dd3d 5c6c 91bd
00000130: d1e1 043e b2ee 153d 87f6 843d 25fb 003e
00000140: 1af3 dc3d b51f ee3c d10c ef3d 22a5 dbbd
00000150: 8c19 843d b82a 28bd e94b d6bd eb39 ab3d
00000160: d4cb 193d 6ab2 21bd e518 9bbd 23a6 efbd
00000170: 777b 383d 42ae 1f3d 8d4c dcbc 0d69 2b3c
00000180: dd32 f03c 455e db3d 058a bbbd 5c11 e03c
-0.067856096 0.033005107 -0.004297998 0.074280225 0.024318777 -0.07072736 0.039601933 0.003051299
0.026302535 0.022629818 -0.052447427 -0.040981516 -0.06688201 -0.085993394 -0.10303375 -0.11454554
-0.02212012 0.07962751 -0.11124764 0.0006191676 0.033241153 0.12645614 -0.05849397 0.038765464
-0.046291478 0.060813066 -0.0544426 0.008163657 0.116590805 -0.07049695 -0.073164895 -0.08848013
0.10806943 0.1351365 -0.11096101 -0.12843807 0.00014783254 0.013493519 -0.014286685 0.020978246
-0.06255797 -0.09414059 0.016298918 0.06705601 0.12160844 0.076479964 0.05780552 -0.08145119
-0.003022867 0.08318054 0.115793064 -0.05162776 -0.041193124 -0.055804364 0.022564165 -0.08580011
-0.08129962 0.03013645 0.039665848 -0.039735142 0.060735855 -0.09194421 0.09886654 0.04873656
-0.01553485 0.013619359 -0.12585792 0.11308455 -0.06617916 0.05651544 -0.017197365 -0.0490603
-0.07476302 0.04561651 0.10837367 -0.07100746 0.12976767 0.03660459 0.06492334 0.12595804
0.107885554 0.029067853 0.116723664 -0.10724856 0.06450185 -0.041056365 -0.104636975 0.08360656
0.0375479 -0.03947679 -0.07573108 -0.1170161 0.04503962 0.038984545 -0.026891971 0.010462058
0.029321129 0.1071134 -0.091571845 0.027352028
