backend/trained_models/NIMB_LSTM_model_state_dict.pth (torch, 808460 bytes, 9 tensors)

rnn.weight_ih_l0 f4 [512, 5]
000000 1d fb c0 3d 6a 03 85 bd 67 7b 18 3c 1e 55 c0 3d
       0.09422896 -0.06494792 0.009306765 0.09391235
000010 62 6c d9 bc b8 87 c9 bb b7 ab a8 bd c5 68 af bd
       -0.026540939 -0.006150212 -0.08235877 -0.08564905
000020 08 98 50 3d 00 c0 86 bd a9 e5 4c bd d0 98 d9 bd
       0.05092624 -0.0657959 -0.05002371 -0.1062485
000030 8d e5 31 3d a5 a0 17 bd 93 7c 9d 3c 04 22 32 bd
       0.043431807 -0.037018437 0.01922444 -0.04348947
000040 8b 92 6a 3d e6 a7 02 3d 33 0a b1 3d 90 0c c8 3c
       0.05726866 0.0318984 0.086445235 0.024420053
000050 03 b3 98 bc 86 80 e5 bc cf b3 93 bc 5d b5 66 3d
       -0.018640047 -0.028015386 -0.018030075 0.056325305
000060 1a 36 22 3d cb 7f 2d bd 67 b4 65 3d 23 d0 44 3d
       0.039602377 -0.0423582 0.05608025 0.048050057
000070 4e c8 95 3c be 0b 96 3c 04 8c 96 bc 37 3d 97 bd
       0.01828399 0.018316146 -0.018377312 -0.07384723
000080 1a 91 89 bd 39 9c 0a 3e 47 85 e9 3b cc c7 62 38
       -0.06717129 0.13536157 0.0071264836 5.4068674e-05
000090 9a 15 a3 bd 07 e3 0c bd d4 96 65 3c 4a 84 30 3d
       -0.079631045 -0.034396198 0.014013011 0.04309491
0000a0 63 02 a3 3d 93 82 5e 3d 65 ac aa bc e5 91 a8 3d
       0.079594396 0.054323744 -0.020834157 0.08230952
0000b0 bf ab e5 3c 0e c1 aa bd af 88 a9 3b 01 e2 b3 bd
       0.028035996 -0.083376035 0.0051737647 -0.08783341
0000c0 90 1c cc 3c f6 34 bb bd 2f 64 7b 3c c4 d7 f9 3c
       0.024915963 -0.09140961 0.01534371 0.030498393
0000d0 de 30 a3 bd d4 21 b0 bc 67 73 cc 3c 00 8b 35 bd
       -0.07968305 -0.021500506 0.024957372 -0.044322014
0000e0 ec 63 6e bd 38 8d 89 bd 65 28 92 bd 07 54 86 3c
       -0.05820076 -0.067163885 -0.07136611 0.01639749
0000f0 f8 87 53 3d d0 a9 35 3d f6 bd 63 bd 46 3e aa bc
       0.05164334 0.0443514 -0.055601083 -0.020781647
000100 0f 0f 5b 3c d1 23 9c bd a3 cd 4b 3c ad 9f a0 3d
       0.0133702895 -0.07624019 0.012439164 0.07842956
000110 33 38 c8 bc af d7 b9 3c b0 99 21 bd bb 9f 88 3d
       -0.02444086 0.022685854 -0.03945321 0.06671091
000120 d3 a4 86 3d e3 14 09 3e 2b ee 8f 3d 29 da 47 3d
       0.065744065 0.13386874 0.07027849 0.048792038
000130 7a 36 43 ba 71 1f 84 3c 4e 07 87 3d 70 28 cc bc
       -0.00074467773 0.016128274 0.0659319 -0.024921626
000140 e5 00 cf ba bc 0a ab bd 78 7f 14 3d 82 9e 86 3c
       -0.0015793113 -0.08351657 0.036254376 0.016433004
000150 39 59 44 3d ff 90 85 3c 13 9a 95 3d 8f a0 a8 3d
       0.04793665 0.016304491 0.07304778 0.08233749
000160 ba f2 c1 bd 00 86 6b bc 74 d5 64 bb f4 96 91 3d
       -0.094701245 -0.01437521 -0.0034917267 0.0710887
000170 cc 18 86 3d cb 2c a8 bc e7 50 97 3d 1a 49 c1 ba
       0.065476984 -0.020529171 0.07388478 -0.0014746517
000180 e5 1a 13 3d 64 53 23 bd 16 44 b9 39 a9 8c cd 3c
       0.03591432 -0.03987445 0.00035336678 0.025091486
000190 e8 67 fa 3c fc 24 a3 bc 8a 54 7f bd a7 31 92 3c
       0.030567124 -0.019915096 -0.062336482 0.017845942
0001a0 f4 fd 47 bc 40 eb 5c 3d b3 16 5d 3c 3c b2 2e bd
       -0.012206543 0.05393529 0.013494181 -0.042650446
0001b0 77 60 60 3d 71 f7 46 bc 0f ce 96 bd 1f c6 af bd
       0.054779496 -0.012143956 -0.07363521 -0.085827105
0001c0 9c 6e 72 3d d0 00 39 bd 0c 1b a0 3d d5 c7 f7 3c
       0.059187517 -0.04516679 0.07817659 0.030246655
0001d0 27 9d 98 bd ed 33 bc bd 23 06 33 bd 68 aa ca bc
       -0.074518494 -0.091895916 -0.043707024 -0.02473946
0001e0 68 2b 8e 3c e0 ff 85 3c c9 f9 02 3c 0a 90 d0 3d
       0.017354682 0.016357362 0.007994124 0.10183723
0001f0 d2 17 22 bd a3 2b bc 3d 10 5d ba 3b ed fa 15 3d
       -0.039573498 0.091880105 0.0056873634 0.036616255
000200 e3 6e de bb 3a 99 33 bd 44 29 5d 3d 2f 23 65 bd
       -0.006788121 -0.0438473 0.053994432 -0.055941757
000210 4c e7 b1 bd f3 e8 f4 3d e9 a5 1d bd 88 d0 8d bb
       -0.086866945 0.11958494 -0.038488302 -0.0043278374
000220 be aa d8 3c 95 5e 39 3d 8d 85 b4 3d 79 54 b2 3d
       0.026448604 0.045256216 0.08814535 0.08707518
000230 29 d8 c5 bc ae e6 26 bd 13 bb 6d bd 1f 32 db bd
       -0.024150925 -0.040747337 -0.058039736 -0.10702919
000240 23 2a ea bc b2 45 95 3d e5 ff 17 3d c3 53 a2 bd
       -0.028584545 0.07288684 0.037109274 -0.079261325
000250 ee 19 ed 3d 18 44 46 bd cb 65 5c 3d fa c0 72 3d
       0.11577211 -0.048404783 0.053808015 0.059266068
000260 ea d0 36 bd cd 51 0a bd 26 31 4e 3d 0f 73 f5 bc
       -0.04463283 -0.033769418 0.05033984 -0.02996209
000270 3c 50 74 3d 75 30 a5 bd 8b 2a 6b bd 69 d4 0a 3d
       0.05964683 -0.08065883 -0.05741362 0.033893976
000280 56 1e 40 bd ff dc 63 bd 59 89 ba ba 5b 30 ac 3c
       -0.04690393 -0.05563068 -0.0014231607 0.021019151
000290 a9 06 bf 3d 41 20 cd 3c 9b 91 8e bd 6b 27 c4 3c
       0.09327442 0.025039794 -0.06961366 0.023944577
0002a0 f8 e5 35 3d 0e 98 9b b9 23 ae 93 bd 43 a3 88 3d
       0.04440877 -0.00029677193 -0.07210948 0.06671765
0002b0 74 4f b8 bc ac b0 80 3c 1f 55 94 3c 2e dd 0d 3d
       -0.022498824 0.015709244 0.018106995 0.03463476
0002c0 c2 6b f3 bc ee f9 79 ba 78 39 ae bc f3 ed 61 bd
       -0.029714469 -0.00095358386 -0.021267638 -0.055158567
0002d0 41 91 17 3d 2c d8 53 3c f5 eb 64 3d 74 83 05 bc
       0.03700376 0.012929957 0.05588909 -0.008149017
0002e0 43 21 1d bd 59 08 8b bc 44 ce 66 3d 02 0b 71 3d
       -0.0383618 -0.016971754 0.056349054 0.05884839
0002f0 ce 93 1e 3d 46 e5 c1 3d c1 7f 52 3b 64 0e 9d 3d
       0.038715176 0.094675586 0.0032119604 0.076687604
000300 37 24 43 bd 5a 13 1c bd c9 39 aa bc 7e cd 81 3d
       -0.04764196 -0.038104393 -0.020779507 0.06338023
000310 18 72 a5 3b 3d a6 8f bd b1 1d 99 3d 44 65 74 bb
       0.0050490014 -0.07014129 0.07476366 -0.0037291804
000320 5d f8 86 bd ee bd 22 3d f0 89 b2 3d 54 7e 04 bb
       -0.0659034 0.039731912 0.08717716 -0.00202169
000330 46 7b 68 bc c3 84 b9 bb 0d 20 b6 3c f2 a2 bd 3d
       -0.014189547 -0.0056615784 0.02223208 0.09259595
000340 c8 2e ba bc 43 5b 7a bd da 27 f0 bc d0 d1 22 bd
       -0.022727385 -0.06112219 -0.029315878 -0.039750874
000350 53 e6 12 3d f1 db 95 3b 9f f2 a0 3d c0 05 c5 bd
       0.035864186 0.004573338 0.07858776 -0.09620237
000360 e5 aa 4c bd 77 5c bf bd 49 60 87 bd 37 f9 a9 3b
       -0.049967665 -0.09343808 -0.06610162 0.0051871794
000370 af fa f1 3c f5 fc 75 bd 92 5a ca 3d a3 e6 fc bc
       0.02953848 -0.06005569 0.09880556 -0.030871695
000380 3d d2 1f 3d e5 c7 86 bd 5c eb 1e 3d d2 db 4f 3c
       0.03901886 -0.065810956 0.038798675 0.012686687
000390 f1 6d 9a 3d 6a 13 91 3d 11 43 89 3d 74 5c 5c bd
       0.07540501 0.07083781 0.06702245 -0.053799108
0003a0 19 0e 0e 3d 09 36 d6 ba 97 71 bb bd 2a 6e 00 3d
       0.034681413 -0.0016343008 -0.09152525 0.03135506
0003b0 e6 87 9e bd 2c 99 40 bd b2 21 62 3d 4f 9e c4 bd
       -0.07740764 -0.047021076 0.055207916 -0.096005075
0003c0 de 30 5b 3c 08 d2 0e 3c 10 f0 e6 bc fe 73 86 bd
       0.01337835 0.008717068 -0.028190643 -0.065650925
0003d0 5b 9c 59 3d c1 55 0d 3d af 2a 3d bd f0 3d 74 bd
       0.053127628 0.03450561 -0.046183284 -0.05962938
0003e0 d2 e9 07 bd b9 f0 7f bd 62 a0 8b 3d eb b1 e4 bd
       -0.033181973 -0.06248543 0.068177 -0.11166748
0003f0 3a e9 ee bd 58 ca 43 bc 2d cc a4 bd e1 d7 b1 3d
       -0.11665578 -0.011950098 -0.08046756 0.08683754

rnn.weight_hh_l0 f4 [512, 128]
000000 6c 1b d3 bc 4f bf 0b bb 62 a0 10 bd dd b8 a6 3c
       -0.025769912 -0.0021323746 -0.035309203 0.020351822
000010 ff 9b 1f 3d 60 19 8d 3d f6 3b f6 3a e8 d0 a7 bc
       0.03896713 0.068896055 0.001878618 -0.020485356
000020 8a a4 cd 3c 17 82 89 3d 6d fd 08 3d 7a fb d8 bc
       0.025102872 0.06714266 0.03344481 -0.0264871
000030 84 fb c1 3d 47 ee a9 bd df 5c 92 3d 91 be 1b 3b
       0.09471801 -0.08297401 0.0714662 0.002376471
000040 db 05 0c bd 1a e1 85 bd 24 29 ba 3b 3f 97 eb 3d
       -0.03418527 -0.06537075 0.005681174 0.11503457
000050 7e 36 97 3d a2 6e f7 3d 81 63 39 3d da 2e cc 3d
       0.073834404 0.120816484 0.04526091 0.09969874
000060 8f 7b 83 bd c0 6f 25 bd 37 e5 f2 3b c3 fc 0a bb
       -0.06420051 -0.040389776 0.0074125784 -0.0021207787
000070 4c 87 21 3d f9 b6 d1 3d 37 32 52 bd 00 7c c0 3d
       0.03943567 0.102399774 -0.05131742 0.09398651
000080 b2 f8 b2 3d 01 c0 aa 3d c3 ea 90 3d 68 4e 81 bd
       0.08738841 0.08337403 0.07076027 -0.06313783
000090 fb 58 2e bd 0d ce 92 3d 09 68 fc bd a2 fd 35 bd
       -0.042565327 0.07168207 -0.12324531 -0.044431336
0000a0 3e e7 0e 3d 62 1c d9 3d fe d7 c0 bc 0a 1d 39 3d
       0.0348885 0.10601117 -0.023540493 0.04519371
0000b0 27 43 16 3d ce dc 3b 3d 94 cd 60 bd a4 a5 e6 bd
       0.036685135 0.045864873 -0.054883555 -0.11262062
0000c0 10 b0 aa bd d0 9b 03 3d 73 c1 50 bb 1c cf bc 3d
       -0.083343625 0.032131016 -0.0031853586 0.092191905
0000d0 de f8 88 3c dc 87 b2 3c 83 8e 83 3c 42 df 19 3d
       0.016720232 0.021793298 0.016059166 0.03756643
0000e0 bd 6e 14 3d 4d 59 aa 3d ff eb 05 3d ce b6 9d 3d
       0.03623842 0.08317814 0.032695767 0.07700883
0000f0 6d 4d 49 3d 16 31 50 3d 85 1d 62 bc a0 d6 d5 3d
       0.049146105 0.050828062 -0.013800983 0.10441327
000100 35 f1 6e 3d 17 fb ee 3d 16 e7 71 bd d8 10 02 3d
       0.0583355 0.11668985 -0.05905827 0.031754345
000110 2f e2 86 3d 7a 2b a1 3d c4 5a c1 3d 46 81 ad 3c
       0.0658611 0.078696206 0.0944114 0.021179806
000120 36 13 e1 3b 25 90 c0 3d 4b 70 95 bd 84 e9 18 be
       0.006868745 0.094024934 -0.07296809 -0.14932829
000130 47 8c 97 3c 7e ee be 3a d4 47 a9 bb c8 df 96 bd
       0.018499507 0.0014566926 -0.0051660333 -0.07366902
000140 ea c3 a1 39 af a8 6c 3c e0 bf 5f 3c 9f e1 b3 3d
       0.0003085428 0.014444514 0.013656586 0.08783268
000150 03 0f 33 3c dc b2 16 bd 17 d8 df bc 1d 43 72 3d
       0.010928872 -0.036791667 -0.02732472 0.059146035
000160 7c a4 26 3c 41 6e 27 bc 50 9b 58 bd 29 cb 56 3d
       0.010171052 -0.010219158 -0.052882493 0.052439842
000170 16 56 c1 bd 41 f7 3f bd f3 ab 3a bd 6d 32 40 bd
       -0.09440248 -0.04686666 -0.04557414 -0.04692309
000180 38 60 f2 bb 87 43 ff bd 49 63 08 3c 00 83 c1 bc
       -0.007396724 -0.12464052 0.008324453 -0.023622036
000190 1e 9a 83 bd 78 3a 20 bd 66 12 04 bd e1 98 32 bd
       -0.0642588 -0.03911826 -0.03224411 -0.043602828
0001a0 9e 66 b0 bc a9 17 92 3d fa ff d1 3d d5 77 a5 3a
       -0.021533307 0.07133419 0.10253902 0.0012624214
0001b0 76 7d be 3d b6 20 15 3d 45 fe 2b 3d e7 32 fb 3c
       0.093012735 0.03640815 0.041990537 0.03066392
0001c0 3c 7f 82 bc db 4f 4d bd 07 03 c5 3d 2b 96 67 3d
       -0.01592981 -0.050124984 0.09619718 0.056539696
0001d0 97 ac 03 bd ec e2 b1 bb 9d fa 85 bd ad db cd 3c
       -0.032147016 -0.0054286625 -0.06541941 0.025129164
0001e0 ea 73 d0 3d 3f b6 8e 3d 1a a4 a3 3c ac 85 81 3c
       0.10178359 0.069683544 0.01997571 0.01581081
0001f0 fd c8 ce bc 8e a9 9a bc be 83 43 3d c0 16 a7 3d
       -0.025242323 -0.018879678 0.04773306 0.08158636
000200 7b aa a6 bd b8 db af bc cb 08 26 3d 45 1b 69 bd
       -0.08137985 -0.021467075 0.04053573 -0.056910772
000210 e9 7d 45 bd 36 0a 6a bd 9d 6d c2 bd b2 63 be bc
       -0.04821578 -0.057138644 -0.09493563 -0.023240898
000220 45 d8 46 3d ba 02 8a bd 1a 0e f0 bc 15 0e 7f 3d
       0.048546094 -0.06738801 -0.0293036 0.06226929
000230 72 88 4a 3d 5a 0e 89 bc 0b 87 17 bd 46 84 ab 3c
       0.04944653 -0.016730476 -0.03699402 0.020937096
000240 a7 82 65 3d 1a 5c 78 3d 4b 68 64 3d d6 17 61 3d
       0.056032803 0.06063471 0.055763524 0.054954372
000250 8d ff 5f 3d fe 9c 2d 3d ac 5c 81 bd ee 59 41 3d
       0.05468707 0.042386048 -0.06316504 0.047204904
000260 f5 44 87 3d 45 5e 41 bc 69 d3 1c 3d d7 d4 5b bd
       0.066049494 -0.011802261 0.038287554 -0.053669777
000270 12 34 49 bd ee 13 65 3d 23 68 45 bd 50 e5 96 bd
       -0.049121924 0.05592721 -0.048195016 -0.07367957
000280 69 1a 11 bd b1 d7 37 bd 21 76 31 bd 64 2f c7 bb
       -0.035425577 -0.044883434 -0.043325547 -0.0060786474
000290 cd 4a 86 bd c7 37 c4 bc fa b9 93 bd a7 bc 44 bb
       -0.06557236 -0.023952378 -0.072132066 -0.0030019672
0002a0 ba 55 99 bd 2e cb ac bd 9a c9 28 3d fa 6b b8 ba
       -0.07487054 -0.08437191 0.041207887 -0.0014070265
0002b0 5f ac 94 3d 83 c1 07 3d 62 e8 15 bc cd f9 90 bc
       0.0725944 0.03314353 -0.009149643 -0.01769724
0002c0 a1 ba 10 bd b5 d9 21 3d 0b 53 3a 3d b9 85 9d bc
       -0.035334233 0.039514262 0.045489352 -0.019228803
0002d0 0b 0f 53 3d 64 01 66 bc b3 ed 49 3d 8e 0d 01 3d
       0.051528018 -0.0140384175 0.049298953 0.031507067
0002e0 e8 f3 ee 3c 22 a9 35 3c 56 7c a7 3d c6 c3 a6 bc
       0.029169038 0.011087688 0.08178012 -0.020357024
0002f0 e4 38 66 bd 09 6b 88 bc 04 ea 1b 3d 52 80 a9 3d
       -0.0562066 -0.0166526 0.03806497 0.08276428
000300 9a 5b 51 bd b0 9f 38 3d b8 b2 2f 3d 02 74 5f bd
       -0.05111275 0.045074165 0.04289505 -0.054553993
000310 00 c6 b1 3d 2a 3d a2 bd 29 6d f6 ba 21 c9 a6 3d
       0.08680344 -0.07921822 -0.0018800843 0.08143831
000320 e4 3e c4 3c 3d 73 78 3d 13 e1 3f bd 17 8d e6 bb
       0.02395577 0.060656775 -0.046845507 -0.007035862
000330 bf c0 48 bd e4 95 ff 3b 7a dd 09 3d 40 15 87 3d
       -0.049011942 0.007799851 0.033658482 0.0659585
000340 1c 12 35 3d 6d 70 80 bd 49 af b7 bd 22 b6 67 bd
       0.044206724 -0.062714435 -0.0896898 -0.05657018
000350 f9 57 ab bd a1 68 c0 bd dc a8 9b 3d 1b 00 50 bd
       -0.08366389 -0.093949564 0.07600567 -0.05078135
000360 0b 0d 03 3c d8 43 24 bd 16 b1 3c bd 4a d2 39 bd
       0.007998715 -0.040103763 -0.04606732 -0.045366563
000370 a9 1d ab bd e0 9f 92 bb fc e2 95 bd bc 54 ac 3b
       -0.083552666 -0.004474625 -0.073186845 0.0052591246
000380 5b 4e 99 3d e6 23 aa 3c 17 df 7d 3c b1 03 23 bd
       0.07485648 0.02076907 0.015495083 -0.039798442
000390 20 03 3a bd 8a a2 25 bd 7b 1f 9c bc d0 a7 e9 bc
       -0.045413136 -0.040438212 -0.01905798 -0.028522402
0003a0 58 d3 8b bd dd b1 79 bd 97 5c b9 bd d0 b8 7e 3d
       -0.0682742 -0.06096064 -0.09050863 0.06218797
0003b0 2c e0 90 3c 8f 6a 7c 3d d2 5b b5 3c 9f a1 61 3d
       0.017685018 0.06162506 0.02213851 0.055085775
0003c0 fe 1f 9b bd f5 db 8c 3d 91 d9 0d bd a4 04 8f bd
       -0.075744614 0.06877891 -0.034631316 -0.06983307
0003d0 7c 06 c8 3c 91 89 62 bd 4d c7 31 3d 3a 81 5a 3d
       0.024417154 -0.055306975 0.04340296 0.053345896
0003e0 d7 2e 37 bd 3b fd a6 bc df ec e8 bc 7d 65 65 bd
       -0.044722404 -0.020384422 -0.028433261 -0.05600499
0003f0 c2 5c 54 3c 4c 01 42 3d 7b 7a e8 3c 71 83 ef bc
       0.012961568 0.047364518 0.028378716 -0.02923748

rnn.bias_ih_l0 f4 [512]
000000 f6 3c 42 3d aa d7 4c 3d de 42 91 3d cf d3 81 bd
       0.047421418 0.05001036 0.07092832 -0.063392274
000010 99 d9 9b bd a6 33 88 bd ae 16 6d bd 4a b6 cf 3d
       -0.07609863 -0.06650476 -0.057882957 0.10142191
000020 51 ec c1 39 13 7f 50 3c e1 c9 81 3d dc 89 83 bd
       0.00036987898 0.012725609 0.063373335 -0.06422779
000030 dc ab c5 3d 2a e3 97 3d d3 76 01 3d a4 53 c7 bc
       0.0965192 0.07416375 0.03160746 -0.024331875
000040 01 56 85 3b 47 84 89 3d 0a a7 62 3b bd d5 80 3d
       0.0040690904 0.06714683 0.0034584426 0.06290767
000050 59 47 86 3c 97 6a 18 bc a3 06 5b 3d 31 4f 32 bd
       0.016391443 -0.009302757 0.053473126 -0.043532554
000060 03 08 c0 3c 4e 4d 97 bc 36 eb 3c 3d 3f 2b 50 3d
       0.02344132 -0.018469479 0.046122752 0.050822493
000070 19 a2 56 bd f8 b8 85 3d a5 65 a3 3c 35 7c a0 bd
       -0.052400682 0.065294206 0.019945929 -0.078361906
000080 99 f8 12 3d 61 06 ab 3d 43 1e 0c 3d 8b 10 1a 3d
       0.035881612 0.08350826 0.034208547 0.037613433
000090 85 8d 67 3d 21 74 dc 3c b0 b0 0f 3d c1 73 a5 bb
       0.056531448 0.026910843 0.03508061 -0.0050491993
0000a0 d9 46 c8 3d f1 5a 36 bd d3 87 a9 3d 4c d9 99 3d
       0.09779138 -0.044520322 0.082778595 0.07512149
0000b0 f9 e6 13 bd 19 8c ac bd 7e b1 f3 bc 43 2e cf 3c
       -0.036108945 -0.08425159 -0.02974772 0.025290614
0000c0 79 8d 3b 3b 38 32 7d bd b1 d2 0b bd 13 8e 8c bb
       0.002861826 -0.06181547 -0.034136478 -0.0042893975
0000d0 b9 22 39 3d a4 e8 fd bc 6e 23 53 bd ae 28 35 3d
       0.04519913 -0.03099472 -0.05154746 0.04422825
0000e0 cd 6f a9 bc 09 dc 6c bd b3 bf 82 bd 3a d5 36 3c
       -0.020683194 -0.05782703 -0.0638422 0.011159236
0000f0 61 92 c7 3c a6 04 9f bc 9f 39 81 3d a3 1b c8 bc
       0.024361791 -0.019411396 0.063098185 -0.02442724
000100 4e 2c 40 3c 8e 41 bb 3d fd f5 2a 3d 9b ca c5 3d
       0.011729313 0.09143363 0.0417385 0.096577846
000110 b7 ae b1 3c d2 82 6a bd 0f 06 82 bb 9b e0 10 3a
       0.021689756 -0.057253666 -0.0039680074 0.0005526633
000120 5c 8d 1b bc 15 82 8c bd 76 cb c1 3d 9c ee 80 3d
       -0.009494152 -0.06860749 0.09462635 0.06295511
000130 b4 b4 d0 3c d3 c0 37 3c 2f 61 6d bd ab 21 d8 bc
       0.025476791 0.0112154065 -0.05795401 -0.026383242
000140 ea 43 fd 3b 5d 50 74 3d 36 9a 88 bd 39 c4 4e 3d
       0.0077290433 0.059646953 -0.066700384 0.0504801
000150 eb e1 3c bd 1d ef 31 bd 24 30 9f 3d da eb 90 3d
       -0.04611389 -0.043440927 0.07772854 0.07076235
000160 64 cd 53 3a f4 39 bf bb ef d3 c8 3d 4f 43 4a bd
       0.0008079617 -0.005835766 0.09806048 -0.049380597
000170 5c 2b a3 bd b1 dd 94 3d b3 02 62 bc 6e e9 91 bc
       -0.079672545 0.07268847 -0.013794589 -0.017811503
000180 75 fa 59 bd 98 89 31 3d b8 e6 39 3c 1b 0e 8e bd
       -0.05321737 0.04334411 0.011346512 -0.06936284
000190 72 af 9a 3d ed 22 a8 3c a7 b4 0a 3c d6 83 ee 3c
       0.07552995 0.020524466 0.008465922 0.029115599
0001a0 50 e3 36 3c 05 25 87 bd 14 61 49 bd ce 7d 67 bb
       0.011162594 -0.06598858 -0.049164847 -0.0035322788
0001b0 55 02 a5 3d 74 60 1e bd 96 56 88 bd f9 ed 6c bc
       0.080570854 -0.038666204 -0.0665714 -0.014461034
0001c0 85 89 b2 3a 04 c8 56 3d cd 22 01 3e 68 23 04 bd
       0.0013621306 0.052436844 0.12610932 -0.03226033
0001d0 51 b4 a0 3d 58 2f ae 3d 0e 68 99 bc ff a1 16 3d
       0.078468926 0.08505124 -0.018726375 0.036775585
0001e0 50 f8 11 bd 7d d7 75 3d c8 83 81 3c c5 12 03 3a
       -0.0356372 0.06001996 0.015809909 0.00050000503
0001f0 9a f3 8c 3d 02 f2 39 ba 2b 7b 9c bd e0 20 11 3d
       0.06882401 -0.0007093252 -0.0764068 0.035431743
000200 ef 44 a1 3a 50 4e b8 bc 63 4e 1b bd 99 b5 ab bc
       0.0012303869 -0.02249828 -0.037916552 -0.020960616
000210 f4 a8 a8 bc 1b 35 80 3c 92 ec 87 bd 2f 82 7b bc
       -0.020588376 0.015650323 -0.06636919 -0.015350862
000220 96 7e d9 3c 6b fd 8e bd 5c 66 23 bd c9 87 a3 bd
       0.026549619 -0.069819294 -0.03989254 -0.07984883
000230 1d a0 14 3d fc 93 66 bd f5 1d 6b ba 50 2a 84 bd
       0.03628551 -0.056293473 -0.00089690025 -0.06453383
000240 f8 7e 83 bd 5d 9c 4f bd 6b ab 06 3d 8d f4 49 3d
       -0.06420702 -0.05068623 0.03287832 0.049305487
000250 f8 39 98 bd 33 f5 7b bd ae 14 94 3c 20 a1 3f 3d
       -0.07432932 -0.061513137 0.018076267 0.04678452
000260 12 52 94 3d 1c ef a1 bd 96 b8 ae 3c b1 4e ab 3c
       0.07242216 -0.079069346 0.021328252 0.020911546
000270 b2 22 1f bd 66 da 9f bd a2 52 81 bd 6b ac e6 3c
       -0.038851447 -0.07805328 -0.06314589 0.028158387
000280 7c ba 58 bc d4 39 45 3d 23 08 86 3d 2c b1 76 3d
       -0.013228055 0.048150852 0.06544521 0.060227558
000290 ad 1e 68 3d 4f 9d 1e ba 67 e0 c0 3b 09 9f 51 3d
       0.05666988 -0.00060506625 0.005886126 0.05117706
0002a0 d6 31 88 bd 88 f2 33 3d f3 0a 56 bd b5 f0 7c 3d
       -0.066501305 0.043932468 -0.052256536 0.061752994
0002b0 44 a3 95 bc 5d cd cf bc a6 0d 86 bd a6 68 58 bd
       -0.018266328 -0.02536648 -0.06545572 -0.052834176
0002c0 23 72 b5 3d 13 fb 12 bd fe 2a 83 3d 81 cd c5 3b
       0.088596605 -0.035883974 0.064046845 0.006036461
0002d0 a9 f7 9f 3c 6c 96 90 3b 0b ff 28 3d ba 0b 32 3d
       0.019527273 0.004412463 0.041258853 0.043468215
0002e0 b1 2b b3 3c 2a f0 8f 3d 22 ab 80 bd 46 93 1f 3d
       0.02187142 0.070282295 -0.06282641 0.03895881
0002f0 7b 58 ca 3c ea 2b 88 bd 67 6c 94 3d 53 8a 24 bd
       0.024700394 -0.06649001 0.072472386 -0.04017098
000300 40 bd a2 bd 51 eb 88 3d 57 45 87 3d cd d7 c4 3c
       -0.07946253 0.06685508 0.066050224 0.024028683
000310 10 f3 ab 3c d9 80 c9 3d 80 fe 9f bd 4a 5c 9a 3c
       0.020989925 0.09839029 -0.07812214 0.018842835
000320 25 59 b7 bd 95 03 c2 3c 35 8f 2c bd 05 fc 3c 3c
       -0.0895255 0.023683349 -0.04212876 0.0115346955
000330 18 2a 3c 3d fa 3a 0c bd db a2 ac 3d b0 5e a7 bd
       0.04593858 -0.034235932 0.084295 -0.08172357
000340 3d 4f 43 3d 5c 8e 40 3c 8d f9 87 bc fb 99 32 3d
       0.04768299 0.011752691 -0.016598487 0.04360388
000350 af 06 40 bd 05 0e 10 bd b8 f8 3c bc 9f b6 18 bc
       -0.046881374 -0.03516962 -0.011533909 -0.009320884
000360 b2 cf ab 39 55 2b 92 3d 77 75 96 bd 6f cf 60 3d
       0.00032770407 0.07137171 -0.073466234 0.054885324
000370 2a 03 36 bd 66 61 91 3d 59 74 ad bd 23 a2 f3 bc
       -0.04443661 0.070986554 -0.08469457 -0.029740399
000380 67 4d 8f bd 8a 2b 3d 3d cd 9e b1 bd 28 26 6e bc
       -0.06997185 0.0461841 -0.08672867 -0.014535464
000390 f1 aa 85 3d e1 90 4c b9 bb 7d 26 3d cd d1 8b 3d
       0.06526745 -0.00019508928 0.04064725 0.06827126
0003a0 15 7f a3 bd 19 f0 53 bd 17 f9 fc bc a9 36 52 3d
       -0.07983223 -0.051742647 -0.030880494 0.05132166
0003b0 21 c4 18 bd e9 fa 75 bd dc bc aa 3d 50 e3 e2 3c
       -0.037296418 -0.06005374 0.08336803 0.027696282
0003c0 74 7d bb 3d bd 54 a8 bc 77 16 8b 3d 7e 7b 9b 3d
       0.09154788 -0.020548219 0.06791394 0.07591914
0003d0 16 75 50 bd 8d 40 2c 3d 71 5a 19 3d fb 65 8c bd
       -0.05089291 0.042053748 0.037439767 -0.06855389
0003e0 3d 14 62 bd ab 18 0e 3d b0 89 c9 3c 08 38 0f bd
       -0.055195082 0.034691494 0.024601787 -0.034965545
0003f0 41 32 3a bd 13 dd 95 bd fc e0 12 3d c3 f1 4c 3c
       -0.045458082 -0.07317557 0.035859093 0.012508812

rnn.bias_hh_l0 f4 [512]
000000 e4 8c be 3c 45 6e e5 3c 68 21 17 bd 6b 21 92 bd
       0.023260541 0.028006682 -0.036897093 -0.0713528
000010 73 e2 29 bb 4a f7 1a 3d c3 a5 d7 3d 2a 18 1c 3d
       -0.0025922328 0.03783349 0.105296634 0.038108982
000020 13 f2 b7 3d 2d 40 26 bd db 2e fe bc 51 52 70 bd
       0.08981719 -0.040588547 -0.031028202 -0.058672253
000030 36 b2 0b 3c 2e d3 9d 3d cb 2c 58 3c 73 f7 04 3d
       0.0085263755 0.07706295 0.013194273 0.03246255
000040 ad 6e 8b 3d 31 6b 02 bd bb 7f 56 bc 44 d2 a7 bc
       0.06808219 -0.031840507 -0.013091977 -0.020486005
000050 d2 9f c5 3d bc ec d2 3c 8b 46 87 3d dc 4b 83 bd
       0.09649624 0.02574765 0.06605252 -0.064109534
000060 5b d7 08 3d 4a b8 8d bd 3f 50 08 3c 99 ac 77 3d
       0.033408504 -0.06919916 0.008319913 0.060467336
000070 b3 30 85 bd 90 57 b3 bd ae b4 bd bc bd 8c a3 bd
       -0.06503429 -0.087569356 -0.023157444 -0.07985828
000080 21 8c d5 3d 5e 9e bc 3d 02 5b 52 bd 60 3f 29 3c
       0.10427118 0.09209894 -0.051356323 0.010330051
000090 33 66 50 3d 06 66 4b 3d 9c 00 e5 bc 56 09 a3 3d
       0.050878715 0.049657844 -0.027954392 0.07960765
0000a0 3d 34 c1 3d 33 9f d6 bc 03 8b fc 3c 6f 0a 47 bd
       0.09433792 -0.026198959 0.030828005 -0.048593935
0000b0 4b 90 91 bd 1b fd bb bc 74 a4 8f bd ec c6 a1 bd
       -0.071076 -0.022947839 -0.07013789 -0.078992695
0000c0 64 c1 89 3d cc 28 a2 bc bb 36 8a 3d e7 84 35 bd
       0.067263395 -0.019794844 0.0674872 -0.0443162
0000d0 af fe 5b bd cd bc 86 3d b7 29 8f 3c 05 41 83 bc
       -0.053709682 0.0657898 0.017475946 -0.016022215
0000e0 57 e3 84 bd 20 71 54 3d 54 21 56 3d 6d ad 8c 3c
       -0.06488674 0.051865697 0.052277878 0.01717254
0000f0 3a b9 e7 3c bd ce 79 bd 84 bc d6 bc 75 8e bb bc
       0.028286565 -0.060988177 -0.026212938 -0.022895077
000100 df 25 ad bd 22 2a bc 3d 0b 71 85 bd be e3 97 bc
       -0.08454489 0.09187724 -0.06515702 -0.018541213
000110 fe 18 a8 3d 41 59 0b bd 57 e0 86 3d 5d 86 bf bc
       0.08207892 -0.034020666 0.06585758 -0.0233795
000120 9a a8 4f 3a aa 7b 1b bd 50 f5 89 bd be 20 c1 3d
       0.0007921547 -0.037959732 -0.06736243 0.09430073
000130 20 8e 9b 3d af c9 2b bd 3d 5d 90 bd 62 4a 98 3b
       0.075954676 -0.041940387 -0.07049034 0.004647539
000140 98 b7 90 3d 0f 7d ab bd e6 9d 8f bc c3 d1 91 3d
       0.07066268 -0.083734624 -0.017531347 0.07120087
000150 0a a4 4c 3b c9 9b 3c bd b8 fa fb bc d3 a0 00 3d
       0.0031225705 -0.046047006 -0.0307592 0.031403374
000160 01 62 b5 bb 1f 52 0d bd a7 ea 33 bd 86 b0 08 3d
       -0.0055353646 -0.034502145 -0.043924954 0.03337147
000170 60 74 13 3d 02 ed f1 bc 23 8c 3b bd d6 c1 17 bd
       0.035999656 -0.02953196 -0.04578794 -0.03705009
000180 5c db 76 bd 29 0b 93 bd c1 c8 9e bd a6 ff 35 bd
       -0.06026779 -0.07179863 -0.077531345 -0.04443326
000190 d0 cc 79 3d 05 87 a2 bd 89 5b c7 bd f7 ba 7d 3d
       0.06098634 -0.07935909 -0.09734256 0.06194588
0001a0 b8 65 9d bd 77 06 24 3d 9b ac 78 bd 37 1f a5 3d
       -0.07685417 0.040045228 -0.060711484 0.080625944
0001b0 55 6b d4 3b e9 a5 21 bd 18 a7 30 3d df 9e 97 bd
       0.0064825215 -0.039464865 0.043128103 -0.07403349
0001c0 e8 6f 8d 38 21 08 79 3d 55 83 c1 3d 53 4e 22 bd
       6.744248e-05 0.060798768 0.09448878 -0.039625477
0001d0 5b 5c 48 bd d8 9d 8c bd 3d ef be 3d f3 47 2a bc
       -0.048916202 -0.06866044 0.09322975 -0.010393131
0001e0 fe 67 6b bc b4 f9 fb 3c e0 d8 8f bc 74 ff 81 bc
       -0.014368055 0.030758716 -0.017559469 -0.01586888
0001f0 c4 b9 97 3d b8 81 40 bd cb 9a a2 bd d5 eb a8 3d
       0.07408479 -0.04699871 -0.07939681 0.082481064
000200 a7 87 5a bc 15 ba a6 bd fc c5 2f 3d ea 61 5b bd
       -0.013338006 -0.08140961 0.042913422 -0.053560175
000210 70 13 e9 39 1f d0 b3 3d 28 fa f3 bc 8e 9c a3 bd
       0.00044455705 0.0877993 -0.02978237 -0.07988845
000220 e3 00 85 bd d7 d7 18 3d 02 ad 8d bd 10 4d aa 3c
       -0.0649431 0.037315216 -0.06917764 0.0207887
000230 55 42 5c bc 8a 7a e3 3c ec 6a 74 bd 02 64 71 3c
       -0.013443549 0.027768392 -0.05967228 0.014733316
000240 0a 63 25 bd c6 d7 83 bd 8b 04 17 bd 71 a7 90 bd
       -0.040377654 -0.0643764 -0.036869567 -0.07063187
000250 64 19 8f bb ad 6a eb 3c 45 75 8e bd f6 2f 95 3c
       -0.0043670405 0.02873739 -0.06955961 0.018211346
000260 08 45 1d bd 40 e7 7d 3c 21 df b5 bd ac bc 10 bb
       -0.03839591 0.015497029 -0.08880449 -0.0022085113
000270 da 86 bf 3d ed 51 ae 3c 66 3c 9b bd d5 6c fd 3c
       0.09351893 0.0212793 -0.075798795 0.030935684
000280 14 d1 47 bd 98 5f 8e 3d 9a 76 a5 bd ea 6b 8d 3c
       -0.048783377 0.06951827 -0.08079262 0.017263371
000290 ca 47 42 bc 56 9d 29 3d 1d 0c fc bc d5 8f 45 3d
       -0.011857936 0.041409813 -0.030767495 0.048232872
0002a0 90 fb 24 3d ea 51 6f bc ac 97 02 3c b8 5d ff 3c
       0.04027897 -0.014606932 0.007970732 0.031172618
0002b0 cf ee 80 3d 0f 37 a5 3c ef 44 29 3d 3e 24 af bd
       0.06295549 0.020167856 0.041325506 -0.085518345
0002c0 01 c5 a7 bd 66 89 5b bd 37 66 88 3d 55 72 74 3b
       -0.081918724 -0.05359783 0.06660121 0.0037299593
0002d0 10 7c da 3c 2a 8e c9 3c 8d 15 4e 39 b1 91 9d 3d
       0.026670486 0.024603922 0.00019653719 0.07693804
0002e0 9f ae e6 bb 7d e1 81 3d 15 1e 19 bd 59 f6 23 3d
       -0.0070398594 0.063418366 -0.037382204 0.040029857
0002f0 19 c1 a2 3d ce 99 de 3c 4d 1c 22 bd 47 1d 26 bd
       0.07946987 0.02717295 -0.03957777 -0.040555265
000300 bc f8 0e bc e9 2c 34 bc e9 f2 7a 3d f5 94 a7 3d
       -0.008726295 -0.010997036 0.061266813 0.08182708
000310 0b 06 c1 3c 20 39 1a 3c fe c6 ee bc 0d 2c 21 3b
       0.023562452 0.009413034 -0.029147621 0.0024592907
000320 7b 72 8d bd 8c f4 0a bc e5 3e 9a 3c aa 48 33 3b
       -0.06906601 -0.008481156 0.018828819 0.0027356544
000330 ce 25 ad bc 14 44 47 3d cb aa 36 3d 86 34 88 bd
       -0.02113619 0.04864891 0.044596475 -0.06650643
000340 70 91 23 bc b1 25 92 3d 83 14 48 3d 59 04 d4 3c
       -0.0099834055 0.07136095 0.048847686 0.02588098
000350 bd 53 8f 3b 3f 4c ac bd fe e2 85 3d e0 f7 86 3d
       0.004373996 -0.0841298 0.06537436 0.06590247
000360 45 94 34 3d 3f a2 59 bd 80 8d 21 bd 9f 32 1c bd
       0.044086713 -0.053133246 -0.039441586 -0.038134214
000370 dc 6f ed 3b e3 64 85 3d 14 80 f2 3b 8b e8 75 3d
       0.0072460007 0.06513383 0.007400522 0.060036223
000380 bc 3c 25 3b 84 93 a3 3d a5 51 87 3d d8 67 92 bd
       0.0025213202 0.07987121 0.06607369 -0.07148713
000390 ba 97 ac bc a9 99 8f bd 6d 0b 12 bd fd 17 58 3b
       -0.021068443 -0.0701173 -0.035655428 0.0032973283
0003a0 1d 96 bb bd e4 93 82 3d 7b 9e 0b 3d a7 cf 82 3d
       -0.09159491 0.06375864 0.034086686 0.06387263
0003b0 14 5f 8a 3d eb 51 3f 3c 97 e3 b2 3d 61 58 8c bd
       0.06756416 0.011677246 0.087348156 -0.068527944
0003c0 c1 7f 41 bd 92 ed 8f bb cf 2d 02 bd 3b e2 90 bc
       -0.047240976 -0.0043923343 -0.031781968 -0.017686
0003d0 a9 52 75 bd c5 9a af 3d 07 a8 dc bb 20 e3 97 bc
       -0.059893284 0.08574442 -0.0067338976 -0.018540919
0003e0 06 c6 84 bd 1c 0c 61 bd b2 e3 40 bc 81 43 98 bd
       -0.064830825 -0.05494319 -0.011773037 -0.0743475
0003f0 f9 ea 56 bd 62 94 89 3d cc 58 df bc 9c 33 d8 bc
       -0.05247018 0.06717755 -0.027264021 -0.026391797

rnn.weight_ih_l1 f4 [512, 128]
000000 89 19 fa bc ef 5e 87 bc a9 ff 47 bd e0 d0 04 bb
       -0.030529754 -0.01652476 -0.0488278 -0.00202661
000010 af df 42 bd 29 a0 8e 3d 28 0f f2 bc fc 5d 73 bc
       -0.047576603 0.06964142 -0.029548243 -0.014853951
000020 e3 fc 8d 3c 44 e6 ff bc fb d7 a5 bb 65 db 24 bd
       0.0173325 -0.031237729 -0.0050611473 -0.040248293
000030 6e ff 84 3c 05 a1 aa bd f3 20 14 bd 71 23 52 bd
       0.01623508 -0.08331493 -0.036164235 -0.05130333
000040 bd 99 83 3d 56 f5 8d 3d 00 cc 9b bc 41 60 30 3d
       0.064258076 0.0693156 -0.019018173 0.043060545
000050 51 c8 2d bd f3 ca 50 bd b1 95 92 bc 33 77 9a 3d
       -0.042427365 -0.050974797 -0.017893644 0.07542267
000060 19 13 12 bc ad 9a c4 bc 56 57 f7 3c fc 2d a4 3d
       -0.008915686 -0.023999536 0.030193012 0.08016583
000070 b6 3a 3c 3d 97 61 34 bd 8c 5b 5e bd d5 f7 a2 3d
       0.04595443 -0.04403838 -0.054286525 0.079574265
000080 88 8a 5b bd 42 2f 9e bd f2 0c 95 3d 5a ad 6e 3d
       -0.05359891 -0.077238575 0.0727786 0.05827079
000090 50 18 9e bd 92 10 29 bc c2 90 7c bc 8a 7d 91 bd
       -0.07719481 -0.010318892 -0.015415372 -0.07104023
0000a0 55 4e af 3d 9f 05 e9 3a 26 72 31 3d 53 55 cf bc
       0.085598625 0.0017778164 0.04332175 -0.02530924
0000b0 bc f4 4e bd f2 c6 b3 bc 7e 0e 3b 3d 0a 40 50 bc
       -0.050526366 -0.02194545 0.045668118 -0.012710581
0000c0 62 16 98 bd 83 81 91 3d 78 8d 68 3d a7 93 eb bb
       -0.07426144 0.071047805 0.05677554 -0.0071892324
0000d0 85 41 c9 b9 c1 cc 9b bd 1c 0b 56 bd 56 8e 86 bd
       -0.00038386523 -0.07607413 -0.05225669 -0.06570117
0000e0 f7 1e 7d bd 72 be 4b bd 18 eb e8 3c e1 d5 52 bc
       -0.06179711 -0.04974217 0.028432414 -0.0128683755
0000f0 a5 df c7 3c 52 32 6b 3d 82 51 95 bc 3f 72 82 bd
       0.024398634 0.057421036 -0.018227343 -0.06369447
000100 51 86 0a 3d ef 78 1c 3c 4d 35 8a 3d 12 73 71 bc
       0.0338195 0.009550317 0.067484476 -0.014736908
000110 a5 59 10 bc 04 23 a8 bc bd 2d 31 bc e4 62 fa 3c
       -0.008810435 -0.02052451 -0.0108141275 0.030564733
000120 b1 c5 79 3c 28 25 36 3b 17 23 c9 bd f2 dc 3a 3d
       0.015244887 0.0027793143 -0.09821146 0.045620866
000130 84 f7 83 3b a4 a3 36 3d ab 31 2b bc 9a 4b ac bd
       0.004027309 0.044589654 -0.0104488535 -0.08412857
000140 ab 8a 68 bd c8 03 9c 3c 1f e1 15 3d 7d 93 dc 3c
       -0.05677287 0.019044772 0.036591645 0.026925797
000150 09 e4 2f 3d 45 50 a4 bd 8b 0d 97 3b 59 45 49 3d
       0.04294208 -0.08023123 0.0046097687 0.0491384
000160 c5 d5 a2 bc b6 b6 8e bd 27 50 d5 3c 7c ab 29 3d
       -0.019877324 -0.06968443 0.026039196 0.041423306
000170 df de 8d 3d 4f 38 aa bd 95 d4 7d bc b6 71 fb bc
       0.06927275 -0.08311521 -0.015492578 -0.03069387
000180 63 9f 38 3d 7f 14 10 bd f6 62 2c bd 58 82 88 bd
       0.045073878 -0.035175797 -0.042086564 -0.06665486
000190 b6 4c 1f bd ee 43 07 3d e7 1b af 3d 29 08 2e bd
       -0.038891517 0.033023767 0.08550244 -0.04248825
0001a0 9d f3 12 3b b4 30 3a 3d a3 5a 98 bd 7b 4a 73 bc
       0.0022423037 0.045456603 -0.074391626 -0.0148493005
0001b0 e0 5a 27 bc 7e ab 32 bd df d4 1a bd 3f 45 4b 3d
       -0.010214537 -0.04362058 -0.037800666 0.049626585
0001c0 a8 0e c1 3d d3 6f 8c 3c e9 83 2e 3c d4 c0 b6 3d
       0.094266236 0.017143166 0.010651567 0.08923498
0001d0 67 67 93 3d 60 73 a1 bd 97 a5 64 3d 8e 65 2f bd
       0.07197457 -0.07883334 0.05582198 -0.04282146
0001e0 ab 8d 06 bd 38 d7 bf 3d 4e 69 cb bb f2 f7 8a bd
       -0.03284995 0.093672216 -0.0062076217 -0.06785573
0001f0 10 83 81 bd ad 5c 9c 3d 2c 88 99 3c ea 5a 8f 3c
       -0.06323826 0.07634864 0.01874169 0.017499406
000200 a6 da 83 3d 53 30 f9 3a 00 ff 28 3b 1b 57 ab 3c
       0.06438188 0.0019011594 0.0025786757 0.020915559
000210 c8 5e 18 3b a4 5e e2 bc aa 43 2e 3d 6c fc 0e 3d
       0.0023249853 -0.027633019 0.042545 0.034908697
000220 39 3a 9b 3d b7 41 87 3d a6 d0 33 ba 7f 24 a7 3a
       0.075794645 0.06604331 -0.0006859399 0.0012751966
000230 fc 8d e1 3c 4f 70 b1 bd 25 28 1f bd 48 99 91 3d
       0.027533524 -0.08663999 -0.038856644 0.07109314
000240 e7 7e 6e 3d ff 18 a1 bc 6d e8 8a 3c 3b 2e 65 3d
       0.058226492 -0.01966524 0.016956532 0.055952292
000250 b6 7d 8c 3c 19 64 f1 3c ec cd 20 bd 75 61 98 3d
       0.017149787 0.029466676 -0.039258882 0.074404635
000260 07 d3 cc 3c 82 1a 74 3c 19 ea 82 bd 7e 51 51 bc
       0.02500297 0.014898898 -0.06392307 -0.012775777
000270 6e 9e ad 3d 84 55 88 3d 9b 2b 24 3d dd 94 b1 bc
       0.08477484 0.06656936 0.040080648 -0.021677429
000280 e6 c0 65 bd 7a 01 69 3d 46 aa 6d bd 66 a8 94 bd
       -0.056092165 0.056886174 -0.058023714 -0.07258682
000290 58 20 a0 3d 84 c1 a1 3d 4e 39 8c 3d 20 1f 62 3d
       0.07818669 0.07898238 0.068468675 0.055205464
0002a0 a0 35 aa 3d 74 18 a3 bd 23 a4 9e 3d 77 c0 ba 3d
       0.083110094 -0.079636484 0.0774615 0.09118741
0002b0 78 3d 21 3d e5 2f ca 3c 44 12 db 3c 78 b6 f7 bb
       0.03936526 0.024681041 0.026742108 -0.0075595938
0002c0 8d 09 04 3d 5b 6a 41 bd 72 3f 88 bc ba ac 7d bc
       0.03223567 -0.04722057 -0.016631816 -0.015483076
0002d0 9e 5a 55 bc 0f 20 ca bd 0a 06 84 bd 6e a3 86 3d
       -0.013022093 -0.09869396 -0.06446464 0.065741405
0002e0 1c 6a 61 3d 65 f1 2c bc 18 70 55 3d c5 7c 83 3d
       0.055032834 -0.0105556 0.052108854 0.06420282
0002f0 75 4b 2e bd d7 36 13 bc 82 ab b1 3d c9 e4 a7 3c
       -0.04255243 -0.008985243 0.08675291 0.020494835
000300 0c 60 aa 3d 46 50 7c bd 77 2f 54 bd e4 25 45 bc
       0.08319101 -0.061599992 -0.05180308 -0.01203296
000310 05 fd c6 3d 09 d0 9c 3d cb dc 82 bc 87 70 24 3d
       0.097162284 0.07656867 -0.015974423 0.040146377
000320 f9 8f 69 bd a3 89 1b 3d 48 93 3d bc cd 1a de bb
       -0.05702207 0.037973057 -0.011570759 -0.0067780972
000330 8d 5b cc bd d7 ec f0 3c a5 49 23 3d 72 4e 0c bd
       -0.099783994 0.029409809 0.039865155 -0.0342545
000340 85 8a 06 bc 99 54 63 3d 2c c1 8b 3c 2b 65 2d 3d
       -0.008211737 0.0555006 0.017059885 0.04233281
000350 68 24 91 bc 5a cc da bd 0f 98 8b 3d e1 85 8d 3c
       -0.017717555 -0.10683508 0.06816112 0.017275752
000360 11 e2 9e 3d 7a 4c 93 3d 7f 3d d7 bd 72 08 c0 bc
       0.077579625 0.07192321 -0.10509776 -0.023441527
000370 0a ea 73 bd 3c 47 e7 3c 81 27 ff bc 87 2e b5 3d
       -0.05954937 0.02823221 -0.031146767 0.08846765
000380 4c ab 0c 3d 9e 2c 33 bc 89 27 ad 3c 6d 77 31 3d
       0.03434305 -0.010935931 0.021137016 0.043326784
000390 e6 ba 64 3b 75 5d 31 3d f7 b3 2b bd b8 f2 5d 3d
       0.003490144 0.04330202 -0.041919675 0.054186553
0003a0 25 e0 7a bd 74 c9 f9 bc 95 71 a2 bd f7 bd b0 bc
       -0.061248917 -0.030491568 -0.0793182 -0.021574957
0003b0 8f ad 8b bd fc 24 8b bd 43 c7 0c bd 7b 22 8a 3d
       -0.06820213 -0.067941636 -0.03436972 0.06744858
0003c0 aa f7 4e bd 01 b2 40 bc a6 23 98 3d 92 28 81 bd
       -0.05052916 -0.011761189 0.074286744 -0.06306566
0003d0 3a c9 c0 3d 0a 33 88 3d 76 b7 ac 3c 31 26 b4 bc
       0.09413381 0.0665036 0.021083575 -0.021990867
0003e0 18 6e be 3d 62 c7 3e 3d b1 73 89 bc 77 34 92 bd
       0.092983425 0.046576865 -0.016778799 -0.07138913
0003f0 72 2d cc bb b4 08 76 bd a2 11 3a 3d f8 26 50 3d
       -0.0062310034 -0.060066894 0.045426972 0.050818413

rnn.weight_hh_l1 f4 [512, 128]
000000 3e 72 cc 3c ba 8f 8e bd be 54 89 bd 84 27 83 bb
       0.024956819 -0.069610074 -0.067056164 -0.0040025134
000010 52 50 be 3c 60 c1 0e 3d a7 c6 45 bd 0e 2d 24 3d
       0.02323166 0.034852386 -0.048285153 0.04008203
000020 18 11 80 3d 6b b1 23 bc 53 97 59 bd 6a f5 f9 bc
       0.062532604 -0.00999103 -0.05312283 -0.03051253
000030 f2 b8 6c bd 69 ff a2 bd e9 87 66 bd b4 4f 2a bd
       -0.057793565 -0.07958872 -0.056281958 -0.041579917
000040 7f 51 a0 3d c2 90 15 bd 52 8c 97 3d 69 26 6d bd
       0.07828044 -0.036515005 0.07399811 -0.05789796
000050 54 a5 71 bc de 40 99 bd e6 cb a2 3d 4c 9c e8 bc
       -0.01474889 -0.074830756 0.07949047 -0.02839484
000060 58 c6 52 3d 58 4a 2f 3d 30 1b 14 3c aa 9a 85 3d
       0.051458687 0.04279551 0.009039685 0.065236405
000070 8b 6c ea bc e1 08 37 bc 3c 37 a5 3d 2b 8e df 3c
       -0.02861621 -0.0111715505 0.08067176 0.02728947
000080 68 68 a4 bd 86 96 50 bc e8 7b 73 bd 98 db 94 3b
       -0.080277264 -0.0127312 -0.059444338 0.004542779
000090 c5 f8 bd 3c 4d b8 40 bd 7c bb 2f 3d f4 9c a1 3d
       0.023189912 -0.047050763 0.04290341 0.078912646
0000a0 fc 3a a2 3d ce e4 fe ba 74 d8 01 3c eb b9 ba 3d
       0.079214066 -0.0019446851 0.007925142 0.09117492
0000b0 d0 c3 94 3d 46 a2 97 bd 40 5a 4a bd 2e 7d 3e bd
       0.07263911 -0.07403998 -0.049402475 -0.0465061
0000c0 16 3c 9c bd 76 3f b1 bd ba de 4d 3d f3 18 b0 bd
       -0.07628648 -0.08654682 0.050261237 -0.08598509
0000d0 f7 65 a6 bd d1 53 63 3d 72 60 a5 3c 32 ed 19 3d
       -0.08124917 0.055499855 0.02018759 0.037579723
0000e0 74 6f 42 3d 3f 07 46 3d 2d d1 9c 3d f1 a7 06 3b
       0.04746957 0.048346754 0.076570846 0.0020546878
0000f0 c6 bd a2 3c f4 5c c5 3c 14 70 a5 bb 04 75 8d 3d
       0.019865882 0.024092175 -0.005048761 0.069070846
000100 d6 9e e6 3c 97 ee 9e bc 40 5a a2 bd d1 7c 9e bb
       0.02815191 -0.019400878 -0.0792737 -0.0048366566
000110 1e 72 30 bc 36 73 09 bd f9 54 ab 3d 97 8d b9 bd
       -0.010769395 -0.03355714 0.083658166 -0.09060209
000120 4c 88 fd bc 4b 7e 0b bd 62 67 54 bd 64 fe 15 bd
       -0.03094878 -0.03405599 -0.051856406 -0.03661956
000130 9c d8 72 bd a3 1a 69 bd c8 2a 2d bd 67 a6 9a 3d
       -0.059288606 -0.05691017 -0.042277128 0.0755127
000140 fe 0b 10 bd a2 95 58 bd 83 c2 0c bd ea 29 8d 3d
       -0.035167687 -0.052877076 -0.03436519 0.0689276
000150 32 bc bb 3d 2e 36 5c 3d 46 8c 75 3b 49 c8 e7 bb
       0.09166755 0.053762607 0.0037467643 -0.0070734364
000160 57 bf 53 3d 7a ec ba bd 9e 38 7f 3d 98 14 75 3d
       0.051696148 -0.091271356 0.062309854 0.059834093
000170 a9 1a e9 3c bc 5a 42 3d fc a4 67 3c 81 6f e8 bc
       0.028455095 0.047449812 0.014138456 -0.028373482
000180 0c 0e 8a bd 6e 2d 80 3d f6 31 d9 3c 1b b2 4f bd
       -0.067409605 0.06258665 0.026513081 -0.050706964
000190 d9 33 ba bd a3 9f 1a bd 14 0f 50 bd 74 cf 90 3d
       -0.090919204 -0.037749898 -0.05079563 0.070708185
0001a0 cf 98 8e bd a1 91 69 bd cd cb 93 bd 0c 0f ca 3c
       -0.0696274 -0.05702365 -0.07216606 0.024665378
0001b0 42 4d 84 3c 43 d9 8b 3d a1 f0 96 bc 07 ab b2 3c
       0.01615012 0.06828549 -0.018425288 0.021810068
0001c0 e8 41 ac 3d fb 7d 53 bc 83 d4 88 bd 37 d7 b2 bc
       0.08411008 -0.012908454 -0.066811584 -0.021831138
0001d0 d6 25 9b bd 71 7d 80 3d 29 1e 24 bd 9f 25 d2 bc
       -0.07575576 0.06273926 -0.040067825 -0.025652705
0001e0 cb f1 98 bd 45 ff ab 3b 25 f4 a3 3d b8 7f 9d 3c
       -0.07467993 0.0052489364 0.08005551 0.01922594
0001f0 10 28 f6 bc 61 a3 73 3d c9 5b 55 3d 47 22 8d bd
       -0.0300484 0.059481982 0.052089486 -0.068913035
000200 9b a4 b4 3d c9 c0 3b 3d 3c c1 4a bd 31 05 6e 3b
       0.088204585 0.04583815 -0.04950069 0.0036319012
000210 b5 04 b8 bd cf d6 36 bd 77 cc 84 3d f3 c5 16 3d
       -0.08985273 -0.04463845 0.06484311 0.036809873
000220 21 af 6d bd 0f 3a ec 3c ce a0 1b 3d c4 99 dd bc
       -0.058028344 0.028836278 0.037995152 -0.02705086
000230 41 c7 36 bd db f3 06 bd 71 ae 30 bc 62 6e 83 bc
       -0.044623617 -0.032947402 -0.010783778 -0.016043846
000240 e3 55 a3 bd 6d 4f 90 3d e2 24 1a bd c5 d7 04 bd
       -0.07975366 0.07046399 -0.03763283 -0.032432336
000250 10 72 1c bd 0e 04 a6 bd 5e 00 16 3d cc dc 81 bd
       -0.038194716 -0.08106242 0.036621444 -0.06340942
000260 49 02 2e bd 2e 38 96 bc 32 7c 1b 3c 2c ac 0a bd
       -0.042482648 -0.018337335 0.00949006 -0.033855602
000270 d7 5a db 3c 91 e1 13 bd 24 12 ab 3d 8f 56 bd bc
       0.026776714 -0.03610379 0.083530694 -0.023112563
000280 e9 bb 02 3d 83 8a 8c bd e4 8e 42 bc bd 1d 0f bc
       0.031917486 -0.068623565 -0.011874888 -0.0087351175
000290 4b b1 38 bd e5 76 d0 3a 11 90 26 bd 09 62 c9 bb
       -0.045090955 0.0015904574 -0.040664736 -0.00614572
0002a0 b6 2f b4 3c d0 2e 9e 3c 66 12 ac 3d 92 4e a6 bb
       0.021995407 0.019309431 0.08401947 -0.0050752843
0002b0 7d d3 55 bd 74 37 06 bd 7a c7 9c 3c 9e a5 ac 3c
       -0.052203644 -0.032767728 0.019138087 0.021075066
0002c0 94 44 98 3d 19 c0 0d bb 55 6d 86 3b aa e4 c9 bd
       0.07434955 -0.0021629392 0.004102389 -0.09858067
0002d0 af ba 80 3d 9d c1 f1 3c 89 3d 4e 3d 18 20 04 3d
       0.06285607 0.029511267 0.050351653 0.03225717
0002e0 91 1d 1b 3d bc 9a 1a bd 47 c8 4e bd b7 36 bf bd
       0.037869994 -0.037745222 -0.050483968 -0.09336608
0002f0 87 7d c6 bc 3c 59 4a bc 3e f6 32 bd bc 7a 98 bd
       -0.024229778 -0.012350377 -0.043691866 -0.07445285
000300 e9 d0 97 bd b6 22 82 bd 7e 9b 0d 3d 1c 47 8c 3d
       -0.07412893 -0.06354277 0.034572117 0.068495005
000310 45 27 20 bd 20 e6 84 3d 21 6b ed bc cb 8a 46 3d
       -0.03909995 0.06489205 -0.028981747 0.048472207
000320 a3 4a 83 3d 1a 0e 36 bd b4 bd 29 bd eb f8 8d bd
       0.0641072 -0.044447042 -0.04144068 -0.06932243
000330 bc 52 05 3d ca 19 ab 3d e3 76 f8 bc 4f 1a 92 bd
       0.032549605 0.08354528 -0.030330127 -0.07133924
000340 19 87 c6 3c 6c f3 0f 3d 6a 92 7a bd 24 bf 54 3d
       0.024234341 0.035144255 -0.061174788 0.0519401
000350 14 2b ba 3c e0 82 e6 3c 4b e9 b4 bd 91 4b 52 3d
       0.02272562 0.028138578 -0.088335596 0.051341597
000360 0d 45 7b 3d 6e 39 ad 3d cc 8c 98 3d f4 96 9e bd
       0.06134515 0.084582195 0.0744873 -0.07743636
000370 89 ba 88 3d 15 9b bc 3d be fa 05 3d 4f 08 94 3d
       0.06676204 0.09209267 0.03270983 0.07228147
000380 4f 08 e2 bc 29 fc 77 3d f4 33 09 3d da 73 cc bc
       -0.027591852 0.060543213 0.033496812 -0.024957586
000390 a8 92 b0 3d 19 1d 94 3d b7 13 64 3d b6 9e bb 3a
       0.086217225 0.072321124 0.055682864 0.0014314267
0003a0 03 e0 95 bd 32 80 83 bd e3 90 1e 3d 21 1a c0 bc
       -0.073181175 -0.06420936 0.038712393 -0.02344996
0003b0 b1 a5 72 3d 9b d4 92 bd a3 dd b8 bd 93 03 b3 bd
       0.059240047 -0.071694575 -0.09026649 -0.08740916
0003c0 0c 90 27 3d 69 d1 bf bc 38 3b 63 bd ad f8 6e 3d
       0.04090886 -0.023415284 -0.055476397 0.058342624
0003d0 01 90 aa bd 40 d2 ae ba fc 5f c0 bb f4 27 9f 3d
       -0.08328248 -0.0013337806 -0.005870817 0.07771292
0003e0 1f 2b 85 bd b3 90 6d 3d b9 4f 9e bd 62 b9 d1 bc
       -0.06502365 0.057999324 -0.0773005 -0.025601093
0003f0 bb 96 09 3d cb b4 81 bc cd 03 49 3c 8b 47 a2 bc
       0.033591013 -0.01583328 0.012268973 -0.019809505

rnn.bias_ih_l1 f4 [512]
000000 ac 20 a9 3d 4a 12 5d bd 25 f5 7d bd aa 25 5a 3d
       0.08258185 -0.05397252 -0.062001366 0.053258575
000010 df 75 ca bc 9a 1b a0 3d 3d c6 9f 3c 1c 9d 38 bd
       -0.024714408 0.078177646 0.019503707 -0.045071706
000020 b1 79 33 3d ba 07 b2 3d 48 50 83 bc 29 7d d9 bc
       0.043817226 0.0869288 -0.016029492 -0.026548939
000030 58 00 39 bc 86 83 3c 3c 60 82 e4 bc f1 2d 5e bd
       -0.011291586 0.011505967 -0.027894199 -0.054243032
000040 64 a4 97 3d 22 8c 32 3d 18 69 94 bb 5b b3 7c bd
       0.07404402 0.043590672 -0.0045291297 -0.061694484
000050 57 cf 83 3c cc 71 ac bd 9c a3 d9 bc 51 58 34 bd
       0.016090078 -0.084201425 -0.026567273 -0.044029538
000060 15 c8 46 bd ce 92 07 bd ac ca 44 3d 8c 9f f8 3b
       -0.048530657 -0.03309899 0.048044845 0.007587379
000070 67 a5 c7 3c a1 fe fb 3c 4b 88 84 bd 5c 57 c2 bc
       0.024370862 0.030761065 -0.06471308 -0.023723297
000080 ce 6f b5 3c 31 39 44 bc 19 db 85 3d da 3a 2f 3d
       0.02214804 -0.011976526 0.0653593 0.042780735
000090 85 de 17 3d a4 5d b9 3d c4 c4 80 3d 50 bd ef bc
       0.037077446 0.09051064 0.0628753 -0.029265076
0000a0 f0 8b 7b 3d a5 ed 9b 3d 67 59 2d 3d d3 94 c6 bb
       0.06141275 0.076136865 0.04232159 -0.0060602217
0000b0 7e 8d 35 bd 96 c4 ad 3d a7 ae da 3c 05 74 9b 3c
       -0.04432439 0.084847614 0.026694609 0.01897622
0000c0 25 91 9e 3c 50 3e e2 3a ea 86 ac bd 2c d4 90 3d
       0.01935632 0.0017261002 -0.0842417 0.070717186
0000d0 58 20 51 bd 75 08 c6 3b bd 15 1a bd b1 d4 a7 3c
       -0.051056236 0.0060434886 -0.037618387 0.020487161
0000e0 b5 93 55 bd dc 9f 8e 3d 8d 89 b8 bc 9d 07 9f 3d
       -0.052142818 0.069640845 -0.022526527 0.07765124
0000f0 12 91 96 bd 56 9e e4 bc 5d 84 c5 bb 60 8b 7f bd
       -0.07351889 -0.027907532 -0.006027742 -0.062388778
000100 44 42 bf 3d 86 f3 48 3d 3f 6c b2 3d 57 57 51 bd
       0.09338811 0.049060367 0.087120526 -0.051108684
000110 de 40 39 3b bd c4 f5 bc 2b 60 dd 3c 09 af da bc
       0.0028267424 -0.030001039 0.027023396 -0.026694791
000120 c5 ed 14 3c 38 cd 47 3c 24 a4 8f bd 85 f6 fe bc
       0.009089892 0.012194924 -0.07013729 -0.031123409
000130 84 36 07 3d 8d 84 9b 3d 6d 12 d6 3c 4f 53 2a 3c
       0.033010975 0.075936414 0.026131833 0.010395839
000140 9e c5 2a bd 3e 0b ba 3d ea f0 15 bc 9e d4 82 bd
       -0.04169237 0.090841755 -0.009151677 -0.0638821
000150 d3 36 8e bd 3a 63 27 bd ad e6 b4 3d f4 46 f5 3c
       -0.06944051 -0.040866114 0.088330604 0.02994106
000160 4c 88 52 bd 1a 72 24 3b ac fe d6 bc a3 cb bc 3c
       -0.051399514 0.0025092424 -0.026244484 0.02304632
000170 e0 d4 9a 3d 7b ae 9e bb ea e2 21 bd de 10 13 3d
       0.07560134 -0.004842577 -0.039523043 0.035904758
000180 56 ae b9 3d 1f 9b 35 bc c8 fc 78 3c 6a 53 98 3d
       0.09066455 -0.011084347 0.0151969865 0.07437785
000190 c3 4a 80 3c 2d ae 87 bd dc 86 54 bb 3e 5f db 3c
       0.01566065 -0.06625018 -0.0032429015 0.026778813
0001a0 65 13 bb bb 8e b3 4f bd 1d 83 9c b9 36 1f 33 3c
       -0.005709099 -0.050708346 -0.00029852326 0.010932734
0001b0 d6 b9 cd bc cc 60 2c bd 74 3f 86 3c 32 f5 04 bb
       -0.025113028 -0.0420845 0.016387679 -0.002028775
0001c0 70 61 36 3d a2 59 f1 bc 39 da a2 3d e2 d3 35 bd
       0.044526517 -0.029461686 0.07951779 -0.04439152
0001d0 a8 ea 1c 3d c9 fd aa 3d 82 1d ac bd 4b 1a 3b bd
       0.038309723 0.08349187 -0.08404066 -0.04567937
0001e0 75 78 45 3c 1c 9f 64 bd 8d 84 55 3d 24 2c f3 bc
       0.012052645 -0.0558158 0.052128363 -0.029684134
0001f0 d3 8c 93 3c 56 15 2d 3d 20 c6 29 bd d3 2f 32 3d
       0.018011486 0.042256676 -0.041448712 0.04350264
000200 af 37 81 3d cf 02 2a bd e5 0c d7 bc 04 7d 96 3d
       0.06309449 -0.041506585 -0.026251266 0.073480636
000210 8e 86 b6 3d 6f b0 23 bc 89 ea 7b bd 50 b4 19 bb
       0.08912383 -0.0099907955 -0.061502967 -0.0023453422
000220 c4 60 c9 3d 3f 28 0e bd 16 45 95 3c ce 6b 0b bd
       0.0983291 -0.03470635 0.01822142 -0.034038357
000230 85 29 44 bd a8 c0 92 bc ec 0f 4b 3c 16 c0 90 bd
       -0.04789116 -0.017914131 0.012393933 -0.070678875
000240 b1 81 a4 3d a0 1f 3d 3d be a3 e0 3a af 8b b9 bd
       0.08032549 0.046172738 0.0017138643 -0.09059846
000250 7f a3 16 3d 7c b4 99 bc 3f 30 61 3c 8a 36 ed bc
       0.036777016 -0.01876282 0.013744413 -0.02895667
000260 86 e0 7c 3d c7 a5 9e bd cb 3c 72 3d 8f 18 98 bd
       0.06173756 -0.07746463 0.059140008 -0.07426559
000270 b2 5b 93 bd 39 56 cb 3c e6 ae 12 3d 4e e5 b9 bd
       -0.07195224 0.024821388 0.035811327 -0.090769395
000280 ec b1 8b 3d ef 6c 91 3d 99 1c 03 bc 09 a4 a3 3d
       0.06821045 0.071008556 -0.008002424 0.079902716
000290 63 23 d5 bc 2e cb ab bb 90 0f 56 bd 99 0d 42 bd
       -0.02601785 -0.0052427268 -0.052260935 -0.04737625
0002a0 57 e1 7d 3d 70 3c bb bc 51 8b 8f bd c4 11 e0 bc
       0.06198248 -0.022855967 -0.07008994 -0.027352221
0002b0 ed ca a0 3d bf 86 de 3c b7 8e 03 bd 30 aa 4e bd
       0.07851205 0.027163861 -0.032118525 -0.050455272
0002c0 04 a7 97 3c 02 a9 b9 3d 4b bc a7 bc 4c b7 30 3d
       0.018512256 0.09065439 -0.020475527 0.043143556
0002d0 d4 36 87 bd a5 c9 83 3d ce 81 ba bb 58 8e b6 3d
       -0.066022545 0.06434945 -0.0056917435 0.08913869
0002e0 d8 50 c2 3d 3c 65 2f bd fd 35 01 bc 07 08 81 bd
       0.09488076 -0.042821154 -0.007886407 -0.06300359
0002f0 c9 3e 49 bd d2 84 af 3c 84 f9 18 3d 3e b1 9b 3c
       -0.049132142 0.021425638 0.03734733 0.019005414
000300 b3 44 de 3b b9 36 53 3d 46 7e 5d 3d 2d 2b 6a bd
       0.006783092 0.05156586 0.0540755 -0.057170082
000310 ea c5 a6 bd d9 b5 c1 3d 64 bd 9a 3c 6d 7e 95 bd
       -0.08143218 0.09458513 0.018889137 -0.072995044
000320 48 80 38 bd 6a 6d eb bc 76 57 a5 bd d6 93 be bc
       -0.045044214 -0.028738696 -0.080733225 -0.023263853
000330 2c 22 97 3d 53 56 d4 bc 10 ae 38 bd ac 4c 54 3c
       0.07379565 -0.025920069 -0.045087874 0.012957733
000340 80 45 ac 3d a1 15 34 bc d5 98 c1 3d ed 4e 94 3c
       0.084116936 -0.010991485 0.094529785 0.018104041
000350 90 03 fd bb 04 5a b6 bd 37 ba ac bd e4 66 9b bb
       -0.007721372 -0.08903888 -0.08433955 -0.00474249
000360 93 ac 7c bc 95 42 a9 3d 9d cd 2e bc 9d 83 9e bd
       -0.015422004 0.08264653 -0.010669139 -0.07739947
000370 15 60 17 bd 7a c8 36 3c a8 67 a3 bd 7e 3d a5 bd
       -0.036956865 0.011156196 -0.07978755 -0.08068369
000380 c5 48 24 bd 86 11 89 bb 60 0f a7 3d 2e c1 43 bd
       -0.04010846 -0.004182997 0.081572294 -0.047791652
000390 d8 17 8b 3d 0d 22 96 3c cc 4f c9 3b 2f 65 3e 3d
       0.06791657 0.018326784 0.0061435457 0.046483215
0003a0 bc 3e b3 bd 56 ec f0 bc ce 54 a0 3d 30 06 6d 3d
       -0.087522 -0.029409569 0.07828675 0.05786723
0003b0 1f bb 8d 3d 44 7b 41 3a ae cb 75 bd c7 43 7e bd
       0.06920456 0.0007380734 -0.060008697 -0.062076356
0003c0 cd af 17 3d 00 f4 0c bd 3f 0e f8 3b 67 b6 7d bd
       0.03703289 -0.034412384 0.0075700576 -0.06194153
0003d0 8d a3 01 bc 04 85 a0 bd 34 af 92 bc 83 63 ab 3d
       -0.007912529 -0.07837871 -0.017905809 0.0836859
0003e0 4c a2 0d bc cd f2 82 bd 30 0d 9c bc ef 24 17 bd
       -0.008644652 -0.06393967 -0.019049257 -0.036900457
0003f0 ca 42 e5 bc ae b4 7e 3d 9f 33 8c bc c0 fe 02 bc
       -0.02798595 0.06218403 -0.017114459 -0.007995307
