backend/trained_models/NIMB_GRU_model_state_dict.pth (torch, 126723 bytes, 5 tensors)

rnn.weight_ih_l0 f4 [300, 1]
00000000: ebea 0fbc 27f8 053e 43e7 133c df8b 2a3c
00000010: d951 3ebd 181c 9abd b36a 8e3d b910 823d
00000020: 8fd1 0e3d 3fef 80bd e283 2d3d 4a41 ac3c
00000030: 4c43 563c 554a a43d db77 363a 0a0d 6f3a
00000040: 205e 6dbd 1122 b03d 760e d9bc c4c4 aabc
00000050: 7fc0 d43c 4bd4 9abd ef9d 06bd 5ef6 63bd
00000060: cb45 1e3e 7690 fdba cbfd 10bc d123 6abd
00000070: 8568 c5bd 7351 ee3d 3c2d 8a3c 6856 533b
00000080: 69e6 98bd 2422 c33d f72d 063e b1cd c4bb
00000090: 582b 4cbd f0f6 813d 9d5c c7bd 0200 093c
000000a0: 0fd3 3abc 3e16 593d 4ecf b7bd c7cc 573d
000000b0: 42e8 da3b d7e2 c5bd 5e66 eabd 8d8f 103d
000000c0: eaf2 bcbd 6687 70bb 54a2 e1bc 25ef a8bb
000000d0: 71ec aabb 0262 c63d 02b6 9b3d aeb8 ee3c
000000e0: a477 413d df77 8d3d 5e23 76bd 2ac5 063d
000000f0: a47d 4939 5cc8 1c3d 6bd4 ba3a 8fee de3d
00000100: ef6d 26bd ac64 a9bd f0bc c73d 61cd 90bc
00000110: 058e 0c3d bc18 43bc aab3 973c e8cb b8bc
00000120: ab16 853c 4462 3fbc 4c0e ac3d 2e65 1ebb
00000130: 417c 9f3d 7c8d 7ebd 1f50 20bd bdfd f33a
00000140: 83f5 d7bb fb89 013e b881 533d cedf aabd
00000150: 338c 583c 44fb 853c 27e3 4b3d fe8e 213d
00000160: c84b 09bd d783 b53d 4d81 b73d c44c df3d
00000170: 62f7 9dbd fa1e ebbd 1705 383d d8bc 9cbd
00000180: 84c3 d3bd 9cb6 65bb 4bc0 d93c 6a4b 623c
00000190: ddbd f53b dc22 03be add2 bd3c 8b1f 893b
000001a0: 19f7 083c 8fd7 6cbd 101f d0bd af37 9ebd
000001b0: 4eb1 85bd f02f f0bd 82c8 8ebb a302 8cbb
000001c0: 5f13 9d3d 814b bd3d c3dc 64bd f981 06be
000001d0: 6cf1 9dbd 8640 1dbe c207 79bd 3c96 c83b
000001e0: a4b5 eebc 21cb 87bd e698 d2bd 7fd2 1bbd
000001f0: 6e5e a83c 155f efbd b81e debd e632 9bbd
00000200: 38a1 3fbd ef6e 81bc 2a17 663c 2bcc 14bc
00000210: 61fc 94bd f7a5 56bd 3d3a cdbd 5c73 0d3d
00000220: 3004 093d 9e7c 573d 225a debd d773 03be
00000230: b082 86bc 7e32 57bd 75c5 18bd d83f 13be
00000240: 6f21 2b3d 96ff fcbd 799b 123c 6771 97bd
00000250: f3ae 38bd 9246 29be f322 f63c 83ef 1fbe
00000260: 9422 a7bc db0d 51bd 3d9c a5bd b14e b63b
00000270: 9829 aebd 848e c6bd 9394 903b 0196 cdbc
00000280: 92eb 3cbd 1bec 1abe afe0 0dbe d206 9ebd
00000290: e907 00be e9ed 16be 268f 613d 6969 75bd
000002a0: d602 073d 9dfe 29bc 429a 673c a69c 3abd
000002b0: 01cc 6bbc e4df 8bbd 9b30 fbbd bd53 3cbc
000002c0: fb16 ffbc ae97 973d deb1 ebbb ce9f 07be
000002d0: 9b63 30be 671d 0bbe a890 953b 0db6 d23d
000002e0: d99e 0e3e bf4c 923c a297 e9bd 2118 f5bb
000002f0: 723a 0dbe 7e1c 14be 95ab 8dbd 799d 9f3d
00000300: 8738 04be e3fe e7bd 3daa 66bd eb77 1fbd
00000310: b1bf 7bbd 4821 1fbd 2fb4 3e3d f6cd 1fbe
00000320: c3bf bc3c df15 073e d3ea e8bc cc5b 093d
00000330: cf95 963c bab2 c93d 8cbe 3f3d 5dda a5bd
00000340: be71 a93d fe4c 2cbd 758c a73d 5fd1 ac3c
00000350: 1752 98bd 5c69 ab3d a5e7 f93d 1899 b23d
00000360: 492a 08be ceb8 003e 0ee7 863d 30e9 e93d
00000370: 9e43 f23d 2eb9 cfbd 8d34 99bd bc2c f2bd
00000380: 86d7 1c3d d476 863d 22c2 073e 11da 3e3d
00000390: 884f 98bd 1b80 5c3d 8988 4e3c 6b5b 3cbd
000003a0: 03ab bd3d 0c29 b3bd 16e3 01be 58ba f7bc
000003b0: c80a 4fbd b7f5 8a3d 38e9 90bc 0753 dabd
000003c0: f5a4 753d 2bc9 b33d 5194 acbd b399 04be
000003d0: 3a06 893d 1693 29bd bda2 b7bd cc3f debd
000003e0: d641 84bd 0e7c d9bd 4505 9ebd 40d9 6c3d
000003f0: d39a 353c f1cf 053d 93a5 843d 96f2 edbd
-0.008784036 0.13082944 0.009027305 0.010409324 -0.046464775 -0.0752489 0.06953945 0.06350846
0.03486782 -0.062956326 0.0423621 0.021027226 0.013077568 0.0802199 0.0006960609 0.00091190694
-0.057951093 0.08600248 -0.026496153 -0.020845778 0.025970696 -0.07560023 -0.03286546 -0.055654876
0.15456311 -0.0019345421 -0.008849571 -0.057163063 -0.09639076 0.11636629 0.016867273 0.0032247547
-0.07465822 0.09527996 0.13103472 -0.0060059656 -0.049846023 0.06345928 -0.097344615 0.008361818
-0.011402859 0.052999727 -0.08975087 0.052685525 0.0066805193 -0.09662407 -0.11445306 0.03529315
-0.0922602 -0.0036701798 -0.027543224 -0.0051554614 -0.0052161743 0.09686662 0.076030746 0.029140797
0.04723324 0.06907629 -0.060092323 0.032902874 0.00019215659 0.038277015 0.0014253979 0.10885345
-0.040632185 -0.08271155 0.09752834 -0.017676057 0.034315128 -0.011907753 0.018518288 -0.022558168
0.01624616 -0.011681143 0.084011644 -0.0024169195 0.077873714 -0.06214665 -0.03913891 0.0018615049
-0.0065905466 0.12650292 0.05163738 -0.083434686 0.01321702 0.016355164 0.049777176 0.03944301
-0.033519536 0.08863037 0.08960209 0.10903314 -0.077132 -0.11480518 0.04492673 -0.076532066
-0.10340026 -0.003505147 0.02658095 0.013811925 0.00749944 -0.12806267 0.023171747 0.0041846684
0.008359694 -0.05782276 -0.10162175 -0.077254646 -0.06527959 -0.11727893 -0.0043573985 -0.0042727753
0.0766971 0.09242917 -0.055874597 -0.13135518 -0.07712063 -0.15356645 -0.060798414 0.006121425
-0.029139347 -0.06630541 -0.10283069 -0.03804254 0.02055284 -0.11688057 -0.10845703 -0.075780675
-0.04678461 -0.015799968 0.014043609 -0.009081881 -0.072747 -0.05240437 -0.10020874 0.034533843
0.03345126 0.05260908 -0.10857035 -0.12837158 -0.016419739 -0.052538387 -0.037297685 -0.14379823
0.04177993 -0.12353437 0.0089482 -0.07394677 -0.04508872 -0.16530827 0.030045962 -0.1561871
-0.02040223 -0.051038604 -0.08086441 0.00556358 -0.08504027 -0.096951514 0.0044122427 -0.025095941
-0.046123095 -0.1512913 -0.13855241 -0.077161446 -0.12503017 -0.14739193 0.055068158 -0.05991498
0.03296169 -0.010375646 0.014135899 -0.045559548 -0.0143919 -0.06829813 -0.1226513 -0.011494574
-0.031138888 0.074019775 -0.0071928343 -0.13244554 -0.17225496 -0.13585435 0.0045643635 0.1028863
0.13927783 0.017858861 -0.11405875 -0.007479683 -0.13791826 -0.14463994 -0.06917492 0.077937074
-0.12912188 -0.11327913 -0.056314696 -0.038932722 -0.061462108 -0.0388501 0.046558555 -0.15605912
0.023040658 0.13191937 -0.028432285 0.03353481 0.018381981 0.098485425 0.04681258 -0.0809829
0.08273648 -0.042065613 0.08181087 0.02109593 -0.074375324 0.08369705 0.12202386 0.087206066
-0.1329738 0.12570497 0.06587039 0.1142143 0.11829303 -0.10142742 -0.074807264 -0.11824939
0.038291477 0.065656334 0.1325765 0.046594683 -0.074370444 0.05383311 0.012605795 -0.04598562
0.092611335 -0.087480634 -0.12684283 -0.030240223 -0.05054739 0.06785148 -0.017689332 -0.106603675
0.05997177 0.08778604 -0.084267266 -0.12949257 0.06690641 -0.041400038 -0.08966587 -0.10852012
-0.0645787 -0.10619365 -0.07715849 0.057824373 0.011084276 0.03266901 0.06476893 -0.11618535

rnn.weight_hh_l0 f4 [300, 100]
00000000: cb22 a5bd 51cb 243d 44fe e5bd 749c a6bd
00000010: 2208 6d3d 42e0 bcbc a237 c63d 22b8 913d
00000020: 35dd 3abd 9d00 af3c ab1e 0d3c dae3 22bc
00000030: 5c8a 81bd 06ed 40bd dd55 98bd 2842 6ebb
00000040: 949e bdbd e091 95bd f82d d3bc 4104 563c
00000050: 4123 603d e4d1 d4bc 99c4 04bc b77d b93c
00000060: c807 b1bd f0d3 433d a8a1 b4bb bced 9ebd
00000070: bb1d 5a3d 85be d33d b9aa a83d 17fb 1bbd
00000080: 928d 8bbd b0ba 1b3d e89e 8cbd 317d 3a3d
00000090: 4134 b7bd 83fd d2bc a584 c0bd 9f8f efbc
000000a0: 5890 6c3d 1c56 9abd 0b08 2d3d b7a0 c33b
000000b0: a340 e53d 1445 7e3a f4fc 8abd bb1e 1fbd
000000c0: fda8 f23d e686 50bd 7853 49bd 9124 583d
000000d0: ca25 44bd 0071 84bd 70c6 9dbd a8e4 08bd
000000e0: d256 d3bd a045 723c 207a 3ebc aac0 413b
000000f0: 2e91 e5bd a2c9 c8bd 68d8 963d a6a1 81bd
00000100: 71d3 42bd c05b e03c 6b24 543d baa2 853d
00000110: 3718 223d c733 17bd f6ab a8bd 2737 08bd
00000120: 6f5a 1fbd 4a16 153d 015f 65bd e030 b33c
00000130: 3a06 f63d cb6a 473d 9d9e b53d 54b3 823d
00000140: 775b d5bd f62f 0abc be56 c43c 7a65 79bd
00000150: b25e f03b e47a a8bd 3912 7f3d 2288 963d
00000160: cbf3 74bd 5779 8a3d 8f92 8abd 3b7c 91bd
00000170: 7c8b df3d 4424 73bc d597 5e3d 3946 4abc
00000180: e1a8 9b3d 3471 19bd a9ef d6bd 3df7 a0bd
00000190: 07a9 bc3d b8ed 86bd 1dc5 41bc bbae 17bd
000001a0: d81c 363d 99ae f33d 3f57 013e 6009 7abd
000001b0: abb8 8bbd 65bb a63d 9f62 2bbd 02c2 753d
000001c0: 8d35 04bd 85b1 363d 02d6 28bd 2383 4e3c
000001d0: e78c a8bc 7297 283b 5433 a43d 944e 673c
000001e0: 2faa b43c 94ba 7bbd 4e10 a5bd 9192 c8bd
000001f0: 8f75 b23c 74c6 b13d 7067 12bd bc96 993d
00000200: ff2c 163d 9ae8 95bd 214b b2bc 68ae acbd
00000210: 0b21 883d 9bd9 a03d 1abd 4dbb 101a 8ebd
00000220: 27aa 833d b1c0 92bc b8c8 ff3c c719 9e3d
00000230: 646d b9bc d9bf 90bd 6cec dfbd 4443 8dbd
00000240: e961 223d 2f6d 87bd 222f f2bc 69d0 6b3c
00000250: 5bda 44bd 5696 e5bd 41a1 17bd ad85 833b
00000260: 4214 803c 02c0 50bd 69a9 a2bd 63ab 75bd
00000270: 85b4 3f3d df2f d3bd e281 913c 545d 33bd
00000280: 3cad de3c ffd6 11bd b52c 663c 0541 813c
00000290: 2713 bd3c 039a de3d 6adb 8d3b 2e3e 0c3c
000002a0: 6f62 e33d 2cbe 893d 0b91 913d c4a3 acbd
000002b0: 0676 e43d 1f42 d03d a89a 8dbd a47e a3bd
000002c0: 11e6 483d 8b9b a03c 4ec4 173c c1fe 05bd
000002d0: a1bf eabd f48b 16bc 9ea4 09bd 56de 8a3d
000002e0: f789 10bd 3c0f 1e3d 1f1a d53c 017b c63d
000002f0: 863c 75bb c565 1bbd b64e 47bc 1d1f 9f3d
00000300: 5156 ef3d 5b3a bd3d b04a 95bc cfdd 35bc
00000310: b3cd 3a3d 0d7a 313c a58e 2e3d 4fd6 013d
00000320: 2ffd 02bd 442a adbd c7fe 81bd e37a 95bd
00000330: 3819 a9bc 1c07 32bd 3ab3 ac3d 21b5 aa3b
00000340: 4251 b3bc a284 423d 0194 2bbd fec2 1b3d
00000350: ed68 c53d 7ed5 2f3c 9df1 8b38 5031 203c
00000360: d1e3 b73d 07f6 c2bd ed45 e8bd 9b54 ddbd
00000370: 2bf4 0bbd 5c78 883d a95e 85bc 69b6 e13d
00000380: c76c c9bd 2560 80bd 5fe0 d5bd 36bb e1bc
00000390: 243f d7bc bbbb 933b 015a e53c a534 68ba
000003a0: 1547 c03c b913 27bd 2dab 023e f343 ccbd
000003b0: c4a2 523d 893e eabd 38ec 4f3d ded6 7b3d
000003c0: 443c 033d d832 fdbd 4007 2bbd bd5a 493d
000003d0: 6102 4f3d 7554 e43d a6df f23d 6d91 973d
000003e0: 8166 fb3d 65dd 15bc 6dcf c63d 0aa7 04be
000003f0: 7b88 e03d d7b8 a9bd d164 743d 32a7 313d
-0.08063277 0.04023296 -0.11230138 -0.0813531 0.057869084 -0.023056153 0.0967858 0.07115199
-0.045621116 0.021362597 0.008613269 -0.009942019 -0.06325218 -0.047101043 -0.07438252 -0.003635535
-0.09258762 -0.07303214 -0.025778756 0.013062538 0.05472112 -0.02597899 -0.008103513 0.022642953
-0.08644062 0.04780954 -0.005512435 -0.07760188 0.05325101 0.10339073 0.08235688 -0.038081255
-0.06814112 0.038019836 -0.068662465 0.045529548 -0.089455135 -0.02575565 -0.094003 -0.029243289
0.057754844 -0.07535955 0.042244 0.0059700864 0.11193969 0.00096996245 -0.06786528 -0.038847666
0.11848638 -0.0509099 -0.049151868 0.052769247 -0.0478876 -0.064668655 -0.077038646 -0.03342119
-0.10319294 0.014787108 -0.011625797 0.00295643 -0.112093315 -0.098040834 0.07365495 -0.0632966
-0.047564927 0.0273875 0.051792543 0.06525178 0.039573874 -0.036914613 -0.08235924 -0.033255722
-0.038904604 0.03639821 -0.055998806 0.021873891 0.120129064 0.04868583 0.08868144 0.063818604
-0.10417836 -0.008434286 0.023967143 -0.06088779 0.0073355073 -0.082265645 0.062273238 0.07350184
-0.05980281 0.06761425 -0.06766235 -0.07103773 0.109152764 -0.014840189 0.054344017 -0.012345844
0.076005705 -0.037461475 -0.1049493 -0.07859657 0.09211927 -0.0658831 -0.011826781 -0.03703187
0.0444611 0.11898536 0.12630938 -0.061044097 -0.06822332 0.081412114 -0.0418421 0.059999473
-0.032277633 0.04460289 -0.04121972 0.012604508 -0.020575 0.0025725034 0.080176026 0.014117856
0.022053806 -0.06145723 -0.080597505 -0.0979358 0.021784572 0.0868043 -0.035743177 0.074994534
0.036664005 -0.07319756 -0.02176434 -0.08431703 0.066469274 0.07854005 -0.003139323 -0.06938565
0.06428938 -0.017914148 0.03122364 0.077197604 -0.02263517 -0.07067842 -0.10933766 -0.068975955
0.039644156 -0.06612622 -0.02956349 0.014392951 -0.048059803 -0.11210315 -0.037019018 0.004013738
0.01563466 -0.050964363 -0.07942469 -0.0599779 0.046803016 -0.10311865 0.017762128 -0.043790177
0.027182214 -0.035605427 0.014048745 0.015778074 0.023080422 0.10869219 0.0043291347 0.008559747
0.11102759 0.067257255 0.07107743 -0.08429673 0.11155324 0.101688616 -0.06914264 -0.07983139
0.049047533 0.019605419 0.009263111 -0.032713655 -0.114623316 -0.009188641 -0.033604257 0.067806885
-0.035287824 0.038588747 0.026013432 0.0969143 -0.0037420108 -0.037938852 -0.012164762 0.07769606
0.116863854 0.09239646 -0.01822409 -0.011100247 0.045606326 0.010832322 0.042616505 0.03169852
-0.031979736 -0.08455327 -0.06347423 -0.072988294 -0.020641908 -0.04346381 0.08432622 0.0052095805
-0.021889333 0.04748977 -0.041889194 0.038027756 0.09639154 0.010732053 6.6730405e-05 0.009777382
0.089789994 -0.09519582 -0.11341462 -0.10807153 -0.034168404 0.06663582 -0.016280489 0.1102112
-0.09835201 -0.06268338 -0.10443186 -0.02755509 -0.026275225 0.004508463 0.027997019 -0.00088579423
0.023471395 -0.040790293 0.12760611 -0.09973898 0.051424757 -0.11437709 0.050762385 0.06148421
0.032039896 -0.12363213 -0.04175496 0.0491588 0.050539378 0.111489214 0.11859064 0.07400785
0.122754104 -0.009147023 0.09707532 -0.12954345 0.109635316 -0.082872085 0.05966646 0.04337234

rnn.bias_ih_l0 f4 [300]
00000000: 32c3 93bc e75a 7c3d 9bad 9b3d 4a9f 3dbd
00000010: 88cc 1d3c 001f 5e3d 8a1d b03c 162a 323d
00000020: 8828 21bd a5b5 ec3d d1a5 34bd fcf4 59bd
00000030: 8bb6 e73d 12f7 7dbd 32ae 23bd ed44 07bd
00000040: 342f 373b 40b7 6f3d eaaa 283c 2026 ebbc
00000050: a85d 0fbd a9a5 343c a27a 1c3c 7825 e03b
00000060: 95c8 18bd a473 8dbd 635a a5bd 753e 9f3d
00000070: ff2b 653d 1170 9f3d 2e00 aa3a 98d9 7bbd
00000080: 48e9 a03d e1bf 85bd 02a2 84bd 00bd 50bd
00000090: 2819 abbd 0f47 b13c 8dad 80bd 8558 fe3c
000000a0: 862e 273d 0873 bbbb 10aa 9bbd 1819 ea3d
000000b0: c172 033d c80b d93d 18d7 0dbd c146 da3d
000000c0: d566 90bc c669 dd3d 1fe3 9a3d f091 963d
000000d0: 3fa0 4e3d fccb c73d 2893 5cbc 54c8 503d
000000e0: 518c 8a3d cb25 4bbd 9e96 b43d 9d87 9c3d
000000f0: 5d98 d0bd 146f 623d bdb1 a33d e6b2 143d
00000100: bf74 93bd dabb fcbc e21c 093d 979b 53b7
00000110: 807b f13d 6daf 35bc 90db 2b3d def4 b73c
00000120: 3095 c3bd 5ce0 303c 4b1e 24bd 57f8 c63b
00000130: e5e7 3f3d 78da 5cbd b6e8 943c d224 a2bd
00000140: f534 113d f95a 9cbc 7d7d 71bd a643 303d
00000150: c30c a83d 9e18 2fbd 2e3f 77bc 7e24 c2bd
00000160: cc44 113d d00d e13d 66e4 9b3d d46c a4bc
00000170: 3869 d23c c9ef 903d 0fb5 8a3d 89c5 6bbd
00000180: 5452 e23d 8b4d c0bc 5a65 a4bd 4c42 01bb
00000190: 30ee 17be 4e3c 2cbe ec20 2abd 9f28 cebb
000001a0: 31b8 6cba b0dc cabb 6888 763d 754a 27bc
000001b0: 7cea 36bc e7cc cfbc 8795 31bc 73b7 8f3d
000001c0: 29ee 8b3d 24ce a73d 4659 40bd aea0 19bd
000001d0: 1ba4 3cbb 9fae 3ebe 39e2 15be 076c 14bd
000001e0: 1e0f e8bc 390d c7bb 8b0a 19be 7351 613c
000001f0: b8fb 443d 6ee7 4b3b 2020 a13a 21ba 083a
00000200: b070 94bd 3c4d 7bbd b1f5 7c3b e68a 413d
00000210: 9603 d0bd 52cf 48bd 7359 edbc c909 0e3d
00000220: 60c9 fd3c 3159 88bc 780f 80bc 9cd6 d5bd
00000230: 3309 073c 0c78 31be 899f c2bd f7bf 21be
00000240: 44b7 76bd c046 3bbd 0c56 3bbe 4eba 12be
00000250: 7868 33bd b04a 0cbe 7e91 28bd 9a0f 12be
00000260: 333e e7bd a31b 38be f3d9 2abe ab12 1cbe
00000270: 72a2 f3bd b6cb e1bd eed8 31bd 1e2c b4bd
00000280: ca4c e0bd bae8 0b39 4807 e6bc 6982 85bd
00000290: d219 9cbb 0aa4 28be 9bd4 16be 5ce0 2cbe
000002a0: 84e0 a13d 4a85 853d a845 86bd 753d 8ebd
000002b0: 07f5 843b 0c7d 4cbc 6380 04bd cdfe 1dbe
000002c0: b7db acbd 8e02 a13d e0ff efbd d29c fbbd
000002d0: 9134 0dbd eda3 edbd d9c9 0fbe 65b7 0a3e
000002e0: 6cd3 b6bc ba10 cdbd 12b0 8dbd 7377 2e3c
000002f0: 886b 15be 346c 91bd e972 8d3b b8eb 9b3d
00000300: ac7f 55bd b43f 0fbe 296d ddbd 30f7 25be
00000310: 62cf ec3d 9024 833d cfb5 80bd 2bd2 24bd
00000320: a8fc 4b3d 7051 97bd 595d 583c 3b57 533c
00000330: e854 aebc e339 853d e098 cf3d bcaf 9cbd
00000340: 6a27 d43c eb35 843c 22a3 ab3d 45ad 8f3c
00000350: 1446 a2bd 0cad 9f3d ef2d 8fbb 0ce3 c8bc
00000360: 3acd ae3c ed76 893d 54f4 e93c d66a b13d
00000370: 99a4 123d e79f 9d3d 14ec 213d 762e a13d
00000380: d204 cfbd 0c79 9ebd 13f3 22bd 1499 79bd
00000390: 6885 9abd 382c b63c 289a 993a 8019 31bd
000003a0: 7c89 42bd 8e13 96bd 3ac8 0b3d dda4 61bd
000003b0: b599 55bd cd01 c8bd ca48 95bd 62e9 58bd
000003c0: 2241 bcbd 8b8c dcbd 478b 97bd 1a16 b3bd
000003d0: 6d2a a93c 795c 603b 3b70 333d 73b6 51bc
000003e0: e1c2 d63d eb42 a13d ce36 7dbc aebe 9abb
000003f0: 6775 8ebd a896 c13b 4f37 b0bc 889e 03bd
-0.018037412 0.06161013 0.07601472 -0.046294488 0.009631284 0.054228783 0.02149846 0.043497168
-0.039345294 0.115580834 -0.044103447 -0.05321215 0.11314114 -0.062003203 -0.039961047 -0.033024717
0.002795172 0.05852437 0.010294655 -0.028704703 -0.035001427 0.011025825 0.009550722 0.006840404
-0.037300665 -0.06906822 -0.080738805 0.077755846 0.05595016 0.07785047 0.0012970024 -0.06148681
0.07856995 -0.065307386 -0.06476213 -0.050961494 -0.083544075 0.021640329 -0.06283102 0.031048069
0.040815853 -0.0057205 -0.07600796 0.114305675 0.03209186 0.1059795 -0.034628958 0.106580265
-0.01762716 0.1081119 0.07562851 0.07352054 0.05044579 0.09755704 -0.013462819 0.050972298
0.067650445 -0.04959659 0.088177904 0.07643054 -0.10185311 0.055281714 0.07992885 0.036303423
-0.07200002 -0.030851293 0.03347481 -1.2612806e-05 0.11791134 -0.011089188 0.041957438 0.022455629
-0.0954994 0.010795679 -0.040067952 0.006072085 0.04685201 -0.053919286 0.018177371 -0.07917179
0.035450894 -0.019086348 -0.058957566 0.043033265 0.08205559 -0.042748086 -0.015090747 -0.094796166
0.035466 0.10988963 0.07611923 -0.020071425 0.025684938 0.070769854 0.067728154 -0.05756143
0.11050859 -0.023474475 -0.08027144 -0.0019723354 -0.14836955 -0.1681988 -0.041535303 -0.0062914635
-0.0009030132 -0.006190859 0.06018868 -0.010210623 -0.011164304 -0.02536626 -0.010838873 0.07017412
0.06832535 0.08193615 -0.046960138 -0.03750675 -0.0028784338 -0.186213 -0.14637078 -0.036235835
-0.028327521 -0.0060745743 -0.14945428 0.013752329 0.04809162 0.0031113285 0.0012292899 0.00052157236
-0.07248056 -0.061352953 0.0038598592 0.047251604 -0.10156934 -0.04902584 -0.028973317 0.0346773
0.030979812 -0.016644092 -0.015632376 -0.10441324 0.008241939 -0.1733095 -0.09503085 -0.15795885
-0.06023337 -0.04572177 -0.18294543 -0.14328882 -0.0438008 -0.13700366 -0.041154377 -0.14263764
-0.112911604 -0.17979293 -0.16684704 -0.15241496 -0.11896218 -0.11025183 -0.04341977 -0.08797477
-0.10952146 0.0001334277 -0.028079644 -0.065190144 -0.00476382 -0.16468826 -0.1472954 -0.16882461
0.07904151 0.065195635 -0.065562546 -0.06945316 0.00405753 -0.012480985 -0.032349 -0.1542923
-0.08440345 0.078618154 -0.11718726 -0.122857705 -0.03447396 -0.11603532 -0.14041843 0.13546522
-0.02231761 -0.10012956 -0.06918348 0.010648596 -0.14591801 -0.07100716 0.004316677 0.07613319
-0.05212371 -0.13989145 -0.10811836 -0.16207576 0.11562993 0.06403458 -0.06284677 -0.040239494
0.0498015 -0.0738858 0.01320585 0.012899215 -0.02128072 0.06505182 0.101365805 -0.07650706
0.0258977 0.016138991 0.083807245 0.017538676 -0.079235226 0.07796678 -0.0043694894 -0.024522327
0.021338094 0.067121364 0.028558888 0.086629555 0.035801504 0.076965146 0.039531782 0.0787019
-0.10108341 -0.077379316 -0.039782595 -0.060937002 -0.075449765 0.022237882 0.0011718916 -0.04323721
-0.047494397 -0.073279485 0.034126498 -0.055088867 -0.05214854 -0.097659685 -0.07289274 -0.052956946
-0.091921106 -0.10768994 -0.07399612 -0.0874445 0.020650113 0.0034234805 0.043808203 -0.012799847
0.10486389 0.07874092 -0.015454961 -0.004722438 -0.069559865 0.005907852 -0.021510748 -0.03213361

rnn.bias_hh_l0 f4 [300]
00000000: 58d1 93bd 8c45 943d b26b 423d f06b 9c3b
00000010: e268 a43c 3c90 b53d 6387 2c3c fa3a c33c
00000020: b6af 66bd 4715 1f3d 0ba2 613d 9827 0cbd
00000030: ad60 933c e095 b9bc 8d14 9b3d 9a94 54bc
00000040: 2716 aa3d f4ac 513d 64c1 1abc 13f0 323d
00000050: e729 9d3d 928e 46bd 8206 843d 1f4c db3c
00000060: b1f9 62bd c293 6b3d 1eab 1b3d 0596 95bc
00000070: 7b30 99bd a7fb a9bc 6f1f 9f3d a867 493d
00000080: 5abc 7eba 0f83 773d ea3c 493d 14aa 17bd
00000090: 450b 983d cdfd 943d 4dd3 253d c3d5 85bd
000000a0: 0094 c43d 3ebb b8bd 9000 dfbd c6e0 9f3d
000000b0: 6ec6 953c 7867 6f3d fd2c ac3c 3a05 ac3d
000000c0: 47f7 8aba 277b 2e3d d7a8 673c 558c 5d3c
000000d0: 8fb8 df3d 28c6 923d 2d9d d7bd 9715 663d
000000e0: 9e59 c6bd e24d 513d 24d4 19bc 11f7 04bd
000000f0: fbf0 cebc 57dc 88bd 14b0 05bd 997a ea3c
00000100: cfbc 02bd 3dc2 fa3c ec30 8c3d ff83 053d
00000110: 74dc 173c 9b20 323d aace a83c 15c8 5dbd
00000120: d93e c9bd 81c2 823d 8a0d 2b3c 53dc dd3d
00000130: 21a8 c6bc 71da 88bd 9e5a d33b 9241 6cbd
00000140: 8466 b53b 1253 9fbd ea95 3b3d cdb5 b23b
00000150: 392b 5ebd 653a 28bd be25 9f3d 41a5 95bd
00000160: 4bca 993c 1403 3d3d 004a 99bd 2c15 473d
00000170: 621c 37bb fc9f 04bd 8abf 6f3c 66e7 883d
00000180: e324 86bd 03aa 713d 0851 7e3d 4d89 4c3d
00000190: dae6 24be 0681 32bd 0856 63bd 1426 a0bc
000001a0: 2201 93bd 8493 b9bd b6d3 803d c113 94bc
000001b0: 7c4c 16be d626 d7bd b661 02be face 5b3d
000001c0: 201f bc3d 2fdd 873d 2d92 1bbe 385f 97bc
000001d0: f266 16bd 146c 0dbd d566 ffbc 2b4c 3abe
000001e0: ff9d e83b 5edf 90bd d421 1dbe aa73 dfbd
000001f0: 62cd e2bc 2550 abbb 2bac 7dbd 8367 ef3b
00000200: cf06 3fbd ee35 c0bd 5e0d 85bc dad1 b03c
00000210: a7b2 d63c 99de b4bd 76f4 29be ce83 a13d
00000220: a596 89bd 0b96 733c 0682 0abd 414a 9ebd
00000230: 5590 06be dfc9 05bc 68b9 10be 70ca c43a
00000240: 28c9 4c3b 13e5 00bb 1aa3 d5bc fa62 1bbe
00000250: 8f15 38be 1573 82bd 0ace 1ebe e374 1cbe
00000260: 59c8 0fbd 87a1 e6bd a9c0 863b fc72 2cbe
00000270: 59e6 5ebd 48b1 efbd da42 97bd 9eab 00bd
00000280: 4efe 22be 61eb 8e3c b8ab 22be 37fb e6bd
00000290: b3db 7c3d f3f3 9a3c 715e bfbd f367 363a
000002a0: 512a d83d 1505 c23d 1573 7cbd 7d59 c5bd
000002b0: a578 3bbe 4a07 7fbd 0dcc 223d 6150 503c
000002c0: f64d 26be cc41 b33d 8ffd 22bd 6888 8ebc
000002d0: 7b45 72bd a494 5e3b bf04 85bd 3ba9 2fbd
000002e0: 0a34 923d e935 c938 94a3 10be e03c 06be
000002f0: f655 3bbe 37a2 643c 8111 9ebc 0453 5cbd
00000300: d690 a23b 751f 80bd 9376 88bd 1eec b8bd
00000310: e22b 1d3e 81e2 803c cb4c 22bd f351 01bc
00000320: d686 c1bc bb90 383d 426c c6bd 2f6b 0ebd
00000330: 93a9 373d 42c4 c8bd 1237 8dbd 005d 993d
00000340: 4c35 f63d 0193 c53d 3a41 a33d 70be 223a
00000350: 77d3 2a3d cac4 293d 7c66 02bd 409c 963d
00000360: b991 193c 5d59 153c 6064 673d 6458 19bd
00000370: e326 abbd 43d4 b83c e50a 0cbc 3954 903d
00000380: b5ed ccbd 66db 27bd 0873 d33c b4bd d6bd
00000390: 8d2a 673c 8465 3d3d 5e93 33bd d235 9d3d
000003a0: 639f 223c be62 27bd e91c 01bd e129 c9bd
000003b0: 1f1f 433d a62f fe3a bfea f03d 3f2e 68bd
000003c0: 3a54 0bbc 870b 213d 8d3b 71bd 1af0 523d
000003d0: 9af7 d33b cc23 7c3d 39de e73d 6c3e b0bd
000003e0: d101 733d 0605 a6bd 593f c9bc 7b26 883d
000003f0: 5f6c 89bd ed86 9f3d ad83 863c af70 b13d
-0.072176635 0.072398275 0.047465988 0.0047736093 0.020069543 0.08865401 0.010530326 0.023831833
-0.056319915 0.03883865 0.055086177 -0.034217447 0.017990435 -0.022654474 0.07572279 -0.0129748825
0.083050065 0.05119033 -0.009445522 0.043685984 0.07674008 -0.04847581 0.06446554 0.026769696
-0.055413906 0.05751396 0.038004987 -0.018260011 -0.0747995 -0.02074988 0.07769667 0.04917112
-0.00097173976 0.06042772 0.049130358 -0.037027434 0.074240245 0.07274971 0.040484715 -0.065349124
0.09598541 -0.090200886 -0.10888779 0.07806544 0.018283095 0.058448285 0.021017546 0.083994344
-0.0010602259 0.042597916 0.014139376 0.013522227 0.10923874 0.071667016 -0.10528026 0.056172933
-0.09685062 0.051099665 -0.009388957 -0.032462183 -0.025261393 -0.066826515 -0.032638624 0.028622912
-0.031918343 0.030610198 0.068452686 0.032596584 0.009268869 0.043488126 0.020606358 -0.05414589
-0.0982644 0.06384755 0.01044024 0.10833039 -0.024250092 -0.066822894 0.0064500114 -0.05767972
0.0055359025 -0.07779516 0.045797266 0.0054538012 -0.05424044 -0.041071314 0.077708706 -0.0730691
0.018773219 0.046145514 -0.074848175 0.048604175 -0.0027940501 -0.032379135 0.014633069 0.06684761
-0.06550004 0.059000026 0.062088996 0.049935628 -0.16103688 -0.043580078 -0.055501968 -0.019549407
-0.071779504 -0.090613395 0.06290381 -0.018075826 -0.14677614 -0.10505454 -0.12732586 0.053664185
0.09185624 0.06633984 -0.1519248 -0.018478021 -0.03671927 -0.0345269 -0.031176964 -0.18193118
0.0070989127 -0.07073854 -0.15344936 -0.10910733 -0.027685825 -0.00522806 -0.06193177 0.0073060407
-0.046637353 -0.09385286 -0.016241726 0.02158444 0.026208235 -0.0883152 -0.1659716 0.07886468
-0.06718186 0.014867316 -0.033815406 -0.077290066 -0.13140996 -0.008165806 -0.14133227 0.0015013944
0.0031247828 -0.001966779 -0.02607875 -0.15174475 -0.17976974 -0.063696064 -0.15508285 -0.15278964
-0.035103176 -0.11261278 0.0041123223 -0.16840738 -0.054418895 -0.117037356 -0.07385798 -0.031413667
-0.15917322 0.017446222 -0.15885818 -0.11278384 0.06173296 0.018915152 -0.09344185 0.00069582387
0.10554946 0.094736256 -0.06163319 -0.09636209 -0.18307741 -0.06226281 0.03974538 0.012714476
-0.16240677 0.08752784 -0.039792594 -0.017399028 -0.059148293 0.0033963108 -0.06495046 -0.042886
0.07138832 9.5944684e-05 -0.141249 -0.1310916 -0.1829451 0.013954691 -0.019295456 -0.053790107
0.0049611134 -0.06256 -0.06663241 -0.09029411 0.15348771 0.015733005 -0.039624017 -0.007893073
-0.023623865 0.0450599 -0.09688617 -0.034770187 0.044839453 -0.09803058 -0.068952695 0.074884415
0.12021884 0.096471794 0.07971425 0.0006208187 0.041705575 0.04144744 -0.031836018 0.07354021
0.009373122 0.009115544 0.05649221 -0.03743781 -0.083570264 0.022562152 -0.008547519 0.07047314
-0.100062765 -0.04098072 0.025811687 -0.10485402 0.014109266 0.04623939 -0.043841712 0.07676281
0.009925696 -0.040865652 -0.03152171 -0.09822441 0.0476371 0.0019392862 0.11763524 -0.05668473
-0.008503968 0.039317634 -0.058894683 0.05149851 0.0064687254 0.061557576 0.113216825 -0.08605656
0.059327904 -0.08106427 -0.02456634 0.066479646 -0.06710123 0.07789407 0.01642021 0.08664071

linear.weight f4 [1, 100]
00000000: 3b7d af3d 10ae 953d 2bd5 9a3d ac47 f03d
00000010: 58cb b53d f6eb ef3d 945d cbbc 696d 10bd
00000020: 41c6 b63d 6f49 b9bd af02 08bc e599 7ebd
00000030: 53eb af3c 189a 0ebd 52be da3d 7403 683d
00000040: fe88 c7bd 8263 093e fc32 df3d 5dfd b93d
00000050: e338 063e b362 22bd 180d 44bd b8e3 a8bd
00000060: 65ad 70bd 18cf e43d 30ae ce3d ec80 e03d
00000070: cfd3 063c 5533 a23d e7fe c5bc 1767 8e3d
00000080: e435 9bbc b035 04be ae37 a5bd 5fa7 323d
00000090: ddff adbc 155f 54bd c00a d2bd 21df aabd
000000a0: 7b18 3f3d 0f07 8c3d 04d5 d4bc 65f1 9cbd
000000b0: 0849 85bc 3ed7 12bd ecf9 d2bd 613b 93bd
000000c0: 6610 cfbd fa9f 79bd 0967 3bbc d65f ef3d
000000d0: 1d93 8dbd 64d7 c03d 0318 473d fc66 04be
000000e0: fb99 eeba 2a73 55bd 3582 9abd 863f 02be
000000f0: 6bc6 3bbd f2db a33d ad63 813c c417 c23d
00000100: 40b3 0b3c e9d2 3a3c 8563 553a 324b d33d
00000110: 9582 88bd d11e 82bd 7c72 253d 7f9a 27bd
00000120: 81e6 2a3d bf19 f5bc 03a4 c6bc fb1a c13d
00000130: f767 30bd 1883 97bd 1fc5 c13c db56 9d3d
00000140: afa4 d8bd 793c 003e 2865 bb3d 5586 60bd
00000150: 718a 803d 4023 2cbd a664 a2bd 2536 a53c
00000160: 17c9 893d a54b 6abd d762 f53d 9628 2c3d
00000170: 8d50 a13d d916 f43d 77f0 f03c 5dee 83bd
00000180: 7737 7bbd b822 73bc fee7 e6b9 5e06 043e
0.08568808 0.073085904 0.0756019 0.1173242 0.08876675 0.11714928 -0.024824895 -0.03526059
0.08924533 -0.090472095 -0.008301421 -0.062158484 0.021474516 -0.034814924 0.10680832 0.05664392
-0.09742926 0.13416865 0.108983964 0.09081528 0.13107638 -0.03964491 -0.04786405 -0.08246559
-0.058759112 0.111723125 0.100918174 0.1096209 0.00822921 0.07919947 -0.024169398 0.069532566
-0.018946595 -0.12911105 -0.08067261 0.04361665 -0.02124017 -0.05184849 -0.10255957 -0.0834334
0.046654206 0.06837284 -0.02598048 -0.0766323 -0.016270176 -0.035849802 -0.10301575 -0.0718906
-0.1011055 -0.06094358 -0.01143814 0.11688201 -0.06912825 0.094160825 0.048606884 -0.1292991
-0.0018203849 -0.052111782 -0.07544366 -0.12719545 -0.045843523 0.080009356 0.0157946 0.09477189
0.008526623 0.011402824 0.0008140135 0.10317077 -0.066655315 -0.06353534 0.040392384 -0.040918823
0.041723732 -0.029919503 -0.024248129 0.09428974 -0.0430679 -0.07398051 0.023653565 0.07682582
-0.10578286 0.12523068 0.091501534 -0.05481561 0.062764056 -0.042025805 -0.079293534 0.02016742
0.06727808 -0.057201046 0.11981743 0.042030893 0.07876692 0.1191842 0.029411538 -0.064419486
-0.061332192 -0.014839821 -0.00044041866 0.12893054
