backend/trained_models/NMB_LSTM_model_state_dict.pth (torch, 808451 bytes, 9 tensors)

rnn.weight_ih_l0 f4 [512, 5]
0	0xbd11c2b5	-0.035586078
1	0xb975f5d4	-0.00023456599
2	0x3dc27a73	0.094960116
3	0xbc997ab3	-0.018735265
4	0xbcc8129b	-0.024422934
5	0xbc0e33bb	-0.008679326
6	0xbc87f5aa	-0.016596634
7	0x3c98a611	0.018633874
8	0x3db7c915	0.089739
9	0xbd5fe490	-0.054661334
10	0x3da67962	0.08128621
11	0xbd44b008	-0.04801944
12	0xbc12e567	-0.008965827
13	0x3cf010e8	0.029304937
14	0xbc5307f4	-0.012880314
15	0x3c7ff268	0.015621759
16	0x3d06f8c9	0.032952104
17	0xbd39e858	-0.045387596
18	0x3d9ad373	0.07559862
19	0x3db01bf7	0.08599084
20	0x3d8486ba	0.064710096
21	0x3d80ecc4	0.062951595
22	0x3c4d0a1a	0.012514615
23	0x3cd3cea9	0.02585538
24	0xbccaebf4	-0.024770714
25	0x3d399f96	0.04531821
26	0x3da61a61	0.081105
27	0xbb725c77	-0.0036981383
28	0x3d9891ab	0.07449659
29	0x3c42afcf	0.011882736
30	0xbc1d754c	-0.009610485
31	0x3d3fdd62	0.046841986
32	0x3db3983b	0.0876927
33	0x3dd7a597	0.10529631
34	0xbd82607b	-0.063660584
35	0x3b9efbb4	0.0048517827
36	0x3d3d9523	0.046284806
37	0x3d83c98e	0.06434928
38	0xbca2adf1	-0.019858332
39	0x3d68c049	0.056824002
40	0xbd94af04	-0.07259944
41	0xbd151312	-0.03639514
42	0x3d015435	0.031574447
43	0xbce0da0c	-0.027447723
44	0xbd98041b	-0.07422658
45	0xbd89c4bb	-0.067269765
46	0x3d334312	0.043765135
47	0xbd010f4d	-0.031508733
48	0xbd247c65	-0.040157694
49	0xbdba32e9	-0.090917416
50	0x3da6bb7e	0.0814123
51	0x3cf27e45	0.029601226
52	0x3cfbe89f	0.03075057
53	0x3ca6956a	0.020334918
54	0xbca5a024	-0.020217963
55	0xbd38f705	-0.04515745
56	0xbd2c147c	-0.042011723
57	0xbc90d354	-0.017678894
58	0xbc43e71b	-0.011956955
59	0xbd61b2e4	-0.055102244
60	0x3d8a00e1	0.06738449
61	0xbd1b5dce	-0.037931256
62	0xbd5cc94b	-0.053902905
63	0xbd35ed8d	-0.044416
64	0x3ca96ab0	0.020680755
65	0x3d0c67bf	0.034278627
66	0xbc8f262a	-0.017474253
67	0x3c42668e	0.011865271
68	0xbd239412	-0.039936133
69	0xbc8a07cf	-0.016849427
70	0xba080270	-0.00051883515
71	0x3d25d49e	0.04048597
72	0xbd9a6d46	-0.075403735
73	0xbd5511af	-0.052018818
74	0xbd3a8db5	-0.0455453
75	0xbd64e45c	-0.055881843
76	0x3d2330b5	0.039841373
77	0xbb748b57	-0.0037314498
78	0x3c2f5df8	0.010703556
79	0x3cb7c42f	0.022432415
80	0xbd8b46a5	-0.06800584
81	0xbbdecf4f	-0.0067996155
82	0x3d45d1de	0.048295848
83	0x3c351d8b	0.011054407
84	0xbd619428	-0.055072933
85	0x3c3ee291	0.011650697
86	0x3da393c2	0.07987167
87	0x3d208a8e	0.039194636
88	0x3d7011f5	0.058610875
89	0x3d8e6172	0.0695218
90	0xbcaac6e3	-0.02084679
91	0xbd7c2ec9	-0.061568055
92	0x3d16e5b4	0.036840156
93	0x3dbc818d	0.09204397
94	0x3be80e3b	0.0070817745
95	0x3d78e03a	0.060760714
96	0x3b8863e2	0.0041622976
97	0x3adb00b7	0.0016708587
98	0x3d9dbf85	0.07702545
99	0x3ccab274	0.024743296
100	0x3daa7732	0.08323516
101	0xbd73da05	-0.05953409
102	0x3d144121	0.036194924
103	0xbd0e02c6	-0.034670614
104	0xbc285298	-0.010273598
105	0xbd03ce4d	-0.032179166
106	0x3dab105c	0.0835273
107	0xbcdcfb41	-0.026975276
108	0x3d94fcd2	0.07274784
109	0xbc619ed2	-0.013770776
110	0x3c0e3818	0.008680366
111	0x3d42953d	0.047505606
112	0x3db6ca97	0.0892536
113	0xbba2ce51	-0.0049684425
114	0x3bbb31d3	0.0057127266
115	0x3d71cd34	0.059033588
116	0xbd2d15b2	-0.04225702
117	0x3d51a958	0.05118689
118	0xbc9e6932	-0.01933727
119	0xbd2e1389	-0.0424991
120	0x3d4d271d	0.05008613
121	0xbdc83717	-0.097761326
122	0xbaf7a313	-0.0018893204
123	0x3d9d78ef	0.07689082
124	0xbd4eadfc	-0.050458893
125	0xbcef8562	-0.029238407
126	0xbd4a951d	-0.04945861
127	0x3d4a2e5a	0.04936061
128	0x3b781bf3	0.0037858456
129	0x3d3f5e5d	0.04672085
130	0xbb2e8edf	-0.002663545
131	0xbc0d65ad	-0.008630198
132	0x3ced12d8	0.02893965
133	0xbd17e99a	-0.037088014
134	0xbd47a567	-0.048741724
135	0xbcc65df8	-0.02421473
136	0xbd02601e	-0.031829946
137	0xbcc786fd	-0.02435636
138	0xbd6d40a5	-0.057922978
139	0xbdb2e665	-0.087353505
140	0xbd29e128	-0.04147449
141	0x3c14bc02	0.009078028
142	0x3bd42c10	0.006474979
143	0x3cd434c1	0.025904061
144	0xbd5931c3	-0.053025972
145	0x3d816394	0.06317821
146	0x3d6c7fef	0.057739194
147	0x3c407fae	0.011749191
148	0xbd23dbdd	-0.0400046
149	0xbd68120a	-0.05665783
150	0x3d65789f	0.056023236
151	0x3d55f88b	0.052238982
152	0xbd7a21df	-0.06106746
153	0x3da11d68	0.07866937
154	0xbd340435	-0.043949325
155	0xbd6d5f8c	-0.05795245
156	0xbd3407ea	-0.04395286
157	0xbd2c3a17	-0.042047586
158	0x3dbddc63	0.09270551
159	0xbda53c54	-0.08068147
160	0x3d25ee27	0.040510323
161	0xbde62280	-0.11237049
162	0x3d503115	0.05082806
163	0x3cf280dc	0.02960246
164	0xbcb88cfd	-0.022528166
165	0x3d9ce8ef	0.07661616
166	0xbd8aff2b	-0.06786951
167	0x3da09b20	0.07842088
168	0xbd86948c	-0.06571302
169	0x3d053ead	0.032530475
170	0x3d9b4054	0.07580629
171	0x3c84b5ce	0.016199972
172	0xbc0f7076	-0.00875484
173	0x3d91f960	0.07127643
174	0xbd2029f4	-0.03910251
175	0x3d78629f	0.060640927
176	0x3da4d161	0.08047748
177	0x3d96467c	0.073376626
178	0xbd964206	-0.07336812
179	0x3a21823c	0.0006161069
180	0x3c2b5294	0.0104567
181	0x3cc00a30	0.023442358
182	0xbbf64921	-0.007516042
183	0x3d4dc13a	0.050233103
184	0xbcf3af7a	-0.02974676
185	0x3cbb0386	0.022828829
186	0xbd8bbeb6	-0.068234846
187	0x3d434f59	0.047683094
188	0xbd7d0bf8	-0.061778992
189	0xbc8e7827	-0.017391277
190	0xbd51aba9	-0.0511891
191	0x3d17b41f	0.03703701
192	0xbd00a22d	-0.031404663
193	0xbc271671	-0.010198222
194	0xbd720182	-0.05908347
195	0x3d84ca59	0.06483907
196	0xbc229645	-0.009923522
197	0xbd8b924f	-0.068150155
198	0x3d528cb6	0.051403724
199	0xbdaf7a76	-0.085682794
200	0x3d7d5740	0.061850786
201	0xbd32c689	-0.04364637
202	0x3cab6bed	0.020925486
203	0xbd8f9b6c	-0.07012066
204	0x3d9f0e51	0.077664025
205	0x3da8cde3	0.08242395
206	0xbcfbf59c	-0.030756764
207	0x3c1c0844	0.009523455
208	0x3cfe1aca	0.031018633
209	0xbc56244b	-0.013070176
210	0xbc4969c3	-0.012293282
211	0x3d98a62d	0.074535705
212	0xbcbd16cc	-0.02308216
213	0x3d4e64d6	0.050389133
214	0x3d79a3b7	0.060947146
215	0xbd777037	-0.06040975
216	0x3c97badf	0.018521724
217	0x3ce7a4a9	0.028276758
218	0xbd49162f	-0.04909342
219	0x3cf9c1d6	0.030487936
220	0x3c2bae30	0.010478541
221	0xbcb9b83c	-0.022670858
222	0x3d8d0cd5	0.06887213
223	0xbc8db6fb	-0.017299166
224	0x3d3e8ff0	0.04652399
225	0x3da55c6d	0.080742694
226	0x3cfbf286	0.030755293
227	0xbd887179	-0.06662268
228	0x3d20e324	0.03927912
229	0x3c702693	0.014657634
230	0xbd76ad81	-0.06022406
231	0x3db7553e	0.089518055
232	0xbd7fd955	-0.062463123
233	0x3de1f004	0.110321075
234	0xbd695082	-0.056961544
235	0xbd63fbb3	-0.05565996
236	0xbc9e55f1	-0.01932809
237	0xbd840399	-0.06445999
238	0xbd2b0ff1	-0.04176325
239	0x3d83ef42	0.06442119
240	0x3c85705b	0.016288927
241	0xbc217291	-0.009853975
242	0x3d48d68a	0.049032725
243	0xbca8f974	-0.020626761
244	0xbd552219	-0.05203447
245	0x3c8d1de4	0.017226167
246	0x3c187de9	0.009307363
247	0x3c538f71	0.012912617
248	0x3d8b5dbf	0.0680499
249	0xbd467702	-0.04845334
250	0xbd81250d	-0.06305895
251	0xbc2b7fcc	-0.010467481
252	0x3d916967	0.07100182
253	0x3ba18ef5	0.004930372
254	0x3da2396a	0.07921107
255	0xbd2ecf9d	-0.042678464

rnn.weight_hh_l0 f4 [512, 128]
0	0x3d7eef66	0.062240027
1	0x3d62447a	0.055241086
2	0x3dc3f7ad	0.09568725
3	0xbd5f3e8e	-0.054503016
4	0xbd713d9a	-0.05889664
5	0xbd8f87d3	-0.07008328
6	0xbc96193e	-0.018322583
7	0x3c324dc4	0.010882799
8	0xbdbf14f6	-0.0933017
9	0xbd43ce00	-0.04780388
10	0xbc88fbff	-0.016721724
11	0x3d40bec4	0.04705693
12	0xbb89bfc9	-0.004203771
13	0xbd293d95	-0.041318495
14	0x3d8bfc6f	0.06835257
15	0x3da46e8a	0.08028896
16	0x3d35f311	0.04442126
17	0xbbde5125	-0.0067845755
18	0x3cea6f67	0.028617574
19	0xbc01ebda	-0.007929767
20	0x3d289608	0.041158706
21	0x3c30f398	0.010800265
22	0xbd32c146	-0.04364135
23	0xbd798507	-0.06091788
24	0x3bc66bd2	0.0060553337
25	0xbd68dd42	-0.056851633
26	0x3d492c59	0.04911456
27	0xbd90e045	-0.07074026
28	0x3cd32de6	0.025778722
29	0x3d7a0ba9	0.061046276
30	0x3d506de1	0.05088604
31	0x3c57e571	0.013177262
32	0x3cfd26c0	0.030902267
33	0xbd613480	-0.05498171
34	0x3d736067	0.05941811
35	0xbc6299cd	-0.013830614
36	0xbcfa99cb	-0.030590912
37	0x3d2326e0	0.039831996
38	0x3d94932e	0.07254635
39	0x3b55a3cc	0.0032598851
40	0x3d3c543a	0.045978762
41	0xbc382693	-0.011239666
42	0xbda37773	-0.079817675
43	0x3cc0e721	0.02354771
44	0x3daf88ed	0.085710384
45	0xbd644ef0	-0.055739343
46	0x3bd463d2	0.006481626
47	0xbd87635f	-0.066107504
48	0x3a4882ed	0.0007648904
49	0xbcc78adc	-0.024358205
50	0xbce1b367	-0.027551366
51	0xbd48ffa3	-0.04907192
52	0xbcb1f605	-0.021723757
53	0x3d69e27a	0.05710075
54	0x3c48096d	0.0122092785
55	0x3c79c85c	0.015245523
56	0x3d800656	0.062512085
57	0xbcfb8af4	-0.030705906
58	0x3c0a02f2	0.008423554
59	0xbd6495da	-0.055806972
60	0x3d94a201	0.07257462
61	0xbc35694d	-0.011072469
62	0xbc907056	-0.017631691
63	0xbdb95808	-0.09049994
64	0xbdb76857	-0.08955448
65	0xbd927fbc	-0.0715327
66	0xbdab7750	-0.083723664
67	0xbd892dd2	-0.06698193
68	0x3d12a58b	0.035802405
69	0xbda7cdb6	-0.08193533
70	0x3d1c3b02	0.03814221
71	0x3c05aa21	0.008158238
72	0x3d801822	0.06254603
73	0x3c55a4b7	0.013039759
74	0xbc539d16	-0.01291587
75	0x3bc2af07	0.005941275
76	0xbd9e82f6	-0.077398226
77	0x3d3db9af	0.04631966
78	0xbd5a6902	-0.0533228
79	0x3d081634	0.0332243
80	0x3d94ea55	0.07271258
81	0xbdbac853	-0.0912024
82	0xbd02aca5	-0.031902928
83	0xbd295758	-0.041343063
84	0xbb502d68	-0.0031765345
85	0xbda02bda	-0.07820864
86	0x3c3da373	0.011574614
87	0x3d5dc40a	0.054142036
88	0xbd086954	-0.033303574
89	0xbd309457	-0.043110218
90	0xbdb1dc23	-0.08684566
91	0x3c412839	0.011789375
92	0xbc74d2b0	-0.01494281
93	0xbd5971de	-0.053087108
94	0x3d9569f9	0.07295603
95	0x3c3a03ed	0.011353475
96	0x3d88e613	0.06684508
97	0xbc3f8902	-0.01169038
98	0x3d8611e1	0.06546379
99	0xbb137628	-0.0022500847
100	0x3dabf81c	0.083969325
101	0x3d961930	0.07329023
102	0xbcf9c21c	-0.030488066
103	0x3b9dca7c	0.004815398
104	0x3d1c60b1	0.03817815
105	0xbd4a6a5e	-0.049417846
106	0xbd00cddc	-0.031446323
107	0xbbf2c123	-0.0074082776
108	0x3ccb22be	0.02479684
109	0x3d6a5c91	0.057217184
110	0x3cb15495	0.021646777
111	0xbda115f7	-0.078655176
112	0xbd0b1854	-0.033958748
113	0xbbfaed03	-0.0076576485
114	0x3d5417d3	0.051780533
115	0x3a956508	0.0011397908
116	0xbd7a61c9	-0.06112841
117	0x3bfcfcd0	0.0077205673
118	0xbd58e5c4	-0.052953497
119	0x3cea037f	0.02856612
120	0x3dc94dee	0.09829317
121	0xbc8985e3	-0.016787475
122	0x3caca704	0.021075733
123	0x3dbc2701	0.09187127
124	0x3d837ecd	0.0642067
125	0xbd9feefa	-0.07809253
126	0xbc09190b	-0.008367787
127	0xbcc866da	-0.024463106
128	0xbd5c63e5	-0.053806204
129	0xbd81962d	-0.06327472
130	0xbbaf3084	-0.0053463597
131	0xbc2d4b76	-0.010577073
132	0xbd9c3816	-0.07627885
133	0xbd96bb91	-0.07359994
134	0xbd739c46	-0.059475206
135	0x3ce9e3d8	0.028551027
136	0xbd1c2651	-0.03812248
137	0x3d9fe2e1	0.078069456
138	0xbcb430ad	-0.021995867
139	0x3c0e5df9	0.008689397
140	0x3db9dc10	0.09075177
141	0xbd8e719d	-0.06955264
142	0x3bb3b273	0.0054839193
143	0x3d86200b	0.065490805
144	0x3d17097e	0.036874287
145	0x3cd6ff10	0.02624467
146	0xbc3c5d58	-0.011496864
147	0xbd2575f0	-0.040395677
148	0x3d99284e	0.07478391
149	0xbbff7d22	-0.0077968994
150	0x3c9cbb1c	0.01913219
151	0x3b8823d8	0.0041546635
152	0xbc1b2c6b	-0.009471039
153	0x3d87f403	0.066383384
154	0xbd3d0280	-0.046144962
155	0xbcb84c58	-0.022497341
156	0x3c3b469a	0.011430407
157	0xbc905a9f	-0.017621337
158	0xbcf6ad48	-0.030111924
159	0xbd8bbc4b	-0.068230234
160	0xbca9a958	-0.020710632
161	0x3d5441cc	0.05182056
162	0x3d5c5a30	0.053796947
163	0x3dd0f927	0.10203772
164	0xbd9061cd	-0.07049904
165	0xbc80c6dd	-0.015719825
166	0x3c30a43f	0.010781347
167	0x3d2ad71d	0.041709054
168	0x3d33c89e	0.043892495
169	0x3d0f89fd	0.035043705
170	0x3ca6e4a2	0.020372692
171	0x3d894298	0.06702155
172	0x3d7ba674	0.06143804
173	0xbc05fcd5	-0.008177956
174	0x3da722bf	0.08160924
175	0x3d7105ba	0.058843352
176	0x3a5a90de	0.0008337627
177	0x3bba4f43	0.0056857183
178	0x3dbc5481	0.09195805
179	0x3da2ed94	0.07955471
180	0x3d5b7a92	0.05358369
181	0x3d6b7e03	0.05749322
182	0xbd7c8542	-0.061650522
183	0xbd1f21b5	-0.038850505
184	0x3cb2792e	0.021786299
185	0x3d81cb0d	0.06337557
186	0xbc8dcb96	-0.017308991
187	0x3d1477e8	0.036247164
188	0x3d395f00	0.045256615
189	0x3b823afa	0.0039743157
190	0x3cd56681	0.026049854
191	0x3d619aa7	0.05507913
192	0xbd92df63	-0.07171514
193	0xbb9c8d24	-0.0047775675
194	0xbdad314d	-0.08456669
195	0x3d8afb5f	0.067862265
196	0xbcf62dd6	-0.030051153
197	0xbdbbc0d1	-0.09167636
198	0xbda244e7	-0.07923298
199	0x3d692860	0.05692327
200	0x3d8059b8	0.062671125
201	0xbd676a08	-0.056497604
202	0x3d518933	0.051156234
203	0xbd270379	-0.040774796
204	0xbd0242fd	-0.031802166
205	0x3c4b4d89	0.012408623
206	0xbd384d28	-0.044995457
207	0x3d31b8d6	0.043389164
208	0xbcd5546e	-0.026041236
209	0x3cb8b3fd	0.022546763
210	0x3d85e992	0.065386906
211	0x3d55a7df	0.052162047
212	0x3d4688a7	0.048470166
213	0x3d378be0	0.04481113
214	0xbd0d9124	-0.034562245
215	0x3cde7cb6	0.027159076
216	0x3be13f25	0.0068739825
217	0xbbdf489d	-0.006814076
218	0x3dd75119	0.10513515
219	0xbd860eb0	-0.0654577
220	0xbdbaf1d9	-0.0912816
221	0x3d5b66fe	0.053565018
222	0xbd8741da	-0.06604357
223	0xbd32ebb0	-0.0436818
224	0xbd80aa73	-0.062825106
225	0xbd0d9a7c	-0.034571156
226	0x3cc76a6c	0.024342738
227	0xbd9a29da	-0.07527514
228	0x3d5f47a6	0.05451169
229	0x3d876911	0.06611837
230	0xbdd06b3b	-0.101767026
231	0xbd700d0b	-0.05860619
232	0xbb6e0b28	-0.0036322568
233	0xbdabf12f	-0.083956115
234	0xbd2c9316	-0.04213246
235	0xbc6f3009	-0.014598855
236	0xbced9613	-0.029002225
237	0xbdb53e2e	-0.088497505
238	0x3d19a05a	0.03750644
239	0x3d8152cd	0.06314621
240	0xbd5e1bf1	-0.054225866
241	0x3d78e6f9	0.060767148
242	0x3db6f742	0.089338794
243	0x3bbfd5ce	0.005854345
244	0xbd5003f0	-0.050785005
245	0xbd5a06f4	-0.053229287
246	0x3da01a33	0.07817497
247	0x3d7fd714	0.062460974
248	0x3d0aae42	0.03385759
249	0x3ca79d21	0.020460667
250	0x3d90bb14	0.07066932
251	0x3cd35986	0.025799524
252	0x3d95da1c	0.07316992
253	0xbce61d64	-0.028090186
254	0x3cc0a952	0.023518238
255	0xbc9690f4	-0.018379666

rnn.bias_ih_l0 f4 [512]
0	0xbd5ac16d	-0.05340712
1	0xbd869e93	-0.065732144
2	0xbda82266	-0.08209686
3	0x3ac90f04	0.0015339558
4	0xbcf5b668	-0.029994205
5	0xbd82ab65	-0.06380347
6	0x3dbdf8a6	0.092759416
7	0xbd50bd48	-0.050961763
8	0xbdb23fb6	-0.08703558
9	0xbcf08ce6	-0.02936406
10	0x3cdfaa19	0.027302789
11	0x3ccfc709	0.025363462
12	0x3cb9af99	0.02266674
13	0xbbbdb26a	-0.005789091
14	0xbd87da3f	-0.06633424
15	0x3d7840ab	0.060608547
16	0xbcb1038c	-0.021608137
17	0xbae55b01	-0.0017498435
18	0x3dba56bd	0.09098575
19	0x3d02afa7	0.031905796
20	0x3cf0ed37	0.029409988
21	0x3d25d545	0.040486593
22	0x3d70de35	0.058805663
23	0x3d48297c	0.048867688
24	0x3d35aea5	0.044356007
25	0xbca05bf0	-0.01957509
26	0x3cc9738f	0.024591235
27	0x3c3802a8	0.011231102
28	0xbd73e427	-0.059543755
29	0xbc047120	-0.008083612
30	0xbd6dd03c	-0.058059916
31	0x3d9d249a	0.07672997
32	0x3d2a5af9	0.041590665
33	0x3d2d37b8	0.042289466
34	0xbbc4bd18	-0.006003987
35	0xbdb1e213	-0.08685698
36	0x3b467f4f	0.0030288284
37	0x3d452c2e	0.048137836
38	0xbc336b2a	-0.010950843
39	0xbd22a7ff	-0.039710995
40	0x3b579984	0.00328979
41	0xbd2fd4cd	-0.042927552
42	0xb94b30d9	-0.00019377786
43	0x3d1eb8ce	0.038750462
44	0x3cdccc27	0.026952816
45	0x3d88713c	0.06662223
46	0xbd6e925b	-0.058245044
47	0x3d8f8d73	0.07009401
48	0x3b3ec28f	0.0029107665
49	0xbd6e8799	-0.058234785
50	0x3d30d731	0.043173973
51	0x3da4fc18	0.080558956
52	0x3d919044	0.071075946
53	0x3cd96923	0.02653939
54	0x3cae60d0	0.021286398
55	0xbd96fb03	-0.073720954
56	0x3d7bb370	0.06145042
57	0x3d024f56	0.031813942
58	0x3c27030a	0.010193596
59	0xbd97aca7	-0.07405978
60	0xbd7aea4c	-0.0612586
61	0xbc9d0c9d	-0.019171054
62	0x3d6a041c	0.057132825
63	0xbd389ad1	-0.04506952
64	0xbcf5d50c	-0.030008815
65	0xbca627ab	-0.020282587
66	0x3cd6ddf4	0.026228882
67	0x3d245b38	0.040126055
68	0xbcd95eb7	-0.026534421
69	0x3d7477a9	0.05968443
70	0x3d8863c8	0.06659657
71	0xbd5dcc60	-0.054149985
72	0xbd47954a	-0.048726358
73	0x3d99bda5	0.07506875
74	0x3d49c100	0.049256325
75	0x3d83e82b	0.06440767
76	0xbc2d035d	-0.010559884
77	0x3da5ee0c	0.081020445
78	0x3d796515	0.060887415
79	0x3d4f0970	0.05054611
80	0x3da23433	0.079201125
81	0x3cd93982	0.02651668
82	0x3c045351	0.008076505
83	0x3ceef175	0.02916787
84	0x3ce187fd	0.027530665
85	0x3c32846e	0.0108958315
86	0xbd4c6f05	-0.049910564
87	0x3db089ae	0.0862001
88	0xbd9d0084	-0.07666114
89	0xbc2a0801	-0.010377885
90	0x3d875a0a	0.066089705
91	0x3d8630e0	0.06552291
92	0xbca8751f	-0.02056366
93	0x3d49b9c2	0.049249418
94	0x3d59a37b	0.053134423
95	0xbd8deae7	-0.0692957
96	0x3ba72000	0.0051002502
97	0x3da6e1b7	0.081485204
98	0x3cc6e958	0.024281189
99	0x3d9dfc88	0.07714182
100	0x3bff1467	0.0077844146
101	0x3d5bb481	0.05363894
102	0xbd3a973d	-0.04555439
103	0xbd3df5b1	-0.046376888
104	0x3db0bb40	0.08629465
105	0x3b9e8c6a	0.004838516
106	0xbd30b265	-0.04313888
107	0xbd367a3e	-0.044550173
108	0xbd855768	-0.06510812
109	0x3d9353b7	0.07193702
110	0x3d943b41	0.07237864
111	0xbc357499	-0.011075162
112	0x3da99131	0.08279646
113	0x3d0a5dd7	0.0337809
114	0x3cf90b11	0.030400785
115	0xbc0e2e10	-0.008677974
116	0x3d30888d	0.043098975
117	0x3d5f32da	0.054491855
118	0xbd8f8371	-0.07007492
119	0x3d43f739	0.04784319
120	0x3c08e856	0.008356174
121	0xbdcd02ed	-0.10010324
122	0x3d15661b	0.03647433
123	0xbd9d1d7c	-0.07671639
124	0x3acc8c67	0.0015605808
125	0xbd7134d0	-0.058888257
126	0x3d3cd8de	0.04610526
127	0x3d6df580	0.058095455
128	0xbcc3880a	-0.02386858
129	0x3d40dbaf	0.047084507
130	0xbd356d83	-0.04429389
131	0x3d6e4b4a	0.05817727
132	0xbd948aef	-0.07253062
133	0xbc8c8ae7	-0.017156078
134	0x3d1209a7	0.035653736
135	0x3d0014a3	0.03126968
136	0xbda78244	-0.08179143
137	0xbcea275a	-0.028583217
138	0xbd393672	-0.04521794
139	0x3d70a2d1	0.058749024
140	0x3d93f3bd	0.07224224
141	0x3b71e37c	0.0036909273
142	0x3da3dd6a	0.08001216
143	0xbd2993fe	-0.041400902
144	0xbbbe6023	-0.0058098002
145	0x3cde746e	0.027155127
146	0x3d266dd4	0.040632084
147	0x3d8c88b3	0.06862011
148	0xbd38e986	-0.04514458
149	0x3d94c55b	0.07264205
150	0x3c3a9862	0.01138887
151	0xbd7f3adc	-0.062311992
152	0xbd35bc1b	-0.044368844
153	0xbbfc9fea	-0.007709493
154	0xbcbe0f36	-0.023200613
155	0x3dc0c269	0.09412081
156	0xbbf5c772	-0.0075005824
157	0xbd4b0b5e	-0.049571387
158	0xbd8f2c6d	-0.069908954
159	0x3c982198	0.018570706
160	0x3d224026	0.039611958
161	0xbda3946c	-0.079872936
162	0xbd062673	-0.03275151
163	0x3c3b8684	0.011445645
164	0xbda21ca0	-0.07915616
165	0x3d2ba823	0.041908395
166	0x3db2d121	0.087312944
167	0xbd4780b9	-0.048706744
168	0x3d97c122	0.07409884
169	0x3d7fa073	0.062408876
170	0xbc5e232e	-0.013558192
171	0xbd1cfa59	-0.038324688
172	0x3c919fa1	0.017776312
173	0x3d7b9641	0.06142259
174	0x3ce47c8d	0.027891422
175	0x3d8478b4	0.06468335
176	0xbdbdb908	-0.092638075
177	0xbda9b255	-0.08285967
178	0xbc5e4bdd	-0.013567892
179	0xbcf94c9b	-0.030432036
180	0xbd64a508	-0.05582145
181	0xbcd36ea2	-0.02580959
182	0x3d3c2d9c	0.045941934
183	0xbd301238	-0.042986125
184	0x3cfb7857	0.030697031
185	0x3ca0574f	0.019572882
186	0xbd9d278d	-0.07673559
187	0xbccde084	-0.025131471
188	0x3d8b0a8b	0.0678912
189	0x3c88c241	0.01669419
190	0x3bb54c06	0.0055327443
191	0xbd304499	-0.04303417
192	0x3d38d3b9	0.04512379
193	0x3d054b8e	0.032542758
194	0x3d458750	0.048224747
195	0x3d9c2db3	0.07625904
196	0x3d3a881b	0.045539957
197	0xbda20c1b	-0.07912465
198	0x3c84901a	0.016181994
199	0xbd2e8575	-0.042607743
200	0xbc555795	-0.013021369
201	0xbc80c0b9	-0.015716897
202	0x3c9265ef	0.017870871
203	0xbcb8f12c	-0.022575937
204	0x3d1ba8aa	0.038002647
205	0x3c892796	0.016742509
206	0xbc93d96d	-0.018048013
207	0xbcb7b94e	-0.022427227
208	0x3d21ded0	0.03951913
209	0xbd854362	-0.06506993
210	0x3d94266f	0.07233893
211	0xbd8dc1a6	-0.06921701
212	0x3db6c966	0.089251325
213	0xbd9f036e	-0.07764326
214	0x3d694b5a	0.056956626
215	0xbc431a83	-0.011908176
216	0x3d461de3	0.048368346
217	0x3db01f9b	0.08599778
218	0x3cd21d8a	0.025648851
219	0x3d9a08a3	0.075211786
220	0xbcd19592	-0.025584016
221	0x3d0ad2f0	0.033892572
222	0x3d3edb57	0.046595898
223	0x3d6f8b64	0.058482543
224	0xbcfa33c7	-0.030542267
225	0xbce4746a	-0.027887542
226	0x3cd0658b	0.025439044
227	0x3c6b09a8	0.014345564
228	0x3d1a73c2	0.03770805
229	0xbcd2d696	-0.025737088
230	0xbcee82e5	-0.02911515
231	0x3d8fd2c3	0.070226215
232	0xbcf280fd	-0.029602522
233	0xbd8f1f46	-0.06988387
234	0xbc83df50	-0.016097695
235	0xbd348728	-0.044074208
236	0x3ca4667d	0.020068401
237	0x3d952207	0.07281881
238	0x3cf461cf	0.029831795
239	0x3db95318	0.09049052
240	0x3c243d7c	0.010024425
241	0x3da6d123	0.081453584
242	0x3d62ac4f	0.055340108
243	0x3cfda501	0.030962469
244	0x3d87c272	0.066288844
245	0x3dc5f077	0.09665006
246	0x3cae34b5	0.021265367
247	0xbcaec83f	-0.02133572
248	0xbbd30361	-0.006439612
249	0xbca643c7	-0.02029599
250	0x3c0deca4	0.008662377
251	0xbd9b13b8	-0.075721204
252	0xbd8a0861	-0.067398794
253	0xbd3de43a	-0.046360232
254	0xbd2d8b5d	-0.042369235
255	0xbc9d2074	-0.019180514

rnn.bias_hh_l0 f4 [512]
0	0x3b85eddc	0.004087193
1	0xbd85c5c2	-0.0653186
2	0x3d6d6dbd	0.057965983
3	0xbda66c82	-0.08126165
4	0xbd08c053	-0.03338654
5	0x3d1c77d8	0.03820023
6	0xbcc03598	-0.023463055
7	0xbd6c0f21	-0.057631616
8	0x3ba61a43	0.0050690486
9	0x3d8c3261	0.068455465
10	0xbd887d38	-0.066645086
11	0xbc8109dc	-0.015751772
12	0x3daffde6	0.08593349
13	0xbba803b8	-0.0051273964
14	0x3cdec658	0.027194187
15	0xbd9d107c	-0.0766916
16	0xbcbee30f	-0.02330163
17	0xbd9dc390	-0.07703316
18	0x3b8bcc4d	0.004266298
19	0xbd98d79a	-0.07462998
20	0xbd5a9a99	-0.053370092
21	0xbd241807	-0.040061977
22	0xbda3a07c	-0.07989594
23	0x3d8c9d3e	0.06865929
24	0xbd5aa94c	-0.05338411
25	0x3d09ff04	0.033690467
26	0x3d355c5e	0.04427754
27	0xbce0d24c	-0.027444027
28	0x39f69db9	0.0004703829
29	0x3c1abcb8	0.009444408
30	0xbd7c0f63	-0.06153811
31	0x3d51d472	0.051227994
32	0xbd259d68	-0.040433317
33	0xbd4021c8	-0.046907216
34	0x3dad207d	0.08453462
35	0xbda75265	-0.081700124
36	0xbd811838	-0.063034475
37	0xbcf2b78a	-0.029628534
38	0x3bebd155	0.007196585
39	0x3d2ece22	0.042677052
40	0x3cdc3115	0.026878873
41	0x3d5330c2	0.05156017
42	0xbcedfa31	-0.029049965
43	0xbd3ca015	-0.046051104
44	0x3d54e362	0.05197466
45	0xbcc2019d	-0.02368241
46	0x3be35a24	0.006938236
47	0xbd65b194	-0.056077555
48	0xbd2de643	-0.042455923
49	0xbc53ef1a	-0.012935424
50	0x3c06bf24	0.008224282
51	0xbd8ce317	-0.068792515
52	0x3dcb9760	0.09940982
53	0x3d909fef	0.07061755
54	0x3db4186f	0.08793723
55	0x3daee2df	0.08539366
56	0x3bafb353	0.0053619533
57	0xbd873eb9	-0.0660376
58	0xbc666e06	-0.014064318
59	0x3d8f2ebe	0.06991337
60	0x3cb97ce3	0.022642558
61	0xbd878973	-0.06618013
62	0xbda21332	-0.079138175
63	0x3dc02993	0.0938293
64	0x3da3d2f0	0.079992175
65	0x3d50285a	0.050819732
66	0xbda07bbd	-0.07836101
67	0x3d1358c8	0.03597334
68	0x3dbb412b	0.09143289
69	0x3d958fbe	0.07302807
70	0xbd5a2741	-0.05326009
71	0xbc09dcd8	-0.00841447
72	0xbb9749f8	-0.004616972
73	0x3d9df655	0.07713
74	0x3d3bba9c	0.04583226
75	0xbdba0e69	-0.0908478
76	0x3da421cc	0.08014259
77	0xbc828960	-0.015934646
78	0x3d5515bd	0.052022684
79	0x3d592115	0.053010065
80	0xbdb8143d	-0.08988235
81	0x3dae16d1	0.08500446
82	0x3d0c3914	0.03423412
83	0x3d5ed292	0.054400034
84	0x3d8426e2	0.06452729
85	0x3dcbf3ef	0.09958636
86	0x3c9b3016	0.018943828
87	0xbd9efa00	-0.077625275
88	0xbd9600ca	-0.07324369
89	0xbd46e5b7	-0.048558917
90	0xbc903f8d	-0.017608428
91	0x3cbc333c	0.02297365
92	0xbd326404	-0.043552414
93	0x3d790a36	0.060800754
94	0x3d927918	0.07152003
95	0xbd09f57e	-0.033681385
96	0xbc8aad1d	-0.01692825
97	0x3cc7f6d2	0.024409685
98	0xbb8581b3	-0.0040742992
99	0x3cdbf21b	0.026848843
100	0x3d8a8967	0.06764489
101	0xbd6cccfd	-0.05781268
102	0x3c6bd4a3	0.014393958
103	0x3baf3f1c	0.0053480994
104	0xbc8fdaef	-0.01756045
105	0x3dc0754e	0.09397374
106	0x3c611bf5	0.013739576
107	0xbce179f5	-0.027523974
108	0xbc364b0d	-0.011126292
109	0xbd8ddc7f	-0.06926822
110	0x3cb5945a	0.022165466
111	0xbce1638f	-0.027513294
112	0xbd989132	-0.07449569
113	0xbcf9b8f9	-0.03048371
114	0x3cca1827	0.02466972
115	0x3d92c17d	0.07165811
116	0x3d6d611e	0.057953946
117	0x3811866b	3.469588e-05
118	0x3d4352c7	0.047686365
119	0xbc6cdc14	-0.014456768
120	0xbcaa3214	-0.020775832
121	0xbd619f3f	-0.05508351
122	0x3d598ab5	0.053110797
123	0xbd84e9de	-0.06489919
124	0xbd3c7e45	-0.046018858
125	0xbce8a097	-0.028396888
126	0x3ca6291d	0.020283276
127	0x3d3fd90a	0.046837844
128	0x3d26ff89	0.04077104
129	0xbd3821b0	-0.044954002
130	0xbcc49dda	-0.02400105
131	0xbd649d8f	-0.055814322
132	0x3c7ceee1	0.015437813
133	0xbd047519	-0.032338236
134	0xbd9d5fbe	-0.07684277
135	0x3d94cf2d	0.07266078
136	0x3d8c06e0	0.06837249
137	0xbda5e5e0	-0.08100486
138	0xbd10707d	-0.035263527
139	0x3cad0a2b	0.021123013
140	0xbd81a486	-0.063302085
141	0xbd501ef8	-0.050810784
142	0xbc9396bc	-0.018016212
143	0x3c4b1820	0.012395889
144	0x3d6a868d	0.057257224
145	0x3d38266f	0.044958528
146	0x3bd7f155	0.0065900483
147	0x3d82dea1	0.06390119
148	0x3d973ecb	0.07385024
149	0xbd5b07a9	-0.053474102
150	0xbc90c9cf	-0.017674355
151	0x3c0a4d40	0.008441269
152	0xbc36b1b7	-0.011150769
153	0xbd622fb5	-0.05522128
154	0x3d742e88	0.05961469
155	0xbc3b4469	-0.0114298845
156	0xbb8ae048	-0.004238162
157	0xbc672e07	-0.014110095
158	0x3d516305	0.051119823
159	0x3d62f457	0.055408802
160	0x3d7c5c76	0.061611615
161	0x3d70d131	0.05879325
162	0x3c3d62ac	0.01155917
163	0xbce0fb59	-0.027463602
164	0xbbe11077	-0.006868418
165	0xbcae694a	-0.02129044
166	0x3cf53901	0.029934408
167	0x3da733b6	0.0816416
168	0x3d931352	0.071814194
169	0x3dae0530	0.08497083
170	0xbd3a6e1a	-0.045515157
171	0xbd199ea1	-0.037504796
172	0x3d00d546	0.031453393
173	0x3d5f0c4c	0.054455087
174	0xbce1a978	-0.02754663
175	0xbd3d619e	-0.046235673
176	0xbc26588f	-0.01015295
177	0x3d148d13	0.03626735
178	0x3d229390	0.039691508
179	0x3c1fcfb4	0.00975411
180	0x3db87c5e	0.09008096
181	0x3db44b42	0.08803417
182	0x3bded1f9	0.006799933
183	0x3d1dad91	0.038495604
184	0xbb4c4471	-0.0031168724
185	0xbd7cef6c	-0.061751768
186	0x3cf3299b	0.029682925
187	0xbcb5d734	-0.022197343
188	0xbd9fc1ae	-0.07800613
189	0x3d9101ea	0.07080443
190	0xbd86a6c4	-0.06574777
191	0x3ccddaeb	0.025128802
192	0x3d959915	0.07304589
193	0x3d74f856	0.059807144
194	0xbd853ca7	-0.06505709
195	0xbd392a3d	-0.045206297
196	0x3c255026	0.01008991
197	0x3c641675	0.01392137
198	0x3d1c1ad5	0.038111527
199	0x3c88088a	0.016605634
200	0x3d23366e	0.03984683
201	0xbd231f91	-0.039825026
202	0xbd917fb3	-0.07104435
203	0xbc7a96c2	-0.0152947325
204	0xbd8598a4	-0.065232545
205	0x3c9680c4	0.018371947
206	0xbcfe3c3b	-0.03103458
207	0x3cb84c7a	0.022497404
208	0xbd129e84	-0.035795704
209	0x3dad9e0d	0.084774114
210	0x3d3eb925	0.046563286
211	0xbd16baa1	-0.036799077
212	0x3d323c39	0.043514464
213	0x3d86d3b7	0.0658335
214	0x3d2773e8	0.04088202
215	0x3c96d03b	0.018409839
216	0x3d975ae7	0.07390385
217	0xbd5671a8	-0.052354485
218	0xbd8dbddc	-0.069209784
219	0x3d869b32	0.0657257
220	0xbdbadcf2	-0.09124173
221	0xbd8977bd	-0.067122914
222	0xbd2e4e95	-0.04255541
223	0x3c6156a7	0.01375357
224	0xbdab8b90	-0.08376229
225	0x3c9c58b6	0.01908527
226	0x3a4a7caa	0.0007724265
227	0xbcb2a5ce	-0.021807577
228	0xbcc9f959	-0.024655031
229	0x3b2bb3b1	0.0026199634
230	0xbd69bff1	-0.057067815
231	0x3d928d59	0.07155866
232	0x3cdff129	0.027336674
233	0x3b9011de	0.004396661
234	0xbd51620c	-0.051118895
235	0x3d9a8cb6	0.0754637
236	0xbc5f6393	-0.01363458
237	0x3cf2f829	0.029659348
238	0xbd3babf8	-0.0458183
239	0x3da4050f	0.08008777
240	0x3d760067	0.060058977
241	0x3d0c25dd	0.034215797
242	0x3d6fdd74	0.058560804
243	0x3d9d3db1	0.07677782
244	0xbd580597	-0.052739706
245	0x3d6383f7	0.055545773
246	0xbc9f2f32	-0.019431684
247	0xbd3c3314	-0.04594715
248	0xbc709295	-0.014683385
249	0x3d7ec61a	0.062200643
250	0xbdaabdec	-0.08337006
251	0xbc8f6799	-0.017505454
252	0x3c91394b	0.017727515
253	0x3dbc4ba8	0.09194118
254	0xbd77f50d	-0.060536433
255	0x3db9d306	0.09073453

rnn.weight_ih_l1 f4 [512, 128]
0	0x3cafa85a	0.021442581
1	0xbd0c0727	-0.03418651
2	0x3cb52620	0.022112906
3	0x3d412bfd	0.04716109
4	0x3d75d6af	0.06001919
5	0xbd425ffc	-0.04745482
6	0x3c44c6e4	0.01201031
7	0x3c207aa3	0.009794864
8	0x3d84fdd7	0.064937286
9	0xbd0bd808	-0.03414157
10	0x3cddfa37	0.02709685
11	0xbd4e9546	-0.050435327
12	0xbbb1133d	-0.0054039047
13	0x3aedf9bb	0.001815609
14	0x3cb41afe	0.021985527
15	0xbd043f50	-0.032286942
16	0xbda008c8	-0.07814175
17	0xbd15346b	-0.036426943
18	0x3cf8bbc1	0.030362966
19	0x3c8746a7	0.016513182
20	0x3d86e43d	0.06586502
21	0xbd808f00	-0.06277275
22	0x3db1c7a6	0.08680658
23	0x3d6d6028	0.05795303
24	0xbd823089	-0.063569136
25	0xbdc3c268	-0.095585644
26	0xbc159527	-0.009129799
27	0xbd3562c6	-0.04428365
28	0xbd923f18	-0.071409404
29	0xbd96eedb	-0.07369777
30	0xbc8bfb7e	-0.017087694
31	0x3d5630b3	0.052292537
32	0x3c25f4cb	0.010129164
33	0xbc4f8326	-0.012665546
34	0xbdc47f43	-0.09594586
35	0x3cead4fc	0.028666012
36	0xbb29fe4a	-0.0025938922
37	0x3d9b6ecd	0.07589493
38	0x3bdda775	0.006764347
39	0x3d9902fe	0.07471274
40	0xbdab9748	-0.08378464
41	0xbc2a47fe	-0.010393141
42	0xbd8a8b06	-0.06764798
43	0x3ca9b0f6	0.020714264
44	0x3db5e6c8	0.08881909
45	0xbd44723a	-0.047960497
46	0x3d8cb57f	0.06870555
47	0x3d1addb4	0.03780909
48	0x3d890062	0.06689526
49	0x3c375e43	0.011191907
50	0x3b7a2ece	0.003817487
51	0xbd94e218	-0.072696865
52	0x3ca1ee67	0.019767
53	0xbccae1ee	-0.024765935
54	0xbcfa40b4	-0.030548431
55	0xbd269daf	-0.040677723
56	0xbc8fabe0	-0.017538011
57	0xbc4e1ff4	-0.01258086
58	0x3d96ce54	0.07363573
59	0xbdaa22a2	-0.08307387
60	0xbd044a23	-0.032297265
61	0xbcdf59ba	-0.027264465
62	0xbce6daff	-0.028180597
63	0xbce0472a	-0.027377684
64	0x3c90059f	0.017580805
65	0x3c80271d	0.01564365
66	0x3cb47312	0.022027526
67	0x3c63aca0	0.0138961375
68	0x3c5c0699	0.013429307
69	0x3b818782	0.0039529214
70	0x3da80c4e	0.08205472
71	0xbd87824e	-0.066166505
72	0x3d984cfb	0.07436558
73	0xbd756c89	-0.05991796
74	0x3cb29118	0.021797702
75	0x3d8b9ae6	0.06816654
76	0xbd12fb90	-0.03588444
77	0x3c11b4e0	0.008893222
78	0xbd878997	-0.0661804
79	0xbd73f46a	-0.059559263
80	0xbd429382	-0.047503956
81	0x3d39e83a	0.045387484
82	0x3d176ee7	0.036971
83	0xbd2b023f	-0.04175019
84	0xbd78c43c	-0.06073402
85	0x3d858f24	0.065214425
86	0x3d2f8674	0.042852834
87	0xbad3eaad	-0.0016167961
88	0xbdb9c621	-0.09070993
89	0x3d60869e	0.05481588
90	0x3d8cd25e	0.06876062
91	0x3db3c0d7	0.08777016
92	0xbd8f6931	-0.070024855
93	0x3ba1aaf5	0.0049337097
94	0x3db855f0	0.09000766
95	0x3d598342	0.053103693
96	0x3cde99b5	0.027172903
97	0x3db1c417	0.08679979
98	0xbd563b9c	-0.05230294
99	0xbcbde364	-0.023179717
100	0xbd72f2a6	-0.05931344
101	0x3d515b7d	0.05111264
102	0xba86dbed	-0.0010288932
103	0x3be84b53	0.0070890575
104	0x3cbf0d3d	0.023321742
105	0xbd7dd4a1	-0.061970357
106	0xbd6f7739	-0.05846331
107	0xbd905d0e	-0.07048999
108	0x3d696cd0	0.056988537
109	0x3d8a8dbd	0.06765316
110	0xbd998288	-0.074956
111	0xbc048f73	-0.008090842
112	0x3d839cb5	0.06426374
113	0x3d924b86	0.07143311
114	0x3d907d71	0.07055176
115	0x3cf57473	0.029962754
116	0x3d919f31	0.071104415
117	0xbd76f94b	-0.060296338
118	0x3da997dd	0.08280919
119	0xbb62cb10	-0.0034605898
120	0xbd83d598	-0.06437224
121	0xbd9d1a2c	-0.076710075
122	0xbc401b0a	-0.011725197
123	0x3c923242	0.01784623
124	0xbb25308a	-0.0025205933
125	0xbd3fca16	-0.046823584
126	0x3d917c55	0.071037926
127	0x3d971635	0.073772825
128	0x3d74353f	0.059621092
129	0x3b5072fa	0.0031806813
130	0x3d9907d9	0.074722
131	0x3dc126a0	0.09431195
132	0x3d3f0399	0.04663429
133	0x3ca081ec	0.019593202
134	0x3d5fbec8	0.054625303
135	0x3d571d0a	0.05251793
136	0xbd520b08	-0.05128005
137	0x3d9fc168	0.07800561
138	0x3d9644f5	0.07337371
139	0xbd890222	-0.0668986
140	0x3d41f21e	0.04735004
141	0xbd89be61	-0.06725765
142	0xbc787346	-0.015164202
143	0xbca7ff43	-0.02050746
144	0x3d546965	0.051858325
145	0x3cd4c9e7	0.02597518
146	0x3daaf5aa	0.08347638
147	0xbb9ffb03	-0.004882218
148	0xbca04d81	-0.019568207
149	0x3d3c4f35	0.045973975
150	0x3d9bccb9	0.07607407
151	0xbd6bbb79	-0.057551835
152	0x3d8c6870	0.06855857
153	0xbdac9c1b	-0.08428212
154	0x3d466970	0.048440397
155	0xbd16323e	-0.03666901
156	0xbd727fc9	-0.059203897
157	0xbdabdf90	-0.083922505
158	0x3d194c4a	0.03742627
159	0x3db888f2	0.09010495
160	0xbd134461	-0.035953883
161	0xbca7c9b7	-0.020481927
162	0x3d6ce33e	0.057833903
163	0x3db7ca92	0.08974184
164	0xbdad2280	-0.08453846
165	0xbd3a4453	-0.045475315
166	0x3cf2a272	0.029618476
167	0x3d1733e1	0.03691471
168	0x3d91cf7d	0.071196534
169	0x3d616adb	0.055033546
170	0x3d4e0e5f	0.050306674
171	0x3d4df413	0.050281595
172	0x3cfb2ce2	0.03066105
173	0x3d396bb1	0.04526872
174	0x3d71737f	0.058948036
175	0xbd13dc98	-0.036099046
176	0xbdb70de3	-0.089381956
177	0xbd7961d0	-0.060884297
178	0x3b2127cf	0.0024590378
179	0x3d88ee42	0.06686069
180	0x3d377148	0.044785768
181	0xbcba96d8	-0.022777006
182	0x3d8b43bf	0.06800031
183	0xbcf23321	-0.029565396
184	0x3d598ba9	0.053111706
185	0x3d1f1c19	0.038845155
186	0xbd98519a	-0.07437439
187	0x3d912957	0.07087963
188	0xbd81f2b5	-0.06345121
189	0xbdb31dea	-0.0874594
190	0x3d9d93cd	0.076942064
191	0xbce17964	-0.027523704
192	0x3d689ea5	0.05679192
193	0xbda9bba9	-0.082877465
194	0x3d5ae616	0.053442083
195	0xbd4557b1	-0.048179332
196	0x3d17ba10	0.037042677
197	0xbd0d2079	-0.034454796
198	0x3d4e9a8b	0.050440352
199	0x3d9fc761	0.078017004
200	0xbdb5c41a	-0.08875294
201	0x3d108a1c	0.03528796
202	0xbd8a9cb6	-0.067681715
203	0x3d69e4d2	0.057102986
204	0xbda90cba	-0.082543805
205	0xbd966ede	-0.07345365
206	0xbd31c61f	-0.043401834
207	0x3c3d60a6	0.011558687
208	0xbd8ad69f	-0.06779217
209	0x3a9e934f	0.0012098345
210	0x3d9e6a3c	0.07735106
211	0x3ceb42c5	0.028718362
212	0xbc61c337	-0.013779453
213	0x3d6ec5c2	0.058294065
214	0x3d584987	0.052804496
215	0xbdceb398	-0.100928485
216	0x3c148fe2	0.009067507
217	0x3cb1760d	0.021662736
218	0x3cdd8e1d	0.027045304
219	0xbd7c2184	-0.0615554
220	0xbd8775a4	-0.06614235
221	0x3d88bcd3	0.0667664
222	0x3c9888d2	0.018619929
223	0x3cd85410	0.026407272
224	0x3c98b406	0.01864053
225	0xbd167845	-0.03673579
226	0x3cab1203	0.020882612
227	0x3bc73dfc	0.006080387
228	0x3d92bbc4	0.0716472
229	0xbc0e5e1b	-0.008689429
230	0xbb9d0393	-0.004791686
231	0xbdc6f728	-0.0971511
232	0x3d2d783c	0.042350993
233	0xbcf7f486	-0.030267965
234	0xbc64191c	-0.013922002
235	0xbd9e95e5	-0.07743434
236	0x3d332324	0.043734685
237	0xbdc21e6d	-0.094784595
238	0xbd113b3e	-0.03545689
239	0xbb0a453e	-0.00210984
240	0x3d54ca06	0.051950477
241	0xbd764803	-0.06012727
242	0xbd628b31	-0.055308525
243	0xbdadd50a	-0.084878996
244	0xbd0f51e8	-0.03499022
245	0x3da292a9	0.079381295
246	0xbd85597b	-0.06511208
247	0xbce4c89f	-0.027927695
248	0x3d50d663	0.050985705
249	0xbda161e7	-0.078800015
250	0x3d12123a	0.035661913
251	0xbc805799	-0.01566677
252	0x3d5790fd	0.052628506
253	0x3c63189c	0.013860848
254	0xbc723d2e	-0.014785094
255	0x3cecd1bf	0.028908608

rnn.weight_hh_l1 f4 [512, 128]
0	0xbdb2bbdf	-0.0872724
1	0x3d914875	0.07093898
2	0xbd8d93c9	-0.069129534
3	0x3d6f7677	0.058462586
4	0x3d5675fd	0.052358616
5	0xbd91ddec	-0.07122406
6	0xbc68b46b	-0.014203171
7	0xbd8137ac	-0.06309447
8	0x3ccce458	0.025011227
9	0x3d999d3f	0.075006954
10	0x3c59ef7c	0.013301726
11	0x3d1fff93	0.039062094
12	0xbd8cca4b	-0.06874522
13	0x3d4c684c	0.049904153
14	0xbd377f76	-0.04479929
15	0xbd4c0b9a	-0.04981575
16	0x3c9519fc	0.018200867
17	0x3d9d8464	0.07691267
18	0xbd2b1865	-0.04177131
19	0x3d7c36d5	0.06157573
20	0x3d89ab03	0.06722071
21	0x3d4d8016	0.05017098
22	0xbda98630	-0.08277547
23	0xbd75cf02	-0.06001187
24	0x3d0e4fbb	0.034744006
25	0xbdb1fecb	-0.08691176
26	0x3da5240d	0.08063517
27	0x3d726c64	0.0591854
28	0xbcb1c75d	-0.02170151
29	0x3c290d98	0.010318182
30	0x3d02dc99	0.03194866
31	0x3d1d7fbb	0.03845189
32	0x3cadcaee	0.021214928
33	0xbb766ec6	-0.0037602647
34	0xbcf992a9	-0.03046544
35	0x3d7ab630	0.061208904
36	0x3d6afffb	0.05737303
37	0xbda6f182	-0.08151533
38	0xbcf2445d	-0.029573614
39	0x3d68ad7d	0.056806076
40	0xbd8a80ff	-0.06762885
41	0xbbd1b5d9	-0.0063998518
42	0xbcc9b05b	-0.024620226
43	0x3d4e7acf	0.05041009
44	0x3d8d7b98	0.06908339
45	0xbcd0fa36	-0.025509935
46	0x3b96f35d	0.004606648
47	0x3db06cef	0.086145274
48	0xbd1481b7	-0.03625652
49	0xbdab55e3	-0.08365991
50	0x3da0f4aa	0.07859166
51	0xbda21335	-0.0791382
52	0x3d149574	0.036275342
53	0xbcf36cf5	-0.02971504
54	0xbcdf3636	-0.02724753
55	0x3d6009b0	0.05469674
56	0xbd0afd84	-0.033933178
57	0x3d3fbfa7	0.046813633
58	0xbd70c7d5	-0.058784325
59	0x3d6c2ec5	0.05766179
60	0x3d38f6ce	0.045157246
61	0x3d4a8ffa	0.049453713
62	0x3dc68432	0.09693183
63	0x3d91b866	0.07115249
64	0xbd4447a4	-0.047919884
65	0x3c57446c	0.013138872
66	0x3d6257df	0.05525958
67	0x3c47515a	0.012165392
68	0x3bd0edb6	0.0063759936
69	0x3d8d8370	0.06909835
70	0xbdae2d0f	-0.08504688
71	0xbca88764	-0.020572372
72	0xbb05cb19	-0.0020415245
73	0xbcc8b7b9	-0.024501668
74	0xbd9b16a0	-0.07572675
75	0x3d7ac17b	0.061219674
76	0xbcd29d03	-0.025709635
77	0x3db746dd	0.08949063
78	0xbd2a4f17	-0.041579332
79	0x3da4ea57	0.08052509
80	0xbd2668a8	-0.04062715
81	0xbc3a46f2	-0.011369454
82	0xbd3fd210	-0.04683119
83	0x3d6b9edd	0.05752455
84	0xbd936a81	-0.071980484
85	0xbd2a1789	-0.04152635
86	0xbd609168	-0.05482617
87	0x3d6f397d	0.058404434
88	0x3baf4628	0.0053489394
89	0x3d55ae64	0.052168265
90	0xbd5850a5	-0.052811284
91	0xbd0a30d7	-0.033737984
92	0xbb2bd43e	-0.0026219035
93	0xbd4153e8	-0.04719916
94	0x3d966091	0.07342637
95	0x3c2b76c5	0.010465329
96	0xbd81a71d	-0.063307025
97	0x3cc641f7	0.024201376
98	0x3d480594	0.048833445
99	0x3cf753b8	0.030191287
100	0x3d074103	0.033020984
101	0x3d83a769	0.06428415
102	0xbd0a955c	-0.033833846
103	0xbd8ecdda	-0.06972857
104	0x3d7402e6	0.059573077
105	0xbc1de41c	-0.009636905
106	0xbd584a3d	-0.052805174
107	0x3dac250c	0.08405504
108	0xbd896ed0	-0.06710589
109	0xbd9b4f6f	-0.0758351
110	0x3db6522b	0.08902391
111	0xbcc2a9ff	-0.023762701
112	0x3da68514	0.081308514
113	0x3d1664da	0.036717273
114	0xbd2725f7	-0.04080769
115	0xbd6f12cf	-0.058367547
116	0xbda445b8	-0.0802111
117	0x3c3ef835	0.011655857
118	0x3d1bb84a	0.03801755
119	0x3d03bca6	0.03216233
120	0xbd9c34b2	-0.07627238
121	0x3cd47590	0.025934964
122	0xbdac534f	-0.08414327
123	0xbd75df96	-0.06002768
124	0xbd5fee99	-0.054670904
125	0xbd9a3169	-0.075289555
126	0x3d94224b	0.07233103
127	0xbba8434c	-0.0051349755
128	0x3cdc5a33	0.02689848
129	0x3d2814cd	0.041035462
130	0x3cc9bb6d	0.024625504
131	0x3dc0ed32	0.094202414
132	0xbcf02c9e	-0.02931815
133	0xbd895903	-0.06706431
134	0x3d8c5300	0.068517685
135	0xbc3b0141	-0.011413873
136	0xbd7472a3	-0.05967964
137	0xbd84abe3	-0.06478097
138	0x3c4df6c0	0.012571037
139	0xbd8e76ea	-0.06956275
140	0x3d056cbb	0.032574397
141	0x3b0919f8	0.002092002
142	0xbd5fc693	-0.054632735
143	0xbd618a16	-0.05506333
144	0x3d141828	0.03615585
145	0x3cc3fe19	0.023924874
146	0xbb20ee3d	-0.0024556064
147	0xbcc975b4	-0.024592258
148	0x3d81d0c9	0.06338651
149	0xbd156b7f	-0.03647947
150	0x3d3533fa	0.04423902
151	0xbcece281	-0.0289166
152	0xbdb24e63	-0.08706357
153	0xbd035d24	-0.032071248
154	0x3d155039	0.03645346
155	0x3c91d4e9	0.017801719
156	0x3d3fbffc	0.04681395
157	0x3d39f357	0.045398083
158	0xbd934c28	-0.0719226
159	0x3db51668	0.08842164
160	0x3d605e0f	0.0547772
161	0x3da2c13e	0.07947014
162	0xbd237f07	-0.039916065
163	0xbb61c20c	-0.0034447936
164	0x3d4cca80	0.049997807
165	0x3ca10554	0.019655861
166	0xbda72035	-0.0816044
167	0x3c253a75	0.010084738
168	0x3c324584	0.010880832
169	0x3d42c075	0.047546823
170	0xbd044a05	-0.032297153
171	0xbd3568f9	-0.044289563
172	0x3cd41923	0.025890892
173	0xbd19ad38	-0.03751871
174	0xb96ceb98	-0.0002259448
175	0x3ceee986	0.029164087
176	0x3d56542f	0.052326377
177	0xbd2f9255	-0.042864162
178	0xbd68b6bc	-0.056814894
179	0x3d9c8908	0.07643324
180	0xbdb3e9d0	-0.087848306
181	0x3d14c81f	0.036323663
182	0x3d05fb6a	0.03271047
183	0xbd0d70e2	-0.03453148
184	0x3d2645f1	0.040594045
185	0xbd3d0918	-0.04615125
186	0x3c8f0533	0.017458534
187	0xbd1b83c0	-0.037967443
188	0xbcf3f584	-0.029780157
189	0x3d09b5e3	0.033620726
190	0xbda0c0d6	-0.078492805
191	0x3d42af0f	0.04753023
192	0x3d80bc48	0.06285912
193	0xbbc07b73	-0.0058740913
194	0xba922a04	-0.0011151438
195	0xbccf01e5	-0.025269458
196	0xbd3f8a4a	-0.046762742
197	0xbc05d7a6	-0.00816909
198	0x3d581126	0.05275073
199	0x3c57b834	0.013166476
200	0x3d03120d	0.031999636
201	0x3d35a3ab	0.04434554
202	0xbdc2a722	-0.09504534
203	0x3d2b0109	0.041749034
204	0x3db8e70c	0.09028444
205	0xbccfb0fd	-0.02535295
206	0xbdafd3c2	-0.085853115
207	0xbd8f14fd	-0.06986425
208	0x3c2a74c7	0.010403818
209	0xbb592d24	-0.0033138478
210	0xbd40a69e	-0.0470339
211	0x3d990400	0.07471466
212	0xba8f5aef	-0.0010937135
213	0x3d9e03d9	0.07715578
214	0xbc89e85e	-0.016834434
215	0x3c855d41	0.016279818
216	0x3cf69c2f	0.030103771
217	0xbda17e70	-0.07885444
218	0xbd226e10	-0.039655745
219	0x3dc32eda	0.095304206
220	0xbc0f84b0	-0.0087596625
221	0x3ca7b542	0.020472173
222	0xbbc83480	-0.006109774
223	0x3cf9f04d	0.030510092
224	0xbd282c73	-0.041058015
225	0xbc44600b	-0.011985789
226	0x3dacec2a	0.08443482
227	0xbd4966a3	-0.049170148
228	0xbda4045e	-0.080086455
229	0x3d99624d	0.074894525
230	0xbdb65525	-0.08902959
231	0xbdd8b648	-0.105816424
232	0x3d868117	0.06567591
233	0xbd43e530	-0.047825992
234	0xbd195484	-0.037434116
235	0x3d7bcb0a	0.06147293
236	0xbc3b0019	-0.0114135975
237	0x3bae360a	0.0053165006
238	0x3baee09a	0.005336833
239	0xbd9b04cc	-0.07569274
240	0xbd410cc9	-0.047131334
241	0xbc1803ec	-0.009278279
242	0xbd3bc172	-0.04583878
243	0xbd14639a	-0.0362278
244	0x3db0aade	0.0862634
245	0xbd9eb1b9	-0.07748742
246	0xbb274a26	-0.0025526374
247	0xbdc22e40	-0.09481478
248	0xbd505ecf	-0.050871667
249	0xbcbb9376	-0.022897463
250	0xbdb52b1c	-0.08846113
251	0xbd17fee9	-0.037108336
252	0xbcb20a8b	-0.021733543
253	0xbda2079f	-0.0791161
254	0x3d20717a	0.03917072
255	0x3c5e602f	0.013572737

rnn.bias_ih_l1 f4 [512]
0	0x3cbb806a	0.022888381
1	0xbca617d5	-0.020275036
2	0x3d2555f9	0.040365193
3	0x3d910e3a	0.070827916
4	0xbd04844f	-0.03235274
5	0xbd2d47b0	-0.042304695
6	0x3d360634	0.04443951
7	0xbd9c6e14	-0.07638183
8	0xbcd6cc6f	-0.026220528
9	0x3d8028a4	0.062577516
10	0x3d9d235a	0.076727584
11	0x3d6737aa	0.05644957
12	0x3cad86bb	0.021182409
13	0xbda53f93	-0.080687664
14	0x3c848945	0.016178736
15	0xbd9ed771	-0.07755936
16	0x3d76f952	0.060296364
17	0xbd1ad929	-0.037804756
18	0xbbe0d80b	-0.006861692
19	0xbd9ef3df	-0.077613585
20	0x3dcb0a01	0.099140175
21	0x3d4f4b3a	0.05060885
22	0x3c68ca40	0.014208376
23	0x3cebb31d	0.028771931
24	0x3c8ba96e	0.017048564
25	0xbc8360ac	-0.016037308
26	0x3d8ef450	0.06980193
27	0x3c853615	0.01626114
28	0x3d9acf0d	0.07559023
29	0x3cd57df1	0.02606103
30	0x3d0df414	0.0346566
31	0xbd24df66	-0.04025211
32	0x3d547920	0.051873326
33	0xbd28c08a	-0.041199245
34	0x3d4bc1c1	0.049745325
35	0xbc0da313	-0.008644837
36	0x3ca7bb0f	0.020474939
37	0x3bb81685	0.005617919
38	0xbd0aaf2d	-0.033858467
39	0x3d963448	0.073341906
40	0x3dc72ad1	0.097249635
41	0xbd67f510	-0.056630194
42	0x3d2f7f75	0.042846162
43	0x3d13fcd3	0.036129784
44	0x3d46ad17	0.048504915
45	0x3d893fb6	0.06701605
46	0x3d20f921	0.039300088
47	0x3dcabb22	0.09898974
48	0xbd2d87b1	-0.042365734
49	0x3c738dba	0.014865333
50	0x3c956d1c	0.018240504
51	0xbd97477a	-0.0738668
52	0x3daf87a2	0.08570792
53	0x39f1b2af	0.00046100232
54	0x3dc6055f	0.09668993
55	0xbdb93d26	-0.09044866
56	0x3d6842aa	0.0567042
57	0xbd186e48	-0.037214547
58	0x3d319f23	0.043364655
59	0x3af88909	0.0018961738
60	0xbd8ffe12	-0.07030882
61	0xb84e1687	-4.9135208e-05
62	0x3c714c69	0.01472769
63	0x3b74764b	0.0037301953
64	0x3db71a2f	0.08940541
65	0x3d45bcbe	0.0482757
66	0x3c7c08f6	0.015382996
67	0x3d808511	0.062753804
68	0x3d909de4	0.07061365
69	0x3ccfccc8	0.025366202
70	0xbd8d79a1	-0.069079645
71	0x3d42a21d	0.047517885
72	0xbd0eb1ef	-0.03483766
73	0x3cbd142a	0.023080904
74	0xbd735644	-0.05940844
75	0x3c51b33b	0.0127990795
76	0x3da24e28	0.07925063
77	0x3c1b774d	0.009488893
78	0xbb48db49	-0.0030648282
79	0xbd992fc0	-0.07479811
80	0xbcd205be	-0.025637504
81	0xbb945d8d	-0.0045277537
82	0xbd287b6f	-0.04113334
83	0x3db99e3b	0.09063383
84	0x3d35a9c3	0.04435135
85	0xbd28c199	-0.041200254
86	0x3d8335bb	0.06406733
87	0x3cd3cf46	0.025855672
88	0xbbb08de7	-0.00538801
89	0x3cd1339f	0.02553731
90	0x3d45b127	0.04826465
91	0xbadc468f	-0.0016805696
92	0x3d155b41	0.03646398
93	0x3db10c90	0.08644974
94	0xbd844c20	-0.06459832
95	0xbd953862	-0.07286145
96	0x3dc0089b	0.09376641
97	0xbd1e5c33	-0.038662147
98	0x3cf7df35	0.0302578
99	0x3d4f381f	0.05059063
100	0xba0a0f27	-0.000526654
101	0x3d6f706c	0.058456823
102	0xbc5dcefb	-0.0135381175
103	0x3ca08163	0.019592946
104	0xbd06b125	-0.032883782
105	0x3cb0ee5a	0.02159803
106	0x3ca9e75a	0.0207402
107	0xbd6bdaca	-0.0575817
108	0xbc803ac5	-0.015653023
109	0x39dbd20f	0.0004192744
110	0x3a75a833	0.0009371072
111	0xbd012ccc	-0.031536862
112	0x3d535bf7	0.051601376
113	0x3d37c8c1	0.04486919
114	0x3dbcdebf	0.09222173
115	0xbd6dd4a7	-0.05806413
116	0x3d7c67b0	0.06162232
117	0xbda71942	-0.081591144
118	0xbca9b86d	-0.020717824
119	0xbc9553e3	-0.018228477
120	0xbc87a228	-0.016556814
121	0xbd858f98	-0.06521529
122	0xbc987e6b	-0.018614968
123	0x3d026382	0.03183318
124	0x3cc16b6c	0.023610793
125	0xbd245bf5	-0.04012676
126	0x3d526319	0.05136404
127	0xbd23030d	-0.03979783
128	0x3d7611ba	0.0600755
129	0x3d3f93d3	0.046771836
130	0x3d4cf4e2	0.050038226
131	0xbd6b51f6	-0.05745121
132	0x3ca9d8d5	0.020733276
133	0x3c52b8e1	0.012861461
134	0x3cf0761d	0.029353196
135	0xbb8e64e4	-0.004345523
136	0xbda09ec8	-0.07842785
137	0xbd0c64dd	-0.03427588
138	0xbc943c59	-0.018095182
139	0xbd85d51b	-0.06534787
140	0xbc2baff5	-0.010478963
141	0xbc21e16f	-0.009880408
142	0xbdb1b3be	-0.08676861
143	0x3d508180	0.05090475
144	0xbbe14102	-0.0068742046
145	0xbd746a9a	-0.059671976
146	0x3d16f323	0.036852967
147	0xbd7f1735	-0.06227799
148	0xbd839875	-0.06425563
149	0xbd3eec3d	-0.046612013
150	0xbd88f567	-0.06687432
151	0xbd9a4ee5	-0.07534579
152	0xbd9a77a2	-0.075423494
153	0x3c39b460	0.011334509
154	0x3d3b4ce2	0.045727618
155	0x3d4c93d1	0.049945656
156	0xbd9850f6	-0.07437317
157	0xbc8409b9	-0.016117917
158	0xbd8ad498	-0.0677883
159	0x3c96a6d9	0.018390106
160	0x3b2e0b5c	0.0026557064
161	0xbd23866d	-0.03992312
162	0xbd566f2d	-0.05235212
163	0xbc9ceef0	-0.019156903
164	0xbda9bbb1	-0.082877524
165	0xbd2af7ab	-0.0417401
166	0xbd85686f	-0.0651406
167	0x3d027421	0.03184903
168	0xbd5a109b	-0.053238492
169	0xbd9077c6	-0.07054095
170	0xbb80dc04	-0.003932478
171	0x3d852d36	0.06502764
172	0xbda2a7ac	-0.07942137
173	0x3c6b05e9	0.014344671
174	0xbd0a0ab1	-0.033701602
175	0x3d1b58b2	0.037926383
176	0x3d581253	0.05275185
177	0xbc4b6cd9	-0.012416088
178	0x3d50d8b2	0.050987907
179	0x3d911af7	0.07085221
180	0xbc9000dd	-0.017578537
181	0xbd79bd27	-0.060971405
182	0x3c89ac5d	0.016805822
183	0x3d44b06f	0.048019823
184	0xbcef3120	-0.02919823
185	0x3d5dc690	0.054144442
186	0x3da7c3f6	0.081916735
187	0x3dad0523	0.084482454
188	0xbd1d9618	-0.03847322
189	0xbd609fff	-0.054840084
190	0xbd193cde	-0.037411563
191	0x3da0dbe6	0.07854442
192	0xbd4fc1b5	-0.050721843
193	0x39a8bf48	0.00032185973
194	0xbd5da1d6	-0.054109417
195	0xbc805639	-0.015666114
196	0x3d9aaa1a	0.075519755
197	0x3d8c3d7d	0.068476655
198	0x3db7ebae	0.08980499
199	0x3c4e3f2e	0.012588305
200	0x3d9f7f21	0.0778792
201	0x3b9452a2	0.004526452
202	0x3c98cf8f	0.01865366
203	0xbd7e56d8	-0.06209454
204	0xbd967170	-0.07345855
205	0x3d7417e7	0.059593108
206	0x3d636326	0.055514477
207	0x3d2a6628	0.04160133
208	0xbd72bcd1	-0.0592621
209	0x3c2b6d8d	0.010463131
210	0x3cdd530c	0.027017139
211	0xbb7bcced	-0.0038421706
212	0x3d9a5a85	0.075367965
213	0x3d4522fb	0.048129063
214	0xbdb03359	-0.08603544
215	0xbd04bf42	-0.03240896
216	0xbd88ce03	-0.066799186
217	0x38c3987a	9.3267256e-05
218	0x3d831a6b	0.06401523
219	0xbdbcf8d1	-0.092271455
220	0xbd8ad84d	-0.06779537
221	0xbc8b1052	-0.016975556
222	0xbd76e55f	-0.06027734
223	0xbdbd6710	-0.09248173
224	0x3d085fa9	0.033294354
225	0x39db07be	0.00041776703
226	0x3c88a402	0.016679768
227	0xbbabbe59	-0.005241197
228	0xbd5f13d1	-0.054462258
229	0xbd231010	-0.03981024
230	0xbc310038	-0.010803275
231	0xbc196f48	-0.00936491
232	0x3c88ce68	0.016699985
233	0xbbea34b4	-0.007147396
234	0x3cf45842	0.02982724
235	0x3d8f4097	0.069947414
236	0x3d27f8d1	0.041008774
237	0xbc17d74f	-0.009267642
238	0x3b3c9c05	0.0028779518
239	0x3c8d2832	0.01723108
240	0xbb889699	-0.0041683433
241	0x3d0d5fae	0.034515075
242	0x3dc2aa04	0.09505084
243	0x3d09adc0	0.033612967
244	0x3daa2da8	0.083094895
245	0xbd083b0b	-0.033259433
246	0x3d9b93f9	0.07596583
247	0xbd922b99	-0.07137222
248	0x3c1afe2e	0.009460015
249	0xbd2086c6	-0.03919103
250	0x3d9e85c1	0.07740355
251	0x3cfaa525	0.030596325
252	0x3d8b34a7	0.06797152
253	0xbcc6b0ce	-0.024254229
254	0x3d987a8b	0.07445248
255	0xbce4be46	-0.02792276
