backend/trained_models/PRVU_GRU_model_state_dict.pth (torch, 126723 bytes, 5 tensors)

rnn.weight_ih_l0 f4 [300, 1]
0	0x3b8bb7f9	0.0042638746
1	0xbc8438e6	-0.016140413
2	0xbc054147	-0.008133239
3	0xbd99a909	-0.07502944
4	0xbd730846	-0.059334062
5	0x3d8758f2	0.06608762
6	0xbc7081df	-0.014679401
7	0x3dff17bb	0.12455698
8	0x3db34120	0.08752656
9	0xbd4665ab	-0.048436802
10	0xbd84d120	-0.064852
11	0x3d8d8fd4	0.06912199
12	0x3da9a240	0.082829
13	0xbd9d11a4	-0.0766938
14	0xbd937b13	-0.07201209
15	0x3d10cd42	0.035352
16	0x3daa6401	0.083198555
17	0x3dc1469e	0.09437297
18	0x3d820c41	0.063499935
19	0xbd8b62f1	-0.06805981
20	0x3d37851f	0.04480469
21	0xbc9c60f0	-0.019089192
22	0x3cf3b74c	0.029750489
23	0x3dc294f9	0.095010705
24	0xbd8edbdb	-0.06975528
25	0xbd9c9cd3	-0.07647099
26	0xbd6d7d3a	-0.057980753
27	0xbd8f6d54	-0.070032746
28	0xbce1abd0	-0.027547747
29	0x3cf756ca	0.030192751
30	0x3ba7f883	0.0051260605
31	0xbdc77df4	-0.097408205
32	0xbd20a727	-0.03922191
33	0x3d36f494	0.04466684
34	0x3cf107da	0.02942269
35	0xbd2bb4cd	-0.041920472
36	0x3d7f97e9	0.062400732
37	0x3badf5ee	0.005308858
38	0xbd438379	-0.047732804
39	0x3c5ddc0b	0.013541232
40	0xbdca0666	-0.09864502
41	0xbbc54a66	-0.006020832
42	0xbd5911a1	-0.052995328
43	0x3d034c4f	0.032055195
44	0xbc6dab8b	-0.014506231
45	0x3d137750	0.036002457
46	0x3c2692fe	0.010166882
47	0x3df94ec9	0.1217323
48	0x3c84885b	0.0161783
49	0x3d8dfd35	0.06933061
50	0x3d165e2e	0.03671091
51	0xbb8c5f35	-0.0042838105
52	0xbd3577a2	-0.044303544
53	0x3d0cc2b4	0.03436537
54	0x3de39542	0.11112453
55	0xbd951cab	-0.072808586
56	0xbd09c0b1	-0.03363103
57	0x3dbf4ff5	0.093414225
58	0x3daeca98	0.085347354
59	0xbce83c46	-0.028349053
60	0xbdc4963c	-0.095989674
61	0x3d7092f4	0.058733895
62	0xbc01f39e	-0.007931618
63	0x3cbf7178	0.023369536
64	0xbd27d01e	-0.04096996
65	0xbdd83b7d	-0.105582215
66	0x3df8cc08	0.12148291
67	0xbd6eb74a	-0.058280267
68	0xbb38b6e3	-0.002818518
69	0xbdc4a8b5	-0.09602491
70	0x3dc0a613	0.09406676
71	0xbbaf919d	-0.0053579346
72	0xbd3fe7da	-0.04685197
73	0xbcd7b8d6	-0.026333254
74	0x3d168558	0.03674826
75	0xbda6e94b	-0.08149966
76	0x3c931bb8	0.017957553
77	0x3debf94c	0.11522159
78	0x3d9ae76c	0.075636715
79	0x3db30c36	0.087425634
80	0xbc5ca470	-0.013466939
81	0x3d96a555	0.07355753
82	0xbd69df7d	-0.0570979
83	0xbcff95bc	-0.031199329
84	0xbdb46123	-0.0880759
85	0x3da34900	0.07972908
86	0x3a82463f	0.0009939148
87	0x3de3b27a	0.11118026
88	0x3dc0b2f7	0.09409135
89	0x3d83c664	0.064343244
90	0x3d53299e	0.05155336
91	0x3ce86ce4	0.028372236
92	0x3dbe14ac	0.092812866
93	0xbc6fe858	-0.014642797
94	0x3c8a51fa	0.016884793
95	0x3d9a1961	0.07524372
96	0xbcf3f277	-0.029778702
97	0xbcc1ef87	-0.023673786
98	0x3c29d601	0.010365964
99	0x3df9179e	0.12162708
100	0xbc5f8f5b	-0.013645018
101	0xbd8e2b4d	-0.06941853
102	0x3d361284	0.04445125
103	0xbde1b8f7	-0.11021607
104	0x3d7673f5	0.06016918
105	0xbdeaf04e	-0.11471616
106	0xbd82117e	-0.063509926
107	0xbe1592fb	-0.1460685
108	0x3d08847d	0.033329476
109	0xbd6ad878	-0.057335347
110	0xbd801b9a	-0.062552646
111	0xbdce95f9	-0.10087199
112	0xbd9c8802	-0.07643129
113	0xbe0b6fa8	-0.13616812
114	0xbdd265de	-0.10273336
115	0xbb925b1c	-0.0044664275
116	0xbc60c901	-0.013719798
117	0xbd7549ed	-0.059884954
118	0xbdd8dda4	-0.105891496
119	0x3d149d06	0.03628256
120	0x3afd192d	0.0019309871
121	0xbdeb05d5	-0.11475722
122	0xbcafb95e	-0.021450695
123	0xbe1d1374	-0.15339452
124	0xbdeadc44	-0.114677936
125	0xbcf80469	-0.03027554
126	0xbde17894	-0.110093266
127	0xbdc256fc	-0.09489247
128	0xbd8a07ea	-0.06739791
129	0x3a6b94f7	0.0008986736
130	0x3d1f4cdf	0.03889167
131	0xbe106c72	-0.14103869
132	0xbd4a72a9	-0.049425755
133	0xbd394c00	-0.045238495
134	0xbd3cfc6b	-0.046139162
135	0x3d24374a	0.04009179
136	0x3c9d99a5	0.019238302
137	0xbce728ac	-0.028217636
138	0xbd83a459	-0.06427831
139	0xbe01b6e5	-0.12667425
140	0x3d3afb52	0.045649834
141	0xbcbe09f0	-0.023198098
142	0xbdda46a8	-0.10658008
143	0xbe00d990	-0.12582994
144	0xbd65c53b	-0.056096297
145	0xbc12be6e	-0.008956535
146	0x3dc74ebf	0.097318165
147	0xbd1f031f	-0.038821336
148	0xbd924665	-0.07142333
149	0xbd0d9545	-0.034566183
150	0xbd913d0d	-0.07091723
151	0xbdfafe95	-0.12255589
152	0xbde94ae7	-0.113912396
153	0xbce8b431	-0.028406234
154	0xbd8b33b4	-0.06796971
155	0xbda84409	-0.08216102
156	0xbc37aab4	-0.011210132
157	0xbd98e601	-0.07465745
158	0xbe0a2746	-0.13491544
159	0xbd7c96ac	-0.06166713
160	0xbdd40868	-0.10353166
161	0xbbb6e3cf	-0.005581356
162	0xbddc38df	-0.10753035
163	0xbd479e46	-0.048734926
164	0x3cb82939	0.022480594
165	0xbdcbf2de	-0.099584326
166	0xbdb9b85a	-0.090683654
167	0xbd06c191	-0.032899443
168	0xbc0c0dcb	-0.00854821
169	0xbdeaa625	-0.11457471
170	0xbc7e7a43	-0.015532079
171	0xbc87a567	-0.016558362
172	0x3d1bedb0	0.038068473
173	0x3b2af302	0.0026084785
174	0x3da5a448	0.08087975
175	0xbd216083	-0.03939868
176	0x3c20bc31	0.009810493
177	0xbdec0092	-0.11523546
178	0xbdf291da	-0.11844225
179	0xbdef0ee6	-0.116727635
180	0xbe04fe90	-0.12987733
181	0xbcf11b23	-0.029431885
182	0xbdcd5707	-0.10026365
183	0xbc2cada8	-0.01053945
184	0x3de8f84b	0.11375483
185	0xbdd9b186	-0.10629563
186	0xbd3b60a2	-0.045746453
187	0xbdb4f2f6	-0.088354036
188	0xbddf295d	-0.10896561
189	0x3c2b0b25	0.010439669
190	0xbc188444	-0.009308878
191	0x3ce92a30	0.0284625
192	0xbd24aed8	-0.040205806
193	0xbd9dc1e2	-0.07702996
194	0x3c62d36d	0.013844353
195	0x3d72f3be	0.059314482
196	0xbd569c96	-0.052395426
197	0xbe05e6c7	-0.13076316
198	0xbe178e2f	-0.14800332
199	0xbcda9169	-0.026680665
200	0x3df75d9e	0.12078403
201	0x3d6758b7	0.05648109
202	0xbd73190b	-0.059350055
203	0xbdb80602	-0.08985521
204	0xbb91d631	-0.0044505824
205	0x3d72e385	0.05929901
206	0x3d229afe	0.039698593
207	0x3d97829d	0.073979594
208	0x3d5dbc91	0.05413491
209	0x3d49c1cf	0.049257096
210	0x3d9ab7bb	0.07554575
211	0xbd3a6514	-0.04550655
212	0xbd7c0859	-0.0615314
213	0x3de0ab76	0.109702036
214	0x3d3210ee	0.043473177
215	0x3d2ae57e	0.041722767
216	0x3da99955	0.08281199
217	0xbdb253fe	-0.087074265
218	0x3dd8c4ba	0.105843976
219	0xbd8df6ce	-0.0693184
220	0xbe048851	-0.12942626
221	0xbd97ef90	-0.0741874
222	0x3df91312	0.121618405
223	0xbd84359c	-0.06455538
224	0x3e09811b	0.13428156
225	0x3dbc396c	0.0919064
226	0xbd1051ed	-0.03523438
227	0xbe03fcca	-0.128894
228	0xbda65507	-0.081216864
229	0xbe00746e	-0.12544414
230	0xbd592fa2	-0.05302394
231	0x3d5015cf	0.05080205
232	0x3c38a73d	0.011270341
233	0x3db8b999	0.09019775
234	0x3dd09187	0.10184007
235	0x3d9e5200	0.07730484
236	0xbbc79875	-0.0060911723
237	0x3d6a4efd	0.057204235
238	0xbccfb080	-0.025352716
239	0x3dda30ed	0.10653863
240	0x3d926f6d	0.07150159
241	0xbcfe5d21	-0.031050267
242	0x3d87b786	0.06626801
243	0xbe0a167d	-0.13485141
244	0xbdc0695d	-0.093950965
245	0xbd9691d7	-0.073520355
246	0xbd4f7aeb	-0.050654333
247	0xbdd5a801	-0.10432435
248	0xbd1841e2	-0.037172206
249	0x3e02d4ca	0.12776485
250	0xbdab21e3	-0.08356073
251	0x3c2da511	0.010598437
252	0xbdecbf2e	-0.11559902
253	0x3d7e20e2	0.06204308
254	0x3d2b50e9	0.04182521
255	0x3c0b0a9e	0.008486418

rnn.weight_hh_l0 f4 [300, 100]
0	0xbb9cd3bf	-0.0047859843
1	0x3de48249	0.111576624
2	0xbd912032	-0.07086219
3	0xbdd8eae7	-0.10591679
4	0x3d4bcffa	0.04975889
5	0xbb4eb055	-0.0031538208
6	0x3d01c43a	0.031681277
7	0x3d83aaad	0.06429038
8	0x3dec0791	0.11524881
9	0x3c8f931b	0.0175262
10	0x3dec2f4b	0.11532458
11	0x3d7ab8db	0.06121145
12	0xbdbbd432	-0.091713324
13	0x3c829d93	0.015944278
14	0xbbd91e11	-0.0066258986
15	0x3d6d6c07	0.05796435
16	0xbcf682af	-0.030091612
17	0xbd21277d	-0.0393443
18	0xbc2e7c76	-0.010649791
19	0x3a7a41be	0.00095465395
20	0x3d0f1d75	0.0349402
21	0x3d2625a6	0.040563248
22	0xbcf3f70a	-0.029780883
23	0x3d84c5bc	0.06483027
24	0x3d914166	0.07092552
25	0x3dc39522	0.09549929
26	0xbce3fed9	-0.027831482
27	0xbcd4464b	-0.025912425
28	0xbcf406fe	-0.02978849
29	0xbd86be82	-0.06579305
30	0x3c922540	0.017840028
31	0xbb8bb124	-0.00426306
32	0x3da3788d	0.079819776
33	0xbd86ed91	-0.06588281
34	0x3dbac08f	0.09118759
35	0xbbe9eec4	-0.007139059
36	0x3d01bd1f	0.0316745
37	0xbcf0a245	-0.029374251
38	0xbdf4f4cb	-0.11960753
39	0xbb5e353d	-0.0033906244
40	0x3d877399	0.066138454
41	0xbdd0914d	-0.10183964
42	0xbd03d2b5	-0.032183368
43	0x3d3a74dc	0.045521602
44	0x3cd15f7e	0.02555823
45	0xbdd992d8	-0.10623711
46	0xbdc4cf41	-0.09609843
47	0xbddcf08a	-0.10788067
48	0x3d77f1f5	0.060533483
49	0xbd335562	-0.0437826
50	0xbd23116b	-0.039811533
51	0xbc7aa010	-0.015296951
52	0xbdeafb2f	-0.11473691
53	0x3ce062c4	0.027390845
54	0x3d15c260	0.036562324
55	0x3dcb5a84	0.09929374
56	0x3de93796	0.11387555
57	0x3cfd7862	0.030941192
58	0xbb47bad5	-0.003047635
59	0xbcea68ab	-0.028614363
60	0xbbb1ca75	-0.005425746
61	0x3d9570ce	0.072969064
62	0x3d316c70	0.043316305
63	0xbd5cf8cc	-0.05394821
64	0xbdb2ac80	-0.08724308
65	0xbabf4ff6	-0.0014595974
66	0x3ccb75f2	0.024836514
67	0xbd895f8c	-0.06707677
68	0xbde189d8	-0.1101262
69	0x3d0bb9cf	0.034112748
70	0xbda7cedb	-0.081937514
71	0x3d326085	0.04354908
72	0xbdc328a5	-0.09529237
73	0xbc84c5eb	-0.016207656
74	0x3dad6dfb	0.08468243
75	0x3c2ae670	0.010430917
76	0xbd522601	-0.051305775
77	0x3d16127d	0.036638726
78	0x3dc9e2ee	0.098577365
79	0xbd502c94	-0.050823763
80	0xbd1ab4c2	-0.03777004
81	0x3c9e8b98	0.019353673
82	0x3da42302	0.0801449
83	0x3dd45bc3	0.10369065
84	0xbd7e5623	-0.062093865
85	0xbc4ce5fd	-0.012506005
86	0x3d2cf3c3	0.042224657
87	0xbcf172b0	-0.029473633
88	0x3c8b66ff	0.017016886
89	0xbd05e74f	-0.032691296
90	0x3d5557c7	0.052085664
91	0xbd8b2ae7	-0.06795292
92	0xbb43f7fa	-0.0029902444
93	0xbd24685b	-0.040138584
94	0xbce6847d	-0.028139347
95	0xbc39d793	-0.011342901
96	0xbdb2dc41	-0.08733416
97	0xbc5fa7b0	-0.01365082
98	0x3c59a530	0.013284013
99	0x3c076e24	0.008266006
100	0x3db59d7d	0.08867929
101	0x3d90588b	0.07048138
102	0xbd9bfc82	-0.076165214
103	0xbd0033a2	-0.03129924
104	0xbc9e501d	-0.01932531
105	0xbdac406a	-0.084107235
106	0xbdb1bb8b	-0.08678349
107	0xbcdf6be0	-0.027273118
108	0xbd0debe4	-0.03464879
109	0xbda17b5a	-0.078848556
110	0xbcb957a2	-0.022624794
111	0xbdca8c7e	-0.09890078
112	0xbdf0c965	-0.11757163
113	0x3bc90902	0.006135107
114	0x3d98fc4e	0.07469998
115	0x3de5de62	0.11224057
116	0x3d848875	0.064713396
117	0xbdd61249	-0.10452706
118	0x3d6311e1	0.055436973
119	0x3b4bcb36	0.0031096465
120	0x3d0de999	0.034646604
121	0xbda524f4	-0.08063689
122	0xbd37f2c7	-0.044909265
123	0xbd7d9468	-0.06190911
124	0x3d5ce7f3	0.05393214
125	0x3dc4b264	0.09604338
126	0x3d75dfdd	0.060027946
127	0x3d826d70	0.0636853
128	0x3c01cf47	0.007922954
129	0x3da14891	0.07875169
130	0xbaf437ec	-0.0018632389
131	0x3ca77048	0.020439282
132	0x3b83417b	0.0040056086
133	0xbd8e6d75	-0.06954471
134	0xbda05644	-0.07828954
135	0x3d8adf7c	0.067809075
136	0x3d942ae4	0.07234743
137	0x3bee7e3b	0.0072782314
138	0xbd9df44c	-0.077126116
139	0xbcb943e2	-0.022615377
140	0x3cfac1e0	0.030610025
141	0x3cea6ca5	0.028616259
142	0xbd1c4385	-0.03815033
143	0x3d1aa09a	0.037750818
144	0x3d237e52	0.03991539
145	0x3d6da166	0.05801525
146	0xbd9f284a	-0.077713564
147	0xbd22f543	-0.03978468
148	0x3cc82299	0.02443056
149	0x3d581d97	0.052762594
150	0xbdc1ef80	-0.09469509
151	0xbce0db9a	-0.027448464
152	0xbbc3e675	-0.0059784004
153	0xbd305a9c	-0.04305516
154	0x3d266830	0.040626705
155	0xbdd59cac	-0.104302734
156	0xbd9f6854	-0.07783571
157	0xbcbf8dfc	-0.023383133
158	0xbd2b64d8	-0.04184422
159	0xbca1bff8	-0.019744858
160	0xbd1fccdc	-0.03901373
161	0xbda1bd9d	-0.07897494
162	0xbd2dbe96	-0.042418085
163	0x3dc6acd5	0.09700934
164	0x3d2d405f	0.042297717
165	0xbd6bc8df	-0.057564612
166	0xbdbc8823	-0.092056535
167	0x3db172cf	0.08664476
168	0xbcac8c3e	-0.021062966
169	0xbd5ffb98	-0.054683298
170	0x3d401427	0.04689422
171	0x3da013c8	0.07816273
172	0xbdcc58da	-0.099778846
173	0x3c57cc79	0.013171309
174	0x3da0e2d0	0.07855761
175	0x3b4d9a40	0.0031372458
176	0xbc8de9a2	-0.017323319
177	0xbd1e0208	-0.038576156
178	0x3dacb862	0.08433606
179	0xbabe79e5	-0.0014532177
180	0xba8a22d3	-0.0010538943
181	0xbaa26def	-0.0012392382
182	0xbbd07eb5	-0.006362761
183	0xbc250362	-0.010071607
184	0x3d2135aa	0.03935782
185	0xbc0c6924	-0.008569989
186	0x3c3c482e	0.011491818
187	0x3dcc004e	0.099609956
188	0xbc231674	-0.009954084
189	0xbdda9b07	-0.106741
190	0xbd90499c	-0.0704529
191	0x3c0b0201	0.0084843645
192	0xbcffd4d4	-0.031229414
193	0xbdc07b66	-0.093985364
194	0xbcdfff76	-0.027343493
195	0xbc4a7638	-0.012357287
196	0x3da1f35d	0.07907746
197	0x3d6facbf	0.058514353
198	0x3d6815d5	0.056661446
199	0x3b13dd1c	0.0022562211
200	0x3d9aeb16	0.0756437
201	0x3d5ee172	0.05441422
202	0x3d5e0a23	0.054208886
203	0xbbc269a9	-0.005933006
204	0xbd786794	-0.060645655
205	0xbd37675e	-0.044776313
206	0xbcec3670	-0.028834552
207	0xbc929573	-0.017893529
208	0x3d84d896	0.06486623
209	0xbd7afdb7	-0.061277118
210	0xbd3d182a	-0.046165623
211	0xbcb8bc89	-0.022550838
212	0x3d3612a5	0.044451375
213	0xbd61c43c	-0.055118784
214	0xbd8c3b10	-0.06847203
215	0x3db6c14c	0.08923587
216	0x3d958787	0.073012404
217	0xbd905f60	-0.07049441
218	0x3da20f78	0.07913107
219	0x3cacc31d	0.021089131
220	0xbd73dc7e	-0.05953645
221	0x3d36b5ea	0.04460708
222	0xbc002486	-0.007821208
223	0xbd11f9aa	-0.03563849
224	0x3d0757d3	0.03304274
225	0x3d645680	0.055746555
226	0xbdcea41e	-0.100898966
227	0xbdd5abb1	-0.10433138
228	0xbdbb1f7b	-0.09136864
229	0xbd1d9066	-0.038467787
230	0xbd22469b	-0.039618116
231	0xbda8a1a7	-0.08233958
232	0xbc34582d	-0.011007351
233	0x3d593968	0.053033262
234	0x3d75c4c4	0.060002103
235	0xbce86f56	-0.028373402
236	0x3d8b9991	0.068164
237	0x3d483d27	0.048886444
238	0xbd7495d5	-0.059713203
239	0xbd1e75c4	-0.03868653
240	0x3c39542c	0.011311572
241	0x3c72acd8	0.014811717
242	0x3de34ec6	0.11099009
243	0x3d70ba5c	0.058771476
244	0x3db4e22a	0.088322
245	0x3d489be4	0.048976794
246	0x3d1ba65c	0.03800045
247	0xbc338602	-0.010957243
248	0xbca8e8dd	-0.02061885
249	0x3c83d259	0.016091513
250	0xbd86c52d	-0.06580577
251	0x3c6de573	0.014520037
252	0xbd6441fe	-0.055726998
253	0xbcf60adc	-0.030034475
254	0xbdb8d18c	-0.09024343
255	0x3d80c19d	0.06286929

rnn.bias_ih_l0 f4 [300]
0	0x3d2fa1a7	0.042878773
1	0x3db03384	0.08603576
2	0x3d73663b	0.059423666
3	0x3c160b0e	0.009157909
4	0xbc45143b	-0.012028749
5	0xbda548a1	-0.080704935
6	0x3c016de8	0.007899739
7	0xbd9080d9	-0.07055826
8	0x3db5df01	0.08880425
9	0x3da85395	0.08219067
10	0x3d610890	0.054939806
11	0xbd4e508a	-0.050369777
12	0xbcce7b53	-0.02520529
13	0xbca9f670	-0.020747393
14	0xbce9eb57	-0.028554602
15	0x3d930599	0.07178802
16	0xbd45e2b9	-0.048311923
17	0x3d12f134	0.03587456
18	0xbcc7b95f	-0.024380384
19	0xbd9ec6ed	-0.07752786
20	0xbdb5049c	-0.0883877
21	0x3c7941b5	0.01521342
22	0x3d007a22	0.031366475
23	0x3d898e6a	0.067166165
24	0x3d08f8e7	0.033440497
25	0x3d912cf4	0.07088652
26	0x3d5a2ed7	0.053267326
27	0x3d31a1ef	0.043367323
28	0xbdd14213	-0.10217681
29	0xbda43671	-0.080181964
30	0xbaacab14	-0.0013173544
31	0x3dbc7d74	0.09203616
32	0xbcfc302f	-0.030784694
33	0xbbf09365	-0.0073417895
34	0x3d9921da	0.0747716
35	0xbca5a402	-0.020219807
36	0x3d8aba2b	0.0677379
37	0xbd937860	-0.07200694
38	0xbc32aed0	-0.010905936
39	0x3c7c74fb	0.01540875
40	0xbdf0cd68	-0.11757928
41	0xbc00171c	-0.00781801
42	0xbd32aa11	-0.04361922
43	0xbde41254	-0.11136308
44	0xbd2a2bba	-0.041545607
45	0x3dbb3602	0.091411605
46	0xbd72d4b0	-0.059284866
47	0x3dde0709	0.108411856
48	0x3daa5d6c	0.083186
49	0x3d8d1944	0.06889585
50	0xbd698f24	-0.057021275
51	0xbd105b0f	-0.03524309
52	0x3da7203d	0.08160446
53	0x3d05826a	0.032595076
54	0x3df71577	0.12064641
55	0x3d0efd16	0.03490933
56	0xbd2d1af0	-0.042262018
57	0x3da77ed7	0.0817849
58	0x3d206071	0.039154474
59	0xbd465609	-0.048421893
60	0xbd00433f	-0.03131413
61	0xbcf05c2f	-0.029340832
62	0xbc9f99a0	-0.019482434
63	0xbd3d5e0a	-0.04623226
64	0x3d304ce6	0.043042086
65	0x3d4d071b	0.050055604
66	0xbd9d7e6f	-0.07690131
67	0xbdaebda0	-0.08532262
68	0x3d4cf213	0.050035547
69	0xbd93c648	-0.072155535
70	0x3da89269	0.082310505
71	0x3c543b74	0.012953628
72	0xbd80bc75	-0.06285945
73	0xbda3f683	-0.08006003
74	0x3cb44b2b	0.0220085
75	0x3dbd64b8	0.09247726
76	0xbadbad79	-0.0016760073
77	0x3ddbf5e0	0.10740256
78	0x3de69fdf	0.11260962
79	0x3dceecc5	0.10103754
80	0xbd653db2	-0.05596704
81	0x3dd8f5de	0.105937704
82	0x3b08b8be	0.0020862068
83	0xbbee20f7	-0.0072671133
84	0x3d92c893	0.07167163
85	0x3d975bbf	0.07390546
86	0x3d9080fb	0.07055851
87	0xbd94cb83	-0.07265379
88	0xbb56459e	-0.0032695304
89	0xbd66cf8a	-0.05635027
90	0x3dcfd6b2	0.10148372
91	0xbd97eed1	-0.074185975
92	0xbc034e63	-0.008014294
93	0x3ce71f5d	0.028213197
94	0xbcd5baea	-0.026090104
95	0x3c54706f	0.012966259
96	0x3de36e41	0.11105014
97	0x3d0959b9	0.03353283
98	0x3b78298f	0.0037866568
99	0x3d26e8ed	0.04074948
100	0xbe10f937	-0.14157568
101	0x3d77662b	0.06040017
102	0x3ba066e6	0.004895079
103	0xbe268ae1	-0.16263916
104	0xbe025258	-0.12726724
105	0xbe2bd451	-0.16780211
106	0xbd18fb76	-0.037349187
107	0xbdc26644	-0.09492162
108	0x3d9e87d8	0.07740754
109	0xbdfdd574	-0.123942286
110	0xbe107782	-0.14108089
111	0xbc9f9714	-0.01948122
112	0xbe38e482	-0.18055919
113	0xbdd3edb1	-0.103480704
114	0x3bcb540a	0.0062050866
115	0xbdec0d0e	-0.115259275
116	0x3ddf9340	0.109167576
117	0xbdc90e10	-0.09817135
118	0xbb593769	-0.00331446
119	0xbd922924	-0.07136753
120	0xbd292120	-0.041291356
121	0xbd1f7427	-0.03892913
122	0xbd91c9a4	-0.07118538
123	0xbdc79d5c	-0.09746811
124	0xbdd1ccaa	-0.10244115
125	0xbd9bbae1	-0.07604004
126	0xbdfb180b	-0.12260445
127	0xbd707a2f	-0.058710273
128	0xbdb3bca4	-0.08776215
129	0xbc7694cd	-0.015050125
130	0xbccfdad8	-0.025372908
131	0x3b20be5f	0.0024527533
132	0xbdf14528	-0.11780769
133	0xbd2aede3	-0.041730773
134	0xbdefe916	-0.117143795
135	0x3d9aa173	0.07550325
136	0xbd4980e2	-0.049195178
137	0x3dd9d2fc	0.10635945
138	0x3d88ee8e	0.06686126
139	0xbdae2359	-0.08502836
140	0xbb12c93e	-0.0022397782
141	0xbdb83cee	-0.089959964
142	0xbd7a063b	-0.061041098
143	0xbe354f2f	-0.17705987
144	0x3bfea04f	0.007770575
145	0xbd3e73a6	-0.04649701
146	0x3cd5128b	0.026009819
147	0xbd839f71	-0.064268954
148	0x3dbe8eb0	0.09304559
149	0xbe02b0c7	-0.12762748
150	0xbc38f6ae	-0.011289282
151	0x3c8097f1	0.015697451
152	0xbe11aa63	-0.14225154
153	0x3d8a3196	0.06747739
154	0xbd3d1ce9	-0.04617015
155	0xbe022a4c	-0.12711447
156	0x3da07c7b	0.07836243
157	0xbd786866	-0.060646437
158	0xbbfdec21	-0.007749096
159	0xbd866aee	-0.06563364
160	0xbde660b5	-0.11248914
161	0xbe1a20fe	-0.15051648
162	0xbdc6dd11	-0.09710134
163	0x3cb5ca9b	0.022191336
164	0xbdd1f3b7	-0.10251563
165	0xbdea683d	-0.11445663
166	0xbddd50e2	-0.10806443
167	0xbd3c5e24	-0.045988217
168	0xbcdbb9a5	-0.02682192
169	0xbe18327b	-0.14863007
170	0xbdaf1289	-0.08548457
171	0xbe353cdd	-0.17698999
172	0xbe01c740	-0.12673664
173	0x3cae859c	0.021303944
174	0x3d8321a4	0.06402901
175	0xbd74913a	-0.05970881
176	0x3e1b7003	0.15179448
177	0xbdadf8a9	-0.08494694
178	0xbdad71b2	-0.08468951
179	0xbdbb26d6	-0.09138267
180	0xbdec0409	-0.11524207
181	0xbdfa962d	-0.12235675
182	0xbe39b3a4	-0.18134934
183	0xbdfcd885	-0.12345985
184	0x3e23f879	0.16012754
185	0xbd5b0c80	-0.053478718
186	0xbce91c17	-0.028455777
187	0xbd491d6e	-0.049100332
188	0xbdb2d234	-0.08731499
189	0xbd59df4f	-0.05319148
190	0xbd0ed420	-0.034870267
191	0xbd96cd61	-0.07363392
192	0x3d16dc69	0.036831293
193	0xbd2551f6	-0.040361367
194	0xbd81fb45	-0.06346754
195	0xbad41c21	-0.00161827
196	0xbe1ff2c4	-0.15619951
197	0xbba399e9	-0.0049927128
198	0xbe1c65f7	-0.15273272
199	0xbd9c2530	-0.076242805
200	0x3c4f52f7	0.012654058
201	0xbdcf4529	-0.10120613
202	0xbd5b012d	-0.05346792
203	0x3d8d8123	0.069093965
204	0xbc43439f	-0.011917978
205	0xbbaa2d82	-0.0051934132
206	0x3d1b3334	0.037890628
207	0x3bd8c69b	0.0066154725
208	0x3d948be4	0.072532445
209	0xbc2d69d6	-0.010584315
210	0xbc9a7759	-0.018855738
211	0x3c9171ef	0.017754523
212	0xbda2e9e8	-0.0795477
213	0xbc51aee6	-0.012798047
214	0x3dc1f442	0.094704166
215	0x3d0fecf0	0.03513807
216	0x3d8f0d51	0.06984962
217	0xbd2e69e3	-0.04258145
218	0x3da9f417	0.082985096
219	0xbd15aed9	-0.0365437
220	0xbc9b8c38	-0.01898776
221	0x3d842c66	0.06453781
222	0xbc478ae1	-0.012179107
223	0x3db1c534	0.08680192
224	0xbb22e966	-0.0024858355
225	0xbcfe0b37	-0.031011207
226	0x3d372962	0.0447172
227	0x3cb46b54	0.022023834
228	0xbd12f6f9	-0.035880063
229	0xbd7c749a	-0.061634637
230	0x3dd1860b	0.10230645
231	0x3d1ae41f	0.03781521
232	0x3ca301b1	0.019898267
233	0xbd86d810	-0.065841794
234	0x3d3c767f	0.046011444
235	0x3ccd6a9d	0.025075251
236	0xba4af843	-0.00077426824
237	0x3b6434e1	0.0034821557
238	0xbb727536	-0.0036996133
239	0xbc446d68	-0.011988975
240	0xbd315fb2	-0.043304153
241	0xbc37d7ef	-0.011220916
242	0x3d8cea32	0.06880607
243	0xbd4f59e8	-0.05062285
244	0x3d30aea9	0.04313532
245	0x3d12d943	0.03585173
246	0x3c476d87	0.012172109
247	0xbd2dd0ac	-0.042435333
248	0x3c8df11f	0.01732689
249	0x3c9fa91a	0.019489814
250	0xbcbf144f	-0.023325114
251	0x3da4d518	0.08048457
252	0xbd65f921	-0.05614579
253	0x3d27947d	0.040913094
254	0x3d96bc4e	0.07360135
255	0xbd2e2f7f	-0.042525765

rnn.bias_hh_l0 f4 [300]
0	0x3d70e78e	0.058814578
1	0xbda31de2	-0.07964684
2	0xbd0db85c	-0.034599647
3	0xbdde5ab5	-0.10857145
4	0xbdaa46ac	-0.08314261
5	0x3d5cccd5	0.05390628
6	0x3dab9905	0.083787955
7	0xbd6e0630	-0.05811137
8	0x3d8576b4	0.065167814
9	0x3d84a63b	0.064770184
10	0xbdb37082	-0.087616935
11	0xbd19a6f3	-0.03751273
12	0x3d5ba68d	0.053625632
13	0xbdecac34	-0.11556283
14	0x3dc815cc	0.097697824
15	0x3da4084e	0.080093965
16	0x3d6880fa	0.056763627
17	0xbd2a83b0	-0.041629493
18	0xbd02ccc6	-0.03193357
19	0x3dd8e644	0.10590795
20	0x3dc260a5	0.0949109
21	0x3dbfd879	0.09367461
22	0xbd9848f2	-0.07435788
23	0xbd8b2c5a	-0.06795569
24	0x3db3f442	0.08786823
25	0x3d8a2994	0.06746212
26	0x3cb287a9	0.021793203
27	0x3d64497e	0.05573415
28	0xbd854201	-0.0650673
29	0xbc7c0e77	-0.015384308
30	0x3df27b8a	0.118399695
31	0x3dbd4602	0.092418686
32	0xbd55e050	-0.052215874
33	0x3d4faa6d	0.05069964
34	0x3bd4bb62	0.0064920643
35	0xbcf50d67	-0.029913617
36	0xbcf59579	-0.0299785
37	0x3de25ec3	0.110532306
38	0xbd074040	-0.033020258
39	0xbd45d2d1	-0.048296753
40	0xbd923880	-0.07139683
41	0xbc9034ba	-0.017603267
42	0xbc8160d3	-0.01579324
43	0xbdf8cfd1	-0.12149013
44	0xbd99409f	-0.074830286
45	0x3df3d7e1	0.1190641
46	0x3dba108f	0.090851896
47	0x3de52c16	0.11190049
48	0x3dd2d189	0.10293872
49	0x3d5d4970	0.054025114
50	0xbd8fd92b	-0.070238434
51	0xbbfa9848	-0.007647548
52	0x3c397bc6	0.011321014
53	0x3d3bbb45	0.04583289
54	0x3ba8d6dc	0.0051525664
55	0x3c82183c	0.015880696
56	0x3cd3d340	0.025857568
57	0x3c473e92	0.012160914
58	0xbde12ba6	-0.109946534
59	0xbcef3597	-0.029200358
60	0x3d3a8e13	0.04554565
61	0xbdc3719e	-0.09543155
62	0x3ca5ee6d	0.020255292
63	0x3cd6aa62	0.026204292
64	0xbcaae560	-0.020861328
65	0x3d99dc2a	0.07512696
66	0x3b8d4123	0.0043107434
67	0x3da4527b	0.080235444
68	0x3d94b731	0.072615035
69	0x3dbe5d51	0.092951424
70	0x3dd11828	0.102096856
71	0xbd8d4c3e	-0.06899308
72	0xbde8b165	-0.1136196
73	0x3d09dbcf	0.03365689
74	0xbd6aa377	-0.0572848
75	0xbdb6be58	-0.08923024
76	0xbd9a83e1	-0.07544685
77	0x3dda92dc	0.106725425
78	0x3d90f22f	0.07077443
79	0xbd82bd48	-0.06383759
80	0x3de080c5	0.10962061
81	0xbd8d39fb	-0.068958245
82	0xbb9e40a1	-0.0048294817
83	0x3d7b024b	0.061281484
84	0x3d24305c	0.04008518
85	0x3d6ef35e	0.05833756
86	0x3d470613	0.048589777
87	0xbd2eb457	-0.042652454
88	0x3dba88c8	0.0910812
89	0x3d0297d4	0.031883076
90	0x3ddf39c4	0.1089969
91	0x3d800343	0.06250622
92	0x3de18ae6	0.11012821
93	0xbd539cb9	-0.051663134
94	0xbb372697	-0.0027946585
95	0xbcb09472	-0.02155516
96	0x3c848a3b	0.016179195
97	0x3d9ad806	0.075607345
98	0x3dc6c712	0.097059384
99	0x3d20cbbd	0.0392568
100	0xbdae5b39	-0.08513493
101	0xbd9bc9d9	-0.07606859
102	0xbd96bd5d	-0.07360337
103	0xbdcc2eed	-0.09969888
104	0xbe0584fc	-0.13039011
105	0xbdc11c0a	-0.09429176
106	0x3dc76a6b	0.097370945
107	0xbd6b97fa	-0.057517983
108	0x3d5cf222	0.053941853
109	0xbe005f95	-0.12536462
110	0x3d0acb8f	0.033885535
111	0xbd10b46a	-0.035328306
112	0xbdede357	-0.11615627
113	0xbd1a8ee1	-0.037733916
114	0xbdf7b852	-0.12095703
115	0xbe1f415c	-0.15552276
116	0x3dd82bcd	0.10555229
117	0xbcdac884	-0.026706941
118	0xbc9c6bef	-0.019094435
119	0xbd16fa39	-0.036859725
120	0xbe27a5c2	-0.16371825
121	0xbd528f7c	-0.05140637
122	0xbd23442c	-0.039859936
123	0xbdf6b34d	-0.12045918
124	0xbdd37eb4	-0.10326901
125	0x3c0e5724	0.008687768
126	0xbe08e7fd	-0.13369747
127	0xbe1d69a7	-0.15372334
128	0xbe2cb1a3	-0.16864638
129	0xbd5347c2	-0.051582105
130	0x3d6287db	0.055305343
131	0xbc046b06	-0.008082157
132	0xbdc38b8c	-0.09548101
133	0xbe0f39f0	-0.13986945
134	0xbe0b2b3f	-0.13590716
135	0x3d47d5ae	0.048787765
136	0xbc519a3c	-0.01279312
137	0x3df70d87	0.12063127
138	0x3d3121a8	0.043244988
139	0xbe10d271	-0.14142777
140	0xbdc26b7d	-0.09493158
141	0xbd70405a	-0.05865512
142	0xbe122c9d	-0.14274831
143	0xbdc8fbea	-0.09813674
144	0xbd96b3bf	-0.073585026
145	0xbda2dbd2	-0.07952084
146	0x3de01dd1	0.10943187
147	0x399c314b	0.00029791365
148	0xbdb99113	-0.09060874
149	0xbd4f47da	-0.050605632
150	0xbe3319d7	-0.17490326
151	0xbdfe2594	-0.12409511
152	0xbe27a49d	-0.16371389
153	0x3d89c948	0.067278445
154	0xbd5f7b91	-0.0545612
155	0xbd2ee092	-0.042694636
156	0x3c38ac3c	0.011271533
157	0x3c5fb4fe	0.013653992
158	0xbbcd2a03	-0.0062611117
159	0xbdef21b1	-0.11676348
160	0xbe1b175c	-0.1514563
161	0xbd9aca6d	-0.07558141
162	0xbcbffb17	-0.023435159
163	0xbe025501	-0.12727739
164	0xbe05a680	-0.13051796
165	0xbcce400b	-0.025177022
166	0xbdf2dadd	-0.11858151
167	0xbde6c851	-0.11268676
168	0xbcdfa2b7	-0.027299268
169	0xbe0a96ba	-0.1353406
170	0x3d2395f4	0.03993793
171	0xbda4fbec	-0.08055863
172	0xbe1fa85c	-0.15591568
173	0xbd5b73a0	-0.053577065
174	0x3de984c8	0.11402279
175	0xbc3618ef	-0.011114343
176	0x3de54eb6	0.111966535
177	0xbd82e101	-0.06390572
178	0xbc215106	-0.009845978
179	0xbdb1a826	-0.0867465
180	0xbd83b574	-0.06431094
181	0xbc8a66aa	-0.016894657
182	0xbdc84fc4	-0.09780839
183	0xbd7de655	-0.06198724
184	0x3ce76b77	0.028249485
185	0x3d47f99c	0.04882203
186	0xbd6424fe	-0.05569934
187	0xbb3d32ed	-0.0028869465
188	0xbdfbb765	-0.12290839
189	0xbe053eb2	-0.13012198
190	0xbbcecfae	-0.0063113784
191	0xbd35b9db	-0.0443667
192	0xbe17e5c5	-0.14833744
193	0xbdbb18fa	-0.09135623
194	0xbdf13e25	-0.11779431
195	0xbd44fa5f	-0.048090335
196	0xbd933489	-0.07187755
197	0xbb280935	-0.0025640253
198	0xbdb5332e	-0.088476524
199	0xbda62d96	-0.081141636
200	0x3d94b8ee	0.07261835
201	0xbd1e1fae	-0.03860443
202	0x3d5ebbbe	0.054378264
203	0xbd6c013d	-0.05761837
204	0xbcbf4343	-0.023347503
205	0x3d2ef418	0.042713255
206	0x3d57924d	0.052629758
207	0xbb198daa	-0.0023430386
208	0xbd095e24	-0.033537045
209	0x3c2dad75	0.010600437
210	0xbdb7e2b2	-0.089787856
211	0xbd9170fe	-0.0710163
212	0x3bc5924e	0.006029404
213	0xbd7ce486	-0.061741374
214	0xbc879f5b	-0.016555479
215	0x3dc2ac5e	0.09505533
216	0xbd7489e0	-0.0597018
217	0x3ce5cd38	0.028051957
218	0x3d066c2a	0.032817997
219	0xbd7a0178	-0.061036557
220	0x3d4fc07c	0.050720677
221	0xbd79866c	-0.06091921
222	0x3d16658e	0.036717944
223	0xbd40868c	-0.047003314
224	0x3d2f10c0	0.042740583
225	0x3c782da5	0.015147601
226	0x3cb8ffe3	0.022582954
227	0x3c12c6de	0.008958546
228	0x3c05b69e	0.008161215
229	0xbd127703	-0.03575803
230	0x3dd2ba35	0.102894224
231	0x3c6aded5	0.014335354
232	0xbd0cdc26	-0.034389637
233	0xbd4217a5	-0.04738583
234	0xbd58e237	-0.05295011
235	0x3c9fab5c	0.01949089
236	0x3dc46f19	0.09591503
237	0x3ba5d568	0.0050608404
238	0x3ce8f3de	0.028436597
239	0xbd7fa3b6	-0.062411986
240	0x3d900105	0.070314445
241	0x3c8388d2	0.016056452
242	0x3c7b1981	0.015325905
243	0x3d44d3c8	0.048053533
244	0x3ca842d4	0.020539679
245	0x3d5823f9	0.05276868
246	0xbd37bb24	-0.044856206
247	0xbd05373d	-0.032523382
248	0xbcd78af1	-0.02631137
249	0xbdab0b5e	-0.083517775
250	0xbc99b026	-0.018760752
251	0xbd788fab	-0.060683887
252	0xbd0a7aec	-0.033808634
253	0xbca3181a	-0.019908953
254	0xbdcc8872	-0.099869624
255	0xbcf923dd	-0.030412609

linear.weight f4 [1, 100]
0	0x3dafea6a	0.08589633
1	0xbca0b118	-0.019615695
2	0x3d97fc5e	0.07421182
3	0xbd4abeea	-0.049498476
4	0x3d5713cd	0.052509118
5	0x3db98e48	0.09060341
6	0xbd5f269c	-0.05448018
7	0x3de06e97	0.10958593
8	0xbd7e2648	-0.062048227
9	0xbd80f2f5	-0.062963404
10	0x3b8bf538	0.0042711757
11	0xbb4ae480	-0.003095895
12	0xbda4de0b	-0.08050164
13	0xbb132fc9	-0.0022458902
14	0x3d4844d8	0.04889378
15	0x3dc6f5ce	0.09714852
16	0xbd5ea0df	-0.054352637
17	0xbd934962	-0.07191731
18	0x3cda6343	0.02665866
19	0xbd2bc072	-0.041931577
20	0xbdf9c938	-0.121965826
21	0xbbd99991	-0.006640621
22	0x3da25f48	0.0792833
23	0xbde9fbe1	-0.11424995
24	0x3c938d2c	0.018011652
25	0xbc714f33	-0.014728355
26	0xbdc118df	-0.09428572
27	0xbc9d5f81	-0.019210579
28	0xbd0beb01	-0.034159664
29	0xbd2cc7ac	-0.04218261
30	0x3d58cc52	0.05292923
31	0x3c0e3e64	0.008681867
32	0x3ddc7116	0.10763757
33	0x3ad9c343	0.0016613979
34	0x3da82147	0.08209472
35	0xbd225b92	-0.03963811
36	0x3d9bfe6b	0.07616886
37	0xbd93bfed	-0.07214341
38	0x3ccf22e6	0.025285196
39	0x3dc347e6	0.09535198
40	0xbc273077	-0.010204426
41	0xba42b3d5	-0.000742731
42	0xbca84281	-0.020539524
43	0xbd43dd5f	-0.047818538
44	0xbdebf6db	-0.11521693
45	0xbd5d52ce	-0.054034047
46	0x3ce50a3c	0.027958982
47	0xbd62414e	-0.05523806
48	0x3d5efc7b	0.054440003
49	0x3d2e0adc	0.042490825
50	0xbd568334	-0.05237122
51	0xbd400b99	-0.04688606
52	0xbdf429c4	-0.11922029
53	0xbcf6f93b	-0.03014814
54	0xbdafb3d9	-0.08579225
55	0xbcbcec13	-0.023061788
56	0xbd73c7c2	-0.059516676
57	0x3df041a7	0.11731272
58	0xbda79b1b	-0.08183881
59	0x3dbf5d2f	0.09343945
60	0xbc0e74d4	-0.008694846
61	0x3da5d42d	0.0809711
62	0xbd6a1d5e	-0.057156913
63	0x3d87d989	0.066332884
64	0xbd40124e	-0.046892457
65	0x3c219445	0.00986201
66	0xbd0aef4a	-0.03391961
67	0x3bd8bf68	0.0066146143
68	0xbcc60e8f	-0.024176864
69	0x3d576b62	0.052592643
70	0x3cc729d0	0.02431193
71	0x3ce29246	0.02765764
72	0xbc8efa42	-0.017453317
73	0xbdbd5742	-0.09245159
74	0xbd6e0cff	-0.058117863
75	0xbc584d66	-0.013202047
76	0x3d69624e	0.056978516
77	0xbe04144c	-0.12898368
78	0x3d8b0244	0.067875415
79	0x3d983d57	0.07433575
80	0x3d2395b8	0.039937705
81	0xbd14f55d	-0.03636681
82	0x3c32c133	0.01091032
83	0x3df4cdd9	0.11953325
84	0x3ab272d4	0.0013614544
85	0xbc8265e2	-0.015917722
86	0xbdbbcf51	-0.09170402
87	0x3ce408e0	0.027836263
88	0xbcfd364d	-0.030909682
89	0xbdf4db1e	-0.11955856
90	0xbd815149	-0.06314332
91	0xbdab3c26	-0.08361082
92	0x3d5202d9	0.051272247
93	0xbe002447	-0.12513839
94	0xbdb34f6f	-0.08755385
95	0xbcf9f62a	-0.030512888
96	0x3c129d5c	0.00894865
97	0xbd954823	-0.072891496
98	0xbdb76c0c	-0.08956155
99	0x3de23df7	0.11046975
