backend/trained_models/PRVU_LSTM_model_state_dict.pth (torch, 167948 bytes, 5 tensors)

rnn.weight_ih_l0 f4 [400, 1]
000000 d3 84 4c 3c b2 1b 0d 3d 99 bb 58 bd 8a 6f bc bd
       0.01248284 0.03445024 -0.052913282 -0.09200962
000010 53 a7 96 3d d0 82 1c bc 02 31 8d 3c 62 b8 c9 bc
       0.07356133 -0.0095526725 0.017235283 -0.024624053
000020 a9 fd 82 3d a4 55 96 bd e0 fc c3 3d cf 25 d2 3d
       0.06396038 -0.073405534 0.095697165 0.10261118
000030 03 f9 87 3b 21 1c ab 3d 3f 6b 68 3d 5a 6f 90 bd
       0.0041495576 0.083549745 0.056742903 -0.070524886
000040 3a 6b a8 bd e3 98 f8 3d 0b a9 e2 3c ad 87 d1 bc
       -0.08223577 0.12138536 0.027668497 -0.02557739
000050 af c4 d9 bc 6d 35 04 3c 8c 2e 4e bd 42 40 84 3d
       -0.026583044 0.008069378 -0.05033736 0.06457569
000060 5d 63 bf bd 2d 9d 82 3d 8c 58 01 bd 6d a2 a8 3d
       -0.09345124 0.06377635 -0.031578586 0.08234105
000070 45 3f db 3c d1 ed b0 3d 38 7f 05 3d e4 d8 ef bc
       0.026763568 0.0863911 0.03259203 -0.029278226
000080 ad ba ee bc ed e3 25 bd 5c 7e f7 3c bd 24 53 3d
       -0.029141748 -0.04050057 0.03021162 0.05154871
000090 1b 85 c0 3c 95 d2 a7 bd 38 bc e8 3d 2b bc c2 bd
       0.02350097 -0.08194462 0.11364025 -0.095085464
0000a0 ad 28 99 3d 6f 17 7e bb 61 c0 a0 bd c5 59 04 3d
       0.074784614 -0.0038771292 -0.07849193 0.032312173
0000b0 67 f9 bf bd dd ae 4c bd 1a 38 39 3d 8b 13 56 bc
       -0.093737416 -0.04997145 0.04521952 -0.013066183
0000c0 1f 2b b6 3c 87 38 04 3e 69 05 ba 3d 90 cd 15 bd
       0.022237359 0.12912188 0.09083063 -0.036572993
0000d0 8f 5e e1 3d 1a 23 c3 3d 50 90 4d 3d 23 c8 d2 3c
       0.11004364 0.095281795 0.050186455 0.025730198
0000e0 cb 4a fa 3c bf 4c 87 bd ff 84 01 3e 3b b5 f3 bc
       0.030553242 -0.06606435 0.1264839 -0.029749503
0000f0 9b 46 cd 3c 16 ab 15 be 6c 7d 10 bd 9f 54 3c bd
       0.025058081 -0.14616045 -0.03527586 -0.04597914
000100 14 d4 77 bd 1e db 19 3d c8 df bd 3d b3 23 0e 3d
       -0.060504988 0.037562482 0.092711985 0.034702014
000110 b1 2a 85 3d 7e f9 55 bd 75 50 b9 3d 0e 6f 69 3c
       0.06502283 -0.052239887 0.09048549 0.014247669
000120 d8 cc 68 bd 50 ef 40 bd dd 08 85 3d 00 da 33 3a
       -0.05683598 -0.047103226 0.06495831 0.00068607926
000130 39 1d 83 3d bf 0d de 3d a1 0f c2 3d 68 2e fa 3d
       0.06402058 0.108424656 0.09475637 0.122158825
000140 d0 18 3d 3d 86 c6 76 3c 4c e1 9c bc 71 6f b7 bc
       0.04616624 0.01506198 -0.019150399 -0.022392007
000150 f0 26 89 bc b9 61 8d bd 3b eb 86 3d d5 b0 ac bd
       -0.0167422 -0.06903405 0.065878354 -0.084321655
000160 ce 61 89 bc a0 10 fd 3d a0 42 01 bd 43 e3 17 be
       -0.01677027 0.123566866 -0.03155768 -0.14832787
000170 84 58 b6 3d 59 ab 8e bd 99 9e 05 3e 93 3d 8b 3d
       0.08903602 -0.06966276 0.13048781 0.06798854
000180 4f 3e cb 3b c9 3c 13 bd 98 9d 6f bd ea f8 7d bd
       0.006202496 -0.03594664 -0.058499902 -0.06200496
000190 b5 d8 7a bc f2 32 9b 3a cf 68 a2 3d a5 e4 c3 3d
       -0.015310456 0.0011840744 0.07930147 0.09565095
0001a0 e5 7d 0e bd 6c 7b ca 3c 51 b3 e4 3d 97 34 68 bd
       -0.03478803 0.024717055 0.111670144 -0.05669078
0001b0 5e 28 a2 bd c7 64 40 3b 38 95 9d 3d e1 88 b0 3d
       -0.07917856 0.0029356943 0.07694477 0.086198576
0001c0 fe 0e 1b bb 19 e6 90 bd ca d8 ae 3d 3a da 05 bd
       -0.002366006 -0.07075138 0.08537443 -0.03267882
0001d0 86 c2 b5 3d da 30 e1 3d 28 d3 8b bd 33 41 ed 3d
       0.08874993 0.10995646 -0.06827384 0.115847014
0001e0 af 6e 04 3e d9 86 22 3d 96 57 e9 3d 42 9f 18 3d
       0.12932847 0.039679382 0.11393659 0.037261255
0001f0 e9 50 c1 bd 87 17 32 3d 41 a5 50 3c fb 7c 51 bb
       -0.094392605 0.04347947 0.012734712 -0.0031965363
000200 39 0e c2 3d 48 0e 6c 3d 7a c1 8a bd a3 14 31 bd
       0.09475369 0.057630807 -0.06775184 -0.04323257
000210 c8 c4 84 ba 6e 0a 58 3c f6 92 53 3d fb 77 d7 3d
       -0.0010129446 0.01318608 0.051653825 0.10520931
000220 f0 81 5e bd 31 22 f3 3c e0 63 da 3b 16 cd dc 3b
       -0.054323137 0.02967939 0.006664738 0.0067383153
000230 e8 5f e1 3d 54 a2 8c 3d e7 5e d2 3b 88 7c f8 3d
       0.11004621 0.06866899 0.0064200046 0.121331275
000240 14 6a 9f bd f5 48 e1 bc c3 99 ad bc 87 61 b8 3b
       -0.07783905 -0.027500609 -0.021191483 0.0056268605
000250 5b f8 00 bb 41 7b 86 3d 22 b5 14 bd a2 30 ea bd
       -0.0019679281 0.065664776 -0.036305554 -0.11435057
000260 15 01 99 bc d0 2e 05 bd 66 16 ce bc a1 c0 2b 3d
       -0.018677274 -0.032515347 -0.025157165 0.041931752
000270 f7 0c d1 bd b6 4c f6 3c 95 ac 36 3d c7 b1 06 3e
       -0.10207551 0.030065876 0.04459818 0.13153754
000280 65 d8 84 3d 23 a5 16 be da 75 72 bd 0d 19 ef bc
       0.064865865 -0.14711432 -0.059194423 -0.02918675
000290 e9 f6 77 bb d1 1e 5d 3d 79 b5 17 bd 29 a5 f8 ba
       -0.003783638 0.053984467 -0.0370383 -0.001897012
0002a0 95 9c 03 3b c1 72 62 3d af bc 05 bd 4f 5c 1f bc
       0.0020082344 0.05528522 -0.032650646 -0.009726598
0002b0 ab 09 a6 bd f1 59 20 be be ae 18 bd 54 55 70 3d
       -0.08107313 -0.1565931 -0.037276022 0.058675125
0002c0 fd de 54 3d c3 bd e7 3c fa a8 f0 3c 86 4c 63 bd
       0.05197047 0.028288728 0.02937745 -0.0554929
0002d0 25 72 ce 3d 28 70 71 bd fc 02 98 3d ed 15 27 bc
       0.10080365 -0.05894485 0.07422444 -0.010198099
0002e0 7b 77 66 bd 35 50 05 be 0a 0c 3f 3c 03 cb 15 be
       -0.05626629 -0.13018878 0.011660585 -0.14628224
0002f0 fe f3 9f 3c ff 2f bd 3b e4 f1 59 3b 82 e9 df bc
       0.019525524 0.005773544 0.003325575 -0.027333025
000300 24 cb 40 3d b2 3f b8 3d 89 e0 3d bd 90 55 a9 bd
       0.04706873 0.08996524 -0.04635671 -0.08268273
000310 10 25 83 bd 53 7c 26 3d ec 5a c7 3c e8 09 e3 3d
       -0.064035535 0.04064591 0.024335347 0.11085874
000320 c3 3f 48 3c d7 83 8a 3d 78 9a b1 bd f9 55 32 bc
       0.012222233 0.06763428 -0.08672041 -0.010884755
000330 be 79 d7 3d 46 23 ab bd a7 3a b2 3d 33 9a e3 bd
       0.10521267 -0.08356337 0.08702593 -0.111133955
000340 3f b7 ea 3d 4e d3 28 bd b2 a7 89 3d 8e d4 76 bd
       0.11460733 -0.04121714 0.067214385 -0.0602613
000350 79 7d 0f be 37 a3 6e bd cf 62 da bb 39 6b 94 3d
       -0.14012708 -0.058261123 -0.006664611 0.072470136
000360 b5 e2 f0 bc f7 42 87 bd b3 44 07 3e d2 3a e2 bd
       -0.029404977 -0.066045694 0.132098 -0.11046375
000370 86 e5 16 3d 2b 88 b9 bd f9 36 57 bd 4f 4c d4 3c
       0.036839984 -0.09059175 -0.05254266 0.025915293
000380 98 56 80 bd 9d d9 f9 bd b0 17 db bc 35 40 e5 3d
       -0.062665164 -0.121997096 -0.026744694 0.11193887
000390 53 a7 85 bd 85 1d cb 3d ea ec e3 3d 85 91 2d 3d
       -0.06526055 0.0991774 0.11129172 0.042375106
0003a0 50 d8 93 bd af 1e 06 3d 1b b8 b7 bc bb 33 1f 3d
       -0.07218993 0.032744106 -0.022426656 0.038867693
0003b0 f5 d6 03 be 05 14 75 bd 18 98 27 bd 94 45 e9 bd
       -0.12874968 -0.059833545 -0.040916532 -0.11390224
0003c0 a0 29 ae 3c 22 74 8c bd b3 d3 74 3d 80 1f 01 be
       0.021260083 -0.06858088 0.059772205 -0.12609673
0003d0 88 bf cb bd 0f 8a 8a bd 02 a1 b5 3d 54 bd fd bd
       -0.09948641 -0.06764614 0.088686004 -0.12389627
0003e0 fb cd 4b bd af b8 a4 3c 6a ab e1 bd 64 b5 98 3d
       -0.049756985 0.020107595 -0.11019023 0.074564725
0003f0 28 2f a1 bd 25 4c 9a 3d 3d 34 97 3d 67 3b 80 bd
       -0.078703225 0.07534055 0.073830105 -0.0626133

rnn.weight_hh_l0 f4 [400, 100]
000000 23 a4 c9 3c 00 b3 db bc 18 78 e6 3c fd d1 86 3b
       0.0246144 -0.026818752 0.028133437 0.004114388
000010 44 31 89 bd 47 f6 4b bd 13 e7 c1 3d b5 f4 cb bd
       -0.0669885 -0.049795415 0.09467902 -0.099587835
000020 83 23 56 bc 76 5a aa bd 92 f4 8e bd 20 09 84 bd
       -0.01306999 -0.08318035 -0.06980242 -0.06447053
000030 4c 27 de bc 95 95 ca 3c 6d b5 91 bb 15 3a ef bc
       -0.027118348 0.02472953 -0.0044466765 -0.0292025
000040 f1 42 9d 3d aa 26 e4 3b 6e 33 6d 3c de 24 c2 bd
       0.07678784 0.006962617 0.014477594 -0.09479688
000050 f5 0b 89 3d 57 d2 8c 3d 0d af 7a 3d 32 04 07 bd
       0.06691734 0.06876057 0.061202098 -0.032962985
000060 1e 11 88 bd 8c e6 9f 3b ea fe 3d bd e8 2c 31 bd
       -0.0664389 0.0048797783 -0.046385683 -0.043255717
000070 7a fc 84 3b a1 eb c2 bc ee 46 d5 3d 20 be 8f 3d
       0.004058418 -0.023793997 0.104139194 0.07018685
000080 50 6a b7 bd 24 f5 6b 3d 18 24 80 bc d4 81 8e bd
       -0.089558244 0.05760683 -0.01564221 -0.069583565
000090 92 55 cf 3c f5 b5 ce bd 21 b9 8a bd 7e 6f 97 bc
       0.025309358 -0.10093299 -0.06773592 -0.01848578
0000a0 26 29 03 3d be f1 58 bd 83 4f b7 bd d1 90 61 bd
       0.032021664 -0.05296492 -0.089507125 -0.05506975
0000b0 48 1e 51 3d 5b 78 78 bd 68 bc 74 3d 28 3a 59 bd
       0.05105427 -0.060661655 0.05974999 -0.053033978
0000c0 03 19 99 bd b8 26 9a 3d 36 9f 3e bd d5 c1 97 bd
       -0.07475474 0.07526916 -0.046538554 -0.074100174
0000d0 4e f4 2b 3d 05 32 6c bc 87 61 f7 3d 44 2d d8 3c
       0.041981034 -0.014416222 0.12079149 0.026388772
0000e0 6c 32 8c 3d 65 80 12 3d 9d 03 db bd 5b b4 9d bc
       0.06845555 0.035766978 -0.106940486 -0.01925104
0000f0 53 d1 80 3b c9 f5 de bb 50 c8 de 3c 83 54 2c 3c
       0.0039312034 -0.006804202 0.027195126 0.010518196
000100 d7 53 5e 3d ac ca 2b bd 36 92 8d 3d 09 22 e6 3d
       0.054279175 -0.04194133 0.06912653 0.112369604
000110 07 bf 1a 3c ad 5b 57 bd a6 8f 8a 3d b8 26 8c bc
       0.0094449585 -0.052577663 0.0676568 -0.017108306
000120 c2 cc a8 bd 54 55 3a bd 93 03 9b bd 8b c4 41 bd
       -0.082421795 -0.04549153 -0.07569041 -0.04730658
000130 2a 63 7a bd e6 69 38 bd d5 5b 6e 3d 78 68 4d 3d
       -0.061129726 -0.045022868 0.058193047 0.050148457
000140 24 08 10 bd 22 65 b7 3d 97 b7 5c 3d f6 4b b0 3d
       -0.035164014 0.089548364 0.053886022 0.086082384
000150 41 b8 e4 bd 1e f2 56 3d 17 3d 3b bd 76 79 8d 3b
       -0.11167956 0.052476995 -0.045712557 0.004317458
000160 52 47 b8 bd 5c 16 79 3d 95 89 f7 bc 41 86 8b bd
       -0.08997978 0.06081234 -0.030216971 -0.06812716
000170 32 91 83 3d b4 38 ed 3d eb 4a da bc e5 bd 37 3c
       0.06424178 0.11583081 -0.026647052 0.011214708
000180 9f 38 87 bd ce b0 e3 3d cf 33 81 bd 54 81 c9 3c
       -0.066025965 0.11117707 -0.0630871 0.024597801
000190 dc bf a7 bc e7 49 d1 bc fa d5 d9 bd 54 c6 f5 bc
       -0.020477228 -0.025547935 -0.10636516 -0.030001797
0001a0 44 76 dc 3d f8 a7 5a ba 19 a0 0c bd fb 66 82 3d
       0.10764745 -0.00083410693 -0.03433237 0.06367298
0001b0 b7 14 8d bd ca 59 4c 3d 56 f1 d4 3d e5 93 75 bc
       -0.06888717 0.049890317 0.10397594 -0.014988874
0001c0 80 da da bd ca bd 8c 3c db 5a af bd e5 58 16 bd
       -0.10686207 0.017180342 -0.08562251 -0.03670587
0001d0 95 80 de 3d c3 b2 5c bd 37 66 e8 3d 56 6f 44 bd
       0.10864369 -0.053881418 0.11347621 -0.04795774
0001e0 c0 f9 77 3c ca bb a7 3d 77 7b 56 bd 1f 1d a4 bd
       0.015135229 0.08190115 -0.05236384 -0.08013367
0001f0 27 80 0b bd 7d ae 8b bd 78 59 9f 3c 81 93 56 bd
       -0.034057762 -0.068203904 0.019451842 -0.052386764
000200 db 66 9c bd b1 59 0c 3d d3 bb 15 3d 1b 80 95 3d
       -0.076368056 0.034265224 0.036556076 0.07299825
000210 0d c0 70 3d c5 0c cf 3c f2 93 a8 bc 4b 64 56 bd
       0.058776904 0.025274644 -0.020578358 -0.05234174
000220 c2 bf 9c 3d 98 31 89 bd ea 3d 1c bd 37 10 f9 bc
       0.076537624 -0.066989124 -0.038144983 -0.03040324
000230 2e 24 80 3d 65 6d bd bd c9 52 cf ba 92 a4 80 bd
       0.06256901 -0.09249381 -0.0015817519 -0.06281389
000240 6c 9a cf 3c 77 6e 00 bd 69 b5 ee 3c 8f 77 3e 3d
       0.025342189 -0.031355347 0.029139237 0.04650074
000250 1f 2e 6f bc bc 07 53 3d 33 57 8c 3a 68 f1 81 3d
       -0.0145983985 0.051521048 0.001070714 0.06344873
000260 0c 51 8f bd 3e 00 03 bd 63 49 71 bd 20 5a a4 3c
       -0.0699788 -0.031982653 -0.058907878 0.020062506
000270 24 d5 55 3d 21 e3 db 3d 18 1c cc bd 2e 8d e1 3b
       0.05220522 0.10736681 -0.09966296 0.006883285
000280 70 76 ce 3d b2 97 0d bd 14 50 bb 3c 5f b2 70 3d
       0.10081184 -0.034568496 0.022865333 0.058763858
000290 41 fa a0 bd 58 00 bf 3d 1c b0 23 3d 7f 2d 00 3d
       -0.07860232 0.093262374 0.039962873 0.03129339
0002a0 32 7d 20 bd 29 bf b6 bd 61 40 3e 3d 09 93 81 3d
       -0.039181896 -0.0892318 0.046448115 0.06326873
0002b0 e1 8a 18 3d 17 03 c7 bd e7 0d 98 bd 6e b1 9f bd
       0.03724182 -0.09717386 -0.07424527 -0.07797514
0002c0 40 ef 2b bd 21 1b b3 bc 62 37 ea 3d 75 fe 3a bc
       -0.041976213 -0.021863522 0.11436345 -0.011413206
0002d0 40 1b 21 3d d5 cc 9c 3c 23 12 b9 bc 43 d2 81 bc
       0.03933263 0.01914064 -0.022591656 -0.01584733
0002e0 ed 09 96 3c e0 ab 17 3d 22 b3 f4 bc e2 69 54 3d
       0.01831528 0.037029147 -0.029870573 0.05185879
0002f0 e0 e4 9e 3d 8a a2 93 3d e3 f1 8d 39 59 b1 21 3d
       0.07758498 0.07208736 0.00027073835 0.039475773
000300 f9 99 ec bd a3 7b 88 bd 11 8f 47 3d 92 f7 dc bc
       -0.115528055 -0.06664207 0.048720423 -0.02697352
000310 39 b9 26 3d 7a 85 19 bd a3 34 c9 bd 33 78 0b 3c
       0.040703986 -0.03748081 -0.09824493 0.008512544
000320 0d 67 0a 3c 43 ca 33 bd 16 4f 0a 3d dd e1 e6 3d
       0.008447421 -0.043894064 0.03376683 0.11273549
000330 f7 69 51 3d e1 28 c5 bc e6 85 44 bd 2d 50 c6 bc
       0.051126447 -0.024067344 -0.047979258 -0.024208153
000340 ec 8b 56 bd 34 06 d5 bc 7c 35 7b 3d 79 b4 85 bd
       -0.052379534 -0.026003934 0.061330304 -0.06528563
000350 1c 60 bc 3d ef 3f 77 3d 92 f7 c6 bd 17 5d 1c bd
       0.09198019 0.060363706 -0.09715189 -0.038174715
000360 47 f9 a4 3d 8d cb 8f 3d e2 dd 1a 3c 05 88 cf bd
       0.080553584 0.07021246 0.009452315 -0.101333655
000370 cd 84 10 bd c9 1e 7d bd 6c 81 05 bd 66 a3 78 3b
       -0.0352829 -0.061796937 -0.03259413 0.003793919
000380 02 e4 10 3d 3c 0e 98 bd 88 ea 5d 3d 68 71 6b 3d
       0.035373695 -0.0742459 0.054178745 0.0574812
000390 b2 bf 93 bc 66 fe ae 3d b9 4d b0 bd 11 46 e5 3d
       -0.018035743 0.085446164 -0.086085744 0.11195005
0003a0 67 91 51 3d 7c 19 4e 3d a0 93 d0 3a bb 15 5e bd
       0.051164057 0.050317273 0.0015913136 -0.054219943
0003b0 4e e1 5b 3d db 75 82 bd b5 de d5 3d 72 be d4 3d
       0.053681664 -0.063701354 0.104428686 0.10387887
0003c0 37 d2 dc 3d b2 85 48 bd 0c 00 0c bd 8f 9c 5e 3d
       0.10782283 -0.048955627 -0.034179732 0.054348525
0003d0 00 f8 51 bd ee 78 0a bd e9 37 03 bc 5d 53 82 3c
       -0.0512619 -0.033806734 -0.0080089355 0.015908891
0003e0 40 a1 a4 bd af 30 16 ba e2 43 5a bd 9d c7 35 3d
       -0.080385685 -0.00057293003 -0.053287394 0.04437982
0003f0 a5 69 7e 3d 44 69 a8 3c ae 01 89 bd d1 ca 8c 3d
       0.06211247 0.020558007 -0.066897735 0.06874622

rnn.bias_ih_l0 f4 [400]
000000 ac 47 af 3d 64 d7 8f bd b0 8f 5a bd 87 0e 47 3c
       0.08558592 -0.070235044 -0.053359687 0.01214946
000010 7b 29 4c 3d 2b 9b ba bc 09 ef 21 3c 7b 67 62 3d
       0.049844246 -0.022779068 0.009883651 0.055274468
000020 a2 9d f8 3d ea 05 87 bd 91 7b 99 bd e2 cc 6f bb
       0.12139441 -0.06592925 -0.074942715 -0.0036590626
000030 1d f5 8e bc b0 52 8e 3d 1f cf 21 bd 9d d2 02 3e
       -0.017450863 0.06949365 -0.039504167 0.12775655
000040 2e 58 1a 3d a3 e8 f8 3c 54 f4 08 3c 8c 4d 9d 3d
       0.03768175 0.030384367 0.008359034 0.076808065
000050 b2 4a d5 bd 09 16 80 3d bf 66 a1 3d 27 b0 14 3d
       -0.104146376 0.06254203 0.078809254 0.036300804
000060 be 60 d9 3d ca b9 4a bc 5a 88 1a bd b3 fc 7c bc
       0.10614155 -0.012373397 -0.03772769 -0.015441108
000070 b8 30 e2 bd 05 ee b8 3d f0 1f 22 bc f4 f2 75 3c
       -0.110444486 0.090297736 -0.00989531 0.015011538
000080 37 41 49 bd 84 d8 44 3c ae 32 8b bd 1a 64 52 bd
       -0.04913446 0.012014512 -0.06796776 -0.051364996
000090 ff 9b fc 3d 02 1e ad bd 03 d7 bb bd 43 60 b7 3d
       0.123344414 -0.08452989 -0.091718696 0.08953907
0000a0 c6 1b 73 bd c5 c0 ed 3d b0 d2 87 bd 05 43 ea 3d
       -0.05935266 0.116090335 -0.06631982 0.11438564
0000b0 3e de 52 bd 86 10 87 3d 7e 4b 36 3c e5 0f 98 3d
       -0.051481478 0.065949485 0.011126397 0.07424907
0000c0 a5 3b 31 3d 77 40 a5 bd ee a7 55 3d 6b df b0 bd
       0.043269772 -0.08068936 0.052162103 -0.086363636
0000d0 55 68 d0 3c 4c e7 ea bb 95 b6 0d 3d b0 ab c2 3d
       0.025440374 -0.007168686 0.034597952 0.09505403
0000e0 cb a6 b9 bd db 7f 00 bc 68 26 92 3b 6c 78 8e bd
       -0.09065016 -0.007842983 0.004460145 -0.069565624
0000f0 1e 92 77 3d 41 d3 22 3d 27 2d 9f bd 82 e7 23 3c
       0.060442083 0.03975225 -0.07772284 0.010003926
000100 06 86 42 3c db f1 aa bb 6c e2 f3 3d 65 d1 1d 3d
       0.011872774 -0.0052168197 0.11908421 0.038529772
000110 52 6c b1 bd 2a c0 46 3d 37 5a c7 3d 45 90 78 3d
       -0.086632386 0.048523106 0.09734004 0.06068446
000120 b6 56 b6 3c 80 2d 96 3d c6 d9 77 3d fa 90 b1 bd
       0.022258144 0.07332897 0.06051042 -0.0867023
000130 90 b1 da bc 98 5f ec 3d a3 da e1 3d 2e 98 10 3d
       -0.026695997 0.115416706 0.1102803 0.03530138
000140 a1 b2 86 3d 96 92 d6 3d 67 c9 3e 3d 23 ff ad 3d
       0.065770395 0.10477178 0.04657879 0.08495929
000150 b4 ed fb bc 26 ef f3 3d 93 10 f9 3d fd b1 a7 3d
       -0.030752994 0.11910848 0.121613644 0.081882454
000160 b6 bc 2a bc d7 89 ce 3d 56 11 c3 3d 9a e1 a5 bc
       -0.010420969 0.100848846 0.09524791 -0.020249177
000170 9b eb 04 bd bd bb ce 3d bd 4e dc 3c aa 78 9a bd
       -0.032451253 0.10094402 0.026893014 -0.07542546
000180 f8 f6 df bc c0 71 80 3d 96 89 a4 3d 3d 61 96 bd
       -0.027339444 0.06271696 0.08034055 -0.073427655
000190 fb 0b a6 bc 0a f9 64 3d 74 72 d5 bc f4 ba 9a 3d
       -0.020269385 0.055901565 -0.026055552 0.0755519
0001a0 96 7b c8 3c 91 17 97 bc 10 f5 df 3d f1 66 0d bd
       0.024472993 -0.018443855 0.10935414 -0.034522
0001b0 6b a4 d9 bc 18 a6 ad bd 63 64 11 3d 6c 15 87 bd
       -0.026567658 -0.084789455 0.035496127 -0.06595883
0001c0 cc 61 a1 3d 0b fc ab bc 0f c9 b3 bd dd 82 22 bd
       0.078799814 -0.020994207 -0.08778583 -0.039675582
0001d0 24 14 97 bd e3 d4 ad 3d be 51 e9 bc 5d 13 9f 3d
       -0.073768884 0.084878705 -0.02848136 0.07767365
0001e0 f9 65 3f bd ce e6 da 3d 1e 51 d0 bc 6d 5e b8 bc
       -0.046728108 0.10688554 -0.025429305 -0.022505963
0001f0 a0 3c d8 3d 5d 12 92 3a 26 da 90 bd 8d 66 08 bd
       0.10558438 0.0011144389 -0.070728585 -0.033300925
000200 6b 81 11 3d 83 85 90 bd 06 c6 8d bd d9 0f 78 bd
       0.035523813 -0.07056715 -0.069225356 -0.06056199
000210 df 9e 67 3d 8a bf 96 3d bc df 73 bc 81 df 35 3c
       0.056547996 0.07360752 -0.014884885 0.011100651
000220 77 d7 90 bd 9e e2 94 bd fb e6 94 3d 81 76 13 bd
       -0.07072347 -0.07269786 0.072706185 -0.036001686
000230 7b a2 78 3d 6c d1 87 3d 58 7c 58 bd 8e 11 a0 bc
       0.06070183 0.06631741 -0.05285296 -0.01953962
000240 41 f6 af 3d 7f fb a7 bd d6 be 48 bd af be 01 bc
       0.08591891 -0.08202266 -0.04901012 -0.007918998
000250 ae 30 02 bd bd 9e 36 bc ca 8a f8 bc 75 99 9b 3d
       -0.031784706 -0.011146245 -0.030339617 0.07597629
000260 dc 03 8d 3d 2c 03 2d 3d 71 80 5d 3c c1 06 e5 bb
       0.06885502 0.042239353 0.013519392 -0.0069893305
000270 7a 27 7a 3d cc 3c 80 3d 5b 1a f4 3d 2c 49 9f bc
       0.061072804 0.06261596 0.119190894 -0.01944407
000280 e6 b6 12 bd ef 00 90 bd 1c 88 8f bd 56 0c dd bd
       -0.035818957 -0.07031428 -0.07008383 -0.107933685
000290 00 89 b3 bd fc 96 de ba b8 64 e6 3d ef e3 29 bd
       -0.08766365 -0.0016982253 0.11249679 -0.04147714
0002a0 ba d2 27 3c 25 fc 9e 3d b8 3a b9 3d b0 2f e1 3c
       0.010243112 0.077629365 0.09044403 0.02748856
0002b0 ff 49 0b bd 93 b0 24 bd 31 91 af 3d d5 ff c7 3d
       -0.034006115 -0.040207457 0.08572615 0.09765593
0002c0 07 7c 96 3d 67 c8 a0 bd 41 aa e0 3d 47 d4 08 3d
       0.07347875 -0.07850724 0.10969973 0.03340557
0002d0 dd 6c 19 bd 98 9c ab 3d c5 b8 e3 3d fb 51 03 bc
       -0.037457336 0.08379477 0.11119226 -0.008015151
0002e0 14 16 8e 3d b7 1a 23 bd bc 9b 77 ba f8 3a 30 3d
       0.06937805 -0.0398204 -0.00094455085 0.043024987
0002f0 b0 d9 1d 3d 47 4b 31 bc 79 c2 54 bd ee db 09 bd
       0.03853768 -0.01082117 -0.051943276 -0.033657007
000300 f8 1d c1 3d 9b d5 0b bd bb f5 9a bd a8 51 8b 3b
       0.09429544 -0.034139257 -0.075664006 0.0042516775
000310 56 3b be bd 85 33 19 3d 27 61 80 bc 68 aa 34 3d
       -0.09288661 0.03740265 -0.015671326 0.044107825
000320 92 8e 8a bd 96 aa bb bb 5f f0 30 bc 07 ee df 3d
       -0.067654744 -0.0057271225 -0.010799496 0.10934072
000330 3d 6d 62 3d 21 68 8e bd cb 98 eb bb 4b 04 c5 ba
       0.05527996 -0.06953455 -0.007189845 -0.0015031187
000340 54 ed 85 bd 88 57 1c bd da 74 c9 bd da 63 43 3c
       -0.06539407 -0.038169414 -0.09836741 0.011925662
000350 d5 ad 13 bc 05 1a ea 3d ac 41 87 3d f0 95 13 3b
       -0.009013613 0.11430744 0.06604323 0.002251979
000360 11 f6 15 3d 6f 7c fa bc 1a e4 3c bd a5 04 82 bd
       0.03661162 -0.030576913 -0.046115972 -0.06348542
000370 a0 cc 7e bd 20 60 90 3d 55 70 80 3d 1d 56 4d 3d
       -0.062206864 0.070495844 0.06271426 0.050130952
000380 ed 1c a0 3d cc 30 99 bd 8a 29 c5 bd ce db 13 bd
       0.07818017 -0.074800104 -0.096270636 -0.036098294
000390 1b ba e0 3d 71 77 a8 bd 47 7d 86 bd 99 26 88 3d
       0.10972997 -0.08225907 -0.065668635 0.06647987
0003a0 64 84 63 3d 60 69 34 3d 8c 70 f6 bc fe 33 c1 3c
       0.05554618 0.044045806 -0.030082963 0.023584362
0003b0 1b 8c 31 bd df af 82 bd fd 22 b6 3d f5 6d b4 3d
       -0.043346506 -0.06381201 0.08893392 0.08810035
0003c0 02 80 8c 3d ce 6a 48 bd cc 5f 8b 3d fc 55 19 bc
       0.06860353 -0.048929982 0.06805381 -0.009358879
0003d0 fa 05 6d 3d 37 ab 30 bd 69 93 92 bb 8a 33 0f 3c
       0.057867028 -0.043132033 -0.004473139 0.008740315
0003e0 4e 33 86 bd eb a4 02 3d 11 32 18 bd 19 1a 97 bd
       -0.06552754 0.03189556 -0.037157122 -0.073780246
0003f0 e1 1d bc bd 7c 33 5c bd a6 64 f4 bc 0f d5 cf bd
       -0.091853864 -0.053760037 -0.02983315 -0.101480596

rnn.bias_hh_l0 f4 [400]
000000 91 f2 c5 b9 b8 64 ce 3d f2 af b3 3d 17 79 80 bc
       -0.00037755494 0.10077804 0.08773793 -0.01568274
000010 e1 16 86 bd ed 1c 4c 3d 64 2e be 3d 98 7b 58 3c
       -0.065473326 0.049832273 0.09286192 0.013213061
000020 86 49 fe bb f4 76 ab bd dd c8 0a bc 8d 56 b5 bd
       -0.0077602295 -0.08372298 -0.008470741 -0.08854399
000030 fc ef 9e 3d 8b b1 a5 3c 88 16 89 3d ee fd 50 3d
       0.07760617 0.02022626 0.066937506 0.051023416
000040 ec cd 1f bd bf 9f 34 3b ce 38 9c 3d 8b 23 21 bd
       -0.03901474 0.0027561036 0.07628022 -0.039340537
000050 4b 97 86 bc 78 6d de bc c9 08 ae 3d da d6 32 bd
       -0.016429564 -0.027151808 0.084977694 -0.04366193
000060 25 e0 8f 3d 32 1b 81 bd ec 13 b9 3d ff 23 b9 bd
       0.07025174 -0.06304015 0.09037003 -0.09040069
000070 1b a1 e3 3c e0 88 52 bd 17 dd c0 3d 3f ed d6 3d
       0.027786782 -0.051400065 0.094171695 0.1049447
000080 9b b3 c9 bd 4a 61 9c 3d 8d ab 74 3d f4 3a c4 3d
       -0.0984871 0.07635744 0.059733916 0.09581557
000090 9b fb 48 3d 4b a5 9e 3b ab bb 85 3d bd e7 5a 3d
       0.049068075 0.004841482 0.065299354 0.05344366
0000a0 19 2b b8 bd 0a 3a d4 3d 72 ab 77 3d ce 50 22 3b
       -0.08992595 0.103626326 0.060466237 0.0024767402
0000b0 92 04 82 bd e0 97 4f bd 8d 2d a6 3d 97 ad 2e 3d
       -0.06348528 -0.05068195 0.08114157 0.042646017
0000c0 00 77 1e bd 5f 63 6e 3d 10 d8 6d 3d 7c d5 8c 3d
       -0.038687706 0.058200236 0.05806738 0.068766564
0000d0 f7 81 20 bd a2 aa 99 3d 68 d6 45 bd 4d dc 9b 3d
       -0.039186444 0.07503249 -0.048300177 0.076103784
0000e0 8e ac ba ba 02 a0 a3 3d 70 b1 c3 bc 37 08 b6 bc
       -0.0014242099 0.079895034 -0.02388832 -0.022220714
0000f0 b8 c0 58 3b 21 74 11 bd 08 db 9c bd 8a 16 ab 3d
       0.0033073854 -0.03551114 -0.076589644 0.08353908
000100 8d dc e3 bb ea 2f 66 bc 36 02 59 3d b9 d1 75 bd
       -0.006953782 -0.01404951 0.052980624 -0.06001446
000110 c9 95 d4 bd 6e 71 c3 bd 0a 3a b6 3d 7d fa 41 3d
       -0.10380132 -0.09543119 0.08897789 0.047358025
000120 c7 d9 b8 bd 50 4c 9d 3d 6b fa 19 bd b7 17 3a bc
       -0.09025913 0.07680571 -0.037592333 -0.011358193
000130 0d 04 82 3d 7c 54 2b 3d 0b 17 a2 3d 65 97 1c bd
       0.06348429 0.041828617 0.07914551 -0.03823032
000140 a4 d4 d4 3d d1 96 68 3d 8b 42 fd 3c fb 32 1a 3d
       0.103921205 0.056784455 0.03091552 0.037646275
000150 35 ae ac 3d da a8 15 bc 8c 90 d6 3b 23 f8 80 bd
       0.08431665 -0.009134496 0.006547993 -0.06297328
000160 5f aa 66 bd d1 d0 01 bc 5a 3c 47 3d 12 4e 88 3d
       -0.056314822 -0.007923321 0.04864154 0.06655516
000170 6d db b1 bd e8 d6 69 3d e2 46 ac 3d 6d 99 ba bc
       -0.0868443 0.057089716 0.08411957 -0.022778237
000180 bd c2 5b bd 03 fe 02 3e 47 27 f9 bc 95 a5 20 3d
       -0.053652514 0.1279221 -0.030414237 0.03922041
000190 74 d3 89 bc a3 a5 5c bd 3f 64 c0 3c 20 1a 79 3d
       -0.016824462 -0.0538689 0.023485301 0.06081593
0001a0 38 88 14 bb e7 74 21 3d 00 cb 81 bd f6 76 5a 3d
       -0.00226642 0.039418127 -0.06337547 0.053336106
0001b0 60 fd 61 bd 75 f1 c2 bd d1 b9 52 bc 4d 8e 7a 3d
       -0.055173278 -0.095187105 -0.012861685 0.061170865
0001c0 83 2e 4c bc d9 ae af 3c d2 d2 86 3d 6d 28 41 3d
       -0.012462261 0.021445679 0.065831795 0.047157694
0001d0 18 8b 35 bd f4 03 8b bd 5d d6 ed 3d 53 1e a6 3d
       -0.044322103 -0.067878634 0.11613152 0.08111253
0001e0 ef c5 a8 bd 18 f7 a3 bc 83 f9 18 bd de 8b a4 bd
       -0.08240878 -0.020015284 -0.037347328 -0.0803449
0001f0 f3 83 a9 3d 3e 0e a6 3d a3 f4 09 bd ef 7a a1 3d
       0.082771204 0.08108185 -0.03368057 0.07884776
000200 a8 45 9a 3b a8 9c 5a 3c 08 63 d7 3d e9 5d 99 3c
       0.0047080107 0.013343014 0.105169356 0.018721538
000210 e8 65 b5 bd 10 ab c4 3d 78 ea b6 bb 5b af 34 bc
       -0.08857328 0.0960294 -0.00558215 -0.011028136
000220 49 69 22 3c b8 a5 19 bd e8 1d 90 3b e3 65 d6 bc
       0.009912797 -0.037511557 0.0043980964 -0.02617163
000230 20 a9 02 3d 49 1d c4 bc 2e 6c 99 3d 3a d1 c7 3c
       0.03189957 -0.023939746 0.07491337 0.02439176
000240 4e 1c e2 3d 8a d8 99 bd f4 b1 22 3d 24 ad 32 3c
       0.11040555 -0.07512005 0.03972049 0.010905538
000250 78 02 10 3d da a9 9e bd d0 54 8a 3d e9 76 65 bd
       0.035158604 -0.0774724 0.06754458 -0.056021605
000260 c5 ab b3 3d 6c c8 0f bd 48 64 c0 bd 4e 56 62 bd
       0.08772997 -0.035103247 -0.09394127 -0.055258088
000270 22 74 07 bc 4d 0a e5 bc ed c7 d4 bc 09 43 bb 3d
       -0.008267434 -0.027959013 -0.025974238 0.09143645
000280 69 25 3b 3d 1b ba c0 3d 45 ae 81 bd 7c 7a a2 3d
       0.045689974 0.09410497 -0.063320674 0.07933518
000290 5a 73 8a bd 9d d6 a4 bd f4 78 a6 3d 87 33 1b 3d
       -0.06760283 -0.08048747 0.08128539 0.037890937
0002a0 c5 1a 0f 3d ca 9e a1 bc 0c 94 a0 bc b6 74 35 3c
       0.03493764 -0.019729037 -0.019601844 0.011075189
0002b0 f1 5b c5 bc 4d a8 68 3d fd a9 67 bd 2b 9a 0b 3d
       -0.024091693 0.05680113 -0.056558598 0.034082573
0002c0 b8 e9 28 3c ef ac 06 3d ec 6b eb 3d 25 f6 ab 3d
       0.010309629 0.032879766 0.11495194 0.08396558
0002d0 68 95 4c bc 1d 32 22 bd 83 64 c1 3a 86 e5 b4 3b
       -0.012486793 -0.039598573 0.0014754686 0.0055205254
0002e0 5f 97 a0 bd 51 6a e0 3d f6 c9 bf bc b0 ca 57 3d
       -0.07841372 0.10957778 -0.023411732 0.052683532
0002f0 c0 b1 db 3c e0 ac 50 3c 43 03 ae bd 14 3c be 3d
       0.026818156 0.012736529 -0.08496716 0.09288803
000300 ab 2d b7 3c 99 93 ec bc 74 05 9d 3c 30 4e 63 bd
       0.022360643 -0.028878974 0.01916764 -0.055494487
000310 6b 5b cd bd 0f 2c 3e bd 1f d7 bb bd d7 a9 a0 3d
       -0.10027202 -0.046428736 -0.091718905 0.078448944
000320 2b 91 df 3d d1 5d 98 3d 5c ae b2 3d 44 d2 8f bc
       0.109163605 0.07439769 0.08724663 -0.017556317
000330 85 35 88 3d 71 ea 39 3d da fc 05 3d 45 88 8b bd
       0.06650833 0.045389596 0.03271184 -0.06813101
000340 c6 5d 65 3d 8f d1 62 3d bb f6 51 bc 51 9b 89 bd
       0.055997632 0.055375632 -0.012815173 -0.067190774
000350 d3 c0 6d 3b ec e4 11 3d 43 22 aa bd e3 24 03 3c
       0.0036278262 0.035618708 -0.08307316 0.0080044
000360 7d 2f ad 3d a3 6b c8 bd d5 31 8c 3d 1d 27 e6 bc
       0.08456323 -0.09786155 0.06845442 -0.028094823
000370 0c b8 e0 bc 62 3e 9a 3c 45 63 ae bd 5b ef cc bd
       -0.02743151 0.018828575 -0.08515028 -0.10006591
000380 33 48 a0 3a 3b f3 e1 bc f3 c2 b5 bd 86 6d b5 3d
       0.0012228548 -0.027581802 -0.08875074 0.088587806
000390 ab 2c b1 3d f4 ac 58 3d 69 fe 61 3d 3c d6 d8 3d
       0.08651098 0.052899316 0.055174265 0.10587737
0003a0 34 5d 44 3c d0 a5 85 bd ca 02 c9 3b 23 86 45 bd
       0.011985112 -0.06525767 0.0061343657 -0.048223626
0003b0 8c 39 55 3d dc cf 09 3d d5 5c 7a 3d 15 90 6a 3c
       0.052056834 0.033645496 0.061123688 0.014316578
0003c0 5b 0f ee bc 4b a5 42 bc 60 22 6f bc fe b3 86 bd
       -0.029060056 -0.011880229 -0.014595598 -0.065772995
0003d0 ea 57 a0 3d 06 d2 ae 3d f3 37 09 3d ee f8 34 3d
       0.07829268 0.085361525 0.033500623 0.04418271
0003e0 2f 6c b5 3d 13 4b c2 3d 16 6b 33 bd ad 1d 5a bd
       0.08858525 0.094869755 -0.043803297 -0.053250957
0003f0 0f b0 9b 3d 67 c6 48 3d 12 59 11 3d fe a9 a8 bb
       0.0760194 0.049017336 0.035485335 -0.005147218

linear.weight f4 [1, 100]
000000 7d a1 ba 3d 06 86 99 3d fb 92 9e bd 60 77 fc 39
       0.09112833 0.07496266 -0.07742878 0.00048154127
000010 28 ca 97 3d 04 d6 74 3d 9b 3e 12 3d f7 2e 85 bd
       0.07411605 0.059774414 0.035704236 -0.065030985
000020 06 b6 eb 3c ba 43 38 3d e3 46 f5 bc 12 63 08 bc
       0.028773319 0.044986464 -0.029941028 -0.008324401
000030 b0 a8 11 be b4 fe 39 3d 11 4f 89 3d 97 10 0b 3e
       -0.14224505 0.04540892 0.06704534 0.13580547
000040 c6 c9 47 b8 e5 0d ca bd c0 ee 04 3e a9 54 b2 bc
       -4.7633213e-05 -0.098659314 0.12981701 -0.021768885
000050 95 60 84 bd 7a 68 b6 bd 2a b6 69 bd 9e a0 40 bd
       -0.06463734 -0.08906646 -0.05705849 -0.047028176
000060 5f 8c 96 bd 1f c5 40 bd 6a cf 3f bd 09 93 11 3c
       -0.073509924 -0.04706299 -0.046828665 0.008885154
000070 73 30 74 3d 6a bb 00 3e a1 f0 7d 3d 64 92 d2 3d
       0.059616517 0.12571493 0.06199706 0.10281828
000080 b2 3e 78 bc 50 b4 e5 3b 08 c8 45 3d f3 0f 84 3d
       -0.0151516665 0.0070100203 0.048286468 0.064483546
000090 df 56 31 bd 6f 69 04 3d d8 2b 91 3d ec 8a 0a be
       -0.043295737 0.03232711 0.07088441 -0.13529557
0000a0 2a 16 b3 3d 46 d7 8b bd 04 bc 9e 3c 8f c0 8f bd
       0.08744462 -0.068281695 0.019376762 -0.070191495
0000b0 3d da f9 bd 8c 6a 07 3d 8f 3b 04 3e 08 bb 0f be
       -0.12199829 0.033060595 0.12913345 -0.1403619
0000c0 40 c0 bd 3d 07 9d 6e 3d 3b 51 01 be 0f c0 93 3d
       0.092651844 0.05825522 -0.12628643 0.07214367
0000d0 ca a4 07 be 9b 90 e3 3d 19 6c e3 bc 29 f0 d3 bc
       -0.13246456 0.11111566 -0.027761506 -0.025871353
0000e0 89 1b 8f 3d 61 7e 67 3d 0d e5 64 bd fe e5 77 3d
       0.06987674 0.05651701 -0.055882502 0.060522072
0000f0 1b 2c dd 3d b4 85 69 bb ce bc 4e bd da 62 9e bc
       0.10799428 -0.0035632672 -0.050473027 -0.019334245
000100 49 ed 16 3c a2 92 5c 3d a3 ab fb 3d ef cb 0d bc
       0.009211847 0.053850777 0.122885965 -0.008654579
000110 91 ec 3c bc a5 10 59 3d 49 92 83 3c c0 11 ba bd
       -0.011531011 0.05299439 0.016060965 -0.09085417
000120 27 2d 09 b8 37 c2 8e 3d d5 45 3c 3d 5c 63 3b 3d
       -3.2705397e-05 0.06970637 0.045965035 0.045749053
000130 18 93 f6 bc 5b 27 99 bd a3 81 34 3d eb 8e 83 3d
       -0.030099437 -0.074782096 0.044068944 0.06423744
000140 67 30 44 3c dd 3f c6 bd 3d c4 a5 bd 88 ce 9c 3d
       0.011974431 -0.0968015 -0.0809407 0.0765658
000150 fb e3 1b 3d 35 fd e8 3d 0a c3 b3 3c f9 3d 02 3e
       0.038059216 0.113764204 0.021943588 0.12718953
000160 77 9c a6 3d d1 89 0a be fa 21 c2 3d ce 77 a1 bd
       0.08135312 -0.13529135 0.09479137 -0.07884179
000170 73 e9 26 bd c4 ed b0 3d a7 64 d1 bb 69 03 21 bd
       -0.04074998 0.086391 -0.0063901725 -0.039309893
000180 dc 82 da bd d7 ab eb 3d c7 a5 61 3c c0 1a a2 3d
       -0.10669491 0.11507385 0.013772435 0.079152584
