backend/trained_models/SANIMA_LSTM_model_state_dict.pth (torch, 167966 bytes, 5 tensors)

rnn.weight_ih_l0 f4 [400, 1]
000000 d5 a2 75 bc 02 6e bb bd ad 76 80 bd 60 38 9f 3d
       -0.014992435 -0.09151842 -0.062726356 0.077744246
000010 3e 07 e3 3c 53 b0 22 bc cc eb 6b bd 90 a2 51 bd
       0.027713414 -0.009929734 -0.05759792 -0.051180422
000020 22 84 b8 3c 9a 45 63 bd aa 5f 7e bc 6f e4 7c bd
       0.022523943 -0.0554863 -0.015525738 -0.06174129
000030 3e e1 18 bd 64 d4 97 3c 81 54 f5 3c 83 b5 9c bc
       -0.037324183 0.018533893 0.029947521 -0.01912952
000040 d5 73 c6 3c 2c 7b aa 3d ae b3 28 3d 2c 92 61 3d
       0.024225155 0.083242744 0.04118698 0.05507104
000050 f9 c6 2c bd ac 3c ab 3d cc e5 1d bd ef 05 6c bd
       -0.042181943 0.083611816 -0.03854923 -0.057622846
000060 c1 ce a7 3d 4c a0 ad bc 4f dc 22 3d 1e f4 c0 3c
       0.08193732 -0.0211946 0.039760884 0.023553904
000070 fb 9c 88 3d 56 4e b5 3d dc af f1 3c 1e 76 0b 37
       0.06670567 0.08852832 0.029502802 8.312547e-06
000080 27 70 c1 bb e7 2c 2b 3d fe 73 06 3d 6c 9c bc 3b
       -0.005903262 0.04179087 0.032825463 0.0057559516
000090 fd cb 77 bd ed e0 62 bd ab a1 d4 3d 02 c4 d9 bc
       -0.060497273 -0.055390287 0.10382398 -0.026582722
0000a0 7f 73 d3 bd 40 4c 71 bd 9e 84 42 3d ad 09 7c bc
       -0.103247635 -0.05891061 0.047489755 -0.015383166
0000b0 0b 1a d3 3d 7e 4a 0d 3d 8d 47 34 bd de 0b 0f 3d
       0.10307702 0.03449487 -0.04401355 0.034923427
0000c0 ba 0a ea 3d 65 78 8b bd c0 d9 0d bd ce 82 b3 bc
       0.11427827 -0.06810073 -0.03463149 -0.021912958
0000d0 f3 25 12 3d aa 71 d6 3c 2d 2a 84 3d fa 2f 59 3d
       0.035680722 0.026177246 0.06453357 0.05302427
0000e0 d8 8d 56 3d 86 ef 35 3c 64 d8 14 bd 96 a5 99 3d
       0.052381366 0.01110447 -0.03633918 0.07502286
0000f0 65 df ef 3c e1 9b bf bb 13 a4 8a 3d 5f b1 f5 bc
       0.029281328 -0.0058474396 0.06769576 -0.029991804
000100 8d c2 83 bd 40 e9 fb 3c d7 06 5c bc 41 86 ec 3d
       -0.06433592 0.03075087 -0.013429365 0.115490444
000110 b3 26 b7 bd 0c 0b 9f 3d d7 95 01 3d 06 93 16 3d
       -0.08942928 0.07765779 0.03163704 0.036761306
000120 9f 78 a0 3d dd 39 af 3d 74 1f d1 3d aa 9c b1 3d
       0.07835507 0.085559584 0.10211077 0.086724594
000130 17 d9 01 3a 9d 85 64 3d 70 c1 b3 3c 59 be 97 bd
       0.00049533084 0.055791486 0.021942824 -0.07409353
000140 9b 97 02 3e da bf d0 bd f2 4d d5 3c 60 4a 7a bd
       0.12753145 -0.10192843 0.026038144 -0.061106086
000150 a1 7f b2 3d 3e 67 a4 bc 50 b7 39 bc 3c 59 a2 bc
       0.087157495 -0.020068761 -0.011335209 -0.01981794
000160 b5 9b d7 3c c6 44 f0 3c 30 84 35 ba 4e 1c 21 3d
       0.026319364 0.029329669 -0.00069242995 0.039333634
000170 a8 51 84 3c 82 a9 f0 bc 24 2f b7 bc 89 15 dd 3d
       0.016152218 -0.029377703 -0.022361346 0.10795123
000180 d4 fe 61 bd 85 20 0f 3d ee 7b 20 3c 05 06 ec bd
       -0.055174664 0.034943122 0.009795172 -0.11524586
000190 44 8f 86 bd 60 93 94 bd af 40 93 3d 25 af 86 3d
       -0.065702945 -0.07254672 0.07190072 0.06576375
0001a0 50 27 33 bc ca 46 99 bb f0 dd f3 3c 43 7d 97 3d
       -0.010934666 -0.004677628 0.029768914 0.07396939
0001b0 e4 09 fe 3c 9e 3c 1d 3c 2e 08 f1 3d 0a d0 da 3d
       0.031010576 0.009596972 0.11769138 0.106842116
0001c0 09 5b e3 3d bb 74 3e bd 2c f7 e2 3d a9 8e b5 bc
       0.11101348 -0.04649804 0.110823005 -0.022162752
0001d0 cb c9 48 bd 45 2b 66 bd 3a e6 fd 3c 73 22 0c bd
       -0.04902057 -0.05619361 0.03099357 -0.03421254
0001e0 61 39 dd bd fe 58 3e bc 3b f0 f1 bd 8d 43 45 3d
       -0.1080196 -0.011617897 -0.118133985 0.048160125
0001f0 a1 38 94 bc f3 df d7 bc ec 63 a9 3d 69 72 99 bc
       -0.018093409 -0.026351904 0.08271012 -0.018731313
000200 cc 4f b3 bc 6a 11 41 3d 8a 25 ef 3d 7d 60 d1 3c
       -0.021888636 0.047135748 0.11677082 0.025558705
000210 65 c2 a4 bd 1f ba c9 bc 60 16 09 3d 04 58 08 bc
       -0.0804489 -0.024624882 0.033468604 -0.008321766
000220 62 d6 db bd ee fe 1d 3d e4 29 16 3d 37 70 d0 bc
       -0.1073425 0.038573198 0.036661044 -0.025444133
000230 fb 70 42 3d 57 64 97 bd 82 a2 c0 3d 04 c6 fd 3d
       0.047471028 -0.07392185 0.09405996 0.12391284
000240 3c 44 9f bc 1c b0 78 bd ad 03 02 3e d9 d9 bf 39
       -0.019441716 -0.060714826 0.12696715 0.00036592668
000250 49 1d ad 3d 96 6c 3b bd 0f b1 9b 3d 78 b3 22 bd
       0.08452851 -0.045757852 0.076021306 -0.039721936
000260 12 84 be 3d 77 7c 4a 3d 3d 81 65 bd 02 f0 ad bc
       0.09302534 0.049435105 -0.056031454 -0.021232609
000270 0e cd f8 3d e0 e9 91 3d a7 ad 7b bc 50 19 7c bd
       0.12148486 0.07124686 -0.015361226 -0.061547577
000280 68 8c 83 3c 72 fd 42 3d 19 11 a5 3d 6d 8b 77 bd
       0.016058162 0.047604986 0.08059902 -0.0604357
000290 70 37 5b 3d 7c 9c a0 bd 2c b9 94 3d 10 79 90 3c
       0.053519666 -0.07842347 0.07261881 0.017635852
0002a0 1e 37 9b 3c 10 c2 fb 3c c0 12 a7 3d 6e 5e 85 bc
       0.01894718 0.030732185 0.08157873 -0.01628038
0002b0 dc f2 98 bc 4d a1 2a 3d 1a 80 0c bd 53 72 3e 3d
       -0.018670492 0.041657735 -0.034301855 0.046495747
0002c0 7c bb 13 bd ee f2 c3 3c a4 29 a2 3d f6 21 56 3c
       -0.03606747 0.023919549 0.079180986 0.01306962
0002d0 f0 64 83 3d d0 d7 9f 3b 36 a0 10 be 50 23 17 bd
       0.06415737 0.004878022 -0.14123616 -0.03689891
0002e0 62 57 a1 bd c7 bc be 3b 3c 64 cc bb c6 cc 82 ba
       -0.07877995 0.005820844 -0.006237535 -0.000997924
0002f0 5d 64 d2 3c de aa e4 3b 63 a3 a7 3c ed c5 90 bd
       0.025682623 0.006978377 0.020463651 -0.07069001
000300 3e 82 8b bd 59 94 00 3e b4 50 b2 bd 84 ab 56 bd
       -0.06811951 0.1255659 -0.08706799 -0.052409664
000310 ad 8a a7 3d 98 e1 d4 bd 40 72 e4 3d c1 76 06 bd
       0.08180747 -0.10394591 0.11154604 -0.032828096
000320 96 2b 3f 3c cb fb 90 3d 34 85 5a 3b 6a 5e 89 3d
       0.011668107 0.07079276 0.0033343555 0.06707461
000330 b7 68 69 bd b7 c7 01 be 41 b7 a2 3d 20 68 bb bd
       -0.05698463 -0.12673841 0.07945109 -0.0915072
000340 49 74 0a be 2d 6d f9 3d eb a2 95 3d 4a 39 67 3d
       -0.13520922 0.12179027 0.07306465 0.05645112
000350 0f f1 be bd cc fd aa bc 09 01 9a bd b9 2b 5c bc
       -0.09323322 -0.020872973 -0.07519729 -0.013438159
000360 35 b8 1f bb 02 53 c6 bd 49 49 b7 3d 8e 0e 9f bd
       -0.002437127 -0.09683801 0.08949525 -0.07766448
000370 1f 65 ac bd 47 b9 61 3c 35 c2 17 3d ad d5 f4 3b
       -0.08417725 0.013777084 0.037050445 0.007471761
000380 57 a9 6b bd 4f 1f 23 bd a2 83 c0 bd f9 6b 8b bd
       -0.057534542 -0.03982478 -0.09400107 -0.068077035
000390 0d 4b 08 3e 46 0e 2d bd 34 c8 e0 3d 02 f9 bc 3d
       0.1330988 -0.04224994 0.10975686 0.09227182
0003a0 65 44 b9 3d 62 43 6b bd 37 cc 65 3d ed eb 90 bd
       0.09046248 -0.057437308 0.056102958 -0.07076249
0003b0 a6 f0 45 3d 4a d3 e4 3d 0b 3f a9 3d 64 d6 57 bd
       0.048325203 0.11173113 0.082639776 -0.052694693
0003c0 1f 7f 43 3d 20 42 4a bd 0e eb 31 3d 1e 28 4b bd
       0.047728654 -0.049379468 0.043437056 -0.049598806
0003d0 8e 14 06 3e 71 65 85 bd dd be 67 bd a0 03 b1 bd
       0.13093778 -0.06513489 -0.056578506 -0.086432695
0003e0 77 e7 67 bc df a9 e3 3d 1f fe 51 3d 69 77 c1 3c
       -0.014154307 0.11116385 0.05126774 0.02361651
0003f0 e3 f0 6b bd 11 5b 03 be ef 21 89 bd 87 56 c2 bd
       -0.057602774 -0.12827708 -0.066959254 -0.0948916

rnn.weight_hh_l0 f4 [400, 100]
000000 4f e0 86 3d 4b 3c 67 3d 8c a9 9b 3d a8 5e 27 bd
       0.06585752 0.056453984 0.07600698 -0.040861756
000010 03 77 b3 3d 31 f6 ba bc 40 0a 90 bd 85 ee 90 bd
       0.08762934 -0.022822471 -0.07033205 -0.07076744
000020 cf 11 93 3d 0f 10 ba 3d 7a 1b 11 3d 6d 02 b7 bd
       0.07181131 0.09085094 0.035426594 -0.089360096
000030 5d 38 3f 3c fe 6b 9c bc 1c 3d c9 bd 6c cf 4e bc
       0.011671153 -0.019094463 -0.09826109 -0.012622695
000040 0a 84 86 3c 4d b5 94 3d 51 84 95 3d ba 17 01 bc
       0.016420383 0.07261143 0.07300628 -0.007879192
000050 a6 5a 9a 3d e3 77 32 bd c1 9b 9d bc aa 07 c2 3d
       0.07536821 -0.043571364 -0.019239308 0.09474118
000060 91 6f 38 3c d4 be ab 3d 2a e6 94 3d e9 f0 b6 bc
       0.011257068 0.08386007 0.07270463 -0.022331672
000070 83 12 31 bc 9b ff aa bc 7f 3c 70 bd da f2 5c 3d
       -0.010807636 -0.020873835 -0.058651444 0.05394254
000080 73 96 10 bd 4e a8 44 bc 72 01 cb 3c 51 92 f7 bd
       -0.03529973 -0.012003018 0.024780963 -0.120884545
000090 1c f2 27 bd 34 16 49 bd e7 7a d5 3d ec 41 9c bb
       -0.041002378 -0.04909344 0.104238324 -0.0047686007
0000a0 f1 73 e3 bd 5b 66 a8 bd ad 6b 82 3d ec 6d 1d 3d
       -0.111060984 -0.08222648 0.06368194 0.038434908
0000b0 6d b6 a9 bd 2f 46 6e 3d e1 7b cc bd 3c e2 be 3d
       -0.08286748 0.0581724 -0.099845655 0.093204945
0000c0 30 c8 86 bc 07 42 f6 ba 6b 17 e4 3d ca 5b b3 bd
       -0.016452879 -0.0018787988 0.11137279 -0.08757742
0000d0 42 4f b2 bc 0e ab 94 3d f6 3b a8 3d 42 cf 62 3c
       -0.021766309 0.072591886 0.08214562 0.013843359
0000e0 58 0f 99 bd 04 9f b1 bd 34 dd b7 3c 92 57 e4 bd
       -0.0747363 -0.08672908 0.022444345 -0.11149515
0000f0 a2 e7 bc bd 34 3f c3 3d c4 90 cf 3c 5d 16 85 bd
       -0.09223868 0.095335394 0.025337584 -0.06498406
000100 7d 93 a7 3d 44 1c 25 bc d6 17 bc ba 84 a8 cd bd
       0.08182428 -0.01007754 -0.0014350365 -0.100419074
000110 55 35 79 3c 17 09 80 bc 95 09 86 bd a5 85 6d 3d
       0.015210469 -0.015629334 -0.065447964 0.05798878
000120 7d 16 9c 3c aa f3 97 3d cc 00 a8 3d f5 f7 a3 bd
       0.019053692 0.07419522 0.08203277 -0.080062784
000130 9b 82 a0 bd 7f dd ce 3d 14 d6 f9 bd c1 10 7a bd
       -0.07837411 0.10100841 -0.12199035 -0.061051134
000140 0d 9e 99 3d 23 37 f6 bb b2 fb 60 3c 98 26 1b bd
       0.07500849 -0.007513897 0.013731884 -0.037878603
000150 a9 44 20 3d 7a de 1a bc 11 54 95 bd 89 8c c5 3d
       0.03912798 -0.009452457 -0.07291425 0.096459456
000160 1d 5f d8 ba a9 3d 8e bd 9f 10 c4 bd 2b f7 f1 3c
       -0.0016507838 -0.069453545 -0.09573483 0.029536804
000170 46 bd 80 bd 4f 3f cc 3c 42 1e ca 3c b6 1d a1 3d
       -0.06286101 0.024932532 0.024672631 0.07866995
000180 74 a9 1c bc 98 70 ef bc 40 b9 83 bd aa f5 8d 3c
       -0.009561885 -0.029228494 -0.06431818 0.017329056
000190 b8 32 2b 3d b2 1a ef bd 22 63 04 bd 0e 8a ec bc
       0.041796416 -0.116750136 -0.032321103 -0.028874423
0001a0 fc 09 4b bc 89 49 b3 3c a5 c7 3c 3d ef 09 20 bb
       -0.012392517 0.02188565 0.046088833 -0.0024419983
0001b0 a4 ec d4 3d 1c cb 62 bd c1 df 57 bd 35 9c 3c bd
       0.10396698 -0.05536948 -0.052703623 -0.046047408
0001c0 89 42 01 3e e5 7f 74 3c 2f ba f4 bc e6 ae ef 3c
       0.12623037 0.014923071 -0.029873936 0.029258203
0001d0 14 3c 02 3d e6 34 05 bd b7 74 9a 3b 29 76 e6 bc
       0.031795576 -0.03252115 0.0047136205 -0.028132515
0001e0 15 12 d5 3d 5c bb 53 3d be 9f f0 bd 41 af 91 3d
       0.104038395 0.05169235 -0.117492184 0.07113505
0001f0 eb e1 e1 bb e9 e7 66 bd fd 6e 2f 3d 1d 76 1b 3d
       -0.0068933866 -0.05637351 0.042830456 0.03795444
000200 fb 15 04 be 20 31 bb 3d fe 4d ef bd 77 a3 ce bc
       -0.1289901 0.09140229 -0.11684798 -0.02522443
000210 77 47 d9 ba 3f 33 13 3d a3 bb 5e 3d c8 0d e3 3c
       -0.0016577084 0.035937544 0.054378163 0.027716532
000220 6d 4f c6 3c c1 85 07 3d 54 79 b9 bc 05 2e 7e bd
       0.024207795 0.033086542 -0.022640862 -0.062055606
000230 0f 34 93 bc 01 a6 2a 3c 01 cb 56 bd 1d 83 a2 3d
       -0.01796916 0.010415555 -0.052439693 0.07935164
000240 86 b5 04 be f4 a0 4f bd 01 55 b8 3d 78 ff c7 3d
       -0.1295987 -0.050690606 0.09000588 0.09765524
000250 43 5c 43 3d 58 34 25 bd 98 50 90 bd ef ea 1f 3d
       0.04769541 -0.040333122 -0.07046622 0.03904241
000260 b7 d2 de 3d 32 dc f3 3d 04 92 d7 3d 36 1e 02 3d
       0.108800344 0.11907233 0.10525897 0.031767093
000270 a8 78 00 3e 12 e7 c8 3c 5e ab 17 3d 43 5c 89 3d
       0.12546027 0.024524245 0.037028663 0.06707051
000280 cb bf f9 3d f2 f3 d1 bc 43 ae b1 3d 8b 3a f6 3d
       0.12194785 -0.025629018 0.08675816 0.12022885
000290 5a 50 5f bd 48 74 3c bd 9a 54 c5 bd 72 a4 94 3d
       -0.05451999 -0.046009332 -0.09635277 0.07257928
0002a0 ab 39 d3 3c 2f fc 62 bd 3f 61 58 bd d8 42 3a 3d
       0.025784334 -0.055416282 -0.052827116 0.045473903
0002b0 e2 ac f3 3d 5f 35 84 bd 93 89 22 bd 0f ef 98 bd
       0.11898209 -0.06455492 -0.039681982 -0.07467472
0002c0 8e b1 54 3d 3e 98 9f 3d 27 6e c6 3d 91 6f be 3c
       0.05192714 0.0779271 0.09688979 0.023246558
0002d0 4e af 18 3d 28 d5 cd 3c 80 0c 1b 3c cf 21 7d bc
       0.03727656 0.025126055 0.009463429 -0.015449955
0002e0 8e 58 e7 3c 6f 72 b4 bd 5e 56 5d 3d 13 75 0f 3d
       0.028240468 -0.08810889 0.054037444 0.03502376
0002f0 81 2e 51 bd 62 07 08 bd 5b 63 f3 3d f1 89 78 3a
       -0.05106974 -0.033210166 0.11884185 0.0009481004
000300 ec c0 37 3d fb e6 77 3d ac 3a 92 3b 0e e9 c2 bd
       0.04486172 0.060523015 0.0044625606 -0.09517108
000310 7f 0f f6 bc e9 71 ae bd 04 e7 1d 3d 2a 24 18 3d
       -0.030036686 -0.085178204 0.03855039 0.037143864
000320 96 bd c2 3d a9 2b 89 3d a3 b8 39 3a e8 12 b3 bd
       0.09508817 0.06697781 0.0007084703 -0.087438405
000330 28 20 54 bd d2 be 11 bc ca 37 1f 3d fa 86 62 bc
       -0.05178848 -0.008895593 0.038871564 -0.013826126
000340 03 e2 8a 3d 96 f8 96 bc 1c 41 c2 bc f1 35 71 bd
       0.067813896 -0.018429082 -0.023712687 -0.058889333
000350 65 8c 42 3d 12 8c ce 3a 4c 5d bd bc b4 4c a7 bd
       0.047497172 0.0015758297 -0.023115776 -0.08168927
000360 7a e3 d3 bd 84 3c bc 3d 88 73 4d 3d c0 e0 80 3d
       -0.10346122 0.0919123 0.050159007 0.06292868
000370 21 2d 19 bd 53 66 82 bc ff cf 65 3c 5d 50 df bc
       -0.037396554 -0.015917933 0.014026641 -0.02726
000380 f7 cd 48 3c 05 e7 30 bd 78 54 c6 3d 25 01 8b 3d
       0.012256137 -0.043189067 0.0968408 0.06787328
000390 ac 63 08 bb 82 ee d2 3d 41 17 98 3c b9 62 a9 3a
       -0.0020811362 0.10299398 0.018565776 0.0012923098
0003a0 51 c5 66 3c 40 f8 82 3d 4e 4a b1 bd 63 d3 99 3c
       0.01408513 0.06395006 -0.086567506 0.018777555
0003b0 67 0e 18 3d 76 67 de 3c 77 a6 af bd c3 6b b9 3d
       0.03712311 0.027148943 -0.085766725 0.09053757
0003c0 5e 83 d3 bd e5 19 86 bd 24 bd 88 3d 2a 00 58 bd
       -0.10327791 -0.06547908 0.06676701 -0.05273453
0003d0 16 1a 8f bd aa 9f bc bc eb 9a 18 bd ab cf e6 bc
       -0.069873974 -0.023025353 -0.037257116 -0.028175196
0003e0 ff 4b 70 3c d1 0c 05 3c 8b a2 80 bd 87 1c 8f bd
       0.014666556 0.008120731 -0.062810026 -0.06987863
0003f0 88 44 f7 bc 23 d7 2b 3d b1 15 e1 3d cc 6b 31 3d
       -0.030184045 0.041953217 0.109904654 0.043315694

rnn.bias_ih_l0 f4 [400]
000000 05 70 bd bd 11 92 bc 3d 62 61 24 bd 7a 24 01 3d
       -0.09249882 0.092075475 -0.040131934 0.031528927
000010 86 f9 99 bb 74 49 a6 3c 83 e2 a8 39 71 d6 2a 3d
       -0.004698935 0.020298697 0.0003221222 0.041708414
000020 d0 f2 91 3d 92 76 9f 3d a8 84 8d 3d 07 51 91 bd
       0.07126391 0.07786287 0.06910068 -0.07095533
000030 f0 dd f2 3d 35 bf a6 3d 30 6f f1 3c 83 a8 5a 3d
       0.118587375 0.081419386 0.029471964 0.05338336
000040 35 0d 6b bc ef d5 7a bd 97 95 02 bd fb 2f 0d bd
       -0.0143464105 -0.06123918 -0.03188094 -0.034469586
000050 13 eb 01 3e b2 9a 6c bd d5 b6 c2 3d 21 ee 73 bc
       0.1268733 -0.057764716 0.09507529 -0.014888317
000060 94 06 c9 bc cd 8e 8d 3d 4d 17 98 bd 17 00 67 3d
       -0.02453927 0.06912003 -0.07426319 0.05639657
000070 c4 ac a3 3d 4f f2 ce 3d a4 83 8d bd 4e 90 7f 3c
       0.07991937 0.101048104 -0.06909874 0.01559837
000080 84 e6 a1 3b 33 ba 74 3d b8 72 a8 3c 8d fa a1 3d
       0.0049408097 0.059747886 0.020562515 0.07909117
000090 27 5a 1c 3d 23 0d e3 3b aa a5 d0 3d f1 64 09 bd
       0.038171913 0.0069290563 0.10187848 -0.03354353
0000a0 61 59 c7 bd 8b 86 83 bd a2 0c 6e bd 80 ce f2 bc
       -0.097338445 -0.064221464 -0.058117516 -0.029639482
0000b0 19 59 39 3b 2e 19 37 3b 70 5f f5 bb d6 b7 90 3d
       0.0028281866 0.0027938592 -0.0074881837 0.07066314
0000c0 c8 55 ca 3d a3 ed 46 b9 23 ca a5 3d 68 f5 92 3d
       0.09879643 -0.00018971278 0.08095195 0.07175714
0000d0 f4 2f e4 3c b3 81 fb 3c 62 95 66 3d d4 b3 07 bd
       0.027854897 0.030701494 0.056294806 -0.03313048
0000e0 cc d6 af 3d db 87 73 bd 37 ac be 3d 3f 8c f4 3c
       0.08585891 -0.059455734 0.09310191 0.02985203
0000f0 86 78 63 bd 2f da d0 bb 56 87 77 bc d5 25 3c bd
       -0.055534862 -0.0063736658 -0.01510795 -0.045934517
000100 7d 60 7f 3d 6f 41 aa bb 81 d0 43 bd e1 40 8d 3d
       0.062347878 -0.0051957886 -0.047806267 0.0689714
000110 cb 7e d6 bd 27 6f 96 3d 2d 11 e9 3a 6d 7b 36 bc
       -0.104734026 0.073454194 0.0017781608 -0.011137825
000120 f8 e2 13 3d 59 5a f5 3d 89 9d 31 bd 8c 0b 83 bb
       0.036105126 0.11980123 -0.043363128 -0.003999179
000130 18 79 0f 3c 7a f9 2f 3d 41 23 3d 3b 6e ee 7b ba
       0.008756898 0.04296253 0.0028860124 -0.0009610419
000140 d9 54 d4 3c f1 24 54 bc b1 a2 95 3d a7 36 99 3d
       0.025919365 -0.012948261 0.073064215 0.07481127
000150 ce be bb bc 4d 81 c6 3c d1 c5 6e 3d f0 ab 0f 3d
       -0.022918131 0.024231577 0.05829412 0.03507608
000160 18 1a 6c 3d 4b e0 98 3c d5 ba 6e bd 11 d5 e3 3d
       0.057642072 0.018661639 -0.058283646 0.111246236
000170 6f ba 21 bb fc 70 77 bd ad cd 3f 3c 60 d6 52 bc
       -0.0024677773 -0.060410485 0.011706752 -0.012868494
000180 cb 01 27 bd 73 77 7f bd c9 bd a2 3d 15 89 e5 3c
       -0.040773194 -0.062369775 0.07946355 0.028019467
000190 bc b8 3f 3c 05 dd 1c 3d 7f d5 a0 3b bb f1 8e 3d
       0.011701759 0.03829672 0.004908263 0.069797
0001a0 01 72 b3 bc 04 53 72 bd 4b 25 bb 3d 7a 3a e9 3c
       -0.021904947 -0.0591612 0.091379724 0.028470267
0001b0 9f b6 18 bc 7f 34 15 bd 72 bc db 3d ac fa aa 3d
       -0.009320884 -0.036427017 0.107293025 0.08348593
0001c0 7c 5c 85 bb 47 55 ad 3b 54 bb 59 bd ad 4a ba bc
       -0.004069863 0.005289707 -0.053157166 -0.022740686
0001d0 bd 5c 84 bc 04 a9 9b 3d 70 0a e8 3d 87 be 9a 3d
       -0.016157502 0.076005965 0.11330116 0.075558715
0001e0 46 ac 4a 3d 8d b0 81 bd 83 5b 08 3d 88 c2 d6 bc
       0.0494807 -0.063325025 0.033290397 -0.026215807
0001f0 f0 13 1f bd f4 e7 71 3c 6a 54 52 bd 28 76 6c 3d
       -0.038837373 0.014764775 -0.051350035 0.05772987
000200 c9 fb 8c 3d 9b 53 de 3d 64 a8 34 3d ba 29 91 3d
       0.06883962 0.1085579 0.044105902 0.07088037
000210 fb da 38 bd fe 70 61 bd 5e a5 a5 bd 53 3b 72 3d
       -0.04513071 -0.0550394 -0.08088182 0.059138607
000220 1b af 45 bd 66 a6 89 3d 1c 9e 16 bd 04 db c6 3c
       -0.048262697 0.06721191 -0.03677188 0.024274357
000230 b7 2b 58 3d 82 b7 e7 3d 05 e9 c6 bc 92 d5 8a bd
       0.052776065 0.11314298 -0.024281034 -0.067790166
000240 8d 7c a9 3d fe 54 8a bd f6 85 5f 3d 98 8a 8c bd
       0.08275709 -0.06754492 0.054571114 -0.06862372
000250 ba fe 7c 3c 18 25 30 3d 75 cd 36 3d f8 f5 93 bd
       0.015441591 0.043004125 0.044629533 -0.07224649
000260 b9 bb 94 3d 8e 4c 21 3d f5 5b c7 bd 9b 4a 27 3d
       0.07262368 0.03937965 -0.09734336 0.040842634
000270 af 67 e4 3d d2 f6 2f 3c 49 b1 29 3d db c3 92 bd
       0.111525886 0.010739999 0.041428838 -0.07166263
000280 b1 32 91 bd e5 af ea 3d 8f 02 de 3d 21 4e d1 bc
       -0.07089747 0.114593305 0.10840332 -0.02554995
000290 cb 4f af 3d 4b 2e 86 3d 66 a0 96 bd 77 68 14 bd
       0.08560141 0.065517984 -0.07354812 -0.036232438
0002a0 0d 6a f0 bd 2e 2a 8f 3c a5 c5 95 3d 62 d9 7b bd
       -0.117389776 0.017476168 0.07313088 -0.06148661
0002b0 17 22 db bb cb be 95 3d 7c ec 9e bd 21 f4 95 3d
       -0.0066874134 0.073117815 -0.077599496 0.073219545
0002c0 ae 22 09 bd 5f 69 9e 3d b4 c4 c5 bc 16 4c 3c 3d
       -0.03348034 0.07734942 -0.024141647 0.045971
0002d0 1a e0 8d bd 14 e3 9a 3d 1a 2d 51 bd 1b b6 60 bd
       -0.069275096 0.07562843 -0.051068403 -0.05486117
0002e0 72 a2 cf bb 83 aa 15 3d 26 ae 75 3b a5 55 3c 3d
       -0.0063365037 0.036539566 0.0037487834 0.045980114
0002f0 1d 0a 46 3d ba d7 32 bd 31 02 91 bc dd aa bd 3d
       0.04834949 -0.043662764 -0.01770124 0.09261105
000300 8a 25 db bd 97 dd 9b bc 0e 17 dc bc 48 f7 33 3d
       -0.107005194 -0.01902656 -0.026866462 0.043936998
000310 50 0e 5d bd 70 4b 30 bd 09 66 c8 3c 7a 15 a6 3d
       -0.053968728 -0.043040693 0.024462717 0.08109565
000320 1b be f2 3c 23 c8 86 bd e6 37 42 bd b3 ed 8d 3d
       0.029631665 -0.06581142 -0.04741659 0.06930103
000330 47 0b 12 3d a6 c0 12 3b 58 10 b5 3c 31 0e f7 bc
       0.035655286 0.002239266 0.02210252 -0.030158134
000340 74 c0 0a bd a6 2a 56 bd 06 72 a6 3c ad 56 a5 bd
       -0.033874944 -0.052286766 0.020318042 -0.08073173
000350 76 1c f0 bc 97 01 80 bd 80 41 61 bc 4e 0d 38 3c
       -0.029310446 -0.06250303 -0.013748527 0.011233641
000360 67 99 16 bd 51 7c b9 bd 95 a2 15 3d 9d 39 31 3d
       -0.03676739 -0.090569146 0.036532003 0.043267835
000370 a4 60 a1 bc c4 9f 82 3d da 07 54 bd 87 65 9d bd
       -0.019699402 0.06378129 -0.0517653 -0.076853804
000380 cc 56 1b bd 60 82 a2 bc 96 74 20 bd 92 77 1e 3d
       -0.037924573 -0.019837558 -0.039173685 0.03868825
000390 9f e8 03 3b a5 d4 ad bd b8 75 d1 3d 85 90 67 bc
       0.0020127667 -0.08487824 0.10227531 -0.014133577
0003a0 63 05 9d bd 4d 46 09 bd 0f 8c c3 3d c9 54 3c 3d
       -0.07667043 -0.03351431 0.095481984 0.045979295
0003b0 f8 7d 07 3a 69 c1 82 bd f7 74 3d 3d 7a 2e da 3d
       0.0005168612 -0.06384546 0.046254124 0.10653396
0003c0 a3 d7 ac 3c 30 10 52 3d eb b8 e5 ba 61 4f 7c bd
       0.021098917 0.05128497 -0.0017526423 -0.06159914
0003d0 10 68 8b 3d 5c c9 82 3d 1a 9b 06 3d 93 c5 17 3d
       0.06806958 0.063860625 0.03286276 0.037053656
0003e0 7b c8 21 3c 4f 02 8c bd 7b f3 81 bd 23 b0 b1 bc
       0.009874458 -0.06836378 -0.06345268 -0.021690434
0003f0 ca e5 d9 3c 0c a8 98 3d 18 bc 32 bd 4e 83 71 3d
       0.02659883 0.074539274 -0.04363641 0.058963113

rnn.bias_hh_l0 f4 [400]
000000 86 ce c1 3d 8f c8 48 bd 02 eb 0d 3d 35 38 94 3d
       0.09463219 -0.049019393 0.03464795 0.07237283
000010 11 f8 03 3d 69 91 c3 3d 22 04 fa bb c5 96 3f 3d
       0.032218996 0.09549219 -0.007629887 0.046774644
000020 7d cb 33 3d 98 6c 8c 3d 4c 56 02 bd c6 39 b5 bb
       0.043895233 0.0685665 -0.03182058 -0.005530569
000030 33 76 67 3d cc de 95 bd 83 58 9e 3d 4a 25 8c bd
       0.056509208 -0.07317886 0.07731726 -0.0684305
000040 07 80 ee bb 97 85 dc 3d ae 2f 03 bd 5c c9 56 3d
       -0.0072784456 0.10767668 -0.032027893 0.052438125
000050 7b 3e b4 3d e1 f9 52 3c b3 7d 75 bc 60 a2 a8 bd
       0.0880098 0.012876959 -0.014983582 -0.082340956
000060 20 f1 64 3c 27 9d 42 3c d7 d2 ed 3c d0 e6 d3 bd
       0.013973504 0.011878288 0.0290312 -0.10346758
000070 06 9a 4d bc 02 88 20 3d 62 ed 7f 3d a9 5f a9 3c
       -0.012548929 0.039192207 0.062482245 0.020675497
000080 5a 80 bd 3d ce ff b9 3d 01 a7 9f bd a2 cf e1 3d
       0.09252997 0.09081994 -0.07795525 0.11025931
000090 ec 93 05 bb 09 ed 85 3c a4 b6 98 3c b5 bf 3c 3d
       -0.0020382358 0.016348379 0.018641777 0.046081264
0000a0 57 8d 22 bc a7 5e 52 bc 5b 29 95 bc e4 70 e6 3d
       -0.009921393 -0.01283995 -0.018208196 0.11252001
0000b0 91 65 a7 3b 37 bb 98 3d dc 95 31 bb 97 2a af 3d
       0.005108543 0.074575834 -0.002709738 0.08553045
0000c0 05 96 af bc 12 7f 96 3d 69 e5 a5 bc 02 6a 08 bd
       -0.02143384 0.073484555 -0.020250993 -0.033304222
0000d0 17 47 dc bc 23 4b 88 bc 7e 56 25 3d 23 46 80 bd
       -0.026889367 -0.01663739 0.04036569 -0.062633775
0000e0 92 4a 8f 3d 8e 0f 91 bd 12 62 94 bd d5 f0 65 3d
       0.06996645 -0.07083045 -0.07245268 0.05613788
0000f0 6a 89 41 3c 13 56 b8 3d 10 a9 c1 3d b7 38 39 3d
       0.011812547 0.09000792 0.09456074 0.045220103
000100 3e 69 b0 3d d3 29 88 bd 7c 1e 69 bd 3f 7e a0 3b
       0.08613823 -0.06648602 -0.056913838 0.004897862
000110 54 d2 5f 3c b0 22 91 bd d7 57 cb bd a1 d3 3c bd
       0.013660986 -0.07086694 -0.099288635 -0.046100263
000120 df 1a a3 3d c2 f6 8c 3d b3 f2 9b bd 33 e8 f5 3d
       0.0796411 0.06883003 -0.076146506 0.12007179
000130 b0 be a0 bc 71 a4 aa bc f3 f2 4d bb 1f ed 6e 3d
       -0.019622177 -0.020830365 -0.0031425327 0.058331605
000140 43 be 49 3d 93 3e 80 bd 7d fe b0 bc bd b0 7c bd
       0.049253713 -0.06261935 -0.021605724 -0.06169199
000150 64 11 40 bd 5d d5 c2 bc 05 bf b5 3c 1d b7 82 bd
       -0.046891585 -0.02378338 0.022185812 -0.06382582
000160 22 43 20 bd 61 7e 8b bc f9 ed bc 3c 90 aa 84 3d
       -0.039126523 -0.017028036 0.023062693 0.06477845
000170 95 83 ba bd 1d a8 8c 3d d8 d5 a1 bc 66 b1 48 bd
       -0.091071285 0.068680026 -0.019755289 -0.048997305
000180 17 66 46 bd d1 2f b2 bd c6 a2 70 3d f0 16 01 3d
       -0.048437204 -0.087005265 0.058748983 0.031516016
000190 43 58 65 3d f8 31 b6 bd 43 62 31 3c f0 23 c3 3d
       0.055992376 -0.088962495 0.01082665 0.09528339
0001a0 14 bf 7f bd 81 85 e2 3d 61 71 00 3d 0d c0 90 bd
       -0.062438086 0.1106062 0.031358127 -0.07067881
0001b0 0b b1 c1 3d 05 50 eb 3d 6a bf 5a 3c b4 82 ba 3d
       0.094575964 0.11489872 0.013351301 0.09106961
0001c0 d3 1f 06 3d e7 d3 0e bd 65 c8 60 bd 29 c9 82 3c
       0.032745194 -0.034870055 -0.05487861 0.015965061
0001d0 12 f7 8a 3d 7a af 93 bb 73 df d4 3d 0c 7c dd 3c
       0.06785406 -0.0045070024 0.10394182 0.02703669
0001e0 dc 7a 87 bd 2e 38 b8 bd 00 d4 6e bd e7 fc cd bd
       -0.066152304 -0.089950904 -0.058307648 -0.10058003
0001f0 0b af d7 3c 9b 35 3a bd ce f0 06 bd cd d7 a4 bd
       0.026328584 -0.04546128 -0.032944493 -0.08048973
000200 f2 ce 0d 3d 4b dd 8d bd d4 ad 5b 3d 68 aa b3 3d
       0.034621187 -0.06926974 0.053632572 0.08772737
000210 83 19 91 3d a6 8a 2c bd 86 1f a3 bd 9a aa 6b 3d
       0.07084944 -0.042124413 -0.07964997 0.057535745
000220 02 5f 4a 3d 60 94 71 3d 75 57 0c 3d 18 c4 39 bd
       0.049407013 0.058979392 0.034263093 -0.045353025
000230 8f 08 9d bd ff 63 ad 3d 6a bf 8b 3d 84 fd a9 3d
       -0.07667648 0.08466338 0.06823619 0.083003074
000240 4b ea 22 3d d8 76 c8 3c a0 52 45 3d d0 d6 e3 3c
       0.03977422 0.024470732 0.0481745 0.027812392
000250 02 b0 7e 3d 1f 73 bc 3d e2 df 2e 3b 63 80 94 3d
       0.062179573 0.09201645 0.0026683738 0.0725105
000260 10 1b cb bc 8a 64 b3 3d 88 6c 83 bd 93 dd b0 3d
       -0.024793178 0.08759411 -0.06417185 0.08636012
000270 2f bf 4e bd 9d 7c aa 3d 1c 28 a3 bd 6a 6e 21 3c
       -0.050475296 0.08324549 -0.07966635 0.009852985
000280 5b 0f b3 3d 0f 0c 1a 3d 1e 32 9d 3b 3f c1 9d bd
       0.08743163 0.037609156 0.004797234 -0.077028744
000290 61 62 89 3b bd 07 6a bd 9d bb 76 3c 65 64 b8 bc
       0.004192636 -0.057136286 0.015059379 -0.02250881
0002a0 a0 99 69 3d 3c 1a af 3c 42 de 15 3d 79 ee 15 bd
       0.057031274 0.021374814 0.036588915 -0.03660438
0002b0 c2 23 16 3c e3 bf fd 3c 13 90 06 bd 0b d8 8f bc
       0.009163799 0.030975288 -0.032852244 -0.017559072
0002c0 4b 29 fb bc e0 44 b3 3c a7 c6 c0 bc e1 4a 61 bd
       -0.030659338 0.021883428 -0.023532225 -0.05500305
0002d0 5b 6c ab 3c 0b 14 ce bc a9 09 7c 3d 64 67 e0 bc
       0.020925691 -0.025156042 0.06153265 -0.02739305
0002e0 2b 0c 06 bc 26 a0 a0 bd 4d 55 b7 bb 02 1f 2d bd
       -0.008181612 -0.07843046 -0.0055948854 -0.0422659
0002f0 af fd 41 bc 59 70 8e bc d7 b7 c6 3d 25 fb 06 bb
       -0.011840268 -0.017387556 0.097030334 -0.002059647
000300 c6 c1 47 bb 1e 01 1d bd 59 04 22 bb 7e 5e c8 3d
       -0.0030480488 -0.038331144 -0.002472183 0.09783648
000310 5c 98 ea bc 9f e1 e4 bd ad ce 9c 3d 88 bb 55 3d
       -0.028637104 -0.11175846 0.07656608 0.052180797
000320 22 78 c2 bc 20 53 8b bd 7b 12 a7 bd 95 f6 a3 bc
       -0.023738924 -0.06802964 -0.08157822 -0.02001504
000330 55 d9 87 3d 0e 07 26 bd 61 56 c4 3d d1 4d 1d bd
       0.0663325 -0.04053407 0.09586788 -0.03840429
000340 57 36 4c 3d c9 f7 82 bd 10 ed b1 bd 41 4e 41 bd
       0.04985651 -0.063949175 -0.08687794 -0.04719377
000350 16 43 fc 3b 9d 40 80 bc 1f 84 9d bd b6 2e 13 3c
       0.007698427 -0.01565581 -0.07691216 0.008983305
000360 41 49 6d 3d f0 c5 b6 bc 35 77 89 bd 49 b8 b2 bd
       0.05793119 -0.02231118 -0.0671219 -0.08726556
000370 ff 7d 8b 3d c7 27 82 3d 3d 67 51 bd d7 01 44 bd
       0.06811141 0.06355243 -0.051123846 -0.047853317
000380 3c 35 5b 3d 98 04 6a 3d 3a 70 1c bd c8 07 b7 3d
       0.053517565 0.057133287 -0.038192965 0.08937031
000390 b9 c3 b6 3d e9 2c 74 3d e7 a4 03 3d 97 70 c4 3d
       0.0892405 0.059613142 0.032139685 0.09591787
0003a0 a7 25 20 bd ee 6d ad 3d c3 7a 0d 3d 7a d4 9a 3c
       -0.039098408 0.08468233 0.034540903 0.018900145
0003b0 29 5f 46 3d b1 68 cf 3c 63 c2 4d bd a3 70 9b bd
       0.048430596 0.025318475 -0.05023421 -0.07589843
0003c0 67 86 d5 bd 88 23 1b bc a5 5b b6 3b 28 7a 15 3d
       -0.10426026 -0.0094689205 0.005565124 0.03649345
0003d0 c2 03 19 bd 43 74 66 3d 1f 61 9c bd 67 33 74 bd
       -0.0373571 0.05626322 -0.07635712 -0.059619334
0003e0 97 89 8e bd 71 06 c1 3d bd 02 ac bd 0d 01 ce 3d
       -0.06959837 0.09425057 -0.0839896 0.10058794
0003f0 15 0a f5 39 d3 a5 ce 3c 57 2b 22 bc 69 24 88 3c
       0.00046737553 0.025225556 -0.009898028 0.016618924

linear.weight f4 [1, 100]
000000 df f0 b8 bd 50 75 c8 3d 84 ca af 3d 10 bb d3 bb
       -0.090303175 0.097880006 0.08583549 -0.0064615086
000010 4f 39 aa bd 9e 76 b3 bd 19 d1 fe 3d 4e 0a a7 bc
       -0.08311712 -0.08762859 0.12442226 -0.020390656
000020 cb f1 49 bd 72 44 35 3d 99 36 bf 3d 1e 45 88 bd
       -0.049302857 0.044254728 0.093365856 -0.06653808
000030 f4 86 d4 bd 87 c2 76 bb 88 11 05 be 38 31 b5 bd
       -0.10377303 -0.0037652568 -0.12994969 -0.08847278
000040 aa 96 95 bd 0d 67 e4 bd ea d0 de 3d 30 6a 5b 3c
       -0.073041275 -0.11152468 0.10879691 0.013392016
000050 57 9f 81 bd 08 f4 55 bd 95 a7 b3 3d 13 b3 81 3d
       -0.0632922 -0.05223468 0.08772198 0.06332984
000060 ff 23 35 bd 0e 15 d3 3c 9e 7b f6 bd f7 cf a8 3c
       -0.04422378 0.025766876 -0.12035297 0.020606978
000070 e3 e5 5c 3d af 69 a0 bd 73 b2 73 3d 8e 56 ae 3d
       0.053930175 -0.078326575 0.059496354 0.08512603
000080 46 1a 82 3d bb 3b 96 3d c1 a9 db 3d e1 1d 01 be
       0.063526675 0.073356114 0.10725737 -0.12609054
000090 7a 7b 4a bd 6b b0 e3 3d 66 6f 05 3e 91 40 3d 3c
       -0.049434163 0.111176334 0.13030776 0.011551038
0000a0 37 15 96 bd fb e8 ed bd c6 63 9c 3d 14 bc e5 bc
       -0.07328265 -0.11616703 0.07636218 -0.028043784
0000b0 b3 6a b0 3d 2c b9 a9 bd f1 21 06 be dc da 0a bd
       0.08614101 -0.08287272 -0.13098885 -0.033900127
0000c0 56 60 c7 bc e0 39 f5 3d df 84 fc 3d fb 0f c8 3d
       -0.024337929 0.119739294 0.12330031 0.09768673
0000d0 be 30 5c bd c9 8e 9b bd 79 79 92 3d 67 67 a3 bc
       -0.05375742 -0.075955935 0.07152075 -0.019946767
0000e0 ac 40 ba bd c0 51 7f bd 56 2e 2c bc bd b1 ee bd
       -0.090943664 -0.062333822 -0.010509094 -0.11654995
0000f0 87 20 fc bd 79 9a d8 3d 61 79 4c bd d0 48 a6 bd
       -0.123108916 0.10576338 -0.049920443 -0.08119357
000100 ee 79 ed bd eb 95 c0 bd 47 82 30 3d db d1 f3 bd
       -0.11595522 -0.094035946 0.043092992 -0.11905261
000110 a0 b1 f6 3c d7 c9 22 bd 95 b8 70 bc 48 37 e2 bb
       0.030113995 -0.03974327 -0.014692445 -0.0069035627
000120 6d 8b 9b bd 71 28 e6 3d af 87 a2 bd 7f e5 71 3d
       -0.07594953 0.11238182 -0.07936036 0.059056755
000130 5b d3 91 3d 95 f7 8b 3d c9 6e 95 bd 59 23 6d bd
       0.07120391 0.06834332 -0.07296521 -0.05789504
000140 12 c8 ee 3d 6c d9 5c bd 01 d6 fe bd 8d 3a 37 3c
       0.11659254 -0.053918287 -0.12443162 0.011183393
000150 1a 19 f7 3d 1a a0 73 3d 1b 19 dc bd 09 7b 37 3d
       0.120653346 0.059478857 -0.10746976 0.04479507
000160 28 c2 a6 bd af 7b 1d 3d 79 5b 9e bd 37 57 08 3d
       -0.08142501 0.038448032 -0.07732291 0.0332863
000170 df 4d 03 3d 7e 5f d6 bd 2b 07 24 bc 8a 00 7e 3d
       0.032056686 -0.104674324 -0.010011475 0.062012233
000180 a8 a0 07 3e 6e d2 a1 bd 77 5a d9 bd 48 ad d2 bc
       0.13244879 -0.079014644 -0.10612958 -0.025717393
