backend/trained_models/SBL_GRU_model_state_dict.pth (torch, 607226 bytes, 9 tensors)

rnn.weight_ih_l0 f4 [384, 5]
0	0xbd0aeb46	-0.03391578
1	0x3da03c86	0.07824044
2	0x3d896837	0.067093305
3	0x3d46af93	0.048507284
4	0x3d221cf6	0.0395784
5	0xbd4a92d1	-0.04945642
6	0xbd9baa56	-0.076008484
7	0x3cc09f23	0.023513382
8	0x3c9ffe96	0.019530576
9	0x3d8e2fad	0.06942687
10	0x3c7274d1	0.014798359
11	0xbd42867b	-0.04749153
12	0x3d0acdba	0.033887602
13	0x3d9d0e9f	0.076688044
14	0xbd1c51a1	-0.038163785
15	0xbce2fae5	-0.027707526
16	0xbd01f414	-0.03172691
17	0x3d2742e7	0.040835287
18	0xbbc0448b	-0.005867546
19	0xbcc89610	-0.024485618
20	0x3d34169f	0.043966886
21	0x3bb76be7	0.0055975798
22	0xbd1f5129	-0.03889576
23	0xbd753086	-0.05986073
24	0x3daed28b	0.08536252
25	0x3d5ab490	0.053394854
26	0x3c373f0c	0.011184465
27	0x3d30b6ef	0.04314321
28	0xbdd283aa	-0.10279019
29	0xbb7b1b5d	-0.003831587
30	0x3ccc2929	0.02492197
31	0x3d3c6851	0.04599792
32	0x3cf69e7c	0.030104868
33	0x3d8b6863	0.068070196
34	0x3d267825	0.040641923
35	0x3d995699	0.0748722
36	0xbd75e44c	-0.060032174
37	0xbc1047c6	-0.008806175
38	0x3c895ea8	0.016768768
39	0xbd2a4e34	-0.041578487
40	0x3d10be72	0.035337873
41	0x3ccf4ac0	0.025304198
42	0xbc3b817b	-0.011444445
43	0xbc43e9c8	-0.011957593
44	0xbd7c1a47	-0.061548498
45	0xbd41d865	-0.04732551
46	0x3d871989	0.06596667
47	0x3d0a8667	0.033819582
48	0x3d0638e3	0.032769095
49	0xbd2b92cf	-0.041888054
50	0x3cfe69de	0.03105634
51	0xbc04fe21	-0.00811723
52	0xbd3ae837	-0.045631614
53	0xba158ba4	-0.0005704707
54	0xbd0a0964	-0.03370036
55	0x3ce27364	0.027642913
56	0x3d944467	0.07239609
57	0x3bda5773	0.006663257
58	0x3c9f0722	0.01941258
59	0xbb9563b5	-0.004559005
60	0x3d79a4a3	0.060948025
61	0x3d9238ee	0.07139765
62	0x3d4514b7	0.04811546
63	0xbcbcb0b5	-0.02303348
64	0x3c87bf3e	0.016570684
65	0x3de07b09	0.10960967
66	0x3d6ef8f1	0.058342878
67	0x3d9287f8	0.0715484
68	0x3dd643dc	0.10462162
69	0x3c6a10ce	0.014286233
70	0xbdcc771d	-0.099836566
71	0x3d5bf68e	0.05370193
72	0x3d5cb32c	0.05388181
73	0xbc30acaa	-0.010783354
74	0x3de44258	0.111454666
75	0x3d802ee3	0.06258943
76	0xbd5bca97	-0.05366
77	0xbce75fa3	-0.028243845
78	0x3d84426b	0.06457981
79	0xba9d436c	-0.0011998243
80	0x3d5d357a	0.054006077
81	0x3dc88b83	0.09792235
82	0x3dc13489	0.094338484
83	0xbc20ee0e	-0.009822382
84	0x3d37be69	0.044859324
85	0x3dcf5baf	0.10124909
86	0x3cbc41b7	0.022980554
87	0x3d4a3d57	0.049374904
88	0xbd1f9f0d	-0.038970042
89	0xbd79e57a	-0.06100986
90	0x3ddfadad	0.10921798
91	0xbd660c06	-0.05616381
92	0x3d3437c5	0.0439985
93	0x3d430da0	0.047620416
94	0xbd89b172	-0.06723298
95	0x3dd320a7	0.10308962
96	0x3c81769f	0.015803633
97	0xbd920b01	-0.07131005
98	0x3ca89c8e	0.020582464
99	0x3da775aa	0.081767395
100	0xbcdbd230	-0.026833624
101	0x3db0493d	0.08607719
102	0x3dbed0a3	0.09317138
103	0x3dca4f82	0.09878446
104	0xbb263e92	-0.0025366885
105	0x3de4738f	0.111548536
106	0x3d410f4c	0.04713373
107	0x3da42af2	0.08016004
108	0x3bd825a2	0.006596283
109	0x3ca33e9a	0.019927312
110	0x3bbe2c7e	0.0058036437
111	0xbd001f6a	-0.03127996
112	0x3cd2a860	0.025715053
113	0x3d3870fe	0.045029633
114	0xbb6c299f	-0.003603555
115	0x3ca26767	0.019824697
116	0x3dae6068	0.08514482
117	0x3d62e1b0	0.055391014
118	0x3c98dd09	0.018660085
119	0x3da3bd3f	0.0799508
120	0xbc33151a	-0.010930324
121	0x3ceb088c	0.028690599
122	0x3d1331dc	0.03593622
123	0xbcec5065	-0.028846929
124	0xbc491597	-0.012273214
125	0x3dc4baa3	0.09605911
126	0xbd7424c0	-0.05960536
127	0xbce1217b	-0.027481785
128	0x3d3491f7	0.044084515
129	0xbc7333b8	-0.014843874
130	0xbadbd876	-0.0016772884
131	0x3d12b963	0.03582133
132	0x3d79dbce	0.061000638
133	0xbd83a8e3	-0.06428697
134	0x3cf4dac8	0.02988948
135	0x3d4df8a6	0.050285958
136	0xbd738a04	-0.059457794
137	0x3c3ff578	0.011716239
138	0x3bb63581	0.0055605774
139	0xbbb80f43	-0.0056170537
140	0xbd7c9af7	-0.061671223
141	0xbd427878	-0.04747817
142	0x3b4b0433	0.0030977845
143	0x3d42e89f	0.047585126
144	0x3ca7c261	0.02047843
145	0xbd7434ff	-0.059620854
146	0x3b50a9a6	0.00318394
147	0xbd206fff	-0.039169308
148	0xbde842f4	-0.11340895
149	0x3d367fd5	0.044555504
150	0xbd350705	-0.044196147
151	0xbca32cbb	-0.01991879
152	0xbc54b4c3	-0.01298255
153	0xbe001d9d	-0.12511297
154	0xbce58f8a	-0.028022546
155	0xbd1d9aaa	-0.038477577
156	0x3d8396ed	0.06425271
157	0xbd2cdf93	-0.042205404
158	0x3dba8af8	0.091085374
159	0x3d84ff67	0.06494027
160	0xbdc9121b	-0.098179065
161	0x3c5d6929	0.013513842
162	0xbcca1a5c	-0.024670772
163	0x3c0614d1	0.008183674
164	0x3d0da1cc	0.03457813
165	0x3d193036	0.037399493
166	0x3cf7f256	0.030266922
167	0xbd3c1e1f	-0.045927163
168	0x3da6cb37	0.08144229
169	0xbc884f03	-0.016639238
170	0x3d8333d5	0.064063706
171	0x3d25d89e	0.040489785
172	0xbd3b9339	-0.0457947
173	0x3b850c8f	0.004060335
174	0xbda16761	-0.07881046
175	0xbd80dc53	-0.062920235
176	0x3cc52c3a	0.02406894
177	0x3cb8910a	0.022530098
178	0x3b2279ac	0.002479176
179	0x3d45df28	0.04830852
180	0x3d84407b	0.06457611
181	0x3d90cc8f	0.070702665
182	0x3d7afc73	0.06127591
183	0x3dcc7e6b	0.0998505
184	0xbc010164	-0.007873867
185	0x3dcd4cd8	0.100244224
186	0x3d3fdb59	0.046840046
187	0x3c4b5b73	0.01241194
188	0x3bf4b5a4	0.0074679423
189	0x3c9a437c	0.018831007
190	0x3cc7e7d3	0.024402535
191	0xbda1f290	-0.07907593
192	0x3b5b9801	0.003350735
193	0x3da7085a	0.0815589
194	0xbd25e438	-0.04050085
195	0xbc80e251	-0.015732916
196	0x3d82dc91	0.06389726
197	0x3cb7649e	0.022386845
198	0xbdc80092	-0.09765734
199	0x3c24ce06	0.010058885
200	0xbdb817e6	-0.08988933
201	0x3daaea27	0.08345442
202	0xbc4af62f	-0.012387796
203	0xbd4a3577	-0.049367394
204	0x3c7642b2	0.01503055
205	0x3c643435	0.013928463
206	0xbd055876	-0.032555066
207	0x3cbdfb12	0.023191009
208	0x3d8409b2	0.06447162
209	0x3d0a27d4	0.03372939
210	0x3d0f475f	0.034980174
211	0x3c05ca31	0.008165882
212	0x3d2ce732	0.042212673
213	0x3b9a0134	0.0046998505
214	0xbbc8715c	-0.006117029
215	0xbd918c67	-0.07106858
216	0x3be18a0f	0.006882913
217	0xbdaf6eec	-0.085660785
218	0xbd4b054b	-0.049565595
219	0x3d391033	0.045181464
220	0xbb1bdda7	-0.0023783238
221	0x3cc0d977	0.023541195
222	0xbd89fcae	-0.06737648
223	0xbccf0d04	-0.025274761
224	0x3da4a044	0.08038381
225	0xbd1b81d4	-0.03796561
226	0xbd8227af	-0.06355225
227	0x3c724a0c	0.014788162
228	0xbdabf2f4	-0.08395949
229	0xbb50aed3	-0.0031842485
230	0x3ca0be4b	0.019621989
231	0x3cf8b24a	0.030358452
232	0x3dacfa13	0.08446135
233	0xbcd058ac	-0.025432907
234	0x3dbea1c4	0.09308198
235	0x3d4ed459	0.05049548
236	0xbd8a3950	-0.06749213
237	0xbbc37991	-0.0059654196
238	0xbdc3a2bd	-0.09552524
239	0xbd4e8bcb	-0.050426286
240	0xbd698a50	-0.05701667
241	0xbd371fb1	-0.044707958
242	0x3d83ec98	0.06441611
243	0x3d5ae21c	0.05343829
244	0x3d556937	0.052102294
245	0x3d7d9bf6	0.061916314
246	0x3d85efab	0.06539854
247	0x3c17cfb7	0.009265832
248	0x3dd59a2e	0.10429798
249	0xbb6e9363	-0.0036403767
250	0x3dbe5b0a	0.09294708
251	0xbcb60d42	-0.022223119
252	0x3cb8123d	0.022469634
253	0xbcc35b1f	-0.02384716
254	0xbd8a594e	-0.06755315
255	0x3dbeefe4	0.09323099

rnn.weight_hh_l0 f4 [384, 128]
0	0x3d163aa2	0.03667701
1	0xbcabfc02	-0.02099419
2	0x3b0d2476	0.0021536625
3	0x3db107e4	0.08644083
4	0x3d1c5f9e	0.038177125
5	0x3d15c06a	0.036560453
6	0xbb0b9f9b	-0.002130485
7	0xbd89789a	-0.06712456
8	0x3dd29000	0.10281372
9	0x3d2ad581	0.04170752
10	0xbc16e3cb	-0.0092095835
11	0x3d813e07	0.06310659
12	0xbd376e04	-0.044782653
13	0xbba4f0df	-0.005033597
14	0x3b1c8202	0.0023881202
15	0xbc0543c6	-0.008133834
16	0x3d6fff3c	0.05859302
17	0xbc45ceb5	-0.012073209
18	0x3d5f0c0b	0.054454844
19	0xbc4151a2	-0.011799248
20	0x3d295409	0.041339908
21	0xbe011974	-0.12607366
22	0x3d6f655f	0.058446284
23	0x3d13af70	0.036055982
24	0x3c8d10f3	0.017219996
25	0xbc8522e9	-0.016251998
26	0x3ba6cd96	0.0050904257
27	0x3daf8517	0.08570307
28	0xbdb496fb	-0.0881786
29	0x3ca1bb1a	0.019742537
30	0x3c9f06a3	0.019412344
31	0xbd21e0a2	-0.039520867
32	0x3d90bc17	0.07067125
33	0xbd82eca1	-0.0639279
34	0x3d37c0f5	0.044861753
35	0x3d76b40f	0.06023031
36	0xbcd3c5d6	-0.025851171
37	0x3d3560e5	0.04428186
38	0x3e04a8a6	0.1295496
39	0xbc49735f	-0.012295573
40	0x3a1eef9f	0.0006062928
41	0xbcb37379	-0.021905648
42	0xbd4d16c5	-0.050070543
43	0xbd4e906f	-0.05043071
44	0x3d38f884	0.045158878
45	0x3d96b32a	0.073583916
46	0x3c398fec	0.011325818
47	0xbda2279d	-0.07917712
48	0xbdd00a30	-0.10158193
49	0xbddadbc9	-0.10686452
50	0xbb2adc66	-0.002607131
51	0xbd51824c	-0.05114965
52	0xbd5b2b04	-0.05350782
53	0xba08291b	-0.00051941135
54	0xbd298a34	-0.041391566
55	0x3c832acd	0.01601162
56	0x3c9085f7	0.017642004
57	0xbc523aae	-0.012831373
58	0x3dd045f3	0.10169592
59	0xbd486320	-0.048922658
60	0x3dbdcd82	0.09267713
61	0xbd934c72	-0.07192315
62	0xbd237ba1	-0.039912824
63	0x3d95459f	0.0728867
64	0x3ce2e644	0.02769769
65	0xbd9bba37	-0.07603877
66	0x3d0a1292	0.033709116
67	0x3d3bc8ae	0.04584568
68	0xbd05b5ff	-0.032644268
69	0x3d29c6f4	0.041449502
70	0x3d4527e3	0.048133742
71	0x3c8c541b	0.017129948
72	0x3cc565b3	0.024096346
73	0x3d33593d	0.043786276
74	0xbd8531f2	-0.06503667
75	0xbc9ca933	-0.01912365
76	0x3dd3e9d4	0.103473336
77	0x3cb90adb	0.022588184
78	0x3d527214	0.051378325
79	0xbc188d24	-0.009310994
80	0x3ddc7694	0.107648045
81	0x3df41c85	0.11919502
82	0x3c73ebd6	0.014887771
83	0x3d277e66	0.040892027
84	0xbcf5f641	-0.03002465
85	0xbdbefaf2	-0.09325208
86	0xbd15187c	-0.036400303
87	0xbd2204dc	-0.039555416
88	0x3c843665	0.016139219
89	0xbdf9b78a	-0.121932104
90	0xbc09b7f5	-0.008405675
91	0x3b8eeb21	0.0043615256
92	0xbd11af25	-0.03556742
93	0xbd8e838e	-0.06958686
94	0xbd339834	-0.043846324
95	0xbcb7eda0	-0.022452176
96	0x3c22a40c	0.009926807
97	0x3d6b06c6	0.057379507
98	0x3d6f4a17	0.058420267
99	0x3ca61b3f	0.020276664
100	0x3df650c6	0.12027125
101	0x3bc18a86	0.005906406
102	0x3df1b781	0.11802579
103	0xbd2100e2	-0.039307483
104	0x3c6a755f	0.01431021
105	0xbcf54e6c	-0.029944621
106	0xbdcfa901	-0.10139657
107	0x3bd39be3	0.006457792
108	0x3ca5d60f	0.020243673
109	0x3d8ade88	0.06780726
110	0xbcf94018	-0.03042607
111	0x3d92483d	0.071426846
112	0xbc9d14d9	-0.01917498
113	0xbbc8ce3b	-0.0061281
114	0xbdef0118	-0.116701305
115	0x3d1ae9d5	0.037820656
116	0xbcf98504	-0.030458935
117	0xbc09af37	-0.008403591
118	0x3c5e6823	0.013574633
119	0xbda66bbc	-0.081260175
120	0x3d909a2b	0.07060655
121	0x3b832007	0.0040016207
122	0x3d24aa76	0.040201627
123	0xbc9b4b99	-0.018956946
124	0x3dcc5f0b	0.099790655
125	0xbd763ae5	-0.06011476
126	0xbd9768dc	-0.07393047
127	0x3ccf50cc	0.025307082
128	0x3d27ba71	0.04094929
129	0x3d59ce7d	0.05317544
130	0x3d846f04	0.06466487
131	0x3c9dfa0a	0.019284267
132	0x3c0f4e61	0.008746714
133	0x3cc83ae9	0.024442153
134	0xbd1640fc	-0.036683068
135	0xbb2eed5d	-0.0026691773
136	0xbccc2ed2	-0.02492467
137	0xbda798fa	-0.08183475
138	0xbc4911ac	-0.01227228
139	0xbd7a2ff4	-0.061080888
140	0xbdc8634f	-0.097845666
141	0xbd98cbf5	-0.07460777
142	0xbd76da6b	-0.060266893
143	0x3d40cfd6	0.047073208
144	0xbd9aa73b	-0.07551428
145	0x3d83cb5c	0.06435272
146	0xbd58eec6	-0.052962087
147	0xbd045589	-0.032308135
148	0x3c4ba815	0.012430211
149	0x3c092264	0.008370016
150	0x3deb2133	0.114809416
151	0x3dc20945	0.09474424
152	0x3daa4c95	0.08315388
153	0x3dacdaea	0.08440192
154	0xbd836c77	-0.064171724
155	0x3c4ac0dd	0.012375084
156	0x3cb7cc25	0.02243621
157	0xbda987cf	-0.082778566
158	0x3d9a20a1	0.07525755
159	0x3d023865	0.031792063
160	0x3d56213f	0.0522778
161	0x3ba9d7ad	0.0051831813
162	0x3d5f950f	0.054585513
163	0xbd977632	-0.07395591
164	0xbcf2a7b3	-0.02962098
165	0xbd14c4de	-0.03632056
166	0x3bbc8dee	0.005754224
167	0x3d5699af	0.052392658
168	0xbd84a516	-0.064768
169	0xbc92d922	-0.017925803
170	0xbce638a3	-0.028103178
171	0x389c505a	7.453626e-05
172	0xbd5d3cfd	-0.05401324
173	0x3b5cfeb9	0.0033721162
174	0xbd24c280	-0.040224552
175	0xbc79899d	-0.0152305635
176	0x3cce7ed1	0.025206955
177	0x3c3d314f	0.011547401
178	0xbd795c59	-0.060879085
179	0x3ccd54b9	0.025064813
180	0xbda047de	-0.078262076
181	0x3c055589	0.008138069
182	0x3d1eb470	0.038746297
183	0xbbe560fd	-0.0070000873
184	0x3d3519c1	0.044214014
185	0x3cf499f8	0.029858574
186	0x3d24da1d	0.04024707
187	0x3c9d51d2	0.019204054
188	0xbdd34f79	-0.103178926
189	0x3d51ccef	0.05122083
190	0xbda5687a	-0.08076568
191	0x3d20f257	0.039293613
192	0x3db6ffed	0.08935533
193	0xbce8b850	-0.0284082
194	0xbd4f1130	-0.0505535
195	0x3d299052	0.0413974
196	0xbc92343a	-0.01784717
197	0x3d2bb989	0.041924987
198	0x3d0fd797	0.035117712
199	0xbc240e6c	-0.010013204
200	0x3cacf171	0.021111222
201	0xbd9c486a	-0.076309994
202	0xbd1d6724	-0.03842844
203	0x3d7b444a	0.061344422
204	0x3cc30f0b	0.023810884
205	0xbcddb088	-0.027061716
206	0x3d7f21ef	0.06228822
207	0x3d0b0866	0.033943556
208	0xbdfdc228	-0.12390548
209	0xbd01cd91	-0.031690184
210	0x3d03adaf	0.03214806
211	0x3db7abe1	0.0896833
212	0xbc5bd06a	-0.013416389
213	0x3d5c64d9	0.053807113
214	0x3d6cd6ad	0.05782192
215	0x3c655070	0.013996229
216	0x3db7daf4	0.08977309
217	0xbd110e66	-0.035414122
218	0x3c696b27	0.0142467385
219	0xbc8bf10a	-0.01708271
220	0x3d81c78e	0.0633689
221	0x3dba0e37	0.090847425
222	0x3d1efff0	0.0388183
223	0x3da9eb33	0.08296814
224	0xbc41e09d	-0.011833337
225	0xbd3b69e2	-0.045755275
226	0x3c8b2099	0.016983317
227	0xbd990c96	-0.07473104
228	0xbde141a5	-0.10998849
229	0xbcc16e64	-0.023612209
230	0xbd56d8e6	-0.052452944
231	0xbda8b4f1	-0.08237637
232	0x3de55e49	0.11199624
233	0x3d8e109e	0.06936763
234	0x3c4fa9a7	0.012674726
235	0x3d536f76	0.05161997
236	0x3d142dc9	0.036176477
237	0xbcc9a327	-0.02461393
238	0xbd98dbe3	-0.07463815
239	0x3cc4baa5	0.02401478
240	0x3d178ec4	0.037001386
241	0x3bd90906	0.00662339
242	0x3da3420a	0.0797158
243	0xbd06b3b5	-0.032886226
244	0x3db47ae7	0.08812504
245	0x3dbcaf4a	0.09213121
246	0xbdc2702e	-0.09494053
247	0xbb92a5a2	-0.0044753114
248	0x3d508f76	0.050918065
249	0xbb34337b	-0.0027496505
250	0x3dd384d0	0.10328066
251	0x3cb76470	0.02238676
252	0x3ca373f1	0.019952746
253	0xbd9048d3	-0.0704514
254	0x38e6c0a3	0.00011003136
255	0xbd5b6030	-0.05355853

rnn.bias_ih_l0 f4 [384]
0	0x3cccede6	0.025015783
1	0xbd30e6ae	-0.043188743
2	0x3b87b56a	0.0041414993
3	0x3af0389f	0.0018327421
4	0xbd319b96	-0.04336127
5	0xbd247256	-0.0401481
6	0x3b918286	0.0044406084
7	0x3c376f97	0.011196039
8	0xbdca1305	-0.09866909
9	0xbc3df345	-0.0115936445
10	0x3d6b15fc	0.057394013
11	0xbd6d56d8	-0.05794415
12	0xbced7920	-0.028988421
13	0xbd51d5db	-0.05122934
14	0x3c380fbf	0.011234223
15	0xba9c0d69	-0.0011905852
16	0x3da17220	0.07883096
17	0xbd160a32	-0.036630817
18	0xbdd60f30	-0.104521155
19	0x3c5f1e8b	0.013618122
20	0xbda76658	-0.081738174
21	0xbd9f1cc9	-0.07769162
22	0x3cc7b2e0	0.024377286
23	0xbd1fdd2e	-0.039029293
24	0x3d241745	0.040061254
25	0xbd484feb	-0.04890434
26	0xbc76a8a8	-0.015054859
27	0xbd4ab0a9	-0.049484883
28	0xbd746d1b	-0.059674364
29	0x3d629d17	0.055325594
30	0xbc99986c	-0.018749438
31	0x3bdc0afe	0.0067151776
32	0xbd85ff91	-0.06542886
33	0x3c9e1a9a	0.019299794
34	0xbd82c98a	-0.06386097
35	0xbbc6d57e	-0.0060679307
36	0xbcd26cea	-0.0256867
37	0xbd85e584	-0.06537917
38	0x3d604f8a	0.054763354
39	0x3d624aa1	0.055246953
40	0x3c127534	0.008939076
41	0xbdb27ac5	-0.08714823
42	0x3d9fb7bc	0.077987164
43	0x3c573450	0.013135031
44	0xbd0584cd	-0.03259735
45	0xbd0ce065	-0.034393687
46	0xbbf34524	-0.0074240137
47	0xba862fd7	-0.0010237646
48	0x3c837066	0.016044807
49	0xbdbc1670	-0.09183967
50	0xbd8e841f	-0.06958794
51	0xbd1e1468	-0.03859368
52	0xbd7d0300	-0.06177044
53	0xbd2158ae	-0.039391212
54	0x3c32f0b7	0.010921649
55	0xbccde52d	-0.025133694
56	0xbdd2c01a	-0.10290547
57	0xbc8d2914	-0.017231502
58	0xbb671799	-0.0035261868
59	0xbd2d71ce	-0.04234486
60	0xbc64207b	-0.01392376
61	0xbd65d02e	-0.05610674
62	0xbc105805	-0.008810048
63	0xbd383794	-0.04497488
64	0xbd06e7be	-0.03293585
65	0x3d6ecff9	0.058303807
66	0xbd6ba346	-0.057528757
67	0xbc5e47dc	-0.013566937
68	0xbcda9fc1	-0.026687505
69	0xbd0420f1	-0.032257978
70	0xbd8ed610	-0.06974423
71	0xbc8233ce	-0.015893843
72	0xbd265333	-0.04060669
73	0x3d80cdcc	0.06289253
74	0xbcf976d1	-0.030452164
75	0x3d645866	0.055748366
76	0xbdbedae3	-0.09319093
77	0x3d3905b1	0.045171443
78	0x3d7cf43d	0.06175636
79	0xbae53306	-0.001748652
80	0xbbb1ac38	-0.0054221414
81	0xbdc0322d	-0.0938457
82	0xbd4a2180	-0.049348354
83	0xbd95e8be	-0.07319783
84	0x3d249677	0.040182557
85	0x3d93e30c	0.0722104
86	0xbd7abb9b	-0.06121407
87	0x3d5c6a44	0.05381228
88	0x3ca425db	0.020037582
89	0xbca4c90a	-0.020115394
90	0xbdac5b63	-0.08415868
91	0x3da502e7	0.08057194
92	0xbd1e7df5	-0.03869434
93	0xbd6ad7b9	-0.057334635
94	0xbd86cfee	-0.06582628
95	0xbd06f6f6	-0.032950364
96	0xbd6ad997	-0.057336416
97	0xbd20693c	-0.03916286
98	0x3da7badb	0.08189937
99	0x3d014e6d	0.031568933
100	0xbdb43416	-0.08798997
101	0x3d1f03e1	0.03882206
102	0xbd995ed6	-0.07488792
103	0xbb69c6e9	-0.0035671538
104	0xbcf5cc0c	-0.030004524
105	0x3b9492cc	0.004534101
106	0xbca54bfd	-0.020177836
107	0xbd235764	-0.039878264
108	0x3b910f28	0.0044268556
109	0x3a14d4e3	0.00056774745
110	0xbda3723c	-0.07980773
111	0xbcf10e33	-0.029425716
112	0xbd9ceb0b	-0.076620184
113	0xbceb4a53	-0.028721964
114	0x3c90cc7e	0.017675634
115	0x3d766085	0.060150642
116	0xbbf6332b	-0.007513424
117	0x3d1c910f	0.038224276
118	0xbd0ac013	-0.033874582
119	0x3db14226	0.08655195
120	0x3bba79e0	0.005690798
121	0x3d8f76c8	0.070050776
122	0xbd7fbbbb	-0.062434893
123	0x3d208351	0.039187733
124	0xbc68632a	-0.014183799
125	0x3ce61751	0.02808729
126	0xbcc63985	-0.02419735
127	0xbc3276b8	-0.010892563
128	0x3cfc1f82	0.030776743
129	0xbd84c489	-0.064827986
130	0xbdbc53bf	-0.09195661
131	0xbde2b22a	-0.11069138
132	0xbc7044c7	-0.014664835
133	0xbde8d0aa	-0.113679245
134	0x3c82d7ca	0.015972037
135	0x3cb66edd	0.02226966
136	0xbd1d31b2	-0.03837747
137	0xbdf129c2	-0.11775543
138	0xbde22b66	-0.11043434
139	0x3c603145	0.013683622
140	0xbe19e0e6	-0.15027198
141	0xbde2114e	-0.11038457
142	0xbe0ae05f	-0.13562153
143	0xbd478675	-0.048712213
144	0x3b1f5074	0.0024309428
145	0xbe014e3e	-0.12627503
146	0xbe123fb9	-0.14282121
147	0xbdb4e64e	-0.0883299
148	0x3cdbb085	0.02681757
149	0x3d5352ab	0.05159251
150	0xbbeea636	-0.0072829975
151	0xbd966b6a	-0.07344706
152	0xbd0174fa	-0.0316057
153	0xbdd1ee5b	-0.10250541
154	0xbd9f793a	-0.07786794
155	0xbc81e05a	-0.01585405
156	0x3c5a88f8	0.01333832
157	0xbcba1476	-0.022714835
158	0xbe00edd1	-0.1259072
159	0xbc790323	-0.015198502
160	0xbdc06c1d	-0.09395621
161	0xbb8848c7	-0.0041590664
162	0xbd84f19c	-0.06491396
163	0x3cac295c	0.021015815
164	0xbdc8135d	-0.09769318
165	0x3d100a04	0.0351658
166	0xbcbb13ec	-0.022836648
167	0xbe06dd8a	-0.13170448
168	0xbdd44be6	-0.10366039
169	0xbcc3e2ac	-0.023911797
170	0x3d2fbd6d	0.04290526
171	0x3d325297	0.043535795
172	0xbda09652	-0.07841171
173	0xbd2b843e	-0.041874163
174	0xbdf415c2	-0.119182125
175	0xbdc3cf61	-0.09561039
176	0x3d6b9c81	0.0575223
177	0xbdfbce07	-0.12295156
178	0xbd290d92	-0.041272707
179	0xbbbec4f9	-0.005821821
180	0xbd564bd2	-0.0523184
181	0xbe1b7a02	-0.15183261
182	0xbc03d2d8	-0.008045875
183	0xbc40eac2	-0.011774721
184	0xbbfc8827	-0.0077066603
185	0xbdb3be13	-0.08776488
186	0xbd9344f4	-0.07190886
187	0xbd849222	-0.06473185
188	0xbe03b245	-0.12860973
189	0xbe2e7c2e	-0.17039558
190	0xb94b1862	-0.00019368672
191	0x3cfa6a54	0.03056828
192	0xbe078de8	-0.13237727
193	0xbd4e4008	-0.050354034
194	0xb9f97995	-0.00047583567
195	0xbd886220	-0.06659341
196	0x3d481b19	0.048853967
197	0xbd900e1b	-0.070339404
198	0x3d22c7ac	0.039741203
199	0x3c9810ec	0.018562756
200	0xbd4aa4f0	-0.049473703
201	0x3bdab824	0.0066747833
202	0xbdfd1eee	-0.12359415
203	0x3c443d50	0.011977509
204	0xbd6e7216	-0.05821427
205	0xbd0701ef	-0.03296083
206	0x3d14ca8a	0.03632597
207	0xbde693e2	-0.11258675
208	0xbc8e26a0	-0.017352402
209	0xbdff0ea9	-0.12453968
210	0x3d3ccbd1	0.046092812
211	0xbd3a8573	-0.045537423
212	0xbe0f9a6e	-0.14023754
213	0xbd8deea9	-0.069302864
214	0xbc66a802	-0.014078142
215	0xbcc8bc51	-0.024503859
216	0xbd906c97	-0.07051962
217	0x3ca04081	0.019562008
218	0xbd9250c9	-0.07144315
219	0xbe0ca59c	-0.1373505
220	0xbe08494f	-0.13309215
221	0xbd7555b4	-0.059896186
222	0xbc6a1147	-0.014286346
223	0xbdcb7c74	-0.09935847
224	0xbd24dff9	-0.04025266
225	0xbd802f0e	-0.06258975
226	0xbd9781c7	-0.073978
227	0xbd768359	-0.060183857
228	0xbe108300	-0.14112473
229	0xbe0f3c47	-0.13987838
230	0xbded5244	-0.115879565
231	0x3d5a70c5	0.0533302
232	0x3bd6540c	0.006540781
233	0xbd808332	-0.062750235
234	0xbe2984ae	-0.1655452
235	0xbc383899	-0.011243963
236	0x3c80c951	0.015720995
237	0x3d9f2596	0.07770841
238	0x3dfe2652	0.12409653
239	0xbb6ed855	-0.0036444862
240	0xbe177e40	-0.14794254
241	0xbdd9786b	-0.10618671
242	0x3b9b01d3	0.004730442
243	0xbd376936	-0.04477807
244	0xbd33922d	-0.043840576
245	0xbdee32ca	-0.11630781
246	0x3d3b98b9	0.045799945
247	0xbdb43c80	-0.08800602
248	0x3ca5335b	0.02016609
249	0xbdfd52b8	-0.12369293
250	0xbd278d0f	-0.04090601
251	0x3d93007c	0.07177827
252	0xbdd14537	-0.1021828
253	0x3d341454	0.0439647
254	0xbd457b14	-0.04821308
255	0xbcb7712a	-0.022392828

rnn.bias_hh_l0 f4 [384]
0	0xbca6c6d4	-0.02035848
1	0xbd25b07a	-0.040451504
2	0xbd8dc207	-0.069217734
3	0x3c674f05	0.014117961
4	0xbc62efef	-0.01385115
5	0x3d3ec896	0.046578012
6	0x3ce80af4	0.028325535
7	0x3db64214	0.08899322
8	0x3c9319fe	0.01795673
9	0x3cd65e21	0.026167931
10	0xbd63073a	-0.055426814
11	0xbdd14643	-0.102184795
12	0x3cb70951	0.02234331
13	0x3d3b7a0d	0.045770694
14	0xbc61dfc1	-0.013786257
15	0x3d912267	0.0708664
16	0x3d81af82	0.063323036
17	0xbd9f101f	-0.07766747
18	0xbd3ca2e3	-0.04605378
19	0x3d181fe4	0.03713979
20	0x3c85099a	0.01623993
21	0x3d2b0e4e	0.04176169
22	0x3d636e36	0.055525027
23	0x3da24500	0.07923317
24	0x3c815ffe	0.015792843
25	0x3a2d62f3	0.0006614171
26	0x3c01ba7b	0.007917996
27	0xbda81aaa	-0.08208211
28	0x3d8dfc41	0.06932879
29	0x3da35279	0.07974715
30	0x3cdcaa34	0.026936628
31	0xbd6a9889	-0.057274375
32	0xbc104d6e	-0.008807523
33	0x3d4757cb	0.04866771
34	0x3daf1d60	0.08550525
35	0x3d11ba67	0.035578158
36	0xbdc4deef	-0.09612834
37	0xbd34071a	-0.043952085
38	0xbc8939c9	-0.016751187
39	0xbd5b270a	-0.053504027
40	0xbd344e01	-0.044019703
41	0xbd39d827	-0.045372155
42	0x3c0324c3	0.00800437
43	0xbd822c4c	-0.06356105
44	0x3d755147	0.059891965
45	0x3b21ef9d	0.002470947
46	0x3d0ed49a	0.03487072
47	0x3d875017	0.06607073
48	0xbdb1d708	-0.08683592
49	0xbca785bd	-0.020449514
50	0xbd8f5597	-0.06998747
51	0xbc6439e3	-0.013929817
52	0xbd4790ce	-0.04872208
53	0xbdac5e25	-0.08416394
54	0x3d84cf4d	0.06484852
55	0x3d79d22e	0.06099146
56	0xbdcf73fe	-0.10129546
57	0xbdb518e6	-0.088426396
58	0xbda362d2	-0.07977833
59	0x3d4f7899	0.05065212
60	0x3d70926b	0.058733385
61	0x3d62faa3	0.055414807
62	0xbb1f5121	-0.0024309831
63	0x3aeead3b	0.0018209586
64	0x3d2c43fb	0.04205702
65	0xbccda6ef	-0.025104014
66	0xbd1f7460	-0.038929343
67	0xbc62d93c	-0.013845738
68	0xbd9524d3	-0.07282414
69	0x3d8ecbe1	0.069724806
70	0x3d77c15c	0.060487136
71	0xbdac9d40	-0.084284306
72	0xbd3daecc	-0.046309277
73	0xbd44a0be	-0.04800486
74	0x3dacf3e5	0.08444957
75	0x3d1b866f	0.037970003
76	0xbc238a36	-0.0099816825
77	0x3d8ab918	0.06773585
78	0xbd3ca79d	-0.046058286
79	0xbd8748db	-0.06605693
80	0x3bb61b16	0.005557428
81	0xbd7e8cfc	-0.062146172
82	0x3cc3b8a7	0.02389176
83	0x3d4002c2	0.04687763
84	0xbbe1a131	-0.0068856706
85	0x3ce18239	0.027527915
86	0x3d80a088	0.06280619
87	0xbd9133cd	-0.07089958
88	0x3d433437	0.047657218
89	0x3c9d428d	0.019196773
90	0x3c4a4102	0.012344601
91	0xbd6dec8d	-0.05808692
92	0x3d5e63be	0.05429434
93	0xbd39758b	-0.045278113
94	0xbc23eca1	-0.010005147
95	0x3d9695fd	0.07352827
96	0x3d89a9c0	0.0672183
97	0x3c8c39c2	0.017117385
98	0xbd9ba9ce	-0.07600747
99	0xbca778e5	-0.02044339
100	0x3d9afb4d	0.07567463
101	0x3d1e71a9	0.038682614
102	0xbd83390c	-0.06407365
103	0xbd83bec1	-0.06432868
104	0x3d437e23	0.047727715
105	0x3d1df7ae	0.038566284
106	0xbd9104a4	-0.07080963
107	0x3cbf7ea2	0.023375813
108	0x3cc95e98	0.024581239
109	0xbda3fa94	-0.08006778
110	0xbcfea4f6	-0.031084519
111	0xbd2ea8f4	-0.042641595
112	0x3af1588b	0.0018413229
113	0xbd662181	-0.056184296
114	0x3c953d03	0.01821757
115	0xbcf0ff2e	-0.029418554
116	0x3da852b9	0.08218903
117	0x3d8a5253	0.06753983
118	0x3c56a8cf	0.013101771
119	0x3cba4f3c	0.02274286
120	0x3cc7d449	0.024393218
121	0x3d90e4b0	0.07074869
122	0x3ccff34d	0.02538457
123	0x3d9e7270	0.07736671
124	0x3ca2bb67	0.019864751
125	0xbdca43e1	-0.09876228
126	0xbd98e257	-0.07465046
127	0x3c5977a5	0.013273154
128	0x3d6e72e7	0.05821505
129	0xbdf42a24	-0.119221
130	0xbd941ec9	-0.07232434
131	0x3a9008bf	0.0010988935
132	0x3d1280ae	0.03576725
133	0xbd90d360	-0.070715666
134	0xbe104a27	-0.14090787
135	0xbde0ea85	-0.10982231
136	0xbbc92f1c	-0.006139649
137	0xbd8cbdd0	-0.06872141
138	0xbc381e7b	-0.011237736
139	0xbe0262eb	-0.12733047
140	0xbdc2df24	-0.09515217
141	0xbd98d0f4	-0.0746173
142	0xbde0f37b	-0.1098394
143	0xbc6b4375	-0.014359345
144	0xbcb28aee	-0.021794762
145	0xbc798221	-0.015228779
146	0xbd5e7a9d	-0.054316152
147	0xbe080b73	-0.13285618
148	0xbdbf8707	-0.09351926
149	0xbd7ab300	-0.061205864
150	0x3cd4dea6	0.025985073
151	0xbbeea9d4	-0.0072834287
152	0x3c3a3fb9	0.011367732
153	0xbda2dd97	-0.07952421
154	0xbda3d334	-0.07999268
155	0xbdc61005	-0.09671024
156	0xbd3af508	-0.045643836
157	0xbd3c4656	-0.045965515
158	0xbd7a2147	-0.061066892
159	0xbd400bc4	-0.04688622
160	0x3b1cf8df	0.002395205
161	0xbcd84de5	-0.02640433
162	0xbd804051	-0.062622674
163	0xbdb4393a	-0.087999776
164	0x3cb6b71d	0.022304112
165	0x3caf4abc	0.02139794
166	0xbd0d9149	-0.034562383
167	0xbca8068b	-0.020510932
168	0xbd4d167c	-0.05007027
169	0x3c563441	0.013073982
170	0xba7e7c71	-0.0009707874
171	0x3caee975	0.021351555
172	0xbd0a8049	-0.03381375
173	0xbdfd1098	-0.12356681
174	0xbd93778e	-0.072005376
175	0xbd01a272	-0.03164906
176	0xbd1058c1	-0.035240892
177	0x3c17674c	0.0092409365
178	0xbdb49405	-0.08817295
179	0xbbc76401	-0.0060849194
180	0xbd910a25	-0.07082013
181	0xbd4919d0	-0.049096882
182	0xbd8b8130	-0.0681175
183	0x3d725135	0.059159476
184	0xbdbd44d9	-0.09241647
185	0xbd80846a	-0.06275256
186	0x3d38090e	0.04493051
187	0xbde74193	-0.11291804
188	0xbdd40d61	-0.10354114
189	0xbdd8e624	-0.10590771
190	0xbdccb2f5	-0.09995071
191	0x3c88254c	0.016619347
192	0xbd878c34	-0.066185385
193	0xbdb010bb	-0.08596941
194	0x3c642abc	0.013926204
195	0xbe023a64	-0.12717587
196	0xbd6f8a35	-0.058481414
197	0xbe23c998	-0.1599487
198	0x3c252abc	0.010080989
199	0x3d4bc0e8	0.049744517
200	0xbd1e1d3f	-0.03860211
201	0x3cccb8dd	0.024990493
202	0xbe18b72e	-0.14913628
203	0xbde48de8	-0.11159879
204	0xbd527ea8	-0.05139032
205	0xbdf0953c	-0.11747214
206	0x3de5af04	0.11215022
207	0x3c6d4006	0.014480596
208	0xbd7ad040	-0.06123376
209	0xbdc7c1c1	-0.097537525
210	0xbc724e79	-0.014789217
211	0xbdaa1d63	-0.08306386
212	0xbc21c98a	-0.009874711
213	0xbbb1b28f	-0.005422897
214	0xbdc1d5c5	-0.094646014
215	0xbd1ab95f	-0.03777444
216	0xbbc45801	-0.005991936
217	0xbd9a88fc	-0.07545659
218	0xbbe86c81	-0.007093013
219	0xbd391263	-0.04518355
220	0xbd6c64d9	-0.057713363
221	0xbd95ebc4	-0.07320359
222	0x3bfa26ee	0.0076340353
223	0xbe0d5ec1	-0.13805677
224	0xbd5033fd	-0.05083083
225	0xbe0d6f54	-0.13812
226	0xbdf71fa8	-0.12066585
227	0xbde529ad	-0.1118959
228	0xbe0b82ff	-0.1362419
229	0x3cba8d50	0.022772461
230	0xbd13b71d	-0.036063302
231	0x3c40f33e	0.011776743
232	0xbd4ff195	-0.0507675
233	0xbdd45647	-0.103680186
234	0xbe1d14d7	-0.15339981
235	0xbd9e75ee	-0.07737337
236	0xbe1685e0	-0.14699507
237	0x3de66dec	0.11251435
238	0x3daa3021	0.08309961
239	0x3d2cc46f	0.04217952
240	0xbe054c47	-0.13017379
241	0x3cab4356	0.020906132
242	0xbd895fd5	-0.06707732
243	0xbc51b430	-0.012799308
244	0xbc9713f5	-0.018442133
245	0xbdf0ae26	-0.11751966
246	0x3d553df4	0.052061036
247	0xbcb24aee	-0.021764245
248	0xbd812e2d	-0.063076355
249	0xbdfd4162	-0.123659864
250	0x3c823344	0.015893586
251	0x3d8bf51a	0.06833859
252	0x3d2e2450	0.0425151
253	0xbcbe1c82	-0.023206953
254	0x3d609d6a	0.05483762
255	0xbde09c5c	-0.10967323

rnn.weight_ih_l1 f4 [384, 128]
0	0x3c4e9f6a	0.012611249
1	0x3993511a	0.0002809845
2	0x3d017ac3	0.031611215
3	0xbbd17016	-0.0063915355
4	0xbd3a51d0	-0.04548818
5	0xbc8a5f3b	-0.016891113
6	0xbd258626	-0.040411137
7	0xbc597ec2	-0.01327485
8	0x3ce37a03	0.02776814
9	0xbd49e918	-0.04929456
10	0x3d193f11	0.03741366
11	0xba402375	-0.0007329502
12	0x3d942335	0.07233278
13	0xbc7876d0	-0.015165046
14	0xbd56e6c8	-0.052466184
15	0xbd58d436	-0.052936755
16	0x3d914b3c	0.07094428
17	0xb927e03f	-0.00016009899
18	0xbc4b2075	-0.012397875
19	0x3d0ab659	0.033865307
20	0xbd2e8be4	-0.04261388
21	0x3d81b600	0.06333542
22	0x3da01aca	0.078176096
23	0xbd241262	-0.040056594
24	0xbc7c8d5f	-0.015414565
25	0x3dba7c5d	0.09105752
26	0xbd83e1e1	-0.06439567
27	0xbdc06d81	-0.09395886
28	0xbd2825e4	-0.04105176
29	0xbd9146de	-0.07093595
30	0xbd9471f2	-0.07248296
31	0x3d3cb46a	0.046070494
32	0xbd46fa49	-0.048578534
33	0xbc94a68c	-0.018145822
34	0xbc37a659	-0.011209094
35	0x3d24e028	0.040252835
36	0x3d227bb7	0.039668765
37	0x3d4d91ab	0.050187748
38	0x3ca5ea23	0.020253247
39	0x3c5bc61d	0.013413933
40	0x3cca2b2b	0.024678787
41	0x3bd223de	0.006412967
42	0xbd1405b9	-0.03613827
43	0x3d25e4ac	0.04050128
44	0x3dd2d1d8	0.10293931
45	0xbd6324fc	-0.055455193
46	0x3cd9329d	0.026513392
47	0x3d1a95ab	0.03774039
48	0x3d67c616	0.056585394
49	0xbda2de9b	-0.07952615
50	0x3c3fd8db	0.011709417
51	0xbd0704ce	-0.032963566
52	0xbcbd7ac7	-0.023129834
53	0x3d5587a1	0.0521313
54	0x3cd8bdb6	0.026457649
55	0xbdb357fb	-0.08757015
56	0xbd61ada0	-0.055097222
57	0xbb922105	-0.0044595026
58	0xbdc158e2	-0.09440781
59	0x3d149ac9	0.036280427
60	0xbcad89e4	-0.021183915
61	0xbd34f348	-0.044177324
62	0x3d150718	0.03638372
63	0x3a6b8cab	0.00089855
64	0xbd846f3d	-0.064665295
65	0x3da712d0	0.08157885
66	0x3dd017b7	0.10160773
67	0x3bdf66f0	0.006817691
68	0xbd8dbd55	-0.06920878
69	0xbcf26db4	-0.029593326
70	0x3d971246	0.07376532
71	0x3dc2f3b3	0.09519138
72	0x3d927dab	0.071528755
73	0xbd07a56a	-0.033116736
74	0xbd7a7d3b	-0.061154585
75	0x3d4b9328	0.049700886
76	0xbda63b90	-0.081168294
77	0x3d5ffc3e	0.054683916
78	0x3d93191a	0.07182522
79	0xbd263301	-0.040575985
80	0xbd46d4eb	-0.0485429
81	0xbd674323	-0.05646051
82	0x3d2f952c	0.04286687
83	0x39f5d143	0.00046885954
84	0xbd8e8c33	-0.06960335
85	0xbcb9b25b	-0.022668054
86	0xbd83dcb1	-0.06438578
87	0xbcfbffd6	-0.03076164
88	0x3d6bf6c6	0.05760839
89	0x3d9a1fd2	0.075256005
90	0x3d9b4527	0.07581549
91	0xbb27bb73	-0.0025593906
92	0x3d0da1bb	0.034578066
93	0xbd0e7d35	-0.034787375
94	0x3d9e910e	0.07742511
95	0xbc2cd402	-0.0105485935
96	0x3b18d424	0.0023319805
97	0xbbe819a8	-0.0070831366
98	0xbd1e2296	-0.038607202
99	0x3db68279	0.089116044
100	0x3d054ae3	0.03254212
101	0x3d5c910d	0.05384927
102	0xbb1b38cd	-0.002368498
103	0xbca9f7d2	-0.020748053
104	0x3d6da516	0.058018766
105	0x3c998645	0.018740783
106	0xbd554b45	-0.052073736
107	0xbcafc997	-0.02145843
108	0x3d3a9d99	0.045560453
109	0x3d886a4d	0.066609
110	0x3cab19ac	0.020886265
111	0x3d8cd4af	0.06876504
112	0x3d014fef	0.03157037
113	0x3d1c3d55	0.03814443
114	0x3d6a45e8	0.057195574
115	0x3c91d427	0.017801357
116	0xbdb287fb	-0.087173425
117	0xbd1abd5a	-0.037778236
118	0xbcb42cdf	-0.021994052
119	0xbda3f0f3	-0.08004942
120	0xbbab073a	-0.0052193673
121	0x3d00fdd0	0.031492054
122	0x3cb9706b	0.022636613
123	0x3cf30d55	0.029669443
124	0xb824d9ca	-3.930348e-05
125	0xbdc5d798	-0.09660262
126	0xbd9acd6e	-0.07558714
127	0x3c87c806	0.01657487
128	0x3bddacd0	0.0067649856
129	0xbd3abc16	-0.04558953
130	0xbd59b467	-0.05315056
131	0x3c924c93	0.017858779
132	0x3d3b6b4f	0.045756634
133	0xbdc52bee	-0.096275195
134	0xbd38ab5b	-0.045085292
135	0xbdcae7b1	-0.09907473
136	0x3dc50d90	0.096217275
137	0xbc5a5e05	-0.01332808
138	0xbd29981f	-0.04140484
139	0xbcb78012	-0.022399936
140	0xbd4fbecf	-0.05071908
141	0x3dd5990c	0.10429582
142	0x3d05b6d8	0.032645077
143	0x3cb4269e	0.02199107
144	0x3dd9043c	0.10596511
145	0xbd90e3fc	-0.070747346
146	0x3d382289	0.04495481
147	0x3cbd9b43	0.023145324
148	0xbcb8b0a0	-0.022545159
149	0x3ccd237c	0.025041334
150	0xbc808299	-0.015687274
151	0x3d549381	0.051898483
152	0xbd80b981	-0.06285382
153	0xbcbc76f6	-0.023005944
154	0x3be48334	0.0069736484
155	0x3b9a11f3	0.0047018467
156	0xbdd57bdd	-0.10424016
157	0x3daf550c	0.08561143
158	0x3b8998a5	0.004199105
159	0xbbaaf26e	-0.005216888
160	0xbc98a9f5	-0.01863573
161	0x3d5912b1	0.05299634
162	0xbb6a401c	-0.0035743779
163	0x3d8641fa	0.06555553
164	0xbc79308f	-0.015209331
165	0x3d998f70	0.07498062
166	0xbd842762	-0.06452824
167	0xbd02a0b8	-0.031891555
168	0x3da71b31	0.08159483
169	0xbcc15b09	-0.02360298
170	0xbc678154	-0.014129955
171	0x3d7aecbd	0.061260927
172	0x3d33fac6	0.043940328
173	0x3d8ed10c	0.06973466
174	0x3d88d17e	0.066805825
175	0x3cda6a37	0.026661975
176	0xbdcef080	-0.101044655
177	0xbd543b43	-0.05181433
178	0x3b89fc46	0.0042109815
179	0x3ce44769	0.027866082
180	0xbc9a6b74	-0.018850066
181	0x3d25508e	0.040360026
182	0x3d68b3a5	0.056811947
183	0x3d3f16b8	0.046652526
184	0xbd2f8004	-0.042846695
185	0x3bcb881f	0.0062112953
186	0x3d1a1742	0.037619837
187	0x3d8960c2	0.06707908
188	0xbcdc7b04	-0.026914127
189	0xbd5fd365	-0.05464496
190	0x3d193b0a	0.03740982
191	0xbcee9cf8	-0.029127583
192	0xbd617d93	-0.055051398
193	0x3d3d8382	0.046267994
194	0x3d8aa831	0.06770361
195	0x3da5420e	0.080692396
196	0x3c020d7b	0.007937784
197	0xbd37e853	-0.044899296
198	0xbd0b13af	-0.03395432
199	0xbc0a6977	-0.008447996
200	0x3dac920f	0.08426296
201	0xbc9b8990	-0.018986493
202	0xbd28540e	-0.041095786
203	0x3d7bd94d	0.06148653
204	0x3dd0613d	0.10174797
205	0x3da355b6	0.079753324
206	0xbd840acf	-0.06447374
207	0x3d2da552	0.04239399
208	0xbd6c8909	-0.057747874
209	0x3de0a841	0.10969592
210	0xbcb11adf	-0.021619258
211	0x3cd7833a	0.02630769
212	0x3c87f804	0.016597755
213	0xbd2cb723	-0.04216684
214	0x3d46083d	0.0483477
215	0xbc455305	-0.012043719
216	0x3cd4942a	0.025949556
217	0xbd92b374	-0.07163134
218	0x3c839a50	0.016064793
219	0x3c1e7367	0.009671069
220	0x3daac69e	0.083386645
221	0x3d7946b3	0.06085844
222	0xbd3f0e63	-0.04664458
223	0xbc2e22e2	-0.010628434
224	0x3d1f2b5a	0.038859703
225	0xbcbd28c8	-0.023090735
226	0xbd9e7599	-0.07737274
227	0xbd40270a	-0.04691223
228	0xbd8909b8	-0.06691307
229	0xbdba7113	-0.091035984
230	0xbd352571	-0.04422516
231	0x3c26824b	0.0101629
232	0x3c135810	0.008993164
233	0x3cb0856b	0.021547994
234	0xbd5b16d4	-0.053488567
235	0x3cb2e4f2	0.021837685
236	0xbdc37f63	-0.095457815
237	0xbccbecba	-0.024893153
238	0x3ce189e3	0.02753157
239	0xbb440ab1	-0.00299136
240	0x3c183603	0.009290221
241	0x3c900366	0.017579746
242	0xbc3848ce	-0.011247827
243	0x3d877f52	0.06616081
244	0x3c7b72d4	0.015347201
245	0xbdd7efa3	-0.10543754
246	0xbd6bf6b6	-0.05760833
247	0x3c962e58	0.018332645
248	0x3be7cd36	0.0070740236
249	0x3dca96b6	0.09892027
250	0xbd0a61c0	-0.033784628
251	0xbd632046	-0.0554507
252	0x3cf58790	0.029971868
253	0xbdc9480e	-0.098281965
254	0x3d4565a6	0.048192643
255	0x3759dd51	1.2985737e-05

rnn.weight_hh_l1 f4 [384, 128]
0	0xbcaa9c4d	-0.020826483
1	0x3d4355f2	0.047689386
2	0x3c64b43c	0.013958987
3	0xbd1b517a	-0.0379195
4	0xbd04aa9c	-0.03238927
5	0xbcbcb9cd	-0.023037815
6	0xbcd5de0e	-0.02610686
7	0xbcefd4fb	-0.029276362
8	0xbcad5522	-0.021158759
9	0x3daf376a	0.08555491
10	0x3d9e13af	0.07718598
11	0x3d9ffa3d	0.07811401
12	0x3d53d4e1	0.05171669
13	0x3d155627	0.036459114
14	0x3d51b333	0.05119629
15	0xbd107fa3	-0.035277974
16	0xbd80c615	-0.06287781
17	0x3d88e747	0.06684738
18	0xbd9d57c6	-0.07682757
19	0xbd37e1ca	-0.044893064
20	0xbd11cf69	-0.035598192
21	0xbc1fe388	-0.0097588375
22	0x3ca11ca8	0.019666985
23	0xbc39ae71	-0.011333094
24	0xbcd5db97	-0.026105685
25	0xbc941e7d	-0.018080944
26	0xbd968e06	-0.073513076
27	0x3d118806	0.035530113
28	0x3c8caf8a	0.017173547
29	0x3d168529	0.036748085
30	0x3d3ed1b4	0.046586707
31	0x3c1dee36	0.009639313
32	0x3d131730	0.035910785
33	0xbcd045d6	-0.025423925
34	0x3c1292d7	0.008946142
35	0xbb1bb203	-0.0023757226
36	0x3d4b3760	0.049613357
37	0x3dc2963c	0.09501311
38	0x3d9e3cd1	0.077264436
39	0xbcb173e5	-0.021661708
40	0xbd2aeaf0	-0.04172796
41	0x3c857f69	0.016296105
42	0xbd5cd1a4	-0.053910866
43	0xbcccd331	-0.025003048
44	0x3da86d48	0.08223969
45	0x3d2922ed	0.041293073
46	0x3be6f238	0.0070479177
47	0xbd811ae3	-0.06303956
48	0x3cb9184f	0.022594599
49	0xbcc6fa96	-0.02428941
50	0x3c9ff210	0.019524604
51	0x3cd7f810	0.026363403
52	0xbda485e0	-0.08033347
53	0x3d2c5362	0.042071708
54	0xbdb261b9	-0.08710045
55	0x3d14058e	0.03613811
56	0xbd6a405e	-0.05719029
57	0x3d854ceb	0.065088116
58	0xbd956510	-0.07294667
59	0x3d6b628b	0.057467025
60	0x3cdc241c	0.026872687
61	0xbd54ca5d	-0.0519508
62	0x3d7624ba	0.06009362
63	0xbd80ae78	-0.06283277
64	0x39164826	0.00014331992
65	0xbd368ede	-0.044569843
66	0x3da052b5	0.07828275
67	0xbc518253	-0.012787419
68	0x3da1e64c	0.07905254
69	0x3cb0c6d9	0.021579193
70	0xbc77a840	-0.0151157975
71	0x3d5211c7	0.051286485
72	0xbcf956c9	-0.03043689
73	0x3c4066c7	0.011743254
74	0xbd04fb71	-0.032466356
75	0x3c91db53	0.017804777
76	0xbb9e0609	-0.004822497
77	0x3d04c6d1	0.03241617
78	0x3db2bf47	0.087278895
79	0x3b8e9c51	0.0043521305
80	0x3c29a0fa	0.010353321
81	0xbcf34686	-0.029696714
82	0x3d07676f	0.033057626
83	0x3c9ccf97	0.019141955
84	0x3d08323b	0.03325103
85	0xbd8f9072	-0.07009973
86	0xbd9d51ad	-0.07681594
87	0x3ce12a0a	0.027485866
88	0x3be0908c	0.006853169
89	0xbd9443be	-0.07239483
90	0xbc501931	-0.012701319
91	0xbd87a0b4	-0.066224486
92	0xbcbfdfe4	-0.023422189
93	0xbd93e988	-0.07222277
94	0x3d107147	0.03526428
95	0xbd10fc54	-0.03539689
96	0xbc966514	-0.018358745
97	0x3d749875	0.059715707
98	0x3daa5c8a	0.08318432
99	0x3d61e0a8	0.05514589
100	0x3d66def9	0.056364987
101	0xbd3687c9	-0.04456309
102	0x3d90f29e	0.070775256
103	0xbda75500	-0.08170509
104	0xbd802556	-0.06257121
105	0x3d0f41ad	0.034974743
106	0x3cedf560	0.029047668
107	0x3d7d5086	0.06184437
108	0xbd91b865	-0.071152486
109	0x3d2ab6d2	0.041678257
110	0xbc5c6957	-0.013452849
111	0xbd62a34d	-0.055331517
112	0x3d4d99f5	0.050195653
113	0x3c987caa	0.018614132
114	0xbd330652	-0.0437072
115	0x3d1e45e6	0.03864088
116	0xbdb495a8	-0.08817607
117	0x3d487a25	0.04894461
118	0x3c954b28	0.018224314
119	0x3caa6481	0.020799877
120	0xbc52555e	-0.012837736
121	0x3d84e9bd	0.064898945
122	0x3d26c712	0.040717192
123	0x3d5128e4	0.051064387
124	0xbd9de791	-0.077101834
125	0x3d8f2c82	0.06990911
126	0xbd44fbb2	-0.048091598
127	0xbc66eee3	-0.014095041
128	0x3d5418d1	0.05178148
129	0x3d6b6db1	0.057477657
130	0x3d41b3c6	0.047290586
131	0x3dc4b55e	0.096049055
132	0xbd3d10da	-0.04615865
133	0xbce81578	-0.02833055
134	0x3d58fdbe	0.052976362
135	0x3d83324d	0.064060785
136	0xb8d9f578	-0.000103930885
137	0xbc76a43b	-0.015053804
138	0x3da936f2	0.08262433
139	0x3d782ee1	0.060591582
140	0xbd6f2f10	-0.05839449
141	0xbd06cbde	-0.032909267
142	0x3d5bb17c	0.05363606
143	0xbd0cfe1d	-0.03442203
144	0xbcac6fc1	-0.021049382
145	0xbcf790b1	-0.030220361
146	0x3cc2a1c5	0.023758778
147	0x3dc6da43	0.09709599
148	0x3bda37e2	0.006659494
149	0x3d04fafb	0.032465916
150	0x3e039531	0.12849881
151	0x3dde260d	0.10847101
152	0xbd9200cc	-0.07129058
153	0x3d5c2a28	0.05375114
154	0x3b6bcdf9	0.0035980924
155	0xbcce54c0	-0.025186896
156	0x3dcec683	0.10096457
157	0x3c5ce833	0.013483095
158	0x3d1b2573	0.03787751
159	0xbbe0b40f	-0.006857402
160	0xbdd26615	-0.10273377
161	0xbd878955	-0.06617991
162	0x3ccd894b	0.02508988
163	0xbd7a4ae4	-0.061106578
164	0xbd4e5cec	-0.050381586
165	0x3b0b6145	0.0021267694
166	0x3daa96cc	0.083295435
167	0x3cdc9085	0.026924381
168	0x3d289943	0.041161787
169	0x3d7e3602	0.062063225
170	0xbd4d8417	-0.0501748
171	0x3d10475f	0.035224315
172	0xbdd5a34c	-0.10431537
173	0x3da236f4	0.07920638
174	0x3cfac969	0.030613618
175	0x3cc66cd6	0.024221819
176	0xbd6af2dd	-0.05736052
177	0xbd1ed67d	-0.03877877
178	0x3d16defd	0.036833752
179	0x3cfaa3e7	0.030595733
180	0xbcbff2f2	-0.023431275
181	0x3dd8812c	0.105715126
182	0xbd9e4df2	-0.07729711
183	0xbc6c6dac	-0.014430445
184	0xbd99c5ff	-0.07508468
185	0x3ca79ddd	0.020461017
186	0xbbb5ced9	-0.00554834
187	0xbbe3bff7	-0.006950374
188	0xbd409a3a	-0.047022082
189	0xbdb70eb6	-0.08938353
190	0xbd81d29c	-0.06338999
191	0x3d36b46d	0.04460566
192	0x3d10ad50	0.035321534
193	0x3d2c556f	0.042073663
194	0xbdb730e5	-0.08944873
195	0x3d2b6a11	0.0418492
196	0x3d46eb95	0.048564512
197	0x3c7c40c3	0.0153963
198	0xbca63671	-0.020289632
199	0x3cc01b29	0.023450451
200	0xbd09892b	-0.03357808
201	0x3dc6068c	0.096692175
202	0xbd0bb1c7	-0.03410509
203	0xbd55f30e	-0.05223375
204	0x3e05399e	0.1301026
205	0xbd66844f	-0.056278523
206	0xbd0febd5	-0.035137016
207	0xbd1859cb	-0.03719501
208	0x3c6dbcc6	0.014510339
209	0xbd81dad2	-0.06340565
210	0xbdf01836	-0.11723368
211	0x3d08c820	0.03339398
212	0x3c736267	0.014855004
213	0x3c5d55a5	0.013509189
214	0xbd94a991	-0.07258905
215	0xbc9b3ff0	-0.018951386
216	0xbd480825	-0.048835892
217	0x3cc10859	0.02356355
218	0xbd91a839	-0.07112164
219	0xbda2a374	-0.079413325
220	0xbd28b963	-0.041192424
221	0xbd17d7d4	-0.037071064
222	0x3b2a03b1	0.0025942142
223	0xbd4002a0	-0.046877503
224	0xbd9e7934	-0.077379614
225	0x3cdefbb2	0.027219627
226	0x3d4d88d4	0.050179318
227	0x3cee80ea	0.029114205
228	0x3c422c9b	0.011851455
229	0xbcbb1e88	-0.022841707
230	0x3d9b51bb	0.07583948
231	0x3d5ae787	0.053443458
232	0xbadd1f09	-0.0016870211
233	0xbd948193	-0.07251277
234	0x3c4f7e01	0.012664319
235	0xbd1fca53	-0.03901131
236	0xbcbfd611	-0.023417505
237	0xbb9a369b	-0.0047062165
238	0x3ca0ff26	0.019652914
239	0xbdb3328d	-0.08749876
240	0x3b9c9f1c	0.0047797095
241	0x3c29e498	0.010369442
242	0xbd4cab47	-0.04996803
243	0x3d4428b2	0.047890373
244	0x3d3744bf	0.044743296
245	0xbdbf19dd	-0.09331105
246	0x3d067b9f	0.032832738
247	0xbd9712b7	-0.073766164
248	0xbda5c31e	-0.08093856
249	0x3d6907f7	0.05689236
250	0xbd448e39	-0.047987197
251	0x3da60c84	0.08107856
252	0xbdb61c91	-0.08892167
253	0xbd9fec78	-0.07808775
254	0x3d32b54e	0.043629937
255	0x3d76bd98	0.060239404

rnn.bias_ih_l1 f4 [384]
0	0xbd8e8c63	-0.069603704
1	0x3cb83aa7	0.022488905
2	0x3d9beb64	0.076132566
3	0xbc55fa34	-0.013060141
4	0x3c991351	0.018685969
5	0x3d0db30d	0.034594584
6	0xbb354ca5	-0.0027664092
7	0x3c552fc4	0.0130118765
8	0x3bcaf655	0.006193916
9	0x3d6ec274	0.058290914
10	0x3d357d12	0.04430873
11	0x3d7bf397	0.061511602
12	0xbce93005	-0.02846528
13	0x3d5be0fb	0.053681355
14	0x3bdff250	0.006834306
15	0x3d55cf1d	0.05219947
16	0x3c81cfe8	0.015846208
17	0xbcdc22d8	-0.026872084
18	0x3d289918	0.041161627
19	0x3d99bbb2	0.07506503
20	0x3d20cdae	0.03925865
21	0xbbae0f57	-0.0053118872
22	0xbd87b1ef	-0.06625735
23	0x3d18c4f4	0.037297204
24	0xbd954e72	-0.07290353
25	0xbc990567	-0.018679334
26	0xbdaaa679	-0.083325334
27	0x3db17259	0.08664388
28	0xbd7ec470	-0.062199056
29	0x3d49f58d	0.04930644
30	0xbd700e72	-0.058607526
31	0xbd48df8c	-0.049041316
32	0xbc58720f	-0.013210787
33	0x3d2fb33f	0.04289555
34	0x3c8a64d9	0.016893791
35	0x3d45f2f3	0.048327398
36	0xbdb160dd	-0.08661053
37	0xbdaa5ea2	-0.08318831
38	0x3d875d9b	0.06609651
39	0x3d75f5e5	0.060048956
40	0xbce9c7e7	-0.028537704
41	0x3da25628	0.07926589
42	0xbd7c54f2	-0.061604448
43	0x3d94d417	0.072670154
44	0xbd6b135d	-0.057391513
45	0x3d8c4b25	0.0685027
46	0xbdae63b6	-0.08515112
47	0x3d7a282a	0.06107346
48	0x3d60414a	0.054749765
49	0xbdaae5f0	-0.08344638
50	0x3d7141ab	0.058900516
51	0x3d7902b0	0.06079358
52	0x3d1e5405	0.038654346
53	0x3c32485d	0.010881511
54	0x3d7351a3	0.059404027
55	0x3d8f5384	0.06998351
56	0x3da67f06	0.081296965
57	0xbd108ddf	-0.03529155
58	0xbc0d4211	-0.0086217085
59	0xbd85e232	-0.06537284
60	0xbcced6c3	-0.02524889
61	0x3bc7de6f	0.006099514
62	0xbc3fe402	-0.011712076
63	0x3d1b0221	0.037843827
64	0xbb9fc840	-0.0048761666
65	0x3c502e19	0.012706303
66	0x3bdf5376	0.0068153692
67	0x3d464863	0.048408877
68	0x3d089fba	0.033355452
69	0xbc95f061	-0.018303098
70	0xbd833924	-0.06407383
71	0xbbb9e583	-0.005673112
72	0x3d5e8a66	0.054331206
73	0xbc1a7e82	-0.009429576
74	0xbdb9f47e	-0.09079836
75	0xbc82ebfc	-0.015981667
76	0xbdaee01f	-0.085388415
77	0xbcc55f5d	-0.024093324
78	0xbcec86ba	-0.028872836
79	0xbd12cabc	-0.035837874
80	0xbbe3c9a4	-0.0069515277
81	0xbc9ca2e4	-0.019120641
82	0x3d2cb1d6	0.042161785
83	0xbd9e1b71	-0.07720078
84	0x3c90e763	0.017688459
85	0x3bb4f2b0	0.0055220947
86	0xbc2d8175	-0.010589947
87	0x3bd4de27	0.006496209
88	0x3bec5b1f	0.007213011
89	0x3d1cfbc8	0.038326055
90	0x3c9a3fe9	0.018829303
91	0xbd93d19f	-0.072177164
92	0x39cea894	0.00039416982
93	0x3d0b43ed	0.034000326
94	0xbd088110	-0.03332621
95	0xbd0b1dc2	-0.033963926
96	0x3da0707e	0.07833956
97	0x3d86efcd	0.06588707
98	0xbc5df603	-0.013547423
99	0x3d8027a6	0.06257562
100	0x3c0ee3dc	0.008721318
101	0x3d1159f4	0.035486177
102	0x3c6465e9	0.013940313
103	0x3c42b2a0	0.011883408
104	0xbd326bc5	-0.04355981
105	0xbcbe67e4	-0.023242898
106	0xbc5859d6	-0.013205012
107	0x3c8368e3	0.016041225
108	0xbd4cd85e	-0.05001103
109	0xbdac52c0	-0.08414221
110	0xbd94cd78	-0.072657526
111	0x3dad3818	0.08457965
112	0xbb8cac34	-0.004292989
113	0x3d948baf	0.07253205
114	0xbd9d6ca9	-0.07686741
115	0x3cfeb579	0.031092392
116	0x3d928d5c	0.071558684
117	0x3da951d3	0.0826756
118	0xbd14ff86	-0.0363765
119	0xbd8083f9	-0.06275172
120	0xbd0c9397	-0.03432044
121	0x3ccf9ed6	0.025344294
122	0x3d4bbb9a	0.049739458
123	0xbd119166	-0.035539053
124	0xbd579583	-0.05263282
125	0xbd47da72	-0.04879231
126	0x3d758226	0.059938572
127	0x3d03b117	0.032151308
128	0x3d897a52	0.06712784
129	0x3d541164	0.051774397
130	0xbc1b2838	-0.009470038
131	0xbc13c535	-0.009019186
132	0xbd301e66	-0.04299774
133	0xbda0152a	-0.07816537
134	0x3cc1f435	0.023676017
135	0xbdfa2783	-0.122145675
136	0x3d41eac5	0.047343034
137	0x3d9bb187	0.0760222
138	0xbdc6637b	-0.09686943
139	0x3c32b265	0.01090679
140	0x3cd7bbaa	0.026334602
141	0x3cb4af3b	0.022056213
142	0xbd9060de	-0.07049726
143	0xbdcc767e	-0.09983538
144	0xbe108abb	-0.14115421
145	0x3d0a600d	0.033783007
146	0xbd8bd8d7	-0.06828468
147	0xbd252f31	-0.04032821
148	0xbd3c88a9	-0.046028767
149	0x3d367f1d	0.04455482
150	0xbd43fb17	-0.04784688
151	0x3d136370	0.035983503
152	0x3cf2beb3	0.029631948
153	0x3d92a47b	0.071602784
154	0x3cd8cc71	0.026464673
155	0xbd28b56e	-0.04118865
156	0xbd1e3f9c	-0.03863488
157	0xbcc87ef2	-0.024474595
158	0xbd021722	-0.031760342
159	0xbe026a38	-0.12735832
160	0xbdc310dd	-0.09524701
161	0x3d0e0636	0.034673892
162	0xbdab88e4	-0.08375719
163	0x3d92f06f	0.07174765
164	0xbd68c185	-0.05682518
165	0xbdbfce9a	-0.09365578
166	0x3d0fada9	0.035077725
167	0xbd92a4fa	-0.07160373
168	0x3c986d61	0.018606843
169	0x3d33d2ec	0.043902323
170	0xbd7773fa	-0.06041334
171	0x3d50884d	0.050911237
172	0xbdcf55b0	-0.101237655
173	0xbc6dc8e0	-0.014513224
174	0x3c5ec88a	0.013597617
175	0xba608440	-0.00085646287
176	0xbdfd8203	-0.123783134
177	0x3d430ba5	0.047618527
178	0x3c6ec273	0.0145727275
179	0xbd0b4118	-0.033997625
180	0xbdd24a39	-0.10268063
181	0xbcfaa8cc	-0.030598067
182	0xbd85f5d3	-0.06541028
183	0x3b95d0b3	0.004571998
184	0xbddf8ea2	-0.10915877
185	0x3b2b0a82	0.0026098792
186	0x3b54af56	0.0032453141
187	0xbc6fcc68	-0.014636137
188	0xbdd503df	-0.10401129
189	0xbd8d26da	-0.06892176
190	0xbd22f83a	-0.03978751
191	0x3d0b5ada	0.03402219
192	0xbc7f41a5	-0.015579616
193	0xbdde5e72	-0.10857858
194	0x3d5f33ae	0.054492645
195	0x3ca1e2f2	0.019761536
196	0x3cf1741b	0.029474309
197	0xbca56123	-0.02018792
198	0xbdd542f7	-0.10413163
199	0xbdb8d11d	-0.0902426
200	0xbc80371c	-0.015651278
201	0x3ba4a08a	0.0050240206
202	0xbdeb8bd9	-0.11501283
203	0xbc9e6eaf	-0.019339887
204	0x3b5b852b	0.0033496122
205	0xbba1fabe	-0.004943221
206	0xbc8c026d	-0.017091
207	0xbd32c5c7	-0.043645646
208	0xbe05b85a	-0.13058606
209	0x3d231885	0.039818306
210	0xbd08b2ab	-0.033373516
211	0xbbdd385a	-0.0067511024
212	0x3d1597f7	0.036521878
213	0xbdd9e34b	-0.10639056
214	0x3b038dfe	0.0020073648
215	0x3c81bc88	0.015836969
216	0xbdf1d5d7	-0.11808365
217	0xbbb3bfbf	-0.0054855044
218	0x3c7f04f5	0.015565147
219	0xbc08cf6d	-0.008350235
220	0x3b9fb6b0	0.004874073
221	0xbdbc92d9	-0.092076965
222	0x3d9ff759	0.0781085
223	0xbda14039	-0.078735776
224	0xbca6ac0c	-0.02034571
225	0xbce4064a	-0.02783503
226	0xbd952200	-0.072818756
227	0x3c494c30	0.012286231
228	0xbd413350	-0.047168076
229	0xbd45dad5	-0.048304398
230	0x3d1b79bb	0.037957888
231	0xbd996d47	-0.07491546
232	0xbda3248e	-0.07965957
233	0x3d7bfff7	0.061523404
234	0xbbfaf472	-0.0076585347
235	0xbdc3fbc2	-0.09569503
236	0xbdbfa677	-0.093579225
237	0xbdad2907	-0.08455091
238	0x3bc4d22f	0.006006501
239	0xbd6ae92c	-0.057351276
240	0xbc82b02c	-0.015953146
241	0x3d4520eb	0.048127096
242	0xbcf01cdd	-0.029310638
243	0x3cb8928a	0.022530813
244	0x3d9e2a2f	0.0772289
245	0x3db61a88	0.08891779
246	0xbd80c1f7	-0.06286996
247	0xbdd7b9b3	-0.10533466
248	0xbd9c9bf6	-0.07646935
249	0x3cf2544c	0.029581212
250	0xbdb8faa4	-0.09032181
251	0x3c8629a2	0.016377274
252	0xbd8b7851	-0.06810058
253	0x3cfce85c	0.030872516
254	0xbbdad33e	-0.006678014
255	0x3da2b1e0	0.07944083
