backend/trained_models/SCB_LSTM_model_state_dict.pth (torch, 808451 bytes, 9 tensors)

rnn.weight_ih_l0 f4 [512, 5]
000000 b0 53 bb bb 3b 94 bc 3c 60 ac 8e 3d e2 c2 4d bc
       -0.0057167634 0.0230199 0.06966472 -0.012558671
000010 89 47 20 bd 86 42 ad 3d 54 fa b8 3c c1 5f 64 3d
       -0.03913072 0.08459954 0.022580303 0.05575538
000020 3d 58 8f bb fc 5f 9e 3d 59 68 2d bc 33 56 89 bd
       -0.0043745325 0.07733151 -0.01058396 -0.06705894
000030 72 2a 0d bd f9 5e 92 3d 59 79 95 bd c4 05 55 3d
       -0.034464307 0.07147021 -0.07298536 0.05200745
000040 b1 90 a0 3d 36 d2 00 3d 6b 79 aa bd 15 8e bb bd
       0.07840098 0.031450473 -0.0832394 -0.09157959
000050 85 89 90 bd 71 28 90 bd 8d b0 59 3c 11 8a 56 3c
       -0.0705748 -0.070389636 0.013286722 0.013094441
000060 d8 6e d4 3c 3c 68 bb bd 1c 0b f4 bb 5f 37 55 bd
       0.02593176 -0.091507405 -0.0074476134 -0.05205476
000070 45 4c e3 bc cb 90 01 3d 48 52 76 3d dd 30 60 bd
       -0.02774633 0.031632226 0.060137063 -0.0547341
000080 8a 03 99 3d 12 2c 46 bd 41 df f1 bc 6e f3 02 3d
       0.07471378 -0.048381872 -0.029525401 0.031970434
000090 23 df 08 3c 34 20 86 bd c9 83 8c 3d 51 f8 c7 bb
       0.008353981 -0.06549111 0.068610735 -0.0061025997
0000a0 ab 8c 47 3d 85 fa 29 3c c4 b6 a3 3d 15 34 e7 bc
       0.048718136 0.01037467 0.07993844 -0.028223077
0000b0 90 a7 a1 3c ef a7 a0 3d 77 f1 64 3c 06 79 5f 3d
       0.01973322 0.07844531 0.013973585 0.054558776
0000c0 93 69 9b 3d 4d ce b3 bd 1e 83 4d bd f3 b1 9d 3d
       0.07588496 -0.08779583 -0.05017387 0.07699957
0000d0 b4 ab b0 3d f3 1c 6a bd 12 23 02 3d 51 87 ba 3d
       0.086265 -0.057156514 0.031771727 0.09107841
0000e0 10 15 be 3d 5b dd 6b bd 61 30 57 3d a3 af 92 3d
       0.09281361 -0.057584148 0.052536372 0.07162406
0000f0 19 8c 9f bd fc 0b 15 bd 78 d6 a3 bc 08 ce 37 3d
       -0.077903934 -0.036388382 -0.019999728 0.04487422
000100 e7 1d e0 3c 43 16 ad bd 66 3d 4e bd 55 81 fe bc
       0.027358009 -0.08451512 -0.050351523 -0.03106753
000110 cd f2 bd 3c a3 39 80 3c 79 f4 16 3d 28 d5 aa 3c
       0.023187065 0.015652483 0.03685424 0.020853594
000120 3c 18 e3 3c a0 88 1e bd e7 15 d7 bc ef 90 65 3d
       0.027721517 -0.038704515 -0.026255561 0.056046423
000130 e0 a3 2b 3c 38 45 a7 3c 65 49 92 3d d4 d1 b3 3d
       0.010476083 0.020418748 0.07142905 0.08780256
000140 59 20 03 3d e9 68 ab 3d 17 a4 10 3d 68 14 5a bd
       0.03201327 0.083696194 0.03531274 -0.053242117
000150 8e 00 b0 bd 10 06 30 3d 7b f6 87 bd a7 8d 7f 3d
       -0.08593856 0.04297453 -0.06638809 0.06239095
000160 98 66 a4 3d 3d ea 10 bd 5d ab 89 bb 59 e4 32 bd
       0.08027381 -0.035379637 -0.0042013363 -0.0436748
000170 17 0f 2f bd c9 d8 52 bd 91 a8 85 3d 81 a6 99 3d
       -0.042739 -0.051476274 0.06526292 0.07502461
000180 d1 49 9d bd c6 7c 9d 3d 28 7e 81 bd 79 18 63 bd
       -0.07680095 0.07689814 -0.063228905 -0.05544326
000190 a4 ff a3 3d ce 67 1e bc 55 19 10 3b a0 fb b8 3d
       0.08007744 -0.009668304 0.0021987755 0.09032369
0001a0 19 74 96 bd c7 1e f2 3c 83 d1 64 bd 04 fd 98 3d
       -0.073463626 0.029555691 -0.05586387 0.07470134
0001b0 cb 7e 24 bc df d0 96 bc 8a 0b 97 bc 27 5b 50 bd
       -0.010039995 -0.018410144 -0.01843812 -0.05086818
0001c0 49 be 6e bd 0d a9 bf 3d 36 04 b8 bc 85 0b 08 3b
       -0.05828694 0.09358416 -0.022462945 0.002075882
0001d0 cc 8e 24 3c 7e e1 15 bd 4a b8 3c 3d 5e 43 c0 3c
       0.010043811 -0.036592 0.04607419 0.023469623
0001e0 5f 08 ab bd 4e 8d eb bb 40 e2 75 bd 3b c8 12 bd
       -0.08351206 -0.0071884757 -0.060030222 -0.035835486
0001f0 ea 06 dc bb cb 37 a1 bd a5 82 79 bc 3c ca a6 3c
       -0.0067146914 -0.0787197 -0.015228902 0.020360105
000200 9c 0c a4 3d 4a 33 7c 3d c6 2d ad 3d 8e db a4 bd
       0.080102175 0.06157235 0.08455996 -0.08049689
000210 a7 db 80 3d 78 a6 ae 3c 86 93 9e bd 00 91 9b bd
       0.06291895 0.021319613 -0.077429816 -0.07596016
000220 1c 31 6a 3d ea f7 23 3c 31 db 5c bc 74 10 95 3d
       0.05717574 0.010007838 -0.013479994 0.07278529
000230 85 42 e6 bc ad a8 81 3d 42 5e 91 3c 2a 5f 70 3b
       -0.02810789 0.063310005 0.017745141 0.0036677816
000240 0e 28 ce bc a7 a8 0d 3d 94 45 4c bd 66 f9 e5 bc
       -0.025165584 0.034584668 -0.049871042 -0.028073024
000250 51 66 ea 3b fc 81 19 3c 56 32 92 bd 70 f0 86 3d
       0.0071533103 0.00936937 -0.07138507 0.065888286
000260 00 15 9e bd 20 d0 a3 3d 6a 81 05 3d d0 22 a8 3d
       -0.07718849 0.07998681 0.032594122 0.08209765
000270 cd 20 e7 bc e3 65 16 3d e3 b4 bb 3d b9 d5 4d 3d
       -0.028213883 0.03671826 0.09165361 0.05025265
000280 87 b5 34 bd 70 d5 ce bc 8f 95 14 3d 4f 54 27 3d
       -0.04411843 -0.02524826 0.036275443 0.040851887
000290 d7 8f 8b bd 6a f0 d7 3c de c8 74 bc cc ea 98 3d
       -0.06814545 0.026359756 -0.014940469 0.07466659
0002a0 48 61 8a 3c ea 0e 2a bd e0 24 8d 3d d3 43 83 3d
       0.01689209 -0.04151813 0.06891799 0.06409421
0002b0 8b eb 69 3d 11 c9 ad 3c 05 38 b1 3d 97 ce 65 bd
       0.057109397 0.02121404 0.08653263 -0.056105223
0002c0 35 88 af 3d 85 68 49 3c bd 7e 0e bd 82 73 48 bc
       0.08570901 0.012292986 -0.034788836 -0.01223457
0002d0 f5 fa 4a 3d eb c8 29 3d dc af bc 3d e1 ac 21 bc
       0.049555738 0.041451376 0.0921323 -0.009867878
0002e0 5c ae a8 bd 37 64 f0 3c 6c 66 cf bc 7a 1c 55 bd
       -0.082363814 0.029344661 -0.025317393 -0.05202911
0002f0 3e 94 04 3d 49 6f 57 3d 3d b0 35 bd 16 ad 8c 3c
       0.032367937 0.052596364 -0.044357527 0.017172378
000300 df 51 df bc 27 42 da 3d 3b 1d 6d bd 51 4d 4d bd
       -0.027260719 0.10657149 -0.057889204 -0.050122563
000310 6d 30 24 3d bc d8 be ba 66 f8 7c 3d 2b 3d 42 bd
       0.040085245 -0.0014560441 0.06176033 -0.047421616
000320 bf 21 24 bd 3f 6c b2 bc 5c d9 ff bc 3b b5 59 3b
       -0.040071245 -0.021780131 -0.031231575 0.0033219594
000330 91 41 ca 3c 5a 2c 1c 3d b4 b0 1f 3c b0 9b a2 bd
       0.024689468 0.038128234 0.009746719 -0.07939851
000340 68 ac 9b 3c 49 65 99 3d 2e f5 a0 3c 44 66 38 3d
       0.019003108 0.07490022 0.01964816 0.045019403
000350 c8 3c b0 3d 05 1b 72 3d ac 37 a1 3d 5f a8 f6 3b
       0.08605343 0.0591078 0.07871947 0.0075273956
000360 dc 57 3e 3b 16 67 bb 3d 10 83 91 bd 65 95 91 bd
       0.0029044067 0.091505215 -0.07105076 -0.07108573
000370 bb 66 16 bd c4 4a 8d bd 94 09 68 39 62 f9 2d 3d
       -0.036719065 -0.06899026 0.00022128812 0.042474158
000380 eb 4c f3 bb 6d 42 b7 3d a3 20 f7 bc ad ee 9e bc
       -0.007424941 0.089482166 -0.03016693 -0.019400919
000390 ed 79 b4 bc d7 6b e4 bc 3d d0 91 bc 80 5d ac 3d
       -0.022030795 -0.027883453 -0.017799491 0.08416271
0003a0 86 e5 5c 3c a7 57 25 3d ef b2 86 bd 34 6b c2 bd
       0.013482457 0.040366795 -0.065770976 -0.094931036
0003b0 46 f7 e8 3c 89 fa 59 3d 24 28 7a 3d 70 bc 8f 3c
       0.028438222 0.053217445 0.061073437 0.017545909
0003c0 50 be 75 3b c2 9e 79 3d d4 29 90 bb 49 96 4b 3d
       0.0037497468 0.06094242 -0.0043995176 0.04970387
0003d0 b2 3a 2b bc 96 b9 9b bd 27 4e 85 bb af 7f d2 3a
       -0.010451006 -0.07603757 -0.0040681544 0.0016059781
0003e0 c8 f9 66 3d 01 67 79 3d b3 f1 83 bd f5 b4 33 3a
       0.056390554 0.060889248 -0.06442585 0.0006855273
0003f0 52 e3 92 bd de 76 3c 3d 2d 48 a7 3d d3 04 7f bd
       -0.07172264 0.046011798 0.08168063 -0.06226046

rnn.weight_hh_l0 f4 [512, 128]
000000 39 f6 99 3d 53 14 27 3c cd d4 93 bd fa 20 00 bd
       0.07517666 0.010197717 -0.07218323 -0.03128145
000010 c2 ab 64 bd 60 e0 d3 bc bb 29 6e bd c8 6e 76 3d
       -0.055827864 -0.025863826 -0.058145266 0.060164243
000020 8a dd 20 3d a4 05 19 3d 01 72 69 bd 48 48 3f bd
       0.039273776 0.037358895 -0.05699349 -0.046699792
000030 8f ee 96 bd 32 f8 b5 bc a8 6b 90 bd 93 69 64 3d
       -0.0736972 -0.022213075 -0.07051784 0.055764746
000040 11 1a e4 bc fc 28 84 bd 3a b9 73 bd fe a5 af bd
       -0.02784446 -0.0645313 -0.059502818 -0.08576582
000050 21 2d 89 bd 14 54 a8 3d 82 04 82 3d c6 2d 77 b9
       -0.06698061 0.08219162 0.06348516 -0.00023572808
000060 1c ce 5d 3d 17 8f a0 bd 19 17 fa 3c ff 0b 53 3d
       0.05415164 -0.07839792 0.030528592 0.051525112
000070 4b c9 8f bd e3 79 a4 3d 19 46 96 3d 50 dd 71 bc
       -0.070208155 0.080310605 0.07337589 -0.014762238
000080 ef 70 40 3d 99 94 b9 bd c2 fe a7 3c 80 06 7c bd
       0.046982702 -0.09061546 0.02050722 -0.061529636
000090 95 ee 22 bd 59 0a e1 bb 43 64 7f 3d ad 5b 04 3d
       -0.03977831 -0.0068676886 0.062351476 0.03231399
0000a0 99 fe 9e bd c0 9b 9c 3c f2 09 bb 3c c9 47 a4 bd
       -0.077634044 0.019117236 0.02283189 -0.080215044
0000b0 93 7e 4c 3d f1 a6 a1 3d a7 54 22 bd 69 ed 85 3d
       0.049925398 0.0789317 -0.039631512 0.06539423
0000c0 fb fc cc bd f4 53 a5 bd 34 36 71 bc 53 d9 a9 bd
       -0.1000919 -0.080726534 -0.014722396 -0.082934044
0000d0 cc f0 12 3b b6 0b 00 3d d1 fa cc 3a fd b4 da 39
       0.0022421358 0.03126117 0.0015638714 0.00041715047
0000e0 18 e1 6e bd 1b d6 a5 bd 9a 20 14 3b 0b d7 db bc
       -0.058320135 -0.08097478 0.002260244 -0.026835939
0000f0 20 99 de 3c ce eb 87 3d 7a 53 83 bd d5 73 98 3b
       0.027172625 0.06636773 -0.06412406 0.00465248
000100 50 22 4b bd ce d3 57 3d 3f af a8 3c f0 f1 c3 bc
       -0.04959327 0.052692227 0.020591376 -0.023919076
000110 13 b0 58 bd be 9d 81 3c f0 f6 ee bb 4f 95 87 bc
       -0.052902292 0.015822288 -0.007292621 -0.016550688
000120 ae a6 10 3d b5 35 03 bd d7 2e 26 3d 6d a3 b6 bd
       0.035315208 -0.03203364 0.040572014 -0.0891789
000130 fc 64 9a bd 9d ff 6e bd f5 dd ae bd ee 5d 7d bd
       -0.075387925 -0.05834924 -0.08538429 -0.061857156
000140 0f 2d ff ba ea 7d f9 bc 24 8a 97 3d c3 3c 09 3d
       -0.0019468385 -0.030455548 0.07399395 0.033505213
000150 a3 27 98 bd 8a 33 24 3d a1 92 6b 3d c6 23 5e 3d
       -0.07429435 0.040088214 0.057512883 0.054233335
000160 85 f8 a7 3d f3 18 b2 3d 37 20 e0 bb aa 5c de 3c
       0.08201698 0.08696165 -0.006839778 0.027143795
000170 7e 06 07 3e 7a ef 1e 3c 65 78 49 bd c7 60 9f bd
       0.1318607 0.00970065 -0.049187083 -0.07782131
000180 ac d8 2a bd 3e 6a ac bc e0 7e 01 bb 7e 5f 12 bd
       -0.04171054 -0.021046754 -0.0019759461 -0.0357356
000190 4a 94 01 bd 10 0c 68 bd 65 b8 b2 3c 44 f6 bc bc
       -0.03163556 -0.05665213 0.021816442 -0.023066647
0001a0 5b 0f 34 3d 26 41 ec 3c 06 48 15 3d 33 3f 3b bd
       0.043959957 0.028839659 0.03644564 -0.04571457
0001b0 d7 1a 36 3d 4c 8b e0 bb 6f 13 96 3d ac ad 24 bb
       0.04445919 -0.006852543 0.073279254 -0.002512793
0001c0 1e 81 bb bc fd ca 0c bd 5a bd bd 3d 02 c8 0c bc
       -0.022888716 -0.034373272 0.092646316 -0.008592607
0001d0 74 b3 95 bd 13 80 03 3d 12 2b 63 3b 18 c0 81 bd
       -0.073096186 0.032104563 0.0034663123 -0.06335467
0001e0 26 67 14 3d 83 59 12 bd 45 aa 47 bd 5a 67 42 3d
       0.036231183 -0.035729896 -0.048746366 0.047461845
0001f0 a2 63 76 bd 67 b6 2b 3b 04 73 9d 3d 7c 9d 7e bd
       -0.06015361 0.002620125 0.07687953 -0.062161908
000200 15 98 09 3d fc 68 26 3c d5 0e a0 3c 12 1b 6b bd
       0.033592302 0.010156866 0.019538322 -0.057398863
000210 67 01 1a 3c 98 2a 34 3d b4 ae 03 3d d3 cf cf bb
       0.009399748 0.043985933 0.03214903 -0.0063419132
000220 16 d7 6e 3d 67 19 6f bd 44 dc 91 3c 05 55 77 3c
       0.05831059 -0.058373835 0.017805226 0.015095954
000230 b7 ac 10 3d a3 af 98 bd 3b eb b4 3d 96 6a b2 bd
       0.035320964 -0.07455375 0.08833929 -0.08711736
000240 c6 e3 48 bd 43 79 4a bd 9a 69 a3 3d 02 b3 86 3c
       -0.049045347 -0.04943205 0.07979126 0.01644278
000250 e6 6f a3 3d 7c 90 80 3d c4 74 71 3d 9b 85 83 3d
       0.07980327 0.06277558 0.058949247 0.064219676
000260 45 0e c1 3d 34 e9 9b 3c 45 e9 a6 3d 4a 9c 6b 3d
       0.0942655 0.019032098 0.081499614 0.057522096
000270 de a3 ca 3c d5 44 fc 3c 53 09 9b 3b 64 d4 34 bd
       0.024736341 0.03079454 0.004731336 -0.044147864
000280 f6 35 82 bc 74 c7 92 3d d5 04 3f bd d8 6b 87 bc
       -0.015894871 0.07166949 -0.046635468 -0.016530916
000290 8b b1 8b bd 87 11 44 3d 8a e2 35 bd 8b da 06 3d
       -0.06820973 0.047868278 -0.044405498 0.032923263
0002a0 f4 23 8a bb 85 be 28 3d 92 29 42 3d 19 a7 a5 bd
       -0.0042157117 0.04119732 0.047402926 -0.08088512
0002b0 fd 2f 91 3b b5 8a 28 bc dd 87 e6 3b f9 35 d1 bc
       0.0044307695 -0.010286977 0.007035239 -0.025538431
0002c0 ff d2 28 3c 54 a1 45 3d 8e 5f ad bd 22 b9 93 3d
       0.010304212 0.048249558 -0.08465491 0.07213046
0002d0 71 ee 33 bd 54 0c b6 bd e8 c7 96 3d f0 fe d8 bc
       -0.043928567 -0.0888907 0.07362348 -0.026488751
0002e0 aa 9e 74 3b 11 6b 12 3d eb 7f 2c bd 18 fe 29 bc
       0.0037326016 0.035746638 -0.04211418 -0.010375522
0002f0 d2 43 72 3d 5e ae ad 3d 08 39 c5 bc e1 93 64 bd
       0.05914671 0.084805235 -0.024075046 -0.05580509
000300 e3 5f cb 3c a0 b6 8f 3d dd de df bc 36 74 6c 3d
       0.024825996 0.07017255 -0.02732795 0.057728015
000310 c0 3e 8a 3c b8 3c 17 bd bf 0a d8 bc 7a 24 a0 3d
       0.016875625 -0.03692314 -0.026372312 0.07819457
000320 8d 24 b3 3d db c2 0d bc 47 5d 99 3d 3b 98 e0 bc
       0.08747206 -0.008652414 0.07488494 -0.02741634
000330 31 d1 86 3c b5 59 a4 bd 62 3f 9d bd ef 74 94 3d
       0.016457172 -0.08024923 -0.07678105 0.07248866
000340 75 f9 b5 3d ae 23 cf 3c 39 22 35 bd ff cd 66 bd
       0.08885471 0.025285568 -0.04422209 -0.056348797
000350 f5 f5 5e bd 18 92 69 3d a7 08 b4 bc 02 4b bc 3b
       -0.05443378 0.05702409 -0.021976782 0.0057462463
000360 fa 72 fe bc 27 d6 e1 3c bc 3b 3b bb c7 bc 83 bd
       -0.031060684 0.027567936 -0.002856954 -0.06432491
000370 1c 1e ed 3d f6 0d 1e bb 5e e6 a0 bd 88 83 8a 3d
       0.115780085 -0.0024117208 -0.07856439 0.06763369
000380 e2 2f c6 bc 8a ec 47 bd 03 ba b1 3d e7 40 96 3d
       -0.024192754 -0.048809566 0.08678057 0.07336598
000390 4c c7 bb 3d 8b 78 8a bd 7f d1 f6 bb 1b 39 3d bd
       0.09168872 -0.06761273 -0.007532298 -0.04619704
0003a0 48 5c 67 bd d6 17 81 3d 21 03 7f 3d 76 2d 9c 3d
       -0.05648449 0.063033745 0.062258843 0.076258585
0003b0 6e aa 8b bc 60 1c 8b 3d 6f d0 6c 3d 73 b6 a6 3d
       -0.01704904 0.067925215 0.057815965 0.08140268
0003c0 55 f2 c9 bb 88 de 9a 3c 2c 06 7a 3c 4c 72 a7 bd
       -0.0061629214 0.01890494 0.015260261 -0.08176097
0003d0 a3 83 57 bd fd a9 8e 3b 70 ac 8f 3d cb df 1c 3d
       -0.052615773 0.0043537603 0.07015312 0.038299363
0003e0 c7 49 f6 bb 40 b8 d5 3c b2 d5 d3 bc 10 5e 6b 3d
       -0.007516119 0.026088834 -0.025858734 0.057462752
0003f0 d3 33 58 3d e3 3f f7 3c 3f a8 8d 3d f2 c4 df 3c
       0.0527838 0.03018183 0.06916856 0.02731559

rnn.bias_ih_l0 f4 [512]
000000 fa 6b 48 3d ab f7 26 3d b9 9f 85 3d 3c 29 02 bc
       0.0489311 0.04076354 0.06524605 -0.007944401
000010 b2 f4 a0 3d e4 90 64 3c 74 c2 b2 bc 58 62 6f 3c
       0.07859172 0.01395056 -0.021821238 0.014610849
000020 95 e2 42 3c 59 dd 89 bd e2 3e cd 3c 15 11 1e 3c
       0.011894842 -0.06731672 0.025054399 0.009647627
000030 cd 70 2b bd aa c8 62 bd 5e 6a d0 3d 7d 79 ef bc
       -0.041855622 -0.05536715 0.10176538 -0.029232735
000040 e9 52 95 bb 9d da 68 3d 0b 73 e1 3b 38 a1 50 bc
       -0.004557003 0.05684911 0.0068801693 -0.01273375
000050 43 17 c6 bc 35 52 75 bd 9b 4f 38 3d eb 79 9b 3c
       -0.024181014 -0.05989285 0.044997793 0.018979033
000060 96 00 a3 bc 12 48 9a 3d 48 01 30 bd 9b 8b 8a 3d
       -0.01989774 0.075332776 -0.042969972 0.06764909
000070 7e 2d b0 3d da 86 bd bc 52 3f 10 bd 00 f7 98 bd
       0.08602427 -0.023135591 -0.035216637 -0.074689865
000080 c6 74 9b 3d 45 93 24 3d 00 73 95 bd b8 75 a3 bd
       0.07590632 0.04017951 -0.07297325 -0.079814374
000090 cf 39 5a bd 3c 14 77 bd cd 77 2b 3d b6 c2 66 bd
       -0.053277787 -0.06032203 0.041862298 -0.056338035
0000a0 b7 63 72 bd e8 cd f6 3c be 77 04 3d ae fd 73 3d
       -0.059177127 0.03012748 0.032340758 0.0595681
0000b0 7f 4b f2 3c ff 53 b1 bb eb e6 7b 3b 6c a3 ab bd
       0.029577015 -0.0054116244 0.0038437198 -0.083807796
0000c0 6f 18 a7 3d 7a e3 cc bc 39 dc 48 bc ec 0c 39 3c
       0.08158957 -0.025010813 -0.012259536 0.011294585
0000d0 43 e9 93 3d b9 73 25 3d 18 54 51 bd b2 33 45 bd
       0.072222255 0.040393565 -0.05110559 -0.048145004
0000e0 5f 5d 74 3d 1b c5 ce 3d fb 8f 3d 3d 67 fb 9e bd
       0.059659358 0.10096189 0.04627989 -0.07762795
0000f0 aa dc f7 bb 5c 10 28 3c 26 a5 06 bb 4f 26 2b bd
       -0.007564147 0.010257807 -0.0020545213 -0.04178458
000100 1c 2f 0a bd ef 3c 96 bd 77 0b 42 bc 49 13 82 3d
       -0.033736333 -0.07335841 -0.011843554 0.063513346
000110 96 02 60 bd 74 82 73 3b 94 c5 d4 bc 13 67 7a 3d
       -0.054689966 0.0037156614 -0.025973119 0.061133455
000120 86 cf 91 3d 3a e5 71 3d 00 eb 02 bd e0 4c 3b 3d
       0.0711966 0.059056498 -0.031962395 0.04572761
000130 b3 3c df 3c be 1c 6d bd db 4f 56 bd 30 45 15 bb
       0.027250623 -0.05788874 -0.05232225 -0.0022776835
000140 3f 83 48 3d b3 d2 59 bd 6a 95 6c 3d 4b 56 a5 3d
       0.04895329 -0.053179454 0.05775968 0.080731
000150 a9 5c 62 bc e4 f9 93 3d f5 07 b1 3d c2 9d 93 bd
       -0.013816037 0.07225397 0.08644096 -0.07207824
000160 3a 2f a8 3d fd bc 5c 3d ed 41 f0 3c 84 4f 8d 3d
       0.08212133 0.05389117 0.02932831 0.06899932
000170 0c a9 73 3d f7 be 38 3c 05 52 77 3d d8 38 77 bd
       0.059487388 0.011275998 0.060380954 -0.060356945
000180 75 0c 81 bc 5a 1e 8c bd 0a 95 5a bd 00 55 10 bc
       -0.01575301 -0.068417266 -0.05336479 -0.008809328
000190 da 90 5a 3d 99 9f b6 3d 86 2e 38 3c ca a3 32 3d
       0.053360797 0.089171596 0.011241561 0.043613233
0001a0 17 8d 7f 3d 67 8d 83 3d 55 16 7a 3d fc dc 39 bd
       0.062390413 0.06423455 0.061056454 -0.045376763
0001b0 63 30 15 bd d8 29 6e 3d dc b5 3b ba 4a b2 1b bd
       -0.0364231 0.058145374 -0.0007160583 -0.038011827
0001c0 f2 04 ad 3d 9a f8 0b 3d 78 c0 76 bb f5 39 30 3d
       0.08448209 0.03417263 -0.0037651341 0.043024022
0001d0 37 1e ad 3c d1 98 7e bc f5 a0 fa 3b 6a 9f b8 3d
       0.021132572 -0.015539364 0.007648582 0.09014781
0001e0 7f e4 ab 3d fd 2d 87 bc 14 d8 be 3d 13 66 09 3b
       0.083931915 -0.016501421 0.093185574 0.0020965382
0001f0 7d a5 4c 3d 95 95 c1 bd be b1 b2 bc 01 56 86 bd
       0.04996251 -0.09452359 -0.02181327 -0.06559373
000200 74 ed 2f 3c 66 22 5d 3d 4d 1b de bc 83 b7 7e 3d
       0.010737766 0.053987883 -0.027112627 0.06218673
000210 58 f9 79 bd 6f d7 20 bd 73 aa 74 3d aa b7 54 bb
       -0.06102881 -0.039267953 0.059732866 -0.0032458105
000220 50 56 75 bc 71 65 7d bd fd a4 f4 3c 48 b8 af bd
       -0.014974192 -0.06186432 0.029863829 -0.08580071
000230 ae f2 f5 3c df 6c 10 bd 7d a3 98 bd 3d 02 9a 3c
       0.030022945 -0.035260078 -0.07453058 0.018799895
000240 2e c9 0f bc a9 36 d3 bd c2 75 0b bd 75 84 78 bb
       -0.008775992 -0.1031316 -0.03404785 -0.0037920747
000250 4d d9 85 3d aa 79 6b bd 9f dc 55 3d 54 28 8a bd
       0.065355875 -0.057489075 0.052212354 -0.06745973
000260 5b b3 c7 3c 12 04 8e bd 39 fc 04 3d 7e 91 80 3d
       0.024377516 -0.0693437 0.0324671 0.062777504
000270 4a db 41 3c a1 29 dd bc b5 b2 db 3c 7a 50 b9 bc
       0.011832068 -0.02699739 0.026818613 -0.022621382
000280 27 e6 6e bd d8 68 c6 3d 7a 37 57 bd ba dc 82 bd
       -0.05832496 0.09687966 -0.05254314 -0.063897565
000290 98 59 69 bd 85 ec a6 bd 79 12 c0 3b fe 09 31 3d
       -0.05697021 -0.08150581 0.005861577 0.04322242
0002a0 e2 e8 5f 3d 28 31 86 3c 2c 75 2c 3d 07 db 89 bd
       0.054665454 0.016380861 0.04210393 -0.06731229
0002b0 4a 46 9f 3b b9 9e a8 3d 9d 9b c6 3b 54 e8 a0 bc
       0.004860674 0.08233399 0.006061031 -0.019642033
0002c0 17 c8 9a 3d ff 66 5e 3d d3 d5 8d bd 2b 8c 53 bb
       0.07557695 0.054297443 -0.06925549 -0.0032279592
0002d0 70 9c 56 3c fd 38 32 bd 83 fa 11 3d 40 cd 9b ba
       0.013098821 -0.04351138 0.035639297 -0.0011886731
0002e0 13 44 84 bd 35 29 04 bd 87 7f 08 3d 1d 31 a0 3d
       -0.064582966 -0.03226586 0.033324745 0.078218676
0002f0 f4 8b 4a 3c 83 b7 a9 3d 01 67 93 3d 42 a6 64 bd
       0.012362469 0.08286955 0.07197381 -0.05582262
000300 7f 59 2b 3c 4a ba 10 3c 42 d0 e0 3c 73 4f 02 3d
       0.010458349 0.008833477 0.027443055 0.03181405
000310 a8 90 1d bd 92 41 cb bb c1 52 ed 3c 7a 7d fb bc
       -0.038468033 -0.006202885 0.028970124 -0.03069948
000320 b6 a4 03 3c eb b8 3f bd 77 2f 6f 3d db 98 bc 3d
       0.008034876 -0.04680721 0.058394875 0.09208842
000330 f8 08 05 bc 52 da e0 bb 27 90 a4 bd 84 60 4a 3c
       -0.008119814 -0.0068619633 -0.080353074 0.012352113
000340 f8 7b 8f bd bf de d2 3c eb d4 98 bd 79 f2 98 bd
       -0.07006067 0.02574098 -0.07462486 -0.07468123
000350 4e 2e a0 3d dd e6 68 3d ff b8 52 bd 02 b2 2c 3d
       0.07821332 0.056860793 -0.051445957 0.04216195
000360 f8 d5 9f bb d7 5e 69 bc c1 8c 88 bd 51 db 63 3d
       -0.004877802 -0.014243803 -0.06667472 0.05562908
000370 b4 fa b6 3c 75 a5 89 bd 17 a0 a8 bc 0d d9 97 3c
       0.022336341 -0.067210115 -0.02058415 0.018536115
000380 7c 26 96 bd bb 88 a9 bd e3 c0 a5 bc 9d 27 8f bd
       -0.07331559 -0.082780324 -0.020233577 -0.069899775
000390 0c d6 ce 3c df 14 28 3d cd 1d 9b 3d 0e 5d 20 bd
       0.02524855 0.04103553 0.075740434 -0.039151244
0003a0 41 2c 7f 3d 17 37 3c 3d bc 68 c1 bb 93 4b e5 3c
       0.062298063 0.045950975 -0.005902378 0.027990138
0003b0 e8 47 9d 3d 12 c3 a6 bc c0 f1 9c 3d df ef f0 bc
       0.07679731 -0.020356689 0.07663298 -0.029411254
0003c0 74 88 60 bd d0 5e 8f 3d 90 82 f6 3c 8a 32 50 3d
       -0.05481763 0.07000506 0.030091554 0.050829448
0003d0 be d8 0f 3d 17 04 85 3d f9 70 c2 bc 81 02 21 bc
       0.03511881 0.06494921 -0.02373551 -0.009827257
0003e0 f8 4a af 3d 95 94 e2 bc a1 aa c2 3d ea 22 3b bd
       0.08559221 -0.02765874 0.09505201 -0.045687594
0003f0 fe ab 5f 3c 18 2c 63 bd 8f 61 d8 bc 3d 0f 2d bd
       0.013651846 -0.055461973 -0.026413707 -0.04225086

rnn.bias_hh_l0 f4 [512]
000000 00 f6 0a 3d b4 0d 85 bd 7a 67 87 bd d9 59 0b 3d
       0.03392601 -0.06496754 -0.066115335 0.034021232
000010 e7 71 8c bd 90 0f b8 bc 80 2d 83 bd 3f 42 d4 bc
       -0.06857663 -0.022468358 -0.06405163 -0.025910495
000020 5e c4 31 bc 2d aa 3e bd 1d 6f 65 3d 51 fe 67 3c
       -0.01085004 -0.04654901 0.05601417 0.014159755
000030 1d 10 44 bb 83 6d 38 3b b0 ba f0 3c 81 a2 9a bd
       -0.002991683 0.0028141446 0.029385895 -0.075505264
000040 e7 1f 8d 3d 4f 06 e1 bc 6c 0d 67 bd ac 3a a1 bb
       0.068908505 -0.027468828 -0.056409284 -0.0049203243
000050 74 4c 77 bd 44 fa 13 bc ce f1 9b bd f4 89 47 3d
       -0.060375646 -0.009031836 -0.0761448 0.048715547
000060 88 0e 08 bb 2f 14 a2 bd 0a e2 3a 3c 27 95 1b bd
       -0.0020760614 -0.07914006 0.011406431 -0.03798404
000070 18 f8 29 3d 8b a6 b8 bc 2c 39 93 bd 6e ed 96 ba
       0.041496366 -0.022540351 -0.07188639 -0.0011514851
000080 62 fb 0b 3c cd 8a 20 bd 5f 25 8f bd b9 9e 63 3d
       0.008543821 -0.03919487 -0.0698955 0.05557129
000090 91 ea 74 3d 36 8f ae bd 4d f1 94 3d 61 7f 81 bd
       0.059794012 -0.08523409 0.07272587 -0.06323124
0000a0 90 a5 9f bd 6b 96 d9 b9 f2 bc b5 3d 10 62 d6 3c
       -0.077952504 -0.00041501535 0.08873929 0.026169807
0000b0 e5 0a 67 3d c1 b8 2c bc ad a7 54 3d 6f 12 45 3d
       0.056406874 -0.010542096 0.05191772 0.048113283
0000c0 10 fb a7 3c e0 52 53 bd b3 43 27 3d a4 b4 cf 3b
       0.020505458 -0.051592708 0.040836047 0.0063386727
0000d0 8d eb ab 3d 4a c3 0b bd c6 f8 98 bc 7a ad 72 3d
       0.08394537 -0.03412179 -0.018673312 0.05924747
0000e0 fd de 76 bc 3a 9c 6c 3c 85 70 7f bd 11 31 08 3d
       -0.015067813 0.014441544 -0.062363166 0.03324992
0000f0 78 9f 6b 3d d0 fa 97 bd 80 1b 2b bd 96 16 12 bd
       0.057525128 -0.074208856 -0.041774273 -0.03566607
000100 79 1f 98 bc 11 f8 79 3d 9b 70 9d bc 09 18 2b 3d
       -0.018569695 0.06102759 -0.019218734 0.04177097
000110 b4 6f 8a 3d d7 77 58 3d 4c b8 ab bc 93 6f 91 3d
       0.06759587 0.052848663 -0.020961903 0.07101359
000120 52 4d 4f bd 74 f0 6a bc a0 59 49 bc c7 63 52 ba
       -0.050610848 -0.014339555 -0.012289435 -0.0008025732
000130 a1 39 78 bd d3 71 3d 3d 32 38 51 3d e1 87 5e bd
       -0.060601834 0.04625113 0.051078983 -0.054328803
000140 0b bc f6 b8 ba 34 3f 3c d6 ed 31 bd 60 80 9d 3c
       -0.0001176522 0.011670286 -0.04343971 0.019226253
000150 d7 a0 8b 3d 2a 5b c7 3d f4 a8 39 bc 1e 52 c5 bc
       0.06817787 0.09734185 -0.0113317855 -0.024087008
000160 0f b3 af 3d e7 b0 4c 3c d4 b9 29 bb 7e f9 c4 bd
       0.085790746 0.012493349 -0.0025898116 -0.09617899
000170 b1 73 a2 3d e2 0c 8c bd 73 52 c8 3d 15 8d 25 3d
       0.07932223 -0.06838395 0.09781351 0.04041775
000180 69 bf 67 3d 70 49 0f 3d 9a 8e 90 3c bd d9 86 bd
       0.056579027 0.034982145 0.017646123 -0.06584499
000190 34 49 2b bd e5 60 2f 3d 5a a3 69 bd 2b b9 96 3c
       -0.04181786 0.042817015 -0.05704055 0.018398842
0001a0 80 96 84 3d f6 75 ce bd ff c6 9a 3c db 1c 98 3b
       0.06474018 -0.10081093 0.018893717 0.0046421117
0001b0 f4 87 40 bc dc 29 ad 3c 67 85 49 bd c5 b8 ab 3d
       -0.011751164 0.021138124 -0.049199488 0.08384851
0001c0 00 18 5f bb ec e2 5e 3d d3 87 c7 bc 0c 12 9b bd
       -0.0034041405 0.05441563 -0.024356758 -0.075718015
0001d0 b5 a3 8f bd 60 62 51 3d c2 7c 36 3d 4f cd ff bc
       -0.070136465 0.05111921 0.044552572 -0.031225828
0001e0 38 d0 95 3c 68 66 ff 3c 03 d1 9e ba 52 7f b6 ba
       0.018287763 0.03117676 -0.0012116734 -0.0013923442
0001f0 42 04 2e 3c e4 58 70 3d b5 44 9e bc 6b 1c 5b 3d
       0.010621132 0.058678523 -0.019319871 0.0534939
000200 ee 15 fa 3c 45 10 8e 3c ec aa 95 3c dd 51 6c 3d
       0.030528035 0.017341742 0.018269978 0.05769526
000210 9e b2 b0 3d 52 75 f2 3c 11 0f 88 bd 80 0b bf bd
       0.086278185 0.029596958 -0.06643499 -0.09328365
000220 9c 7f 49 3d a8 3e 61 3c 6a 6a 45 bc bd 0f 97 3a
       0.049193963 0.013747849 -0.012049297 0.0011525076
000230 ac 69 92 bd 84 b6 57 bd 02 0a 34 bd b4 fc 6d bd
       -0.071490616 -0.052664295 -0.043954857 -0.058102325
000240 bb 21 57 3c 1b 62 b8 bd ec d6 76 3d a7 89 be bd
       0.013130601 -0.09003087 0.06026356 -0.09303599
000250 42 0a 16 bc d1 8d 15 bd 98 78 9e 3d 72 15 26 3c
       -0.009157719 -0.0365122 0.07737845 0.010136949
000260 e4 3d 8e 3d 49 cb d6 bc 63 c3 79 3d fb e8 05 3d
       0.069453984 -0.02621998 0.06097735 0.03269289
000270 02 62 57 3d cd e5 a4 bd 82 e2 7a 3d 7c 72 b5 3d
       0.052583702 -0.080516435 0.06125117 0.08859727
000280 ef a1 c5 3c 67 44 ca bc d8 8a a6 3d b8 04 87 bd
       0.024125068 -0.02469082 0.08131951 -0.06592697
000290 7b b9 1e 3d 95 29 a4 3d 71 c4 ac bb 5e 81 85 3d
       0.038751107 0.08015744 -0.005272441 0.065188155
0002a0 3a 49 ac 3d 35 07 e5 bc da 5d 82 bd 34 6d ad 3d
       0.08412404 -0.027957538 -0.06365557 0.084680945
0002b0 18 01 86 3d 4b 1e b2 ba 05 77 bd bc 92 27 0d 3d
       0.06543177 -0.001358935 -0.023128042 0.034461565
0002c0 22 e0 dc bb 4d 18 eb bc 4f 96 0e 3d 9e 48 a1 bd
       -0.006740586 -0.028698111 0.034811314 -0.07875179
0002d0 2c 86 56 bd fe 33 52 3d d7 f0 10 3d cc 1a 3f 3d
       -0.05237405 0.051319115 0.035385933 0.046656415
0002e0 c9 5b 07 3d 22 5b 9d 3d 0c 08 2d 3c 86 29 3a 3d
       0.033046518 0.07683398 0.010561001 0.045449756
0002f0 a9 46 6a 3c 45 2b ea 3c 7e a9 c3 3c 64 86 2b 3d
       0.014299073 0.028585086 0.023884531 0.04187621
000300 36 80 01 bd 7f 2a 90 bd 2b f4 e3 bb 28 1b db 3a
       -0.031616412 -0.070393555 -0.0069565973 0.0016716467
000310 64 8a 26 bd bb b7 49 bc 44 79 7f bc 27 cf af 3d
       -0.040659323 -0.012311871 -0.015592877 0.08584433
000320 2c 5a 06 bd 33 d0 45 bd 34 31 9e bd 8c b0 a5 3d
       -0.03280084 -0.048294257 -0.077242285 0.08090314
000330 3a 39 6b bd 3a 58 43 bd fb b4 31 bd d0 e6 11 bd
       -0.057427622 -0.04769156 -0.043385487 -0.03562051
000340 00 d8 a8 3c 8a 3b 61 bc e5 ed 9e 3d 76 9e 97 3d
       0.02061081 -0.013747105 0.077602185 0.07403271
000350 88 99 ba bd 53 0a 7f 3c b5 56 d3 bc 0c 70 08 bd
       -0.09111315 0.015566426 -0.025798181 -0.03330998
000360 f6 a8 24 bd b4 29 17 bd 14 ac 1c bd d2 13 cd bd
       -0.040200196 -0.036905006 -0.038250044 -0.10013546
000370 91 5d c5 3d 58 98 90 3d 1d 9b 32 3d 1d 73 98 3d
       0.09636987 0.07060307 0.04360496 0.07443831
000380 8d 14 8e bd de 22 ab bd 3c da a5 bd 4c e3 9f 3d
       -0.069375135 -0.0835626 -0.080982655 0.07807025
000390 8d be 45 3d c5 ab 62 bd 19 78 92 3c a7 4a 9b 3b
       0.048277427 -0.055339593 0.017879533 0.004739124
0003a0 5b 08 97 3c cf 00 57 3d 20 e7 b2 3d 42 4a 0b 3c
       0.018436601 0.052491006 0.0873549 0.008501591
0003b0 73 fa b5 3d 3f d5 75 bd 0d df 40 bd 44 65 51 3d
       0.0888566 -0.06001782 -0.047087718 0.051121965
0003c0 1a 1e b7 3d 48 71 5c 3d 5d 17 1d 3d 74 c0 50 bd
       0.08941288 0.05381897 0.03835236 -0.050964788
0003d0 a5 3f 97 bd 89 57 8e 3d 45 8e 8a bd 3a 09 bd bc
       -0.07385186 0.0695029 -0.06765417 -0.023075689
0003e0 e8 bc b2 bc eb 1b 0d 3a 1a f3 7b 3d 41 9a e0 bb
       -0.021818593 0.0005382883 0.061511137 -0.006854326
0003f0 9e 92 be 3c 78 9f 9f bc 19 1b b4 3d 88 3d 9c 3d
       0.023263272 -0.01948522 0.08794231 0.07628924

rnn.weight_ih_l1 f4 [512, 128]
000000 d1 74 12 3d 8a 14 28 bd b8 c2 6f bd 79 14 67 3d
       0.035755936 -0.041035213 -0.058535308 0.05641601
000010 5b 93 68 3d 15 08 7a 3d 59 7e 16 bc 3f cd a5 3b
       0.056781154 0.061042864 -0.009185397 0.0050598676
000020 d1 9d be 3c bd 84 c6 3d 78 ef a7 bd 06 64 ae bd
       0.023268612 0.096932866 -0.08199972 -0.08515172
000030 7f c1 0f bd d4 82 70 3d 0c c1 36 bd 08 64 88 bd
       -0.03509664 0.058718517 -0.044617698 -0.066597044
000040 29 b1 c3 3d cc 54 a3 bd b0 94 86 bd e2 0c a3 bc
       0.09555275 -0.07975158 -0.06571329 -0.019903604
000050 94 02 4e 3d 54 a7 ac 3b 38 e4 2a bd 86 37 c1 3d
       0.050295427 0.0052689705 -0.041721553 0.094344184
000060 59 4a 95 bd da 5c 22 3d 0d b7 93 bd 6e da 32 bd
       -0.07289571 0.03963933 -0.072126485 -0.043665342
000070 77 e8 0f 3d 4b 9a 17 3d f6 ce 6c 3d 27 04 90 bd
       0.035133805 0.03701238 0.05781456 -0.07032042
000080 7d 16 20 3d 3a 3b 29 bb ca ed 8e 3d cf eb 72 bd
       0.039083946 -0.0025822655 0.069789484 -0.059306916
000090 a9 1b cd bc 80 98 b4 bd 93 58 64 3d 59 4a 35 bd
       -0.025037603 -0.088181496 0.055748533 -0.044260357
0000a0 54 e1 d0 3c 81 91 13 bc 7f e8 c2 3d 30 8f 8b 3d
       0.02549807 -0.009006859 0.09517001 0.0681442
0000b0 d0 64 2b bd 26 10 2e bd 9b 10 e1 bc 78 cc 70 bc
       -0.04184419 -0.04249587 -0.027473738 -0.014697187
0000c0 84 28 02 3d ed c7 e3 3c 06 11 6d bd 5b ed 41 bc
       0.03177692 0.027805293 -0.057877563 -0.011836375
0000d0 35 a3 b5 3d 72 79 89 bb 2a f8 25 3d cd 43 f4 bc
       0.0886902 -0.0041953856 0.04051987 -0.029817486
0000e0 af 5e 90 3c ae 76 b5 3b 64 e3 7a bc 09 53 37 bc
       0.017623274 0.0055378294 -0.015313003 -0.011189231
0000f0 01 70 61 3d 30 71 c0 bc 32 ec 5f 3c 6e 57 9b bd
       0.055038456 -0.023491472 0.013667153 -0.07585035
000100 9e f9 9a 3b 8f 22 10 bd 99 cc c7 3d 09 c7 9e 3d
       0.0047294637 -0.035189208 0.09755821 0.07752807
000110 b9 e6 60 bd 22 d2 de 3c 89 b6 4a bd 1d b4 15 3d
       -0.054907534 0.027199809 -0.049490485 0.036548723
000120 8e 75 72 3d f0 bc c2 3d 6d f1 9b 3c 77 af fa b8
       0.05919414 0.09508693 0.01903602 -0.00011953612
000130 2a 06 e2 bc 00 2f 6f bd 37 50 53 bd 49 98 4b bc
       -0.02759083 -0.058394432 -0.05159017 -0.012426444
000140 92 ce 98 3c 83 5e ce bc d1 42 16 3d 44 c1 28 3d
       0.018653188 -0.025191551 0.036684815 0.041199937
000150 1f 89 4e bd 6e 8f 13 bd 12 bf 40 bd d8 79 d4 bc
       -0.050423738 -0.036025457 -0.04705722 -0.025937006
000160 75 35 36 bd 92 07 a3 bd c7 31 b4 3b 7f d7 a6 3d
       -0.044484574 -0.07960428 0.005499098 0.08146571
000170 2e c0 cf ba 2f 30 a2 3c 30 1a 4b 3d 11 3a b4 bd
       -0.0015850121 0.019798366 0.04958552 -0.08800138
000180 7c ca 47 3d 05 c4 37 bd ee 56 90 bb a5 75 64 bd
       0.04877709 -0.044864673 -0.004404894 -0.055776257
000190 58 fd 74 3c 31 f0 bf 3d dd 8e 83 3d 37 03 91 3d
       0.01495298 0.09371985 0.064237334 0.07080691
0001a0 d1 cf b4 bc 28 47 9e b8 cd 4d 22 bd f9 1e b3 3d
       -0.02207175 -7.547281e-05 -0.039624978 0.08746142
0001b0 75 0a 85 bd 09 d8 bb bc f7 7b 34 3d ab fb a2 3d
       -0.06496135 -0.022930162 0.044063535 0.07958158
0001c0 ee d6 8f bd ff 11 c6 3c 83 8d b2 bd 30 13 31 3d
       -0.070234165 0.024178503 -0.087183975 0.04323119
0001d0 9e d8 26 bc be a8 be bc 41 83 c8 3c 48 76 bd bd
       -0.0101834815 -0.023273822 0.02447665 -0.09251076
0001e0 1c 41 1d bc e2 fa 03 bd 16 16 36 3d 0d 2d dd 3c
       -0.009598043 -0.032221682 0.044454657 0.026999021
0001f0 e4 aa 4d 3d b0 b3 c2 bd 01 85 2b bd e0 96 14 3d
       0.050211802 -0.09506929 -0.04187489 0.036276698
000200 3c 37 21 3c c0 8a b7 bc 06 6a 57 bd 37 cf 3e 3d
       0.009839829 -0.022405028 -0.052591346 0.046584334
000210 91 92 08 3c cc 7b db 3c 2a 85 2c bd c6 9e 5f bc
       0.008335725 0.02679243 -0.042119183 -0.013648694
000220 62 07 27 3c e1 75 75 3d 7f 8e 76 3d 04 2c 46 bd
       0.010194631 0.05992687 0.06019449 -0.04838182
000230 e2 cc 55 3c 55 d5 86 bd de 62 e7 3c 3d 1b 4d bd
       0.013049336 -0.065836586 0.028245386 -0.050074805
000240 2c d9 b6 bd 98 0b 94 3d 31 ab e2 3a fc 15 15 bd
       -0.08928141 0.07228774 0.0017293451 -0.03639792
000250 27 0d 1f 3d 58 2f f4 bc 5f 98 11 3c 6d af 50 bd
       0.038830902 -0.029807732 0.008886426 -0.05094855
000260 fd 46 ed 3c 3c 8e 49 bd 0f 2b 87 3c 3d 07 26 3d
       0.028964514 -0.04920791 0.016500024 0.040534247
000270 d4 84 49 bd c8 60 5c 3c f5 be a6 bd 7a 45 a5 bd
       -0.04919894 0.013450809 -0.08141891 -0.08069892
000280 83 a4 71 3d 2a 86 c3 3d 40 40 a9 bd c2 8e 0e bd
       0.05899478 0.09547074 -0.08264208 -0.034804113
000290 78 4f 80 bc ef 54 92 3d 5b 37 85 b9 c3 bf 91 3d
       -0.015662894 0.07145106 -0.0002540898 0.07116654
0002a0 86 7e 1a bd 81 a2 17 bb 7a b2 59 3d 01 5d ed bc
       -0.03771832 -0.0023137631 0.053148724 -0.028975012
0002b0 3e a4 a4 3d 47 ad a2 3c ca d9 b9 3d 4d dc 93 bd
       0.08039139 0.019858016 0.09074743 -0.072197534
0002c0 03 b5 20 3d 82 f1 05 bd 48 a3 ad bb 03 37 52 3d
       0.039235126 -0.032701023 -0.0052990057 0.051321995
0002d0 13 84 f8 bc 0e 14 fe 3c b3 07 14 bd 3f 13 c4 bc
       -0.030336415 0.031015422 -0.036140155 -0.023934959
0002e0 aa b7 3c bc be 6e a1 3d f3 48 61 3d fd 63 85 bd
       -0.011518398 0.078824505 0.05500121 -0.06513212
0002f0 33 f0 30 3d 04 a8 da 3c 06 c5 7a bd 49 d6 81 39
       0.04319782 0.026691444 -0.061223052 0.00024764452
000300 ad 76 63 3b b4 8f df bb 0f 26 9d 3d 37 e5 99 bd
       0.0034708187 -0.0068225507 0.07673275 -0.075144224
000310 26 f3 23 bd 34 aa 91 3d 1b 10 56 3d 3c 13 34 bd
       -0.040026806 0.07112542 0.052261453 -0.043963656
000320 cc 23 13 bd f0 99 a0 bd 3a 66 0c 3d a8 de 7d 3d
       -0.03592281 -0.07841861 0.03427718 0.06197992
000330 c6 46 07 bd 7e fa 9c bd 85 f2 3a 3d cd 86 5f 3d
       -0.03302648 -0.07664965 0.04564144 0.054571915
000340 2c ae 03 3d 0a df b6 3c 93 fd 1e bc 59 09 52 bd
       0.032148525 0.02232315 -0.0097040115 -0.051278446
000350 29 31 d1 3c aa 29 d6 3c 90 e5 c0 3c 38 f7 13 3c
       0.025536137 0.026142914 0.023546964 0.0090311095
000360 dd 56 e7 bb cb 65 b3 bd 96 ae b4 3d 88 b0 82 bd
       -0.0070599155 -0.0875965 0.08822362 -0.06381327
000370 33 71 0f bc 14 9a 9b bd ce 1f 0f bd 3a 20 2a 3c
       -0.008755016 -0.075977474 -0.03494244 0.01038366
000380 4d 9a 8b bd b3 87 90 bc b5 55 b1 bd 04 b7 9f bd
       -0.0681654 -0.017642831 -0.086589254 -0.07798579
000390 b8 21 27 3c 73 02 ba 3c 7f e0 a0 bd aa 68 a0 bd
       0.01020091 0.022706246 -0.07855319 -0.07832463
0003a0 32 79 78 bd 16 9d 1f bd 67 64 1e 3d a8 87 5a 3d
       -0.060662456 -0.03896817 0.03866997 0.053352028
0003b0 1f 5f a0 bd cc 1c 95 3d 3d 98 04 3d 79 5a 5e bd
       -0.07830643 0.07280883 0.03237175 -0.0542855
0003c0 a8 6d 33 bd ac 20 84 3d 3e b3 81 3d ee 35 9c bd
       -0.04380575 0.06451544 0.06333016 -0.07627474
0003d0 2c 8e 68 bd 13 bc 48 3d 36 6e 08 bd 57 98 28 3c
       -0.05677621 0.049007487 -0.03330823 0.010290227
0003e0 89 02 f4 bc 4a 0b 9d 3d bf 6b 00 3c 0c e0 85 bd
       -0.029786365 0.07668169 0.007838189 -0.06536874
0003f0 be 04 48 bd a6 d9 92 3d 54 6d 86 3d 28 11 a0 3d
       -0.048832648 0.071704194 0.065638214 0.07815772

rnn.weight_hh_l1 f4 [512, 128]
000000 0e 84 1c 3d fa e2 93 bd 9c 3e 49 3d 93 30 05 3d
       0.038211875 -0.07221027 0.049131975 0.032517027
000010 69 7d 4a bd 3d 94 82 bd e0 64 be bd fa c1 81 3d
       -0.049436007 -0.063759305 -0.09296584 0.06335826
000020 df 15 08 3d 65 3a 90 bc 38 6f 90 3d 01 99 30 bd
       0.033223983 -0.01760597 0.07052463 -0.043114666
000030 a3 b5 11 bd 6e 83 61 3d 0e 1a 8b 3d fd b2 63 bb
       -0.035573613 0.05505698 0.06792079 -0.0034744137
000040 52 50 d8 bb 5d a6 1f bd 2f 78 a9 bc 75 b4 f2 bc
       -0.006601372 -0.038977016 -0.02068719 -0.029627064
000050 cf 9b 09 bc d2 1b bc bb d0 79 bf bd 55 d1 1d 3d
       -0.008398964 -0.005740621 -0.09349406 0.038529713
000060 d5 bb 9f 3d 70 f5 03 bd c4 d1 37 3d 1c d0 2b 3d
       0.07799498 -0.03221649 0.044877782 0.041946515
000070 0c 24 b2 bb 30 40 8f bd 12 2c 23 3d c3 9f da 3c
       -0.005436426 -0.06994665 0.03983695 0.026687508
000080 f8 90 7d bd 75 77 01 3d a9 88 58 3d ed 9c 62 bc
       -0.06190583 0.031608064 0.052864704 -0.013831359
000090 6b ec 49 bd 24 0b 8e bc 16 b9 d8 3c e0 eb 69 bc
       -0.04929773 -0.017339297 0.026455443 -0.014277428
0000a0 5e e2 8f 3d 2e 6f 6f 3d 3c 61 7f 3b d3 00 b0 3d
       0.07025598 0.05845564 0.0038967868 0.08593907
0000b0 1b 62 a5 3d de f2 e0 bc 43 c2 99 ba da bb 30 3d
       0.08075353 -0.027459558 -0.0011730868 0.0431479
0000c0 a3 49 8e 3d dc 9e 23 3c 19 48 a1 bd b7 51 97 3d
       0.06947639 0.0099866055 -0.0787508 0.07388633
0000d0 b9 79 ac 3d 03 cf 8e 3b 5c 69 ad 3d 31 9e a0 bd
       0.08421654 0.004358174 0.08467361 -0.078426726
0000e0 ad 57 e2 bc b1 5f 54 bd bc 22 fe bc 9b 10 dc bc
       -0.027629698 -0.05184907 -0.031022422 -0.026863387
0000f0 3c e0 82 3d da d1 c6 bd 10 f5 2a bd 3c bc ae 3d
       0.063904256 -0.09707995 -0.041737616 0.085319966
000100 9a 63 6f 3d b2 02 95 3d 3e ba fe bc ea 9e a0 3d
       0.058444597 0.07275905 -0.031094667 0.078428105
000110 a0 31 69 bd 81 4d d6 3c 31 47 8c 3d 12 2c b0 3d
       -0.05693209 0.026160004 0.06849516 0.08602156
000120 2f 42 52 3d 02 99 2d 3d 78 6e a2 3c 91 b0 10 3d
       0.05133265 0.042382248 0.019828066 0.035324637
000130 1d b1 4f 3d 8a 85 a2 bd c2 f4 08 3d 49 96 7b 3d
       0.050706018 -0.07935627 0.033436544 0.06142262
000140 9a 75 32 3b a6 ac 47 3c 46 df 85 bd d4 bf 10 bd
       0.002723074 0.012187159 -0.06536727 -0.03533919
000150 35 26 4c bd 22 ea 64 bd 32 b1 8c bd f1 bc 21 bd
       -0.049841125 -0.05588735 -0.06869735 -0.03948683
000160 9f 0c 16 3d 36 1f 8f 3d 0d 16 aa bc b5 dd 62 bd
       0.03663313 0.06988375 -0.020762468 -0.055387218
000170 41 d0 56 bd 5f cf 0f bd 3f c8 86 bd b8 b6 68 bd
       -0.0524447 -0.035109874 -0.06581163 -0.05681488
000180 da fa 98 3b 90 a4 17 3d 96 5e f6 3c 76 5d 17 bc
       0.0046685757 0.037022173 0.030074399 -0.009238591
000190 12 db e0 3c c9 25 83 bd 1c d8 d1 3c a9 8f a6 3d
       0.02744821 -0.06403691 0.025615744 0.0813287
0001a0 ed 59 9a 3d 8d 9d 99 bd f9 1d 92 bd cc 08 53 3d
       0.07536683 -0.075007536 -0.07134623 0.05152206
0001b0 48 81 81 3c e1 fd ba bd 6f 83 9b bc 7e 77 96 3c
       0.015808716 -0.09130455 -0.01898357 0.018367525
0001c0 93 59 97 bd 30 22 98 bc 5a 16 88 bd 13 56 43 bd
       -0.07390132 -0.01857099 -0.06644888 -0.04768951
0001d0 d9 d0 13 3d ba 4b 63 bd 19 42 5f bd b7 c6 30 bd
       0.036087845 -0.05549214 -0.054506395 -0.04315826
0001e0 f6 ae c8 bc 2c 80 90 bd 63 92 89 3c 8d f5 4b bc
       -0.02449749 -0.07055697 0.016793435 -0.012448681
0001f0 cf 91 36 bd b9 15 8d bc 05 d6 57 3d 9b 35 a0 bd
       -0.044572648 -0.017222272 0.05269434 -0.078227244
000200 60 08 b6 bb 93 60 83 3d d2 63 5a bc 8b 5b 0e bd
       -0.0055551976 0.064149044 -0.013329463 -0.03475527
000210 df 1a 89 3d 95 c9 aa 3d 8f 97 65 3d fc 38 51 3c
       0.066945784 0.0833923 0.05605274 0.012769934
000220 21 e8 80 3c 71 8f a5 3c 2b bd 1f bc d4 4a 9e 3c
       0.015735688 0.02021 -0.009749691 0.01932279
000230 f0 81 d3 3c 94 1a 80 bc b1 cf 8d bd 24 4e 7a 3c
       0.025818795 -0.015637673 -0.069243796 0.015277419
000240 71 a3 83 3c 88 a4 1a 3d 81 7b c2 3c 73 84 70 3d
       0.016069146 0.037754565 0.023740532 0.058720063
000250 b6 90 be 3c fe 33 7d 3d 46 53 90 bc c7 bc c8 bc
       0.023262363 0.06181716 -0.017617833 -0.024504079
000260 de e6 8f 3a 1b f6 58 bd e0 35 8b 3c 8b 2b c1 3b
       0.0010978838 -0.05296908 0.016993463 0.0058950833
000270 bd 32 31 3d 07 4b 85 3d 57 99 2a 3d b3 fb 47 bc
       0.04326128 0.06508451 0.041650143 -0.012206006
000280 b3 c4 fe bc 37 ce 74 3d 02 25 68 3d f7 43 9d bd
       -0.031099653 0.059766974 0.05667592 -0.07678979
000290 fc 5c a6 3c c9 85 a5 3d af 90 99 bd e5 6a 88 bc
       0.02030801 0.08082158 -0.07498299 -0.016652534
0002a0 04 6f 20 bd 25 2a 01 bd db 21 1e bc 3b e6 22 bc
       -0.039168373 -0.031534333 -0.009651626 -0.0099425865
0002b0 cd 49 3f 3d 5a 55 21 bc 2d 72 4b 3c 3c df eb 3b
       0.04670124 -0.00984701 0.012417358 0.0071982425
0002c0 7b 52 8a 3c 11 62 99 3d a5 48 12 3d be 6f b2 bd
       0.016885033 0.07489408 0.03571381 -0.087127194
0002d0 a1 f8 9a bd 09 b4 71 bc 69 28 25 bc af 92 44 3d
       -0.075669535 -0.014752396 -0.010080435 0.04799145
0002e0 da 4c cd 3c 19 84 0b 3d 92 5d 38 bd a4 2a da bc
       0.02506106 0.034061525 -0.04501111 -0.02663166
0002f0 63 47 0b bc 36 30 47 3c d9 c9 c4 bc 32 e3 54 3d
       -0.008500907 0.0121574905 -0.02402203 0.051974483
000300 81 fd 53 bb 44 50 9b 3d 29 75 97 bd 79 ae c8 3c
       -0.0032347145 0.07583669 -0.073953934 0.024497258
000310 14 24 ad 3d 10 c5 80 3c b5 d4 ff bc fa 44 a4 bd
       0.08454147 0.015718967 -0.031229356 -0.08020969
000320 7b 72 87 bd 96 0c b6 3d 04 7b 9a 3d 10 9c 72 bd
       -0.06613632 0.08889119 0.075429946 -0.059230864
000330 a8 17 59 3d 81 4e b0 bd 64 30 26 3b b8 ee 83 3d
       0.053001076 -0.086087234 0.0025358433 0.06442016
000340 cc af 8b 3d f7 de 72 bd 11 bc 10 bd e0 12 11 ba
       0.0682064 -0.059294667 -0.035335604 -0.00055341236
000350 4a ea 1e 3d 9f 51 d3 bc 79 46 8b bd 07 86 c1 bb
       0.038797654 -0.025795756 -0.06800551 -0.00590587
000360 b8 6a 98 3d 4f 84 59 3d a4 7f 81 3d 94 00 dc bb
       0.0744223 0.053104695 0.06323174 -0.006713936
000370 b2 11 7f 3d 43 44 24 3d 2c fc a2 3d bd 14 dd bc
       0.062272735 0.040104162 0.07958254 -0.026987428
000380 b4 fa 33 bd 67 ab 15 bd e3 1d c7 3d 82 f1 76 bd
       -0.04394026 -0.036540415 0.09722497 -0.060288914
000390 55 f2 4e 3d a9 da 30 3c 60 a8 2f 3d 33 0f 2c bb
       0.050524075 0.01079432 0.042885184 -0.0026254177
0003a0 b2 69 32 bd a0 7c 80 bd 84 9d 7d 3d ba 81 a5 3d
       -0.04355783 -0.0627377 0.061917797 0.08081384
0003b0 75 e2 8c 3c ff 6b 4c bd 41 a2 64 3c 1c 37 82 bd
       0.017197827 -0.04990768 0.0139547 -0.063581675
0003c0 e1 84 d3 bc da 24 30 3d 20 51 0d 3d 69 da d2 bc
       -0.025820198 0.043003894 0.034501195 -0.025738912
0003d0 f0 ca d2 3c a1 f5 ef bb 62 2b 93 bd 37 4e 96 3d
       0.025731534 -0.0073229824 -0.07186009 0.07339137
0003e0 da 0d 32 3d a3 5a 1d 3d 71 82 10 bd c8 d5 8b 3c
       0.04347024 0.038416516 -0.03528065 0.017069712
0003f0 5b 83 3f 3d df b8 a3 3c 31 33 98 bd 6d c9 42 3d
       0.04675613 0.019985614 -0.07431639 0.047555376

rnn.bias_ih_l1 f4 [512]
000000 18 c9 80 bc ee 11 c9 bc 1c dd a1 bd 93 1c 10 3d
       -0.015720889 -0.024544682 -0.079035014 0.0351835
000010 7d 57 47 3c 38 45 0c bd aa 2a 14 bd 28 19 4f 3d
       0.012166855 -0.0342457 -0.0361735 0.0505611
000020 56 24 de 3c a3 e0 89 bc 94 b6 b3 3d 42 84 b0 bb
       0.027116936 -0.016830748 0.087750584 -0.00538686
000030 c4 34 0a bc d1 b0 1f 3d 8e e1 42 bd d2 d6 27 3d
       -0.008435432 0.038986985 -0.047578387 0.040976353
000040 75 ac fc 3c 5d 6c 75 bd 56 db 8f bd fc 21 54 3d
       0.030843953 -0.059917796 -0.07024257 0.051790223
000050 2e 38 1a 3d 2c d8 6e 3d fd fc 03 bd 67 37 58 3d
       0.037651233 0.058311626 -0.03222369 0.05278721
000060 05 0d 96 3d 5f 2c db bc 66 a5 3c bd 3b a7 85 3d
       0.07326702 -0.026754556 -0.046056174 0.06526037
000070 44 8c 67 3d 2b 73 65 3c bb 93 d6 bc 91 07 85 bd
       0.056530252 0.014004509 -0.02619349 -0.06495584
000080 c8 87 3f 3c 96 73 5e 3d 9a bf 36 3d 1d 24 96 ba
       0.011690088 0.05430945 0.04461632 -0.0011454854
000090 b6 93 46 bd d8 b5 88 bd f5 34 07 bd c0 ee 0f bb
       -0.048480712 -0.06675309 -0.033009488 -0.0021962374
0000a0 bd 46 77 bc 76 3e 9c 3d 36 6d c0 3c a3 be 87 bd
       -0.015092549 0.07629101 0.023489576 -0.06628158
0000b0 6f 2d ae 3d af 46 7f 3d b0 4a 41 bd 3d e2 95 bd
       0.085047595 0.06232327 -0.04719037 -0.07318542
0000c0 72 4a 5f bd 0d 65 74 3d ec 44 16 bd 25 73 a7 3d
       -0.054514356 0.059666682 -0.036686823 0.08176259
0000d0 de 14 d2 3b 68 a0 4c ba 42 4c a4 3d bd f4 e5 3c
       0.006411179 -0.0007805885 0.080223575 0.028070802
0000e0 45 6f 89 3d 79 f4 77 bd 70 5e 10 3c 37 be 1e bd
       0.06710676 -0.06053588 0.008811578 -0.03875562
0000f0 b4 71 7d 3c 67 dc 96 3d 37 90 5a bd 34 9d 91 bc
       0.0154690035 0.07366257 -0.05336019 -0.017775156
000100 f5 0d 85 bb 75 6e 61 bd 93 28 70 bd 55 62 0c bd
       -0.0040605017 -0.05503698 -0.058632445 -0.034273464
000110 88 79 a0 3d 67 16 11 bd 34 e5 a0 3d 3f b4 a4 bd
       0.0783568 -0.035421755 0.07856217 -0.08042192
000120 f6 40 4b bd 07 d8 95 bc e3 a4 a7 3d a2 c9 03 bd
       -0.0496225 -0.018291486 0.081857465 -0.032174714
000130 da ba 17 3d 89 35 84 3d 36 30 1a 3d bb ae fb bc
       0.03704343 0.064555235 0.037643634 -0.030722966
000140 04 9d 8a bd fe 70 12 bd 0f 33 8a bd 80 e8 92 3c
       -0.067682296 -0.03575229 -0.0674802 0.01793313
000150 ca 25 88 3d dc 3a 14 3d ab f8 87 bc be ee 66 bb
       0.06647833 0.036188945 -0.016598066 -0.0035237516
000160 de 14 07 bd cf 08 7d 3c f5 2c be bd a8 84 62 bc
       -0.032978885 0.015443995 -0.092859186 -0.013825573
000170 c6 1f d8 3c 45 69 6e bd 66 97 a4 3d 34 75 b0 3d
       0.026382338 -0.05820586 0.080366895 0.08616105
000180 1d e3 04 3d a5 93 96 bd a5 46 9c 3d 83 4c 82 3d
       0.032443155 -0.0735238 0.07630662 0.0636225
000190 21 9a 7a 3d 64 3f b6 3d 3d 70 5e 3c 9b 2f a0 3d
       0.061182145 0.088988096 0.013576564 0.0782158
0001a0 1c b4 87 3d 37 84 a2 bd 7a f2 60 3d 80 ea 3e bd
       0.0662615 -0.07935374 0.054918744 -0.046610355
0001b0 f0 c2 b0 bd f1 80 88 3d 1f 75 36 3c c2 b3 14 bd
       -0.086309314 0.066652186 0.011136322 -0.036304243
0001c0 e7 1d 35 3b c9 ed 9d bc 30 aa 1d bd 25 07 71 bd
       0.0027636231 -0.019278424 -0.03849238 -0.058844704
0001d0 84 8b 7e bd a4 69 f5 3c ce 28 04 3d fb 9e 9d 3d
       -0.06214477 0.0299576 0.032265477 0.07696339
0001e0 61 99 43 3d bf 11 1e 3d 13 e2 c9 bb 3c b2 50 3d
       0.047753695 0.038591143 -0.0061609834 0.050951228
0001f0 44 f3 8f 3d e9 25 8a bd ab 12 43 bd c0 aa 81 bd
       0.07028821 -0.06745512 -0.047625225 -0.06331396
000200 2a aa 8d bd 87 5c 7d 3c 6b 79 9b 3c 20 d3 94 bd
       -0.06917222 0.015463955 0.018978795 -0.072668314
000210 6f ee 4f 3b c6 d5 15 3d 20 4d 7e bd 1d 64 95 bc
       0.003172781 0.036580823 -0.06208527 -0.018236214
000220 f0 3d cb 3b f6 2f d1 bd 7c aa 5e 3d 7b 5e 43 3b
       0.006202452 -0.10214226 0.054361805 0.0029810953
000230 b3 43 87 3d ea bf ad 3d 46 ad 2a 3d 11 98 01 3d
       0.066047095 0.0848387 0.041669153 0.031639162
000240 60 6d 24 bd 7d af 79 3d 1f 0c a2 bc a2 2d 9a 3d
       -0.04014337 0.060958374 -0.01978117 0.07528235
000250 51 f4 48 bd 7b 20 9f 3c a9 a8 b8 3d 6e 5f 01 3c
       -0.049061123 0.019424668 0.09016544 0.007896287
000260 fa 1a 27 bc 5a ea e4 3c a5 5c c5 3c 06 4c b0 bd
       -0.010199303 0.027943779 0.024092028 -0.0860825
000270 92 13 2d bc 1e 0b ac 3c 39 18 11 3d 4f 8a eb bc
       -0.010563748 0.021001395 0.03542349 -0.028752474
000280 a6 cf b9 bb ec ca d5 bc 12 d1 84 bc 97 8a 05 3d
       -0.0056705056 -0.026097737 -0.016212974 0.032602873
000290 1a 31 13 3c 20 38 cf bc de 9e 88 bd fa e5 7d 3d
       0.008983875 -0.025295317 -0.066709265 0.0619869
0002a0 c5 88 3a 3d a5 3a 0d 3d 6a cd 8a bc ba 2a 6e bd
       0.04554059 0.034479756 -0.016943652 -0.058146216
0002b0 a4 d7 d5 3c 67 b3 22 3d 41 c7 d3 3c 86 58 88 3d
       0.026103802 0.039721873 0.025851848 0.066575095
0002c0 39 eb 67 3d 12 76 ad 3d 8a d3 0e bc 18 62 84 bc
       0.05662081 0.08469786 -0.008717427 -0.016160056
0002d0 e2 0a 57 bc 43 f0 21 3d f8 20 5d 3c 87 05 5d bc
       -0.013125153 0.039535772 0.01349663 -0.013490087
0002e0 1b 53 97 3d cd 15 90 bd d1 ee 78 bd 06 c7 13 bd
       0.07388898 -0.07035408 -0.060774628 -0.036078475
0002f0 3c 24 25 3d a8 56 88 3c 3f bb 82 3c 3e ba fe 3c
       0.04031776 0.016642883 0.015958427 0.031094667
000300 a9 4d 84 3d fb 34 c9 3c 31 64 4a bc fe bc a8 3d
       0.06460125 0.024561396 -0.012352989 0.082391724
000310 43 9c 48 bd f4 7a f8 3c 17 68 a6 bd d5 03 5c 3d
       -0.048977148 0.030332066 -0.08125322 0.053714592
000320 22 55 b0 bc de cd 21 3c 48 ec 80 bc 36 59 c8 bc
       -0.02152497 0.009875743 -0.015737668 -0.024456602
000330 97 ef 71 3d 75 d4 1a 3d cf 22 cd 3d cc 69 8a 3c
       0.05906638 0.03780027 0.10016405 0.016896151
000340 32 cc b8 b9 08 98 c5 bd f8 63 9e 39 e7 ad ab bc
       -0.00035247352 -0.09648138 0.0003021059 -0.020956947
000350 48 c6 8c bc 3c 41 81 3d 88 fd 81 bc d7 07 fe 3c
       -0.017184392 0.063112706 -0.015867963 0.031009598
000360 12 00 d9 bc 8e bd 98 3d e3 8b 4f bd cf ad 9e 3d
       -0.026489291 0.0745803 -0.050670516 0.07747995
000370 f1 49 52 3d da 36 45 bb e2 d6 3b 3d 12 f5 c7 bc
       0.051340047 -0.0030092509 0.045859225 -0.02440885
000380 d6 8e 86 bc e4 7c 56 3d bd f0 16 bd 1f e6 93 3d
       -0.016425531 0.0523652 -0.03685068 0.072216265
000390 a6 aa a3 bd 3b 4f 41 bd 4b 81 83 3d 3d 9a c1 3d
       -0.07991533 -0.0471947 0.06421145 0.09453247
0003a0 27 09 a3 bb 84 d1 e6 bc b9 49 92 bd 18 fc 98 bc
       -0.0049754563 -0.028176077 -0.07142968 -0.018674895
0003b0 59 62 b9 bd 4d e4 a5 3d e7 3a fd 3b 75 d4 5c bd
       -0.090519615 0.081001855 0.007727969 -0.053913552
0003c0 d8 2a 77 3b 6f 32 67 3b 53 12 a3 3d e3 c5 03 3d
       0.0037714746 0.0035277863 0.079624794 0.03217114
0003d0 cf 1f 7c bb f3 e5 1e bd 88 78 19 3d a4 75 7e 3d
       -0.0038471108 -0.038793515 0.037468463 0.06212391
0003e0 7b cd f1 3c 29 29 fd 3c 9a 2c d0 bc 38 49 94 bd
       0.029516926 0.030903416 -0.025411893 -0.07240528
0003f0 5b e4 99 3d 18 87 87 3d 82 f1 5c 3d 87 f8 91 3d
       0.075142585 0.06617564 0.053941257 0.07127481
